models/r2_score0.43957498262456735_run5/data/model.pth (torch, 294728 bytes, 13 tensors)

weight f4 [64, 801]
0	0xbe7515de	-0.23934123
1	0x3e7817b9	0.242278
2	0x3d65d3b3	0.056110095
3	0xbe164996	-0.14676508
4	0xbc0718ce	-0.00824566
5	0xbcb369c3	-0.021901017
6	0x3d07503c	0.0330355
7	0xbcd8da6e	-0.026471343
8	0xbdfffa5a	-0.12498923
9	0xbe11c129	-0.14233841
10	0xbc34c8ce	-0.011034204
11	0x3db41934	0.087938696
12	0xbd5a99e6	-0.053369425
13	0x3e221adf	0.15830563
14	0xbd3a0903	-0.04541875
15	0x3e215ce1	0.15758087
16	0x3da08315	0.07837502
17	0x3d8fa084	0.07013038
18	0x3e2a4065	0.16626127
19	0x3e08fa00	0.13376617
20	0x3cf79e4b	0.030226847
21	0xbd0c3134	-0.03422661
22	0xbc8dd8c7	-0.017315282
23	0x3cdeb9a7	0.027188135
24	0xbe232a13	-0.15934019
25	0xbe1e2d11	-0.15446879
26	0x3cd35d4e	0.025801327
27	0xbdaa4f46	-0.083159015
28	0xbd8774d6	-0.066140816
29	0xbda2c774	-0.07948199
30	0x3dc82de6	0.097743794
31	0xbcd8ffab	-0.0264891
32	0xbbde85a5	-0.006790834
33	0x3d972aa8	0.07381183
34	0x3d980298	0.0742237
35	0xbea779b9	-0.32710055
36	0x3d9681eb	0.07348999
37	0xbda0f8f6	-0.078599855
38	0x3d09ac8e	0.033611827
39	0xbdd51c96	-0.10405843
40	0xbd2cf41a	-0.04222498
41	0xbda83235	-0.08212701
42	0x3e28e944	0.16495234
43	0x3e40c8ae	0.18826553
44	0xbe4d8b6a	-0.20072713
45	0x3d21903f	0.039444204
46	0xbe3377de	-0.17526194
47	0x3e065561	0.13118507
48	0x3e09050d	0.13380833
49	0x3e5c6b5d	0.21525331
50	0xbcb1553f	-0.021647094
51	0xbdcdcad9	-0.10048456
52	0x3dc563de	0.09638189
53	0x3de1aa66	0.11018829
54	0xbe664c52	-0.22490051
55	0xbd9f4240	-0.07776308
56	0x3e17d747	0.14828216
57	0x3d55343e	0.052051775
58	0xbd0e1b98	-0.034694284
59	0x3b7c33d8	0.003848305
60	0xbdf20578	-0.11817449
61	0x3e0710d7	0.13190018
62	0xbe6f2b4f	-0.23356365
63	0x3dfac082	0.12243749
64	0xbb9e778b	-0.004836028
65	0x3cfb95f1	0.030711146
66	0x3dcb423f	0.09924745
67	0xbe3fc747	-0.18728362
68	0x3cb9da76	0.022687178
69	0xbe253a53	-0.1613553
70	0xbbfcab76	-0.0077108694
71	0xbe1444c0	-0.14479351
72	0xbd0a2202	-0.03372384
73	0xbd23773e	-0.03990864
74	0x3d6b5d0c	0.057461783
75	0x3ca888ce	0.020573046
76	0x3d9a2e0b	0.07528313
77	0x3d258d56	0.04041799
78	0x3e42afa5	0.19012316
79	0x3e01ad01	0.12663652
80	0xbe1c1f38	-0.15246284
81	0xbdaf3358	-0.08554715
82	0xbe08bb26	-0.13352641
83	0xbdc4aebe	-0.09603642
84	0x3e70d2ee	0.23517963
85	0x3da99637	0.08280604
86	0x3dfecc42	0.12441303
87	0xbe042ba9	-0.1290728
88	0x3caea2f8	0.021317944
89	0x3d38a41e	0.04507839
90	0xbd9f07af	-0.077651374
91	0xbdf6c569	-0.12049372
92	0xbd01ef05	-0.031722087
93	0x3d25f3f6	0.040515862
94	0x3d9dce84	0.07705405
95	0xbd14bb2e	-0.03631132
96	0xbe22ceb3	-0.15899162
97	0xbc4f5ce6	-0.012656426
98	0x3e43acc1	0.19108869
99	0xbdcfd126	-0.10147314
100	0xbd037250	-0.03209144
101	0x3e47d09c	0.19513172
102	0x3d8a3e18	0.06750125
103	0x3b7c48ca	0.0038495534
104	0x3df3246c	0.11872181
105	0x3db62651	0.08894027
106	0xbb60ca84	-0.0034300396
107	0x3ec3e43c	0.38260067
108	0x3a2ac3c5	0.0006514157
109	0x3d631189	0.055436645
110	0xbd007572	-0.031362005
111	0x3d2c4c31	0.04206485
112	0x3dc7f655	0.09763781
113	0x3d827971	0.06370819
114	0x3e2c847e	0.16847417
115	0xbcad1077	-0.021126015
116	0xbd40b630	-0.047048748
117	0xbb3cdf74	-0.0028819712
118	0x3ccfea4b	0.025380274
119	0x3db7a6ef	0.08967387
120	0x3bcc3255	0.006231586
121	0xbdfa1371	-0.122107394
122	0x3e2438f1	0.16037346
123	0xbe10602e	-0.1409919
124	0x3d3227fb	0.04349516
125	0xbe4a52b0	-0.19758105
126	0x3c96c078	0.018402323
127	0x3d80769b	0.06272622
128	0x3d0c6d8c	0.03428416
129	0x3d924f69	0.071440525
130	0xbdfeb8da	-0.124376014
131	0x3dca0564	0.098643094
132	0xbd9addb9	-0.075618215
133	0x3e2ea483	0.17054944
134	0x3d81599e	0.06315921
135	0xbdfc7046	-0.12326102
136	0xbe10b6dd	-0.14132257
137	0xbe2fe6a8	-0.17177832
138	0xbc8e07c4	-0.017337687
139	0x3dd41018	0.10354632
140	0x3e09bb39	0.13450326
141	0xbda0c2f7	-0.078496866
142	0x3df5809a	0.119874194
143	0xbdf0ff96	-0.11767499
144	0xbcb8cb1e	-0.022557791
145	0xbdb9859b	-0.09058686
146	0x3cb6276c	0.022235595
147	0x3c0cdfd4	0.008598287
148	0xbdc63a4b	-0.09679087
149	0xbdf538df	-0.11973738
150	0x3d88ff8a	0.06689365
151	0xbde637ff	-0.11241149
152	0x3c3220a4	0.01087204
153	0x3eb0b8a2	0.34515864
154	0xbd27f431	-0.041004363
155	0x3e10ca13	0.14139585
156	0x3e090f3f	0.13384722
157	0xbdd0e334	-0.101995856
158	0x3dcafa9d	0.09911082
159	0xbe1fcf84	-0.15606505
160	0x3db1a62d	0.08674274
161	0x3dd61bc4	0.104545146
162	0xbc8150d1	-0.015785607
163	0x3e0feb7a	0.14054671
164	0xbd599fe3	-0.053130995
165	0x3dded88f	0.10881149
166	0xbd3b0a95	-0.04566439
167	0x3d88f038	0.06686443
168	0xbde968a6	-0.11396913
169	0x3e6a7eb0	0.2289989
170	0xbd983583	-0.074320816
171	0x3d10a8cf	0.03531724
172	0xbbd6e63f	-0.006558209
173	0x3b8ebb4a	0.0043558227
174	0xbe05b650	-0.13057828
175	0xbca695ec	-0.02033516
176	0x3e07b880	0.13253975
177	0x3e564a54	0.20926791
178	0xbb5913df	-0.0033123416
179	0x3c68ac2c	0.014201205
180	0x3d6152d4	0.05501063
181	0xbcbc475c	-0.022983246
182	0x3aed6ed7	0.0018114698
183	0xbbd4566b	-0.0064800284
184	0xbcb2d0fe	-0.02182817
185	0xbe7bfa0d	-0.24607106
186	0x3e17e57e	0.14833638
187	0x3d91ea06	0.071247146
188	0xbd45f2e0	-0.048327327
189	0xbdd7b8f6	-0.105333254
190	0x3dc44a01	0.095844276
191	0xbe366cc2	-0.17814925
192	0x3c0b5fe5	0.00850675
193	0x3e005888	0.12533772
194	0xbd6ce98c	-0.057839915
195	0xbe20d527	-0.15706311
196	0x3ab6c966	0.001394552
197	0x3e695576	0.22786507
198	0xbdb96983	-0.09053328
199	0xbda8176d	-0.08207593
200	0xbd29c518	-0.04144773
201	0x3d9407dd	0.07228062
202	0xbb31b441	-0.0027115496
203	0x3df51be2	0.11968209
204	0x3ebc2fc6	0.36755198
205	0x3c4c8c5b	0.012484635
206	0x3cd8f7fb	0.026485434
207	0xbd054a77	-0.03254172
208	0x3d200c8c	0.039074466
209	0x3e92ae53	0.28648624
210	0xbd670286	-0.05639889
211	0xbc6a4c75	-0.014300455
212	0x3ddd6873	0.10810938
213	0x3d6014b1	0.054707233
214	0xbe3dedfc	-0.18547815
215	0xbe1c7e58	-0.15282571
216	0x3da8a3d3	0.08234372
217	0xbda4cfd3	-0.08047452
218	0x3d0f8c68	0.03504601
219	0xbd1fc91e	-0.03901016
220	0x3d1c901a	0.038223363
221	0xbd9ec821	-0.07753015
222	0xbd7526ea	-0.059851564
223	0x3e402cb9	0.1876706
224	0xbda75152	-0.081698075
225	0xbde65484	-0.11246589
226	0x3d30fae2	0.04320801
227	0xbd4bfa57	-0.04979929
228	0x3e523e28	0.20531523
229	0x3da6ef31	0.08151091
230	0xbcbe32e7	-0.023217632
231	0x3d97a590	0.074046254
232	0xbe1e3161	-0.15448524
233	0x3e083b36	0.13303837
234	0x3bce5e07	0.00629783
235	0x3cc700a7	0.024292303
236	0x3dbfbfe2	0.093627706
237	0x3dd9b45a	0.106301025
238	0x3c313d33	0.010817814
239	0xbdb0df9c	-0.086364
240	0x3d56828e	0.0523706
241	0x3dcf2941	0.101152904
242	0xbe87e00e	-0.26538128
243	0xbdce4001	-0.100708015
244	0x3e24b702	0.16085437
245	0x3dad52c7	0.08463054
246	0xbd4a8eb2	-0.04945249
247	0xbd3f2902	-0.046669967
248	0xbd106b4c	-0.035258576
249	0x3d062186	0.032746814
250	0x3b4e4322	0.003147312
251	0x3cf6541a	0.0300694
252	0x3e1b4469	0.15162815
253	0x3e267cb7	0.16258512
254	0x3e0e8f3b	0.13921826
255	0xbe279da7	-0.16368733

bias f4 [64]
0	0x3cc5f2c8	0.024163619
1	0x3cf64ad6	0.030064981
2	0xbd734511	-0.05939204
3	0xbce01cd9	-0.027357506
4	0xbcb9510e	-0.022621658
5	0xbc68bd9b	-0.014205362
6	0xbc41ddea	-0.011832694
7	0x3c97b526	0.018518995
8	0x3cda56f0	0.026652783
9	0xbc7b10b0	-0.015323803
10	0x3d337c85	0.043819923
11	0x3a82fe4b	0.0009993998
12	0xbd441fd1	-0.047881905
13	0xbc028b87	-0.007967836
14	0x3d5d4ad4	0.05402644
15	0x3c6407f2	0.01391791
16	0x3d3bf791	0.045890395
17	0x3d7132b8	0.05888626
18	0x3d428cb5	0.04749747
19	0xbd8019ce	-0.06254922
20	0x3c1c38e3	0.009535047
21	0x3cd09c31	0.025465103
22	0xbd25ba1f	-0.040460702
23	0xbd00d2be	-0.03145098
24	0xbc1e96f6	-0.009679547
25	0xbd26871d	-0.040656198
26	0xbd4834e4	-0.048878565
27	0xbbbd59e6	-0.005778539
28	0xbc3294ed	-0.0108997645
29	0xbc78d233	-0.015186834
30	0xbc5f2745	-0.013620202
31	0xbba36e52	-0.0049875164
32	0xbb5c2884	-0.0033593485
33	0x3be75388	0.0070595182
34	0xbd74e895	-0.05979212
35	0x3c368c79	0.01114189
36	0xbd3864f2	-0.045018144
37	0xbc19ab34	-0.009379197
38	0xbd692c5c	-0.05692707
39	0xbc09d52b	-0.00841264
40	0xbdd1d4c3	-0.10245659
41	0xbc6d058d	-0.014466655
42	0xbd2b1877	-0.04177138
43	0xbc3c8bbb	-0.011507924
44	0xbc9a8ba0	-0.018865407
45	0x3c8c5a5f	0.017132936
46	0xbd9339cd	-0.07188759
47	0xbc00f2f1	-0.007870422
48	0xbc0ce968	-0.00860057
49	0xbd625817	-0.05525979
50	0xbd2c86c2	-0.042120703
51	0xbb13e05b	-0.0022564146
52	0x3b898299	0.0041964767
53	0x3c941cab	0.018080076
54	0xbcd04629	-0.02542408
55	0xbc69f970	-0.014280662
56	0x39db678e	0.0004184809
57	0x3d2cdf31	0.04220504
58	0x3c98969f	0.01862651
59	0x3ac56394	0.0015059584
60	0xbba3e090	-0.005001135
61	0xbcc6648c	-0.024217866
62	0x3d12b2e3	0.03581513
63	0xbac05a2f	-0.0014675314

weight f4 [64, 64]
0	0x3d265ece	0.040617757
1	0x3e883177	0.2660024
2	0xbd4e07e2	-0.050300486
3	0x3d0c3fa4	0.03424038
4	0x3d691349	0.056903157
5	0xbe59ed68	-0.2128197
6	0xbc1b78e2	-0.00948927
7	0xbd80c83b	-0.06288191
8	0x3e4c8191	0.199713
9	0xbd4cf79d	-0.05004083
10	0x3b8fe89f	0.0043917443
11	0x3cb83062	0.022484008
12	0x3c976c1b	0.018484166
13	0xbb2c4c40	-0.0026290566
14	0x3e7ba5a9	0.24574913
15	0x3e886927	0.26642725
16	0xbe20cbec	-0.1570279
17	0x3cce62d7	0.025193615
18	0x3e23611b	0.15955012
19	0xbbad06ba	-0.005280343
20	0xbb342303	-0.002748669
21	0xbd7511f4	-0.059831575
22	0x3c276c40	0.01021868
23	0xbcd828f8	-0.026386723
24	0x3d05ad99	0.03263626
25	0xbd5ece5b	-0.054396015
26	0xbdad4122	-0.08459689
27	0xbc0a8260	-0.008453935
28	0x3d4935a4	0.04912342
29	0xbd9e2624	-0.077221185
30	0x3de4553a	0.11149068
31	0x3d16f296	0.03685244
32	0xbe2bd76f	-0.167814
33	0x3e10ad20	0.14128542
34	0xbdc0f5c3	-0.09421875
35	0x3d88202c	0.06646761
36	0xbd7a255e	-0.061070792
37	0xbddfbb91	-0.10924447
38	0x3e63a34b	0.2223026
39	0xbd6197a2	-0.05507625
40	0x3d1a2ddd	0.037641395
41	0x3ec0dfcc	0.37670743
42	0xbbcc3030	-0.0062313303
43	0xbb808e2f	-0.0039231996
44	0x3e0908a1	0.13382198
45	0xbe0ab6af	-0.13546251
46	0x3e05d88c	0.13070887
47	0xbd87d684	-0.066327125
48	0xbd74ed80	-0.05979681
49	0xbe09ce65	-0.1345764
50	0x3d65779c	0.05602227
51	0x3de327e4	0.11091593
52	0xbd1a2f24	-0.037642613
53	0xbd2ccdc0	-0.042188406
54	0x3da410e4	0.08011034
55	0xbd0eb6b0	-0.034842193
56	0x3e11849a	0.1421074
57	0x3dfecfba	0.124419644
58	0x3e2297a9	0.15878166
59	0x3dbc5d2a	0.09197457
60	0x3b1881b3	0.0023270666
61	0x3dd1805e	0.10229562
62	0xbe0e8920	-0.13919497
63	0x3ded799a	0.11595459
64	0xbc8a6ede	-0.016898569
65	0x3df3faa9	0.11913044
66	0x3d10bc8f	0.035336073
67	0xbde867d7	-0.11347931
68	0x3d1e70a5	0.038681645
69	0xbdb0882d	-0.086197235
70	0xbd535296	-0.051592432
71	0xbd18a54d	-0.037267018
72	0x3e5a2236	0.21302113
73	0xbd481443	-0.048847448
74	0x3d03b0b4	0.03215094
75	0x3dc1592d	0.09440837
76	0xbc6ae26f	-0.014336213
77	0xbd1c1b54	-0.038112
78	0x3eebd837	0.46063396
79	0x3e87cba3	0.2652255
80	0xbd030611	-0.031988207
81	0xbca1a3f0	-0.019731492
82	0x3d8fe614	0.07026306
83	0x3e0a959d	0.13533635
84	0x3ed34ebe	0.41271013
85	0xbda1d1c8	-0.07901341
86	0xbde53b50	-0.111929536
87	0xbd64790c	-0.0557795
88	0xbc83cf33	-0.016090011
89	0x39b32b8d	0.00034173988
90	0x3dfc59f6	0.12321846
91	0x3d85c4f1	0.06531704
92	0x3c53d1b0	0.012928411
93	0xbe1a4475	-0.15065177
94	0x3c4ac740	0.012376606
95	0xbcb0d0d0	-0.021583945
96	0x3ce8eca8	0.028433159
97	0x3e2132fb	0.15742104
98	0xbd6f0f58	-0.058364242
99	0x3d0c1800	0.034202576
100	0xbc71738c	-0.014737021
101	0x3dc3486e	0.09535299
102	0xbdb0a3e6	-0.08625011
103	0xbd9cc188	-0.07654101
104	0xbc51534b	-0.012776206
105	0x3e137bdc	0.14402717
106	0x3af48510	0.0018655378
107	0xbe1958a5	-0.14975221
108	0xbd2a3b36	-0.041560374
109	0x3d722963	0.0591215
110	0x3d72fd88	0.059323817
111	0xbcdb3448	-0.026758328
112	0xbcfd18c8	-0.030895606
113	0xbbfed6d3	-0.007777074
114	0xbdaef7b4	-0.08543339
115	0xbc886bf8	-0.016653046
116	0xbd5ea5c3	-0.0543573
117	0x3dc68ad6	0.096944496
118	0xbbdd1380	-0.0067467093
119	0xbd39495a	-0.04523597
120	0x3dcdf542	0.10056545
121	0x3df4dcae	0.11956154
122	0x3e44c98c	0.19217509
123	0x3ed10769	0.40825966
124	0xbdb8a0e6	-0.09015064
125	0xbb14b7cf	-0.0022692566
126	0x3d7f4a3d	0.06232666
127	0x3d79d67c	0.060995564
128	0xbde6e42b	-0.11273988
129	0xbb688f0e	-0.0035485658
130	0xbe21b56b	-0.15791862
131	0x3d0fbc0f	0.035091456
132	0xbe00c39f	-0.12574624
133	0x3d421cee	0.04739087
134	0xbd0e4c01	-0.03474045
135	0xbe0526e7	-0.13003121
136	0x3e00e412	0.12587002
137	0xbd3640ac	-0.04449527
138	0xbdb7ffd4	-0.08984342
139	0x3c2cae8d	0.010539663
140	0x39fa46d8	0.00047736499
141	0xbd75d3f4	-0.060016587
142	0xbd151c4e	-0.036403947
143	0x3d96b6f0	0.07359111
144	0xbd3f2f58	-0.04667601
145	0xbbeac074	-0.0071640555
146	0x3e04702b	0.12933414
147	0x3c27b38d	0.010235679
148	0x3db6a0f7	0.0891742
149	0x3c22d1d0	0.0099377185
150	0x3d410444	0.04712321
151	0x3db19910	0.086717725
152	0x3d1e8305	0.03869917
153	0xbd87ac6c	-0.06624684
154	0xbdffdf3c	-0.124937505
155	0xbbfa5ce0	-0.007640466
156	0x3d7a1758	0.06105742
157	0x3d65b00a	0.056076087
158	0x3cc9fbb0	0.024656147
159	0xbdc36e7d	-0.09542558
160	0xbd00b9e0	-0.031427264
161	0xbdd80bfb	-0.1054916
162	0x3d10a56e	0.035314016
163	0xbd24b738	-0.040213794
164	0x3d90d96d	0.07072721
165	0xbdafa59e	-0.08576511
166	0x3db46721	0.08808733
167	0x3d952011	0.07281507
168	0xbd676d4c	-0.056500718
169	0x3da578e3	0.08079698
170	0x3cc97260	0.024590671
171	0xbda1c252	-0.07898392
172	0xbca31188	-0.01990582
173	0xbdd9cc8c	-0.10634717
174	0xbd736d5f	-0.059430476
175	0xbd9335f0	-0.07188022
176	0xbded2e44	-0.1158109
177	0xbd1817e6	-0.037132166
178	0xbd45b21c	-0.04826556
179	0xbc6c52b0	-0.014424011
180	0x3d9d519e	0.07681583
181	0xbd9c39ee	-0.07628237
182	0x3db81488	0.08988291
183	0x3ddd1a44	0.107960254
184	0x3d5e4141	0.05426145
185	0xbd24fced	-0.04028027
186	0xbddb4374	-0.10706225
187	0x3e02fc0b	0.1279146
188	0xbd895ca2	-0.067071214
189	0xbcb41730	-0.021983713
190	0xbe09f59b	-0.13472597
191	0xbde50436	-0.11182444
192	0xbe6c96a6	-0.23104343
193	0xbdaaf5d6	-0.08347671
194	0xbd1352a1	-0.035967473
195	0xbdacc432	-0.08435859
196	0xbcdda218	-0.027054831
197	0x3e0d4476	0.13795647
198	0xbe2d2677	-0.16909204
199	0xbe84a22c	-0.25904977
200	0xbe0f7505	-0.14009483
201	0x3ded7cb2	0.11596049
202	0xbe1d93f4	-0.15388471
203	0xbe29d282	-0.16584209
204	0xbd94dc73	-0.0726861
205	0x3d08d0f8	0.033402413
206	0xbd5948c4	-0.05304791
207	0xbd82c5a2	-0.06385352
208	0xbe2170e5	-0.15765722
209	0xbdf54d38	-0.11977619
210	0xbd9f64df	-0.077829115
211	0x3e58fc03	0.21189885
212	0x3c5971c6	0.013271755
213	0x3dbeea7c	0.09322068
214	0xbdcf2b2f	-0.101156585
215	0x3d95dfaf	0.07318055
216	0xbdbb59d2	-0.09147991
217	0x3e241c22	0.16026357
218	0x3c19570e	0.009359134
219	0xbdc9502f	-0.09829747
220	0xbd7580d8	-0.059937328
221	0xbd57afc4	-0.052657858
222	0xbcac0002	-0.020996097
223	0xbb340b08	-0.0027472395
224	0x3e00919f	0.1255555
225	0xbe19149a	-0.14949265
226	0x3cb7c7e5	0.022434184
227	0x3d294dd2	0.04133398
228	0x3db0d08b	0.086335264
229	0xbb7b8417	-0.0038378292
230	0xbcab5523	-0.02091462
231	0xbcabf5a8	-0.020991161
232	0x3cd114ce	0.025522616
233	0x3ddbdad7	0.107351
234	0x3dc4e297	0.09613531
235	0x3c3e6526	0.011620795
236	0xbc4f8a04	-0.012667183
237	0xbb268255	-0.0025407274
238	0x3ddd6f81	0.10812283
239	0x3dfca240	0.12335634
240	0xbd8d4d0a	-0.0689946
241	0xbd4c210b	-0.0498362
242	0x3d8cb9a0	0.06871343
243	0x3db6ce86	0.0892611
244	0x3e06500d	0.13116474
245	0x3dabf97e	0.08397196
246	0x3d225238	0.03962919
247	0x3d115cbd	0.035488833
248	0xbe5da122	-0.21643499
249	0xbe091129	-0.13385452
250	0x3d9051a8	0.07046825
251	0x3c083e05	0.008315568
252	0x3be8c598	0.007103633
253	0xbb898e47	-0.004197869
254	0xbc48e2ae	-0.012261076
255	0xbde5b3f0	-0.11215961

bias f4 [64]
0	0x3e0dd531	0.13850857
1	0x3a58d435	0.00082713674
2	0xbd73aa2c	-0.05948846
3	0x3da0024c	0.07812938
4	0xbccc2ab0	-0.024922699
5	0x3bc39870	0.0059690997
6	0xbda59e92	-0.080868855
7	0x3d2aa3dc	0.041660175
8	0xbdeacb61	-0.11464573
9	0xbd125155	-0.035722096
10	0xbdcca784	-0.099928886
11	0x3a332e4b	0.00068352063
12	0xbe30cd3b	-0.17265789
13	0x3cf90e71	0.030402394
14	0xbdf98e8d	-0.121853925
15	0xbdceedb5	-0.10103933
16	0x3cdc94a4	0.026926346
17	0xbd6fd193	-0.058549475
18	0x3d272d70	0.040814817
19	0x3e0f820a	0.1401445
20	0x3db6023d	0.08887146
21	0xbe15651e	-0.14589354
22	0x3cbf373b	0.023341766
23	0x3dffafc9	0.124847
24	0xbd4d2322	-0.050082333
25	0xbd3876c3	-0.045035135
26	0xbde29537	-0.11063617
27	0xbd112c88	-0.03544286
28	0xbd5a4098	-0.053284258
29	0x3db095fb	0.086223565
30	0xbd900337	-0.07031863
31	0x3d948285	0.07251457
32	0x3d9e3e20	0.07726693
33	0x3dcd1e99	0.10015602
34	0xbd80bf98	-0.062865436
35	0x3d8af1bc	0.067843884
36	0x3e056bd1	0.1302941
37	0xbdc85b95	-0.09783093
38	0xbbdeb923	-0.0067969724
39	0xbe0ad878	-0.13559139
40	0x3cc9eaf0	0.02464816
41	0xbd2db665	-0.042410273
42	0x3c3e5a5a	0.011618221
43	0xbe1cbfc9	-0.15307535
44	0xbca5ddae	-0.020247307
45	0xbdc7b97c	-0.09752175
46	0x3d602462	0.054722197
47	0x3c560784	0.013063315
48	0x3c8750e5	0.016518066
49	0x3d845678	0.06461805
50	0x3c6305a2	0.013856323
51	0x3dcc7afc	0.09984395
52	0x3d435efd	0.04769801
53	0x3e0ed532	0.13948515
54	0xbdfa29d0	-0.12215006
55	0xbe44fee9	-0.19237866
56	0xbd3b98ec	-0.045800135
57	0x3baf8a2a	0.0053570466
58	0xbdd6f7ff	-0.1049652
59	0x3d125158	0.035722107
60	0x3e061aa1	0.13096096
61	0xbdfeea50	-0.12447035
62	0xbd879d1d	-0.06621764
63	0xbe1e0173	-0.1543024

weight f4 [64, 64]
0	0x3d7fc586	0.062444232
1	0xbdd0529b	-0.10172006
2	0xbd9e7326	-0.077368066
3	0x3e4598c1	0.19296552
4	0xbd9a39fc	-0.07530591
5	0xbdfca0a3	-0.123353265
6	0x3d022cd1	0.03178102
7	0xbcacda1c	-0.021100096
8	0x3d0177ac	0.03160827
9	0x3d8b7edb	0.06811305
10	0xbd19213c	-0.03738521
11	0xbcf66cc4	-0.03008116
12	0xbccbc272	-0.024872992
13	0x3d9b79e7	0.075916104
14	0xbcdcf1fc	-0.026970856
15	0xbda23956	-0.07921092
16	0xbd75b09c	-0.05998288
17	0x3deb627e	0.11493395
18	0xbe155a91	-0.1458533
19	0xbddabf9e	-0.10681079
20	0x3e07207e	0.13195989
21	0x3d51c321	0.05121148
22	0xbdbbd697	-0.09171789
23	0xbe890b09	-0.26766232
24	0x3dcfdcd4	0.101495415
25	0x3dcfe5c3	0.101512454
26	0xbe2736c1	-0.1632948
27	0x3dfdc967	0.1239193
28	0xbb8d9d71	-0.004321747
29	0xbe1c2ef9	-0.15252294
30	0x3d604469	0.05475274
31	0x3c3de12e	0.011589332
32	0xbcb7ba3a	-0.022427667
33	0xbd5a2efc	-0.053267464
34	0x3df1ab03	0.11800196
35	0xbdd67a9d	-0.104726054
36	0x3d753047	0.059860494
37	0xbd1c680b	-0.03818516
38	0x3d4a57f3	0.04940028
39	0x3d911321	0.07083727
40	0xbdd37f73	-0.103270434
41	0x3cb32ca1	0.021871867
42	0xbc8f022b	-0.017457088
43	0x3cc223b8	0.023698673
44	0xbe525b58	-0.20542657
45	0x3dda7fe4	0.106689245
46	0x3d95faaa	0.07323201
47	0x3d72a95b	0.05924354
48	0x3e140972	0.14456728
49	0x3d1af3bb	0.037830096
50	0xbcd93f2a	-0.026519377
51	0xbdfcec8e	-0.12349807
52	0xbe84829a	-0.2588089
53	0xbdc1bb23	-0.094595216
54	0xba325dfa	-0.0006804165
55	0x3c986908	0.01860477
56	0x3c8bdc73	0.017072892
57	0xbca2b770	-0.01986286
58	0xbd16a813	-0.03678138
59	0x3e3719d2	0.17880943
60	0xbd35f7b0	-0.044425666
61	0x3dda8ad6	0.10671012
62	0xbd90bc21	-0.07067133
63	0x3c87fa58	0.016598865
64	0x3ded229f	0.11578869
65	0x3c3107c1	0.010805071
66	0x3dca7d9a	0.09887238
67	0xbd8583cd	-0.0651928
68	0x3dc3431e	0.09534286
69	0xbd068975	-0.032845933
70	0xbe6d11b8	-0.2315129
71	0x3df2c206	0.11853413
72	0x3dfd7828	0.123764336
73	0xbd9e5840	-0.07731676
74	0x3d5e399e	0.054254167
75	0x3dd52ba4	0.104087144
76	0x3d8790d6	0.06619422
77	0x3d68ebf6	0.056865655
78	0xbd9294ae	-0.07157265
79	0x3d78a789	0.06070665
80	0xbad4398e	-0.0016191469
81	0x3d4fe6a4	0.050757065
82	0x3d07cabf	0.033152338
83	0xbdec42fd	-0.115362145
84	0xbc168962	-0.009188028
85	0xbd9bd45f	-0.07608866
86	0x3b8edbee	0.0043597138
87	0x3db3761e	0.087627634
88	0xbe083e4a	-0.13305011
89	0x3d9a771f	0.07542252
90	0x3e0e2de2	0.1388469
91	0xbe0e043d	-0.13868804
92	0xbddeffb9	-0.10888619
93	0xbe14dfdd	-0.14538522
94	0x3df61496	0.12015645
95	0x3d5568a8	0.05210176
96	0x3cc5d499	0.024149226
97	0x3df813e3	0.12113168
98	0x3d74c6ff	0.05976009
99	0x3e4bc780	0.19900322
100	0xbc07e223	-0.008293661
101	0x3de78926	0.11305456
102	0xbdda41ab	-0.106570564
103	0x3e7673ec	0.24067658
104	0xbea38312	-0.31935936
105	0xbd45e610	-0.048315108
106	0x3da12046	0.07867484
107	0x3d28e036	0.04122945
108	0xbd94b981	-0.072619446
109	0xbceb8afe	-0.0287528
110	0x3d109d60	0.035306334
111	0xbe386cb6	-0.1801022
112	0x3def597a	0.11686988
113	0x3e32b82f	0.17453073
114	0x3d180fa9	0.03712431
115	0x3da9ff08	0.083005965
116	0xbe024868	-0.12722933
117	0xbe2df007	-0.16986094
118	0x39940a00	0.0002823621
119	0x3d047ed5	0.03234752
120	0x3dc736c7	0.09727245
121	0xbd235493	-0.039875578
122	0xbd5bcba9	-0.053661022
123	0xbdde0696	-0.108411
124	0xbde423ca	-0.11139639
125	0xbd304394	-0.043033198
126	0xbcd2b060	-0.025718868
127	0xbd894e8f	-0.06704437
128	0x3daf18a3	0.08549621
129	0xbe4b75d4	-0.19869167
130	0x3d2cb53a	0.04216502
131	0xbce4a3e2	-0.027910177
132	0xbe268055	-0.16259892
133	0x3e169843	0.1470652
134	0xbe5eeb4f	-0.2176945
135	0xbe3ceb0a	-0.18449035
136	0xbdc47c55	-0.09594027
137	0xbd100ce5	-0.035168547
138	0x3def72ec	0.116918415
139	0xbcf8578d	-0.030315185
140	0x3d2974de	0.04137122
141	0xbe9effba	-0.3105448
142	0x3dbe6596	0.0929672
143	0x3d495841	0.04915643
144	0x3abfe980	0.0014641732
145	0xbdd87a8d	-0.1057025
146	0xbd6bcb58	-0.05756697
147	0x3df93625	0.121685304
148	0xbdd7a9b0	-0.10530412
149	0xbde87634	-0.113506705
150	0x3d3096e6	0.043112658
151	0xbe2d519f	-0.16925667
152	0x3dfd5906	0.123704955
153	0xbd899d50	-0.06719458
154	0x3bd8d79a	0.0066174986
155	0xbda0bb5c	-0.07848236
156	0x3d003886	0.031303905
157	0xbd798d14	-0.06092556
158	0xbdb9f7bc	-0.09080455
159	0x3ceecae0	0.029149473
160	0xbcdbfdda	-0.026854444
161	0x3db88254	0.09009233
162	0x3d0f2335	0.034945685
163	0xbd8df4b0	-0.06931436
164	0x3d40b24b	0.047045033
165	0xbe2701f9	-0.16309346
166	0xbdc78052	-0.09741272
167	0xbdcb38fc	-0.09922978
168	0xbd67e356	-0.05661329
169	0xbe05ceae	-0.13067123
170	0xbe39a8b4	-0.18130761
171	0xbdf91e2e	-0.121639594
172	0xbd28bd08	-0.0411959
173	0x3dad366f	0.08457648
174	0xbdd32fce	-0.103118524
175	0x3de6c6ee	0.112684116
176	0x3dfe46e6	0.124158666
177	0x3e04fffd	0.12988277
178	0xbdf9bf6c	-0.12194714
179	0x3da2b25a	0.07944174
180	0x3e21e084	0.15808302
181	0x3df3efed	0.119109966
182	0xbc9ccc40	-0.019140363
183	0xbd310311	-0.043215815
184	0xbc6e4853	-0.014543611
185	0x3d9ee1df	0.07757925
186	0xbdd0aeae	-0.101895675
187	0xbdb390c2	-0.08767845
188	0x3e08c46a	0.13356176
189	0xbdd44b88	-0.10365969
190	0x3e06bf62	0.13158944
191	0x3e03f0ba	0.12884799
192	0x3dbc91eb	0.09207519
193	0xbe6c88b4	-0.23099023
194	0x3e09d147	0.13458739
195	0xbc24050c	-0.010010969
196	0x3d10b737	0.035330977
197	0x3cd1aaf1	0.025594207
198	0x3dce8214	0.10083404
199	0xbe0bc7b1	-0.13650395
200	0xbdd18fa9	-0.10232479
201	0x3cef3520	0.029200137
202	0x3ba0179d	0.0048856274
203	0xbd2b1dd7	-0.041776504
204	0xbe01bf72	-0.12670687
205	0xbdd19640	-0.10233736
206	0xbac0819e	-0.0014687066
207	0xbd3371c0	-0.043809652
208	0x3dd4fc5f	0.103996985
209	0x3e079fe9	0.13244595
210	0xbd55cd45	-0.052197713
211	0xbad871db	-0.0016513424
212	0xbb08b4c4	-0.0020859698
213	0x3dbf2977	0.09334081
214	0xbd7ed5ed	-0.062215734
215	0xbca73a49	-0.020413535
216	0x3a9a3265	0.0011764286
217	0xbd05f7a1	-0.03270686
218	0xbd93389f	-0.07188534
219	0x3d973384	0.07382873
220	0x3c97cec3	0.018531209
221	0x3d9f93bc	0.0779185
222	0x3dd8b7bd	0.1058192
223	0xbd011a00	-0.031518936
224	0xbc755c6d	-0.014975649
225	0x3de3687e	0.11103915
226	0x3c8cb8bc	0.017177932
227	0xbe0bca62	-0.13651422
228	0x3d5a18fa	0.053246476
229	0xbddb29dc	-0.107013434
230	0xbe2990ae	-0.16559097
231	0x3db2d101	0.087312706
232	0x3d849159	0.06473035
233	0x3e02adae	0.12761566
234	0xbe0e7a57	-0.13913856
235	0x3d6cfec8	0.057860166
236	0x3d85a598	0.06525725
237	0xbd8adeaf	-0.06780755
238	0x3e008940	0.12552357
239	0xbdd0179b	-0.101607524
240	0xbe06558f	-0.13118576
241	0xbc796485	-0.01522172
242	0xbd2bb9a8	-0.041925102
243	0x3d2a8824	0.04163374
244	0xbdec4edb	-0.11538478
245	0x3cdaeb2b	0.026723465
246	0x3d8bb508	0.06821638
247	0xbd9dd350	-0.0770632
248	0xbdb17938	-0.08665699
249	0xbb9da442	-0.004810841
250	0xbd081b74	-0.033229306
251	0x3d40aef5	0.047041852
252	0xbd6d21b5	-0.057893474
253	0xbd4bbf2b	-0.04974286
254	0x3ce4d9d0	0.027935892
255	0xbda62d41	-0.081141

bias f4 [64]
0	0x3d2446b6	0.040106498
1	0xbdc5f617	-0.096660785
2	0xbdbac31e	-0.09119247
3	0xbcaebf60	-0.02133149
4	0x3c40f5de	0.011777369
5	0xbe11d5e9	-0.14241756
6	0xbd3d9769	-0.046286974
7	0x3d501784	0.050803676
8	0x3ba1cd5e	0.0049378118
9	0x3db0d216	0.08633821
10	0xbd39ba34	-0.045343593
11	0x3ddcf46f	0.107888095
12	0x3e25976b	0.16171043
13	0x3cb1d44a	0.021707673
14	0xbda61a9e	-0.081105456
15	0xbdab6166	-0.08368187
16	0xbd8a969d	-0.067670085
17	0xbde9b370	-0.11411178
18	0xbd35e738	-0.04440996
19	0xbc4238a6	-0.011854326
20	0x3e233e0b	0.15941636
21	0x3ddad7c0	0.10685682
22	0x3e1289a9	0.14310326
23	0x3ca15d6a	0.019697864
24	0xbbc7af8f	-0.0060939263
25	0xbd2cfaed	-0.04223149
26	0xbc767b7e	-0.015044091
27	0xbcf88614	-0.030337371
28	0x3d034aa3	0.0320536
29	0xbd9e5baf	-0.07732331
30	0x3d8a0d0e	0.06740771
31	0x3ce147b5	0.027500013
32	0x3d4f8b8d	0.050670195
33	0xbd868cfe	-0.06569861
34	0x3a25befd	0.000632271
35	0x3e233bf3	0.15940838
36	0xbe08918e	-0.13336775
37	0x3b8da551	0.0043226858
38	0xbdd291cd	-0.102817155
39	0xbcecf765	-0.02892656
40	0xbe0ac9c8	-0.13553536
41	0xbe15e810	-0.14639306
42	0x3e0a4b3c	0.13505262
43	0x3d136ad9	0.03599057
44	0x3df8e357	0.12152737
45	0x3cbdfdd4	0.023192324
46	0x3d861377	0.065466814
47	0xbcb13b1c	-0.02163463
48	0x3d937483	0.07199957
49	0xbdaea57d	-0.08527658
50	0x3cfee123	0.031113213
51	0x3d9fb605	0.07798389
52	0x3d2b835d	0.041873325
53	0x3d5a2491	0.05325753
54	0xbe22aeac	-0.15886945
55	0xbd80a9a9	-0.0628236
56	0xbdc2cbd9	-0.09511537
57	0x3d88afef	0.06674182
58	0xbdac572f	-0.084150665
59	0xbdf6eb44	-0.12056592
60	0xbda5f5d9	-0.08103532
61	0x3d9dbe03	0.077022575
62	0x3d82e980	0.06392193
63	0x3d531982	0.051537998

weight f4 [64, 64]
0	0xbce883d6	-0.028383177
1	0x3d2c7bf2	0.04211039
2	0x3d7fb85f	0.06243169
3	0xbb17d58c	-0.0023168055
4	0xbc31947d	-0.010838625
5	0x3d93d1fc	0.07217786
6	0xbc7acb6a	-0.015307287
7	0x3ca3a2bb	0.019975057
8	0x3d742d17	0.059613314
9	0xbe123b50	-0.14280438
10	0xbb79b6fb	-0.003810345
11	0xbe025b06	-0.12730035
12	0x3e1ed0bf	0.15509318
13	0xbb7517b8	-0.003739817
14	0xbcd7f10d	-0.02636006
15	0xbd46e860	-0.048561454
16	0xbc1a918f	-0.009434118
17	0x3b13e731	0.002256822
18	0xbdad634e	-0.084662065
19	0x3c864e96	0.016394895
20	0xbc18d699	-0.009328508
21	0x3e3fe85c	0.18740982
22	0x3e4fa66a	0.20278326
23	0x3cc1778c	0.023616575
24	0x3e065829	0.13119568
25	0xbd290284	-0.041262165
26	0x3e1937f8	0.14962757
27	0xbdae28f3	-0.08503904
28	0x3d92934e	0.071570024
29	0x3d5f2fb7	0.054488864
30	0xbd4f277f	-0.050574776
31	0x3cb8ba56	0.02254979
32	0x3e010707	0.12600337
33	0xbd619850	-0.055076897
34	0xbdbb9c56	-0.09160678
35	0x3da3bcde	0.07995008
36	0xbc154534	-0.009110738
37	0x3e1390b6	0.14410672
38	0x3da1ba90	0.07896912
39	0x3db6ef18	0.08932322
40	0xbe1763f6	-0.14784226
41	0xbda3c0a3	-0.07995727
42	0x3db61b3f	0.088919155
43	0x3e1ae746	0.15127286
44	0xbd1d96bc	-0.03847383
45	0x3decef23	0.11569049
46	0x3d349f15	0.044097025
47	0x3e175eb8	0.14782226
48	0x3be94089	0.007118289
49	0xbd63c330	-0.055606067
50	0x3d3ea30e	0.04654222
51	0xbdab4af5	-0.08363906
52	0x3d969de3	0.07354333
53	0x3e036eb8	0.12835205
54	0x3cb5bd35	0.022184948
55	0x3ca4a681	0.020098926
56	0xbbb57acc	-0.00553832
57	0xbdd7773a	-0.105207875
58	0xbce04618	-0.027377173
59	0xbcf38271	-0.029725285
60	0xbbebcb5c	-0.007195873
61	0x3e53e402	0.20692447
62	0x3cb70ad9	0.02234404
63	0x3d8946d3	0.06702962
64	0x3d9b3742	0.07578899
65	0x3db9c7b1	0.09071291
66	0xbd8345a0	-0.06409764
67	0xbd2dd659	-0.042440746
68	0x3dae5817	0.085128956
69	0x3da129d5	0.07869307
70	0x3c1440f6	0.009048691
71	0xbde6d5fe	-0.112712845
72	0xbdc2ef7d	-0.09518335
73	0x3d8cb91a	0.06871243
74	0x3dd537d2	0.104110375
75	0xbdea3e21	-0.114376314
76	0xbda1703f	-0.07882737
77	0xbe3ecc0f	-0.1863253
78	0x3d5d5a25	0.054041047
79	0x3db9d076	0.09072964
80	0x3e8bb898	0.2728927
81	0xbe6e9790	-0.23300004
82	0x3d74e2f8	0.059786767
83	0xbdfe0ca8	-0.12404758
84	0xbd4f8779	-0.050666306
85	0x3da42ea7	0.08016711
86	0xbe5d21b4	-0.21594888
87	0xbce09f76	-0.027419787
88	0x3dbece72	0.0931672
89	0x3e101a0e	0.14072439
90	0xbdfa26af	-0.122144096
91	0xbd15790d	-0.036492396
92	0x3d6f8bea	0.05848304
93	0x3d86b4ba	0.065774396
94	0x3d3717e7	0.04470053
95	0xbdacb3d1	-0.08432735
96	0xbd3f5cc2	-0.04671932
97	0x3dc21504	0.09476665
98	0x3d3f5d85	0.046720047
99	0xbe572fe2	-0.2101436
100	0xbd838b07	-0.06423002
101	0xbbb299b4	-0.0054504517
102	0x3de277b8	0.11057991
103	0xbdcd0cc4	-0.100122005
104	0x3d81b710	0.063337445
105	0x3e31fac4	0.17380816
106	0xbe452b6d	-0.19254847
107	0x3e34b961	0.17648841
108	0x3cb2d0ae	0.021828022
109	0xbd02d403	-0.03194047
110	0x3d1d4555	0.0383962
111	0x3d9889fd	0.07448194
112	0x3dc24ac6	0.09486918
113	0xbc958916	-0.018253844
114	0x3db68b41	0.08913279
115	0x3db95577	0.09049504
116	0xbdc3d6c0	-0.09562445
117	0xbe119d5f	-0.14220189
118	0x3dd79495	0.10526387
119	0x3dd60c96	0.10451619
120	0x3de652d9	0.11246271
121	0xbcae28e6	-0.021259736
122	0x3d327ff8	0.04357907
123	0xbc0ac13e	-0.008468924
124	0x3e094cfe	0.13408276
125	0xbdcee56d	-0.10102353
126	0xbe25f62a	-0.16207185
127	0x3d1f1538	0.038838595
128	0xbddffbb1	-0.10936678
129	0xbde8c8bc	-0.11366412
130	0x3aeb0be3	0.001793262
131	0x3d4f69b3	0.050637912
132	0xbd808210	-0.062748075
133	0xbd95cc20	-0.073143244
134	0x3d3e7bd7	0.04650482
135	0x3ca68713	0.02032808
136	0xbd40f966	-0.047112845
137	0xbdc3128b	-0.09525021
138	0x3de196b7	0.11015075
139	0xbd9678c1	-0.07347251
140	0xbd7fbfb8	-0.062438697
141	0x3dcd50a9	0.1002515
142	0x3d4fef88	0.050765544
143	0xbd2237fc	-0.039604172
144	0xbd93e090	-0.07220566
145	0x3d69be20	0.057066083
146	0x3cb35730	0.02189216
147	0x3da35c2f	0.07976567
148	0x3cd9dc0f	0.02659419
149	0xbd97c8bf	-0.07411336
150	0x3d68ec24	0.056865826
151	0xbd61fc2a	-0.055172123
152	0xbda46aa3	-0.08028152
153	0x3c6e1774	0.014531959
154	0xbd8f3cbc	-0.06994006
155	0x3d1f4bbc	0.038890585
156	0xbcdd782d	-0.027034843
157	0x3d4ebae8	0.050471216
158	0xbd539e25	-0.05166449
159	0xbd81b7b2	-0.06333865
160	0xbdab112d	-0.083528854
161	0xbd8941aa	-0.067019776
162	0x3dba4b80	0.09096432
163	0xbbf55ee3	-0.007488118
164	0xbdf120b8	-0.11773819
165	0x3cfe4011	0.031036409
166	0xbd464299	-0.048403356
167	0xbcd0d12a	-0.025490362
168	0xbe1ee1ca	-0.15515819
169	0xbdb8e771	-0.09028519
170	0x3dc7b0eb	0.09750541
171	0xbd16bb32	-0.036799617
172	0x3cfdc8ac	0.030979477
173	0x3dcbe424	0.09955624
174	0x3c329b77	0.0109013235
175	0x3c865e79	0.01640247
176	0xbda55318	-0.080724895
177	0xbd43bea2	-0.047789223
178	0xbc57d281	-0.013172747
179	0xbda86a10	-0.08223355
180	0x3c09ba8a	0.008406291
181	0x3cd1ddb6	0.025618415
182	0xbdef92f7	-0.11697953
183	0x3d716076	0.058929883
184	0xbda9c4de	-0.082895026
185	0x3d9ba1a8	0.07599193
186	0xbd9c745c	-0.07639381
187	0x3d15b92e	0.036553554
188	0x3dd4491b	0.10365506
189	0xbdc3a18f	-0.09552299
190	0x3dd09b0b	0.10185822
191	0xbd1e8427	-0.03870025
192	0xbd95f607	-0.073223166
193	0x3da8e62b	0.08247026
194	0x3d1eb3db	0.038745742
195	0x3dc9cbe2	0.09853341
196	0xbdbd2691	-0.092358716
197	0xbe06a2dc	-0.13148063
198	0xbda4ec89	-0.08052928
199	0xbd22bed2	-0.03973276
200	0x3da20c11	0.07912458
201	0xbbb720d7	-0.0055886316
202	0xbd66ec2f	-0.056377586
203	0x3dce2239	0.10065121
204	0x3ce4cd83	0.027930027
205	0xbdf0967a	-0.11747451
206	0x3d4feca5	0.05076279
207	0xbdfa0c35	-0.122093596
208	0x3db7c651	0.08973373
209	0x3c8f0888	0.017460123
210	0x3d8e69a6	0.069537446
211	0xbe0b663c	-0.13613218
212	0xbc5f6bd3	-0.013636547
213	0x3d173295	0.036913473
214	0xbd0c86b4	-0.03430815
215	0x3dd71594	0.105021626
216	0x3b3edd80	0.0029123724
217	0xbdedac5e	-0.11605142
218	0xbd87db04	-0.06633571
219	0x3d500d78	0.050794095
220	0x3c393a89	0.01130546
221	0xbbe4f647	-0.0069873664
222	0xbd324cb1	-0.04353017
223	0x3d90a362	0.07062413
224	0x3d8b9ffb	0.06817623
225	0xbe032c06	-0.12809762
226	0x3ceef587	0.029169811
227	0x3dc5c8a8	0.09657413
228	0x3dfbfafa	0.12303729
229	0x3dc35999	0.09538574
230	0x3dd89cc9	0.105767794
231	0x3c92d1d1	0.017922314
232	0xbe31511a	-0.17316094
233	0xbb447be2	-0.0029981066
234	0xbd412fe3	-0.04716481
235	0x3d824836	0.063614294
236	0xbc2c2a9c	-0.010508206
237	0xbdb236b7	-0.08701842
238	0xbd5db991	-0.054132048
239	0x3d88eb9f	0.06685566
240	0xbdee7385	-0.11643127
241	0xbd891df6	-0.06695168
242	0xbdda1889	-0.10649211
243	0xbbe1c008	-0.006889347
244	0xbdbfdfd5	-0.093688644
245	0xbdef9ded	-0.11700044
246	0xbdcd0a5e	-0.10011743
247	0xbdaaa202	-0.08331682
248	0x3ca33ed0	0.019927412
249	0xbcc9e710	-0.024646312
250	0x3d360dbd	0.044446696
251	0xbccd4405	-0.025056848
252	0x3d71090f	0.05884653
253	0xbdbff4b8	-0.09372848
254	0xbd6eda18	-0.05831346
255	0xbdc94613	-0.09827819

bias f4 [64]
0	0x3e87ae1c	0.26500022
1	0xbe17d833	-0.14828567
2	0x3da79c22	0.08184077
3	0xbc923f91	-0.017852576
4	0xbe5e8b13	-0.2173274
5	0xbdc4a98d	-0.09602652
6	0x3c0bebf4	0.008540142
7	0xbdae9af6	-0.0852565
8	0xbd248c4c	-0.04017286
9	0xbc250a36	-0.010073235
10	0xbe42374a	-0.18966404
11	0x3d8c5b9e	0.06853412
12	0x3d150ae8	0.036387354
13	0x3ce45a37	0.027875049
14	0x3ce3b314	0.027795352
15	0xbddab2c8	-0.10678631
16	0x3e59ca33	0.21268539
17	0xbe2d1d18	-0.1690563
18	0xbda94ca3	-0.082665704
19	0xbcde3306	-0.02712394
20	0xbcf899c5	-0.03034676
21	0x3d8610c4	0.065461665
22	0x3c872839	0.016498672
23	0x3d7b2039	0.061310027
24	0xbc22782e	-0.009916348
25	0xbdaf2488	-0.0855189
26	0xbe44f7eb	-0.19235198
27	0xbdbd46af	-0.092419975
28	0xbde05ce2	-0.10955216
29	0xbda382e5	-0.079839505
30	0xbd497f2f	-0.049193557
31	0xbaccdf18	-0.0015630452
32	0xbba208d0	-0.004944898
33	0x3d2c4ec0	0.04206729
34	0xbe10c132	-0.14136198
35	0x3e66448f	0.2248709
36	0xbe2262c5	-0.1585799
37	0x3d9671c3	0.07345917
38	0x3d943829	0.07237274
39	0xbc6f9810	-0.014623657
40	0xbd9a235c	-0.075262755
41	0xbd6af4c7	-0.057362344
42	0xbe031435	-0.12800677
43	0xbcc5e4c6	-0.02415694
44	0xbdb8166b	-0.08988651
45	0x3e227f07	0.1586877
46	0xbd4d598e	-0.050134234
47	0xbddd4b00	-0.10805321
48	0xbc597d52	-0.013274508
49	0xbdbf0c47	-0.093285136
50	0xbd99f866	-0.07518081
51	0xbe064a09	-0.1311418
52	0x3daef7c9	0.08543355
53	0xbdca1d44	-0.09868863
54	0x3cadf571	0.0212352
55	0xbe6011f1	-0.21881844
56	0xbd288ce3	-0.041149985
57	0xbd82cbaf	-0.06386506
58	0x3e1c21c7	0.1524726
59	0xbdd8f638	-0.105938375
60	0x3d37bfda	0.0448607
61	0x3e30a215	0.1724933
62	0x3ccbb060	0.024864376
63	0x3d06f47c	0.032948002

weight f4 [64, 64]
0	0x3e1c1f9d	0.15246435
1	0xbddd5489	-0.108071394
2	0xbdab4342	-0.08362438
3	0xbd84602f	-0.06463658
4	0xbd1fc63f	-0.03900742
5	0x3d6df9f9	0.05809972
6	0x3d4cef81	0.050033096
7	0xbd82ca6d	-0.06386266
8	0x3bb14760	0.00541012
9	0xbd0ec815	-0.03485878
10	0xbd162232	-0.036653705
11	0xbd977c38	-0.0739674
12	0x3d89f638	0.067364156
13	0x3d4d4280	0.050112247
14	0x3c9cc8b7	0.019138677
15	0x3c906c34	0.01762972
16	0x38c2c43f	9.2871946e-05
17	0x3dc980e1	0.09839035
18	0x3b8df172	0.004331761
19	0xbd15de9a	-0.036589243
20	0xbdaf07d5	-0.08546416
21	0xbd27d8d8	-0.040978283
22	0x3da1e5fc	0.07905194
23	0x3da000d2	0.078126565
24	0x3d9d3e6b	0.07677921
25	0xbde42440	-0.11139727
26	0xbde154cc	-0.11002502
27	0x3e0c99cc	0.13730544
28	0xbd3d4244	-0.046205774
29	0x3d63b754	0.055594757
30	0xbd2ab383	-0.041675102
31	0xbd764eeb	-0.060133856
32	0x3ce8a591	0.02839926
33	0x3d6503a2	0.055911668
34	0xbd4ec475	-0.050480325
35	0x3d957cbc	0.07299182
36	0x3d2e38c8	0.04253462
37	0xbd73bd98	-0.059506983
38	0x3dc80c6b	0.097679935
39	0xbdbd214d	-0.09234867
40	0x3bb0a2c0	0.005390495
41	0xbd415f92	-0.047210284
42	0xbd195cbc	-0.037441954
43	0x3d976139	0.073915906
44	0xbe03d5cc	-0.12874526
45	0xbd68d978	-0.05684802
46	0xbc2cb687	-0.010541565
47	0x3ca14f64	0.019691177
48	0x3c802776	0.015643816
49	0x3d1b9793	0.03798635
50	0x3d235d04	0.03988363
51	0x3dcbe7ef	0.09956347
52	0x3daba71f	0.08381485
53	0x3d9384b6	0.07203047
54	0xba1fdc47	-0.00060981925
55	0xbd955164	-0.07290915
56	0xbb06ca4f	-0.0020567363
57	0x39b53f6c	0.00034570263
58	0x3de3ee36	0.111294195
59	0xbd092ea8	-0.03349176
60	0x3c100758	0.008790813
61	0x3e43fdb1	0.19139744
62	0x3c86743c	0.016412847
63	0xbd582aa1	-0.05277503
64	0x3d0233f2	0.03178782
65	0x3e11a9ac	0.14224881
66	0x3d40948f	0.047016677
67	0xbcc678d3	-0.024227535
68	0x3e2f9c1b	0.17149393
69	0xbc5885b4	-0.013215471
70	0xbdfae492	-0.122506276
71	0xbd85e5ff	-0.06538009
72	0xbdd72ef9	-0.10507006
73	0xbc7fe42c	-0.015618365
74	0x3dc431af	0.09579789
75	0xbdc9bd36	-0.09850542
76	0xbc237ce5	-0.009978508
77	0xbc6248c0	-0.01381129
78	0xbbbcc053	-0.0057602315
79	0xbdaa234b	-0.08307513
80	0xbbea0a03	-0.007142307
81	0x3dc90a49	0.09816415
82	0x3d555ce3	0.052090537
83	0x3d0f4d49	0.034985814
84	0xbe0700bd	-0.13183875
85	0x3dc21be7	0.09477978
86	0xbcfb3078	-0.03066276
87	0xbdeeed1a	-0.11666317
88	0xba8e7c7f	-0.0010870843
89	0x3deaa287	0.11456781
90	0x3caff57a	0.021479357
91	0x3da6c492	0.081429616
92	0xbdace5de	-0.08442281
93	0x3d532120	0.051545262
94	0x3aa23166	0.0012374341
95	0x3d405b4c	0.046962067
96	0xbdb138dd	-0.08653424
97	0x3c7140d2	0.014724927
98	0x3cce06af	0.025149671
99	0x3dfbfffd	0.12304685
100	0x3db2b305	0.087255515
101	0xbd237968	-0.039910704
102	0x3d8a2c76	0.067467615
103	0x3c8f29dd	0.017476017
104	0xbc42b1c0	-0.011883199
105	0x3d3cf8a3	0.046135556
106	0xbd226084	-0.039642826
107	0x3dd8610b	0.105653845
108	0x3e02a18d	0.12756939
109	0xbda1aa4f	-0.07893812
110	0x3b708f87	0.0036706643
111	0xbd1a0871	-0.037605707
112	0x3c1e9ad6	0.00968047
113	0x3ad4b9ec	0.0016229725
114	0x3da7594a	0.081713274
115	0x3d602682	0.054724224
116	0xbdd0bea3	-0.10192611
117	0xbcdf0194	-0.027222432
118	0x3cb8aef1	0.022544356
119	0x3ca46d7d	0.02007174
120	0x3dacf466	0.08445053
121	0x3bc631c9	0.0060484153
122	0xbc70044d	-0.014649463
123	0x3d255609	0.040365253
124	0xbd88526b	-0.06656345
125	0xbd6e006b	-0.058105867
126	0xbd844eb8	-0.06460327
127	0xbd151872	-0.036400266
128	0x3c50a2ab	0.012734096
129	0x3d76d684	0.06026317
130	0xbcfc2622	-0.030779902
131	0x3dd73a20	0.10509133
132	0xbda6aafa	-0.0813808
133	0xbd0fa0e9	-0.035065565
134	0xbc7bcbe5	-0.015368436
135	0x3da3d33f	0.07999276
136	0x3e47c5e4	0.19509083
137	0xbd216128	-0.039399296
138	0xbe2aa5e3	-0.16664843
139	0xbd1962a7	-0.037447598
140	0x3ded8c95	0.115990795
141	0xbd8a0f09	-0.06741149
142	0xbd754023	-0.05987562
143	0xbd3a5dd6	-0.045499645
144	0x3d208ca8	0.03919664
145	0x3d1eee0a	0.03880123
146	0x3d95ecfe	0.07320593
147	0xbd8dc490	-0.06922257
148	0x3d1c3db1	0.03814477
149	0x3e10f2f0	0.14155173
150	0x3dcab7ea	0.0989836
151	0xbd2bc1b0	-0.04193276
152	0xbd653bcb	-0.055965226
153	0xbd1c49a3	-0.038156163
154	0xbe33c918	-0.1755718
155	0xbbe2c577	-0.0069205123
156	0x3c878618	0.016543433
157	0x3d07b131	0.033127967
158	0xbccda763	-0.02510423
159	0x3e2a3d31	0.16624905
160	0x3d25835d	0.04040848
161	0x3e3b9d8b	0.18321817
162	0xbdf56d3b	-0.11983725
163	0x3e2042ea	0.15650526
164	0x3df1c7c4	0.118056804
165	0x3e090854	0.13382083
166	0x3e484444	0.19557291
167	0x3d4bfb38	0.049800128
168	0xbcedabd0	-0.02901259
169	0x3df6dc5f	0.12053751
170	0x3d9f02ae	0.07764183
171	0xbd60d133	-0.054887008
172	0xbda2ff98	-0.07958907
173	0x3e547729	0.20748581
174	0x3cbf3cd3	0.023344433
175	0x3d396a37	0.04526731
176	0xbd823945	-0.063585795
177	0xbbeb259b	-0.007176114
178	0x3d6472d8	0.055773586
179	0xbd258365	-0.04040851
180	0x3d711ccf	0.058865365
181	0x3a676ce9	0.00088281796
182	0x3d1f6865	0.038917918
183	0xbd86f30c	-0.06589326
184	0x3dd8e376	0.1059026
185	0xbca77ae5	-0.020444343
186	0x3de11114	0.109895855
187	0xbdc9bd42	-0.09850551
188	0xbd8f3196	-0.0699188
189	0x3e0a3917	0.1349834
190	0x3d514d2e	0.051098995
191	0xbc1f6557	-0.009728751
192	0xbcc81fa0	-0.024429142
193	0x391b382b	0.00014802876
194	0x3d52d7b4	0.05147524
195	0x3dd8e3c1	0.105903156
196	0xbbebfdac	-0.007201871
197	0x3dfc6662	0.123242155
198	0xbd5e0d7e	-0.054212086
199	0xbdb895a1	-0.090129144
200	0xbe1e83d2	-0.15479973
201	0x393846e8	0.00017574022
202	0xbd7e66b3	-0.06210966
203	0x3d5d42e7	0.05401888
204	0xbd90c277	-0.07068341
205	0xbccda376	-0.025102358
206	0xbd9d7d47	-0.076899104
207	0x3da10564	0.07862356
208	0x3e2f4bb7	0.17118727
209	0x3daf91ee	0.08572756
210	0x3d9137c2	0.07090713
211	0xbd9b0160	-0.07568622
212	0x3da7e36b	0.081976734
213	0xbda82587	-0.08210283
214	0x3d8f1e8c	0.06988248
215	0x3dc15cae	0.09441505
216	0xbdceb1cc	-0.10092506
217	0xbbf7b1cf	-0.0075590382
218	0xbe6283c3	-0.22120576
219	0xbdb55b9b	-0.08855363
220	0x3dc7b0da	0.09750529
221	0xbdd27f1d	-0.10278151
222	0x3dd4eee2	0.10397126
223	0xbc9b24f3	-0.018938517
224	0x3d416cdf	0.04722297
225	0xbd420bd2	-0.047374554
226	0xb9e7e1fa	-0.0004422812
227	0x3afa754d	0.0019108445
228	0x3d5b7024	0.053573743
229	0x3d559c0f	0.052150782
230	0x3ca8b819	0.020595597
231	0x3d0ac9fe	0.03388404
232	0xbd63da70	-0.05562824
233	0x3d8b9a05	0.06816486
234	0x3d28750e	0.041127257
235	0xbd890819	-0.06690998
236	0xbd4dfe78	-0.05029151
237	0xbd8fbffe	-0.070190415
238	0xbc1263a6	-0.008934891
239	0xbddf2ab2	-0.10896815
240	0x3d1bd99d	0.03804933
241	0xbd56ac75	-0.05241056
242	0xbd82eae4	-0.06392458
243	0xbd262266	-0.04056015
244	0xbdafe39d	-0.08588336
245	0x3dffd77a	0.12492271
246	0xbdec04ed	-0.11524377
247	0xbd42db9b	-0.047572713
248	0x3d736497	0.0594221
249	0xbd3a3598	-0.045461267
250	0xbcc9472d	-0.024570072
251	0x3d530a6c	0.05152361
252	0x3e018071	0.12646653
253	0x3bb9374a	0.005652343
254	0xbde331cd	-0.11093483
255	0xbd377434	-0.044788554

bias f4 [64]
0	0x3ea3e9d2	0.32014328
1	0xbe6909a2	-0.22757581
2	0x3e9c28b8	0.30499816
3	0x3dfc5a3e	0.123219
4	0xbd308943	-0.043099653
5	0xbdcaf414	-0.099098355
6	0x3df53a47	0.11974006
7	0x3c486884	0.01223195
8	0x3ddf35d5	0.108989395
9	0xbd86f398	-0.065894306
10	0x3d5202a2	0.051272042
11	0x3defdbe3	0.11711862
12	0x3d744edc	0.05964552
13	0x3e9f228e	0.3108105
14	0xbde32d8a	-0.1109267
15	0x3d4b43a4	0.049625054
16	0xbda0d342	-0.07852794
17	0xbdd32fb6	-0.103118345
18	0x3d5d666e	0.054052763
19	0xbcca88b6	-0.024723392
20	0xbe5456e3	-0.2073627
21	0xbda190ea	-0.07888968
22	0xbe8c50ea	-0.27405483
23	0x3e419ad4	0.18906718
24	0xbe09a4cb	-0.1344177
25	0xbe190ab8	-0.14945495
26	0xbdef29ab	-0.116778694
27	0xbcc621ff	-0.024186132
28	0x3e5fa637	0.2184075
29	0x3eaaf04a	0.3338645
30	0xbe539b13	-0.20664625
31	0x3e637d98	0.22215879
32	0xbe1ea3c5	-0.1549216
33	0x3d6606a5	0.05615868
34	0x3d2eee95	0.042708
35	0x3c6cef6c	0.0144613795
36	0x3cef426e	0.02920648
37	0x3d5e699d	0.05429994
38	0xbda6bd9d	-0.081416346
39	0x3e3b9cb0	0.1832149
40	0x3dfa719b	0.122287
41	0xbd360e0c	-0.04444699
42	0x3e627a48	0.22116959
43	0xbdcc2f28	-0.09969932
44	0xbe010105	-0.12598045
45	0xbe006492	-0.12538365
46	0x3e433f75	0.19067176
47	0x3e921b42	0.2853642
48	0xbd9182e6	-0.07105045
49	0xbdf09f44	-0.117491275
50	0xbd88ead8	-0.06685418
51	0xbd075dee	-0.033048563
52	0xbe5b6ffa	-0.21429434
53	0x3c9c8d67	0.019110395
54	0xbe27ecbe	-0.16398904
55	0x3e41577d	0.1888103
56	0x3dab54d0	0.08365786
57	0xbddbfe1f	-0.10741829
58	0x3e8a1292	0.26967293
59	0xbe0cd33e	-0.13752457
60	0x3dd40998	0.10353392
61	0x3dee01ca	0.11621435
62	0xbd5f72d9	-0.054552887
63	0xbe373a7d	-0.17893405

weight f4 [64, 64]
0	0x3dcfd5ed	0.10148225
1	0xbdb879b6	-0.090075895
2	0x3ddaa0ed	0.106752254
3	0x3d0540fa	0.03253267
4	0xbdfa0083	-0.12207129
5	0x3cf801b0	0.030274242
6	0xbbb4ed63	-0.0055214628
7	0xbc57a425	-0.013161694
8	0xbd52a8d4	-0.05143054
9	0xbd930995	-0.07179562
10	0x3cc33ead	0.023833597
11	0x3df0e83f	0.117630474
12	0xbc2e4269	-0.010635951
13	0x3b54a60b	0.0032447602
14	0x3d70d0b0	0.05879277
15	0xbcba9536	-0.022776227
16	0xbd32ce8b	-0.043654006
17	0xbdb8c5dc	-0.09022114
18	0x3d32bd61	0.043637637
19	0x3d6ee545	0.058324117
20	0x3c6c9428	0.01443962
21	0xbdd4df4f	-0.10394155
22	0xbe88d46b	-0.26724562
23	0x3d9cb35a	0.07651396
24	0xbdf3008c	-0.11865339
25	0xbd313655	-0.043264706
26	0xbdab70be	-0.08371113
27	0x3c11bf07	0.008895642
28	0x3d37f79d	0.044913877
29	0x3e1e9a48	0.15488541
30	0x3ca71347	0.020394934
31	0xbd17565b	-0.03694759
32	0xbe0bd3a0	-0.13654947
33	0x3b8e0304	0.0043338556
34	0xbb6d8ebf	-0.0036248413
35	0x3db20eed	0.08694253
36	0xbd63d00a	-0.055618323
37	0xbd25dfd9	-0.04049668
38	0x3df7a211	0.120914586
39	0x3cf8d437	0.03037463
40	0xbd03aeb5	-0.032149035
41	0xbd854d49	-0.065088816
42	0xbb81ead4	-0.0039647613
43	0xbc2b3136	-0.0104487445
44	0x3cecee00	0.028922081
45	0x3dca1d34	0.09868851
46	0x3dfb7912	0.12278952
47	0xbd462a51	-0.0483802
48	0xbd92de0a	-0.07171257
49	0x3daed565	0.085367955
50	0x3e05225f	0.13001393
51	0xbcebebc0	-0.028798938
52	0x3d3dac5c	0.046306953
53	0x3d89afec	0.067230076
54	0x3d5a53b8	0.053302497
55	0x3e108694	0.14113837
56	0x3cf3e80b	0.029773733
57	0x3d9f5cd6	0.07781379
58	0x3dcc941b	0.099891864
59	0x3c8ad0e2	0.016945306
60	0x3cf75ebe	0.030196544
61	0xbcaf5f8a	-0.021407861
62	0x3ca490eb	0.020088634
63	0xbde2c970	-0.110735774
64	0x3e13fecb	0.14452665
65	0x3d5fda9c	0.05465184
66	0x3cc2e8c4	0.023792632
67	0x3dccc675	0.0999879
68	0x3d17e1cf	0.037080582
69	0x3c86f62e	0.01647481
70	0xbd1163ba	-0.035495497
71	0x3d87e817	0.066360645
72	0xbd437e7f	-0.047728058
73	0x3dac59fb	0.084156
74	0x3b1572e9	0.0022804087
75	0x3d5a83cb	0.053348344
76	0x3e14e374	0.14539891
77	0x3dd28285	0.10278801
78	0xbdf703c7	-0.12061267
79	0x3cd8d5d4	0.026469149
80	0xbd82f857	-0.06395023
81	0xbc657753	-0.0140055
82	0xbd8e2c9d	-0.06942103
83	0x3d1d15b8	0.03835079
84	0x3dc62767	0.09675484
85	0x3db6cfd9	0.089263625
86	0xbd46a73c	-0.04849933
87	0x3db7bdf7	0.0897178
88	0x3b1ee5e0	0.0024245903
89	0x3e09f456	0.13472113
90	0xbd49ed44	-0.04929854
91	0xbc0d21f7	-0.008614055
92	0x3e4a0275	0.197275
93	0x3e0d4e72	0.13799456
94	0xbe26199d	-0.16220708
95	0x3d16ba87	0.03679898
96	0x3bd6c18e	0.0065538352
97	0x3dfabcee	0.12243067
98	0x3d1ce6e8	0.038306147
99	0xbd6579a3	-0.056024205
100	0xbd18d58a	-0.03731302
101	0x3db184a0	0.08667874
102	0xbdbc4e8e	-0.091946706
103	0x3da9b91f	0.08287262
104	0xbd9db775	-0.07701007
105	0x3d8b20e8	0.06793386
106	0xbbc77a09	-0.006087546
107	0xbd5f8d41	-0.05457807
108	0x3d08d555	0.033406574
109	0xbc70f0be	-0.014705835
110	0xbc1ca692	-0.009561198
111	0x3e36a1ed	0.17835207
112	0xbd27a98c	-0.040933177
113	0x3d451b7b	0.04812191
114	0xbd31cf2f	-0.043410476
115	0xbc3e0166	-0.011597013
116	0xbbf56bdd	-0.007489665
117	0x3dfaffcd	0.122558214
118	0x3ca83689	0.020533817
119	0x3dd7ebfb	0.105430566
120	0xbadf1d8f	-0.0017022359
121	0x3c196990	0.009363547
122	0x3de62433	0.11237373
123	0xbddc5d91	-0.10760034
124	0x3deb035b	0.114752494
125	0x3d26148b	0.040546935
126	0x3b9f9875	0.004870469
127	0xbc90c552	-0.017672215
128	0xbe2a325b	-0.16620772
129	0xbdf4e11e	-0.11957
130	0xbd119257	-0.03553995
131	0xbc2691b0	-0.010166571
132	0xbd5c5d6d	-0.053800035
133	0xbb96cd60	-0.0046021193
134	0x3b575aa0	0.0032860413
135	0x3cb06304	0.02153159
136	0xbdbf4c9f	-0.09340786
137	0x3d866f83	0.06564238
138	0xbd34104b	-0.04396085
139	0xbdc493bf	-0.09598493
140	0xbd889a4d	-0.066700555
141	0x3baa65f1	0.0052001406
142	0x3d54b204	0.05192758
143	0xbdef404c	-0.116821855
144	0x3d6afbfb	0.057369214
145	0xbdd36e96	-0.10323827
146	0xbdacf808	-0.08445746
147	0x3d22cce3	0.039746176
148	0x3da0951b	0.078409396
149	0xbddbca94	-0.10731998
150	0x3ca59d47	0.020216597
151	0x3ce92335	0.02845917
152	0xbd9cb63a	-0.076519445
153	0xbda00faa	-0.07815488
154	0xbd809bf1	-0.062797435
155	0xbc78365b	-0.015149678
156	0xbd18a1ec	-0.037263796
157	0xbc16e3a6	-0.009209549
158	0xbd3ddbb7	-0.046352115
159	0xbe02acdd	-0.12761255
160	0x3c15daf0	0.009146437
161	0x3d8876fb	0.06663319
162	0xbca197ae	-0.019725647
163	0xbd098fd0	-0.033584416
164	0xbcb60b50	-0.022222191
165	0xbc4c41f0	-0.012466893
166	0x3dd970c4	0.106172115
167	0xbd7a1739	-0.061057303
168	0x3d22968d	0.039694358
169	0xbc7f04ff	-0.015565156
170	0xbe005e57	-0.12535988
171	0xbdf0fb47	-0.11766677
172	0xbdae5c94	-0.085137516
173	0x3bbbdbc0	0.0057329834
174	0x3d8b0b88	0.06789309
175	0xbd531f55	-0.051543552
176	0xbc9aa070	-0.01887533
177	0xbd2a05b0	-0.04150933
178	0x3c6af118	0.014339708
179	0x3d925653	0.07145371
180	0xbd5dd073	-0.05415387
181	0x3d8980ac	0.06713995
182	0xbdc7a294	-0.09747806
183	0x3da2dcf1	0.079522975
184	0x3b3792f3	0.0028011173
185	0x3c080ef0	0.008304343
186	0x3dd3bb42	0.10338451
187	0x3dfed820	0.12443566
188	0x3c069376	0.008213868
189	0xbcda6ea3	-0.026664084
190	0xbd92106a	-0.07132037
191	0x3d4a82a4	0.049440995
192	0xbcc7d5c9	-0.024393933
193	0xbe07725c	-0.13227218
194	0xbda63720	-0.08115983
195	0x3cc934ad	0.02456125
196	0xbda3fb9d	-0.08006976
197	0xbdbd06ba	-0.092297986
198	0x3cda2e52	0.026633415
199	0xbb04abc5	-0.0020243984
200	0xbd1be9c1	-0.038064722
201	0xbdb5b9fe	-0.08873366
202	0x3d534b5c	0.05158554
203	0x3d211681	0.039328102
204	0x3d682769	0.05667821
205	0xbdb148fe	-0.086565
206	0xbd2dde21	-0.042448167
207	0xb9bc0662	-0.0003586291
208	0xbe265468	-0.16243136
209	0xbded9302	-0.11600305
210	0xbe0371eb	-0.12836425
211	0x3aaa2247	0.0012980186
212	0xbdda3bdd	-0.10655949
213	0x3d60a9b4	0.05484934
214	0xbcd77fca	-0.026306052
215	0xbca80ee2	-0.02051491
216	0x3d827deb	0.06371673
217	0x3d4f9261	0.050676707
218	0x3d2d914d	0.042374898
219	0x3d511212	0.051042624
220	0xbda27fcc	-0.079345316
221	0x3c44105e	0.011966793
222	0x3dbfdd0b	0.093683325
223	0xbd1b207e	-0.037872784
224	0xbdc9483b	-0.0982823
225	0xbda53c65	-0.0806816
226	0x3cf6ae06	0.030112278
227	0x3d56b33e	0.052417032
228	0x3bf4510c	0.0074559506
229	0x3d385d49	0.04501084
230	0xbddc7c7c	-0.10765931
231	0xbd6f3324	-0.05839838
232	0xbd5280b0	-0.051392257
233	0x3d793a30	0.060846508
234	0xbdc0db2a	-0.09416802
235	0xbdf8c7e6	-0.121475026
236	0xbcf0599d	-0.029339606
237	0x3d8710a6	0.06594972
238	0x3c01af90	0.0079153925
239	0xbc279dc2	-0.0102304835
240	0x3d4791b0	0.048722923
241	0xbccbd82f	-0.024883358
242	0xbc0961de	-0.00838515
243	0xbe17dea6	-0.14831027
244	0xbd84a5b3	-0.06476917
245	0xbdc75ac2	-0.097341076
246	0x3dc4e66a	0.096142605
247	0x3ca85df9	0.020552622
248	0xbdc70d10	-0.09719288
249	0x3d3898dd	0.045067657
250	0xbdbca38c	-0.092108816
251	0x3d61e0b3	0.05514593
252	0x3d7d5896	0.06185206
253	0x3dec3531	0.11533583
254	0x3d873b5b	0.06603118
255	0x3d1606a7	0.036627438
