mlartifacts/554351476986166068/fad6dc6f294f402197be119667d63aea/artifacts/models/Model_dim64_layers5_experiment/r2_score-0.004856281481772233_run24/data/model.pth (torch, 294728 bytes, 13 tensors)

weight f4 [64, 801]
000000 fa 98 12 3d c5 fa be bc fa 96 18 3d 96 db 3b bd
       0.03579042 -0.023312936 0.037253357 -0.04586371
000010 fa a3 71 bc 27 38 66 bd 73 06 9c bc d5 9c b7 3b
       -0.014748568 -0.056205895 -0.019046044 0.0056034126
000020 7a 8f 00 3c ce a3 00 bd 1c dc 69 bc 52 11 d4 3c
       0.0078467075 -0.031406216 -0.01427367 0.025887165
000030 18 9c 51 39 ba 3e e8 bc 81 d4 88 bb 2e 9e 33 3c
       0.00019989943 -0.028350223 -0.004175723 0.010963006
000040 7e 1e 66 3c cd 57 97 3b 03 84 f2 3c 7b 7f aa b9
       0.014045356 0.004618621 0.029603964 -0.00032519907
000050 6b 2d cd bc 4e f3 a6 bb fa e2 37 3c 92 26 59 3c
       -0.025046071 -0.005094922 0.011223549 0.013253825
000060 f3 ec ae bc 19 bf b4 bc 68 a5 21 3d 40 93 ca bb
       -0.02135322 -0.022063779 0.039464384 -0.0061821043
000070 40 fc ff bc e0 4a e0 3c 0a 28 0e bd a1 0a d7 bc
       -0.031248212 0.027379453 -0.034706153 -0.026250185
000080 4b d0 99 3a fa a9 03 3b fe a6 34 3c af ad b7 ba
       0.001173505 0.0020090328 0.011026142 -0.0014013554
000090 40 46 98 bc df f8 28 bc 91 28 55 bc 19 55 a8 3c
       -0.018588185 -0.010313242 -0.01301016 0.02054839
0000a0 67 0c c5 bc c1 38 3b 3c a0 79 5c 3b 4d c3 b9 bc
       -0.024053765 0.011427105 0.003364183 -0.022676134
0000b0 45 0c 25 3c b0 84 41 bb ab 28 21 3a 7c d3 ff bc
       0.010073726 -0.002952855 0.00061477226 -0.031228773
0000c0 20 90 46 bb 5c 7e 94 bc 06 9d 90 3c 6c 1a a9 bc
       -0.0030298308 -0.01812666 0.017653 -0.020642482
0000d0 57 27 94 bc fa cb f7 3a c3 5d c7 bc 63 37 f2 bc
       -0.018085165 0.0018905394 -0.024336701 -0.029567426
0000e0 54 83 13 3c c8 cf cf 3c d2 5b 0b bc 75 d2 46 3c
       0.009003479 0.025367633 -0.008505778 0.012135138
0000f0 cc 19 bb 3c a2 4f 69 3c 05 66 f6 3c e7 50 e0 3b
       0.02283945 0.014240177 0.030077944 0.006845582
000100 72 3b 0c 3c 9b 9f a3 3c d4 b0 c0 3b dc f6 65 3b
       0.008559095 0.019973567 0.0058804546 0.0035089767
000110 f3 ff f7 3b 6f 8e 9e bc 6c b6 4c 3c 55 cf e8 bc
       0.0075683533 -0.019355027 0.012494665 -0.028419176
000120 93 9d ca 3c fc da b2 3c 3a a4 38 3c d4 a5 d8 bc
       0.02473334 0.021832936 0.011269623 -0.02644626
000130 d7 7b 56 3c 35 23 46 bc 2f 4a 61 3b 06 9f f7 bc
       0.013091049 -0.012093355 0.0034376492 -0.030227195
000140 98 dd a4 bc f9 81 c9 3c a0 8b d9 bb f2 f6 00 bc
       -0.020125195 0.024598109 -0.006638959 -0.007871376
000150 9e 19 4c bc 49 34 e5 3a f1 00 ca bc 75 bd a0 3c
       -0.0124572795 0.0017486896 -0.024658652 0.01962159
000160 05 cc 87 3c f6 4f eb 3c c7 8e d4 bb 8e b9 ca 3b
       0.016576776 0.028724652 -0.006486747 0.0061866706
000170 c7 73 c3 3c 52 e6 33 3c d7 ae 95 39 34 70 ce 3c
       0.023858918 0.010980206 0.0002854976 0.025199987
000180 0e 52 17 ba b1 85 8e 3c 3c 1e 97 3c d0 93 97 3c
       -0.000577242 0.017397733 0.018447034 0.0185031
000190 ff 24 c0 3c 71 e2 88 ba 1e dc 82 bb c3 7d 55 3c
       0.023455141 -0.0010443461 -0.003993525 0.013030472
0001a0 94 31 4a bc 8f cb c7 bc 89 14 b1 3b ba 48 b3 3c
       -0.012340922 -0.024389056 0.0054040593 0.021885265
0001b0 79 de 9f 3c bb 05 c8 3c 6c 27 80 3d 16 0f ee 3c
       0.019515263 0.024416795 0.06257519 0.029059928
0001c0 e5 d6 d6 bc 9b b8 a0 3c 0a df 22 bc a5 da 23 3c
       -0.026225517 0.019619277 -0.009940872 0.010000859
0001d0 90 ac 6a b9 b4 58 33 bb 25 29 bb ba 7b b6 95 3c
       -0.00022380264 -0.0027366104 -0.001427923 0.01827549
0001e0 fe 65 b7 3c 61 03 d7 3c 97 88 35 3c ad ae db bc
       0.0223875 0.026246728 0.011079929 -0.02681669
0001f0 3e 29 77 bc f3 02 36 3c e6 ee f0 3a 54 69 50 bc
       -0.0150855165 0.011109102 0.0018381744 -0.012720425
000200 6a ff 1d 3c 35 23 f0 bc 62 d6 7f 3c 25 ec b1 bc
       0.009643415 -0.029313663 0.015615078 -0.021719048
000210 0b 79 74 bc c8 37 75 3c 78 15 0f bc 48 a9 12 3c
       -0.014921437 0.014966913 -0.008733146 0.008951493
000220 ec c4 98 3c f3 ab 82 bc a4 db 07 bc ed cc c7 bc
       0.018648587 -0.015951132 -0.0082921125 -0.024389708
000230 1a 9e 93 3c ff e4 db 3c 30 74 a1 3a 53 1a 5f 3c
       0.018019725 0.026842592 0.0012317952 0.013617116
000240 c4 83 ef bb d6 e6 03 bb f5 87 91 3c 71 6a 8b 3c
       -0.007309409 -0.0020126603 0.017765025 0.017018529
000250 4e d3 54 bc 60 a3 7d bb 0f 63 8c 3c 48 a0 73 bc
       -0.012989832 -0.0038702115 0.017137079 -0.014869757
000260 09 28 2a 3b b9 7f ad bc 4d 90 37 3c a3 64 00 3d
       0.0025963804 -0.021179067 0.011203838 0.031345975
000270 10 a9 5e bc cd 61 da 3b 8c c1 a2 bc 02 a8 db 3c
       -0.013590112 0.006664491 -0.019867681 0.02681351
000280 14 da 56 3c a0 31 da 39 a3 01 46 bc 3b 76 d5 bb
       0.013113517 0.00041617174 -0.012085351 -0.0065143383
000290 f2 17 9c bc 6f cf f5 b9 07 34 e4 ba f4 bb 20 3b
       -0.019054387 -0.00046884592 -0.0017410525 0.0024526091
0002a0 31 39 9a 3c ec d1 ff bc 7a cb b6 bc 25 c4 b9 3c
       0.0188261 -0.031228028 -0.022313822 0.022676537
0002b0 72 7a 04 3c 1d 44 b4 bc 60 62 67 3c b6 dc a6 3c
       0.008085834 -0.022005135 0.0141225755 0.020368915
0002c0 74 c1 a2 3c d5 15 48 3c a9 a5 ec bb 92 0d ec 39
       0.019867636 0.012212236 -0.0072218967 0.00045023538
0002d0 ab 81 81 bc 10 c9 8c 3c ef 45 00 3d 4e 4a be ba
       -0.0158089 0.017185718 0.031316694 -0.0014517994
0002e0 22 0e c1 bc 43 05 8c 3c 52 52 b7 39 e5 7d d0 3c
       -0.02356631 0.017092353 0.00034965813 0.025450656
0002f0 af 08 c9 3a 0d 61 51 3b 21 ed 47 bc ec 00 3e 3c
       0.0015337671 0.0031948716 -0.012202532 0.0115968995
000300 d7 21 a8 3c ab 98 f8 3c a2 2d 54 3b 26 d2 8f bc
       0.020523949 0.030346235 0.0032375832 -0.017556261
000310 19 64 b3 3c f0 e0 91 3c 8f 2d d8 38 f3 af 96 3c
       0.021898316 0.017807454 0.000103081686 0.018394446
000320 59 32 06 3c df 54 e1 3c 8f 10 99 bc e6 91 92 3c
       0.008190715 0.02750629 -0.018684654 0.017891835
000330 c7 96 1d 3c 30 bc 38 3b b7 11 3e 3c 3d 08 d1 bc
       0.009618468 0.002818834 0.011600903 -0.025516624
000340 b6 c7 14 3b f7 d9 1b bc 81 b9 d9 3c 5f fb 31 39
       0.0022702045 -0.009512416 0.026577713 0.00016973678
000350 62 1e cc bb de 87 7c bc 55 0b ec 3b bd 8a d2 3c
       -0.006229208 -0.015413253 0.0072034993 0.025700921
000360 c4 e3 a2 3c c6 5b 59 3c 0c 53 85 bb b7 e5 c7 3c
       0.019883998 0.013266509 -0.004068738 0.024401529
000370 d5 21 4e 3c 4d d7 b4 bb d0 09 de 3c f1 b8 04 bc
       0.012581308 -0.00551883 0.027104288 -0.008100734
000380 5a fb e6 bb cb 80 da bb ea d9 61 3c 50 71 c5 3c
       -0.0070490064 -0.0066681853 0.013784865 0.024101883
000390 43 05 c4 3b b4 9c 6a bc 15 50 34 bc ef cd 4e 3c
       0.0059820726 -0.0143195875 -0.011005421 0.012622341
0003a0 56 14 ee b7 fc 93 8a 3c 34 e3 89 3c 53 7b 8b 3c
       -2.838128e-05 0.016916268 0.016831972 0.017026579
0003b0 0a f8 4a bc 94 62 58 3c c2 fc 86 3c 1d 06 ee 3c
       -0.012388239 0.013207097 0.016477946 0.02905565
0003c0 21 74 bb 3c e8 bd 71 3c 69 fc 81 3a 87 c1 ce ba
       0.022882523 0.01475475 0.0009917143 -0.0015774228
0003d0 9f 88 fd bc 45 17 68 bb b5 4d 01 bb 54 a2 d9 39
       -0.030948935 -0.003541426 -0.0019730155 0.0004151041
0003e0 b7 64 6c bc 9c 21 89 3c 05 d0 95 3a 8e 49 37 3c
       -0.014428309 0.016739659 0.0011429793 0.01118697
0003f0 a9 26 f6 b8 3d 28 b9 bc c6 2b 08 bd ad 37 fa bc
       -0.00011737395 -0.022602195 -0.03324487 -0.030544126

bias f4 [64]
000000 87 d7 6b 3b 9f 00 3a 3b 2f dc 21 3c 08 4d 66 bc
       0.0035986619 0.0028381718 0.009879156 -0.014056452
000010 a6 ff 0e 3c 31 53 00 bc c2 01 1a bb 24 ff d5 3c
       0.0087279435 -0.007832334 -0.0023499583 0.026122637
000020 6f bf a4 bc 0c 5d c3 bc f9 cb 06 3d 50 5a ca bd
       -0.020110814 -0.02384808 0.032909367 -0.09880507
000030 90 fd da 3c 8b da 44 3d b0 99 5f bc 39 ba 52 3c
       0.026732236 0.04805998 -0.013647482 0.012861782
000040 2c 4c 8e bb 7b 3a ce bc ce d3 a5 3c be dd 4f bd
       -0.0043425765 -0.02517437 0.020242598 -0.05074858
000050 ca ba 9a 3c 6c 64 26 3d b5 e4 55 3d 54 95 e0 3b
       0.018887896 0.040623114 0.052220065 0.006853739
000060 4d 9a 4b bb fd 2e 0d be cc ad 2a 3c 6a dc c8 bc
       -0.0031067312 -0.13787456 0.010417413 -0.024519164
000070 be c1 93 bc 87 26 b4 bb 2c 23 8a bb 30 35 a5 bd
       -0.01803672 -0.005497757 -0.0042156186 -0.08066785
000080 12 27 33 3a 12 d9 bc bc 6d 49 c2 3c 53 c4 c5 3b
       0.000683413 -0.023052726 0.023716653 0.0060353666
000090 e9 dd 9b 3b cc 79 35 bc 73 af f2 bc b0 4f be 3c
       0.0047566784 -0.011076402 -0.029624676 0.023231357
0000a0 7c 47 7f bb 1f c5 6a bb af f4 22 bd db 43 9e 3d
       -0.003895252 -0.003582306 -0.03978413 0.07727786
0000b0 ab ac c5 bd de 58 b3 3c 05 ab b8 3c 8a a5 1b bc
       -0.096520744 0.021892961 0.022542486 -0.009499917
0000c0 3a a9 3b 3d 17 03 00 3b 8e 7d 28 3c 6a 96 f2 bb
       0.045815684 0.0019533092 0.010283841 -0.0074031847
0000d0 1b 2d 2b bc 7b 03 df bd 5c 7a d0 3c 05 6c f5 3d
       -0.010447766 -0.10889336 0.02544897 0.11983494
0000e0 9f f4 9b 3c 15 f4 7d bb bd 53 8d 3c 27 98 55 3d
       0.019037543 -0.003875022 0.017251844 0.052147057
0000f0 f3 fa e0 3c e6 a3 c5 3c 26 6e c3 3c 99 65 35 bc
       0.027463412 0.024126004 0.023856234 -0.011071586

weight f4 [64, 64]
000000 44 84 ad 3d 64 6c 3c 3d 45 d1 c1 bc 7b f6 cf bc
       0.08472493 0.046001807 -0.023659358 -0.025386086
000010 12 c1 ce bd a0 b1 2e 3d 3b 43 a3 bd f1 ec 26 3d
       -0.10095419 0.042649865 -0.079718076 0.04075331
000020 5c ef a0 b9 2e a1 33 3d 0c 53 fb bd bb eb 40 bd
       -0.00030695915 0.043854885 -0.12271699 -0.04709981
000030 27 8a 83 bd 43 e1 18 3d fc 90 1b 3d 71 60 88 bd
       -0.06422835 0.0373242 0.037980065 -0.0665902
000040 5f ab 19 3d 26 1d cf bc dd 32 ab 3d d1 5b 94 bd
       0.037516948 -0.025282454 0.08359311 -0.07244075
000050 22 6d 2f bc 5b 34 93 3d 57 ae 78 3d 3c d0 0f bd
       -0.010707172 0.071877204 0.06071314 -0.035110697
000060 be 95 c7 bd 6e 75 9c bd 8b 37 0c 3d 99 e0 59 3d
       -0.09745358 -0.076395854 0.034232657 0.05319271
000070 b3 79 e9 bc 9a 39 a2 3c 72 48 cf bd eb 13 3c 3c
       -0.028500414 0.019802857 -0.1012124 0.011479358
000080 fc 6c 55 bc a9 a8 48 bd 25 dc d7 bc bd f3 12 bc
       -0.013026472 -0.04898897 -0.02635009 -0.008969245
000090 5d c3 b0 3c 06 37 c1 bd dc 49 88 3d 52 cd 0f bd
       0.021577531 -0.09434323 0.066547126 -0.035107918
0000a0 71 3a b9 bd c6 42 bd 3d eb 2c 3c 3c 2b a2 2f 3d
       -0.0904435 0.09241252 0.011485319 0.042879265
0000b0 f1 94 a3 3d 0c 8c 91 3d 31 24 ab bd 90 71 cf bd
       0.07987393 0.0710679 -0.08356512 -0.10129082
0000c0 42 b5 6d 3d d6 8f aa bd 6f 80 ce 3d 24 43 93 bc
       0.05803419 -0.08328216 0.100830905 -0.017976351
0000d0 6c ce 00 3d bd f6 91 3c 45 f0 7a bb 47 4d 9a bd
       0.03144686 0.01781785 -0.0038290184 -0.07534271
0000e0 7b 9e ad 3d fa f8 2d 3c 4a 99 54 bd 52 fd 1e bd
       0.084774934 0.010618443 -0.051904 -0.038815804
0000f0 ce 67 42 be 34 b1 9c 3d 4d bd ec 3b 03 70 d4 bd
       -0.18984911 0.07650986 0.007224715 -0.10372927
000100 6e f9 a5 bd f2 e0 51 bd 7a 99 97 3d 9d 64 84 3c
       -0.081042156 -0.051239915 0.0740232 0.016161257
000110 70 66 04 3d 72 67 b6 bd d0 42 08 bd cd 92 8c bd
       0.032324255 -0.089064494 -0.033266842 -0.068639375
000120 60 e5 6f bd 75 4d 86 bd 02 e7 d1 bd 7f ad 94 3d
       -0.05856836 -0.065577425 -0.10249139 0.07259654
000130 87 ed da 3d 8f a3 5f bd f2 09 c4 bd 0e f0 d4 3d
       0.10689836 -0.05459934 -0.095722094 0.10397349
000140 a4 64 90 bc 59 9f b5 3b 07 61 64 3d db b2 64 bd
       -0.017626114 0.0055426774 0.055756595 -0.055834632
000150 31 d2 87 3d 16 1f b1 3c fb 24 c8 3d f7 92 52 bd
       0.06631888 0.021621268 0.097726785 -0.051409688
000160 24 9e 3c bd b4 b5 ad 3d 71 73 c9 3d 4e 06 d5 3d
       -0.046049252 0.08481923 0.09836472 0.10401593
000170 3f 64 4e bd 1d da bd 3d 03 89 bb 3d 11 27 d5 bd
       -0.05038857 0.092701174 0.09156992 -0.10407842
000180 4e d6 a7 bd 46 19 b8 3d 69 f7 dc 3d f1 6f 5f bd
       -0.08195172 0.089891955 0.10789377 -0.054550115
000190 a9 e9 63 bd 50 c6 e9 bc 69 a9 ab bd 6f 56 9d bd
       -0.055642758 -0.028536946 -0.08381922 -0.076825015
0001a0 d5 6a b4 bd 2e c7 8c bd 66 42 d7 3d 2e c2 0d bc
       -0.08809439 -0.06873928 0.10510711 -0.008652253
0001b0 3f 09 9e bd 59 d9 84 bc e4 d3 85 3c 2f ce 0e 3d
       -0.07716607 -0.01621692 0.016336389 0.0348646
0001c0 20 e0 a4 3d c0 3b 57 3d 52 74 5c bd 33 8c 85 bb
       0.08050561 0.052547216 -0.05382187 -0.004075551
0001d0 4b be b5 bd 30 6f 6a 3d 9c ed b6 bd 13 49 1c 3d
       -0.08874186 0.057234943 -0.08932039 0.038155627
0001e0 dd f3 61 3d b9 e3 af 3c b4 31 64 bd 64 5f 23 3d
       0.055164207 0.021470891 -0.055711463 0.039885893
0001f0 73 5b 4b 3d 87 05 b0 3d 42 8a 41 3d eb fc b3 3d
       0.04964776 0.08594804 0.047250994 0.08788475
000200 cb 8c 74 3d 79 62 19 bd 49 dc b7 3d ad ed cf bd
       0.059704583 -0.037447426 0.08977563 -0.10152755
000210 2c 90 b8 3d c5 80 b4 3d 61 34 57 bd 5f 8b 46 3d
       0.090118736 0.08813623 -0.052540187 0.04847276
000220 0d 66 a7 3d a6 56 3c 3d f4 b8 f1 3d da d4 54 ba
       0.081737615 0.045981072 0.11802855 -0.00081188756
000230 d1 ba 5e 3e b7 8a 95 3e 5e ef d3 bd 74 6c bc 3d
       0.21750952 0.29207394 -0.1034839 0.09200373
000240 b0 0c 10 3d 3f 84 a9 bd 58 85 c3 bd 2e 82 05 3e
       0.03516835 -0.08277177 -0.09546918 0.13037941
000250 ba f8 e2 3c e6 3e a1 3e 5e 4d eb 3d 93 64 59 bd
       0.027706493 0.314933 0.11489366 -0.05307443
000260 39 54 98 bd 45 82 88 3d 83 c9 5a 3d 00 cf 72 3d
       -0.07437939 0.06665472 0.053414833 0.05927944
000270 11 7a cf bb 08 ce 91 bd f4 19 07 3d 32 4e c2 3d
       -0.00633169 -0.071193755 0.032983735 0.09487571
000280 c4 3e 54 bd 56 58 95 bd ed ab 6c 3e 29 19 a9 3d
       -0.05181767 -0.07292239 0.2311246 0.08256752
000290 e3 26 37 3d a7 44 b7 bd 5b 22 a0 bd 7b 95 d1 3c
       0.04471482 -0.08948641 -0.07819053 0.025583973
0002a0 e7 79 77 bd 35 49 0c 3d c6 23 8a bd 97 98 02 3f
       -0.06041899 0.034249503 -0.067451045 0.51014084
0002b0 6a 5b 16 3d 77 c2 cb 3d 32 b7 b9 3d 0f 81 83 3d
       0.036708273 0.099492006 0.09068145 0.064211
0002c0 01 ea d1 3d f9 2d 97 3d 37 6f 46 3d ec 39 b9 3d
       0.10249711 0.073818155 0.048445906 0.09044251
0002d0 7b 88 6c bd a9 0b aa bb fb fb 5a bd 01 c7 0c 3f
       -0.057747345 -0.0051893783 -0.053462964 0.54991156
0002e0 8a ef 06 3e 26 75 94 3d 37 3a 99 bc 69 62 7c 3e
       0.13177314 0.07248907 -0.018704517 0.24646915
0002f0 b0 f5 0c 3e cf 81 04 3e 3d 15 59 bd 91 d5 8c 3c
       0.13765597 0.12940143 -0.05299877 0.01719168
000300 87 9c 83 bd 9e 6e 31 3d fe 03 b1 3c 5f 36 88 bd
       -0.064263396 0.043318383 0.021608349 -0.066509955
000310 03 22 6f 3d 65 be 84 3d 3d 4a 50 3d 63 8a cf bd
       0.058382045 0.064816274 0.05085205 -0.10133817
000320 41 8c 0e bd 0d 79 b8 3d c8 14 35 3d a7 12 cc 3c
       -0.034801725 0.090074636 0.04420927 0.024911238
000330 69 2a 8d bd 5d 11 23 3d ea 70 bf bc 85 83 0d bd
       -0.06892855 0.03981148 -0.023369271 -0.034549255
000340 42 25 b0 3d 47 b9 72 3d e2 e9 bc 3d 34 62 c3 bc
       0.08600856 0.059258725 0.09224297 -0.023850538
000350 5e 82 bc 3c bf 44 e1 bd 11 5b 42 bd 92 9d 2b bc
       0.023011383 -0.109994404 -0.04745013 -0.010474579
000360 ef d3 ea bc e4 10 7f bd 96 f8 bc 3d b7 9e 3b 3d
       -0.028665511 -0.062271968 0.092271015 0.04580566
000370 d6 e2 41 bd 85 22 88 bc f2 27 b5 3c c5 c9 1c bd
       -0.04733547 -0.016618023 0.022113774 -0.03827836
000380 1d 8c ae 3d 12 04 9d bd 85 c6 86 3d 7d 61 c7 bd
       0.08522818 -0.07666792 0.06580833 -0.09735391
000390 21 7d ba bd 58 0b dc 3c 48 38 95 3d 29 d3 e9 bd
       -0.09105898 0.026860878 0.072861254 -0.11417229
0003a0 31 54 3a 3d ea cf b3 3d eb aa e5 bc fe 92 e2 3c
       0.045490447 0.08779891 -0.028035602 0.027657982
0003b0 65 9a b6 3d 91 15 c3 bd e3 ea c9 bc ba 8b c6 3d
       0.08916167 -0.09525598 -0.024648136 0.096946195
0003c0 7f f1 b0 bd 53 24 81 3c 2d b2 b6 3c d3 0f b6 bd
       -0.08639812 0.015764391 0.022301758 -0.08889737
0003d0 47 70 9e 3d 1b 46 74 bd 80 5a 4e 3c 3e db 10 3d
       0.07736259 -0.05963717 0.012594819 0.035365336
0003e0 c1 ef ad bd 87 ed 16 bd eb f9 9b bd 0b 1b 90 3c
       -0.08492995 -0.036847617 -0.076160274 0.01759102
0003f0 d6 a8 32 be 0d 5e e2 bd fe 0e 24 bc 8c a6 18 3b
       -0.17447218 -0.11053095 -0.01001334 0.002329263

bias f4 [64]
000000 5e 92 23 bd 96 f5 19 3d 1b 47 b7 bd 13 00 80 bc
       -0.03993451 0.037587725 -0.08949109 -0.015625035
000010 a4 d1 66 3a 81 6c 1e bd 7d 21 d9 bc 10 9a ef 3c
       0.00088050426 -0.038677696 -0.026505226 0.029248267
000020 84 56 74 3d e0 a7 77 3d a3 5f c6 3c 85 e7 7a 3c
       0.05965282 0.060462832 0.024215525 0.015313988
000030 f6 0b 89 bd 73 6d 1f bd 77 05 5e 3d 8e 55 8d bd
       -0.066917345 -0.03892274 0.05420443 -0.06901084
000040 72 ee bc 3d 1b b3 6d 3d 9b 78 a9 3c d7 92 95 bb
       0.09225167 0.058032136 0.020687392 -0.004564624
000050 7a 27 7a bd a0 c6 89 bd 14 8e 86 3d bf eb 8d 3b
       -0.061072804 -0.06727338 0.06570068 0.0043310816
000060 28 d0 1b 3d 0f 4a ad 3c b7 3d c2 bd 96 e4 44 3d
       0.03804031 0.021153478 -0.094844274 0.04806956
000070 1d 98 2b bd e8 07 15 bd 33 7b 3f 3c 4b 5e c9 bd
       -0.041893113 -0.036384493 0.011687088 -0.09832438
000080 b1 81 b5 bd af 4d 98 3d e9 e0 66 bd 19 b5 a8 bd
       -0.08862627 0.07436692 -0.056366835 -0.08237667
000090 bb a1 7d 3d 2a db 2f 3c 9d 8f 95 bc bf 5e c3 bd
       0.061921816 0.010733405 -0.018256957 -0.09539556
0000a0 96 cd 1d bd 69 63 48 3d f1 64 0b 3d 6e c1 b5 bd
       -0.03852614 0.04892293 0.034031812 -0.088747844
0000b0 5d 9a 37 bd 4f d0 dd bd de 34 25 3d 41 96 9f bd
       -0.044824947 -0.10830747 0.04033362 -0.077923305
0000c0 21 5d 1f 3d cc 8d bd bd 32 50 a6 3d 89 0f c9 bc
       0.038907174 -0.09255561 0.08120765 -0.02454354
0000d0 e2 ee 76 3b b4 f7 c2 3d ef cb a0 3d 6a a9 0e 3c
       0.0037679006 0.09519902 0.07851397 0.008707384
0000e0 25 30 cd bd a1 48 dd bd a3 09 63 bd f8 50 45 bd
       -0.100189485 -0.108048685 -0.055429112 -0.04817292
0000f0 c3 97 b6 3d 31 2d fe bd 2a f0 99 bc 1a 35 d8 bd
       0.08915665 -0.12410963 -0.018791277 -0.10557003

weight f4 [64, 64]
000000 67 49 dc 3c a3 11 87 3d e2 21 df 3d 13 5e 3a bd
       0.02689047 0.06595161 0.108951345 -0.045499872
000010 40 ef d0 bc 91 34 a1 3d 58 23 8c 3d 16 f6 ad 3d
       -0.025504708 0.07871354 0.06842679 0.08494203
000020 d0 cc 0c 3d 8e 23 04 bd e1 4d cb 3d 1f 7c 97 bd
       0.034375012 -0.03226047 0.099269636 -0.07396721
000030 bc f7 9d bc 0c 59 6b bb d3 cc 47 bd 28 52 8e bc
       -0.019283168 -0.003591123 -0.04877932 -0.01737316
000040 c2 d8 68 3d 37 86 db bd e6 24 ae 3d f0 10 bc 3b
       0.05684734 -0.10718959 0.085031316 0.005739324
000050 83 8e 9d 3d 9a cf 8b 3d 7c f8 3c bd c1 52 c1 bc
       0.076931976 0.06826706 -0.04613541 -0.02359903
000060 98 77 0f bd 52 4c 1e bd 3b 25 ed 3c a7 7c 8e bc
       -0.035026163 -0.038647003 0.028948417 -0.017393423
000070 66 af ea bc 99 55 00 3c b3 8c d5 3c d4 57 93 bd
       -0.02864809 0.007832908 0.026068067 -0.07194486
000080 88 aa 61 bd 20 93 5c 3d ee 88 eb 3c 8b fe c7 3d
       -0.055094272 0.053851247 0.028751817 0.09765347
000090 cb a0 76 3d 88 a3 54 3d df 0e a4 bc 12 37 8e 3d
       0.060211938 0.051913768 -0.020026622 0.069440976
0000a0 4f f8 6e bd 77 20 e6 bb a3 2f a3 ba 9e 67 bc 3d
       -0.058342274 -0.007022913 -0.001245011 0.09199451
0000b0 24 a4 88 3b f9 b4 c7 3d 71 32 80 bd e2 3f 25 3d
       0.0041699577 0.09751315 -0.06259621 0.040344127
0000c0 8c a7 4c 3d 4f 0e 39 3d 06 4a bc bd ca f3 40 3c
       0.049964473 0.04517966 -0.09193806 0.011776874
0000d0 72 dc 0a 3d 35 ef a4 bd ae b9 2b 3d 01 ed f3 3b
       0.03390164 -0.080534376 0.041925125 0.0074440246
0000e0 6b 78 53 3d 1a ef fd 3c 1c 9c 14 bd ba 20 21 3d
       0.05162851 0.030997802 -0.03628169 0.03933785
0000f0 69 bb 1c 3c ad 07 97 bd d2 ed b8 3d 5f 42 ad 3d
       0.009566166 -0.07374511 0.090297356 0.08459925
000100 b7 b5 7d 3d 85 9f 4a bd 99 bc ae bd 5f a1 bb 3d
       0.061940875 -0.049468536 -0.08532066 0.091616385
000110 76 5e 3b bd 1a e8 b2 bd f3 b9 11 ba e9 38 91 3d
       -0.04574438 -0.08735676 -0.00055590196 0.07090933
000120 ed 8e c2 bc ac 5a b7 bd 80 03 3f 3c 10 84 82 3d
       -0.023749793 -0.08952841 0.011658549 0.06372845
000130 7c fa d2 bd 04 d5 bf 3d 9c 17 3b 3c e2 f1 58 bc
       -0.10301682 0.093668014 0.011419203 -0.013241263
000140 8d a3 87 3d 72 57 eb 3c c6 f6 93 bd b4 f9 36 bd
       0.06622992 0.02872822 -0.07224803 -0.04467173
000150 28 db 99 bd 24 40 aa 3d c3 c4 d4 3d bd 97 72 bd
       -0.07512504 0.08313015 0.10389092 -0.05922674
000160 02 07 78 3d 64 d9 c7 bd 41 d7 8a 3d cf ae e6 bc
       0.06055356 -0.09758261 0.06779338 -0.028159527
000170 e4 a6 cb 3b e3 40 88 3d 23 f5 b2 3c bf 27 43 bc
       0.0062149633 0.06653001 0.021845406 -0.011911332
000180 29 a4 06 bc 50 bd 52 bc 68 7a f4 bc a8 e1 a8 3d
       -0.00821785 -0.012862518 -0.029843524 0.082461655
000190 c2 74 d5 bd e2 03 2b bd 66 7b 77 3c 43 44 2e bd
       -0.104226604 -0.04175175 0.015105104 -0.04254557
0001a0 c8 2d 1f bd cb 55 8f 3b e5 8a 99 bd 2e 8e bf bc
       -0.03886202 0.004374241 -0.07497195 -0.023383226
0001b0 b4 42 98 bd c8 18 e3 3c ee 48 90 3d 9b bb 7e 3d
       -0.074345976 0.027721778 0.0704516 0.062190633
0001c0 7e a4 ec 3c 4e 9e 29 bc 5c 01 b5 bd ff ef c7 ba
       0.02888703 -0.010352684 -0.0883815 -0.001525402
0001d0 7f 18 ab 3d e0 32 bd 3d ce 9b ac 3d 16 6b 49 3d
       0.08354282 0.09238219 0.08428155 0.04917439
0001e0 32 87 88 bd 37 3b f3 bc 49 b1 50 bd 6b 70 bc 3d
       -0.066664115 -0.029691322 -0.050950322 0.092011295
0001f0 96 1d c2 3d 4a cf b2 bd b2 92 95 bd 86 31 8b 3d
       0.09478299 -0.087309435 -0.073033705 0.06796555
000200 c7 65 a8 3d fa 8e 97 bc df f3 30 3d c8 52 32 bd
       0.082225375 -0.018500794 0.043201324 -0.043535978
000210 ba 6b c3 b9 ce 68 e1 bd 4c 43 eb bb bf 9f 9c 3d
       -0.0003727356 -0.11006318 -0.0071796533 0.07647657
000220 b4 a1 39 bd 3f 8e 4b 3d fe b6 d6 bd 3c 01 11 3d
       -0.045320228 0.049696203 -0.10484122 0.035401568
000230 06 02 28 3d 94 36 eb 3c 2b 72 d3 bc 59 de 5c 3d
       0.041017555 0.028712548 -0.025811275 0.053922985
000240 c0 7e 62 3c 77 a6 5d bc 7e 40 ef 3b bc fd 2d bd
       0.013824165 -0.013528458 0.0073013892 -0.042478308
000250 2a f5 b6 bd bf 55 ae bd a6 0e 51 bc 0b 8c 90 3d
       -0.0893348 -0.085124485 -0.01275984 0.07057961
000260 c9 c3 eb bc a4 4c c9 bd 55 93 3b bd 9f 9e 4c 3d
       -0.028779881 -0.09829071 -0.045794804 0.04995596
000270 63 a7 87 3c 5e fd b7 3d ad 5d c8 3c d1 93 5c bd
       0.016559308 0.08983873 0.02445873 -0.053851906
000280 b1 1c a3 bc 7a c4 91 3c 84 44 19 bd 68 6b 84 3c
       -0.019911142 0.017793883 -0.037418857 0.016164497
000290 f0 7e cf bc 7a 51 cf bd 9a 77 3b bd 21 ec 90 3d
       -0.025329083 -0.10122962 -0.045768358 0.07076288
0002a0 28 09 4a bc 9b c2 16 3d 0e f7 8d bd aa a7 80 bd
       -0.012331285 0.036806684 -0.069318876 -0.062819794
0002b0 0c c2 4d 3d 42 7e b4 3d 71 96 38 bd 0d a2 bc 3d
       0.050233886 0.08813144 -0.045065347 0.09210596
0002c0 ec f9 32 bc 13 66 a1 3d 8d d7 06 3d b6 6d 9c 3d
       -0.010923844 0.07880797 0.03292041 0.07638113
0002d0 24 e2 06 3c ef 9d c1 3d f1 79 89 3d 47 e8 be 3c
       0.008232627 0.094539516 0.067127116 0.023304118
0002e0 59 ec 3b 3d 36 cb 94 bc f1 d0 c6 bd fd 94 ea 3b
       0.045879696 -0.018163305 -0.09707821 0.007158874
0002f0 a8 f3 b4 bd ed 03 d1 bd 3c 91 8f 3d 5b a1 68 bd
       -0.08835536 -0.10205827 0.07010123 -0.056794506
000300 7a 01 81 3b 68 99 e7 3b 5f e0 ad bd 31 80 bf bd
       0.0039369436 0.007067848 -0.08490061 -0.093506224
000310 93 f4 67 bd 69 de d1 bd 8b c3 87 bd fe 4e ce 3c
       -0.05662973 -0.102474995 -0.06629094 0.02518415
000320 bd ff 77 bc ef e8 4d bb 6f 3d a3 bd 5e cc 38 bd
       -0.015136656 -0.0031419357 -0.07970702 -0.045116775
000330 44 a5 cb 3c 06 34 d7 bc 8f 86 c6 bd 04 e3 6c 3c
       0.024859078 -0.026269924 -0.09693634 0.014458422
000340 1a eb 88 bd 6a 18 03 bd 53 77 af bb af 8f 76 3d
       -0.06685467 -0.032005705 -0.0053548007 0.06019562
000350 56 3f a2 3c 0d 44 c6 3d 4e 16 96 bd 72 59 77 3d
       0.019805592 0.096809484 -0.07328473 0.060388036
000360 68 98 b3 bd f4 c9 d1 bd 3c 71 d0 3d 34 80 55 3d
       -0.087693036 -0.102435976 0.10177848 0.052124217
000370 c7 17 9c bd 4a 1f c7 3d da 06 98 bd 31 f5 c7 3c
       -0.07621723 0.09722765 -0.07423182 0.024408909
000380 fd 35 9e 3d b5 3c 83 bb 54 0e b7 3d f4 83 57 3d
       0.07725141 -0.0040050396 0.0893828 0.052616075
000390 3e 3f 04 3c e4 3e a9 3d f8 27 92 bc 33 99 8b 3d
       0.008071719 0.082639486 -0.017841324 0.0681633
0003a0 dd bb 22 bc 55 f5 79 bd 29 57 b9 3d 7a 20 f8 bc
       -0.009932485 -0.061024982 0.090498276 -0.030288924
0003b0 1f 88 86 bd f7 8e bc 3c 24 f5 28 bc 54 0a 96 3b
       -0.06568932 0.02301739 -0.010312352 0.004578868
0003c0 ed ac e5 bc 84 b4 1b bd 2a af 13 3c ae 27 98 3d
       -0.028036559 -0.03801395 0.00901393 0.07429443
0003d0 15 0f b7 3d d4 1c 52 bd e6 7b b3 bd 90 e0 53 3d
       0.089384235 -0.051297024 -0.08763866 0.05172783
0003e0 db 34 51 3d 36 e2 a3 3d 9a e8 5c bc bd 79 d4 3d
       0.051075798 0.08002131 -0.013483191 0.10374782
0003f0 70 b8 a2 3b 6d c3 95 bd 2d 1c 63 3d 40 d5 1d bd
       0.0049658343 -0.07312665 0.055446792 -0.03853345

bias f4 [64]
000000 21 2c 28 bd 50 15 9e bd 26 76 0f bc 64 c3 cd bd
       -0.04105771 -0.07718909 -0.008756196 -0.100470334
000010 4e 8e ba bd 70 d9 83 3c ee f7 b8 3d 3a b6 8d bd
       -0.09109174 0.016094893 0.09031664 -0.069195226
000020 e0 bc 98 3c 2a e6 c4 3d 07 f3 b5 bd 91 89 10 bd
       0.01864475 0.09614213 -0.088842444 -0.035287444
000030 1f 01 05 3d 3d d2 ab 3d 35 5a 1b 3c 0a 18 5d 3d
       0.032471772 0.08389709 0.009481956 0.053978004
000040 0a 56 78 bd c7 c4 41 3d 6f c9 c0 bc 93 ae c0 3d
       -0.06062893 0.047306802 -0.023533551 0.094082974
000050 6b ad 81 bc 3f c6 8a 3d 50 2c c0 bd f3 6a 4e bd
       -0.015829762 0.06776094 -0.09383452 -0.050394963
000060 67 6f ac bc b1 de 8c bd 9a d7 a6 3c ac 90 fb bd
       -0.021049215 -0.068784125 0.020366479 -0.12283453
000070 14 5b 30 3d 07 93 9d 3d 82 86 6b bc c3 12 a8 bd
       0.04305561 0.07694059 -0.014375331 -0.082067035
000080 52 dc 6c 3d 7e 83 e1 3d f1 be 81 3d 64 9e e5 3c
       0.0578273 0.11011408 0.06335247 0.028029628
000090 a5 b7 67 bd fa 14 98 bc 54 f7 b0 bd 71 f6 2d bc
       -0.05657162 -0.01856469 -0.08640924 -0.010617838
0000a0 22 86 bf 3c 65 5c a8 bc 0a 6c a3 3d 99 d4 14 bd
       0.02337939 -0.02055187 0.07979591 -0.03633556
0000b0 d5 db c8 bd 45 99 4d bc 16 70 55 3d ca 5a 83 3d
       -0.09807555 -0.012548749 0.052108847 0.06413801
0000c0 78 1f 40 3d fd 82 db bd 63 e6 07 3b ac e3 af 3d
       0.04690501 -0.107183434 0.0020736686 0.08588347
0000d0 6b 3b a6 3d 57 08 5a 3d c3 64 03 bd 16 e6 79 bd
       0.08116802 0.05323061 -0.032078516 -0.061010443
0000e0 61 c4 82 3d 4e 27 de bd 5b d9 e3 3d ec 54 ba bd
       0.063851126 -0.108473405 0.11125442 -0.09098229
0000f0 60 bf 9a 3d e2 ab e6 3c e0 1b d2 3a 38 aa 11 be
       0.07556033 0.028158132 0.0016030036 -0.1422509

weight f4 [64, 64]
000000 88 40 97 bd 0c 24 24 3c 6a 1a be 3d 28 00 b1 bd
       -0.07385355 0.01001836 0.09282382 -0.08642608
000010 5e c0 cd bd fd 42 bb 3b 3b 75 30 bc 89 16 a8 bd
       -0.10046457 0.0057147727 -0.010770137 -0.08207423
000020 e9 b1 a2 ba c3 e9 c6 bc 1a 65 65 3d d6 d0 a7 3d
       -0.001241264 -0.024281388 0.05600462 0.08194129
000030 57 c0 95 bd c3 e2 73 bd 16 3d 5b bd 73 44 8a 3d
       -0.073120765 -0.05954243 -0.053525053 0.06751337
000040 8f 1b b5 3b de 89 a0 bd 29 40 d5 3c 3f 61 a8 bd
       0.005526967 -0.07838796 0.02603157 -0.08221673
000050 38 32 92 bd 39 1a c3 3c 16 7e 1e 3d 21 16 a5 3d
       -0.07138485 0.023816215 0.038694464 0.080608614
000060 18 4f 6b bd 34 3b 5d 3d 5d f5 89 bd 97 da c4 bc
       -0.057448477 0.05401154 -0.067362525 -0.024030013
000070 02 58 a1 3d c2 c8 69 3c 70 51 2f 3d 21 1c d1 bd
       0.07878114 0.014269056 0.042802274 -0.10210443
000080 70 01 cf 3c cf 4f 90 3d 45 c9 80 3d b2 1e e8 3c
       0.02526924 0.07046472 0.06288389 0.02833495
000090 9e 3a e7 bc aa ba 8c 3b 05 64 87 bd a9 ec 49 3d
       -0.028226193 0.004294713 -0.06610874 0.049297962
0000a0 63 8a 16 3d 2b f3 8d 3d f8 0e 40 3c 78 6d cb bd
       0.03675307 0.06931146 0.011722319 -0.09932989
0000b0 fd 7e 93 bd d3 e3 4e bc b1 2a 28 3d 1e 4e 85 3c
       -0.072019555 -0.01262756 0.04105634 0.0162726
0000c0 93 54 a6 ba b5 cd d4 bd 96 8e b1 3d d7 9b 9e 3d
       -0.001269 -0.10390798 0.08669774 0.07744568
0000d0 e0 42 02 3d bf c9 b0 bc 6e 3e c7 3d 52 e9 80 bd
       0.03180206 -0.021580575 0.097287044 -0.06294502
0000e0 72 f0 43 bd b0 69 81 bd 1a 1f 68 3d 56 a6 93 bd
       -0.04783673 -0.063189864 0.056670286 -0.072094604
0000f0 bf 0c 10 bb a4 ee b7 3c 99 1c a0 3d e1 f5 6e 3d
       -0.0021980254 0.02245266 0.078179546 0.058339957
000100 ef 73 48 3d de ae ba bd 3c 64 be 3d c4 33 5f 3d
       0.048938688 -0.091153845 0.09296462 0.054492727
000110 37 89 4b bb 76 f3 82 3d 3b be 36 bd 5a 12 a7 3d
       -0.0031057128 0.06394093 -0.04461501 0.08157797
000120 4f 27 1d bd 37 66 dc bc dc 0e 91 3d 25 7d ab 3c
       -0.038367566 -0.026904209 0.07082912 0.020933697
000130 2b 68 d5 bd fe 02 55 3d 39 ed f5 3d b5 20 ba 3d
       -0.10420259 0.052004807 0.12008137 0.090882696
000140 66 69 ab 3c a1 b5 9d bd 6d f7 33 bd 8a ea b6 bd
       0.020924281 -0.077006586 -0.043937135 -0.089314535
000150 a2 4d d8 3c f2 74 18 bd d4 45 37 3c 6f bd a3 bd
       0.026404206 -0.037220903 0.011186082 -0.07995116
000160 8d 7a f1 3d a6 31 3c 3d 43 81 e4 bb 38 2e 99 3d
       0.11790953 0.045945786 -0.006973417 0.07479519
000170 eb d4 85 3d 69 72 f4 bb cd 6a 14 bd c9 62 a6 3d
       0.065347515 -0.007459928 -0.036234666 0.081243105
000180 31 1e 4b bd 03 66 b8 b7 cd bd d5 bd 9f d7 86 3d
       -0.04958934 -2.1982012e-05 -0.10436592 0.06584095
000190 5f 10 ca 3d bd 9e ef 3d d0 ec aa bd 58 31 f2 bc
       0.09866404 0.11700199 -0.0834595 -0.029564545
0001a0 9f 1b fd bc 38 97 6b 3c d6 83 3e bc 39 e6 7d bd
       -0.03089696 0.014379315 -0.011628112 -0.061987136
0001b0 5a 5b a0 3d b9 0b 42 bd b8 75 5a 3c dd c1 cd bc
       0.07829924 -0.04737446 0.01333373 -0.025116855
0001c0 04 d7 62 bd c0 6b ef bb 3f 56 59 3d 8c 71 2e bc
       -0.055380836 -0.007306546 0.053060766 -0.010647189
0001d0 ed b3 38 3d 21 b7 d6 3d fb 96 e2 3c 5e 8c c9 3c
       0.045093466 0.10484148 0.027659884 0.024603065
0001e0 5e 77 9c bd 4c 22 bb 3d f5 0e 6e 3d bc 73 22 3e
       -0.07639955 0.09137401 0.058119733 0.15864462
0001f0 af 64 d9 bc a0 80 2a bd 98 70 97 3d 93 d3 1b 3e
       -0.026537267 -0.041626573 0.073945224 0.15217428
000200 87 ca dd bd 43 f5 79 bd 7c 68 ce bd 55 c3 1a bd
       -0.10829645 -0.061024915 -0.100785226 -0.03778394
000210 6d 87 19 bd 91 9c 69 3d 3f 80 18 3c 3a 95 c9 3d
       -0.037482668 0.05703408 0.00930792 0.09842916
000220 7f f1 2f 3d e4 70 ac bd 4d 5e 05 3d 5e 02 4e 3d
       0.042954918 -0.0841997 0.032560635 0.050295226
000230 be ae 9e 3c e7 26 9a 3d b0 c8 ad bc f1 f3 8f bd
       0.019370433 0.07526951 -0.02121386 -0.0702895
000240 ec db 6e bc ae 61 8b 3c 68 a9 b2 3c 58 f9 c7 bd
       -0.014578801 0.01701435 0.021809295 -0.097643554
000250 1e 7d 1f 3d 89 fa 5d bd 54 83 71 3d b3 74 1e bd
       0.03893768 -0.054194007 0.058963135 -0.03868551
000260 6f 3b bd 3d f8 21 a3 3c 6d 96 ee bd 7c 36 92 bd
       0.09239852 0.019913658 -0.11649785 -0.07139298
000270 2f 39 cf 3d e3 4f 5d 3d e3 c5 4a 3d bc 95 62 bc
       0.10118329 0.054031264 0.049505126 -0.013829645
000280 83 25 c6 3d 4b c2 d2 3d f6 c1 5f 3d b0 43 22 bd
       0.096751235 0.10290965 0.054628335 -0.039615333
000290 03 db 92 3c 75 ae 11 bc d0 c5 6c bd fb 1e 8a bc
       0.017926699 -0.008891691 -0.057805836 -0.016860476
0002a0 b3 a8 97 3d eb c2 4a bd 37 ef 6d 3c 9e e3 b2 3d
       0.07405224 -0.049502295 0.014522365 0.08734821
0002b0 65 99 cb bd 97 ff a9 3c 38 54 cf 3b 90 0c 96 bd
       -0.09941367 0.020751758 0.0063271783 -0.07326615
0002c0 51 c6 ba bb 81 29 71 3b 19 4d 0a bc c8 e4 ff bc
       -0.0056999107 0.003679842 -0.008441233 -0.031237021
0002d0 dc 8d 77 3d 3f 6c bd bd 9c e8 22 bd 81 df 10 3d
       0.060438022 -0.09249162 -0.039772615 0.0353694
0002e0 ae d1 58 3d bb 95 79 bd f4 77 55 bd 23 f5 a5 3b
       0.05293434 -0.06093381 -0.05211635 0.005064623
0002f0 3c 20 be 3d 42 7c 29 3d 90 56 8a bd 6f bd c0 bd
       0.09283492 0.041378267 -0.06754792 -0.094111316
000300 dc eb 55 bd 21 c4 b5 bc 31 f7 67 3c 47 1e a5 bd
       -0.052226886 -0.022188248 0.014158056 -0.080624156
000310 fa 02 0b 3d 25 fd 17 3d 75 88 ae 3d 00 1d 4c bc
       0.033938386 0.03710665 0.08522121 -0.012458086
000320 a0 07 fc 3c a5 a7 82 3d 5a 86 bc 3d f9 7f 3b bc
       0.030765355 0.06379632 0.09205313 -0.011444085
000330 4e 1f 2a bd 2b 1e 8c 3d 69 d5 a9 bd 2e 4f 87 bd
       -0.04153376 0.068416916 -0.08292658 -0.06606899
000340 d9 a9 c2 3c 51 5d 54 3d ef a4 3d bc 4b d1 57 3d
       0.02376263 0.051846806 -0.011574968 0.05268983
000350 1b 3c 44 3d b4 63 bc bc de 1d 4e 3d 1d 79 99 3c
       0.047908884 -0.02299676 0.050321452 0.01873451
000360 94 f1 62 b9 bc 62 a7 3c ed 6f 0f bd 14 04 18 bd
       -0.00021643034 0.020432822 -0.03501885 -0.037113264
000370 0a 4f bf 3c 83 58 de 3b 5f fe 8a 3d 32 1d 4e bd
       0.023353118 0.0067854538 0.06786799 -0.05032081
000380 51 b4 48 bd bb e9 bc bd ec b3 59 bd 96 43 ca 3c
       -0.049000088 -0.09224268 -0.053150102 0.02469043
000390 46 e6 b6 bd f5 be 54 bc 30 b1 c5 3d c3 d1 ee 3d
       -0.0893064 -0.012984981 0.096529365 0.116611026
0003a0 32 85 ab 3b c4 81 67 bd 20 43 80 3d 49 f1 0f 3d
       0.005234384 -0.05652024 0.06262803 0.035142217
0003b0 8a 19 37 be 03 c6 1b bd a5 da d5 bd 43 4b fe 3d
       -0.17880836 -0.038030636 -0.10442094 0.12416699
0003c0 55 8a 0f 3d 15 d8 0f 3d 90 c1 f7 bc b9 8c dc 3d
       0.035044033 0.03511818 -0.030243665 0.10769028
0003d0 84 06 8e 3d 33 e1 91 3d 5a 61 a1 bd d1 69 fd bc
       0.069348365 0.071230315 -0.078798965 -0.030934246
0003e0 95 e9 a2 3c 02 a7 a1 3c 1b d9 be 3d 70 e2 0e 3d
       0.019886771 0.019732956 0.09318753 0.034883916
0003f0 57 2a 74 bd 65 8c cc bd 73 d2 a5 bd 5b 80 87 3d
       -0.05961069 -0.09987716 -0.08096781 0.06616279

bias f4 [64]
000000 f3 ab 42 bd d7 83 b6 bd 41 c3 8d 3d f1 bc 28 3e
       -0.047527265 -0.08911865 0.06922007 0.16478325
000010 a3 9c 23 3e 1e 2c 05 3c 19 0f c4 3d 1a d3 af 3c
       0.15977721 0.008128194 0.09573192 0.021462966
000020 54 ef 21 bd 30 0c e3 bc de 3a 84 3c 3d bb 37 bc
       -0.03953488 -0.027715772 0.016141351 -0.011214075
000030 4d a0 a6 bc 60 95 53 bc 14 76 50 bd 46 d1 b5 3d
       -0.02034011 -0.012914032 -0.050893858 0.08877806
000040 07 f7 64 3d 2f c1 fc bd 54 19 73 3d 01 cc e9 bc
       0.055899646 -0.12341534 0.059350327 -0.02853966
000050 22 56 c2 bd a8 5f 50 bd 08 8d e8 3b 37 06 e6 bd
       -0.09489085 -0.050872475 0.0070968904 -0.11231654
000060 81 89 83 bd 6d 64 cf bc bd b1 c6 bc 6e 12 e0 3d
       -0.06422711 -0.025316441 -0.024254674 0.10941015
000070 20 9c a5 3d 4a ae 0d bc b6 7c 22 be 5c 93 ae bd
       0.08086419 -0.008647511 -0.15867886 -0.085242
000080 19 1d c5 bd 7c cb 52 3d d7 7b 27 bc 17 08 2c bd
       -0.096246906 0.05146359 -0.010222397 -0.041999903
000090 40 53 a4 bd 86 8a ba bd b7 bf 23 3d 79 64 50 bd
       -0.08023691 -0.091084525 0.039977755 -0.05087707
0000a0 90 f3 7b bd ca 08 84 3d 01 09 7e bd f2 ff b7 bd
       -0.061511576 0.06446989 -0.062020306 -0.089843646
0000b0 88 d4 d1 bd 0e 1d 11 3e ca de c5 3d d6 ae 53 bd
       -0.10245615 0.1417124 0.09661634 -0.05168041
0000c0 d6 e0 d3 bd c0 4b 83 3c 97 2e 97 3b a1 90 9c 3d
       -0.103456184 0.016027331 0.0046137082 0.07644773
0000d0 73 2c f6 bd ff 5c 9b bd 21 38 9e 3d f2 e1 9f bd
       -0.12020197 -0.07586097 0.077255495 -0.078067675
0000e0 ac 92 7f bd 54 44 4f 3d 2e 58 2e bd 2c 91 7d 3d
       -0.062395737 0.050602272 -0.042564563 0.061906025
0000f0 e5 84 16 bd 41 46 35 be 05 f8 48 3d 59 23 4d 3b
       -0.03674783 -0.17702581 0.049064655 0.0031301586

weight f4 [64, 64]
000000 ec ef 3f bd cd ec ec bc 93 a9 8a bd d5 ca c1 bd
       -0.046859667 -0.02892151 -0.06770625 -0.09462515
000010 08 3d 2c 3d 89 fe 07 bd 53 1d b6 bd 69 93 5f bd
       0.04205039 -0.033201728 -0.08892312 -0.05458394
000020 1c ca b4 3d 6b 4e c2 3d 73 5a e9 3d 75 c9 98 3c
       0.08827612 0.09487613 0.11394205 0.01865075
000030 eb 23 29 3d d0 1a a2 bd 70 42 a7 bc 70 0d 0b 3c
       0.04129402 -0.0791527 -0.020417422 0.0084870905
000040 09 56 a1 bd 9a f0 95 bc bd dd 27 3d 50 22 c1 3d
       -0.07877738 -0.018303204 0.04098295 0.09430373
000050 1a 6f 8e 3d c3 ba 73 3d 8c 10 94 3c c7 70 8b 3d
       0.06954785 0.05950428 0.018074296 0.0680862
000060 c5 e8 00 3d 44 5c 5a 3d 68 d9 a3 bc 1b 38 21 3d
       0.031471986 0.053310648 -0.020001128 0.039360147
000070 cd ed b2 bd 79 6e cf 3c 41 60 8f 3d db 5c a9 bb
       -0.08736763 0.025321232 0.07000781 -0.00516854
000080 9e 91 96 3d d0 76 0c bb f2 50 13 bd ab 95 34 bc
       0.07351993 -0.0021433122 -0.035965867 -0.011022012
000090 d5 28 0f bd 70 cc a7 3c 87 78 b4 bd 1d 84 a6 bd
       -0.03495105 0.020483226 -0.08812051 -0.08130667
0000a0 bd c6 74 bd 8f 06 8a 3d 55 53 4c 3d 75 56 cf 3d
       -0.059759844 0.06739532 0.04988416 0.10123912
0000b0 12 19 e9 bd 83 b7 9a 3d 7f 1c 35 bd e5 96 a4 3d
       -0.11381735 0.07554533 -0.04421663 0.08036593
0000c0 26 ab 4c 3d cb 88 46 3d 58 18 4f 3d e6 6e 07 bd
       0.049967907 0.0484703 0.050560325 -0.033064745
0000d0 4d 8c 67 3d 58 e5 8a bd d2 d6 e2 bb 62 29 5c bd
       0.056530286 -0.06782025 -0.0069225812 -0.053750403
0000e0 69 a7 44 bb e8 9a 3b 3d 55 c2 1c bd 08 1e 85 3d
       -0.003000701 0.045802027 -0.038271267 0.06499869
0000f0 34 29 1d 3d 31 e4 b5 3b d0 cd 19 3d 51 43 b7 3d
       0.038369372 0.005550884 0.037549794 0.089483865
000100 f3 32 4b ba 7b b1 05 bc 86 ee 54 3c e9 34 05 bd
       -0.00077514275 -0.00815999 0.012996322 -0.032521162
000110 94 fd f3 bb ff 9f 84 bd 2f 6b ce bd 33 0f a5 3d
       -0.0074460004 -0.06475829 -0.100790374 0.0805954
000120 db 99 95 3c d3 d3 cc 3d 97 54 d1 bd 49 2b c1 3d
       0.01826184 0.1000134 -0.10221212 0.09432084
000130 74 56 b3 3c de 4c c7 bd 94 47 87 bd 7b 90 79 bd
       0.02189181 -0.09731458 -0.06605449 -0.060928803
000140 e4 55 26 3c ff 8b f9 bc 25 13 de 3d 34 8d 8d 3d
       0.010152314 -0.030462263 0.10843495 0.06911698
000150 ed 76 84 3d af 18 d2 bd e1 d5 23 3a ca f4 82 bc
       0.06467996 -0.10258614 0.0006249827 -0.015985865
000160 0a 47 57 bd 1d 0c 89 bb ef 62 aa 3d dc 0e 11 bd
       -0.052557983 -0.004182352 0.08319651 -0.03541456
000170 20 3f e2 3c 04 f4 0a 3d ed 65 7d bd 3f 1c a1 bc
       0.027617991 0.033924118 -0.061864782 -0.01966679
000180 fd e7 5e 3d 60 b2 0b 3d 1a 85 8d bd dd ea 99 3d
       0.05442046 0.03410566 -0.06910153 0.075155
000190 fb e3 b8 3c 27 1a 52 bd 9a 9e c6 bc 6a 14 b0 bc
       0.022569647 -0.051294472 -0.024245549 -0.02149411
0001a0 27 36 ae ba 4c 73 9c 3d b7 a7 8f bc 10 d9 d3 3c
       -0.0013291285 0.07639179 -0.017536027 0.02586034
0001b0 1d c1 95 bd 1b 22 27 3d 7c 5c 33 3b 23 d7 66 3d
       -0.07312224 0.04080401 0.0027368357 0.056357514
0001c0 53 06 cf 3c 5c 6b 93 3d 62 ad aa 3d 7e 83 b7 bd
       0.02527157 0.071982116 0.083338514 -0.08960627
0001d0 32 27 ae 3d b9 30 84 bc 5e 5c bf bd e1 3e a4 3d
       0.0850357 -0.016136514 -0.093437895 0.08019806
0001e0 1b 21 84 3d ea 6b 55 bd a0 4e 3f 3d 56 0b 21 ba
       0.06451627 -0.052104868 0.046705842 -0.0006143352
0001f0 4c 8d 74 3d cc dd c6 bd 93 5e b8 bb 77 a1 7c bd
       0.059705064 -0.09710273 -0.0056265085 -0.061677422
000200 43 5f 66 bc b2 18 a5 bd 18 b3 b2 3b d4 ac 0e 3d
       -0.014060798 -0.08061351 0.0054534785 0.03483279
000210 0b 53 5d 3c 54 b9 9c 3d 41 d4 ed bd 31 5d bd bc
       0.0135085685 0.07652536 -0.1161275 -0.023115726
000220 8a 29 28 3d ca 92 9a bd b3 89 4d bd cf de b0 bd
       0.04105524 -0.07547529 -0.05018015 -0.08636247
000230 b4 46 48 3c 8b 64 8a bb 77 b2 12 bd 6d 56 ab 3d
       0.012223888 -0.0042234114 -0.03581473 0.08366094
000240 92 a2 bd bd 21 99 93 3d 76 70 25 bd 2a 71 c8 bc
       -0.092595235 0.072069414 -0.040390454 -0.024468023
000250 ec dd d0 bd 01 92 88 3d 81 5b ad 3b d9 5f 9c bd
       -0.10198578 0.06668473 0.005290449 -0.07635469
000260 df b2 33 bd 8a 9e 88 3d b4 18 0d bd b2 51 86 bd
       -0.043871757 0.06670864 -0.034447387 -0.06558551
000270 79 bf fe bd 39 e0 9c 3d d7 eb 08 3d 8b 0c 3e bc
       -0.12438864 0.076599546 0.03342804 -0.01159967
000280 0b b2 86 bd 5a 15 93 bd 87 f9 1c 3d 62 6c 28 bd
       -0.06576928 -0.07181807 0.038323905 -0.041118987
000290 56 1e ad 3d a3 72 e7 bc 4e 53 6a bc 8e 19 a0 bd
       0.08453052 -0.028252905 -0.014302088 -0.07817374
0002a0 97 27 2b 3d b8 d2 a0 3d 05 8d 03 3b c9 6c 64 bd
       0.041785803 0.078526914 0.0020073068 -0.055767808
0002b0 17 e4 2f bd 5d 4a 2a bd 4a d6 f2 3d 0d 4d c5 bd
       -0.042942133 -0.041574825 0.11857279 -0.09633837
0002c0 29 60 c3 3d 7a d8 0d 3d 7f ca 96 3d 65 46 a1 3c
       0.095398255 0.034630276 0.07362842 0.019686887
0002d0 9d 4f 63 3d 12 79 ca bd 5b 71 a2 bc 8f dc 93 3c
       0.055495847 -0.098863736 -0.019829443 0.018049506
0002e0 84 63 ce bc a9 0b af bd d7 be 22 bd cf 1f 37 bc
       -0.025193937 -0.08547146 -0.03973278 -0.011177017
0002f0 13 e9 04 be 91 6b 25 bc 7a 28 00 be aa a4 79 bd
       -0.12979536 -0.010096447 -0.1251544 -0.06094805
000300 59 ab ab 3c 51 04 cd bd 3e 6b 80 bd 94 7b bf bd
       0.020955728 -0.10010589 -0.06270455 -0.093497425
000310 f3 00 b7 bc a0 07 cc 3d 94 d5 80 3d b4 1e 51 3d
       -0.02233932 0.09962392 0.06290737 0.05105467
000320 fe c2 0d bb b1 ef eb 3c dc 7a c9 3d 17 b0 db 3b
       -0.0021631117 0.028800817 0.09837887 0.006704341
000330 e7 ee a1 3d ba f8 77 3d 38 eb 2e 3c 4e 98 76 bd
       0.07906895 0.06053994 0.010676198 -0.060203843
000340 55 1c a3 3d e7 1f 5a bd 57 1a 14 3d be d8 c0 3d
       0.07964388 -0.05325308 0.036157932 0.0941634
000350 92 f8 97 3c 40 7a 83 bd a6 4c a6 3d e0 4a 9f bd
       0.018551145 -0.06419802 0.08120088 -0.07777953
000360 40 fb b3 3d 77 f2 3d bd 60 cf 32 3c 51 cf 10 bb
       0.087881565 -0.04637381 0.0109137 -0.0022096226
000370 5b fc da bc 6e 9e 8d 3c c2 ed b8 3c cd 4f bf bb
       -0.02673166 0.01728746 0.02257431 -0.0058383704
000380 3a da 83 3d 3e 55 08 bd 48 5d b2 bb 4c 62 67 3d
       0.06438108 -0.03328442 -0.005443249 0.056490228
000390 20 5d 70 bd ce f1 7f 3d 5f ee 80 3a ef 57 78 bd
       -0.05868256 0.062486462 0.0009836665 -0.060630735
0003a0 df 96 ae bc b3 20 81 3d 82 7c a1 bd 20 cf 81 bd
       -0.021312175 0.06305065 -0.07885076 -0.06338334
0003b0 67 f8 e1 bd f4 9e 99 3c fd 9c b8 bd 0a c9 dc bc
       -0.11033707 0.018752553 -0.09014318 -0.026951332
0003c0 a9 e2 d4 bd ba 79 80 3d 37 73 84 bd 74 50 45 bd
       -0.103947945 0.062732175 -0.06467288 -0.04817243
0003d0 43 07 be 3c 6f 77 a8 3b 8c 77 7c 3d 84 57 c5 bd
       0.023196822 0.0051411907 0.061637446 -0.09635833
0003e0 8e 6f 78 3d ef 08 33 3d 38 4c b7 3b f4 59 cb 3c
       0.06065326 0.04370969 0.005593803 0.024823166
0003f0 45 78 8c 3d eb 5b c8 bd a8 4c b3 bd df b2 10 bd
       0.06858877 -0.09783157 -0.087548554 -0.035326835

bias f4 [64]
000000 c9 b5 9f bc 80 42 61 3c fc 20 3f 3e f2 71 09 3d
       -0.019495862 0.013748765 0.18664926 0.033555932
000010 96 15 2d be 9c 4c 70 bd ed b1 d6 3e f0 0a 5c bb
       -0.16902766 -0.05866681 0.41932622 -0.0033575855
000020 50 98 94 bd 2a 72 29 bd 55 ac 06 be 3e 88 85 3d
       -0.07255614 -0.04136864 -0.13151677 0.06520127
000030 35 26 4c 3d 4d a1 6f 3e 5a 94 96 bd fa d4 85 bb
       0.049841125 0.23401375 -0.073525146 -0.0040842267
000040 8c d9 de bd 47 9a 83 3e af 21 d2 3d 31 bb 0b be
       -0.108813375 0.25703642 0.10260331 -0.13645627
000050 26 ae 94 bd 54 2b 33 bc d9 f4 56 3e 92 47 f7 bc
       -0.07259779 -0.010935623 0.2099184 -0.030185495
000060 98 74 bf bd 28 bd a6 3a 44 ee 56 bc bf 6b 87 3e
       -0.0934841 0.0012721168 -0.01311833 0.2644939
000070 f9 27 d8 3e da c6 0e 3e 44 14 80 3c 46 19 a8 bd
       0.42217997 0.13943043 0.015634663 -0.082079455
000080 72 f0 2b bd f7 92 d4 bd a7 32 c4 bd 6d 3d 6c 3e
       -0.041977353 -0.10379594 -0.09579974 0.23070307
000090 a1 e9 66 bd 1d 5b 6b bd 38 ae 3e 3e 5f 52 24 3e
       -0.05637515 -0.05745994 0.18621147 0.16047047
0000a0 4d fc 01 be fd 7b b1 bc eb 99 55 3e 00 f7 5c bc
       -0.12693901 -0.021665568 0.20859496 -0.013486624
0000b0 26 13 cb bc d2 b1 90 bd bb b2 2c 3e 78 fd b2 3d
       -0.024789404 -0.070651665 0.16865055 0.087397516
0000c0 fd b6 84 3d 77 2a 7d bd d2 19 60 3e cf 26 08 3d
       0.06480215 -0.061808076 0.2188485 0.033240136
0000d0 d9 9f bd 3d be 76 3a 3e d2 15 cc 3d a9 a5 23 bd
       0.09259004 0.18209359 0.099650994 -0.039952908
0000e0 e7 75 a0 bb 2e a0 cf bd 41 28 3d 3d bf ce 7e 3e
       -0.0048968676 -0.10137974 0.046180967 0.24883555
0000f0 52 a3 92 bd 1d da fd 3b 40 32 89 bc 4c 5a a2 3c
       -0.07160057 0.0077469484 -0.016747594 0.019818448
