mlartifacts/554351476986166068/9bff7795816b45719527c46211cce8b7/artifacts/models/Model_dim64_layers5_experiment/r2_score-0.00023648093064458178_run18/data/model.pth (torch, 294728 bytes, 13 tensors)

weight f4 [64, 801]
00000000: cf72 e03c 4488 48bc 7519 c63a 89f1 02bd
00000010: d19b f73c ff92 343c 4016 c5bc 8c05 9fbc
00000020: 6d16 773b 88df bd3b a6fe 33ba 8457 f5bc
00000030: 7289 e0bc 1f38 abbc 03ff 16bc 71d2 823c
00000040: 2d15 323c cc81 d1bc 46c4 e8bc 104e 09bd
00000050: 3cde 083c 4659 cabc 9c25 81bb c626 fd3c
00000060: 0a76 a73c 2d53 42bc 2e7c ae3c 1ec0 023d
00000070: d9f0 99bb 2fb5 ab3c 951a efbc 2b5a ebbc
00000080: 753c 03bd b50c 1e3c 660a 80bc 419d 88bb
00000090: 438b acbc db9c 363c d457 1fbc 0c94 f8bc
000000a0: 04f9 70bb 86ab d23c ad67 ca3c 9df3 0e3d
000000b0: 651e a43b 3a1c c9bc 1f19 f83c 4e1c b8bc
000000c0: 2018 a0bc 147c 07bd a519 9a3c 7a30 eebc
000000d0: 295c abbc c2ac ae3c 4c10 e63c 83c7 82bc
000000e0: 62b5 02bd 9e59 7f3c b63b d3bc 69d6 e5bc
000000f0: 700d 143c 86f3 063d e3b6 513c c61a 0f3d
00000100: 37f4 a1bc 7914 bf3c bf0e e6bb cf35 0cbd
00000110: b650 c83c 9578 053d 6492 493c 4532 0a3d
00000120: 2d04 fdbc 57ed a23c b49a febc 7656 88bc
00000130: 6c34 a23b 19d5 b1bc c13d db3c 500e b23c
00000140: 5b58 03bd be3d 723c c5ef c6bb 984b afbc
00000150: de32 4abc 0530 8c3c 516c b03b 1202 db3c
00000160: d191 5fbb a173 a73b 3f15 02bd c808 d43c
00000170: c92f 5c3c 4b6c 383c 5b6b adbc d3d8 253c
00000180: 9d20 083d 23b9 92bc 7600 4fbc 2f2f 84bc
00000190: 0de6 e43b 5083 0b3d cb66 de3b d287 86bc
000001a0: 59f3 cb3c e74f e53b 4e42 c53a 3b32 b83c
000001b0: 4404 61b7 6e53 a33c 8acc 483c a029 f43c
000001c0: 00cd 9cbc 5058 d2bb 4072 3bbc cb3d 10bd
000001d0: 4da0 e53c 5e10 b73b ec5f 063d 8596 e3bc
000001e0: bfee f8bc b4d9 743b ee9e 0cbb 8d99 ef3c
000001f0: 75e8 38bc 2f88 043c 1ce6 a9bb 03f8 93bc
00000200: bf7d 0ebd c648 3cbc b076 0e3d 2674 ae3c
00000210: 1f4e 4c3c a548 88ba 828f 493b 24dc 063c
00000220: 5a76 083c 8030 55ba 6edb c33c 02a2 f33b
00000230: 544d 0b3d 1b3b 723c 2ede 9a3c 2ccc a0bb
00000240: 0c87 eebc 585c fcbc 9461 61bc 22f4 cabb
00000250: ce33 a2bc 9377 d6bc 971d 703c 15d1 0a3b
00000260: 878b 0d3d 7ff7 5ebc 163b 013d b7ee 8d3c
00000270: ed1e e63c d9d5 b8bc 45c4 393c 96e4 e13c
00000280: 3aa9 8dbb 56b3 30bc e74c 00bd decb f03c
00000290: 20e0 fa3c 1a25 85bc fdc9 b63c 2e12 efbc
000002a0: 91cd b1bb 1a1b c43c 1993 053d 2b13 b33c
000002b0: 18b8 ca39 0c88 99bb 5a41 1d3c 3622 66bc
000002c0: ea2b 20bc c074 e73c 99af 613c 32a0 cebc
000002d0: 08e6 0dbd 8e6e c53c 4685 38bc 767e 333c
000002e0: 3631 da3b f935 0f3c 9c12 c3bb 8ff4 c2bb
000002f0: a25d 4cbc a07c 3a3c 66be db3c ab9b 50bb
00000300: 8d2c d0bc 7cbc ba3c 9eb7 0fbd 2320 4a3c
00000310: 4ab9 90bb e441 acbc f0e5 a13c 3737 00bd
00000320: ace8 07bc ed4f e73c 14c9 b73c 4890 94bc
00000330: 41b8 bebb 3cbb 063d ab68 7dbc 8dc2 b4bc
00000340: 2e65 a4bc 6432 133c bbaf 963c 6c92 8c3c
00000350: 39b4 e9bc d6af c2bc 9d20 c73b 828d bd3c
00000360: 62a4 0d3d 435d 1f3c 9d80 e43c 85b3 e93a
00000370: a2a9 fdbc f227 47bc 9b63 8dbc 4477 093d
00000380: 941d 9fbc 7981 ed3c d17b 8e3c 8437 a9bc
00000390: c275 a1bc fcdf 1bbc c690 07bd 62a0 9b3b
000003a0: bf41 19bb 96e3 ad3c bddb 903c 7df3 833b
000003b0: da34 fabc 3e44 dd3c 01be a23c d100 a7bc
000003c0: 8f88 86bc 4575 adbc 44d3 01bd d038 833c
000003d0: 61b2 21bc 94f4 b93c 0efa f53c 5986 afbc
000003e0: e576 0cbd 1b2c cabc 66d1 0fbb 32f6 bfbb
000003f0: b6af 4e3b dd70 01bc 63fc 0cbd 159f 363c
0.027398495 -0.0122395195 0.0015113788 -0.031968627 0.030225666 0.011021375 -0.024058461 -0.019411825
0.0037702576 0.0057944693 -0.00068662537 -0.029948957 -0.027409289 -0.020900784 -0.009216073 0.015969487
0.0108693065 -0.025574587 -0.028413903 -0.03352171 0.008353766 -0.024700772 -0.003941251 0.030902278
0.020442028 -0.011860651 0.021299448 0.0319215 -0.0046979007 0.020960419 -0.02918748 -0.028729519
-0.03204008 0.009646584 -0.015629958 -0.0041691368 -0.021062499 0.011145796 -0.00972553 -0.030344032
-0.0036769519 0.025716554 0.02470764 0.034900296 0.005008506 -0.024549592 0.030285416 -0.022474434
-0.019542754 -0.033077314 0.018811056 -0.02907585 -0.020917969 0.021322612 0.028083943 -0.015964275
-0.03191126 0.015585331 -0.025785308 -0.02805634 0.009036407 0.032947086 0.012799951 0.034937643
-0.019769771 0.023325192 -0.007020801 -0.034231003 0.024452548 0.0325857 0.012302969 0.033739347
-0.03088578 0.019888563 -0.031079628 -0.01664279 0.004950097 -0.021708058 0.026762845 0.02173534
-0.032066684 0.014785228 -0.006071063 -0.02139835 -0.012341229 0.017112741 0.005384006 0.026734386
-0.0034114013 0.0051102196 -0.031758543 0.025883093 0.013439127 0.011256288 -0.021169355 0.010122496
0.033234227 -0.017910546 -0.012634387 -0.01613578 0.006985432 0.034060776 0.006787156 -0.016422186
0.02489631 0.0069980505 0.0015049668 0.02248489 -1.3412038e-05 0.019937243 0.012255797 0.029805005
-0.01914072 -0.006419219 -0.011440814 -0.03521518 0.028030539 0.005586668 0.032806322 -0.027781734
-0.03038728 0.0037361206 -0.0021457034 0.029248023 -0.011285891 0.008089109 -0.005184902 -0.018062597
-0.03478789 -0.01149196 0.034781158 0.021295618 0.012469797 -0.0010397626 0.0030755703 0.008231197
0.008328998 -0.0008132532 0.023908343 0.0074350843 0.034009293 0.0147846 0.018904772 -0.0049071517
-0.02911713 -0.030805752 -0.013756175 -0.0061936537 -0.019800093 -0.026180064 0.014655492 0.0021181752
0.03455689 -0.013608812 0.03155049 0.017325742 0.028090918 -0.022562908 0.011338298 0.027574819
-0.004323152 -0.0107849445 -0.03132334 0.029394086 0.03062445 -0.016253043 0.022313112 -0.029183473
-0.0054261168 0.023938704 0.032610986 0.021859726 0.00038665603 -0.0046854075 0.009598101 -0.014046242
-0.009776095 0.028253913 0.013774776 -0.025222871 -0.034643203 0.024100568 -0.011262244 0.010955444
0.0066586984 0.008740895 -0.005953146 -0.005949564 -0.012473496 0.011382252 0.026824187 -0.0031831067
-0.025411868 0.022794954 -0.03508722 0.012336764 -0.0044166194 -0.021027513 0.019762963 -0.031302657
-0.008295219 0.028236354 0.022434749 -0.018135205 -0.0058203046 0.032893404 -0.015466849 -0.022065425
-0.020067777 0.008984182 0.018394342 0.017159663 -0.02852832 -0.023765486 0.006076886 0.023138765
0.034580596 0.009726825 0.027893359 0.001782999 -0.030964676 -0.01215552 -0.01725941 0.033561006
-0.019423284 0.028992401 0.017393025 -0.020656355 -0.019709472 -0.009513851 -0.03309705 0.0047493437
-0.0023385135 0.021226685 0.017682904 0.004026829 -0.03054278 0.02701008 0.019865992 -0.020386131
-0.016422538 -0.021174083 -0.03169562 0.016018301 -0.009869189 0.022699632 0.030026462 -0.021426367
-0.034293074 -0.024679234 -0.002194488 -0.005858206 0.0031537837 -0.007900444 -0.034420382 0.011146327

bias f4 [64]
00000000: 89f8 743c 4c5e f83c eb76 933c adf2 4dbc
00000010: 9cf6 e3bc aacd 92bc d9d8 e23c c185 a13c
00000020: eb0e c0bc 6c7e b03c 7de6 6c3c d4b4 21bc
00000030: 73ee f5bc e548 8b3c fd0f d4bc d440 caba
00000040: 9ef8 01bd e87e 113c 79a9 2abc 3fde 083d
00000050: 95da e7bc 31b7 ab3c d849 dfbb cea5 f03c
00000060: 36ba e1bc 69b0 e63c 0295 a43c 8ddf f03c
00000070: 0812 473c 3568 513c e642 903c 3ad5 a8bc
00000080: 2b42 833c 09b3 ab3c 8e43 0cbc 3468 b43c
00000090: 4478 873b afc3 f2bb 49b5 0bbd ea3c 0ebd
000000a0: 0dff cb3b bf5d 50bc b328 a2bc 3108 9abc
000000b0: 7301 6d3c d399 b4bc 980c d3bc c801 123c
000000c0: 6634 0d3d a764 5bba 9c88 08bc 93f1 643c
000000d0: f28c aabc 2b16 d53c 815e 22bc c5b8 0a3c
000000e0: 60dd 0fbd e930 de3c 3cbb b5bc 8e26 0ebd
000000f0: d835 a53c 0e0e 9cbc f6ec b3bb 67c9 9c3c
0.0149518335 0.030318402 0.01800104 -0.012570065 -0.027827553 -0.017920334 0.027691292 0.0197171
-0.023444613 0.021544658 0.01445925 -0.009869773 -0.030020928 0.017002532 -0.02588653 -0.0015430697
-0.03173124 0.008880354 -0.010416382 0.033415075 -0.02830247 0.020961376 -0.006814223 0.029375937
-0.027554613 0.02816029 0.020090584 0.029403472 0.012150295 0.012781193 0.017610025 -0.020609487
0.016022762 0.020959394 -0.008561028 0.022022344 0.00413421 -0.007408581 -0.034108434 -0.03472606
0.006225473 -0.012717663 -0.019794798 -0.018802734 0.014465678 -0.022046005 -0.025762841 0.0089115575
0.0344738 -0.00083691854 -0.008333351 0.013973611 -0.020819161 0.026011547 -0.009910227 0.008466904
-0.03512323 0.027122932 -0.022184007 -0.034704737 0.020167276 -0.01904967 -0.0054908944 0.019139005

weight f4 [64, 64]
00000000: 7096 8ebc 4a6d babc ab75 7f3d 04b0 e33d
00000010: 1d5a fcbd c026 18bd 42c1 80bd cbeb ac3d
00000020: 06ac 9a3d f413 0fb9 a662 213d 960f bebd
00000030: 69d6 09bd 04cd b73c dad5 973c ab10 abbd
00000040: b6ce 8d3c 0245 803c 52d8 e5bd 834b a0bd
00000050: 1c68 b13c b599 95bd 4270 e13d a846 86bd
00000060: 5890 853d 2adb 66bb 64f8 e83d cb76 4b3d
00000070: 1de4 29bc af3f 8b3d cacc c3bd 9f64 7b3d
00000080: e3fa 363d ff00 62bc 9499 b93d 0bdc cdbc
00000090: c1f7 af3d 60ac a43d 94ba 3bbd 38e0 593d
000000a0: 244c 6dbd 1a0f 9d3c 6a0c 2c3c ba64 28bd
000000b0: fb51 04bd 5ed0 c6bd 7c2c 81bd c405 b73c
000000c0: 6b70 8abc 3033 c53d 17eb 523d 1e5f c63d
000000d0: e4c2 f03d 1e19 57bc 02cc dabc 3e43 193d
000000e0: f617 843d 9434 dbbd 0919 f6bb d37a 413d
000000f0: 5276 d5bd 4ad7 683d d5b6 b1bd 83f1 a13d
00000100: a6b2 d9bd 9d9b f63d 06e7 ec3d 63fe 673d
00000110: 293a a4bc ec59 0aba 174e edbd 7eda babd
00000120: d714 dc3c e577 fdbd b13a b83d 8e18 fcbd
00000130: 7454 f63d a534 58bd ad8f 993b 43b9 e33d
00000140: 9223 de3d 053c 333b 6f9b ba3d e6e2 633d
00000150: 73d6 83bd 8811 f4bc 9a29 bdbb 4372 88bd
00000160: 36f9 e8bc 9c18 c23d cb00 f9bd 3d88 a9bb
00000170: 31f6 df3d 1163 e63d a2d9 0abd a04d c1bc
00000180: 19d7 763d 3ead 713d 1e05 e73d 4292 5a3d
00000190: 87aa 373c 67c0 4e3c 51b1 2ebd d20a df3d
000001a0: c8bc e4bd c2b3 79bd 7974 7a3d 2c68 f53c
000001b0: 3d03 f5bd 8b31 a8bc 6525 36bd ca90 893d
000001c0: 197b 753d dbf2 8dbd 7235 663d ad37 c53d
000001d0: 9544 263d e036 1c3c 7608 27bd d8fa 93bc
000001e0: bed6 f33d 640e 9cbd 758f 9bbc b808 1c3d
000001f0: 9705 98bd ca39 913d 6439 87bd 658d ef3d
00000200: a345 383d 645d 68bd d4dc 3d3d 58a0 abbd
00000210: 3f4a 5e3d 04b5 ebbd 4c71 c5bc 4446 ef3d
00000220: a413 e83d 8845 913c 112b 0d3a 0e8d 4bbb
00000230: c74f ba3d dc4d 663d 4e05 cfbd 6bc0 44bd
00000240: 2be5 8dbd d046 57bd d40e 91bd 713f 663d
00000250: 7bca 5e3d 9cd6 ebbc 0bc7 b7bd fe98 85bd
00000260: 1e9c 493d 55e9 cc3d 96dd edbd b7ad 413b
00000270: 0577 e03c 3399 a53d c8f5 e3bd 07e2 d03c
00000280: 3263 d1bc 057f 843d 31b9 2dbd 754d f3bd
00000290: f1c8 8fbd cc98 ecbc a75c a93d ae76 51bd
000002a0: 0ccb f2bd 58a3 d93d 0a7b 073d b1f8 b3bd
000002b0: 962a e8bd c49c 823d 0cf5 1abd b4d1 d73d
000002c0: 93f1 073b a3cb 2b3d 502a 983d 478c 9dbd
000002d0: 6f74 d03c fa38 f43d 295a dcbd c2a4 59bd
000002e0: 8820 f53d 7fd0 bb3d e9ee 2abd 95f1 8f3d
000002f0: 26d5 ad3d a547 bbbc 2440 db3d ed66 cc3d
00000300: d48f f3bd 08f6 5e3b ccd6 7abd a54a 9a3c
00000310: f9c3 c53b f978 3c3d 0e96 01bd ab87 76bd
00000320: 07e2 fc3d 645b d8bb 9832 95bd 63a8 44bc
00000330: 2fe6 153d 0da1 783d 7336 b73d bc50 7d3d
00000340: 88a5 4d3d feb2 263c 983d 35bd 521c 973d
00000350: 4770 ad3d e969 0cbd 54d8 d7bc 98a4 733d
00000360: 41c2 ba3d 8df7 8ebd a7bb 01bd a15b 35bd
00000370: 757f c5bd 8bc6 d9bd f7c2 f4bc 64b4 b93d
00000380: 9104 86bc f90b 2d3c a48b 5cbc 5beb 833d
00000390: 32b4 f7bd bede d13c 5623 973c 2079 adbd
000003a0: 8034 873c 10d8 463c 225c a43d 8efc 133d
000003b0: 4ad9 7f3d 594d 18bc 7e7e 4b3c 3b08 cfbd
000003c0: a8ea 2f3d 0849 c6bd bd40 2dbb 1ab4 4cbd
000003d0: 782d afbd 1563 7e3d 9532 96bd 2a43 9bbd
000003e0: 4e24 85bd a3d1 aabb 2af8 a2bd aa82 86bd
000003f0: 1c4a 943c 16ff 803d 911a 9fbd fb16 613d
-0.017405719 -0.022757191 0.062368076 0.11117557 -0.12321875 -0.03714633 -0.06286861 0.084434114
0.07552342 -0.00013644976 0.03940072 -0.092803165 -0.033651743 0.022436626 0.01853459 -0.083527885
0.017310482 0.015657905 -0.112229005 -0.07826903 0.021656089 -0.07304708 0.110077396 -0.06556445
0.06521672 -0.0035225847 0.11375502 0.049673837 -0.010369328 0.06799256 -0.09560545 0.061375257
0.044672858 -0.013794183 0.09062496 -0.025129339 0.08592177 0.080406904 -0.04583223 0.053192347
-0.05793394 0.01917224 0.010501007 -0.041111685 -0.032304745 -0.09707712 -0.06307313 0.022341616
-0.016899308 0.09628904 0.05149373 0.09686111 0.117559224 -0.013128547 -0.026708607 0.037417643
0.06449883 -0.10703388 -0.0075103086 0.047236275 -0.104229584 0.05684594 -0.086774506 0.07907393
-0.106297776 0.120414 0.11567502 0.056639086 -0.020047264 -0.00052776816 -0.1158716 -0.09123705
0.026865406 -0.12376384 0.089955695 -0.12309371 0.12027827 -0.05278458 0.004686317 0.1111932
0.10846628 0.0027349007 0.09111678 0.05563631 -0.06437387 -0.029793516 -0.0057727816 -0.06662419
-0.028439146 0.0947735 -0.12158354 -0.0051737116 0.10935629 0.11249364 -0.033898957 -0.023596585
0.060263727 0.059003107 0.11280273 0.05336214 0.0112100905 0.0126191145 -0.04264957 0.10890736
-0.1116882 -0.060962446 0.061146233 0.0299569 -0.11963508 -0.020531436 -0.044469256 0.067170694
0.05993185 -0.06931087 0.056203313 0.0962976 0.04059275 0.009534568 -0.040779553 -0.018063948
0.11906193 -0.07619932 -0.018989304 0.038094252 -0.07422941 0.070911005 -0.06602743 0.11696891
0.044988286 -0.05672969 0.046353176 -0.083801925 0.054270025 -0.11509135 -0.024101876 0.11683324
0.11331871 0.01773335 0.00053851405 -0.0031059417 0.090972476 0.056226596 -0.10108434 -0.048035067
-0.06928476 -0.052557766 -0.07082906 0.056212846 0.05439232 -0.028788857 -0.08973511 -0.065233216
0.04922115 0.10005442 -0.1161453 0.0029553005 0.027400503 0.08085861 -0.111308634 0.025498403
-0.025559995 0.064695396 -0.04241294 -0.11880008 -0.070207484 -0.028881453 0.08269625 -0.051138572
-0.11855134 0.106268585 0.033076324 -0.087876685 -0.113362476 0.06377557 -0.03783135 0.105380446
0.0020743355 0.04194225 0.074299455 -0.076927714 0.025446145 0.1192493 -0.10759384 -0.05313564
0.119690955 0.09170627 -0.04173175 0.070285 0.084879205 -0.022861311 0.10705593 0.09980569
-0.118926674 0.0034021158 -0.061240003 0.018834421 0.0060353247 0.046013806 -0.031637244 -0.060187977
0.12347799 -0.0066026915 -0.072850406 -0.012003037 0.036596473 0.060700465 0.08945932 0.061844572
0.05020669 0.010174511 -0.044248194 0.073784485 0.08468681 -0.03428069 -0.02634827 0.05948314
0.09119082 -0.0698081 -0.0316731 -0.044276837 -0.09643451 -0.10633572 -0.029878123 0.0906761
-0.0163596 0.010561937 -0.013461027 0.06441375 -0.120949164 0.025618907 0.018449467 -0.084703684
0.016504526 0.012136474 0.080253854 0.036129527 0.062463082 -0.009295785 0.012420295 -0.10108992
0.042948395 -0.09681898 -0.0026436292 -0.049976446 -0.08553594 0.06210621 -0.073338665 -0.0758117
-0.06501065 -0.005212979 -0.0795749 -0.06567891 0.018101744 0.06298654 -0.07768739 0.054953557

bias f4 [64]
00000000: ccdb b93d f26e 9a3d 28bd bb3d 58c1 6a3d
00000010: a600 eebd bd9b d33d d0e2 153c 3177 973c
00000020: a729 4a3d e69a d4bd 1ffb 88ba 6175 ae3c
00000030: 2c5b 163d c1a5 34bc 726c 47bd cdf0 d0bd
00000040: b877 debd 40c8 d33d 22cb dabd e3a2 0bbc
00000050: 4363 ca3d d437 b83d 5609 aa3d d22d 84bd
00000060: c26a 3d3d cb2d e1bd 2eff ce3d b4de abbc
00000070: e9f9 943d 16c3 de3d b935 ea3d 6d90 a63d
00000080: 3576 b1bd 6821 bebc 7fd5 c5bc 0fae f8bb
00000090: 8884 cd3d 2107 ba3d 33c1 203c dbdf 853d
000000a0: a39a c93d 8495 063d 3128 fbbd 1d3a e2bd
000000b0: ea8c ca3d 2c5b 7e3c bff2 5b3d 83f3 263d
000000c0: 1840 dcbd 4862 56bd 7ecd dbbd e36d 7dbd
000000d0: a6ea 8ebd cccf ccbd f0b3 213c c314 053c
000000e0: 219c 33bc 056e 7f3c ad84 9b3d 3219 dcbd
000000f0: 0f8d 64bd 509f 733d 8936 b43c eee0 d2bd
0.09075126 0.075406924 0.09166938 0.057313293 -0.116212174 0.10332439 0.009148315 0.018489452
0.04935613 -0.10381107 -0.0010450816 0.021296205 0.036708042 -0.011025847 -0.048687406 -0.10202179
-0.10862678 0.10340929 -0.10683276 -0.008522722 0.09882214 0.08995023 0.08302562 -0.06454052
0.04624439 -0.109950624 0.101072654 -0.020980217 0.07274229 0.108770534 0.11436028 0.08133016
-0.08665124 -0.023209289 -0.024149654 -0.007589109 0.10035044 0.09083391 0.009811687 0.06536838
0.09843948 0.032857433 -0.12263525 -0.110462405 0.098901585 0.015524667 0.053698298 0.040759575
-0.107544124 -0.052339822 -0.10732554 -0.061872374 -0.069783494 -0.100005716 0.009869561 0.008122626
-0.010962517 0.015590196 0.07593665 -0.10746993 -0.055798586 0.059478104 0.02199866 -0.10296808

weight f4 [64, 64]
00000000: f959 ac3d 46b0 663c baa2 f93c 711f b5bb
00000010: a5bb b1bd 99ee b73c a64e 213d a861 80bd
00000020: 7eaa bfbd d013 57bc 283b 933d b151 383c
00000030: 9f2d debd 4985 293d 64ec 4f3d 0e71 9a3d
00000040: 75db b83d 90cc 503d dc09 d7bd a8c9 41bd
00000050: 9c6e 4c3d 68d7 043d 5152 fb3d 61e5 afbc
00000060: 0b75 093d cdea 23bd db2f f63c 701d fe3b
00000070: 4bab e7bc 68d3 423d 2a35 1ebd bfe0 e03d
00000080: 195b a73d 6246 c93d 8ecc c13d e304 f3bd
00000090: 1894 99bd d6b3 cf3d 538b ac3d 0c26 fa3d
000000a0: c275 99bc a19e f63d e628 c63d 7139 2a3c
000000b0: b423 84bc 3c7a 85bd 8729 df3c e962 a3bd
000000c0: 80ea 3bbc 3620 9c3d a872 583d b19d adbb
000000d0: 32f5 e73d 061f cdbd 82ee ca3d 4288 9b3c
000000e0: 86b5 1dbd 1f93 e83d 58e0 4cbd e97a 233d
000000f0: a2c2 babd e19b 8fbd 9072 bbbd d0da 44bd
00000100: c9d8 153d 008c dbbd d3b1 ae3c 9659 27ba
00000110: 1ccb 713d 5f05 2c3d 4ec0 ccbd c545 d0bd
00000120: 8275 423b b983 33bb 5a20 ffbd c011 cd3c
00000130: a0c6 cebc 006a bfbd 6be9 dbbd 54ea ffbb
00000140: ebda 123d 3ed2 8ebc a00f 943d 5761 aa3d
00000150: 90b1 cebd 20a5 2bbd 9031 db3c 989c cabc
00000160: 600a cdbd 1758 76bd a2a2 3fbc 8457 f1bb
00000170: 09c3 97bd 0591 9e3d 391a fe3d a052 7c3d
00000180: ab04 1ebd 42db 783c 6cd9 6dbd 3a36 ee3d
00000190: fa64 10bc 2583 8bbd ef42 9f3d d8b7 c73d
000001a0: 0007 943c 49b4 8e3d 20b9 bb3c c05e 853d
000001b0: 5168 dcbd 88e7 92bb d827 a8bd 13fa a9bd
000001c0: bf98 693c f8e0 b93d 547d 80bd 53ef acbd
000001d0: c818 f23d e522 debd a2e7 f9bd d27b a83d
000001e0: b45c d1bd b1f4 23bd e23b b0bd 14da e4bd
000001f0: 4214 ed3d 34b0 da3d f6ce 473a 740c 553d
00000200: eda1 d73d aeb8 f93d 3296 963d 3f4b a13d
00000210: a2c5 9bbd fad8 9fbd a970 de3d db69 e23d
00000220: 2eac 4b3d 9fd2 b8bd a1a1 fbbd b81a cd3c
00000230: 7464 b3bd 08b3 42bd f652 fb3d ac69 823d
00000240: 5f1c aabd d8de 0dbd 46c1 9ebd eaf1 b13d
00000250: 7b9c ea3d 14e0 0b3d 9f31 efbd 42ff da3d
00000260: 7692 d9bc a411 ccbd ed9d 083d c2d1 78bc
00000270: 9903 83bd ff15 4bbd c31a 82bd ca5c 2cbd
00000280: 2707 d73c 4242 f8bc 37d7 913d acfc 853d
00000290: 77d5 523d e7be a53d d3c9 a9bd 3e97 f93d
000002a0: 7295 0aba fbb9 8dbd b8e5 c83d 5b7a fb3d
000002b0: 9f8e d43d 1786 50bb 0ac1 acbc de8f 0bbd
000002c0: 538c e7bc e62e d3bd 5e67 b33d acfb ed3b
000002d0: 42f6 4cbd 1c95 9ebd e347 0bbd 6e22 9d3d
000002e0: 71e6 b8bd 3ae9 a03d 04e4 243d cf04 e4bb
000002f0: 0d30 233d 7a0f f43d f021 c0bd f9fc e5bd
00000300: d3e1 a23d 70af bebb cafb 943c e043 fe3c
00000310: 7c3c e7bd f0f8 d93d 5c9d f4bc 508a 403b
00000320: 795f acbd 2189 aabc bbf9 f2bd c14e ee3c
00000330: bfe0 a4bd 9f75 a5bd 8571 8a3d 7396 86bd
00000340: b01c c2bc 3bd9 e4bd 6b40 fd3d fde0 90bd
00000350: 3905 e43d b3d2 873b ce8c 1dbd ff52 8dbd
00000360: 7688 83bd a649 cfbd b2ff d1bd 3049 ffbc
00000370: 0b7d f73d ebcc e0bd cd25 2cbd 3f92 5ebc
00000380: 3edb dc3d ec24 3cbd 83ba 86bc 1160 23bc
00000390: 10f5 4c3d dd8d 243d e5ed f7bd 5135 eabd
000003a0: 4c67 45bd b49d a03d ca52 9abc 41ef b83c
000003b0: c670 c4bd 8a2f c13d 8251 1d3c d875 efbc
000003c0: 6877 803d ef90 a43d 3396 76bc 3632 edbd
000003d0: 7663 1ebd 988b f53d f92d ad3d 3051 55bc
000003e0: 50d7 3abb cdd7 29bd e350 873c ec7c 43bd
000003f0: ac33 febd 8cd3 d2bd c9b8 90bd b1e4 b8bd
0.084155984 0.014080113 0.030473102 -0.0055274297 -0.086783685 0.02245264 0.039381646 -0.062686265
-0.09358691 -0.013127282 0.071890175 0.0112499455 -0.10848545 0.041386876 0.05076255 0.07541095
0.09026233 0.050976336 -0.104999274 -0.047311455 0.049910173 0.03243199 0.1227156 -0.021471681
0.033558886 -0.040018845 0.030052116 0.007754974 -0.028279921 0.047564894 -0.03862492 0.10980367
0.081716724 0.098278776 0.09462844 -0.118661664 -0.0749895 0.10141723 0.084250115 0.12214288
-0.01873291 0.12041975 0.096757695 0.010389672 -0.016130306 -0.06517455 0.027241481 -0.0797785
-0.011469483 0.07623331 0.05284372 -0.0052983393 0.11326064 -0.10015683 0.09908773 0.018985871
-0.038503192 0.11356186 -0.05001864 0.039912138 -0.091191545 -0.070121534 -0.091527104 -0.04806024
0.036583696 -0.10720062 0.021325028 -0.0006383894 0.05903159 0.04199731 -0.09997617 -0.101695575
0.002967209 -0.0027391745 -0.124573424 0.025032878 -0.025241196 -0.0934639 -0.1073788 -0.0078099165
0.035853308 -0.017434236 0.07229543 0.08319347 -0.10092461 -0.041905522 0.026757032 -0.024732873
-0.100117445 -0.060142603 -0.0116964895 -0.007365169 -0.07410247 0.07742504 0.12407345 0.061602235
-0.03857867 0.015188994 -0.058068678 0.11631437 -0.008813137 -0.06812123 0.077764384 0.09751862
0.018069744 0.069679804 0.022915423 0.06512213 -0.10762084 -0.004483167 -0.082107246 -0.08299651
0.014257609 0.090761125 -0.062739044 -0.08444085 0.11821133 -0.10846499 -0.122023836 0.08226742
-0.1022276 -0.040028278 -0.08605172 -0.111744076 0.115761295 0.10678139 0.0007622087 0.05201383
0.10528932 0.12193428 0.07352866 0.0787568 -0.07606055 -0.07805057 0.10861332 0.110553466
0.04972475 -0.09024548 -0.12286688 0.025037155 -0.08759394 -0.04753402 0.12271683 0.063678116
-0.083061926 -0.03463635 -0.07751708 0.086887196 0.114556275 0.034149244 -0.11679386 0.10693218
-0.026559096 -0.09964302 0.033353735 -0.015186729 -0.063971706 -0.049581524 -0.06352761 -0.042080678
0.026248528 -0.030305032 0.07121127 0.06542334 0.051473107 0.08093052 -0.08290448 0.1218705
-0.00052865513 -0.069202386 0.098094404 0.12279197 0.10378765 -0.0031818205 -0.021088142 -0.03407275
-0.028265154 -0.103116795 0.0875995 0.0072626676 -0.050039537 -0.07743284 -0.034004103 0.076725826
-0.09028328 0.078569844 0.040256515 -0.006958581 0.039840747 0.119170144 -0.09381473 -0.11229891
0.07953229 -0.0058192536 0.018186469 0.031038225 -0.11290833 0.10643184 -0.029860191 0.0029379316
-0.084166475 -0.020817341 -0.118640386 0.029090287 -0.080506794 -0.08079075 0.067599334 -0.06571665
-0.02369532 -0.11174246 0.123658024 -0.07074163 0.11133809 0.0041449904 -0.03846436 -0.06900596
-0.06422512 -0.10121469 -0.10253848 -0.031162828 0.12084397 -0.10976585 -0.042028237 -0.0135846725
0.10784005 -0.04593365 -0.016446358 -0.0099716345 0.050038397 0.040174354 -0.12105922 -0.114359505
-0.048194215 0.078425795 -0.018838305 0.022575023 -0.09591822 0.094328955 0.0096019525 -0.029230997
0.06272775 0.080354564 -0.015050459 -0.115818426 -0.038669072 0.11989516 0.08456034 -0.013019845
-0.0028509684 -0.04146557 0.016518062 -0.047726557 -0.124121994 -0.102942556 -0.07066495 -0.090279944

bias f4 [64]
00000000: 1baa b5bd ce04 d13d a23c 89bd b132 f3bd
00000010: 8303 8a3c fc4d b5bd 09e8 87bd 73da 9039
00000020: 4b6d 70bd 8a04 d03d 4a40 f3bd 7efd c2bd
00000030: bcd8 e93d 4045 82bd 6c91 f9bc 5d69 153d
00000040: c0f6 95bd 2404 973d 8916 253c e6c8 c63d
00000050: 78bc 023d 818b 1fbc 9de2 37bd d0c5 943d
00000060: bc33 dd3d 78c0 e6bb fad9 8a3d af36 5fbd
00000070: c52b 88bd 96c5 96bd 62e8 a2bd 2198 12bd
00000080: 0374 663d 9578 e5bc c9de 8f3d dc83 453d
00000090: dde6 33bd ccee db3c 84b4 f8bd 89e6 473d
000000a0: 37e5 a7ba 66b6 96bd cdd9 d8bc 1cc2 e1bd
000000b0: 9f19 953d 7dff 25bd 2b43 6cbc e077 dbbc
000000c0: ac42 58bc 8c8e 2dbc cb62 4bbd cbbc d63d
000000d0: d20a fb3d 653c bcbb 98fe 8d3c 8bd7 9b3d
000000e0: 285c 4d3d 97fe 0fbd d7f6 b9bd 329a eebd
000000f0: 4ef6 163d e768 e4bc 6d62 d63d 156a 28bd
-0.08870336 0.102059945 -0.06701018 -0.11874903 0.016847378 -0.08852765 -0.06636054 0.00027628578
-0.05869798 0.10157116 -0.118774965 -0.09521006 0.11418292 -0.06360865 -0.03046485 0.036477435
-0.073224545 0.07373837 0.010076174 0.09706287 0.03191802 -0.00973785 -0.04489385 0.07264292
0.10800883 -0.007041987 0.06779857 -0.05449551 -0.066489734 -0.07361905 -0.0795448 -0.035789613
0.05626298 -0.0280116 0.07024915 0.048221454 -0.04392134 0.026847266 -0.121438056 0.04880384
-0.00128094 -0.073590085 -0.026471043 -0.110233516 0.072802775 -0.040526856 -0.014420311 -0.02679056
-0.01319949 -0.010593068 -0.049654763 0.10485228 0.12257923 -0.0057445043 0.017333314 0.07609471
0.050136715 -0.035154905 -0.09080284 -0.11650504 0.03685599 -0.027882053 0.10467992 -0.041116793

weight f4 [64, 64]
00000000: 511e 39bd 18b4 493d 0d04 2fbd 1046 c13b
00000010: d5ee 2a3d fe2a f2bc 2f94 0d3d 6f8b de3c
00000020: 0099 d73c 6fc0 e23d bff6 703d d174 edbc
00000030: b557 aebd 5ddb 873d ca27 dcbd d309 773c
00000040: a99f b03c 2d90 8d3d acbd c9bd b241 153d
00000050: 46c5 e9bc 351e 2abd dd6f a9bd 9772 e93c
00000060: b3ed 773a a581 aa3d 58c5 9e3d 4618 cc3d
00000070: f5a6 eabc 227d 203d af83 5f3d 50a4 413c
00000080: 8d2b debd 3c63 f5bc 5067 40bb 872c fd3d
00000090: 3eba cabd d0b7 d8bc a235 ca3d 5694 e6bd
000000a0: 389d d1bd 03d0 b2bd 9333 f63c ae9c 9ebd
000000b0: 03ed 863c 6b5e 8dbd ab0e b93d c59e a6bd
000000c0: 5c10 e93d 201b 4bbc 47fa aabd d097 c33d
000000d0: e20d d33d 146b 43bd 045d d83d 6592 abbd
000000e0: b746 b3bd 95a3 6abd c901 b5bc bff9 5fbd
000000f0: 2175 afbc f9cc ed3c 50ba d33c 0459 ef3d
00000100: d0af d3bd 50b3 c53d 7a49 1a3d e0fc d0bc
00000110: 6034 c73d 16a2 85bd c747 fcbd c877 d2bd
00000120: fe29 dcbd 41fc 29bd 9d38 86bd 9849 ff3d
00000130: 7fa0 fcbd 7074 43bc 1553 abbd a850 e5bd
00000140: 7f05 aabd 42a0 173c 4099 5b3c 109c cbbd
00000150: 08ab 5a3d f397 07bd 0009 c63d 9978 a8bd
00000160: c2af ba3d c855 01bd 4be6 f6bd 137c 86bd
00000170: 68cb d93c 6a6d f4bd 715d e43d 64a0 ecbd
00000180: 0afd 9dbd 1de5 b63d 7612 a1bd 7081 56bc
00000190: 9a2b 933d ea15 12bd e9f4 f7bd 15be e4bd
000001a0: 5033 c83d fc19 05bd 809a 3c3d ba2e 20bd
000001b0: dd04 f03d 78dd 5c3d 3a3f 7a3d 5f7a 103d
000001c0: 6316 64bd 11ce 233d 01ca 34bd 80a3 ba3d
000001d0: ac88 40bd 342d 803d d110 2fbc de12 d3bd
000001e0: e0e1 d4bd 6aae 793d fa7d 9b3c c071 bcbd
000001f0: a695 c3bd 2ace 143d 6484 d43d 993e 8d3d
00000200: 51cc b23b 7708 c437 1335 10bd e5c0 ef3d
00000210: 6064 713d 0ef9 373c d0d4 d1bb 3016 e8bb
00000220: 38c7 c73c 12cc bf3d fc9e 9bbd 3521 90bd
00000230: 83e8 fcbd 1c1f 533d 1026 d13d f98b df3d
00000240: c103 b53c dc02 f63c 6e01 59bd 6943 85bd
00000250: a14d 313d 3bbd d13d 9948 733d 409e 483d
00000260: c0d5 6ebd 894c d63d 7ce0 6c3b 7311 0cbd
00000270: 4dd3 ebbd 6c7b 44bd 2a5b 67bd 58fa 783c
00000280: d328 51bd c873 c4bd 61fc 993d 790f ee3b
00000290: ffe0 de3c 9f75 fc3d 66c5 cebd da57 df3d
000002a0: 48db 48bd da0c fb3d 63ca b33d 3ec1 bb3d
000002b0: c119 a7bc 50b1 c6b9 a14d 2e3c bb6a 863c
000002c0: dd16 913d d531 ea3d ca22 91bd a879 be3d
000002d0: 379e 1e3d 3405 d8bd 62e9 553d 1587 a73d
000002e0: 5b00 afbd 6a05 98bd 020f 993d ac9e aa3d
000002f0: e341 adbd d3ea e0bd bb3a 69bd 10e5 6a3d
00000300: b292 163d 3821 133d 2754 0d3d 372f a33d
00000310: a95c 8cbd 404e d4bd f7ce e13c 76a7 46bc
00000320: b1cd fbbd 665b 403d 9b30 ab3d 66dc e4bd
00000330: b359 923d 6b4f de3d e2c9 27bc ebd6 28bd
00000340: e399 8e3d b5aa f3bd eec3 12bd 3c00 cf3d
00000350: 742e 593d 5147 123d 77bc 8ebd 8b8c 9b3d
00000360: 8121 5f3c 9f81 8bbc d5d5 92bc 13f3 aebd
00000370: 88df be3c ebd6 b23d 4547 91bd 25ec 88bd
00000380: f3ad 05bd b9d4 a8bc 6f5e aebd 9d6d 92bd
00000390: 6fc8 f23d 71dc eb3d cf62 603c 3f2c c63d
000003a0: 04da 703d f2c7 82bd ba53 5bbd 79a0 b43c
000003b0: 1d6a f23d 5933 f63d 7a9f bdbd 1974 a63c
000003c0: 3005 20bc b754 4e3c 5423 c0bc 0729 8bbd
000003d0: 221e 803d a2a3 e73c 0fbe ca3d 4cff 63bd
000003e0: 38d7 cfbd f16f eebd c713 adbd 98ec d3bd
000003f0: cc90 053d ecbb 50bd 790a e83d de48 9d3d
-0.045194928 0.049244016 -0.042728473 0.0058982447 0.041731674 -0.029561516 0.034565147 0.027166096
0.026318073 0.1107186 0.058829065 -0.028986366 -0.085128225 0.06633637 -0.10749777 0.015078026
0.021560507 0.06912265 -0.0985063 0.036439605 -0.02853645 -0.041532714 -0.08273289 0.028497024
0.0009457722 0.08325509 0.07752484 0.09965567 -0.028644064 0.039181836 0.054568943 0.01181896
-0.108481504 -0.029954545 -0.0029358454 0.123620085 -0.09898804 -0.026454836 0.09873511 -0.112587616
-0.10235065 -0.08731081 0.03005389 -0.07744728 0.016470438 -0.069027744 0.09036001 -0.08135752
0.113800734 -0.012396604 -0.08348518 0.0955044 0.10305382 -0.04770954 0.10564616 -0.08377532
-0.08753722 -0.05728491 -0.022095578 -0.054681536 -0.021418156 0.029028403 0.025845677 0.116869
-0.10336268 0.09653342 0.03766773 -0.025511205 0.097267866 -0.06525056 -0.12318378 -0.10276753
-0.10750197 -0.041500334 -0.06553767 0.12465209 -0.123353 -0.011929616 -0.08365456 -0.111970246
-0.083018295 0.009254517 0.013403237 -0.09941876 0.053385764 -0.033103894 0.09669685 -0.08226127
0.091155544 -0.031575948 -0.12055644 -0.06566634 0.02658625 -0.119349316 0.11150635 -0.115540296
-0.07714279 0.08930419 -0.07864849 -0.013092384 0.07186051 -0.03566543 -0.1210726 -0.11169068
0.09775412 -0.032495484 0.04604578 -0.039107062 0.117196776 0.053922147 0.061095454 0.035272952
-0.055685412 0.039991442 -0.04413796 0.091132164 -0.04700534 0.06258622 -0.010685162 -0.10306333
-0.10394645 0.06095735 0.018980969 -0.092013836 -0.095500275 0.036329426 0.10376814 0.06896705
0.0054564853 2.3368963e-05 -0.035206866 0.117067136 0.058933616 0.011228813 -0.006403543 -0.007082723
0.024386987 0.09365095 -0.07598683 -0.07037584 -0.123490356 0.05154334 0.10212338 0.109153695
0.022096517 0.03003066 -0.05297988 -0.06506998 0.043286923 0.10241171 0.059395406 0.048979044
-0.058309317 0.10463817 0.0036144545 -0.03419633 -0.11514912 -0.047969267 -0.056483425 0.015196405
-0.051064324 -0.09592396 0.075188406 0.007265028 0.027206896 0.12327122 -0.100962445 0.10905428
-0.049037248 0.122583106 0.087788366 0.091677174 -0.020398023 -0.0003789761 0.010638625 0.016408315
0.07084439 0.11435286 -0.070867136 0.09300548 0.038725104 -0.105478674 0.052224524 0.08180062
-0.0854499 -0.07422908 0.07473566 0.083310455 -0.084598325 -0.10982289 -0.056940775 0.057347357
0.036760993 0.03592035 0.034504082 0.0796799 -0.06853611 -0.103664875 0.027564509 -0.012124887
-0.12295092 0.046962164 0.0835888 -0.1117485 0.07146015 0.108549915 -0.010241004 -0.041220587
0.06962945 -0.11897794 -0.035831384 0.101074666 0.053022817 0.035712544 -0.069695406 0.07595166
0.013618828 -0.017029582 -0.017924229 -0.085424565 0.023299947 0.087323986 -0.07093672 -0.06685666
-0.032636594 -0.020609247 -0.085141055 -0.07149813 0.11854636 0.11516655 0.013695433 0.09676408
0.058801666 -0.06385793 -0.053546645 0.022049176 0.11836646 0.120215125 -0.09258933 0.020319032
-0.009766862 0.01259344 -0.023454346 -0.06794935 0.062557474 0.028276268 0.09899532 -0.055663392
-0.101484716 -0.11642445 -0.08451038 -0.10347861 0.032608792 -0.050960466 0.113301225 0.07679914

bias f4 [64]
00000000: d9f5 e6bd 6081 84bd a09e fcbd 90e9 0bbc
00000010: 9dc8 383d bda9 b13d 9b48 80bc 2f8e babb
00000020: 21f2 ea3d b151 fdbb 63b4 8dbd 60cc e8bc
00000030: 9ebe f03c 735b 66bb 7c23 a23d 65a5 013d
00000040: ee6b 9cbd 2df0 533d efe0 b5bd 1451 833c
00000050: 09d6 2d3d 694c bd3d 0ae0 bbbd c253 c73d
00000060: 83f7 61bd 2475 ec3d d1a8 b43d b714 27bc
00000070: 97c2 ac3d 5689 aabd e8fe 8f3c 936f 63bd
00000080: a505 783b 8f14 2d3d dcb3 c0bd 4430 2f3d
00000090: 143b df3d f8e5 82bc 165e f5bd a153 193c
000000a0: 5687 6bbd 4612 1d3d c3ad ebbc ebff debc
000000b0: 7bea 2d3d aead 9dbd a6c2 213d 0925 dfbd
000000c0: 8087 0c3d e872 4c3d a2b5 d2bd 0c62 a5bd
000000d0: f1a1 eb3d 708e b3bd 6245 a83d ef14 ed3d
000000e0: 5b96 5ebd 9014 58bc 997d e1bd acc1 09bd
000000f0: 7df4 36bd e2ff 7fbd 4427 d03d e926 61bd
-0.112773605 -0.06469989 -0.12334943 -0.008539572 0.045113195 0.08674953 -0.015659621 -0.005693219
0.11471964 -0.0077306856 -0.06919172 -0.028417766 0.029387768 -0.0035149723 0.07916924 0.031651873
-0.076377735 0.05174272 -0.08880793 0.016029872 0.042440448 0.0924309 -0.091735914 0.097327724
-0.055167686 0.1154578 0.08821262 -0.01019781 0.084355526 -0.08326976 0.017577603 -0.055526327
0.0037845161 0.042255934 -0.094093055 0.04277064 0.1089994 -0.015978798 -0.11980836 0.009358318
-0.057502113 0.038347505 -0.02876938 -0.02722164 0.042459946 -0.076991424 0.03949227 -0.10895736
0.03430891 0.04991427 -0.1028855 -0.080753416 0.11505497 -0.08767402 0.08216359 0.115762584
-0.05434261 -0.013188496 -0.11010284 -0.033631966 -0.044666756 -0.06249989 0.10163739 -0.05496875

weight f4 [64, 64]
00000000: 6d24 8cbd de97 9e3d 4499 9a3d 7286 15bd
00000010: d43e 8ebd 0c8b d43d 3c9b de3c 6b58 4dbb
00000020: d5ba 963d 946b cbbc d377 8cba ce2a cebd
00000030: 8209 dabc 7697 9d3d 9b99 ebbd f616 563d
00000040: 6adc 9fbd 2343 c23d 23f8 a5bd fdc5 fbbd
00000050: b5c4 693d 1d4e dc3d 6043 423d 3a52 a73d
00000060: 01c3 2e3d c864 c8bd eb09 133d ebe2 a83d
00000070: 0d51 91bd 13d8 6cbd c228 e0bd 6f35 8d3d
00000080: 614d f13d 726f b5bd b38d 0e3c 6557 713c
00000090: 4f29 573d ea4e 5c3c d370 e0bd 82f2 9a3d
000000a0: eca0 923d 158f 85bc 9bde 0f3d 97f4 e83d
000000b0: 9b68 313c a870 04bd aa22 d13b f4fe 833b
000000c0: ce5d 163d 821c a0bd 1f6e e73d 497c ef3d
000000d0: 18b6 1cbc a50a d5bd 81d1 c93d 5af0 003e
000000e0: 6a54 1b3d 0867 9bbd 1051 babc 3dd7 2abd
000000f0: e637 fd3b fda8 ea3d 47fc 533d d87c 7f3c
00000100: caa0 79bd b051 c73b 5243 97bc e0e1 eebc
00000110: 39bb 6a3d 9278 16bb 9799 fa3d 1143 2dbc
00000120: 7fcd e3bc b41b 833b 8464 d8bd 9651 943d
00000130: c338 86bd 759d b8bd a1c5 ad3d 31a8 a53c
00000140: 584f 45bd 3eb8 c53d d736 b7bd 11b5 a9bd
00000150: 5eb9 9bbd d261 ddbd 5a8f d63d 78bf c7bc
00000160: d6dc 96bd 18c0 413d bb8d 0c3d bb89 613d
00000170: e166 b8bc 10dd 3b3c 2c7f d43d 3f46 883d
00000180: c97e b4bc 653c eebd 8ca3 f8bd 127c 9cbd
00000190: b1e6 fa3b 7c77 013d 712b b9bd 043b 833d
000001a0: 78db eebb 453e 34bd 5221 9db9 51a4 ac3c
000001b0: 58e6 82bd e2ae 663d 2553 903d bb30 063d
000001c0: 318b aabd 48bb 823d a6b4 1abd a024 543d
000001d0: f0f1 bf3c 40a0 46bc d02a 9bbd 29a7 a3bc
000001e0: edfa b3bd 69e0 23bd b848 d3bc c08b 053d
000001f0: 0283 92bc 48cb c0bd c556 b83d f7ae e23d
00000200: b41a 033c 5627 d13d c691 8e3c 3a08 bf3d
00000210: 8707 a1bc 16de d33d 83d0 ccbc bb34 5fbd
00000220: e015 0dbd 4bea 8fbd a808 f53d 6afd 123d
00000230: 7405 b43c e3b3 aabc ff70 3f3c e71c dd3d
00000240: 5d1a e1bd e54e 16bd 9b76 863c 8889 823c
00000250: 8c1c 7e3d 81af 4d3c 0f8c f73d 2724 a23d
00000260: 22dc bbbd b604 1dbc 47ac 7d3a 20a3 4ebd
00000270: 85a8 dbbd acb4 f73d 76cb 913d 3b71 29bd
00000280: 1688 f03d 75b9 e43d a291 c33d b84b 593c
00000290: 4b93 21bd 6933 a0bd 793d e1bd 198c fbbd
000002a0: 5e6f ddbd a799 bc3d 88c5 c83d bbb4 9c3d
000002b0: 7b12 60bd 5515 f33d 4567 1b3d 87ad a2bd
000002c0: fa54 7b3c 1239 033d 8919 ac3d 1810 b3bd
000002d0: a559 a03d 1f2f 7fbd af89 f63d 574a febd
000002e0: ac3c bbbd 65c1 a6bd 8df7 e3bd 70c8 413d
000002f0: 783a 443d 0c18 123d d957 33bd 52f0 1a3d
00000300: 8c10 d33d 48aa ccbc 66d4 1f3d d0a7 3dbb
00000310: 609b 573d 3f2d dfbc f297 793c 50d0 bfbb
00000320: fc72 43bd 466e 133d 4ae0 bf3d 4ee9 db3d
00000330: e8b4 56bd 862d cebd 56f0 983d 3085 cdbd
00000340: 1056 4cbc 97d4 df3d 4075 d5bd 221d 13bd
00000350: 3f5a 8e3d 30b3 7d3d 9561 2ebd d114 323c
00000360: d08a d4ba b018 c83d 0301 e43d 08cc 943d
00000370: 224c ed3c e1c2 ad3c 58a4 ba3d ff79 fbbd
00000380: 11c4 2f3b 70f3 f8bd 50de c5bc 700e 5cbc
00000390: d425 67bc 3490 f4bd 947c d8bd 2339 b7bd
000003a0: 3416 41bd 9077 493c 606c a1bd 4ed3 9c3d
000003b0: 9b95 e7bc a2f6 d3bd a300 113d f2f7 1fbc
000003c0: 124e 80bd 94cd 013b 0a88 fabc 2dc6 64bd
000003d0: d0af d4bb 4912 fb3c a6bd cabd 9d44 8cbd
000003e0: de8f 20bd 9c4c 6fbd 43db ebbd e696 c63d
000003f0: 91ad b13c af5f 6cbd 98c4 963d 3681 bdbd
-0.06842885 0.0774381 0.07548764 -0.03650517 -0.06945577 0.103780836 0.02717363 -0.0031333219
0.07359854 -0.02483157 -0.0010716863 -0.10066758 -0.026615862 0.076949045 -0.11503907 0.05226799
-0.078057125 0.094854616 -0.08103969 -0.12293623 0.05707236 0.107570864 0.047427535 0.0816998
0.04266644 -0.097848475 0.03589813 0.08246406 -0.07095537 -0.057823252 -0.10945274 0.06894957
0.11782337 -0.08859147 0.008700776 0.014730309 0.05252963 0.013446549 -0.109590195 0.07565786
0.071596 -0.016303578 0.035124402 0.11374777 0.010828163 -0.032334 0.006382306 0.0040281955
0.036710553 -0.078179374 0.11300301 0.116936274 -0.009564899 -0.10402421 0.09854413 0.12591687
0.0379223 -0.07588011 -0.022743732 -0.041709173 0.007727611 0.11458013 0.051754262 0.01559373
-0.060944356 0.006082736 -0.018464718 -0.02916044 0.057307456 -0.002296005 0.12236326 -0.010575072
-0.02780795 0.004001105 -0.10566047 0.07242124 -0.06553795 -0.090144075 0.0848496 0.020221801
-0.04817137 0.09654282 -0.08946007 -0.08286489 -0.07603715 -0.10809673 0.10476561 -0.024383292
-0.0736634 0.047302336 0.034314852 0.05506299 -0.022509994 0.01146628 0.103758186 0.066540234
-0.022033112 -0.11632613 -0.12140569 -0.07640852 0.007656895 0.03160809 -0.09041489 0.06407741
-0.0072893463 -0.044004697 -0.000299702 0.021074446 -0.06391591 0.056319125 0.070471086 0.032761317
-0.0832733 0.06383377 -0.037769936 0.05179274 0.023430794 -0.0121231675 -0.07576525 -0.01997717
-0.08788095 -0.040008936 -0.025791511 0.03260398 -0.017884735 -0.09413773 0.09000925 0.11068528
0.008001972 0.10212581 0.017403495 0.09327741 -0.01965691 0.10345094 -0.02500177 -0.054493647
-0.03444469 -0.0702711 0.11964542 0.035886206 0.021975257 -0.02083773 0.011684655 0.10796528
-0.109913565 -0.036696333 0.016413977 0.01593472 0.062038943 0.01255405 0.12087261 0.07917052
-0.091728464 -0.009583643 0.00096768554 -0.050448537 -0.10725502 0.12095007 0.07118885 -0.04136775
0.11744706 0.111681856 0.09549262 0.013262682 -0.03944711 -0.07822306 -0.10998053 -0.12282581
-0.10812257 0.09208994 0.09803301 0.07651659 -0.054705124 0.11869303 0.037940282 -0.07943254
0.015340084 0.03203685 0.08403308 -0.08743304 0.07829598 -0.062300798 0.1203798 -0.12416523
-0.091424316 -0.08142356 -0.11131201 0.047310293 0.047907323 0.035667464 -0.04378495 0.037826844
0.103058904 -0.02498354 0.03902092 -0.0028939135 0.05263841 -0.027243255 0.0152339805 -0.00585369
-0.04771708 0.035993837 0.093689516 0.10737859 -0.05241862 -0.10067277 0.074677154 -0.10035169
-0.012471691 0.1092922 -0.10422754 -0.035916455 0.06950807 0.061938465 -0.04257353 0.010869221
-0.0016215686 0.09770334 0.111330055 0.072654784 0.028966967 0.02121109 0.09113377 -0.12279128
0.0026819746 -0.12155807 -0.024153858 -0.013431177 -0.01410814 -0.11941567 -0.105706364 -0.08946445
-0.047140315 0.012296572 -0.07881999 0.07657491 -0.02826958 -0.10349776 0.035400998 -0.009763705
-0.06264891 0.0019806372 -0.030582447 -0.055853058 -0.006490685 0.030648367 -0.09899454 -0.068490244
-0.039199702 -0.05842267 -0.1151643 0.0969675 0.021689208 -0.05770844 0.07361716 -0.09253161

bias f4 [64]
00000000: bb33 623c 4934 7cbd 4f89 a93d 8875 fabd
00000010: 2d7d 6abc 742d ddbd 16c3 8c3d 8913 a9bd
00000020: 2695 2e3d d2c8 753d 1572 abbd 5444 6fbd
00000030: 0a61 ae3d 3ce8 623d f38a 1ebd 61a4 26bc
00000040: 8b54 563d a701 323c e490 bebd a270 4f3d
00000050: 83d5 a3bd d093 db3d b0ce 723d d434 c73d
00000060: 4f5b b8bc 002f cc3d 1200 b0bc 9dcc aabd
00000070: 70e3 cbbc 54e3 ecbd 344d c73d a661 94bd
00000080: 1501 08bc 94dd 743d 218e b6bb 51ef f23d
00000090: ec59 813d 795d eebd 9ae5 f83d 2da5 a73c
000000a0: fe1c c7bd 95bb ce3c bba6 d93b eecf 683d
000000b0: 21fc 893d 95a1 abbd e95a ac3d 88b8 41bd
000000c0: 19e4 f43d 6a8c 9dbd 7a30 0f3d 3f70 db3c
000000d0: 1ae8 a5bc c1ff e2bd 568e 493c 1b09 513d
000000e0: 83f3 14bd 2c64 c8bd 4e75 7abd b508 7f3d
000000f0: c138 023d ce2c 92bc 8e22 293c 523c c9bd
0.013806279 -0.0615733 0.08278143 -0.122294486 -0.014312071 -0.10799685 0.06873147 -0.08255679
0.042622708 0.06000597 -0.08371369 -0.058414772 0.085146025 0.055397257 -0.03870673 -0.010171027
0.05232672 0.010864652 -0.093049794 0.050644524 -0.079997085 0.10721552 0.059279144 0.09726873
-0.022504477 0.09969902 -0.021484409 -0.08339808 -0.024888724 -0.11566797 0.09731522 -0.072451875
-0.008301039 0.059781626 -0.0055711423 0.11862052 0.06315979 -0.11638922 0.12153168 0.020464504
-0.09722327 0.02523593 0.0066421903 0.056838922 0.06737543 -0.08380429 0.08415777 -0.047295123
0.11957569 -0.076927975 0.03495834 0.026786922 -0.020252276 -0.110839374 0.012302002 0.051034074
-0.036365043 -0.09784731 -0.061147027 0.062264163 0.031792406 -0.01784363 0.01032318 -0.09825958

weight f4 [64, 64]
00000000: cd48 573d 4594 8d3d f9ad cebd 8621 98bd
00000010: 3671 223d dbf2 11bd 7c40 3d3d b8eb 47bd
00000020: af0e a63d d67b 9cbd b900 6eba 12f5 d3bd
00000030: 0ccb 453d ac0a bbbb cd2b cbbd 8667 c0bd
00000040: f2fa ca3c 6fad 093d b255 13bc 2934 433b
00000050: 5a85 c53d f735 ee3c fb89 eabc 5c65 0d3c
00000060: 6960 2b3d f14c 7f3a 2aa8 f7bd 0111 b93c
00000070: fcdb e43d e9e1 33bd 4750 f73d 2ec9 a1bd
00000080: 012d 6bbd 4c5e d0bd a417 dabd ffab 1f3c
00000090: 853a 9e3c 941c 513d f064 913d 401e e7bb
000000a0: b4ad bbbd dada e7bd ef91 dfbd 7fbc bb3d
000000b0: 1e31 ef3d ebdc edbd 6bb3 2d3d 724f 79bb
000000c0: 4e7b cf3b 12d8 20bd eef7 d33d 5a3a f0bd
000000d0: b819 f83d cad4 9fbc 3edd abbd 5ade e73d
000000e0: bf18 843c 9b7f ea3d 6ce1 84bd c043 353c
000000f0: 8581 8b3d b7fa af3d 8ee2 e93c f7d8 fa3d
00000100: fed0 a7bc b9cf b83c 0843 8cbd 8010 bd3d
00000110: edf5 a4bd 7d85 35bd fb3c 743d c474 543d
00000120: ac59 5abd e064 87bc 654b af3d f311 113c
00000130: f016 a7bd 5902 d1bc 05f4 213d 9d03 343d
00000140: 6661 85bd 9a24 c53d d1d4 acba e707 bdbd
00000150: 3892 c8bd 63c1 ae3d 06fd d23a 6aba 5dbd
00000160: 4ee2 613c 3867 d53b dbe1 42bd fab3 d43d
00000170: 2735 debd e177 2fbc a435 0c3b 3357 10bc
00000180: df7d 253d 0693 a6bc f7dc 7fbd 50e3 29bd
00000190: c1b4 b53d 0710 e4bc 8895 ff3d d748 553c
000001a0: d354 a7bd 8437 883d bb57 c3bd 0c89 af3c
000001b0: d6cb d2bc 27ae 6fbd 7b2e f4bc 58df 973d
000001c0: 2968 cbbb f3ac a3bd 35a3 c43d 0699 d33d
000001d0: 3c31 a9bc 4c2f 5bbd 6651 2cbd 7285 e8bd
000001e0: 9460 713c cfd5 ea3d 485c ddbd 1493 dd3b
000001f0: 2e11 b63d 0222 ddbd 1256 fabd 5162 293c
00000200: a460 82bd 062b f53d aa2a a0bd 117a ab3c
00000210: ef96 0fbd 50c9 bfb9 c756 f0bc 6fd3 df3b
00000220: 83d6 623d 31ca 7b3d b0fc ba3b 0fb5 8abd
00000230: dc8e d0bd 3e4a c6bd 5009 d2bb 9449 dabd
00000240: 872b acbd da86 f9bd d681 eb3d 7ebd f43d
00000250: 0b7e b23d 1344 f63b d7e0 afbd 8242 9b3c
00000260: 350f 7c3d b89b ebbd 2336 89bc 318e 8abd
00000270: e861 433d 6ba7 0b3d 3f54 ac3d 3eec d33d
00000280: 22e9 f83d b79d a83d d36b a8bd ad0c b9bd
00000290: d6f1 c9bd 52ae a1ba e28a c1bd 7f65 a33d
000002a0: dd31 7cbd 5111 87bd 6174 b8bd 8ad0 993d
000002b0: 764b bfbd c95f eabd cbce e23d 007c 3d3d
000002c0: a1d8 32bd b4e4 d53d b1a7 243d c0a6 543c
000002d0: 1fda 6fbd 98c3 9fbd aa95 c5bd 0ed9 e7bd
000002e0: 2111 2fbd bb9b 0b3d 404e 59bc 841d 413d
000002f0: 58a9 ecbd 6973 b53c 2e53 f1bc 5fd5 8d3d
00000300: 6d8c 2e3d a83f cb3c d3f0 073b b899 fe3d
00000310: d50a fbbd 1350 613d e484 3ebd 1077 523d
00000320: 3875 dcbc c6fb c6bd 998f 733d da5c c0bd
00000330: 7a40 f4bd 6461 bbbd ee14 13bd 2614 edbd
00000340: 3481 9dbd 0957 8c3d 0538 e1bd 1ad8 f8bd
00000350: 748c 9f3d 196e 68bd 1af1 9a3d 9c35 453d
00000360: 0de0 fb3d 3b74 763d 3e25 c2bd 5858 d1bc
00000370: c6db bf3d f103 b8bd 11e9 23bc b393 b43d
00000380: d212 12bc 7f86 f0bc 3f4f e0bc c546 33bd
00000390: e365 a3bd 03d5 8abd e021 d1bc 2a7d f83c
000003a0: 2cc7 4ebd ec73 05bd 7698 c0bd a86d ffbd
000003b0: e2d4 1f3c e110 30bc bce1 3ebd 482a 9ebd
000003c0: f978 313d 80a0 7dbd 3cb8 d43d fd10 fcbd
000003d0: e244 bc3d a6d1 12bd 917c 2d3c a302 86bc
000003e0: 13dc 0cbd 47ef b53d f5db a3bd 8e48 f23d
000003f0: 33d9 113c 6080 cd3c 4f81 e0bc 4c59 51bd
0.052559663 0.06913046 -0.100917764 -0.07428269 0.039658748 -0.035631996 0.046204075 -0.048808783
0.081082694 -0.07640807 -0.0009079087 -0.10349478 0.048289344 -0.0057080593 -0.09920464 -0.093947455
0.024777863 0.033612665 -0.008992599 0.0029785729 0.096445754 0.029078467 -0.028630247 0.008630123
0.04183999 0.0009738943 -0.120926216 0.022591116 0.11174771 -0.043916617 0.120758586 -0.078997
-0.057415966 -0.10174236 -0.1064904 0.009745597 0.019315014 0.051052645 0.070993304 -0.0070531666
-0.091639906 -0.113210395 -0.109165065 0.09166812 0.1167929 -0.116144024 0.042407434 -0.0038041738
0.0063318377 -0.03926856 0.10350023 -0.1172988 0.121142805 -0.019510645 -0.08391808 0.11321707
0.016125081 0.1145012 -0.06488308 0.011063516 0.06811813 0.08592742 0.028550413 0.12248414
-0.020485397 0.022559987 -0.06848723 0.09231663 -0.08054719 -0.044316757 0.059628468 0.05186917
-0.053308174 -0.016527593 0.08559302 0.008854377 -0.08158672 -0.025513815 0.039539356 0.04394876
-0.06512718 0.09626122 -0.0013185983 -0.09230023 -0.09793514 0.08532979 0.0016097135 -0.054132856
0.013786865 0.006512549 -0.047578674 0.1038589 -0.10849982 -0.010709734 0.0021394277 -0.008809852
0.040403243 -0.020333778 -0.062466588 -0.041476548 0.08872367 -0.027839674 0.12479693 0.013017855
-0.08170476 0.06651214 -0.09538218 0.021427654 -0.025731962 -0.058515694 -0.02980732 0.07415646
-0.006207485 -0.07991972 0.09601442 0.10331921 -0.02065336 -0.053511903 -0.042069815 -0.11353578
0.014732499 0.11466562 -0.10808617 0.006761918 0.088899955 -0.10797502 -0.12223448 0.010338382
-0.06366089 0.11971097 -0.078206375 0.02093223 -0.03505605 -0.00036580348 -0.029338254 0.006830625
0.055380356 0.06147212 0.005706392 -0.067728154 -0.10183498 -0.09682129 -0.0064098015 -0.10658565
-0.0840674 -0.12183924 0.114993736 0.11950205 0.08715447 0.0075154393 -0.08587807 0.018952612
0.06153794 -0.1150431 -0.016749447 -0.06765402 0.047700793 0.03409521 0.08414506 0.10347794
0.121538416 0.08233207 -0.08223691 -0.09035621 -0.0986058 -0.0012335277 -0.09450318 0.07978343
-0.06157099 -0.065951 -0.090065725 0.07510479 -0.09340565 -0.11444051 0.11074599 0.046260834
-0.043663625 0.10444012 0.040198985 0.012979209 -0.058557626 -0.078009784 -0.09647687 -0.11320697
-0.042740945 0.034084063 -0.013263285 0.04714729 -0.11555737 0.022149758 -0.029458608 0.06925463
0.04261439 0.024810627 0.0020742908 0.12431663 -0.122579254 0.055008005 -0.046513453 0.051383078
-0.026911363 -0.09715991 0.059463117 -0.0939271 -0.119263604 -0.09149435 -0.035908632 -0.11576109
-0.07690659 0.06852538 -0.10997013 -0.12150593 0.07790461 -0.056745622 0.07565518 0.04814683
0.12298594 0.06016944 -0.0947976 -0.02555482 0.0936809 -0.08985127 -0.010004298 0.08817234
-0.00891562 -0.029361008 -0.027381537 -0.043768663 -0.07978418 -0.0677891 -0.025528848 0.03033312
-0.050482914 -0.032581255 -0.094040796 -0.12472087 0.009755345 -0.010746212 -0.046601996 -0.07722908
0.04332826 -0.061920643 0.103867024 -0.12307928 0.09192826 -0.035844468 0.010588781 -0.01635868
-0.034389567 0.08883529 -0.08000938 0.11830245 0.008901882 0.025085628 -0.02740541 -0.05111055

bias f4 [64]
00000000: fb43 8d3d 6cd3 903d 3154 b1bd d191 2bbb
00000010: b83e 833d 9aa5 6d3c 1464 d7bd 4ffa fe3d
00000020: af00 a53b b630 78bd 9f2e b2bd bc98 e7bb
00000030: 8043 353d 3762 70bd bce2 b83c f285 213d
00000040: c451 b73d d636 febd 3c58 47bd ef78 f3bd
00000050: 4c9e 82bd c983 2fbd bf7a ad3d 3563 38bd
00000060: 9de6 36bd 2bf5 d03d fca1 cc3b ae3f e63d
00000070: 4bea 3c3d 2d80 c13d e6d4 c4bd ecd9 793d
00000080: bea0 5e3c b75f 86bd d315 41bc bc38 edbd
00000090: ee0b b43d ffbd 853d 1749 f03d 3ac6 95bc
000000a0: 9168 2cbd b41d a1bd a949 f73c cdb5 f7bd
000000b0: d814 cf3d f2d6 78bb e7e1 debc d3fd b8bd
000000c0: 609f d9bc 69fd b9bd fb7b d83d aba0 0ebd
000000d0: dd29 473d 038d c93d d0d8 5b3c 6558 b53d
000000e0: 68c5 703d 1622 bd3d f64e ae3d 6e61 823d
000000f0: 803c 1e3c b996 b33d 4a19 1a3d db79 f7bd
0.06897732 0.070715755 -0.08658636 -0.0026179443 0.06408447 0.0145048145 -0.10517135 0.12450086
0.005035482 -0.06059333 -0.087002985 -0.007067768 0.044253826 -0.058687415 0.022569053 0.03943438
0.089511424 -0.12412803 -0.04866813 -0.118883006 -0.06377849 -0.04285029 0.084706776 -0.045016486
-0.044653524 0.10203012 0.006244896 0.11242615 0.046121877 0.09448276 -0.0961092 0.060998842
0.013588129 -0.06561225 -0.011784988 -0.11583087 0.08791338 0.065303795 0.11732691 -0.018282998
-0.04209191 -0.078669935 0.030186491 -0.120952226 0.101113975 -0.0037969914 -0.027207328 -0.09032788
-0.026565254 -0.09081537 0.105705224 -0.034821194 0.04862391 0.09841349 0.013418391 0.088547505
0.05878201 0.09235017 0.08511154 0.063662395 0.009657979 0.087689824 0.037621774 -0.12083789

weight f4 [1, 64]
00000000: cca0 bfbd 2776 ddbc f01a c8bb ca33 9b3c
00000010: 0a02 bfba f641 033e 2788 e03c 94b0 9bbd
00000020: d781 283d 7014 3fbd fe00 823d 054e 923d
00000030: b0ef 9dbd 2ced 583d 26c5 90bd b99a e03a
00000040: 09c2 a9bc bcf1 49bd 34a6 9f3d 4377 5ebd
00000050: 082e d63d b888 f5bd 2837 ecbd 34da 513d
00000060: acbc 80bd 992a f73c 6b8c 053d 9809 803d
00000070: 6cc6 b6bd b973 fabd 8c64 cebd 0a27 a03d
00000080: 75ff d23d 3ce5 dcbd 28dc bdbd d18c b83a
00000090: 4096 3d3d 70c3 d1bd 86ad d8bd 5c7a 3d3d
000000a0: fd6e 653d 51f4 b33d bfbf cbbd 4c90 dcbd
000000b0: cf44 fcbb ba59 dabd d012 febc 6955 e0bd
000000c0: 0ce4 c0bd 6bff 6b3d 6b80 1e3d 1a8b efbd
000000d0: 0e39 c7bd 7f0a afbd 87f4 a6bd 6f58 53bd
000000e0: 70f4 92bd f8c1 babd d8c9 963d 687d d93d
000000f0: 8f94 8ebd aea0 f5bd 1afb b43d 2c5e cdbd
-0.093568414 -0.027033878 -0.006106727 0.018945593 -0.0014572751 0.12818131 0.027408672 -0.07602039
0.04113945 -0.04665035 0.063478455 0.07143787 -0.077117324 0.05296056 -0.07068853 0.0017135955
-0.020722406 -0.0493028 0.077953726 -0.054312956 0.104579985 -0.11988968 -0.11533958 0.051233485
-0.06285986 0.03017168 0.032604616 0.0625183 -0.08924565 -0.122291036 -0.100777715 0.07819946
0.10302631 -0.107859105 -0.09270507 0.0014080052 0.046285868 -0.10242355 -0.10579972 0.04625927
0.05601405 0.08786834 -0.09948682 -0.1076971 -0.0076986323 -0.10661645 -0.03101483 -0.10953791
-0.094184965 0.057616632 0.038696688 -0.116964534 -0.09727679 -0.08546924 -0.08152109 -0.05159801
-0.07175529 -0.09119028 0.073627174 0.106196225 -0.06961929 -0.11993538 0.08836956 -0.100277275
