mlartifacts/554351476986166068/0a647d5cfb854424ad15052db5ef0163/artifacts/models/Model_dim64_layers5_experiment/r2_score0.44479353513984465_run1/data/model.pth (torch, 294728 bytes, 13 tensors)

weight f4 [64, 801]
0	0x3be64274	0.007026965
1	0xbcd8d373	-0.026468014
2	0x3cf445c8	0.02981843
3	0x3c023002	0.007946016
4	0x3b6db633	0.003627193
5	0xbc837256	-0.01604573
6	0xbca03b88	-0.019559637
7	0x3c74230b	0.014900933
8	0xbc837053	-0.016044771
9	0xba9fb53f	-0.0012184753
10	0x3c539541	0.012914003
11	0xbcae0722	-0.021243636
12	0xbd008f83	-0.031386863
13	0xbcc81496	-0.024423879
14	0x3d080539	0.033208106
15	0x3c2c34ed	0.010510665
16	0x3b4b1866	0.0030989884
17	0xbd05a2d1	-0.032625977
18	0x3cced162	0.025246326
19	0xbcc9b9a1	-0.024624648
20	0xbb5daebb	-0.0033826071
21	0xbd0e8020	-0.03479016
22	0x3d0a36cc	0.033743665
23	0x3cf42d56	0.029806774
24	0xbc63288a	-0.013864646
25	0xbd02e308	-0.031954795
26	0x3b5d1cf5	0.0033739184
27	0x3ce295a0	0.027659237
28	0xbcd32837	-0.025776012
29	0xbcd8bbd8	-0.026456758
30	0xbc2a3a73	-0.010389912
31	0x3c678f01	0.014133216
32	0x3c9537c0	0.01821506
33	0xbb9e8a30	-0.0048382506
34	0x3c275fb9	0.010215693
35	0x3c03d4c4	0.008046333
36	0xbc430624	-0.0119033195
37	0xbaedde53	-0.0018147923
38	0x3c9bf346	0.0190369
39	0x3c42cda7	0.011889852
40	0xbc30196e	-0.01074825
41	0x3cd5acfc	0.026083462
42	0xbc59e9a1	-0.01330033
43	0x3b213043	0.0024595417
44	0xbd0e4c9e	-0.034741037
45	0x3c677390	0.014126673
46	0xbb51c68c	-0.0032009212
47	0x3ca7802f	0.020446865
48	0xbcf4d5f5	-0.029887179
49	0x3ce15c1d	0.027509743
50	0x3cf2b8c8	0.029629126
51	0x3c169e51	0.009193019
52	0x3cd0b48b	0.025476715
53	0xbcedccf0	-0.029028386
54	0x3ccfb6bd	0.025355691
55	0xbcf3e14d	-0.029770518
56	0xbd021423	-0.031757485
57	0xbceebc71	-0.02914259
58	0xbcbbc8c7	-0.022922887
59	0xbca23fa3	-0.019805735
60	0x3ce2875f	0.02765244
61	0x3c134a60	0.0089899
62	0x3d086955	0.033303577
63	0xbcdc357c	-0.026880972
64	0x3bf8572f	0.0075787525
65	0x3c288649	0.010285922
66	0x3c45dd31	0.012076662
67	0x3c3475d9	0.011014425
68	0x3cc6ebe0	0.024282396
69	0xbc423faa	-0.011855999
70	0x3ab79aee	0.0014007965
71	0xbc7706f6	-0.015077343
72	0x3adeb146	0.0016990087
73	0xbcc2a9ff	-0.023762701
74	0x3c9afa2e	0.018918123
75	0x3aa3152b	0.0012442222
76	0x3ca1cfe9	0.01975246
77	0xba7272c1	-0.0009248667
78	0xbba38e3f	-0.0049913223
79	0x3a996e5e	0.0011705866
80	0x3ca8a06c	0.020584308
81	0x3c8abacb	0.016934773
82	0x3d06c227	0.0329
83	0x3b887524	0.004164355
84	0x3adefa5d	0.001701187
85	0xbce1d99e	-0.027569588
86	0xbcbe2b66	-0.023214053
87	0x3b19fd69	0.0023496991
88	0x3c3b4b3a	0.01143151
89	0x3cbadd94	0.022810735
90	0x3d03ffe6	0.032226466
91	0x3c575280	0.013142228
92	0x3cfc5d1b	0.030806115
93	0x3c483d4e	0.012221647
94	0xbcca4cf3	-0.024694895
95	0xbc42a40d	-0.011879933
96	0xbbff0090	-0.0077820495
97	0xbb154739	-0.0022778048
98	0x3d0c2b47	0.03422096
99	0xbd06d9ff	-0.03292274
100	0x3a5810c4	0.00082422444
101	0xbc56c90b	-0.013109456
102	0xbc9d49af	-0.019200174
103	0xbcb39474	-0.021921374
104	0xbc243dda	-0.010024512
105	0x3bddcb6b	0.006768634
106	0x3d0d51eb	0.03450195
107	0x3ca9a896	0.02071027
108	0x3cff271a	0.031146575
109	0x3c7880ad	0.015167397
110	0x3b91d844	0.0044508297
111	0xbc944cab	-0.018102964
112	0xbb6b920a	-0.00359452
113	0xbd0aa295	-0.033846457
114	0xbcb7a8c4	-0.02241934
115	0xbb9d0bcb	-0.0047926656
116	0x3c28b897	0.010297916
117	0xbcaaafaa	-0.020835716
118	0xbba53c57	-0.0050425935
119	0xbaf5bc3b	-0.0018748114
120	0xbc11e4ab	-0.008904616
121	0x3caabb2b	0.020841202
122	0x3c5c6262	0.013451191
123	0xbcb393ef	-0.021921126
124	0x3c292aa5	0.010325109
125	0xbca68fea	-0.020332295
126	0x3be9f4e8	0.007139791
127	0x3cdf58f7	0.027264101
128	0xbc534625	-0.012895142
129	0x3ba7a738	0.0051163696
130	0x3bc094ff	0.0058771367
131	0x3d04324b	0.032274526
132	0xbc670155	-0.014099439
133	0xbcef67c8	-0.029224291
134	0x3cdf3946	0.02724899
135	0xbc22ae40	-0.00992924
136	0xbce40469	-0.027834134
137	0xbc9125a1	-0.017718138
138	0xbd05c80b	-0.03266148
139	0xbcae6620	-0.021288931
140	0x3b3b1927	0.0028548928
141	0xbce235f5	-0.02761362
142	0x3cada0e8	0.02119489
143	0x3b65f00e	0.003508571
144	0xbc68d807	-0.014211661
145	0x3cde03a7	0.027101351
146	0x3cab0f0f	0.020881204
147	0xbce6b6e9	-0.02816339
148	0x3caddab4	0.02122245
149	0xbbca7eb2	-0.006179654
150	0xbcfd679e	-0.030933198
151	0xb90e2a06	-0.0001355783
152	0x3ce6fc37	0.028196437
153	0xbc9b837b	-0.018983593
154	0x3c13894b	0.009004901
155	0xbb93c542	-0.004509599
156	0x3bbd147f	0.0057702656
157	0xbc6640e8	-0.014053561
158	0x3c87afd3	0.016563332
159	0xbb872d72	-0.0041252906
160	0x3cfe3127	0.031029297
161	0xbab58576	-0.0013848979
162	0x3c45e359	0.01207813
163	0x3be8332b	0.007086178
164	0x3b9d253a	0.0047956975
165	0xbd12ad24	-0.03580965
166	0x3c92a041	0.01789868
167	0xbcbe699b	-0.023243716
168	0xbcbc14ce	-0.02295914
169	0x3cd7da7f	0.026349304
170	0xbcbd0621	-0.023074212
171	0xbd063423	-0.032764565
172	0xbcec5062	-0.028846923
173	0x3cc4090a	0.023930091
174	0x3bbedf23	0.00582494
175	0xbca6df5b	-0.020370176
176	0x3ca57dcb	0.020201584
177	0x3c3fd41d	0.011708287
178	0x3c061f5d	0.0081861885
179	0x3c6282c8	0.013825126
180	0xbcc0e471	-0.02354643
181	0xbc9a8031	-0.018859955
182	0x3d0d2988	0.034463435
183	0xbc815578	-0.015787825
184	0x3c0703c1	0.008240641
185	0xba721653	-0.0009234894
186	0xbcc8b4b4	-0.024500228
187	0xbb82c11e	-0.0039903065
188	0xbcad2f81	-0.021140816
189	0x3c01f6f9	0.007932418
190	0x3cf695a8	0.030100659
191	0x3b16555f	0.0022939069
192	0xb9afd899	-0.0003353998
193	0xbcfc0058	-0.030761883
194	0xbd039a80	-0.032129765
195	0x3c95daa0	0.018292725
196	0xbc709b65	-0.014685486
197	0x3ccf0973	0.02527306
198	0x3ca7c837	0.020481212
199	0x3c9bba7d	0.019009823
200	0xbca8efdb	-0.020622185
201	0xbc42f89e	-0.011900095
202	0xbca7bb7c	-0.020475142
203	0x3cee11c2	0.029061202
204	0xbc95598b	-0.018231174
205	0x3ccff744	0.02538646
206	0x3c40c0bd	0.011764702
207	0xbd0f478e	-0.03498035
208	0x3c9dcd84	0.019263037
209	0x3cfedfa3	0.031112498
210	0x39db7bf7	0.00041863296
211	0xbc972e8b	-0.01845481
212	0x3af0306d	0.0018324979
213	0xbc8e5a89	-0.017377155
214	0x3c835209	0.016030328
215	0x3bbc87bb	0.005753485
216	0xbcfeb03c	-0.031089894
217	0x3c199045	0.009372775
218	0x3cc4079f	0.023929415
219	0xbc75b890	-0.014997616
220	0xbd0c2b4f	-0.03422099
221	0x3cb9aaf5	0.022664526
222	0x3ba42bf4	0.0050101224
223	0x3d050b5e	0.032481544
224	0xb9daf5f7	-0.00041763458
225	0xbc0cd445	-0.008595531
226	0x3bbde0f4	0.005794639
227	0x3d04418e	0.03228908
228	0xbc120099	-0.008911275
229	0x3cbadf8b	0.022811672
230	0xbc8cc317	-0.01718287
231	0x3cb6e6c9	0.022326844
232	0x3c018fc4	0.007907812
233	0x3b382826	0.0028100102
234	0xbd02cb56	-0.031932198
235	0x3c973100	0.018455982
236	0xbc521d8a	-0.0128244255
237	0x3ca734a8	0.02041085
238	0xbd008135	-0.03137322
239	0xbd0a8949	-0.03382233
240	0x3ce9b738	0.028529748
241	0xbc23b266	-0.009991264
242	0xbcba295b	-0.022724798
243	0x3c3a584d	0.011373592
244	0x3c15bd5e	0.009139387
245	0xbcc3da9a	-0.023907948
246	0x3cc1057f	0.023562191
247	0x3ca4aedd	0.020102913
248	0xbcafe148	-0.021469727
249	0xbb1a14e3	-0.0023510985
250	0xbd0c2d4b	-0.034222882
251	0x3b5135ff	0.0031923053
252	0xbcf3d21f	-0.02976328
253	0x3c222822	0.009897264
254	0x3ca5769b	0.020198157
255	0x3cc80b27	0.02441938

bias f4 [64]
0	0x396f10aa	0.00022799024
1	0x3c462107	0.012092835
2	0xba8196b1	-0.0009886828
3	0xba7085a8	-0.000917519
4	0xbd074714	-0.03302677
5	0xbcb8459c	-0.02249413
6	0x3c9126d4	0.01771871
7	0x3d27b439	0.040943358
8	0xbbc18439	-0.0059056547
9	0xbc612818	-0.013742469
10	0x3d352cb2	0.044232078
11	0xba6d3682	-0.0009048955
12	0x3c5ba007	0.013404853
13	0xbbb3aaad	-0.0054829926
14	0xbc127591	-0.008939163
15	0x3cf7bd52	0.030241642
16	0x3d262a02	0.040567406
17	0x3cf70174	0.03015206
18	0x3b8401e7	0.004028547
19	0x3c4bdae3	0.012442323
20	0x3cf89095	0.03034238
21	0xbbca1a66	-0.0061676977
22	0xbce54965	-0.027989099
23	0x3d1a4ccd	0.0376709
24	0x3d1817da	0.03713212
25	0xbb674735	-0.0035290245
26	0x3d2b95b2	0.041890807
27	0x3c345a16	0.011007806
28	0x3d36a62a	0.04459206
29	0x3c009163	0.007847163
30	0x3c327806	0.010892874
31	0xbce90230	-0.028443426
32	0x3cd4c08b	0.025970718
33	0x3baff22e	0.0053694462
34	0x3d376ff6	0.04478451
35	0x3bb60037	0.005554225
36	0x3c4f1c84	0.012641076
37	0x3d133c48	0.03594616
38	0x3cc88e41	0.024481894
39	0x3cb3a2d9	0.021928238
40	0x3d1e5dbd	0.038663615
41	0x3ce6a585	0.028155098
42	0xbc3a33df	-0.011364906
43	0x3d18d9a0	0.03731692
44	0x3b9235d5	0.0044619837
45	0x3d562b6a	0.052287497
46	0x3cabffe0	0.020996034
47	0x3c616411	0.013756768
48	0x3bf0947b	0.007341919
49	0xbd09647d	-0.0335431
50	0x3cbe385b	0.023220232
51	0x39f42995	0.00046570288
52	0x3b8e16a5	0.0043361955
53	0x3c930686	0.017947447
54	0x3cb305e1	0.02185339
55	0x3c606d53	0.01369794
56	0x3c44a9b1	0.012003348
57	0xbcfd66d9	-0.03093283
58	0x3c06b90e	0.008222831
59	0x3c2f95cd	0.010716868
60	0xbbb1fc81	-0.005431712
61	0xbc489b74	-0.012244094
62	0x3cae53ff	0.021280287
63	0x3cc38639	0.023867713

weight f4 [64, 64]
0	0x3d0f3070	0.034958303
1	0xbd8c820e	-0.068607435
2	0x3dd4579e	0.10368274
3	0xbd8b832c	-0.068121284
4	0x3c7b23dc	0.015328374
5	0xbc64537f	-0.013935923
6	0xbd21d989	-0.0395141
7	0xbe274db2	-0.16338232
8	0xbd4147bf	-0.047187563
9	0xbe0e5d54	-0.1390279
10	0x3dd4fac2	0.10399391
11	0xbd9cfb13	-0.07665076
12	0x3d4e64ea	0.050389208
13	0x3ccb7f92	0.024841104
14	0xbd20962a	-0.039205708
15	0xbe336f34	-0.1752289
16	0xbc1f94a8	-0.009740032
17	0x3b8c254e	0.004276908
18	0xbdbe3e19	-0.09289188
19	0xbe2b5e50	-0.16735196
20	0x3d9a5317	0.075353794
21	0xbdbb2a90	-0.091389775
22	0x3c95b869	0.01827641
23	0x3b9b0942	0.004731328
24	0xbdcc41c7	-0.099734835
25	0xbdb65067	-0.08902054
26	0x3dbb5dd4	0.09148756
27	0xbe19ccad	-0.15019484
28	0x3d38daac	0.045130417
29	0xbd656eb9	-0.056013796
30	0x3dde47b8	0.10853523
31	0xbc18339f	-0.009289651
32	0x3d8a04a0	0.067391634
33	0x3bd9d468	0.0066476353
34	0x3c87df6c	0.016586028
35	0x3c1e2185	0.009651546
36	0xbda4ad49	-0.08040864
37	0xbe1dcde2	-0.1541057
38	0x3ddc1d49	0.10747773
39	0xbdd9751a	-0.106180385
40	0x3e007b7a	0.12547103
41	0xbd8ea8be	-0.06965779
42	0x3df777aa	0.12083371
43	0xbdab31d8	-0.08359116
44	0xbe2bf68b	-0.16793267
45	0x3dc2de8b	0.09515103
46	0xbda1dd96	-0.07903592
47	0xbc479f31	-0.01218395
48	0x3d8b4fbd	0.06802318
49	0xbcef8436	-0.029237848
50	0x3c2b7d70	0.010466918
51	0x3d8dc0e1	0.06921554
52	0x39e12146	0.00042940135
53	0xbdda2d0c	-0.10653123
54	0x3de18045	0.110107936
55	0xbdce33f2	-0.100685015
56	0xbc91b964	-0.017788596
57	0xbb5a7576	-0.0033334172
58	0xbe13309a	-0.14374009
59	0xbb9b235a	-0.004734439
60	0xbe0c3a67	-0.13694154
61	0x3cb32e92	0.021872792
62	0xbe19bff6	-0.15014634
63	0xbc8b1f34	-0.016982652
64	0xbb251780	-0.002519101
65	0x3bc8aa76	0.006123836
66	0x3caa11f0	0.020760506
67	0xbc101305	-0.008793597
68	0xbdf19a04	-0.11796954
69	0x3deb0bec	0.11476883
70	0x3d614d84	0.055005565
71	0xbdf41d44	-0.119196445
72	0xbd249b90	-0.04018742
73	0x3d1a98d4	0.037743405
74	0xbcd8bb8b	-0.026456615
75	0xbdd9a8d8	-0.106279075
76	0xbd81d996	-0.06340329
77	0xbd3f77b4	-0.046745017
78	0xbd96cc3f	-0.073631756
79	0x3df8ff24	0.12158039
80	0x3dbae265	0.091252126
81	0x3de80726	0.113294885
82	0x3d890d10	0.066919446
83	0x3d2c1a24	0.042017117
84	0x3d592161	0.05301035
85	0xbdea9e88	-0.11456019
86	0xbdc6db10	-0.097097516
87	0x3da4dca3	0.080498956
88	0x3d5b2e60	0.053511024
89	0x3d2c4a99	0.04206333
90	0x3d9dd8b8	0.077073514
91	0xbd8777ad	-0.06614623
92	0xbd65b103	-0.056077015
93	0x3db18a34	0.08668938
94	0xbc9da477	-0.019243462
95	0xbc7505d4	-0.014955003
96	0x3db40255	0.08789507
97	0x3d38fd90	0.04516369
98	0xbdfd70ba	-0.123750165
99	0xbdfb4bcc	-0.122703165
100	0xbdd149e8	-0.102191746
101	0xbd7cb3f2	-0.061695047
102	0xbd0a595d	-0.03377663
103	0xbda64f07	-0.08120542
104	0x3cd443d5	0.025911251
105	0x3cb4bdb4	0.022063114
106	0xbc709fa0	-0.014686495
107	0xbdff7237	-0.12472957
108	0xbd83d734	-0.06437531
109	0x3c966753	0.018359816
110	0xbd99a712	-0.07502569
111	0xbde01c28	-0.109428704
112	0x3c60293d	0.013681707
113	0x3d52894c	0.051400468
114	0xbd1331c3	-0.03593613
115	0x3d0ee790	0.034888804
116	0x3d5b3d23	0.0535251
117	0x3d79108d	0.0608068
118	0x3d68c39c	0.056827173
119	0xbd138d30	-0.03602332
120	0xbdbd53fe	-0.09244536
121	0x3d643abd	0.05572008
122	0x3d753b99	0.05987129
123	0xbd9bf664	-0.07615355
124	0xbc7109c1	-0.014711798
125	0xbdd9e41a	-0.1063921
126	0x3d858bca	0.06520803
127	0x3c9e5e7c	0.019332163
128	0x3db39fbc	0.08770701
129	0xbd8ec3c4	-0.06970933
130	0xbdf6d142	-0.120516315
131	0x3d1468d5	0.036232788
132	0xbcab28d9	-0.020893501
133	0xbdf9bc51	-0.12194122
134	0xbba29c95	-0.0049625137
135	0x3e090dfa	0.13384238
136	0x3de2c304	0.110723525
137	0x3e31cfe8	0.17364466
138	0x3dbda0f8	0.09259218
139	0x3e1d473e	0.15359208
140	0x3c5d7bea	0.013518313
141	0x3dc5e093	0.09661975
142	0x3e6dd420	0.2322545
143	0x3de019f7	0.109424524
144	0xbce8b394	-0.028405942
145	0xbce39e7d	-0.027785534
146	0x3b359290	0.0027705766
147	0x3d4dce14	0.05024536
148	0x3da8fd59	0.08251447
149	0xbe00c399	-0.12574615
150	0xbdebcd25	-0.115137376
151	0x3e27f47d	0.16401859
152	0x3d09bf32	0.033629604
153	0x3d95c7d8	0.07313508
154	0x3d80aa29	0.062824555
155	0x3d3b2529	0.045689736
156	0x3d9d3117	0.07675379
157	0x3c9fe269	0.01951714
158	0xbd9c9a9a	-0.076466754
159	0x3ca0fdbf	0.019652246
160	0x3decf1b8	0.11569542
161	0x3d84667d	0.064648606
162	0x3b9a6444	0.0047116596
163	0x3e01211c	0.12610286
164	0x3de6d673	0.11271372
165	0x3e03b8ec	0.12863511
166	0x3d7d88d8	0.061898082
167	0x3dab1452	0.08353485
168	0x3b4b21af	0.0030995419
169	0x3e122c54	0.14274722
170	0xbdf428ad	-0.11921821
171	0xbd19d7ae	-0.037559204
172	0xbd5c57f5	-0.05379482
173	0x3ca0479a	0.019565392
174	0x3dd5e896	0.10444753
175	0x3d50c72b	0.05097119
176	0x3da96d66	0.08272819
177	0xbd617d43	-0.0550511
178	0x3d9f2824	0.07771328
179	0x3da85dd5	0.08221022
180	0xbb6ceab3	-0.0036150634
181	0x3d784d5a	0.060620643
182	0xbd9df6a7	-0.07713061
183	0x3dc3dee6	0.09563999
184	0xbe053a40	-0.13010502
185	0xbd5e7969	-0.054315004
186	0x3e462c3f	0.19352816
187	0xbd9e0e71	-0.07717598
188	0x3d98c5c4	0.07459596
189	0xbe0e148b	-0.13875024
190	0x3997db8c	0.0002896454
191	0xbc6dd7af	-0.014516755
192	0xbdd87a7e	-0.105702385
193	0xbccda1de	-0.025101598
194	0x3e037201	0.12836458
195	0x3d86c168	0.06579858
196	0xbda11eea	-0.078672245
197	0x3e0c2d26	0.13689098
198	0xbdfa145f	-0.12210917
199	0xbdfba43d	-0.12287185
200	0xbdfba203	-0.12286761
201	0x3dcec3d4	0.10095945
202	0x3d7f0e40	0.06226945
203	0xbdece7bf	-0.115676396
204	0xbdd873e3	-0.10568979
205	0xbcee93e6	-0.029123258
206	0xbd60dfb0	-0.054900825
207	0xbdf1fc59	-0.118157096
208	0xbd1568ce	-0.036476903
209	0x3dce06e9	0.10059912
210	0x3d234c4e	0.03986769
211	0xbd8e9610	-0.06962216
212	0xbbb91317	-0.0056480276
213	0x3dd30164	0.103029996
214	0xbd43c1a2	-0.047792085
215	0xbe02a065	-0.12756498
216	0x3d1f27fc	0.03885649
217	0xbdb19f5c	-0.086729735
218	0x3e150c7c	0.14555544
219	0xbe0b9d73	-0.13634281
220	0xbc7917ef	-0.01520346
221	0x3db1e54f	0.08686315
222	0x3d6ddf63	0.058074366
223	0x3cac260a	0.021014232
224	0xbdc97e85	-0.09838585
225	0x3dcff156	0.10153453
226	0x3e17db95	0.14829858
227	0x3cfdc00f	0.03097537
228	0x3d42360b	0.04741482
229	0xbc2e6692	-0.010644572
230	0xbd424085	-0.047424812
231	0x3cc57b30	0.024106592
232	0xbd3e8e2a	-0.046522297
233	0x3c69620f	0.01424457
234	0x3e087a64	0.13327938
235	0xbd61ffb5	-0.0551755
236	0x3d8a5a03	0.067554496
237	0x3cb245ba	0.021761764
238	0x3dece2f4	0.115667254
239	0x3dbdc887	0.09266763
240	0xbda6a0aa	-0.08136113
241	0xbddf1026	-0.10891752
242	0x3e190568	0.14943469
243	0x3d55ad81	0.05216742
244	0xba9216a0	-0.0011145659
245	0xbdc9610b	-0.098329626
246	0x3d2c3a6e	0.04204791
247	0x3d95126a	0.07278903
248	0x3d3c447c	0.04596375
249	0x3e1e5f64	0.15466076
250	0xbe344b2e	-0.17606804
251	0x3e10520b	0.14093797
252	0xbe1cebe9	-0.15324368
253	0xbcf7839f	-0.030214129
254	0xbe28b652	-0.164758
255	0xbde230a4	-0.11044434

bias f4 [64]
0	0x3df3956b	0.118937336
1	0xbdf3b00a	-0.11898811
2	0x3d157d3f	0.036496397
3	0xbdcfa4bd	-0.10138843
4	0x3daf1f05	0.085508384
5	0x3cf41a15	0.029797593
6	0x3d3a9d90	0.04556042
7	0x3ba4eee8	0.0050333627
8	0x3d2a3ae1	0.041560058
9	0x3d92472b	0.071424805
10	0x3d9217cb	0.071334444
11	0x3d5d0bc4	0.0539663
12	0xbd3faeea	-0.04679767
13	0xbdd3a213	-0.103336476
14	0xbd7ccc2f	-0.061718162
15	0x3e10de15	0.14147218
16	0xbaff352c	-0.0019470803
17	0xbd0743f6	-0.033023797
18	0x3dc45779	0.095869966
19	0xbdde5662	-0.1085632
20	0xbd8fdd46	-0.070246264
21	0xbdd2ffef	-0.10302722
22	0x3de0d69c	0.109784335
23	0xbdaf81b9	-0.085696645
24	0xbd9da96f	-0.076983325
25	0xbd39bbdd	-0.045345176
26	0x3decbbeb	0.1155928
27	0x3d623f39	0.055236075
28	0x3e0bc7f3	0.13650493
29	0x3d1ffb32	0.039057918
30	0xbb244ad0	-0.0025069006
31	0x3bdb5c7c	0.0066943746
32	0x3da3da79	0.08000655
33	0xbbdd9380	-0.006761968
34	0xbd65a718	-0.056067556
35	0x3b9d55b8	0.0048014782
36	0x3d91d135	0.07119981
37	0xbdbd77dc	-0.09251377
38	0x3db2b240	0.08725405
39	0x3d70e522	0.058812268
40	0xbcf4553d	-0.029825801
41	0xbd24ab45	-0.040202398
42	0x3c0271cb	0.007961701
43	0xbde12acf	-0.10994493
44	0xbdcad757	-0.09904354
45	0x3d88b9d0	0.06676066
46	0x3d1b6129	0.037934456
47	0xbda90c7d	-0.08254335
48	0x3cfdee0d	0.0309973
49	0x3d448704	0.047980323
50	0xbd399259	-0.045305584
51	0x3cfbb9ae	0.030728187
52	0x3ba1468d	0.0049217404
53	0xbddaa154	-0.10675302
54	0xbd9bbf3c	-0.076048344
55	0x3dcfa237	0.10138362
56	0x3d90ef50	0.07076895
57	0xbd9d4ba7	-0.07680445
58	0xbd5d3194	-0.05400236
59	0xbc0d8e18	-0.008639835
60	0x3e261b2f	0.16221307
61	0x3dbf88b8	0.09352249
62	0xbd936fba	-0.071990445
63	0x3d6b263a	0.057409503

weight f4 [64, 64]
0	0x3e2508df	0.16116665
1	0xbdd6a5b0	-0.10480821
2	0x3a9b60ec	0.0011854446
3	0x3e1df427	0.15425168
4	0xbd29614e	-0.041352563
5	0xbda675eb	-0.0812796
6	0xbcdddadd	-0.027081901
7	0xbd906b57	-0.070517235
8	0x3da5f481	0.08103276
9	0xbd01c261	-0.031679515
10	0x3d88ae5b	0.06673881
11	0xbd90d391	-0.07071603
12	0x3de57b9e	0.11205219
13	0x3da99516	0.08280389
14	0x3e297d3b	0.16551678
15	0x3e0ed55f	0.13948582
16	0x3cf29ff0	0.02961728
17	0x3cb243f7	0.021760924
18	0x3e201c9d	0.15635915
19	0xbd54472a	-0.05182568
20	0x3de19b03	0.11015894
21	0xbd2580a7	-0.040405896
22	0x3dcef160	0.101046324
23	0x3c01c9ae	0.007921619
24	0x3dc6928c	0.0969592
25	0xbe16628d	-0.14686032
26	0x3db7d0d9	0.089753814
27	0x3dd37b78	0.10326284
28	0x3d69070c	0.056891486
29	0xbda70a04	-0.08156207
30	0xbda0b9e2	-0.07847954
31	0xbcf86085	-0.030319462
32	0xbe3a4d9b	-0.18193667
33	0x3e01c80e	0.12673971
34	0xbd643f5c	-0.055724487
35	0xbd2b7a06	-0.041864417
36	0x3dcb757d	0.099345185
37	0x3dca849e	0.09888576
38	0x3d375c72	0.044765897
39	0xbd9d999f	-0.076953165
40	0xbd163855	-0.036674816
41	0xba92c90c	-0.0011198833
42	0x3cc4a1fc	0.024003021
43	0x3bf322ee	0.0074199354
44	0xbd99183c	-0.074753255
45	0x3daaf553	0.08347573
46	0x3c553b96	0.013014695
47	0xbe16e0b6	-0.14734158
48	0xbcdd7179	-0.027031647
49	0xbd4d1a7a	-0.05007408
50	0x3da2f8e1	0.07957626
51	0x3d570801	0.052497867
52	0x3d9691c9	0.07352025
53	0x3d69d95c	0.057092056
54	0xbcda5950	-0.026653916
55	0xbceb5cd2	-0.028730784
56	0x3ce6d719	0.028178738
57	0x3e13146e	0.14363262
58	0x3d769710	0.06020266
59	0x3e14af59	0.14520015
60	0x3e053382	0.1300793
61	0x3c423f61	0.011855931
62	0xbd770c54	-0.06031449
63	0x3dcf2151	0.101137765
64	0xbc1d9a6b	-0.009619336
65	0x3d894f72	0.06704606
66	0x3d7433e3	0.059619796
67	0x3d815e7c	0.063168496
68	0x3da15ba5	0.07878808
69	0x3df03e55	0.11730639
70	0x3dbf1901	0.09330941
71	0xbe12b8b5	-0.14328273
72	0x3dba7fa0	0.09106374
73	0xbe2aea94	-0.16691047
74	0xbdd51085	-0.104035415
75	0x3ccd4539	0.025057422
76	0xbde7c452	-0.11316742
77	0xbdcf3942	-0.10118343
78	0x3e15258e	0.14565107
79	0x3ca76677	0.020434601
80	0xbd53f24b	-0.05174474
81	0x3da7bc00	0.08190155
82	0xbd0468f8	-0.03232667
83	0xbd2a9347	-0.04164436
84	0xbb13cd19	-0.0022552668
85	0xbc8c056b	-0.017092427
86	0x3c671d69	0.014106133
87	0x3de0212b	0.10943826
88	0xbda71b04	-0.0815945
89	0xbdb49529	-0.088175125
90	0x3d98d40b	0.07462319
91	0x3dec339c	0.11533281
92	0x3e114c7e	0.14189336
93	0xbe2a1ee5	-0.16613348
94	0xbd6256e6	-0.055258654
95	0x3cf3dcff	0.029768465
96	0xbdd5fcf0	-0.104486346
97	0x3de57ea3	0.11205795
98	0xbdeedf01	-0.11663628
99	0xbcdd9078	-0.027046427
100	0x3d113996	0.03545531
101	0x3dc673e3	0.096900724
102	0xbdad8a9f	-0.084737055
103	0xbcb18bb1	-0.021673055
104	0x3c3e60b5	0.011619736
105	0xbd22454e	-0.039616875
106	0x3e0aced9	0.13555469
107	0x3d838f5a	0.064238265
108	0xbe3987c0	-0.18118191
109	0x3b0fc862	0.0021939506
110	0xbd906c43	-0.07051899
111	0xbe043375	-0.12910254
112	0xbdfa4615	-0.12220398
113	0x3df8e7d4	0.12153593
114	0xbbfa44bb	-0.007637588
115	0xbdf1c42d	-0.11804996
116	0x3dcab5af	0.09897935
117	0xbc564f2a	-0.013080398
118	0x3d6a887c	0.057259068
119	0xbc9b634b	-0.018968245
120	0xbda16df2	-0.078822985
121	0xbd986aa8	-0.07442218
122	0x3d74ea50	0.05979377
123	0xbc9ffe88	-0.01953055
124	0x3d91482e	0.07093845
125	0xbd54870d	-0.051886607
126	0x3da63f02	0.081174865
127	0xbdbcf065	-0.09225539
128	0xbd476a19	-0.048685167
129	0x3d6c36fe	0.057669632
130	0xbc0c155b	-0.008550013
131	0xbd1b893f	-0.037972685
132	0xbd80b235	-0.0628399
133	0x3cc2e632	0.023791406
134	0xbcb6f399	-0.022332953
135	0x3df8804e	0.12133847
136	0x3d012041	0.0315249
137	0x3cc55406	0.024087917
138	0xbd578f59	-0.05262694
139	0x3cf878a4	0.030330963
140	0xbd0209ca	-0.031747617
141	0xbd073e42	-0.033018358
142	0x3d5027b3	0.05081911
143	0x3e193f60	0.14965582
144	0x3e162ba5	0.14665087
145	0x3de71dc4	0.11284974
146	0x3e1d162f	0.15340494
147	0x3d8f186e	0.069870815
148	0x3de78b94	0.11305919
149	0x3dd7e874	0.10542384
150	0xba83118b	-0.0009999735
151	0xbce61eb1	-0.028090807
152	0x3c71087b	0.014711495
153	0x3de4868b	0.111584745
154	0xbd75acca	-0.059979238
155	0xbdba7ea9	-0.0910619
156	0x3d96b8e7	0.07359486
157	0x3d63844d	0.055546094
158	0xbcd2b67f	-0.025721787
159	0x3ccea7b7	0.025226457
160	0x3dfe81c4	0.124270946
161	0x3b3e2887	0.0029015855
162	0x3d8a0d13	0.06740775
163	0x3e1de59b	0.15419619
164	0xbdb9d238	-0.09073299
165	0xbd98353c	-0.07432029
166	0x3de5f3ce	0.11228143
167	0x3d68c95b	0.056832653
168	0x3df4f53b	0.119608365
169	0x3d9e4a09	0.07728965
170	0xbc5c039b	-0.013428594
171	0xbdd490fd	-0.10379217
172	0x3d86169b	0.065472804
173	0x3e08d109	0.1336099
174	0xbbb44265	-0.005501079
175	0x3d24e520	0.040257573
176	0x3c8b3786	0.01699425
177	0xbc08b746	-0.008344477
178	0xbde639ad	-0.112414695
179	0x3e03eb63	0.12882762
180	0x3d8b07da	0.06788607
181	0x3e0e7516	0.13911852
182	0xbddde668	-0.10834962
183	0x3d8da274	0.06915751
184	0x3ddfa5ba	0.10920282
185	0xbdd6e8f3	-0.1049365
186	0xbdcc3ece	-0.099729165
187	0x3d9a5818	0.07536334
188	0x3e121275	0.14264853
189	0xbd1d76ba	-0.038443305
190	0xbd5bac94	-0.05363138
191	0x3cfc628d	0.030808711
192	0x3d4f7b18	0.0506545
193	0x3ce7bb68	0.028287604
194	0x3ca8a970	0.020588607
195	0xbd3a0fa8	-0.045425087
196	0xbdb54f3d	-0.08853004
197	0xbd990374	-0.07471362
198	0xbdd78b8a	-0.10524662
199	0xbddd8650	-0.10816634
200	0x3ca89c8d	0.020582462
201	0x3dd80578	0.10547918
202	0x3ddd8596	0.10816495
203	0xbd19587e	-0.03743791
204	0xbdb0f183	-0.08639815
205	0x3d198424	0.037479535
206	0x3c62c116	0.013839981
207	0x3cc4cdfc	0.024024002
208	0x3c07659c	0.008263972
209	0x3c21eb25	0.009882723
210	0xbce01d3a	-0.027357686
211	0x3d6f707a	0.058456875
212	0x3d7fcd4a	0.06245164
213	0x3d775521	0.06038392
214	0xbdd74f0a	-0.105131224
215	0x3d50f630	0.051016033
216	0xbdc6de08	-0.09710318
217	0xbd9b34fe	-0.07578467
218	0xbcdf30a2	-0.02724487
219	0x3dd36c90	0.10323441
220	0xbd25a525	-0.040440697
221	0x3dad9a68	0.08476716
222	0xbd8939ba	-0.067004636
223	0x3d84eae6	0.06490116
224	0x3d314964	0.04328288
225	0x3dcc513c	0.09976432
226	0xbdb883dc	-0.09009525
227	0xbdbcec5c	-0.092247695
228	0x3d7a8a3c	0.061166987
229	0x3abb0333	0.0014267921
230	0xbdbc794e	-0.092028245
231	0x3d80029c	0.06250498
232	0x3d65fd18	0.056149572
233	0x3c6e4350	0.014542416
234	0xb996dd9d	-0.00028775344
235	0x3dc1c170	0.094607234
236	0x3d95b9ad	0.073108055
237	0x3c2dabbc	0.010600027
238	0x3d9b4528	0.0758155
239	0x3db368d8	0.08760232
240	0x3c237c00	0.009978294
241	0xbdd314a7	-0.103066735
242	0x3db200c5	0.08691553
243	0xbcea1ca0	-0.028578103
244	0xbc336118	-0.010948442
245	0xbcadd4b0	-0.021219581
246	0x3d53af1c	0.05168067
247	0x3cb4e1d3	0.022080338
248	0xbcbd3c52	-0.023100052
249	0x3d82390a	0.063585356
250	0xbd61cdb8	-0.05512783
251	0xbdf57c25	-0.11986569
252	0x3b963642	0.0045841048
253	0x3df777bc	0.120833844
254	0xbc327e40	-0.010894358
255	0x3db31b6a	0.08745463

bias f4 [64]
0	0xbcd8fb12	-0.026486907
1	0x3d026397	0.031833258
2	0x3c854a7e	0.016270872
3	0xbdc72b05	-0.09725002
4	0xbdfbacdf	-0.12288832
5	0xbd5f62ba	-0.054537512
6	0x3cfe423a	0.031037439
7	0x3bac2b35	0.005254174
8	0x3e07e52c	0.13271016
9	0xbd41282b	-0.047157448
10	0xbd5047bd	-0.050849665
11	0xbdc646d9	-0.09681482
12	0x3df956a9	0.12174732
13	0x3c9256bf	0.01786363
14	0xbc704a44	-0.014666144
15	0x3d997188	0.074923575
16	0xbda79555	-0.0818278
17	0x3e0c30d7	0.13690506
18	0x3ce73e3e	0.028227922
19	0xbd9e76f8	-0.07737535
20	0xbbcb5c7c	-0.0062060934
21	0xbd35e721	-0.044409875
22	0x3dddb5b1	0.108256705
23	0x3db5a46d	0.08869252
24	0xbd6a8a4b	-0.057260793
25	0x3d4530c2	0.048142202
26	0xbd8e4b41	-0.06947947
27	0xbb54f58e	-0.0032494995
28	0x3c67c14d	0.014145208
29	0x3da88b60	0.08229709
30	0x3de090d7	0.10965126
31	0x3c72e362	0.01482472
32	0xbce54e81	-0.027991535
33	0x3deff1ba	0.117160276
34	0x3d8e4c73	0.06948175
35	0xbd127c35	-0.035762984
36	0x3633b095	2.6775863e-06
37	0x3cd6bf08	0.026214138
38	0x3d0b5097	0.034012403
39	0xbd9d5a63	-0.076832555
40	0xbcd64026	-0.026153635
41	0x3d950ff0	0.072784305
42	0xbd9b8878	-0.07594389
43	0xbc967d09	-0.018370168
44	0x3cc01eb7	0.023452146
45	0xbb120664	-0.002228164
46	0xbd82826e	-0.06372534
47	0x3d29a3d3	0.041416
48	0x3d955daf	0.07293259
49	0x3d9dd642	0.07706882
50	0xbc83da5a	-0.01609533
51	0x3daf9d0d	0.08574877
52	0x3dd8050d	0.10547838
53	0xbdc16d0a	-0.09444626
54	0xbdd35e32	-0.10320701
55	0xbd39b8ce	-0.04534226
56	0x3dfa1396	0.12210767
57	0xbdf006d3	-0.117200516
58	0xbd627740	-0.055289507
59	0x3e0309cd	0.12796707
60	0x3df20b44	0.11818555
61	0x3e0c2c97	0.13688885
62	0x3cd0fa0b	0.025509855
63	0xbdaf700e	-0.085662946

weight f4 [64, 64]
0	0x3dfa1ea0	0.122128725
1	0x3d8a1a77	0.06743329
2	0x3dd3bc0f	0.10338604
3	0x3d97c85b	0.07411262
4	0xbe0f5f3e	-0.14001176
5	0x3deca3b0	0.115546584
6	0xbc79f1c1	-0.0152553925
7	0x3e0b22f4	0.13587552
8	0x3e225032	0.15850905
9	0xbcd798dc	-0.026318006
10	0x3d238e70	0.03993076
11	0xbdac4fa6	-0.08413629
12	0x3e1235be	0.14278314
13	0x3e2122ff	0.15736006
14	0x3d128b1d	0.0357772
15	0xbc841a19	-0.016125726
16	0xbd925857	-0.07145756
17	0xbd5143e6	-0.051090144
18	0xbd0f375f	-0.034964915
19	0xbd835f0b	-0.064146124
20	0x3db9d713	0.09074225
21	0x3c1da481	0.00962174
22	0x3db7342d	0.089454986
23	0x3bbb8f9e	0.0057239076
24	0x3d037908	0.032097846
25	0xbd5b0680	-0.053472996
26	0x3d8e0587	0.06934648
27	0xbdd6c629	-0.10487015
28	0xbe071921	-0.1319318
29	0x3dc3fa98	0.09569281
30	0x3d3df55a	0.046376564
31	0xbe059541	-0.13045217
32	0x3d110201	0.0354023
33	0x3ce18a54	0.02753178
34	0xbd2c6db8	-0.042096823
35	0x3d852bf2	0.065025225
36	0xbdb2ab22	-0.08724047
37	0xbd498d5f	-0.049207088
38	0xbd3c1d64	-0.045926467
39	0x3c4f1dfb	0.012641425
40	0x3d92bdb3	0.071650885
41	0xbdaf054b	-0.085459314
42	0x3aefc828	0.0018293904
43	0xbcf6ada1	-0.03011209
44	0x3d7d088c	0.06177573
45	0x3d48deb4	0.04904051
46	0x3d1ba83c	0.038002238
47	0xbcf0ce01	-0.029395105
48	0x3ab01aba	0.00134357
49	0x3d998fc6	0.07498126
50	0xbd8c7d1b	-0.068597995
51	0x3e19c08a	0.15014854
52	0xbd9b465f	-0.075817816
53	0x3cbcde1d	0.02305513
54	0x3dd7fe4c	0.1054655
55	0x3e321b28	0.17393172
56	0x3dd77684	0.10520652
57	0xbd08d8c3	-0.033409845
58	0x3dd914e0	0.10599685
59	0xbe0dfd53	-0.13866167
60	0x3e1e5ed9	0.15465869
61	0x3c9ef639	0.019404517
62	0xbd3da8a6	-0.046303414
63	0x3daac8fd	0.08339117
64	0xbddb7e40	-0.1071744
65	0xbd8744f8	-0.066049516
66	0xbd8a5b48	-0.06755692
67	0x3cd9c208	0.02658178
68	0xbdf47726	-0.11936788
69	0xbd7471c0	-0.059678793
70	0xbcd09548	-0.025461808
71	0x3dd2b852	0.102890626
72	0xbda31144	-0.079622775
73	0x3da58546	0.080820605
74	0x3dce71c8	0.10080296
75	0xbde8bac4	-0.11363748
76	0xbdfd3bb8	-0.12364906
77	0xbd681308	-0.056658775
78	0x3cc2b830	0.023769468
79	0x3d52e778	0.051490277
80	0xbdbd6090	-0.092469335
81	0x3d462170	0.048371732
82	0xbdcf8eaa	-0.10134633
83	0xbddf9ad2	-0.109182015
84	0xbd6a4e84	-0.057203785
85	0xbb0e2f00	-0.0021695495
86	0x3cbe2150	0.023209244
87	0x3d9cb71a	0.07652111
88	0x3ca467b0	0.020068973
89	0xbdde9568	-0.10868341
90	0x3d27ef78	0.04099986
91	0xbd01f0c0	-0.031723738
92	0x3dc392fc	0.095495194
93	0x3ce839d8	0.028347895
94	0xbdb84204	-0.089969665
95	0x3db81d5e	0.08989976
96	0x3dead3f8	0.11466211
97	0xbc81e718	-0.015857264
98	0x3d63596c	0.0555052
99	0x3c3626a0	0.011117607
100	0xbdb82270	-0.089909434
101	0x3d74bc88	0.05975011
102	0x3baaaf20	0.005208865
103	0x3c4f5fd0	0.012657121
104	0x3de61880	0.11235142
105	0x3ca55370	0.020181388
106	0xbdbfa38c	-0.09357366
107	0x3dec815e	0.11548112
108	0xbd9838f4	-0.07432738
109	0x3d1ae88c	0.03781943
110	0xbded3ef4	-0.11584273
111	0xbdfe0de2	-0.12404992
112	0xbde8524a	-0.113438204
113	0x3d685354	0.056720093
114	0x3c4aaa90	0.012369767
115	0x3d2db744	0.042411104
116	0xbcbb28c0	-0.02284658
117	0x3dd968fa	0.10615726
118	0xbdfbe53a	-0.12299581
119	0xbdf3350e	-0.11875354
120	0xbdd2770e	-0.10276614
121	0x3c5f9130	0.013645455
122	0xbdb42afa	-0.0879726
123	0xbda4f1f8	-0.080539644
124	0xbb57da80	-0.0032936633
125	0x37d9a000	2.5942922e-05
126	0xbd2f05fc	-0.042730317
127	0xbd3fe9dc	-0.046853885
128	0x3d05900f	0.032608088
129	0x3caf4c21	0.021398606
130	0x3e0df96b	0.13864677
131	0x3d9fd8ce	0.07805024
132	0xbd23589a	-0.03987942
133	0x3d529b6e	0.05141776
134	0x3d4dc2c3	0.050234567
135	0x3d32a18c	0.043611094
136	0xbdae2b91	-0.085044034
137	0xbd86a9f3	-0.06575384
138	0xbbb21227	-0.005434293
139	0x3dbe652c	0.09296641
140	0x3dc6ca93	0.09706607
141	0x3cfb668f	0.030688552
142	0xbe131997	-0.1436523
143	0xbe014ca1	-0.12626888
144	0x3d86c783	0.065810226
145	0x3be9998b	0.0071288995
146	0x3d8faa1a	0.07014866
147	0x3da80a9f	0.08205151
148	0xbc671d65	-0.014106129
149	0x3e0f0a9e	0.13968894
150	0xbd310fe5	-0.04322805
151	0xbc816307	-0.01579429
152	0x3cea0e5d	0.028571302
153	0x3ccb78d5	0.02483789
154	0x3dd56f3b	0.10421606
155	0x3daa029c	0.08301279
156	0x3e258740	0.16164875
157	0xbdc6b09c	-0.09701654
158	0x3dea9c60	0.114556074
159	0xbde51fb9	-0.11187691
160	0xbd817bbc	-0.063224286
161	0x3c6481d3	0.013946968
162	0x3c544dc7	0.012957997
163	0xbdc1a67c	-0.094555825
164	0xbdbcc863	-0.09217908
165	0xbd45f828	-0.048332363
166	0x3e19d837	0.15023886
167	0xbd49bbf9	-0.04925153
168	0x3d28dbe2	0.04122532
169	0xbd5825f2	-0.052770562
170	0xbd3cb8da	-0.046074726
171	0x3c1f3501	0.009717227
172	0xbc861a68	-0.016370013
173	0x3d688b30	0.056773365
174	0x3dc14749	0.09437425
175	0x3d8ab860	0.06773448
176	0xbc597987	-0.013273603
177	0x3d1fee0c	0.03904538
178	0x3d1e363b	0.038625937
179	0xbc92d7cc	-0.017925166
180	0x3de36178	0.11102575
181	0x3d168d0d	0.03675561
182	0x3d9fc0a2	0.07800414
183	0x3cd571bb	0.026055207
184	0xbe1a130f	-0.15046333
185	0x3ca77521	0.020441594
186	0x3d9a8460	0.0754478
187	0x3e128696	0.14309153
188	0xbdb7324b	-0.089451395
189	0x3bd3a5a6	0.006458956
190	0xbbd011e5	-0.0063497894
191	0xbb8de137	-0.004329826
192	0xbd45726c	-0.048204824
193	0x3d70aa7b	0.058756333
194	0x3c5dcf45	0.013538186
195	0xbdf71c0b	-0.12065896
196	0x3d355267	0.044268038
197	0x3d75533e	0.05989384
198	0xbdf152fe	-0.11783408
199	0x3e14a671	0.14516617
200	0xbd09d089	-0.03364614
201	0xbddb110b	-0.1069661
202	0x3cd33a68	0.025784686
203	0xbdca9bdd	-0.0989301
204	0x3ce08e4f	0.027411608
205	0x3d89b032	0.0672306
206	0x3e100695	0.14065011
207	0x3da542cd	0.08069382
208	0x3d9c5652	0.07633652
209	0xbd571319	-0.052508447
210	0x3d552c88	0.05204442
211	0x3ddd39a9	0.108020134
212	0xbdf4c2d7	-0.11951225
213	0x3c333ebb	0.010940249
214	0x3e21959e	0.1577973
215	0x3c103102	0.008800747
216	0xbd06d634	-0.032919124
217	0x3d59962b	0.053121727
218	0xbd8de6c9	-0.069287844
219	0xbe297075	-0.16546805
220	0xbe138208	-0.14405072
221	0x3e02b6d1	0.12765051
222	0xbe07d23b	-0.1326379
223	0xbdb29dea	-0.08721526
224	0x3d0662e0	0.03280914
225	0xbc8e28c9	-0.017353432
226	0x3de48748	0.11158615
227	0x3dd42ecb	0.103604876
228	0x3d98b9d8	0.07457322
229	0x3c5bac32	0.013407754
230	0xbdaff7d1	-0.08592189
231	0x3c18b02e	0.009319348
232	0xbe3de995	-0.18546136
233	0xbd8e6bec	-0.06954178
234	0xbc4f6702	-0.012658836
235	0x3d412e7a	0.047163464
236	0x3db1ed30	0.08687818
237	0x3dc3f10f	0.09567463
238	0xbe20308e	-0.15643522
239	0xbd1e4e7a	-0.03864906
240	0xbc9a25ea	-0.018816907
241	0xbdc52b8b	-0.09627446
242	0xbdc0eb5e	-0.09419893
243	0x3e1be86f	0.15225385
244	0x3d4df3c1	0.05028129
245	0x3e1d0c52	0.15336731
246	0x3d9d71d0	0.07687724
247	0x3dfacf7c	0.12246606
248	0x3e04e4c7	0.12977897
249	0x3dc653d7	0.0968396
250	0xbcc85f60	-0.02445954
251	0x3d3c00a2	0.04589904
252	0x3bdafe7b	0.0066831685
253	0x3e2fdc3a	0.17173854
254	0xbdd5e5b8	-0.10444206
255	0x3d170775	0.036872346

bias f4 [64]
0	0x3e1873c8	0.14887917
1	0xbb2d87c0	-0.0026478618
2	0x3dd2c570	0.102915645
3	0x3decbcef	0.11559474
4	0xbde1ad7c	-0.11019418
5	0xbcffd63a	-0.03123008
6	0xbdb31d08	-0.08745772
7	0x3ccacc3a	0.024755586
8	0xbdebd9a0	-0.11516118
9	0x3e1464cf	0.1449158
10	0x3cf17365	0.02947397
11	0xbde39c91	-0.11113847
12	0x3d28ad31	0.041180793
13	0x3ddb2f00	0.10702324
14	0xbdb13499	-0.0865261
15	0x3d3e7252	0.046495743
16	0xbcc671f5	-0.02422426
17	0x3d145bc3	0.036220323
18	0x3d2108e5	0.039315123
19	0x3c99f18d	0.018791938
20	0x3da49a41	0.08037234
21	0x3e0fc4c8	0.1403991
22	0xbd0878e0	-0.0333184
23	0x3cd00ab2	0.025395725
24	0x3d99abdc	0.07503483
25	0x3d99eaa7	0.075154595
26	0x3e171e0c	0.14757556
27	0x3dfe524b	0.1241804
28	0x3db7a7f0	0.089675784
29	0xbc4fa1ab	-0.012672822
30	0x3db20bcc	0.08693656
31	0x3dba374f	0.090925805
32	0x3db3b4e8	0.087747395
33	0x3dcedadb	0.10100337
34	0x3c00462f	0.007829233
35	0xbd24b9dc	-0.04021631
36	0x3de0ffbd	0.10986278
37	0x3e065b70	0.13120818
38	0x3d434fba	0.047683455
39	0xbd827dfb	-0.06371685
40	0x3de56fe7	0.11202984
41	0x3d681d39	0.056668494
42	0x3dd5ee1e	0.10445808
43	0xbdbff19d	-0.09372256
44	0x3d1aa109	0.03775123
45	0x3dc8ad4a	0.09798677
46	0xbd4bcdec	-0.04975693
47	0x3d3f9f27	0.04678264
48	0x3d89a81e	0.06721519
49	0xbda872f6	-0.08225052
50	0x3d1c446f	0.0381512
51	0x3c5f8a62	0.013643833
52	0xbd932f5a	-0.07186766
53	0x3ddd8f9c	0.10818407
54	0xbc154ffb	-0.009113307
55	0x3c955e10	0.018233329
56	0x3c9caeeb	0.019126376
57	0xbdd26c90	-0.10274613
58	0xbc1c8430	-0.009553
59	0xbd930feb	-0.071807705
60	0x3d88b37c	0.06674859
61	0x3e03a25d	0.12854905
62	0x3dca1aaf	0.09868371
63	0x3db3afcb	0.08773764

weight f4 [64, 64]
0	0x3d5f164e	0.05446463
1	0x3de6c7d2	0.112685814
2	0x3d5ee31c	0.054415807
3	0x3dacf25b	0.08444663
4	0xbe1bf5e1	-0.15230514
5	0xbdbca524	-0.092111856
6	0x3cb58958	0.022160217
7	0xbdb0ed54	-0.08639017
8	0xbd868ac0	-0.06569433
9	0x3df953e6	0.121742055
10	0x3c536d46	0.012904471
11	0x3c5acfec	0.0133552365
12	0x3d48263e	0.048864596
13	0xbd5824c4	-0.052769437
14	0x3b49dea1	0.0030802863
15	0x3d130929	0.035897408
16	0xbd8412f7	-0.0644893
17	0x3d97825b	0.0739791
18	0x3e19d4db	0.15022604
19	0x3d82d8d3	0.06389012
20	0x3dd9a3f2	0.10626973
21	0x3ded5415	0.11588303
22	0x3d2039f0	0.039117754
23	0xbdee8e1e	-0.116482005
24	0xbe08b4b2	-0.1335018
25	0xbc09972c	-0.008397859
26	0xbcfeb2ce	-0.03109112
27	0xbca426a3	-0.020037955
28	0x3d344684	0.04401256
29	0x3d86dd05	0.06585125
30	0xbde98fe8	-0.11404401
31	0x3cb281ba	0.021790374
32	0x3d625eaa	0.05526606
33	0xbbefda78	-0.0073197447
34	0x3e26749a	0.16255417
35	0xbdf304f2	-0.118661776
36	0x3e1304bf	0.14357279
37	0x3c9e7563	0.019343084
38	0xbd82106c	-0.063507885
39	0xbd689aa3	-0.056788098
40	0xbd949e60	-0.0725677
41	0xbd9ffcd7	-0.07811897
42	0x3d07892c	0.0330898
43	0xbcd3ec44	-0.025869496
44	0xbdc4f223	-0.096164964
45	0x3dce316f	0.100680225
46	0xbd4734f7	-0.048634496
47	0xbdeeaad7	-0.11653679
48	0xbd068671	-0.032843057
49	0x3c4395e0	0.011937588
50	0x3df108b4	0.11769238
51	0x3de41f18	0.11138743
52	0xbcb8d3c5	-0.022561917
53	0xbcd08a2d	-0.025456512
54	0x3d13e8c3	0.03611065
55	0x3da18768	0.07887155
56	0x3c749285	0.014927511
57	0xbc47dbd0	-0.0121984035
58	0x3b7a2b48	0.003817277
59	0x3dabe8c2	0.083940044
60	0x3c781859	0.015142524
61	0xbd8f0863	-0.069840215
62	0x3d350700	0.04419613
63	0x3daf62a1	0.08563734
64	0x3e19437f	0.14967154
65	0xbcd6b218	-0.026207969
66	0xbe06bf82	-0.13158992
67	0x3e061ec9	0.13097681
68	0xbcd27b35	-0.025693515
69	0x3dc83af4	0.097768694
70	0x3dddcf06	0.10830502
71	0xbd2648ad	-0.040596653
72	0x3dd9d738	0.10636753
73	0x3e0d6200	0.13806915
74	0x3d708826	0.05872359
75	0x3d2f84ee	0.04285138
76	0x3cd88499	0.026430415
77	0xbdaed22d	-0.085361816
78	0xbd559d49	-0.052151952
79	0x3da8f42c	0.08249697
80	0x3da1f2b9	0.07907624
81	0xbd8a0da9	-0.06740887
82	0x3d713b3f	0.058894392
83	0x3e18f609	0.14937605
84	0xbda9d3b4	-0.08292332
85	0x3d91410d	0.070924856
86	0x3d8e69d4	0.06953779
87	0x3d0a4d80	0.033765316
88	0xbc481521	-0.012212069
89	0x3cb46428	0.022020414
90	0xbda1356a	-0.07871516
91	0x3d15c9c6	0.03656938
92	0xbd124007	-0.035705592
93	0xbcb154bf	-0.021646855
94	0x3cad5919	0.02116065
95	0xbc3f357d	-0.011670467
96	0xbd492fba	-0.04911778
97	0xbc670ef9	-0.014102691
98	0x3c8cb857	0.017177744
99	0x3d9186a4	0.07105759
100	0xbd1c1c4a	-0.038112916
101	0x3dfd3e0c	0.1236535
102	0x3e11a79b	0.14224093
103	0xbb89416a	-0.004188706
104	0x3deec4f8	0.116586626
105	0x3e0d52f8	0.13801181
106	0x3de44d92	0.11147608
107	0x3d3c55a7	0.045980122
108	0x3d91f56b	0.07126888
109	0x3cc4ee4d	0.024039412
110	0x3de3cdfb	0.11123272
111	0x3e1d65c9	0.15370859
112	0x3cc1d9fa	0.02366351
113	0x3dbb9c44	0.09160665
114	0xbe29b617	-0.16573368
115	0x3d4afe1d	0.049558748
116	0xbdad4b80	-0.08461666
117	0xbbdd24fb	-0.006748793
118	0xbd485336	-0.04890748
119	0x3d48b6dd	0.049002517
120	0x3d435788	0.0476909
121	0xbd9c69af	-0.07637345
122	0x3e23885c	0.15969986
123	0x3d7a0092	0.0610357
124	0x3d9d2096	0.07672231
125	0xbc9126c0	-0.017718673
126	0x3e0ca5c6	0.13735113
127	0x3e0636aa	0.1310679
128	0x3d9eaa0e	0.07747279
129	0x3784e000	1.5839934e-05
130	0xbd9cbf78	-0.07653707
131	0x3d413306	0.0471678
132	0xbdceeae0	-0.101033926
133	0xbda2e0d8	-0.07953042
134	0x3c8e8c60	0.01740092
135	0x3d13ad27	0.036053803
136	0xbd8957ca	-0.067061976
137	0x3da4a0f1	0.0803851
138	0xbd1ea7a0	-0.03873408
139	0xbc73bbde	-0.014876334
140	0xbdd35c2d	-0.103203155
141	0xbcc2441f	-0.023714123
142	0x3b205f3b	0.0024470824
143	0x3cf67639	0.03008567
144	0x3d9a36c6	0.075299785
145	0xbe163bc9	-0.14671244
146	0xbe0bdfb5	-0.13659556
147	0x3e1bacbe	0.15202615
148	0xbd06e820	-0.032936215
149	0xbcbafdb6	-0.022826057
150	0x3d02f100	0.031968117
151	0x3e022e3d	0.12712951
152	0x3dcf7660	0.1013
153	0x3d9bc0b8	0.076051176
154	0xbca94e38	-0.02066718
155	0xbe1a5790	-0.15072465
156	0xbdf7333b	-0.12070318
157	0x3c4d5390	0.01253213
158	0xbd84a39a	-0.06476517
159	0xbdcb0cae	-0.09914528
160	0xba07cb4a	-0.0005180134
161	0x3defe43c	0.11713454
162	0x3d85eb95	0.06539074
163	0x3d627c18	0.055294126
164	0xbe13577a	-0.14388838
165	0x3c55075f	0.013002246
166	0x3c37c75b	0.011216964
167	0x3ded1c37	0.11577647
168	0x3de644e0	0.112436056
169	0xbd27143d	-0.040790785
170	0x3b0f43ac	0.0021860404
171	0x3db2a258	0.08722371
172	0x3c4c7da1	0.012481124
173	0x3dfe857e	0.12427805
174	0xbc44c3d4	-0.01200958
175	0x3d9c8070	0.07641685
176	0x3d05e85d	0.032692302
177	0xba05e100	-0.0005107075
178	0xbc88f054	-0.01671616
179	0x3e35b234	0.1774376
180	0xbda88567	-0.082285695
181	0x3d8ac9a2	0.0677674
182	0xbe18b0ff	-0.14911269
183	0xbdc0480f	-0.09388744
184	0x3d0b8d81	0.034070496
185	0xbcb6c6dc	-0.02231162
186	0xbd6fdea0	-0.05856192
187	0x3e114b3d	0.14188857
188	0x3e269ecc	0.16271514
189	0xbdd5fc60	-0.10448527
190	0x3d4b370e	0.04961305
191	0x3dfb9b83	0.12285521
192	0x3e020747	0.12698089
193	0x3d791124	0.060807362
194	0x3dcd73e7	0.10031872
195	0xbd752c99	-0.059856985
196	0xbe16070f	-0.1465113
197	0x3cfec573	0.03110001
198	0x3dc53800	0.09629822
199	0x3db22b0c	0.08699617
200	0x3d246f94	0.04014547
201	0xbd6369a4	-0.05552067
202	0xbc3c8979	-0.011507385
203	0x3daa144f	0.08304655
204	0x3dcfab86	0.101401374
205	0xbd0955d0	-0.033529103
206	0xbd439a94	-0.04775484
207	0x3da790a8	0.08181888
208	0xbd2155ee	-0.03938859
209	0x3b942d1b	0.0045219786
210	0x3df4e845	0.119583644
211	0x3d14a5f9	0.036291096
212	0x3e0a1dde	0.13487956
213	0x3d8fdd07	0.070245795
214	0xbdab8cc4	-0.08376458
215	0xbdb7cba8	-0.08974391
216	0xbce058d4	-0.027386107
217	0xbd9cafe4	-0.07650736
218	0x3e23c939	0.15994729
219	0x3e1084b1	0.14113118
220	0xbde9a1b4	-0.114077955
221	0x3e27282e	0.16323921
222	0xbdd0278f	-0.10163795
223	0xbe2dda0d	-0.16977711
224	0xbd118f87	-0.03553727
225	0xbd518b35	-0.05115815
226	0x3e2bc7e9	0.16775478
227	0x3d0a9b48	0.033839494
228	0x3e149994	0.1451171
229	0x3c3623aa	0.011116901
230	0x3c5af632	0.013364362
231	0xbdbf0a79	-0.093281694
232	0xbcc565cd	-0.024096394
233	0x3dab1b01	0.0835476
234	0xbdc55b4b	-0.096365534
235	0x3e07a732	0.13247374
236	0xbd11391a	-0.035454847
237	0x3dcd977c	0.10038659
238	0x3d1df16e	0.038560323
239	0xbe097c62	-0.13426355
240	0xbd541c19	-0.05178461
241	0x3dab4ff2	0.08364858
242	0x3d860d7b	0.0654554
243	0x3bc50f7e	0.0060138097
244	0xbd9d0577	-0.07667058
245	0x3de459d3	0.11149945
246	0x3ccaf206	0.024773609
247	0xbc85ad81	-0.016318085
248	0x3dfa86c4	0.12232736
249	0x3d7e6518	0.06210813
250	0x3cf6309d	0.030052477
251	0x3db203fa	0.08692165
252	0xbdbee316	-0.09320657
253	0x3d8721ec	0.06598267
254	0x3d8a7031	0.0675968
255	0x3ce038a6	0.027370762

bias f4 [64]
0	0x3dc28456	0.09497897
1	0x3d2ff68a	0.042959727
2	0x3dbe4bc0	0.09291792
3	0x3e0a5e50	0.1351254
4	0x3ae4ba80	0.0017450601
5	0xbd6962ed	-0.05697911
6	0xb8a4fe34	-7.8674784e-05
7	0x3d7e95fa	0.062154748
8	0x3c4fe714	0.012689371
9	0xbda669b4	-0.0812563
10	0x3c726416	0.01479437
11	0x3bb9c6ef	0.0056694667
12	0xbc23a6c3	-0.00998849
13	0xbd155439	-0.036457274
14	0x3d38b28d	0.045092154
15	0x3b2afeb8	0.0026091766
16	0xbd6917b8	-0.056907386
17	0xbdd03de2	-0.10168053
18	0xbd87cdea	-0.06631072
19	0xbe01500f	-0.12628196
20	0xbdb76c97	-0.08956259
21	0xbdc4cfa8	-0.0960992
22	0x3dc11341	0.094275005
23	0xbdcbcb9c	-0.09950945
24	0x3dc51557	0.09623211
25	0x3d9c86fa	0.07642932
26	0x3d7bd67a	0.061483838
27	0xbd7a7ad6	-0.0611523
28	0x3df0267a	0.11726089
29	0xbb76c22e	-0.0037652361
30	0xbdc052b0	-0.093907714
31	0x3d3c7bb0	0.046016395
32	0xbdeb243f	-0.11481523
33	0xbccc2394	-0.024919309
34	0x3db98262	0.09058072
35	0xbcebd312	-0.02878717
36	0xbd9d4723	-0.07679584
37	0xbbd38000	-0.006454468
38	0xbdbd571c	-0.092451304
39	0xbd926cd9	-0.07149667
40	0x3dbdeaf8	0.09273332
41	0x3dde8fde	0.10867284
42	0x3e0db92d	0.1384017
43	0xbd9b68c8	-0.07588345
44	0xbd13a6fd	-0.036047924
45	0x3ca7865d	0.020449812
46	0xbd9a2662	-0.07526852
47	0x3e01d553	0.12679033
48	0x3d19dc8b	0.03756384
49	0x3c455e08	0.012046345
50	0xbd92bd5d	-0.071650244
51	0xbdb3977f	-0.0876913
52	0xbdb0576e	-0.08610426
53	0xbd6c6ea4	-0.057722703
54	0xbd9fea0c	-0.07808313
55	0x3d679843	0.056541692
56	0x3d7381f2	0.059450097
57	0xbd97d589	-0.074137755
58	0xbe00fa97	-0.12595592
59	0x3dbcacd7	0.09212654
60	0xbbd91700	-0.0066250563
61	0xbdd587cd	-0.104262926
62	0x3d77cf9a	0.06050072
63	0xbd33b7d7	-0.043876495

weight f4 [64, 64]
0	0xbcadf279	-0.021233784
1	0x3e166349	0.14686312
2	0x3dedef17	0.116178684
3	0xbe0a23a7	-0.13490163
4	0xbdea6a84	-0.114460975
5	0x3c926f0d	0.017875219
6	0x3d3ae414	0.04562767
7	0x3d66c35b	0.05633865
8	0x3dd0577c	0.10172936
9	0x3dbabaac	0.09117636
10	0x3ce052ce	0.027383234
11	0xba936abd	-0.001124702
12	0x3dded195	0.10879818
13	0x3e3a1a05	0.18173988
14	0x3e044ea1	0.1292062
15	0x3e1f7e71	0.15575577
16	0x3b6b36af	0.0035890748
17	0x3dd6e793	0.10493388
18	0xbd181740	-0.037131548
19	0xbd4c0052	-0.049804993
20	0x3d71b1e4	0.05900754
21	0xbd9f84b8	-0.07788986
22	0x3e1c3e3f	0.1525812
23	0x3d306d79	0.04307315
24	0x3d74d5e6	0.059774302
25	0x3e1f2968	0.15543139
26	0x3d8bd03f	0.06826829
27	0xbd275b9a	-0.040858842
28	0xbe03858c	-0.12843913
29	0x3e180b24	0.14848
30	0x3dcc1b6c	0.09966168
31	0x3dd387d4	0.103286415
32	0x3d0c3e26	0.034238957
33	0x3da0f836	0.078598425
34	0xbca18805	-0.01971818
35	0xbd272eac	-0.040815994
36	0xbccfe096	-0.025375646
37	0xbd791cf4	-0.060818627
38	0xbdc91650	-0.09818709
39	0x3e047f75	0.12939246
40	0x3dd8e815	0.10591141
41	0x3e2c23ea	0.16810575
42	0xbda854e7	-0.08219319
43	0xbd2aca68	-0.041696936
44	0xbdc9969e	-0.09843181
45	0xbd4843d0	-0.048892796
46	0xbd973bb8	-0.07384437
47	0x3e1ff59b	0.15621035
48	0xbb37fb03	-0.0028073199
49	0x3e2e84da	0.17042866
50	0xbdeb5ad1	-0.11491931
51	0x3d7ca51f	0.06168091
52	0xbc96c905	-0.0184064
53	0x3d34a83e	0.04410576
54	0x3e2bb438	0.16767967
55	0xbcaa836e	-0.020814624
56	0xbd3aa09b	-0.04556332
57	0x3d820f30	0.06350553
58	0x3d89f044	0.0673528
59	0xbd192d1e	-0.037396543
60	0x3dac785c	0.08421394
61	0xbd4c66d3	-0.04990275
62	0xbe25f860	-0.16208029
63	0xbd2c160a	-0.042013206
64	0xbe1d0cbc	-0.15336889
65	0x3e06dd8f	0.13170455
66	0x3dd28945	0.10280088
67	0x3d17f87e	0.037102215
68	0x3d9b04d2	0.07569279
69	0xbe433db3	-0.19066505
70	0xbdc46507	-0.09589582
71	0xbdd476b5	-0.10374204
72	0x3d559860	0.05214727
73	0x3e0ac870	0.13553023
74	0x3dcbd47d	0.09952638
75	0x3db27e08	0.08715445
76	0x3dcc5228	0.099766076
77	0x3d9670d1	0.07345737
78	0x3e25299c	0.16129154
79	0x3d8986af	0.06715142
80	0xbe18c944	-0.14920527
81	0xbdee7206	-0.11642842
82	0x3d02b6a0	0.031912446
83	0xbcaea314	-0.021317996
84	0x3cdc0a00	0.026860237
85	0xbd0644eb	-0.03278057
86	0xbb640bb6	-0.003479702
87	0xbd2d161d	-0.042257417
88	0x3d49887b	0.049202424
89	0x3dace248	0.08441597
90	0x3d99db3b	0.07512518
91	0xbce06596	-0.02739219
92	0xbdc02f47	-0.093840174
93	0xbd207d82	-0.039182194
94	0x3e1776c0	0.14791393
95	0x3c0cf7ec	0.008604031
96	0xbbe3fe73	-0.006957823
97	0x3e1f41d7	0.1555246
98	0x3df631e8	0.120212376
99	0x3e05640a	0.13026443
100	0xbd5545dc	-0.052068576
101	0x3cc7ee00	0.02440548
102	0x3df3beb6	0.119016096
103	0x3e056df1	0.1303022
104	0x3e0f2fed	0.13983126
105	0x3e1b9130	0.15192103
106	0x3b97a521	0.004627839
107	0xbbc67560	-0.0060564727
108	0x3d3a2ea5	0.04545464
109	0x3d9dbb81	0.07701779
110	0x3df6adea	0.1204489
111	0x3b88837d	0.0041660652
112	0xbbbaac9b	-0.0056968457
113	0x3c05eed6	0.008174619
114	0xbd8320c3	-0.06402733
115	0xbd5d654b	-0.05405168
116	0xb953777d	-0.00020167041
117	0x3df3b9af	0.11900651
118	0xbc02a0e6	-0.0079729315
119	0xbe2cfb6a	-0.16892782
120	0xbe0602d4	-0.13087016
121	0x3d4eff21	0.05053628
122	0xbc6c033d	-0.014405069
123	0xbe3f4576	-0.18678841
124	0xbc3d3080	-0.011547208
125	0x3d4d294e	0.05008822
126	0xbc9dcc34	-0.01926241
127	0xbe2b5329	-0.16730942
128	0x3dccac83	0.099938415
129	0xbdc3d25a	-0.09561606
130	0xbdd15f62	-0.10223271
131	0xbccd406d	-0.025055135
132	0x3d24596c	0.04012434
133	0x3dee9801	0.11650086
134	0x3d885fdd	0.066589095
135	0x3db23281	0.08701039
136	0xbe0752ee	-0.13215229
137	0x3daf181f	0.085495226
138	0x3c3124e6	0.01081202
139	0x3dbe5e7a	0.09295364
140	0x3dbc3af8	0.09190935
141	0xbd4fbf3e	-0.050719492
142	0x3d93fa1b	0.07225438
143	0xbd1d9e80	-0.038481236
144	0x3cabbb46	0.020963322
145	0x3d3b870b	0.045783084
146	0xbdddaa1c	-0.108234614
147	0x3d10e62d	0.035375763
148	0xbb7603d6	-0.0037538907
149	0xbcf6da4d	-0.03013339
150	0x3cc5f773	0.024165845
151	0xbd7e43f4	-0.062076524
152	0xbd25bf5d	-0.0404657
153	0x3d5ca768	0.05387059
154	0xbd9bac33	-0.07601204
155	0x3db4e111	0.088319905
156	0xbce082dc	-0.027406149
157	0x3d3c9f0d	0.04605012
158	0xbd3b8db2	-0.045789428
159	0xbbb3b806	-0.005484584
160	0x3d8916dd	0.06693814
161	0x3d90875e	0.07057069
162	0x3bd7f566	0.006590533
163	0x3cbfab53	0.023397123
164	0xbaf8727f	-0.0018955021
165	0xbdcdc6e6	-0.100477025
166	0xbe066f9a	-0.1312851
167	0x3d795b43	0.06087805
168	0xbd8e95bd	-0.06962154
169	0xbb337ea8	-0.0027388725
170	0xbd2583ce	-0.040408902
171	0x3d9193ad	0.07108245
172	0xbdaca2a2	-0.08429457
173	0x3db8a730	0.090162635
174	0x3d88121a	0.066440776
175	0x3c828e7a	0.015937079
176	0x3bd34e9e	0.006448581
177	0x3dc5df34	0.09661713
178	0x3dc2da65	0.09514312
179	0xbd9bd060	-0.07608104
180	0x3d380376	0.044925176
181	0x3d3825d7	0.044957962
182	0x3bcc86ea	0.006241669
183	0x3c6f000d	0.014587414
184	0xbdad63ca	-0.08466299
185	0xbc12acbf	-0.008952319
186	0x3c5804c5	0.013184731
187	0x3d7eba44	0.062189355
188	0x3c9852d0	0.018594176
189	0xbd0181a4	-0.031617776
190	0x3ce39524	0.027781077
191	0x3c341585	0.010991459
192	0xbc07782c	-0.008268397
193	0x3d5cb055	0.0538791
194	0xbc911e4e	-0.017714646
195	0x3d72fa9a	0.059321024
196	0x3df0c922	0.11757113
197	0xbdc92ced	-0.09823022
198	0x3de24f10	0.11050236
199	0xbdbd2822	-0.0923617
200	0xbdc23b50	-0.09483969
201	0x3c90e456	0.017687004
202	0x3df36cda	0.11885996
203	0x3d85d295	0.06534306
204	0x3e0a2afa	0.13492957
205	0x3d2aa4cf	0.04166108
206	0x3d4ab3e5	0.049487967
207	0xbbc6d891	-0.006068297
208	0x3e007bf4	0.12547284
209	0xbcf0ea8a	-0.029408712
210	0xbde58ad0	-0.11208117
211	0x3d95f45c	0.073219985
212	0xbdcc5a72	-0.099781886
213	0xbbd74e20	-0.0065705925
214	0x3dd0fd61	0.10204578
215	0x3ce96999	0.028492736
216	0xbdd8fe07	-0.10595327
217	0x3bbfd96e	0.005854777
218	0xbd71e90d	-0.059060145
219	0x3d1045fd	0.035222996
220	0x3d864050	0.065552354
221	0xbc974c7e	-0.018469092
222	0xbda0c640	-0.07850313
223	0xbc45b4a9	-0.0120669985
224	0x3d71f1b1	0.059068386
225	0xbdbf9017	-0.09353655
226	0x3d8154a6	0.063149735
227	0x3d7ba5b0	0.06143731
228	0x3d516bca	0.051128186
229	0x3df27fb2	0.11840762
230	0xbc1413f0	-0.009037957
231	0xbd9fde37	-0.07806056
232	0xbd0b9aa6	-0.03408303
233	0xbd31d9ab	-0.043420475
234	0x3d6b2c52	0.057415314
235	0xbcfef8c8	-0.031124488
236	0x3ccf399d	0.025296027
237	0x3deacc2c	0.11464724
238	0xbdd36506	-0.10322003
239	0x3c30dc86	0.010794764
240	0x3e0c9366	0.13728103
241	0xbdd90420	-0.1059649
242	0x3de3d2d3	0.11124196
243	0x3bc44140	0.0059892237
244	0xbcd9e012	-0.026596103
245	0xbb074d3a	-0.0020645396
246	0x3a7401ef	0.00093081495
247	0xbc716ab3	-0.014734912
248	0x3de3eb93	0.111289166
249	0xbdca9f43	-0.09893658
250	0xbd13a6a9	-0.03604761
251	0x3dc6c7b6	0.097060606
252	0x3d8d5ed4	0.06902853
253	0x3bd0d060	0.0063724965
254	0x3e17ff4e	0.14843485
255	0xbd459569	-0.04823819
