mlartifacts/554351476986166068/2946a385edb5407898f99fc161c7b275/artifacts/models/Model_dim64_layers5_experiment/r2_score0.5180641578352816_run4/data/model.pth (torch, 294728 bytes, 13 tensors)

weight f4 [64, 801]
00000000: 7bcd 8f3d 1de8 06be ca19 aebc 6c09 6b3d
00000010: 7d66 a0bd eaaf 833b 59f6 d8bc 72e9 243e
00000020: 53fd 9cbd 025a c0bd 096a 6bbd 463a 9abd
00000030: ebb2 ffbc 53c7 023d 2c70 e13d 184c 3ebe
00000040: 6d0c 49be bdd3 2bbd c82b 1bbd 0c01 adbd
00000050: 9ad0 6dbd 7faf 34bc 8cb0 ce3a f6ee 75bc
00000060: a86e 883d fbc1 813d c585 cd3c 5239 a03c
00000070: 8436 28be 0688 9a3d 1122 8dbe 7695 d33d
00000080: 998c 793d fa24 4bbe 3a50 eabd 5733 903d
00000090: 73e8 94bd 0c60 4bbc 87d0 ffbd 0ee5 0e3d
000000a0: dd00 173e 4f03 5c3c 923a e8bd 65e2 f93c
000000b0: 6d06 aabd 9e42 863c 103f 0c3d 8cc2 a7bd
000000c0: 7114 89bd 3d2d 20be 29de 993d 09ed 3a3d
000000d0: 9568 6c3d 8f8d aabd 26a5 b23d b3ba c83b
000000e0: 8ed5 c2bd e35a 863e 9cd6 d13b 17d7 44bd
000000f0: 58e3 8a3d 0289 06bc f13e 783d d816 2e3d
00000100: f29d 0bbd 51a0 993d 138e 833c f1ed 4a3d
00000110: 684e e8bc c894 433d 368d 7abd f546 34bc
00000120: 6649 333e 8c6f 323d 57fc 163e af6e f93d
00000130: bbda 36bd 30ec 303d 12d7 a0be fb65 3b3d
00000140: 1c4c be3d dafa 27bb 8658 3d3e a5d5 77bc
00000150: 1527 8d3d 4682 cbbc 7e67 fabd 9abd 16bc
00000160: 097e acbc a39a 5e3c 0a1b b9bc 8559 c23c
00000170: e0a5 9bbd 1d7a df3b 5619 d5bc edf5 b73d
00000180: 6487 a23d b5fd 09bd bcb8 89bd 09d9 91bc
00000190: c33e fa3c 77d4 803c 6016 77bc 82c1 45bc
000001a0: 88f0 c23d 4c71 efbd 08dd 2e3e cdd3 8fbe
000001b0: aed4 7ebd d37f bb3c a36f b23d 6d6a e23c
000001c0: 8c45 07be df81 40bd 0b55 9abc 0592 863d
000001d0: 3173 5fbd 4d06 c1bd 2470 0abc f89a a73d
000001e0: 88e9 923d 1114 5b3d 591d 18bd 266e 443e
000001f0: 5654 fdbc 38d4 87bd 432e b1bc d334 c3bd
00000200: c799 ffbc c7d0 09be 498c ce3c d5be 213d
00000210: 9c4b adbc 3af2 9bbd ca92 fbbd 452e 90bb
00000220: efc2 003d 98ba 42be 104d 44bd 5868 15bd
00000230: 4a78 45bd 3bca fabd c696 a73d 0211 5e3d
00000240: cf51 88bc 2624 3d3b a6b9 79bc e11a f4bc
00000250: 58bf f03d 4c6c b7bb cca6 023e 37e5 06bd
00000260: 2cbb 17bd 086b b6bc d81b 123b 8743 243e
00000270: 0387 e0bd 4a46 0f3c 38d5 afbd 6f08 f9bc
00000280: 262c 93bc f188 e3bc 8cbd 80bd 08ee 4cbd
00000290: 3ee5 70bb 6ddd c2bd 298d b2bc 69fe 4abd
000002a0: f67e 3fbd 9577 d9bd 45cf 0d3d 09fe 01bd
000002b0: 52fb 80bd ab9c d13d f79f f13c 4717 8f3c
000002c0: c5ee 1ebe bd04 88bd c3e6 54bc 7ef0 40bd
000002d0: ac5a 9abc 95a9 48bd 9f99 2bbd 6785 c5bc
000002e0: aac9 87bd f15b 7f3d 8e1f 44be 3246 7d3b
000002f0: 6d30 853b c57b 48bd d1b8 2f3d 4f9c 22bd
00000300: f632 27bd fd37 ea3b 89e3 bc3d 1ccd 4ebc
00000310: faa9 4fbc 4e67 afbd 0bd7 38bc 8ef8 99bd
00000320: 42db 8b3d d951 84bc c551 423c 4313 2c3d
00000330: ed10 0abe 6af5 b63c cda2 59bd c0f5 44bd
00000340: 09a4 c5bd 7376 aabc e997 3c3d 69a0 04bd
00000350: d7a7 61be a872 70bd 0821 d13d 2bef 263e
00000360: 9ffd 263b 5832 4c3e a3a3 9ebd f5c1 c8bb
00000370: 237a 213e e1de 4b3d d957 a4bd f008 503c
00000380: 5868 29bd c844 fcbc 90f1 1cbe 6729 61bd
00000390: 85c5 04bb 2127 1cbd a877 1ebd 31a9 2abe
000003a0: 1499 b63b 3fa0 34bd 2a2e 7f3c 92aa 1abe
000003b0: e62d 593d 8008 513a fcae 4fbe 24b9 2f3d
000003c0: ae99 1fbd 2ca1 b0bd dad7 f23d aba4 e33c
000003d0: 1307 acbd d903 e7bd ad84 31be 96f5 3fbc
000003e0: 78b6 edbc d898 09bd 4b47 2c3c 8277 133d
000003f0: 2b77 ee3c e6d6 39bd b0db bdbd fb4f 093e
0.07021614 -0.13174482 -0.021252532 0.057382032 -0.07832048 0.0040187733 -0.026484655 0.16104677
-0.07665505 -0.09392168 -0.05747417 -0.07530646 -0.031213244 0.03192837 0.11007723 -0.18583715
-0.19633646 -0.041949976 -0.03788355 -0.08447465 -0.058060266 -0.01102817 0.0015769168 -0.015010586
0.06661731 0.06335827 0.0250882 0.019558582 -0.16427046 0.07545476 -0.27565053 0.10331242
0.0609251 -0.19838324 -0.11441083 0.07041042 -0.07270899 -0.012413036 -0.12490945 0.034886412
0.14746423 0.013428523 -0.113392964 0.030503461 -0.08302007 0.016389187 0.03423983 -0.08191404
-0.06693352 -0.15642257 0.07513077 0.04563621 0.057716925 -0.083277814 0.08722906 0.006125772
-0.095133886 0.26241216 0.0064037573 -0.04805669 0.06781644 -0.008211376 0.0606069 0.042502254
-0.034086175 0.07501281 0.016058957 0.049543325 -0.0283577 0.04774931 -0.061169825 -0.011003246
0.17508468 0.04356341 0.14744698 0.12179314 -0.04464219 0.043193996 -0.31414086 0.045751553
0.092918605 -0.0025631697 0.184908 -0.01512662 0.0689222 -0.024842393 -0.12226771 -0.009200478
-0.021056192 0.013586673 -0.022595901 0.023724327 -0.075999975 0.006819977 -0.026013058 0.089824535
0.0793598 -0.03368922 -0.067246884 -0.017803686 0.030547505 0.015726311 -0.015081018 -0.012070062
0.09518534 -0.116915315 0.17076504 -0.2809128 -0.062214546 0.0228881 0.08712699 0.027638638
-0.13210124 -0.046998855 -0.01883938 0.0657082 -0.054553214 -0.0942503 -0.008449588 0.08183855
0.07173449 0.053485934 -0.037137363 0.19182643 -0.030924004 -0.066322744 -0.021628505 -0.0953156
-0.031201256 -0.13458548 0.025213378 0.039488632 -0.021154217 -0.076145604 -0.12283857 -0.004400047
0.031435903 -0.19016492 -0.047925055 -0.036476463 -0.04821042 -0.12245604 0.081830546 0.05421544
-0.016640572 0.0028860657 -0.015242016 -0.029797973 0.11755246 -0.005597627 0.1275894 -0.03293344
-0.037043735 -0.022267833 0.0022294428 0.16041385 -0.109632514 0.008744786 -0.0858559 -0.03039953
-0.017965388 -0.02777526 -0.06286153 -0.05003169 -0.0036757733 -0.0951489 -0.021795826 -0.04955903
-0.04675194 -0.106185116 0.034621496 -0.031736407 -0.062979355 0.1023496 0.029495222 0.017467154
-0.15520771 -0.06641529 -0.012994471 -0.04710435 -0.018842064 -0.04898985 -0.04189455 -0.024111463
-0.06630261 0.06234354 -0.19152662 0.0038646576 0.0040646107 -0.04894616 0.042900864 -0.03969985
-0.040820085 0.0071477876 0.092230864 -0.012622144 -0.012674803 -0.08564626 -0.011281739 -0.07518111
0.068289295 -0.01615231 0.011860316 0.042010557 -0.13483019 0.02233382 -0.053133775 -0.048085928
-0.09650428 -0.020808434 0.04604331 -0.03237954 -0.22036682 -0.058703095 0.10211378 0.16302173
0.002548076 0.1994108 -0.07746055 -0.006126637 0.15769248 0.0497731 -0.08024568 0.012697443
-0.041359276 -0.030794516 -0.15326524 -0.054971125 -0.0020259332 -0.038123254 -0.03868833 -0.16666104
0.0055724476 -0.044098135 0.015574971 -0.1510413 0.053022288 0.0007973984 -0.20281595 0.042901173
-0.03896492 -0.08624491 0.11857577 0.02778848 -0.08399787 -0.11280031 -0.17335768 -0.011716267
-0.029017672 -0.03359303 0.010515044 0.036002643 0.029109558 -0.04537096 -0.09270418 0.13409416

bias f4 [64]
00000000: c010 26bd 5d39 39bc f8ea 76bb fb6c 0e3d
00000010: 5e47 0fbc d48a 463c 1ecc 40bd 7a2c ddbc
00000020: ed9c 2b3b 8245 21bd 708e adbc 337e 723b
00000030: fdb8 62bd b907 15bd 6005 d63b 6a25 32bd
00000040: 1cb5 2ebd ec8a 65bd 6f04 2bbd d51d ab3c
00000050: a45e f1bc c0c3 443d 7a53 e4bc e6ea ccbb
00000060: 42ac 09bd a133 013c 665f 83bd 2405 0c3d
00000070: cf73 83bc 201c 0a3d 5824 65bc 8151 513c
00000080: d651 7bbb 89a7 17bd 0218 52ba b92b 863a
00000090: 1f65 23bd cc19 e73c 7795 33bc aaa3 76bd
000000a0: 4b64 82bd ead0 4fbd eec2 e43c 62bf 56bd
000000b0: 3722 6bbd 8a46 1cbd 1ace b2bc 8ccf 5e3c
000000c0: ba83 853c 323c 4f3c d8a2 5ebb 2edd ccbc
000000d0: 8fe0 033c aef3 043d d77a eabc 155b ca3c
000000e0: 1aee 6cbd 9273 07bd 0ff4 193d b08e 7ebc
000000f0: 9617 ec3b 5b9b 373d eebe bc3b 61a5 073d
-0.040543318 -0.01130518 -0.0037676673 0.0347719 -0.008745043 0.01211806 -0.04706966 -0.026998747
0.0026186064 -0.03937293 -0.021186084 0.003700149 -0.0553522 -0.036384318 0.0065314025 -0.043492712
-0.042653188 -0.05604069 -0.041752275 0.020888248 -0.029464073 0.048038244 -0.027871836 -0.006253588
-0.033611543 0.007885844 -0.0641468 0.03418459 -0.016046433 0.03371823 -0.013985716 0.01277578
-0.0038348339 -0.03702501 -0.00080144417 0.0010236419 -0.03989136 0.028210543 -0.010960928 -0.060214676
-0.063667856 -0.050736345 0.027924981 -0.05242861 -0.057405677 -0.03815321 -0.021826793 0.013599288
0.016298164 0.012648629 -0.0033971574 -0.02500781 0.008049144 0.032458954 -0.028623028 0.024701634
-0.05784426 -0.0330692 0.037586268 -0.015536949 0.00720496 0.044825893 0.0057600653 0.033116702

weight f4 [64, 64]
00000000: ab7e ae3c 73e9 f23d 0d9b 573d e39f 043e
00000010: 23a5 e3bd b6d6 d73d baee a1be 8636 a5bb
00000020: 3dd3 adbd a308 fcbd 2952 2a3e f37c 65be
00000030: 5515 4bbd c2e2 953d 5e43 eebd 2bb5 b93d
00000040: 2c44 26be 4048 91bb 164f 0b3e deeb 743e
00000050: cc39 50be c59e 143e 7e94 1dbd d936 10bd
00000060: e329 9fbd 936d 983d e26b 823d d96e 1ebe
00000070: 34f6 12be 3072 34bc e29e b4bd 4980 9bbd
00000080: 6086 ce3c f9d7 c7bd 3cab 91bd d014 353d
00000090: b593 05be d223 bb3e 5e46 763d 6907 a7be
000000a0: 89d0 80be 84c7 4a3d 7ea6 d13d 2bd1 ecbd
000000b0: 3214 fdbc 0d5e 513d 14c3 fb3c 8f1a cf3c
000000c0: b18d 1b3e e5da 2f3d aedc 973d c212 e6bd
000000d0: 1207 0a3e 6a1e 3d3e a0b7 23be 3877 e1bd
000000e0: 4ba0 d9bd a6be 0abe 0835 223e a1db 79be
000000f0: 865f 363e c694 a13d 894c 3d3e 3758 453d
00000100: fb0b 3a3b edb9 cd3d 45c5 c83c d432 4cbe
00000110: ff9f 563c ac5f 833d 29cf ba3c 0e1d e4bd
00000120: a275 0f3d 6627 aebd 6c38 023e a65f 9e3c
00000130: cc26 1cbc 1c49 b4bd d8c8 a13c 0c8c ae3c
00000140: 4fb1 393c b2e4 ce3c 68b8 31bd 4d4f a6bc
00000150: 6a6f 77bc 2834 b33d 424e b5bd ceee cd3d
00000160: e8a7 47bd f86f 98bc b269 5c3d 4e04 96bd
00000170: de33 d03d 3881 ca3d 0c0e c1bd f9bd 8fbd
00000180: 6865 6bbd 1231 dc3d 3e3c b33d 15a5 1ebd
00000190: 5e91 3c3c 6aa6 c0bd ceff dabd c533 e8bd
000001a0: 93e5 9e3d 34c0 2dbc 0086 b8ba 0b98 02bd
000001b0: 3f3d 0b3e 751d 5fbd b0d6 013e 0012 dbbd
000001c0: 7b30 2ebe 341e 29be 694f 0dbd e586 5f3d
000001d0: e0cc e9bd 3963 5cbe 146a 1dbd e455 26bd
000001e0: 5f06 c63d 2e0b ca3d 92fa bbbd b0c3 86bd
000001f0: 2065 213d a806 74bc 5610 563d 2532 09be
00000200: 4556 d43c 2615 253d e215 d5bd 739c 823d
00000210: 38ac 383a 1b50 8d3d 4721 403d 778e ce3d
00000220: e8fc 8f3c c485 363e 0f56 c9bc 77d7 963d
00000230: c3b6 283c eff4 763c a862 213c e332 473d
00000240: b091 e0bc fcf6 053e 506f 953d 6f27 2dbe
00000250: 016e 413e 5977 a0bd b8cf d33c 86dd cb3d
00000260: 1cc5 c7bd 72ef d43d 26be 953d 35aa b2bd
00000270: cf6f ca3d 8edd 81bd 0de6 b73d 8c0c 8ebd
00000280: eb75 59bd c43d cb3d ccad e9bd ec19 21bd
00000290: bcce 393e 7e9c 59bd de09 a53d 8b94 ff39
000002a0: ace6 023e b5dd 183e 18ca 4bbd 3d97 2a3e
000002b0: 7c98 1e3e 5696 8b3d 5fcf 0b3d 02bf 1abd
000002c0: 6259 9c3a 13f6 4fbe 2285 483e 8731 193e
000002d0: 2faa d0bd 04b2 ddbb 7b8b afbc 27ac 513d
000002e0: 1569 4c3d 1471 323d abcc 14be 5c5c 173e
000002f0: f183 49be d5b8 08be f320 3c3c 6cda cfbc
00000300: 7450 0dbe 312f debd d08c 1c3d 60ed 8a3d
00000310: 9165 dabd 2078 fd3b c5b2 c7bd c035 d9bb
00000320: ff6f b83d 541d d9bd b649 52bd 5280 c9bd
00000330: 31e9 1bbe 3c26 03bd d0fb 6b3d 38a6 e03c
00000340: d739 b2bd 95f1 ca3c 5500 8e3c e24e c3bd
00000350: 0a17 1fbe 4e96 d03d cbb5 903d 1895 80bd
00000360: 32dd ab3d e8be 8e3d d017 28bc f389 17be
00000370: ee18 0b3c 5a8c b43d 80c0 9fbc 0c65 a8bd
00000380: 40d3 2f3b 8c18 adbd 34f4 da3d 9c17 cd3d
00000390: fc98 8c3d 9582 92bd f093 b93d 7bcd e73d
000003a0: e80d eb3c 789c 973d 5429 d83d 52f1 9bbd
000003b0: 34a6 d0bd de76 e5bd 346e 593d 40f7 853d
000003c0: dad6 9f3c 8b2a 1abe 9888 19be 20f7 9abc
000003d0: d47c 30bd d189 b4bd 665d 82bd 8058 233d
000003e0: 1aa0 62bd e84e 803d 4c8c 59be 7ff8 02be
000003f0: f38d 0f3d 554b b4bd 5893 fa3d 76cb 08be
0.021300634 0.11860933 0.052638102 0.12951617 -0.11115482 0.10539 -0.31627446 -0.0050419
-0.08487556 -0.12306335 0.16632904 -0.22410946 -0.04958089 0.07318641 -0.11633943 0.09067758
-0.16236943 -0.0044336617 0.13604388 0.23918101 -0.20334548 0.14513691 -0.03847169 -0.035208557
-0.07771661 0.074427746 0.06368233 -0.15471973 -0.14351732 -0.011013553 -0.08819367 -0.07592828
0.02521056 -0.097579904 -0.071127385 0.0442093 -0.13044627 0.36550766 0.0601257 -0.3262284
-0.251591 0.04950668 0.10236834 -0.11563333 -0.030893419 0.051115084 0.030732669 0.025281219
0.1519077 0.042933363 0.07415138 -0.112340465 0.1347926 0.18468633 -0.15988016 -0.11009067
-0.106262766 -0.13549289 0.15840542 -0.24400188 0.17809877 0.078897044 0.18486227 0.04817983
0.0028388489 0.10045228 0.024508128 -0.19941264 0.0130996695 0.06414732 0.02280386 -0.11138354
0.035024293 -0.085036084 0.12716836 0.019332718 -0.009530734 -0.08803007 0.01974909 0.021307014
0.011333778 0.025255535 -0.043388754 -0.020301485 -0.015102247 0.087501824 -0.08852817 0.10055314
-0.048744112 -0.018608078 0.053811736 -0.0732504 0.10166143 0.09887928 -0.09426507 -0.07018656
-0.057469755 0.10751547 0.08751725 -0.038731653 0.011509268 -0.09406741 -0.10693322 -0.11337999
0.077586316 -0.010604907 -0.0014078021 -0.03188328 0.13597582 -0.05447145 0.12679553 -0.106967926
-0.17010681 -0.16515428 -0.03449956 0.054572005 -0.1141603 -0.21522225 -0.038431242 -0.040609255
0.09669184 0.098654136 -0.09178652 -0.06580293 0.03940308 -0.014894165 0.052261673 -0.13398035
0.025920043 0.04030337 -0.104045644 0.063774966 0.00070447056 0.069000445 0.046906736 0.10085767
0.01757665 0.17824465 -0.024577169 0.073653154 0.01029748 0.015073045 0.009850182 0.048632514
-0.02741322 0.13082498 0.07296622 -0.16909574 0.1888962 -0.07835264 0.025855884 0.099543616
-0.097543925 0.10397233 0.073116586 -0.08723871 0.09884607 -0.06341086 0.089794256 -0.06935987
-0.05309097 0.0992389 -0.11410102 -0.03933136 0.18145269 -0.05312776 0.08058523 0.00048748063
0.12783307 0.14928325 -0.04975328 0.16659255 0.15487856 0.06815784 0.03413331 -0.037779815
0.0011928494 -0.20308714 0.19582036 0.149603 -0.1018871 -0.006765606 -0.021428814 0.051189568
0.0499049 0.04356487 -0.145312 0.14781326 -0.19679238 -0.13351758 0.011482465 -0.025372706
-0.13800222 -0.10848845 0.038220227 0.06783557 -0.106639035 0.0077352673 -0.097508945 -0.006628722
0.090057366 -0.10601297 -0.051339827 -0.09838928 -0.15225674 -0.032018885 0.057613194 0.02742301
-0.08702438 0.024773398 0.017334143 -0.0953653 -0.15536132 0.10184918 0.07065924 -0.062784374
0.08391799 0.06970006 -0.010259584 -0.14798717 0.00848983 0.088158324 -0.01950097 -0.08222398
0.0026828796 -0.084519476 0.10691109 0.10014269 0.06865117 -0.07153813 0.0906142 0.11318489
0.028693154 0.07402891 0.10554758 -0.076143876 -0.10187951 -0.11204313 0.053083614 0.065413
0.019511629 -0.15055291 -0.14993513 -0.018916667 -0.043087795 -0.08815349 -0.063654706 0.039879322
-0.055328466 0.0626505 -0.21244925 -0.12790106 0.035047483 -0.08803431 0.12235135 -0.13358864

bias f4 [64]
00000000: 68a4 933d 2697 17be a0e1 793d 9588 fabd
00000010: c96d 813c dab5 833d 48ea 2b3d 69ec 393e
00000020: 57a1 b4bd 2ba7 5b3d 1002 483d b8f9 39bc
00000030: 9d13 093d c596 203d f484 16be c2d6 52bc
00000040: 5b52 7e3d ce15 fc3d 1e40 c83c 23be 02bd
00000050: 19da b13c 707e 3c3e 58ec c1bd 5a81 11be
00000060: 87eb 0b3d b0ea 55bd 5dcd 963d 46c6 29bd
00000070: c561 9e3c cd25 c7bc ffaf f03c 71e2 debd
00000080: 01a1 513d 2783 4b3d 1470 073e c8ee 8fbd
00000090: ee93 8cbc acbf 993d 7c46 213e e9f0 ed3a
000000a0: 3747 5bbd e9e6 a03c 26e3 3b3e 87ce c6bc
000000b0: 2630 69bc a584 8a3d 16e0 97bd 1610 1cbe
000000c0: 813f 9fbd 13e3 903d eede c6bd bf8a 463d
000000d0: e176 db3c ed25 c53d 089c adbd 3c17 47bc
000000e0: fd8d 19bd 0648 043e 9a28 7dbb 8234 b2bd
000000f0: b248 c0bb f0f7 08be 6d0a 0e3e d54f a83d
0.072090924 -0.14803752 0.06100619 -0.12233082 0.01579942 0.0643117 0.041971475 0.1815659
-0.08819836 0.05362622 0.048830092 -0.0113510415 0.03346597 0.039206285 -0.14699155 -0.012868585
0.06209026 0.123088464 0.024444636 -0.03191961 0.021710442 0.18407607 -0.09468907 -0.142095
0.034160163 -0.05222577 0.07363389 -0.041448854 0.01933373 -0.024310017 0.029380796 -0.10883034
0.051178936 0.049685623 0.13226348 -0.07027966 -0.017160382 0.07507262 0.15749544 0.0018153462
-0.053534713 0.019641357 0.18348369 -0.024268402 -0.014232671 0.06763581 -0.07415788 -0.15240511
-0.07775784 0.07074561 -0.09710489 0.048472162 0.026790084 0.096263744 -0.08477026 -0.012151536
-0.037488926 0.129181 -0.0038628937 -0.08701421 -0.005868041 -0.1337583 0.13871165 0.08218352

weight f4 [64, 64]
00000000: a039 563c 4847 cfbc 8058 f43c 80b6 493b
00000010: a6f2 05be ea27 eebd 1e21 a53d 8a2b d7bd
00000020: 8007 3b3c 8846 54bd 0007 9b3d e0b1 7abd
00000030: 0e5d e4bd ce3e babd a06f b8bb c014 173c
00000040: f018 97bc 8fb3 00be 4a22 913d 78a8 c43c
00000050: 9be3 f0bd 4099 d0bc 2a92 e9bd 2061 c4bc
00000060: 2ebb 8b3d d664 bbbd b7c9 cb3c b800 a1bc
00000070: 84a6 e5bb 6434 d83d 7600 b73d a81a bebd
00000080: ac72 1bbd 8cb5 173d 10c3 00be 00d3 28bd
00000090: 42c7 9ebd 1cfe 68bd 0566 a43c f942 ac3d
000000a0: 6ec3 b73d c0a6 c23c c01d 97bd 1841 443d
000000b0: 1652 943d acaf d23d 109f 433d a05a df3c
000000c0: ccad b6bd 543d a9bd b085 c9bc 5080 e03c
000000d0: bfb4 ac3c 0f92 fb3c b030 11be b858 b43d
000000e0: 132e 07be 5e1d babd 40bb ecbd 38f4 cebd
000000f0: 1a40 c3bd 280c 97bc 4255 eabc 70fd 793c
00000100: 2084 c3bd 50f5 8a3d 9edf a43d 7e84 893d
00000110: eaea 50bd dea6 523d 04c7 9b3d 467a 9bbd
00000120: 89d6 0d3d 8197 8b3d 05f6 8fbc 5ea5 243d
00000130: 2b9f 89be d782 37ba 6e34 d23c 6c42 983d
00000140: 0e30 3d3e 8ada 3f3d d3ab 79be f342 6dba
00000150: 792c eebc 8e0d 313d 62b0 5dbc 78e0 5ebd
00000160: 22da 723e f72c a4bc 7be2 913d 83a9 d3bd
00000170: b4f9 143e 60be b2bd f84a 3d3d 368d d5bd
00000180: 0b16 e13d 752c 4b3d 7d2d 9bbd e6c0 d2bd
00000190: 9f4e 803c 18c2 11be 3e67 87bd 4f05 f4bd
000001a0: 4a64 c2bd 761f d83a 3671 3ebe e6ad 4c3c
000001b0: f424 1fbe ca1b e83d bcf7 d23d c878 613b
000001c0: f1dd a03d 02bf 1fbe 7c03 af3d 4d70 f03d
000001d0: 6496 e4bc 4547 a03d 6a88 94be 9efa b53d
000001e0: 12a0 2cbc fb89 223e 0bd9 d93c 6b46 083b
000001f0: ac4d 08bd 72d1 833c 8976 cc3d fb9d 9abe
00000200: ea1a cdbd 13db 12bd bce6 76ba b863 c4bd
00000210: e1c1 12bd d40e 7b3d 9ebd 2bba 32d6 98bd
00000220: 5cb0 753c 2b74 06bb 78d1 f3bd 63bd 243c
00000230: 0898 753d 81e1 fd3c 02ba cd3d 56e3 25bd
00000240: f8a8 6b3d 5aef d63d 3e46 b4bd a831 d53d
00000250: aaca b0bd c4d1 283d 40d4 693d f0b7 983c
00000260: 38cb 76bd 2218 dcbd 7c9f efbd 3c0d 983d
00000270: 9287 00be cede e23d 3cf1 c93d 10d7 9cbc
00000280: b453 473d 34b2 5b3d 36ad ea3d 26d1 ab3d
00000290: 9ec1 a7bd 5060 ebbc 0621 febd 96fc 90bd
000002a0: c4f2 f93d 3a25 cb3c 16c2 943d 8881 e1bd
000002b0: 6e3c c8bd 4ede 9c3d 1ed9 9d3d e254 343d
000002c0: a8fb 9abc e009 62bc 00a0 cab7 1120 a3bd
000002d0: 4001 96bd fc09 f8bd d809 e43d 8072 5abb
000002e0: be0b f8bc 93bd 19bc a47e 7c3d 3cbe e43d
000002f0: 47a8 4b3c 223a 5dbd 807b da3a 1031 893c
00000300: 7aee 9a3d 3ff9 353b e96d 1dbd 173d 88bb
00000310: 0cee 27bd a84b 5cbd f111 ec3c bcf7 393c
00000320: 574c 603d f0f5 a3bd fcd2 9ebd 60dc f53c
00000330: 1e94 42bd 31f4 2dbe 64b2 a73d 51cd 07be
00000340: 74bb 933d 7924 3b3d 217c ae3a 690b 1c3d
00000350: 276e 833c bc21 34bd 2478 3f3d e872 d63d
00000360: e0b3 ae3d 8eb8 cf3d 2d93 cfbd 10a4 13bd
00000370: 1fe2 a1bd e9e9 7fbc 190a 0dbe 261f d1bd
00000380: 6f3c 1abe 4461 96bd 54c2 16be ef47 78bd
00000390: e626 c33a e2d3 75bd d7d0 3b3c 0e78 21bc
000003a0: 9a50 e83c 6e20 debc ee41 52bd 2026 10bd
000003b0: f445 c1bd d6fc 04be a501 3dbc cc33 8cbd
000003c0: 5483 8ebb 3d4e 953c 78ff f9bd 8ad5 903d
000003d0: eccf 2b3c 2a61 7fbd a2a3 17be 70ff dd3d
000003e0: 0634 f8bd 8675 87bd 0c81 de3d 5360 60bd
000003f0: 2df5 733c 1867 b93d db5f c0bc a3ee bdbd
0.013075262 -0.025302544 0.029827356 0.0030778944 -0.13080844 -0.11628707 0.08062957 -0.10506351
0.011415362 -0.051825076 0.075696945 -0.06120479 -0.11150561 -0.0909401 -0.005628541 0.009221256
-0.018444508 -0.12568496 0.07086618 0.024006113 -0.11762162 -0.0254637 -0.11404832 -0.023972094
0.06822811 -0.09150092 0.024876459 -0.019653663 -0.0070083756 0.10556868 0.08935635 -0.09282428
-0.037951156 0.03703837 -0.1257441 -0.04121685 -0.07752849 -0.056882963 0.020068178 0.084112115
0.08972822 0.023761153 -0.07378721 0.04791364 0.07242219 0.10287413 0.047759116 0.027264893
-0.08919868 -0.082636505 -0.02459988 0.027404934 0.02108228 0.030709295 -0.14178729 0.08805984
-0.1320117 -0.090876326 -0.115591526 -0.10105175 -0.09533711 -0.018438414 -0.028605107 0.015258178
-0.09546685 0.06785071 0.08050464 0.06714724 -0.05100528 0.05142867 0.076063186 -0.07591681
0.034628425 0.068160065 -0.017573366 0.04019677 -0.26879248 -0.00070003927 0.025659766 0.07434544
0.18475363 0.046839274 -0.24381952 -0.0009050809 -0.02907394 0.043225817 -0.0135308225 -0.05441329
0.23716024 -0.020040972 0.07123276 -0.10335066 0.14548379 -0.087277174 0.046214074 -0.104273245
0.109905325 0.049602944 -0.075770356 -0.10290699 0.01566249 -0.14234197 -0.06611489 -0.11915075
-0.09491785 0.0016488868 -0.18597874 0.0124926325 -0.1554144 0.11333425 0.10301158 0.0034404267
0.07854832 -0.15600207 0.085455865 0.1174017 -0.027903743 0.078260936 -0.29010326 0.08885692
-0.010536211 0.15872948 0.026592752 0.0020793926 -0.0332772 0.016091082 0.09983546 -0.30198655
-0.10014899 -0.035853457 -0.00094185374 -0.09589332 -0.03582943 0.061293438 -0.00065513875 -0.074627295
0.014995661 -0.002051602 -0.11905187 0.010054919 0.05995944 0.030991318 0.10045244 -0.040500008
0.057534188 0.104948714 -0.0880246 0.10409862 -0.08632405 0.041215673 0.057087183 0.018642396
-0.0602524 -0.107467905 -0.11700341 0.07424399 -0.12551716 0.11077653 0.09860465 -0.019145519
0.04866381 0.053636745 0.114588186 0.08389501 -0.081912264 -0.028732449 -0.124086425 -0.07079427
0.12204507 0.024798024 0.072635815 -0.11011034 -0.09777151 0.07659589 0.077074274 0.044026263
-0.018918827 -0.0137963 -2.4154782e-05 -0.079651006 -0.07324457 -0.12111279 0.1113469 -0.0033332407
-0.030279037 -0.009383577 0.06164421 0.11169097 0.012430257 -0.054010518 0.0016668886 0.016747028
0.07565017 0.002776697 -0.038434897 -0.004157673 -0.040998504 -0.05378309 0.028817149 0.011350568
0.054760303 -0.08005893 -0.07755086 0.03001231 -0.047504537 -0.16987683 0.08188322 -0.13261916
0.07213488 0.04568908 0.001331214 0.03809682 0.016043736 -0.043977484 0.046745434 0.104711354
0.08530402 0.10142623 -0.101354934 -0.036045134 -0.07904457 -0.015619733 -0.13773383 -0.10211019
-0.15062116 -0.07342771 -0.14722568 -0.060615476 0.0014888912 -0.06001652 0.0114633655 -0.009855283
0.028358746 -0.027115073 -0.051332407 -0.03519261 -0.094371706 -0.12987074 -0.011536037 -0.06845817
-0.0043491516 0.018225783 -0.1220693 0.07071979 0.010486584 -0.062348522 -0.14808515 0.108397365
-0.12119298 -0.06614213 0.108644575 -0.054779362 0.014889997 0.09052867 -0.023483207 -0.09274032

bias f4 [64]
00000000: ca43 f5bd 8173 b73d 2af5 efbd 086e 71bd
00000010: 2298 833e 7c88 583d 7fac 29bd 3d20 27be
00000020: deb7 093c d788 c8bd 4bb8 bf3d 3fc3 ad39
00000030: 0792 2e3e b8a5 ac3d fde0 b0bd 62f1 533d
00000040: 6f9c b5bc bc6c f53d 8e97 ddbb 9b6c 023e
00000050: a815 3c3e 99af 9abd 4865 cfbd 3a39 43bd
00000060: ac61 71bd 9a6b 05be e381 183d 087b a53d
00000070: 60f3 2bbc 5c29 be3c 9332 0d3e 30d8 613e
00000080: b9d6 623d 3938 ca3c f9d3 d8bc dea0 0dbe
00000090: ce2b 313e b578 12bc cc50 8dbd 4d87 5bba
000000a0: 7219 2cbd 9b5a 533e 272f 813e 1480 06bd
000000b0: 1432 31bd 3628 01bd 492b d63d 55b9 c03d
000000c0: 24d8 94bd 521d 15be d6b0 653d 20a1 283d
000000d0: f3ff dd3d 50f7 c6bd 48e7 9e3b fbe0 e0bd
000000e0: 0b82 6ebd 1c1f 9f3d cd3b cd3c 7064 d43b
000000f0: fcee 17ba 7689 2abd 4471 e53d 01e6 343d
-0.1197582 0.089575775 -0.11716683 -0.058942825 0.25702006 0.052864537 -0.04142427 -0.16320892
0.008405654 -0.09791725 0.09361323 0.000331426 0.17047893 0.08430046 -0.08636663 0.051743872
-0.02216932 0.1198363 -0.0067624515 0.12736742 0.18367636 -0.07553024 -0.1012674 -0.047661997
-0.058931038 -0.13029328 0.037233245 0.08080107 -0.010495037 0.023213081 0.13788824 0.22055125
0.055380557 0.024685012 -0.026468264 -0.13830897 0.17301866 -0.008939912 -0.069001764 -0.00083743484
-0.042016454 0.20640032 0.25231287 -0.03283699 -0.04326065 -0.03153249 0.10457475 0.09410349
-0.07267788 -0.14561966 0.056076847 0.041169286 0.10839834 -0.0971514 0.004849348 -0.109804116
-0.058229487 0.077696055 0.02505293 0.0064816996 -0.00057958043 -0.041635 0.11203244 0.04416466

weight f4 [64, 64]
00000000: 0de5 85bc a245 933d d814 e6bd ae9f a7bd
00000010: fbe3 27bd d2fd c2bd 57ba 013d 061d b43d
00000020: db6d 113d bcfa 3dbd 1f12 85bb 5f1e 923d
00000030: 0f67 01be 7273 a7ba 0afd 3fbb 8461 1dbd
00000040: 1ed4 ce3d 6df6 b13d 6219 04be 5a25 cbbd
00000050: bda1 063d 6e14 9ebd f391 cc3d 1586 653d
00000060: 4626 4c3d 3c13 783d c75a 943d f573 e83c
00000070: 8f93 f5bc 4020 eabd 0dab 10be 8a33 403d
00000080: 0070 e5bc 1682 6d3c 0710 08be 7a4b 603d
00000090: 1998 0fbe f0f9 2e3d 2ae2 94bd 38e5 0abd
000000a0: a287 ad3d b356 8dbd 6989 843d 117c 9c3d
000000b0: c05d a13c e0a3 acbb fb6e 3a3d 2edb a43d
000000c0: 158e 2fbc 5a22 7e3d 51e9 fb3b c465 fcbd
000000d0: b138 683b 207e cebd eabf 613d 50f6 e83d
000000e0: 3837 9d3c 175f a23d efe3 88bd 8d2b 443b
000000f0: 2b66 bfbd 1cad f63d d68e c63d 1f83 8abd
00000100: 4851 80bc 9fb2 dfbd 20a2 8d3b e874 22bd
00000110: 8e85 2b3e 1081 8e3d 0381 ed3c a3e6 fcbd
00000120: d87f 2a3b fde1 093e a71a b8bd 1d09 90bd
00000130: bed6 d53c 6927 ca3c 59f5 93bb bd1e 10bc
00000140: ffd8 3f3d 5147 4a3c c27c 22be dbdd 8c3d
00000150: fdf2 b2bc 6ff0 21bd 8061 a53b 4ecd 123e
00000160: fe03 853c c479 7b3d 847e dfbb fb11 85bc
00000170: e0bd a23d b381 e93d 961f bcbb df84 103c
00000180: 77e6 893c a80a 0bbe 5605 d83c f819 093d
00000190: 91bb ebbc 7faa f1bd 709b 653d e538 5e3d
000001a0: 7825 cbbd 79e0 c2bb 3c78 9e3c efc7 aebc
000001b0: d86b 0dbe e864 fdbd 853c cbbd 5901 11bd
000001c0: 57b7 20bd 5722 14be cfc5 16be fdcb a4bd
000001d0: 3e9c a2bc 1dac 373d 29a5 0cbe 3e42 78bc
000001e0: 3c96 a43c f2f0 a33d aa84 0a3d cb9e 05bb
000001f0: 4ce3 afbd 82d2 b33d 424d 8e3d 77d6 923d
00000200: 6086 9abb e8a8 afbd 86ba c3bd 6040 54bd
00000210: 8f6d 453d 3964 ca3c 31f8 e1bc 9f16 ccbc
00000220: 6640 2bbd d7c5 bfbc b15c 01bd 2e93 d23c
00000230: 0d83 eabc 389f 6f3c e528 573d ba9c ea3d
00000240: 20d2 07bd 83a7 deba f9b6 493d b7b2 dbbd
00000250: 4efa e8bd 405d f0bc ae96 b33d b513 5cbd
00000260: 73d4 e83c f733 a1bd 3f7c d93d adb7 453d
00000270: 73dd abbd 0ffa 98bd 3520 edbd 3982 12be
00000280: b74e 41bd d4d3 72bd 826d 73bc b204 a1bc
00000290: 8c94 b1bc 40db 063c e02a 81bc c6ad b8bd
000002a0: 3178 91bd 85c3 10be 9a34 95bd b1a9 39be
000002b0: 9b0e 423e 89b3 38bc 4ad4 d03d 994f bb3d
000002c0: 2b6b 28bc 94a6 6d3d 2bc2 e7bd cd1a 2c3d
000002d0: 4673 093d e931 0ebd c52f e33c 0cdb 1c3d
000002e0: e2f5 84bd fbcf edbd ac21 aabd d665 d6bd
000002f0: 5d20 993c 6cee fb3d 7609 a03d 06f8 d23d
00000300: 9a9b f7bd 3624 e1bd 0452 9c3d 2fdc 8fbd
00000310: dcdd 1cbd 6260 bf3d 72ae 81bd 6187 1fbd
00000320: cc9c 163c dd1b f3bd c098 183d faec 8ebc
00000330: 3e39 f8bd 7d65 5cbd 4890 0abd 045e 6b3c
00000340: 3986 293b 9c48 82bd 9829 8c3d ecf8 973d
00000350: 2b96 ca3d 62fe 713b 34da 38bd 8027 a8bd
00000360: 441f b0bd d8dd 43bd f13e ecbc 8af7 e23d
00000370: 9892 ec3d eccd cabc 37e8 8a3c 995c 38bc
00000380: 604a dabc 6b1b 0abe 71f1 963d 40ae 2bbb
00000390: cccc 5ebd d0fe 66bd 248f 423d 3627 8dbd
000003a0: ecb6 fd3d 0e59 00be 0a81 04be 900e 2e3d
000003b0: 88f6 2b3d 0e94 dc3d facb b9bd 995e 05bd
000003c0: 60ee d8bc 88c7 12bd 8ac2 eebd 70fa 703d
000003d0: 23e9 14bd 80a1 2d3d 002e 003b 6020 723d
000003e0: 0bfa 12bd 1895 6bbd af3f 67bd 0a97 bdbd
000003f0: 3eef 03be f367 b93d 3f0c b23c 20d5 8abd
-0.016344571 0.07191016 -0.112344444 -0.08184753 -0.040988903 -0.09521069 0.03167185 0.08794598
0.035505157 -0.046381697 -0.004060998 0.07134699 -0.1263697 -0.0012775494 -0.002929511 -0.038423076
0.10099052 0.0868958 -0.12900308 -0.099192336 0.03286909 -0.077187404 0.09988775 0.056036074
0.049841188 0.06056522 0.07243877 0.028375605 -0.029977588 -0.114319324 -0.1412775 0.04692415
-0.028007507 0.014496347 -0.13287364 0.05475948 -0.14022864 0.042718828 -0.072697 -0.033910006
0.084731355 -0.06901302 0.064715214 0.07640851 0.019698024 -0.005268559 0.045515995 0.08049618
-0.010715027 0.06204448 0.0076877256 -0.12324098 0.0035434181 -0.1008265 0.055114664 0.113751054
0.01919137 0.07928293 -0.066841 0.0029933185 -0.09345659 0.12044737 0.096952125 -0.067632906
-0.015663758 -0.10922741 0.0043223053 -0.03966227 0.16750166 0.069582105 0.028992182 -0.12348678
0.0026016142 0.13465114 -0.089894585 -0.07032988 0.026103374 0.024676995 -0.0045153317 -0.008796391
0.046837803 0.012346105 -0.15867904 0.06878253 -0.021844381 -0.039535936 0.0050470233 0.1433613
0.016237255 0.06139542 -0.0068205018 -0.016243925 0.07946372 0.11401691 -0.00574107 0.008820741
0.016833527 -0.13578284 0.026369732 0.03347203 -0.028775962 -0.11800098 0.05605644 0.054253478
-0.09919256 -0.0059471694 0.019344442 -0.02133557 -0.1381067 -0.12372762 -0.099236526 -0.035401676
-0.039237347 -0.14466225 -0.14723895 -0.0804672 -0.019849893 0.044841874 -0.13734879 -0.015152512
0.020091169 0.08004941 0.033817925 -0.0020388837 -0.08588275 0.087803856 0.069483295 0.07169812
-0.004715726 -0.08577138 -0.09557061 -0.051819205 0.048200186 0.024705993 -0.027584167 -0.02491313
-0.041809462 -0.023409767 -0.031582538 0.025704946 -0.028626943 0.014625363 0.052529234 0.114556745
-0.033159375 -0.0016987178 0.049246762 -0.107274465 -0.11375867 -0.02934134 0.08768974 -0.05372973
0.028421616 -0.0787124 0.10619401 0.04827087 -0.083918475 -0.0746957 -0.11578409 -0.14307489
-0.04719421 -0.059284046 -0.014857652 -0.01965556 -0.021677278 0.008230984 -0.015767515 -0.0901752
-0.07103003 -0.14137085 -0.072854236 -0.18131138 0.18950884 -0.011273273 0.10196741 0.091460414
-0.010279457 0.05802019 -0.113163315 0.042017747 0.0335572 -0.034715567 0.02773274 0.038294837
-0.06492211 -0.11611935 -0.08307204 -0.104686424 0.01869219 0.12301335 0.078143045 0.10301213
-0.120902255 -0.10993235 0.07632831 -0.070244186 -0.03829752 0.093445554 -0.06332101 -0.038947467
0.009192657 -0.11870549 0.03725505 -0.017446984 -0.12120293 -0.053807724 -0.033829004 0.014365677
0.0025867356 -0.063615054 0.06843871 0.07420525 0.098919235 0.0036925306 -0.04512997 -0.08210659
-0.085997134 -0.04781899 -0.028838607 0.110823706 0.11551398 -0.024756394 0.016956432 -0.011252546
-0.026646793 -0.13487022 0.0737027 -0.002619639 -0.05439453 -0.056395352 0.04749979 -0.068922445
0.12388405 -0.12533972 -0.1293985 0.042494357 0.041983157 0.10770427 -0.090721086 -0.03256092
-0.026480854 -0.03583482 -0.11658199 0.058832586 -0.03635515 0.042390347 0.0019558668 0.059112906
-0.03588299 -0.057515234 -0.056457218 -0.09257324 -0.12884232 0.0905303 0.021734355 -0.067789316

bias f4 [64]
00000000: 94f9 2abc 1fcc c03d 7cbb 40be fdcf b0bd
00000010: 857c 003e 3499 193e 1010 7abd 1721 e5bc
00000020: 3ef5 7c3d 0658 623e 6d2b 6f3e 9c32 583e
00000030: 1e94 993d 5338 3cbe 936e a53d e8d7 e2bd
00000040: 5a49 85bc ce9b da3d 5efd a63c f4c1 40be
00000050: c512 15be 1d30 573e 24f0 bcbd d461 7cbc
00000060: eb5f 213e 6c51 9b3d 90c4 49be 3cc6 f3bc
00000070: ae7d c93c 432e f53d 55e3 dd3d a212 6cbe
00000080: 3814 453d 17b4 ccbd 5373 7fbd c642 c9bc
00000090: 219b 923c 7f37 f93d e793 853d b481 d63a
000000a0: 666e edbd a5e5 1a3d 37d8 12be 48a5 03bd
000000b0: 096a 02be 557f 113e a3bc 96bd 47e9 25bd
000000c0: 3b94 dc3d a65f 61bc 1e6c a9bd ff99 dc3d
000000d0: fdc4 acbd d417 85bd 5bff e9bd 5b6c 9dbd
000000e0: 53b8 ee3c fa0f 033e f40c 463e 084c e6bc
000000f0: 06ea 25bd dca0 15bd 66f3 1dbd 291c 05be
-0.010435481 0.09413933 -0.1882152 -0.086334206 0.125475 0.14999849 -0.061050475 -0.02796988
0.06175732 0.22103891 0.2335641 0.21113056 0.07498954 -0.18380861 0.08077731 -0.11076337
-0.016270328 0.10674249 0.020384487 -0.18823987 -0.14557941 0.21014448 -0.09225491 -0.015404183
0.15759246 0.07583889 -0.19703889 -0.029757611 0.024596062 0.11971714 0.10834376 -0.23053983
0.048114985 -0.09995287 -0.06236584 -0.024567973 0.017896237 0.12168788 0.06522351 0.0016365559
-0.115933225 0.037816662 -0.14340292 -0.032140046 -0.12735762 0.1420873 -0.07360198 -0.040505674
0.1077046 -0.0137557145 -0.08272575 0.1077156 -0.0843601 -0.064986855 -0.11425658 -0.07686683
0.029140627 0.12799063 0.19340879 -0.028112426 -0.040506385 -0.03653036 -0.0385622 -0.12999023

weight f4 [64, 64]
00000000: b2d3 bcbc fa48 b93d 7cdd 893d 9876 9cbc
00000010: abf1 893d c4e7 843d 0cce bfbd 627d e0bc
00000020: 4c2e 2f3e 7189 443e 5b74 913d c88e 183e
00000030: 76e0 b2ba 1db5 f6bd 2a85 f73d 2df6 a4bd
00000040: 5f3d 35bd d409 553e 6a6c dd3d 37e8 30bc
00000050: 0fdc d93d f3a2 c73d 1002 863d 921a 93bd
00000060: 7210 133e 36c3 45bd da19 8cbd fbcc 32be
00000070: d69a eeb9 38f8 99bd 5edd 2e3e 0a49 90bd
00000080: 3a2a 3c3d 9d81 b9bd b8a3 0dbb 500c 47bd
00000090: 9bbe 873d 1c3b 2dbe f41e ff3c 2275 33bb
000000a0: 3263 f5bd fbec a9bd 6d9b 803d 14cd 093e
000000b0: 4228 15bc 050e 3c3e 5870 95bd e8e8 683d
000000c0: 4922 123d ad1c d0bd 86e9 5c3b ad2c e9bb
000000d0: 53da b83c 5d1c 823d b653 a9bd 3a2e c53d
000000e0: 02bf e23d dacb 15bd f8e7 1b3e 0835 733d
000000f0: 0d84 f1bd e094 0fbe 6317 bebd 0c07 603d
00000100: 14d1 89bd 1bcc bebb a6b1 083c 50bf 1abc
00000110: c372 cb3c 6782 173b 8471 663d 7485 5fbd
00000120: 24d2 c8bd f80f 5abb 322a 1bbe 9d1b edbd
00000130: a498 6ebc df8f 433d fa4a f1bc f200 c4bd
00000140: 08e6 2b3d d11f 4e3c e5dd b73d 3cf5 62bd
00000150: 341e 953d e395 973d d921 fbbc d67a 0bbd
00000160: ae17 8bbc 744e 923d 7e28 05bd 8e54 c3bd
00000170: 1591 a7bd e73c 29bb 11cc 08bd 2cf5 c33b
00000180: 3ffe a73d 5e95 a03c b28f f3bd ca3b 053e
00000190: 26ef 6a3d 6886 b2bd 4af7 733c 6c77 3dbd
000001a0: c4b7 943d 96ec 73bd 4886 77bd 2b4a 343d
000001b0: 6694 e8bd e635 bfbd 9ee3 35be b179 a7bb
000001c0: 4582 07be f443 14bd 3899 da3c d9f0 e53c
000001d0: d6c9 87bd 5d7b ce3d 3c5b 3abd 0c3f 7f3d
000001e0: a401 c9bd dce3 2cbc 88df 4ebd 9ca5 84bd
000001f0: a6ac c7bd c558 eebd 2c21 2c3d 32a1 d13d
00000200: 8766 773c 98a0 91bd 97c9 dfbd 5775 c5bd
00000210: 23ec 68bd 650c bd3d 0063 e13d 6cda 633d
00000220: 0bbf 6b3d 585f a3bd c2cd 15bd 7339 6abd
00000230: 51e6 42bd bf95 59bb 105f bc3d f5b1 88bd
00000240: 1bb4 e3bc 58d6 773c 4559 393c 88c4 8c3c
00000250: b417 d3bd 7fb5 dbbc 3d60 b73a 0024 29bd
00000260: c540 213b 7c32 d63d 3cae 1bbd bd3f 12be
00000270: c2b6 f23d 4817 bebd ac7b 8b3d 231e 02bd
00000280: fb57 f8bd 036a daba 8e65 5fbd 1867 e13d
00000290: 91bd dc3d dff6 bdbd dd9d 97bd 1433 5c3d
000002a0: 2a68 84bd 3afb f8bc fbe4 d53d ddaf 903c
000002b0: f63a 113d b6a9 7dbd 02b3 473c 043b e93d
000002c0: b47d 063d 303e a13d b883 ef3d 09db 3b3c
000002d0: c7c9 5bbd 4899 883c b5a4 a13d 005d 0f3c
000002e0: b91c a5bd 6f0f 963d e3a1 41bd 7439 343d
000002f0: 2c7f 81bd cb68 adbd 0c39 c9bd 3180 d43b
00000300: c5a1 a0bc f992 88bd 3fa9 77bd 60ec db3c
00000310: e062 953b 154b ffbd 587a bcbd 987b a43d
00000320: 52aa 2cbd 8e57 51be e818 78bd c223 f8bd
00000330: c03f ba3d b1c6 263e c243 673c d442 71bd
00000340: 0e91 a6bd 9789 e9bd 3bcb d9bd 2462 76bd
00000350: 36c4 03bb bcb4 4fbd 920b 1fbd a2af 96bc
00000360: c88b f8bd aa93 0a3c 31c8 183d 4b47 6c3d
00000370: 4fc1 c53c bb61 bbbc 3e42 e5bd c518 2ebd
00000380: b418 04bd 01f8 70bc 33eb 173e 90ac b0bc
00000390: b7cd 8abb ed67 55be 87fb b4ba 9131 323d
000003a0: d40a 08bd 26d7 08bd 5c73 94bc 9339 f3bd
000003b0: 0977 e13d 3db1 383c 6164 e1bd 67af 913d
000003c0: d3d6 df3d a838 4abc 86bf e13d e84d 1f3c
000003d0: 0822 ad3d 63ba 153e 6ce9 2abd 8110 3d3b
000003e0: 94b4 a2bd f40d 863d 87b1 abbd 0a1b f53d
000003f0: b06a 03be a809 e93d 0ae9 17bd 05de 173e
-0.023050163 0.09047122 0.06731698 -0.019099519 0.06735548 0.06489518 -0.09365472 -0.027403537
0.17107505 0.19193055 0.07102271 0.14898217 -0.0013647217 -0.12046263 0.12085946 -0.08054767
-0.04424798 0.2080453 0.10811694 -0.010797552 0.10637676 0.09747877 0.06543362 -0.07182802
0.14361742 -0.04828187 -0.06840868 -0.17461006 -0.0004551026 -0.07518047 0.17076632 -0.07045181
0.045938708 -0.09057925 -0.0021612477 -0.048595726 0.06628152 -0.1691708 0.03114269 -0.002738305
-0.11981811 -0.082971536 0.06279645 0.13457137 -0.0091038365 0.18364723 -0.072968185 0.05686274
0.035677228 -0.101617195 0.0033708527 -0.0071159215 0.022565043 0.06353066 -0.0826792 0.09627958
0.11071588 -0.03657136 0.15225208 0.059376746 -0.11792765 -0.14021635 -0.092818044 0.05469422
-0.067293316 -0.005822671 0.008343136 -0.0094450265 0.024834996 0.0023118497 0.0562606 -0.05457063
-0.09805706 -0.0033273678 -0.15152815 -0.115775324 -0.01456276 0.047744628 -0.029454697 -0.09570493
0.04196742 0.012580828 0.0897787 -0.055409655 0.072811514 0.074016355 -0.030655788 -0.034052692
-0.016979065 0.0714387 -0.03250932 -0.09537612 -0.08181969 -0.0025823654 -0.033397738 0.0059801545
0.082027905 0.019602474 -0.11892642 0.13011089 0.057356976 -0.08717042 0.014890501 -0.046256468
0.07261613 -0.059551798 -0.060430795 0.044016045 -0.1135643 -0.09336452 -0.1776261 -0.0051109423
-0.13233288 -0.036197618 0.026684389 0.028068947 -0.06630294 0.100821234 -0.045497164 0.062315986
-0.09814766 -0.010552373 -0.050506145 -0.064769 -0.09749727 -0.11638025 0.042023823 0.10235824
0.015100128 -0.07110709 -0.10927122 -0.096415214 -0.056865823 0.0923088 0.11005211 0.055628225
0.05755524 -0.0797717 -0.03657318 -0.057183694 -0.047582928 -0.0033200828 0.09197819 -0.066745676
-0.027795842 0.015126787 0.011312787 0.017183557 -0.103072554 -0.026819943 0.0013990473 -0.041294098
0.0024605256 0.10458848 -0.03800796 -0.14282127 0.118512645 -0.09281784 0.06810698 -0.031767022
-0.12126156 -0.0016663674 -0.05454021 0.11005992 0.107783444 -0.092756025 -0.07403157 0.05375965
-0.0646518 -0.030393232 0.10444065 0.017661983 0.03545662 -0.061929427 0.012188675 0.113882095
0.032834724 0.078731894 0.11695045 0.011465796 -0.053659227 0.016674653 0.078927435 0.0087502
-0.08062119 0.073271625 -0.047273528 0.044000104 -0.06323084 -0.08467253 -0.09825334 0.006485008
-0.019608388 -0.06668658 -0.06046414 0.02684611 0.004558906 -0.12465493 -0.09203023 0.08031386
-0.042154618 -0.20443556 -0.060570627 -0.12116195 0.090941906 0.16286732 0.014115276 -0.058901623
-0.08133136 -0.11403196 -0.10634466 -0.060152188 -0.0020105965 -0.05070947 -0.038829394 -0.018394295
-0.12136036 0.008458057 0.037300292 0.057685178 0.024140028 -0.02287375 -0.11194275 -0.04250409
-0.03225012 -0.014707566 0.14835815 -0.02156666 -0.004235949 -0.20840426 -0.0013807871 0.0435043
-0.03321345 -0.033408307 -0.018121414 -0.11876216 0.11009032 0.011272726 -0.11005474 0.071135335
0.10929646 -0.012342609 0.11022858 0.009723164 0.084537566 0.14621882 -0.041726515 0.0028848948
-0.07944599 0.0654563 -0.0838347 0.11968048 -0.12833667 0.11378795 -0.037087478 0.14830787

bias f4 [64]
00000000: c16f 50bc 1ad6 0ebe 18d4 193c 6237 ebbd
00000010: 3fd8 cb3d 924c 973d 69c1 95bd 987b 35bd
00000020: c19a 853e 8dbf 19bc f13a 313e 88a0 81bc
00000030: 789a 833d 4b49 c43b b535 e5bd fc40 d6bd
00000040: 365a ed3d 02bf 793d 8513 d53d 0ea6 e5bd
00000050: 758e 83bc 7859 aebd 29da 80be 059f 29bd
00000060: 3201 833e 8ddb 0a3d 09cd 2e3d 8dfa eebd
00000070: 1fe5 19be fcbb 413e bd86 16be 55c9 1e3d
00000080: f59e 64be bd20 b43d 1a8c 28bd aa78 c2be
00000090: 8ba5 04be 140a 4d3e 622f 26be 6f68 b1bc
000000a0: 1f25 abbd 65cb 653e 5d32 763e 87de 903d
000000b0: 39f6 353e f9f1 cebd 47fe c5bd b69f 26be
000000c0: 419d 21ba 4871 1a3e 027f 01be 0d50 babd
000000d0: c28c fcbd 4e8f d83d e34b 9c3d f99b e83c
000000e0: 7f59 17be 1b4d 80be 9804 f93d 2f61 bfbd
000000f0: c253 16be b663 06be de80 02be 8d48 1c3e
-0.012721957 -0.13948861 0.009388946 -0.11485173 0.09953355 0.073876515 -0.07312281 -0.04430732
0.2609463 -0.009384048 0.1730764 -0.015823618 0.06425947 0.0059901825 -0.111918844 -0.104616135
0.11589472 0.060973175 0.10404114 -0.11213313 -0.01605914 -0.085131586 -0.25166443 -0.04141142
0.2558685 0.033900786 0.042676006 -0.116688825 -0.15028809 0.18919367 -0.14699836 0.038766224
-0.22326262 0.08795307 -0.041149236 -0.37982684 -0.12953775 0.20023376 -0.16229013 -0.021656243
-0.0835669 0.2244087 0.2404265 0.07073694 0.17769708 -0.10104746 -0.0966764 -0.16271862
-0.0006165095 0.15082276 -0.12646106 -0.090973 -0.12331535 0.10574208 0.07631662 0.028394686
-0.14780234 -0.25058827 0.12159079 -0.09344708 -0.14680389 -0.13123974 -0.12744471 0.15262051

weight f4 [64, 64]
00000000: 0e15 86bd 755c cfbd 4fb0 d5bd 7e2f 963d
00000010: a4a5 bf3c bf8e 37bd dd7b 053e e5fd 893d
00000020: 3e88 8bbd aee5 71bd e635 cfbd e243 fcbd
00000030: 9be0 c03d 6d87 2bbd 2887 bf3d 8460 d0bd
00000040: c75a bdbd 5795 dd3d fc6a 6cbd fc60 633c
00000050: dbd9 973d dd79 00bd d643 02be 2ad6 d23b
00000060: 5785 2bbd 1344 e73d 0d0e 10be 62fd 023d
00000070: 302e a7bd ba92 df3c cd45 b3bd 43ed cabd
00000080: 0a5d 3a3b 0537 5b3c ee49 6a3d c810 cdbd
00000090: 72ae 09bc f51d d8bd c38d 393d ce9d c5bc
000000a0: 45d6 c0bd 8b7b b2ba f5be dbbc cff7 a13d
000000b0: 2336 d5bd 18f0 f9bd 7ef0 afbd 635d db3d
000000c0: 0b00 a13d dbba 1bbe 72f8 8dbd 9d92 debd
000000d0: e0db 733c 252e 55bd 779b c83d 6e12 64bd
000000e0: a170 debd a603 12bd e148 d4bd b85a 13be
000000f0: 82f5 ddbd 02ee f4bd d0fb 18bd 9148 80bb
00000100: c8b0 13bd 7cf4 1fbd 3274 db3d 9497 d1bd
00000110: b0eb 7abd e6a7 b0bd 5e09 ecbd 4e9f eebd
00000120: 7857 54bd 4834 21bd 382a 71bd 488f cfbc
00000130: b892 a5bd 101b 21bd bc9a 69bd f83c a3bc
00000140: 24f7 733d 0094 01bb 6016 bcbd 7077 1f3c
00000150: 90b2 32bc a66d 813d 0c34 e93d 303c c83c
00000160: 5047 efbd f891 433d b4d3 14bd 10df 4cbd
00000170: 50fb 813d a866 7dbd 2878 f5bd 8062 7bbd
00000180: d8a3 ebbd 208d 23bd 8695 b73d eefe ecbd
00000190: 8c9b 943d 28e4 c43d a09b ff3d 8401 d33d
000001a0: 3474 4bbd 72f6 e53d 8e1e fdbd a0df 0fbd
000001b0: 60d0 eb3c 54ce 803d 0c17 7dbd 1054 58bd
000001c0: fc58 773d f890 95bc bec1 d03d 68cf e9bc
000001d0: 0836 a7bd 9014 e0bd 002e e83c de24 dc3d
000001e0: 80b0 b03a 7ed6 f7bd f0d6 d43c 14b5 563d
000001f0: 3801 e83c 0063 17ba 00e7 ddba e049 8cbd
00000200: d1ed 463d 6795 f9bd 7439 cf3d cc5d 5abd
00000210: c096 3bbb 9840 b4bc 6ad3 f8bd a467 ee3d
00000220: b172 cb3d b34f 463c fed4 bf3d 020a fbbd
00000230: e84a c13c 9000 823d 00d4 e0bb 5867 b93c
00000240: c20a d6bd 74a5 683d ed9d c6bd de80 afbd
00000250: 3843 6abd 0638 ecbd 4486 90bd f086 5c3c
00000260: 462d 93bd 1029 933c 26c4 273d ce7a d7bd
00000270: 3d17 0f3d b4c4 7e3d 9c71 02be acfb 2cbd
00000280: 3f97 dfbc cc81 cfbd face 3c3d f2c1 f43d
00000290: 0ad6 fdbd d721 e8bd 1caf 52bc d049 99bc
000002a0: ec80 92bd 9ab5 b5bd 6ca7 9fbd c05c 73bd
000002b0: 0a22 243c 542d c93d 008e 863d eec3 15bd
000002c0: 6061 cfbc 396b 323d 845d 383d 8ef1 d3bd
000002d0: ecea 0fbd ae0b b0bb 89d6 783d 900b 6cbd
000002e0: fa19 ee3d a5c3 4a3d f840 1f3d c580 e9bd
000002f0: e03e b5bd 6d3f ec3c d8fa f3bc ce13 d2bd
00000300: 7ef1 9c3c 6c57 703d 4a55 85bd 0f4d 2ebd
00000310: ed77 7f3c e02c 78bd 628e d13d 5d0e d9bd
00000320: 9f89 2cbd da44 a93c d776 55bc c853 a03d
00000330: 3f45 243d b87b 2fbd e007 d13b c82a df3c
00000340: 8e79 c5bd c7ee 53bc 6466 05bd b4e7 0cbe
00000350: f4ef 9f3d 9376 b03b aaa2 9f3d 6042 4abd
00000360: 62ac b83b 5858 0abd f4ca 19bd 688b 61bd
00000370: 4118 3ebd fb18 16b9 0903 bd3d 4cfa 293d
00000380: 15f8 463d 447a 88bd ece9 84bd a5a6 3cbe
00000390: ef15 cf3d 2e76 fd3b 6c24 ebbd 6011 233c
000003a0: c7df 9ebc 5165 1bbe 094a 1fbe 427b b0bd
000003b0: aacf c6bd 004a 5bbd ee56 593b 40d5 203b
000003c0: e825 a53c 059a bc3c 2c63 c3bd c685 f3bb
000003d0: 5057 eebc 6725 1bbd 1d3d e5bc 712d af3c
000003e0: 6036 0f3c 77fb c4bd ede0 2fbd 3294 5cbc
000003f0: 54da 89bd 019f 27be dc4e 743d 8823 9ebd
-0.065469846 -0.10125057 -0.10434019 0.07333277 0.023394413 -0.044813868 0.13035531 0.0673788
-0.068130955 -0.05905693 -0.10117702 -0.12317635 0.0941784 -0.0418772 0.09351951 -0.10174659
-0.0924583 0.108195 -0.057719216 0.013878103 0.074145995 -0.031366218 -0.1272119 0.0064342218
-0.04187521 0.11292281 -0.1406786 0.031979926 -0.081631064 0.027291644 -0.08753548 -0.09908535
0.0028436803 0.013379817 0.05719941 -0.100129664 -0.008403407 -0.10552589 0.04530121 -0.024123099
-0.09415869 -0.0013617141 -0.026824454 0.07908594 -0.104107164 -0.122039974 -0.08590792 0.107111715
0.07861336 -0.15207998 -0.06932153 -0.10867808 0.014883965 -0.05204596 0.097952776 -0.05568164
-0.10861326 -0.03564801 -0.10365463 -0.14390075 -0.108378425 -0.11959459 -0.037349522 -0.0039149006
-0.036057264 -0.039051518 0.10715522 -0.10233989 -0.061259925 -0.08625774 -0.11525224 -0.11651479
-0.05184123 -0.0393565 -0.058878154 -0.025336877 -0.08084625 -0.03933245 -0.05703233 -0.019926533
0.059561864 -0.0019772053 -0.09183955 0.009733066 -0.01090683 0.06319742 0.1138688 0.024442762
-0.11683524 0.04774663 -0.03633471 -0.050017416 0.06346762 -0.06186548 -0.119858086 -0.061373234
-0.1150586 -0.03992951 0.08964066 -0.115720615 0.07256231 0.0961383 0.12480855 0.103030235
-0.049671367 0.11228646 -0.123593435 -0.035125375 0.028785884 0.06289354 -0.061789557 -0.052814543
0.060387596 -0.018257603 0.101932034 -0.028541282 -0.081646025 -0.10941422 0.028342247 0.10749219
0.0013480335 -0.12101458 0.025981396 0.052418783 0.028320894 -0.0005774945 -0.0016929805 -0.06850028
0.048566643 -0.12186699 0.1011838 -0.053312108 -0.002862379 -0.022003457 -0.12149699 0.11640862
0.09933985 0.012103963 0.09366797 -0.12257768 0.023595288 0.063477635 -0.00686121 0.022632286
-0.10451271 0.056798413 -0.09698091 -0.08569501 -0.05719301 -0.11534123 -0.07056859 0.013459906
-0.071863696 0.017963916 0.040958546 -0.1052147 0.03493427 0.06219931 -0.12738651 -0.0422322
-0.0272938 -0.10132179 0.046095826 0.11951055 -0.1239434 -0.113345794 -0.012859132 -0.018711954
-0.07153496 -0.088725284 -0.07795605 -0.059414625 0.010017881 0.09823099 0.06570053 -0.036563806
-0.025314987 0.043559287 0.04501106 -0.10348807 -0.03513615 -0.005372486 0.06075147 -0.057628214
0.116260484 0.049502987 0.03888032 -0.11401514 -0.08849883 0.028838838 -0.029782698 -0.10257684
0.019158121 0.058677122 -0.06510408 -0.042553958 0.015592557 -0.06058967 0.102322355 -0.10598443
-0.042123433 0.020662714 -0.013028822 0.0782848 0.0401051 -0.042842597 0.0063791126 0.02724208
-0.09642325 -0.012935347 -0.03256835 -0.13760263 0.07809439 0.005385229 0.077946976 -0.049379706
0.005635784 -0.033775657 -0.037547067 -0.05506459 -0.04640985 -0.0001431442 0.092290945 0.041498467
0.048576433 -0.06663945 -0.064899296 -0.18422945 0.101116054 0.0077350354 -0.11481556 0.009952873
-0.019393815 -0.15175368 -0.15555586 -0.086172596 -0.097075775 -0.05353737 0.0033163386 0.002454117
0.020159677 0.023022661 -0.095404 -0.0074317185 -0.029094368 -0.037877467 -0.027983243 0.021383973
0.008740991 -0.096182756 -0.042939115 -0.013463067 -0.06731096 -0.16369249 0.05964552 -0.07721621

bias f4 [64]
00000000: 8e19 b23c 207c 92bc 867f 36be 9116 c2bc
00000010: 68b5 7d3e 2b0d ab3d 7451 b63e 50b1 853e
00000020: 9cd0 b1bd 927e 0d3d 304e 9a3d 697a a63e
00000030: 946e bcbc ee8c b83e 8509 89bc 0ec8 37bc
00000040: 32aa cfbd f2e2 623e 86f6 dbbd 957f 33bd
00000050: dd38 253e 8968 983d c480 f13d 6755 f7bd
00000060: 0e74 cebd 195c 633d 8728 213e 1465 c9bd
00000070: 7123 293e d357 55bd 8d7f 963e eb2b 653e
00000080: c7b8 70bc 0082 a83b e5f5 1aba 769e 0fbe
00000090: 5eaf 543d cf41 64bd 8e18 cabd 938b 0fbe
000000a0: f87e d63d dec0 be3e 5a01 843e 49f0 0e3d
000000b0: 3274 23bd b675 9fbb 002c ac3c efe7 8e3e
000000c0: 12ea 0dbe 0f99 2b3c 28d8 bebd a37d 813e
000000d0: a70e d93d f9c8 9e3e 7cfb 07be 21a0 09be
000000e0: 9898 b8bd 2ab8 c83e 3567 d8bc 675c 813e
000000f0: 2bda e93d 3268 0cbe e196 1fbd bf9e 283e
0.021740701 -0.017881453 -0.17822084 -0.023692401 0.24776232 0.08352121 0.3560902 0.2611184
-0.08682367 0.034544535 0.07534444 0.32515267 -0.023001947 0.3604502 -0.016728172 -0.01121713
-0.10139884 0.22156885 -0.1074038 -0.043822844 0.16134973 0.074418135 0.11792138 -0.12076836
-0.100807294 0.055507753 0.15738116 -0.09833732 0.16517426 -0.05208571 0.2939419 0.22380035
-0.014692492 0.0051424503 -0.0005911275 -0.14025292 0.051925056 -0.055726822 -0.09867965 -0.14018087
0.10473436 0.3725652 0.2578228 0.034897123 -0.039905734 -0.004866327 0.021017075 0.27911326
-0.13858822 0.010473504 -0.09318572 0.25291166 0.10598498 0.31012705 -0.13279527 -0.1343999
-0.0901348 0.39203006 -0.0264164 0.2526581 0.11418565 -0.13711622 -0.03896225 0.16466807

weight f4 [1, 64]
00000000: 3824 9b3b 564f 913d 85bb 3f3a 8d9e dd3d
00000010: 17cf 0e3e e61b 083a 092d 3c3e 9b14 f03b
00000020: 75a2 a73c 992c ad3b 9439 29bb 6113 da3d
00000030: 95be 333c ead1 1d3e f9dd 67bc 628c d6bd
00000040: dd14 e6bc 1a81 433d aa04 873d bf49 563c
00000050: 089a 323e ae34 a83d cc3c 0f3e e23b 57bd
00000060: 56ea 473d bf86 c33d ba7d c93d 8087 98bd
00000070: 4a48 a83c 3070 a9bd bb06 383e 1e67 153e
00000080: c57c 8abb 50d7 443c 8a6a 7b3b 5af3 82bd
00000090: ec52 453c 5b36 023c 0b04 a3bd c051 0ebc
000000a0: 498e b83d a6b0 153d fc52 953d a0c6 11bb
000000b0: 2649 fc3b 619c b33d d787 743a 4f1b f03d
000000c0: 461f 403c 15e0 fe3a c857 043c 05e5 243e
000000d0: 2a0b b93d ed86 c83d 2142 50bd e841 113d
000000e0: f4fa 2f3c d9b3 4c3d afd8 7fba 14af 753c
000000f0: db0c 483b 5195 9bbd c804 01be 1803 333e
0.004734542 0.0709521 0.00073140144 0.10821257 0.13946186 0.00051921455 0.18376555 0.007326675
0.020463208 0.0052848575 -0.0025821673 0.106482275 0.010970731 0.15412107 -0.0141520435 -0.10475995
-0.02808612 0.047730543 0.065926865 0.013079106 0.17441571 0.08213173 0.13988036 -0.052547343
0.048807465 0.09547185 0.098384336 -0.074477196 0.020542283 -0.08273351 0.17971317 0.14590117
-0.0042262995 0.012014225 0.0038363063 -0.06394072 0.012043696 0.00794753 -0.079597555 -0.008686483
0.09011514 0.03654542 0.07291219 -0.0022243634 0.0076991497 0.08770061 0.0009328103 0.11723959
0.011726206 0.0019445444 0.008077569 0.16102989 0.090353325 0.0979136 -0.050844315 0.035463244
0.010740984 0.049976204 -0.00097597664 0.014995355 0.003052524 -0.07596839 -0.1259948 0.17481649
