mlartifacts/554351476986166068/1dfd7a312cfa4bab9385009882a4a92a/artifacts/models/Model_dim64_layers5_experiment/r2_score0.24076769078985127_run26/data/model.pth (torch, 294728 bytes, 13 tensors)

weight f4 [64, 801]
000000 2e de cf bd 7d 1b fe 3d 75 99 89 bd 21 26 9f bd
       -0.10149799 0.12407587 -0.06718723 -0.077709444
000010 96 1b 18 3c 4d 0d 99 bd 2b 9e ad bb c2 2f e4 bc
       0.009283921 -0.0747324 -0.005298396 -0.027854804
000020 b5 14 f9 3c 1b 35 d5 bd 43 87 94 bd bb 57 77 bc
       0.030405382 -0.1041052 -0.072523616 -0.0150966
000030 a9 2c 70 bc 9d a2 d3 3d 2d af ca bc 57 fe 7e 3b
       -0.014659085 0.103337504 -0.024741733 0.0038908923
000040 b2 b1 80 bc 58 6e 94 3c bb db 3b bc 51 05 90 bd
       -0.015709732 0.018119022 -0.011465962 -0.07032264
000050 e1 16 07 be bc 5e 9b bd 15 8a a2 bc 06 9b 08 3d
       -0.13192321 -0.075864285 -0.019841233 0.033350967
000060 8e 05 c1 bc e5 aa ac bd f6 e3 07 be 34 bb a7 bb
       -0.023562219 -0.08431033 -0.13270554 -0.005118752
000070 6f 48 09 bd b6 03 b9 bd 46 84 d1 bd f1 4d f7 bd
       -0.033516344 -0.09033911 -0.10230307 -0.12075413
000080 3b 6f 99 bd 5b 1f b0 bd cd 59 b7 bd 40 88 d9 bd
       -0.07491919 -0.085997306 -0.08952675 -0.10621691
000090 d2 23 87 3d b7 ef b0 bd f2 dd 96 bd 37 d3 aa bd
       0.06598629 -0.08639472 -0.073665515 -0.08341067
0000a0 fe ef 90 3d d5 24 07 3e 3f 11 c8 bd a1 35 94 bd
       0.07077025 0.13197644 -0.097689144 -0.072367914
0000b0 91 59 02 be 66 13 9e bd 28 b9 dd bd 43 7e ef 3d
       -0.1272948 -0.07718544 -0.108263314 0.116940044
0000c0 a1 11 97 bd 2d 9c 94 bd ad 10 b3 bd 73 a4 b1 3d
       -0.07376409 -0.07256351 -0.08743415 0.08673944
0000d0 14 7e b8 bd 0f 10 d5 bd 19 35 e8 bd 75 d1 d6 3d
       -0.090084225 -0.104034536 -0.113382526 0.104891695
0000e0 a9 54 d3 bd 61 c1 b5 bd 2f 17 cf 3d 31 c0 ec 3d
       -0.10318882 -0.08874775 0.10111844 0.11560095
0000f0 a4 8a bf 3d 42 f9 c3 bd 61 d7 07 3e 27 ad c8 3d
       0.093526155 -0.095690265 0.13265754 0.09798651
000100 13 be ae bd e3 34 e9 bd 54 89 ca 3d 12 23 b8 3d
       -0.085323475 -0.113870405 0.098894745 0.08991064
000110 df 7a ba bd bb 84 a9 3d 0b 8f e9 3d d3 d7 c3 bd
       -0.09105467 0.082772695 0.114042364 -0.095626496
000120 ac b0 c8 bd ea bc ae 3d 90 c5 07 3e 22 6e b2 bd
       -0.097993225 0.08532126 0.13258958 -0.087124124
000130 30 d3 08 be 95 10 ae bd 4e ec a6 bd 17 9c a1 bd
       -0.13361812 -0.084992565 -0.0815054 -0.078911
000140 78 29 8f 3d d6 a8 04 be 9d c4 00 be 6a ad a1 bd
       0.069903314 -0.12955031 -0.12575002 -0.07894404
000150 10 3c c4 3d fc 2d 09 3e ff 23 b8 3d 62 7a f7 3d
       0.095817685 0.13396448 0.08991241 0.120838895
000160 8f 2b a3 bd 3a 32 e1 3d cc f0 90 3d 8b 8b a0 bd
       -0.079672925 0.10995908 0.07077178 -0.07839116
000170 77 9e de bd 9f 87 bb 3d 4a 9a f7 bd e2 3b a4 3d
       -0.108700685 0.09156727 -0.12089975 0.08019234
000180 ab 1f dc 3d 1e f0 ac bd 6b df 93 bd b7 9c f8 3d
       0.10748228 -0.08444236 -0.07220348 0.12139266
000190 f2 0f d2 3d d9 08 92 3d 32 8f e1 3d ec a5 ea bd
       0.102569476 0.07130594 0.110136405 -0.11457428
0001a0 df fc a1 bd e7 da a5 3d e3 2f af 3d d4 0b 70 bd
       -0.079095595 0.08098393 0.085540555 -0.05860503
0001b0 eb ed 94 bd d2 00 b7 bd fd 6c c2 3d f0 66 06 3e
       -0.07271942 -0.08935703 0.09493444 0.13125205
0001c0 df 78 d2 bd 87 a8 06 be 52 36 06 3e e8 d4 01 3e
       -0.102769606 -0.13150226 0.13106659 0.12678874
0001d0 f0 09 03 be 26 4c ea bd 10 c1 a3 3d e4 df de 3d
       -0.1279676 -0.114403054 0.07995808 0.108825475
0001e0 68 dd dc 3d 8b 61 94 3d 13 55 d2 bd 5e 3b f2 bd
       0.107844174 0.07245167 -0.10270133 -0.1182773
0001f0 42 5a 04 3e c6 a8 a2 bd d7 03 bd bd 97 7e 05 be
       0.12925056 -0.07942347 -0.09229248 -0.13036571
000200 53 b2 91 bd 40 f8 d6 bd 53 2b d2 3d b1 01 38 3d
       -0.07114091 -0.10496569 0.1026217 0.044923488
000210 9e 0d bf bd 78 4d b5 bd 90 b6 02 3e 24 0a 85 3d
       -0.09328769 -0.088526666 0.12764955 0.06496075
000220 c3 47 9d bd 14 70 be 3d 0a ac c8 bd 6c e9 b0 bd
       -0.07679703 0.09298721 -0.09798439 -0.08638272
000230 bc 19 d3 bd 91 cb 89 bd 22 c7 e3 bd 5d 55 7b bd
       -0.10307643 -0.0672828 -0.11121966 -0.061360706
000240 62 d9 91 3d 78 8d e6 3d 06 a9 9d bd 41 33 a7 3d
       0.071215406 0.11257452 -0.07698254 0.08164073
000250 df 8b fd 3d 5c 45 fc bd e2 41 e7 bd 95 11 a2 bd
       0.12380194 -0.12317917 -0.11291863 -0.0791351
000260 83 5f aa bd 71 17 f3 bd 2d ec e8 bd d7 d4 f6 3d
       -0.08318999 -0.118697055 -0.11373172 0.12052315
000270 61 8d 8a bd 85 42 c0 bd b6 48 08 be c1 96 02 be
       -0.06765247 -0.093876876 -0.13308987 -0.1275282
000280 47 e4 9d 3d b1 f0 f1 bd 78 f3 f2 bd d1 bc b8 3d
       0.07709556 -0.11813486 -0.11862844 0.09020389
000290 dd 6d fa 3d 80 ee e9 bd c8 7a cc bd 8c 9e cd bd
       0.12227986 -0.114224434 -0.09984356 -0.10040006
0002a0 f3 29 e3 bd 5f 42 9c bd 7c 72 cb bd 51 dc b3 bd
       -0.110919856 -0.07629847 -0.099339455 -0.087822564
0002b0 b8 24 b5 bd a4 f6 87 3d b4 1f 02 be 85 c4 c5 bd
       -0.08844894 0.0663884 -0.12707406 -0.09656624
0002c0 9a bf e3 bd 7f b1 9b bd 7f 09 b4 bd 1f 66 05 3e
       -0.111205295 -0.07602214 -0.08790874 0.13027237
0002d0 ad 0e bc bd 30 3d b1 bd ea 23 aa bd fc f1 b2 3d
       -0.09182487 -0.08654249 -0.08307631 0.08737561
0002e0 ab a4 f0 3d c5 ff b7 3d e9 05 aa bd 1b 62 ac 3d
       0.11750158 0.08984331 -0.083019085 0.0841715
0002f0 fb 83 df 3d e8 0d ba bd e1 19 84 bd a6 de 89 3d
       0.10913845 -0.09084684 -0.064502485 0.0673192
000300 f9 49 94 bd 9d f1 07 be 9d de ca 3d 74 d7 fe 3d
       -0.07240672 -0.13275762 0.09905741 0.12443438
000310 4e d1 fb 3d c5 d7 c3 3d 1e 79 ef 3d 37 19 ac bd
       0.12295781 0.09562639 0.11693023 -0.08403247
000320 fb c0 c9 3d 09 75 a2 bd 90 1c ef 3d db 01 e7 bd
       0.09851261 -0.07932479 0.1167537 -0.11279651
000330 aa b7 df bd ca ee b0 3d dc 96 ad bd c7 32 09 be
       -0.10923703 0.086392954 -0.0847604 -0.13398276
000340 31 7b aa bd 95 83 b8 bd 09 a6 d4 bd b5 4c 8d 3d
       -0.08324278 -0.09009472 -0.10383231 0.06899396
000350 65 22 b4 bd e0 1a e8 3d a3 57 d7 bd 46 21 f4 bd
       -0.08795623 0.11333251 -0.10514762 -0.11920409
000360 a8 d4 ea bd db a5 90 3d cc f1 cc bd 91 ce 8b bd
       -0.11466342 0.070628844 -0.100070566 -0.06826509
000370 9d 4f f0 3d ef e6 05 be 95 bf a9 bd 02 21 ec 3d
       0.11733935 -0.13076375 -0.082884945 0.11529733
000380 43 90 b0 bd 9e 54 f6 bd 70 86 b1 bd dc c4 91 bd
       -0.08621266 -0.12027858 -0.0866822 -0.07117626
000390 3a e6 b9 bd 84 54 dc 3d fe 63 ae bd 0a 54 c1 bd
       -0.09077115 0.107583076 -0.08515166 -0.09439857
0003a0 2f 72 a9 bd 2d 37 fb bd a1 31 ea 3d b8 43 eb bd
       -0.08273732 -0.12266383 0.11435247 -0.11487526
0003b0 a3 b4 ab bd 57 b6 f9 bd b0 04 c3 bd 1d 69 06 be
       -0.08384063 -0.12192982 -0.095223784 -0.13126035
0003c0 78 06 eb 3d 8a 9f af bd cb 7a ed bd 43 12 85 3d
       0.11475843 -0.085753515 -0.115956865 0.06497624
0003d0 c6 5f 9a 3d 15 2c f3 bd 2f bb 08 be 5e 5e 8a 3d
       0.075377986 -0.11873642 -0.13352655 0.0675628
0003e0 9b bc f8 3d ae 0d f9 bd ab 50 ef 3d 2c 91 8d bd
       0.12145349 -0.12160812 0.11685308 -0.06912455
0003f0 3c fe d1 3d 9a 49 04 be 3e 78 d0 3d f8 40 05 3e
       0.102535695 -0.12918702 0.101791844 0.13013065

bias f4 [64]
000000 d6 fe ae bd 12 d5 f4 3b 10 5e e2 3b 60 7c df bc
       -0.085447 0.007471689 0.006908186 -0.027280986
000010 a7 39 06 be d2 64 f2 bd 29 0a c2 bd 58 ec 52 be
       -0.1310793 -0.11835636 -0.09474594 -0.2059797
000020 76 a4 98 bd 12 33 d3 be dd 8e b0 bb fc 53 00 bf
       -0.074532434 -0.412499 -0.0053881244 -0.5012815
000030 06 f7 e6 bd 10 8e d8 bd db 65 60 be 06 25 01 be
       -0.11277585 -0.10573971 -0.21913855 -0.1261178
000040 83 2f 08 be 74 58 03 be e9 19 99 3d 72 30 98 bd
       -0.13299374 -0.12826711 0.07475645 -0.07431115
000050 42 b5 cb be 4f 4c c8 bd 93 e8 52 3c cb cd 81 bd
       -0.39786726 -0.0978018 0.012872833 -0.0633808
000060 27 52 ca 3e ae e7 ca bd 37 f5 15 be 8d bb b1 bd
       0.39515802 -0.09907471 -0.14644323 -0.086783506
000070 3f 67 0a be 44 c8 7d be 80 04 2f be 8d f4 0d bf
       -0.13515948 -0.24783427 -0.1709156 -0.5545128
000080 2f e7 f6 bd 4a 7d a0 be 56 30 92 3e dd 03 2c bf
       -0.120558135 -0.31345588 0.28552502 -0.67193395
000090 1c 76 a0 bd ff 8c b9 bd 70 d0 5c 3c c5 55 a5 bd
       -0.078350276 -0.09060096 0.01347743 -0.08073
0000a0 06 b1 03 be 7f 1f 4a bd ad 6c 3b 3f 74 13 05 be
       -0.12860498 -0.049346443 0.732127 -0.12995702
0000b0 4c 2e 33 be 59 cc a8 bd 89 99 6e 3f 9e 30 0c be
       -0.1749813 -0.08242101 0.93203026 -0.13690421
0000c0 48 1e 01 be cc 7e 99 be 65 7c ca bd c8 39 ef bd
       -0.12609208 -0.2997955 -0.098870076 -0.11680943
0000d0 8f a2 e5 bd 69 cd f3 bd be b3 40 be 67 c8 45 3c
       -0.11212646 -0.11904413 -0.18818566 0.012071705
0000e0 25 64 0e bf 2a b0 db 3e ac 17 d5 bd 2d 0d 0b be
       -0.5562156 0.4290784 -0.10404906 -0.13579245
0000f0 4a 80 be 3d 5d be dd bd 48 00 cc bd 8f a8 64 be
       0.09301813 -0.108273245 -0.09960991 -0.22329925

weight f4 [64, 64]
000000 8c a3 b1 3d 68 60 e0 bc 62 aa e3 3d 10 c8 ef 3d
       0.08673772 -0.02738972 0.11116482 0.11708081
000010 d4 a5 d2 3d 26 21 e1 3d ec 7b a9 bd 6f 6d f1 bc
       0.102855355 0.10992651 -0.08275589 -0.029471127
000020 c7 09 ef bc 04 48 97 bd 92 b7 9c 3d 9e 34 87 3d
       -0.029179467 -0.07386783 0.07652201 0.06601833
000030 48 f3 f3 3c 64 8c 34 be b4 f4 0d bd 9b 29 b4 bc
       0.029779091 -0.1763168 -0.034657195 -0.021992495
000040 58 9f 94 3d 2e 95 83 bc a0 6a 36 be 64 c7 c7 bd
       0.07256955 -0.016062345 -0.17814112 -0.097548276
000050 26 35 fc bc d2 7a e1 3b f1 73 d1 bd be 14 ed 3d
       -0.030787062 0.0068810964 -0.10227192 0.11576222
000060 54 17 d7 be 94 0d 5a 3e 41 f9 4d 3d 04 40 af bd
       -0.42009985 0.21294242 0.050286535 -0.08557132
000070 bc d1 bc bc 97 cd 96 3d a6 27 84 be 5b 7d 53 3d
       -0.023049228 0.07363432 -0.258115 0.05163322
000080 8f f4 70 3c b8 0e 97 bd 27 83 40 be f3 5e 85 bd
       0.014706745 -0.07375854 -0.1880003 -0.06512251
000090 bb dc 2f 3e ac ee 32 3d 0a 69 81 3c 82 3b ba bd
       0.17174046 0.043684646 0.015797157 -0.090933815
0000a0 de 42 98 bd 4a 42 c6 3c bc dd a2 bd af e8 44 3e
       -0.07434629 0.024201531 -0.07952449 0.19229387
0000b0 e8 e2 51 3e fc 2d 44 3e 77 c3 4e be 31 09 dc 3d
       0.20496714 0.19158167 -0.20191751 0.107439406
0000c0 72 30 dd 3d c2 99 e8 bd 6e 10 bb 3c ae 65 85 3d
       0.10800256 -0.11357452 0.022834983 0.065135345
0000d0 7a e5 c2 3c c0 72 43 bc 32 cc 30 be 70 43 7c 3b
       0.023791064 -0.011929214 -0.17265394 0.0038492344
0000e0 04 de 66 be 38 4e 7c be b5 8b 36 3e 9e c4 f1 3d
       -0.2254563 -0.24639213 0.17826732 0.1180508
0000f0 69 02 6c bd f7 f6 1e 3d fc a6 52 bd 55 ee 62 3d
       -0.057619486 0.038809743 -0.05142878 0.055403072
000100 ba e7 e1 3d 82 93 cc bd 25 63 ff bc b4 87 9e bd
       0.110305265 -0.099890724 -0.031175205 -0.07740727
000110 a4 05 4e bd 20 6d a6 bc 30 05 b6 3c 23 25 0e be
       -0.050298348 -0.020315707 0.02221927 -0.13881354
000120 b1 d3 3a be ce 76 88 bd 65 81 f2 bd 4e 0d 10 be
       -0.18244816 -0.06663285 -0.11841086 -0.14067575
000130 80 b7 e0 3c 26 77 95 3d b3 0e 30 3d eb 9f 56 be
       0.02743125 0.072981164 0.04298277 -0.20959441
000140 c2 a4 b3 bd 20 42 c4 3b b5 49 d5 bc 21 1a 1a bd
       -0.087716594 0.005989328 -0.026036123 -0.037622575
000150 e0 3b 5f 3d 83 c2 ea bd e3 d6 fc bd 95 3f 73 bc
       0.05450046 -0.114628814 -0.12345674 -0.014846702
000160 a8 bf 7f be bc 03 f0 3d 58 6a bb bb 48 00 b5 3d
       -0.24975455 0.11719462 -0.0057194643 0.08837944
000170 c3 ed a0 bc e4 01 12 3d f8 11 ad bc 12 d9 c9 bd
       -0.019644624 0.035646334 -0.021126732 -0.09855856
000180 7c 5e fb bd d0 9b d4 bc e7 bf 7a be 29 cb ea bd
       -0.12273881 -0.025953203 -0.24487267 -0.11464531
000190 d9 bb 0a be 40 3a f5 3c 55 a9 0b be fc 0e bb bd
       -0.1354822 0.029935002 -0.13638814 -0.091337174
0001a0 8c 02 f1 bd b7 b7 42 be 78 fe 84 be b0 15 bc bd
       -0.11768064 -0.19015394 -0.25975394 -0.09183824
0001b0 e3 a0 bb 3c d0 4e ca bd cb 8a b6 bd 19 a9 22 bc
       0.022903865 -0.098783135 -0.089131914 -0.009928011
0001c0 fc df ed 3d 7c 02 66 bd 74 03 b3 bc 84 65 ae 3d
       0.11614987 -0.056154713 -0.021852233 0.08515456
0001d0 e8 fb 78 bd 3a d1 92 bd b8 4b 94 bd 51 67 42 be
       -0.06078711 -0.07168813 -0.07241005 -0.18984725
0001e0 44 dd 9f bd f3 3b 34 3d fe 86 c4 bc 63 6e 3f be
       -0.07805875 0.044002485 -0.02399015 -0.18694453
0001f0 56 3b 41 bd ef 82 d1 bd 60 53 ff bb 7f 01 43 be
       -0.047175728 -0.10230052 -0.0077919215 -0.1904354
000200 52 62 a5 3d 1c 8f ca 3d 6f 74 8a bc 58 7e 87 bd
       0.08075394 0.09890577 -0.016901223 -0.06615895
000210 b6 10 96 bd a4 fc 00 bd 66 50 c9 3d 51 51 56 be
       -0.07327406 -0.031490937 0.09829788 -0.20929457
000220 a6 28 c2 bd 51 9b 50 bc 6b ea c6 bc 07 c3 3a be
       -0.09480409 -0.012732343 -0.024281701 -0.1823846
000230 d4 e3 43 bd 6d 33 ea bd 62 ad 92 3b 5e de 29 3c
       -0.047824696 -0.1143559 0.0044762352 0.010367958
000240 84 c3 55 be 42 2b 0e 3c b7 c0 a5 be 98 d4 c4 3d
       -0.20875365 0.008677306 -0.32373592 0.096108615
000250 08 e9 94 3e f9 65 ee bb 9e 05 cf bd 7e 43 3e be
       0.2908404 -0.0072753397 -0.10108493 -0.18580434
000260 03 f8 0c bf 44 1a 3c 3d d0 c1 03 3d 68 83 9f 3c
       -0.55065936 0.045923486 0.032167256 0.01947184
000270 cf 82 aa 3d 9b c7 81 3e 5c c9 0a 3d 30 74 a9 be
       0.08325731 0.253476 0.033883438 -0.33096457
000280 57 0c f9 3e 25 d5 85 be a0 75 26 bf 68 c0 de 3c
       0.48642227 -0.2613918 -0.6502323 0.027191356
000290 27 48 19 bd a4 d5 89 bd 73 41 ff bd 4d cc d0 bc
       -0.037422325 -0.06730202 -0.12463655 -0.025488043
0002a0 18 9e ff 3c 06 48 20 3d 56 55 80 bf 40 e1 2c bd
       0.031203315 0.039131187 -1.0026042 -0.042207003
0002b0 18 df 09 3d e3 2e 72 bd c4 bc bb bd b7 6f a7 3e
       0.033660024 -0.059126746 -0.091668636 0.3270242
0002c0 32 49 a4 bd 7e 2d 0d 3e e0 4a a9 3c 78 cf bf 3d
       -0.080217734 0.13786885 0.020665586 0.093657434
0002d0 1a d7 be bd 20 be d3 3b ee 53 54 be b5 69 3c bd
       -0.09318371 0.0064618737 -0.20735142 -0.045999248
0002e0 77 7c 1b 3c 80 8b 28 be 63 48 c1 bd 6e 75 c0 bd
       0.009490124 -0.16459465 -0.09437635 -0.09397398
0002f0 58 40 0a be c4 9e 36 be a0 b6 ef 3b ee b6 a3 bc
       -0.13501108 -0.17834002 0.007315472 -0.019984689
000300 4a 3e 2c 3e 5c 25 5a bd 9c 85 ab 3d 20 95 26 3c
       0.16820636 -0.053258285 0.08375093 0.01016739
000310 f3 06 8b 3d 24 46 0f 3d d3 56 e6 bd 0c bf d7 3d
       0.06788435 0.034979 -0.11247029 0.10534486
000320 6c fd f1 bd cf 31 0a 3e ed 54 e6 bd 01 90 30 bd
       -0.118159145 0.13495563 -0.11246667 -0.043106083
000330 58 43 9d bc 99 8f 31 bc b4 44 a5 3d 6b 14 c1 3d
       -0.019197151 -0.010837459 0.08069745 0.094277225
000340 08 76 29 3e f7 57 eb 3c c6 e4 91 bd 33 cf ae 3d
       0.16548932 0.028728468 -0.07123713 0.08535614
000350 e9 b7 50 bd a9 52 8c bc ab 26 9d bd 3f c4 40 3d
       -0.05095664 -0.01712926 -0.07673391 0.047062155
000360 9e 99 43 bf c3 27 df 3c 8c ba 65 bd 58 bb ef bc
       -0.76406276 0.02724064 -0.056086108 -0.029264137
000370 20 7d 2c bd 85 9f 31 be 00 44 f2 3d 40 f6 13 bf
       -0.042111516 -0.17346008 0.11829376 -0.5779762
000380 9a f5 18 3d a9 f2 64 bd 1c c6 fa bd fb 54 d8 ba
       0.0373436 -0.05589548 -0.122448176 -0.0016504818
000390 a3 f2 fb 3d 90 ad b9 bd 54 10 43 3c 20 32 c0 3d
       0.12302139 -0.090663075 0.011905748 0.093845606
0003a0 0e 47 64 bd 20 2a a4 bd 53 d5 4e bf d0 88 d7 3d
       -0.055731826 -0.08015847 -0.80794257 0.10524142
0003b0 98 85 83 3d d4 26 1b ba 45 0c 3d bd 31 c8 74 3d
       0.06421965 -0.00059185666 -0.04615428 0.05976123
0003c0 50 6f 5b 3d af e0 e4 bd b0 d0 01 3c 18 85 f0 3d
       0.053572953 -0.111756675 0.00792329 0.117441356
0003d0 1c 89 cd bd 80 fc a0 3b e5 27 92 be 0f ad cb 3d
       -0.10035917 0.004912913 -0.28546062 0.09945118
0003e0 ef 51 fc 3d 17 11 6a be 08 4d 53 3b 83 7d e1 3d
       0.12320315 -0.22858082 0.003224196 0.110102676
0003f0 05 f7 94 be 8c c6 04 3e 60 8b 29 3d 79 00 60 3d
       -0.2909471 0.12966365 0.041392684 0.05468795

bias f4 [64]
000000 29 e5 12 be 1b da 5d be 90 cd 38 bf 1f 91 0e bf
       -0.1434523 -0.21665232 -0.72188663 -0.5569019
000010 ea 6c 96 be 16 b2 a2 be df f2 70 be e4 d3 94 be
       -0.2937997 -0.31776494 -0.23530148 -0.2906791
000020 a0 90 d2 bd 58 f6 21 bf 75 e9 b4 be 77 f4 26 bf
       -0.10281491 -0.63266516 -0.35334364 -0.65216774
000030 1e ee d3 be 4c 76 d1 be 0f aa 49 be 33 d8 86 be
       -0.41392606 -0.40910566 -0.19693778 -0.26336822
000040 18 1e 90 be 87 2a 8f bd e0 a0 3c be 49 47 2e be
       -0.2814796 -0.06990533 -0.18420744 -0.1701938
000050 91 92 35 be 57 17 27 bd 30 fd 68 be 62 8c 14 3e
       -0.17731692 -0.040793743 -0.22752833 0.14506677
000060 3a 15 c5 bf bb 47 e2 bc cf 0c 66 3d 8d e4 06 bf
       -1.5397103 -0.027622094 0.05616456 -0.5269249
000070 80 5f 17 3e 1b e9 f0 be 1a dc 46 bf 4e ea 5e be
       0.14782524 -0.47052845 -0.776796 -0.21769068
000080 a0 56 05 bf 3d 79 17 bf d9 48 8b be 21 17 9f be
       -0.52085304 -0.5916937 -0.27204016 -0.31072333
000090 9c 0c 45 be a4 c6 0d bf 61 71 f4 be fc 2d a1 be
       -0.19243091 -0.55381227 -0.4774275 -0.31480396
0000a0 4b b5 3f bb bf 01 f2 bd d5 c9 bf be a6 45 eb bc
       -0.0029252346 -0.11816739 -0.37458673 -0.028719734
0000b0 17 5e a2 be b2 06 21 be f8 a4 56 be b0 e3 4c bf
       -0.3171241 -0.1572521 -0.20961368 -0.80034924
0000c0 8f 7f 8c be 3d 61 12 bc be cf 1c be 9d 91 0c be
       -0.2744107 -0.008934316 -0.15313622 -0.13727422
0000d0 6e c2 12 bd 92 59 de 3d 2f 79 4f be dd 19 66 be
       -0.035829954 0.10856928 -0.20261072 -0.22470804
0000e0 5e 1e 9b be bb 09 5b be 19 3c 17 bf 39 94 8a be
       -0.30296606 -0.2139043 -0.59076077 -0.2706621
0000f0 34 4a 9f bd 30 d2 03 bf bb a8 97 be 76 97 ac be
       -0.07777825 -0.51492596 -0.2962092 -0.33709306

weight f4 [64, 64]
000000 63 55 17 be 1e 53 d5 bd 1f 43 51 bd 49 7c ad 3d
       -0.14778666 -0.10416244 -0.051089402 0.08470971
000010 74 77 17 be d6 24 b1 bd e5 36 21 3e 58 8f 9f bd
       -0.14791662 -0.08649604 0.15743597 -0.077910125
000020 79 ba 2b 3b 80 1e 16 3e 3b c0 8d bc ae bd a0 be
       0.0026203676 0.14660072 -0.017303577 -0.31394714
000030 5a 63 f7 bc 94 85 5d be f1 4f 67 bd 2a ff 6a bb
       -0.030198742 -0.21632987 -0.056472722 -0.0035857656
000040 60 4d b2 bb 88 71 83 bc c0 f3 78 3d f5 65 0e bd
       -0.0054413527 -0.016045347 0.060779333 -0.034765203
000050 6e 88 02 bd 10 bb 20 bd 4a 41 e7 bd 1c 03 2e be
       -0.03186839 -0.039240897 -0.1129175 -0.16993374
000060 be 04 38 be 75 97 72 bd f9 18 86 3e 7c 32 15 bd
       -0.17970559 -0.059226472 0.26190928 -0.0364251
000070 78 00 8c bd e4 69 34 be 3a ad 01 3d a8 64 78 3d
       -0.06836027 -0.17618519 0.031659342 0.06064287
000080 db 04 2b be cb 2b 84 3d 30 00 f2 3d 80 b4 4f bd
       -0.16701071 0.06453665 0.11816442 -0.050709248
000090 36 e1 ce be 6a 24 9f 3d 14 42 92 be b0 24 8b be
       -0.40406197 0.07770617 -0.2856604 -0.27176428
0000a0 58 48 a4 bd 26 97 9a 3c f8 19 6f be 15 22 0f 3c
       -0.08021611 0.018870901 -0.2334975 0.008736153
0000b0 14 52 61 bc 6b fb 4d bc 93 c7 4f be 96 13 f9 bc
       -0.013752479 -0.01257215 -0.20290975 -0.030404847
0000c0 53 cd 47 bc 65 31 7b be 60 09 fd bc 22 b7 f6 3d
       -0.012194949 -0.24530561 -0.03088826 0.120466486
0000d0 e5 01 07 3c f7 c8 ce 3d 58 11 32 bd 27 a7 6a bd
       0.008240198 0.10096925 -0.04347357 -0.057288315
0000e0 bd 36 41 3e c3 28 29 3d 8c 71 b7 bd 6a 3b d8 bb
       0.18868537 0.04129864 -0.08957204 -0.0065988796
0000f0 19 fd 70 3c 14 e9 33 be d9 70 53 be 79 14 b1 3d
       0.014708781 -0.17569381 -0.20648517 0.08646483
000100 9c 9d 5a be bf ce 9e 3d 35 b7 31 3e b6 53 92 be
       -0.21349186 0.077542774 0.17355044 -0.2857949
000110 9c 7c bb be 82 14 56 3e 6a e2 2d 3e 91 cc 07 bf
       -0.36618507 0.2090626 0.16980901 -0.5304652
000120 22 74 f4 bd bf 54 97 be f3 d8 3e 3a fd 3d 50 be
       -0.11936213 -0.29556844 0.0007280253 -0.20336147
000130 02 57 ee 3d d6 44 2a be dd 8d 08 be b4 13 9b 3d
       0.11637689 -0.16627821 -0.13335367 0.075721174
000140 c1 a1 06 3e cb a5 7f bd bc 93 5f be 37 61 5f be
       0.13147642 -0.062413972 -0.218337 -0.21814428
000150 e0 21 9a 3d 32 20 44 be 90 46 0e bd 4f ea 06 be
       0.075259924 -0.19152907 -0.034735262 -0.13175319
000160 fe 98 5f 3e b0 b9 d2 bd 52 7d 3a bc ff d7 ac bd
       0.21835706 -0.10289323 -0.011382418 -0.084396355
000170 16 31 18 be ed e5 9b be 80 e9 82 be 08 d3 13 3c
       -0.14862475 -0.30448857 -0.2556877 0.009022482
000180 56 95 6a be 61 6f 04 be e2 85 9a bd 95 64 c9 3b
       -0.2290853 -0.12933113 -0.07545067 0.0061460235
000190 59 0b 7a be 7d 68 c2 bd aa 2f f1 be 1c d0 ff bd
       -0.24418391 -0.09492586 -0.47106677 -0.124908656
0001a0 4c b0 bc bd 26 0b 57 3e cd 0e c9 3e e6 40 63 bd
       -0.092133135 0.21000347 0.39269105 -0.055481814
0001b0 6c b8 b1 be 2a 7f 8f bd 45 26 8c 3d 05 f2 35 bc
       -0.34711015 -0.070066765 0.06843237 -0.011105065
0001c0 23 e1 bc bd 34 85 2c be 40 a5 9c 3b 77 5e 1b bd
       -0.09222629 -0.16847688 0.0047804415 -0.037931886
0001d0 e5 38 0b 3e 2f 1a e1 3d 5e 09 25 be 82 64 af bc
       0.13595922 0.10991322 -0.16116855 -0.02141023
0001e0 4a 05 96 bc 67 00 14 be bf 89 99 bb 91 56 19 bc
       -0.018313069 -0.14453278 -0.00468561 -0.009359018
0001f0 2a 65 ad bb 65 b1 55 bd d8 bd 29 3d b9 37 02 be
       -0.0052916007 -0.05217113 0.041440815 -0.12716569
000200 7e c9 c4 3d 90 6b 2e 3e 58 97 91 bc e7 7f a3 3d
       0.09608744 0.1703322 -0.017772362 0.0798338
000210 01 5f 5d be ba 6f 8a be bc 97 0c be 04 fb 31 be
       -0.21618272 -0.27038366 -0.13729757 -0.17380911
000220 e6 f0 52 be 6f 26 c3 bd 96 e1 0c bd c9 df 14 be
       -0.20599708 -0.09528815 -0.034394823 -0.14538492
000230 24 ef 33 3d f2 6a b9 bc 93 08 3b bd bc f5 a5 bd
       0.043929234 -0.022634003 -0.045662474 -0.08103511
000240 5d 3e cf bd 33 35 76 3c 08 55 30 bd c0 8f 5f 3e
       -0.10119317 0.015027332 -0.043049842 0.2183218
000250 49 ef 1a 3b 3a 2f de 3b c3 4c a4 bd c2 6b 74 3d
       0.002364116 0.006780532 -0.08022454 0.05967308
000260 54 e6 80 3d 54 93 f0 3b 37 d5 4a be 8c a6 a1 be
       0.062939316 0.0073417816 -0.19807898 -0.31572378
000270 ee d7 ea 3d 73 a8 4c be 13 7a 36 be 08 dd 22 3e
       0.114669666 -0.19986133 -0.17820005 0.15904629
000280 f7 34 90 3c 92 d7 ae bd 22 6b d9 3d 5b 97 d9 bd
       0.01760338 -0.085372105 0.10616137 -0.10624572
000290 e6 a2 82 be ad 1f 88 be 18 19 48 be 5c 7c ed be
       -0.25514907 -0.26586667 -0.19540823 -0.4638394
0002a0 82 5f 6d 3e d6 c8 f8 3d b0 36 c7 bc 32 a9 e0 bd
       0.23180965 0.121476814 -0.02431807 -0.109697714
0002b0 02 c6 5c 3b ab 04 2b 3e ce 2b 00 3e 8b b9 22 be
       0.0033687358 0.16701 0.1251671 -0.15891092
0002c0 50 25 28 be ee d1 c1 bd aa 8f 26 3e 10 ac 99 bd
       -0.16420484 -0.09463869 0.16265741 -0.075035214
0002d0 80 4b d5 bc 3f c3 70 bd f3 ce 65 be d0 41 0c bd
       -0.026036978 -0.05877995 -0.22442226 -0.03424245
0002e0 15 31 c5 bc 30 42 d7 3d 67 65 9d be a5 3e a2 3d
       -0.024071256 0.10510671 -0.30741426 0.07922105
0002f0 f7 46 3d 3d 2d ec 0a be c8 49 5b 3d ba cb c1 bd
       0.046210255 -0.13566656 0.05353716 -0.09462686
000300 d8 3f 92 bd ef 61 fc 3d 70 03 03 bd 2b 59 da 3d
       -0.071410835 0.12323367 -0.0319857 0.10661539
000310 55 d9 16 3d 1f ad 47 bd 8a f1 fd 3d bf 64 46 be
       0.036828358 -0.048749086 0.123995855 -0.19374369
000320 7d 4a 9d bd 17 ac a2 bd 0d 17 33 be 17 9e a0 bd
       -0.07680223 -0.0794298 -0.17489262 -0.07842653
000330 3c 7c 82 bd 9c 18 9d bd 32 3f 36 bd f4 d2 05 3d
       -0.06371352 -0.076707095 -0.04449386 0.032671884
000340 10 bf 04 be 75 7e f7 bc 9b 28 db 3d 77 9f 3f bd
       -0.1296351 -0.030211667 0.10701104 -0.046782937
000350 c8 da f2 bd 88 be 03 be b0 b0 e0 3c 46 2d a5 bd
       -0.118581355 -0.1286565 0.027428001 -0.08065276
000360 13 89 d6 bd 06 79 d7 bd 17 30 11 be c8 b4 53 3c
       -0.104753636 -0.1052113 -0.14178501 0.01292152
000370 76 1b e4 bd 6d ea 9c bc 51 a6 3c be a6 b0 44 be
       -0.1113805 -0.019154752 -0.1842282 -0.19208011
000380 09 22 33 bd 60 8e 2e 3d 36 8a cc bd 08 36 e1 3c
       -0.04373363 0.042616248 -0.09987299 0.027491584
000390 e0 8e 8f be ae c2 3e be 2b 18 be bd aa 42 89 be
       -0.28038692 -0.18628952 -0.092819534 -0.26808673
0003a0 3b 79 b5 bd 2c 70 34 bc 1f 70 35 be 82 94 51 bc
       -0.088610135 -0.011013072 -0.17718552 -0.012791755
0003b0 1c 0c de bb f3 9e 29 be 11 5a 9e bd b9 33 82 bd
       -0.006776346 -0.1656454 -0.077320226 -0.063575216
0003c0 8d 83 af bc 5d 3a eb bd 6c 00 32 3e 85 59 d0 3d
       -0.021425033 -0.11485741 0.17382973 0.101733245
0003d0 97 6c a5 be 44 ad f6 3d eb 5a cf bd 04 9c a8 ba
       -0.3230941 0.120447665 -0.10124763 -0.0012863879
0003e0 0f 00 dd 3b ff 16 69 3d 60 60 36 be 93 e2 01 3e
       0.0067443918 0.056906696 -0.17810202 0.12684087
0003f0 7e 14 df 3d 7a 2a 17 be 90 b8 1d 3d 54 01 01 3e
       0.108925804 -0.14762297 0.03850609 0.12598163

bias f4 [64]
000000 9b 22 8d be 83 ae e8 be 90 f6 c1 be 57 14 72 be
       -0.27565464 -0.45445642 -0.37883425 -0.23640572
000010 68 e8 91 bf 34 82 83 be 76 c0 be 3e 0a ae 1d bf
       -1.139905 -0.25685275 0.3725621 -0.6159369
000020 98 36 10 be d4 57 c8 be 5f 18 13 bf 15 a3 da be
       -0.14083326 -0.39129508 -0.5745906 -0.42702547
000030 d3 db 25 be 43 f9 83 be 19 77 aa be 35 b4 2b bf
       -0.16197138 -0.2577611 -0.3329399 -0.6707185
000040 c7 2b cf bd 95 cd a8 be 60 c6 92 be ee be 5d be
       -0.10115772 -0.32969347 -0.28666973 -0.21654865
000050 3f b6 7b bf b0 b4 8f be 7d 43 8c be 10 98 1c bf
       -0.9832496 -0.2806754 -0.2739524 -0.6116953
000060 1b ce e1 bd e5 de 4e bf 73 41 99 be a8 b2 27 bf
       -0.110256396 -0.8080886 -0.29932746 -0.6550698
000070 15 10 29 bf 81 04 20 be 09 ea 7b be 2d 18 00 bf
       -0.66040164 -0.15626718 -0.24600996 -0.5003689
000080 dd bd c5 be b8 38 ad be da 3d 25 bf 44 16 c0 bd
       -0.38621417 -0.33832335 -0.64547503 -0.09379247
000090 8b 85 31 be b9 8e 98 bd a6 29 b3 be 2a 1f a5 be
       -0.17336099 -0.07449097 -0.34992713 -0.3225034
0000a0 1a 88 63 bf 75 f1 b4 3e bc ae 6b be c8 5c 22 be
       -0.8887955 0.35340467 -0.23015875 -0.15855706
0000b0 88 d6 77 bd 2d 68 02 bf cf b3 9d be 90 5f 00 bf
       -0.060507327 -0.5094021 -0.30801246 -0.50145817
0000c0 c1 da 02 bf 5d d7 8d be 45 48 92 be d3 85 df be
       -0.5111504 -0.27703372 -0.28570762 -0.43656787
0000d0 ba a3 39 bf db 78 a5 be 0e d2 85 be cd d1 1e be
       -0.7251545 -0.32318768 -0.26136822 -0.1550972
0000e0 f8 d8 cd be c8 d0 f1 be 0c a8 ea be 34 b0 8c be
       -0.40204597 -0.472296 -0.45831335 -0.27478182
0000f0 5c 23 d6 be 00 79 dd be 59 a3 34 bf 1a f9 f3 be
       -0.41823852 -0.43256378 -0.7056175 -0.47650987

weight f4 [64, 64]
000000 b8 04 40 be 40 07 1e bc 9f f4 37 be 35 1f 4d 3c
       -0.187518 -0.009645283 -0.1796441 0.012519647
000010 ee 0e 8a be e6 22 3a be 41 06 ec be 8e f6 6b be
       -0.26964515 -0.18177375 -0.4609852 -0.23043272
000020 be 25 bc bd 62 66 3b 3e 64 61 5e 3d 82 30 96 bd
       -0.09186886 0.18300775 0.054292098 -0.07333471
000030 5f 91 c3 3d 99 77 a7 bd fe 99 f0 bd e0 a4 b0 3d
       0.09549212 -0.08177108 -0.11748122 0.086251974
000040 05 25 87 3d 1f 44 4a be 97 48 da bd 2d 1a fd bd
       0.06598858 -0.19752549 -0.10658377 -0.12358508
000050 70 7f db 3c 1a 13 48 3d 09 be 18 be 36 36 c9 3d
       0.026794165 0.04884634 -0.14916243 0.09824793
000060 38 84 e3 bd 02 32 fb 3d b4 04 15 3c 3d f2 7b 3d
       -0.11109203 0.122653976 0.00909536 0.061510313
000070 b9 90 12 bf 13 87 df bd 2c 27 f7 3d 74 eb 66 3e
       -0.5725208 -0.10914435 0.12068018 0.22550756
000080 c0 28 f5 3c f8 3a 8d 3c e5 96 21 3d 53 37 53 bd
       0.029926658 0.017240033 0.039450545 -0.051566433
000090 9f 7c 84 be b0 1e 10 3c f5 c7 68 be a0 8a 28 bc
       -0.25876328 0.008796379 -0.22732528 -0.010286957
0000a0 8f d1 a2 bd e1 fd 2b be 17 17 1f 3e 7f 97 d3 3d
       -0.079501264 -0.16796066 0.15536152 0.1033163
0000b0 9c 12 0c bd 3c c4 1d bd 36 94 ea be 43 39 d0 be
       -0.034197435 -0.03851722 -0.458162 -0.40668687
0000c0 28 ec e5 3c 8e dc f6 3d 7d 40 3b 3c 84 36 b9 bd
       0.02806671 0.12053786 0.011428949 -0.09043601
0000d0 2d 49 90 be 09 c9 38 3e 91 99 b1 3d d7 cd d9 bc
       -0.2818083 0.18045439 0.086718686 -0.02658741
0000e0 7c 4c 7c 3d 7c 8b 37 be e0 37 82 3d 96 c9 dc bd
       0.06159638 -0.17924303 0.063583136 -0.10780637
0000f0 31 87 a1 be bf 03 c3 3e 6c 4d 20 bd 76 ad e9 3d
       -0.31548455 0.38088796 -0.039136335 0.11410038
000100 99 3d 4c be 24 51 d2 bd d6 f6 80 bd 90 10 77 bd
       -0.19945373 -0.102693826 -0.0629708 -0.06031853
000110 28 a2 cb bc 18 84 f8 bd 14 bc 34 3c e4 ea db bd
       -0.024857596 -0.1213457 0.011031169 -0.10738161
000120 df 32 01 be 98 5c 40 bd 3c 86 a3 bd a0 6d 78 3d
       -0.12617062 -0.046963304 -0.079845876 0.06065142
000130 e6 7e 1f be 64 aa 11 bd 95 9d 73 bd c0 aa 9c bd
       -0.15575752 -0.035562888 -0.059476454 -0.076497555
000140 b6 d7 2b bd f6 79 d2 3d c4 f4 be bd af b0 1e bd
       -0.041953765 0.102771685 -0.09324029 -0.038742717
000150 78 fb e4 bd 11 c3 8f bd 6a c1 96 bd 0a 9a 83 3d
       -0.11180776 -0.07019628 -0.073611096 0.06425865
000160 ce d7 d3 bd fc 6b c6 bd cc c2 58 bd 11 bf c0 bd
       -0.10343896 -0.09688565 -0.052920148 -0.09411443
000170 87 05 05 be b2 ad 3e be c0 57 19 bd ee 17 89 bd
       -0.1299039 -0.18620947 -0.0374372 -0.06694017
000180 50 e2 88 3d 78 2f da 3d 29 0a ac bd d6 fe 5c be
       0.06683791 0.10653585 -0.084003754 -0.21581587
000190 00 88 0e 3a 94 68 72 bd bc 40 4e 3d a6 2b cd bd
       0.00054371357 -0.059181765 0.050354704 -0.10018091
0001a0 e8 f2 0c bd 56 f4 dd bd f0 27 0e be bb c4 26 be
       -0.03441134 -0.10837619 -0.13882422 -0.16285984
0001b0 1c a8 a4 bd 2c aa e4 3d c7 8f 02 be a6 78 2a be
       -0.08039877 0.1116527 -0.12750159 -0.16647586
0001c0 ae 1d c0 3d 30 07 25 be b0 ac a8 3d 00 bf 2f 3a
       0.09380661 -0.16116023 0.082360625 0.00067041814
0001d0 7a b3 ff 3d e8 b2 cd bd be 49 cd 3d 23 cf 16 be
       0.12485404 -0.10043889 0.10023831 -0.14727454
0001e0 20 30 6b bc 08 62 de bd 10 3e a4 bc 04 84 ed bd
       -0.014354736 -0.10858542 -0.020049125 -0.115974456
0001f0 b6 ea d3 bd 6d aa 05 be f0 00 7d bc ba 0a fd 3d
       -0.10347502 -0.13053294 -0.015442118 0.123555616
000200 35 a5 a4 be 10 c4 22 be 06 b4 9c 3e 3a 2d e5 3b
       -0.32157293 -0.15895104 0.30606097 0.006993917
000210 95 df 25 bf 81 9a 8c bf 42 2a 68 3f 5f f5 90 be
       -0.64794284 -1.0984651 0.9068948 -0.28312203
000220 cc 01 28 bf 64 4f 09 bd 4e a9 9e be 99 92 8e be
       -0.6562774 -0.03352298 -0.30988544 -0.2784622
000230 28 e0 05 be 5f 40 df 3d 15 d1 d6 bd 4b 1b 17 bf
       -0.1307379 0.1090095 -0.10489098 -0.5902602
000240 56 8e a9 be 2c 75 cd 3e 0b c0 91 bc 12 93 97 be
       -0.33116406 0.40128458 -0.017791769 -0.29604393
000250 1f 8c b6 be d2 73 d4 bd 4c 0c 4c be fc f2 34 be
       -0.3565378 -0.103736535 -0.19926566 -0.17670816
000260 6e cd 48 be b0 c5 4e 3d 25 05 8d bd 89 ca 15 bf
       -0.19609615 0.0504815 -0.06885747 -0.5851217
000270 b3 fc 29 be ae 75 41 bf 0c b2 33 be dd c0 dc bd
       -0.16600303 -0.7557019 -0.17548388 -0.10778973
000280 08 8f ba 3d c2 cb 5b 3b 09 7e 55 3d 76 86 12 bf
       0.09109312 0.0033538197 0.05212215 -0.5723642
000290 e4 26 c5 be de f6 83 bd 4e 66 d4 be 35 a9 c0 bd
       -0.38506234 -0.064435706 -0.41484302 -0.09407274
0002a0 02 40 81 3b 3b dd 6c 3e 38 29 fe be 8c 96 e2 be
       0.003944398 0.23131268 -0.49640822 -0.44255483
0002b0 c1 93 a5 be 05 d2 0e be b7 28 d2 3d 7f 32 13 be
       -0.3233929 -0.13947304 0.10261672 -0.14374731
0002c0 01 23 be bc 19 3f 4c be 8d 6c 3d be 64 81 97 bd
       -0.02321005 -0.19945945 -0.1849844 -0.07397726
0002d0 b3 2a cf be 3e a5 5f be 00 85 f3 bd 23 ce b2 3d
       -0.40462264 -0.21840379 -0.11890602 0.08730724
0002e0 c4 60 6e be 83 72 c4 be 8d ce f3 bd 65 eb 1a be
       -0.232791 -0.38368616 -0.11904631 -0.15128858
0002f0 64 a4 56 be 29 b0 a1 3d d0 6d 36 3d 33 e2 aa 3d
       -0.20961148 0.07894928 0.04453832 0.08343925
000300 1f aa d0 bd 5a 18 a4 3d ee a4 fa bc e1 0a bf be
       -0.10188698 0.08012457 -0.030596223 -0.37312987
000310 b1 3b a1 bd 4d 48 52 bf b4 4a 95 be fb c3 2b be
       -0.07872713 -0.8214157 -0.29158556 -0.1677398
000320 67 e3 a8 be 56 1d 1d bd a2 13 fb 3b c4 34 67 3d
       -0.32985994 -0.038358055 0.0076622525 0.056446806
000330 df 40 32 be 0d c9 04 be 98 e7 7b bd 15 32 f5 bd
       -0.17407559 -0.1296732 -0.061500162 -0.11972443
000340 e5 47 c9 ba 99 83 38 be e8 fe 65 3c b3 93 0e 3e
       -0.0015356509 -0.1801895 0.014037825 0.1392353
000350 de 9b 0b bc a6 1b be be 8d 7f c1 bd da ea de bd
       -0.008521048 -0.3713047 -0.094481565 -0.10884638
000360 76 5e cf bd db 26 93 3d 53 07 05 be b2 36 86 3c
       -0.10125439 0.071851455 -0.12991075 0.016383503
000370 6a 1c 29 bf bf 51 40 bf 36 41 cb bd 10 c9 0d 3c
       -0.6605898 -0.75124735 -0.099245474 0.008653894
000380 80 48 62 be 8e 5b 32 bd 4b 8c e1 bd 97 88 43 3d
       -0.22097969 -0.043544345 -0.11013087 0.047737684
000390 dd 73 61 bd 85 7d c3 bb f1 f1 4b be 33 3a 42 be
       -0.055042136 -0.005965891 -0.19916512 -0.18967514
0003a0 b8 53 a4 bd 70 3b fc be ab 00 46 bd e7 08 0c bc
       -0.080237806 -0.49264097 -0.04834048 -0.008547044
0003b0 a4 78 a9 bd 05 1e a4 bc 99 da 01 be 7d 8d 5a be
       -0.082749635 -0.020033846 -0.12681045 -0.21343036
0003c0 94 72 f7 bc 9b fe c3 bc 1a 97 cf bd 82 c0 c7 bd
       -0.030206002 -0.023925116 -0.10136242 -0.09753515
0003d0 aa 55 76 bd 88 08 b3 be 31 87 32 3e 4a 36 b5 3d
       -0.06014029 -0.34967446 0.17434384 0.088482454
0003e0 6d 4d 75 3d c3 15 4a be 5d 89 16 bd 70 31 24 be
       0.059888292 -0.19734864 -0.036752094 -0.16034484
0003f0 5e 08 f3 be fa 76 4f 3e 64 18 de 3d 26 b9 95 3d
       -0.4746732 0.2026023 0.10844496 0.07310705

bias f4 [64]
000000 d9 5f 89 be d6 0d c1 be a4 3a 56 3f d4 20 40 bd
       -0.26830938 -0.37705868 0.8368323 -0.046906307
000010 12 69 90 be 9a 57 5a be 3f b8 91 be 6c 22 9f be
       -0.28205162 -0.2132248 -0.2846088 -0.3108095
000020 4d c5 09 bf 0e fc b6 be be 76 f8 3e 41 3a ad be
       -0.5381668 -0.35739177 0.48528093 -0.33833507
000030 5e 48 a8 bd 26 96 e6 be a8 c5 52 be ef c8 30 be
       -0.08216928 -0.4503643 -0.20583212 -0.1726415
000040 c3 27 34 be ac b7 ce bd 41 a3 9a be f5 03 d8 be
       -0.17593293 -0.100936264 -0.30202678 -0.4219052
000050 00 af 01 bf e9 1d a5 be eb 17 da bd 0c 56 5a be
       -0.50657654 -0.32249382 -0.10649093 -0.21321887
000060 80 92 47 be f4 3b ce 3e 95 53 17 be 1e 62 7b be
       -0.19489479 0.40280116 -0.14777978 -0.24549147
000070 03 81 84 be 3e 7a d4 be 2a 57 2d be 2f 92 b3 be
       -0.25879678 -0.41499513 -0.16927782 -0.35072467
000080 a6 34 8e 3e 02 08 de be b9 ba 1c be a9 f4 d7 be
       0.27774543 -0.43365484 -0.15305604 -0.42178848
000090 7f b0 30 be dd c3 0e be 0f b8 80 be 6c 41 8b bf
       -0.17254828 -0.13941903 -0.25140426 -1.087934
0000a0 00 97 91 be ee 4f 2c 3e 05 8f 7f be df 1c e7 3c
       -0.28435516 0.16827366 -0.24956901 0.028212009
0000b0 22 59 59 be e7 03 70 be ee be 78 be f8 0d 0c bf
       -0.21225408 -0.23438989 -0.24291584 -0.54708815
0000c0 fc 23 b6 bd cc 17 d0 be f1 62 a6 be 30 82 e3 be
       -0.08893582 -0.40643156 -0.3249736 -0.44435263
0000d0 f4 ae 73 be fc 20 a0 be 74 3f 5e be f6 2f 9a be
       -0.23797208 -0.31275165 -0.21703893 -0.30114716
0000e0 c1 58 8b be 1a 2d 99 be 34 ea a8 be 86 c0 13 be
       -0.2721615 -0.29917222 -0.32991183 -0.1442891
0000f0 d1 83 13 bf 63 46 c2 be 06 1d dd be 9d 2b 9c be
       -0.5762301 -0.37944326 -0.43186206 -0.30502024

weight f4 [64, 64]
000000 d7 1b dc 3e d4 3f 18 3e 2a 9b f8 be fc ec b0 3c
       0.4298999 0.14868098 -0.4855588 0.021597378
000010 3d 09 2b 3e 82 c8 a8 3d 10 f4 87 be 33 c0 ac be
       0.16702743 0.08241369 -0.26553392 -0.33740386
000020 9e f1 34 be 67 61 22 3d 9f 47 05 be 7d 44 11 bc
       -0.17670295 0.03964367 -0.13015603 -0.008866427
000030 10 e0 4d bd bb 3f 2b 3d 05 21 80 bd 48 a5 41 3e
       -0.05026251 0.041808825 -0.06256298 0.18910706
000040 ae 72 83 be 2e e0 f3 3d 94 f1 0a be 35 eb d9 bd
       -0.2567343 0.11907993 -0.13568717 -0.10640565
000050 a0 7b 55 be 9a 1f 7d 3e ca 9d 94 bd 77 20 1f 3d
       -0.2084794 0.24719086 -0.072566584 0.03884932
000060 d8 aa d6 bc eb db 06 bd 3c 67 6f 3d 07 b5 44 3d
       -0.026204512 -0.032924574 0.05844806 0.048024204
000070 30 75 2e 3e 89 ae 3f be 5e 2d 92 3d 80 df 50 bc
       0.17036891 -0.18718924 0.07137559 -0.012748599
000080 cf 82 90 be a6 70 9c bd 05 61 a7 be 64 d0 28 bd
       -0.282248 -0.076386735 -0.32691208 -0.04121436
000090 98 fc c2 bd d5 0c a9 bd 70 88 4e 3e 0e 87 7c be
       -0.09520835 -0.08254401 0.20169234 -0.24660894
0000a0 80 6d 68 3e f6 b1 48 3e c6 36 14 bc d7 db a3 bd
       0.22698021 0.19599137 -0.009046262 -0.080009155
0000b0 10 a4 c7 bd a8 01 04 bd 80 d1 01 3e eb 14 ce 3d
       -0.09748089 -0.032228142 0.12677574 0.100625835
0000c0 7b 7a 67 3d 48 55 16 3e 7a 09 69 3d 21 ea 69 3d
       0.05651329 0.1468097 0.056893803 0.05710805
0000d0 43 ab b6 3d 82 5b a3 bd 58 e5 55 be c2 42 2a be
       0.08919384 -0.07976438 -0.20888269 -0.16627029
0000e0 6d 3b 09 3d 3c 71 b0 3d ff b1 24 3e 60 df c8 3c
       0.03350394 0.08615348 0.16083525 0.024520576
0000f0 86 8a 02 bf 87 f1 4b 3e 28 e8 33 3e ac c4 c1 3d
       -0.5099262 0.19916354 0.1756903 0.0946134
000100 df c2 9c be 72 50 50 bd ad 01 6b 3e ad d3 cb bd
       -0.30617425 -0.05085797 0.22949858 -0.09952483
000110 9d e9 22 be fe 9d 6f be 9a 35 08 3e 4b 0b 83 bd
       -0.15909429 -0.23400113 0.13301697 -0.06398638
000120 48 a6 95 3d fa d3 e3 be d1 a0 88 be c6 35 96 bd
       0.07307106 -0.44497663 -0.26685193 -0.07334475
000130 8f 6f c6 bb bc 6d e0 bd 46 ec 1e bd 65 0f 26 3e
       -0.0060557793 -0.1095843 -0.038799547 0.1621681
000140 c2 7b 2c bb 20 f4 c9 bd dc 01 31 3d fb bd 93 bd
       -0.0026318883 -0.09861016 0.043214664 -0.0721397
000150 a6 0e 55 bd 3c c2 f9 3a 31 2e 54 be a4 73 a2 be
       -0.052015923 0.0019055079 -0.20720746 -0.31728852
000160 d5 f3 21 3e 22 a5 60 bd 1a 26 ae bd 8d 0a 46 bc
       0.15815671 -0.054844983 -0.08503361 -0.012087476
000170 87 37 55 be 51 ca e3 bd ec 33 79 be f1 84 9f 3d
       -0.20821963 -0.11122573 -0.24336213 0.077890284
000180 bd 1a c3 3e f5 7d 38 3d 18 20 2e 3e 48 c2 9a bc
       0.38106337 0.045041997 0.1700443 -0.018891469
000190 91 17 81 3c f6 79 15 be db 05 49 bd 60 57 c9 bc
       0.015758308 -0.14597306 -0.04907785 -0.024577796
0001a0 b5 80 c2 3c 61 48 e3 be 38 c7 26 3e b9 40 96 be
       0.023743013 -0.44391158 0.16286933 -0.29346254
0001b0 2f 16 e3 3d 60 eb 74 3d fa 97 e2 bd ba 3e ea be
       0.110882156 0.059794784 -0.110641435 -0.45750982
0001c0 52 53 9f 3d d5 28 ba 3d 84 27 a7 bd 10 41 85 be
       0.07779564 0.09089819 -0.08161834 -0.260262
0001d0 49 36 8f be 18 79 aa bd 7f 92 dc bd 78 17 01 3c
       -0.27971104 -0.08323878 -0.107701294 0.007879131
0001e0 7c 36 f5 3d 6e bf a1 bd af 72 57 3e 27 ab 5c 3d
       0.11973283 -0.078978404 0.21039842 0.05387416
0001f0 ec 78 cb 3d 56 cb 22 3e 03 2b 62 be 87 c4 e5 3d
       0.099351734 0.15897879 -0.2208672 0.11219125
000200 d9 1b da bb 97 c8 1c be 4e 95 11 be 4a 93 ba 3d
       -0.0066561517 -0.15310894 -0.14217111 0.091101244
000210 dc 51 d5 3d 62 0c 46 be 95 9d 27 be db fa a4 bd
       0.10416004 -0.19340661 -0.16368707 -0.080556594
000220 a3 e9 31 be f3 e8 48 be 54 2f 5a be 5d 1d b9 3b
       -0.17374282 -0.19620113 -0.21307117 0.0056492523
000230 eb ef 74 be 25 5a fc 3b 2d f3 5a be d2 6c 04 3e
       -0.23919646 0.0077011758 -0.21381827 0.12932137
000240 c9 45 48 3d 3b 68 0e be cd fb 7c bd af 74 2d bd
       0.048894677 -0.13906948 -0.061763573 -0.042347606
000250 96 0a 56 be f9 3b 3a 3e c9 6a dd bb b9 1e b4 be
       -0.20902476 0.1818694 -0.0067571145 -0.3517969
000260 b6 ed 8a 3d 8e 1d 3f be b3 d4 a0 3e 8d 57 07 3e
       0.06783621 -0.18663618 0.31412277 0.13216992
000270 72 ef 65 be 66 70 5f be b6 f1 70 3d 33 32 30 3e
       -0.22454622 -0.2182022 0.058824264 0.1720665
000280 18 eb 06 be a6 34 51 3d a5 37 d3 3b 0d 1c e4 bd
       -0.13175619 0.0510756 0.0064458423 -0.11138163
000290 75 b2 27 be 82 b8 7e 3d 3f fd ce bc 99 c6 85 bd
       -0.1637667 0.06218768 -0.025267242 -0.0653202
0002a0 ab dd 8c bc d2 dc c1 bd e7 d0 8f be a7 54 11 be
       -0.017195543 -0.09465946 -0.28089067 -0.14192449
0002b0 f8 e4 7e bd 8f 80 a3 3c 0c ec ea 3c 77 5e 68 bd
       -0.06223008 0.019958762 0.028677009 -0.056730714
0002c0 00 64 65 bc 59 8c d7 bd 4f 91 10 bd 81 84 ab bd
       -0.014000893 -0.10524816 -0.035294827 -0.083748825
0002d0 50 ef d5 bd 9a 8e 28 3d 96 6d f6 bd 10 1a 89 3c
       -0.10446036 0.04115162 -0.120326206 0.01673606
0002e0 21 70 80 3d d0 cf d3 bd 7b e9 55 be 00 12 70 3d
       0.06271387 -0.103423715 -0.20889847 0.058610916
0002f0 68 c7 54 3b d3 e1 cb 3e b1 32 86 be ef 9a c5 bd
       0.0032467488 0.39820728 -0.2621055 -0.09648692
000300 6d b9 3e 3e 46 54 3f bd 8c 04 2c bd 06 85 af 3c
       0.18625422 -0.04671123 -0.041996524 0.021425735
000310 60 9a a5 bd 20 06 12 be 9b a0 78 3e 8d 50 b4 bd
       -0.08086085 -0.14260149 0.24280016 -0.08804426
000320 97 60 73 be 08 8e 87 be 54 19 e3 3d fa 32 16 be
       -0.23767315 -0.2647555 0.11088815 -0.14667884
000330 b4 a8 3d be 50 f6 85 bd c3 eb 8a be 7f 43 10 3d
       -0.18521386 -0.06541121 -0.27132997 0.03522062
000340 f8 8f 44 bd ce 61 48 be ae 88 53 be c1 38 9f bd
       -0.04798886 -0.1956856 -0.20657608 -0.07774497
000350 91 8d 10 be 54 38 70 3e 9c 8b ed bc f5 c2 f6 be
       -0.14116503 0.23458987 -0.028997235 -0.48195615
000360 b4 ee c6 bc 0a 34 e5 bd 0b 89 1b 3e 7c c1 c8 bc
       -0.024283744 -0.11191566 0.15188996 -0.024506323
000370 96 3c 66 bd 0e 52 00 be fa 22 14 3c 8e e4 4b 3e
       -0.056210123 -0.12531301 0.009041542 0.19911405
000380 a7 30 a7 bd 05 18 35 be 51 82 97 3d d6 46 7d be
       -0.081635766 -0.17684944 0.07397903 -0.24734053
000390 99 3d 50 bd 02 4e 91 be 24 4e 5c be 94 6f 9a be
       -0.050839994 -0.28379828 -0.21514183 -0.30163252
0003a0 ea c5 da bc 02 4e 3b bf 62 15 6f be 9c 3a df 3b
       -0.0267057 -0.73165905 -0.23348 0.0068124067
0003b0 2f 9c 9d be 2a 32 62 be 90 04 e5 3b 13 dd 88 be
       -0.3078322 -0.22089449 0.0069890693 -0.26731166
0003c0 b6 40 02 3d bd ba b1 bd 5e 5e 1f be 9a b4 10 be
       0.031799994 -0.086781956 -0.15563342 -0.14131394
0003d0 fa c2 85 be e9 b5 8f be b5 62 5d bd e4 43 b4 3d
       -0.26125318 -0.28068474 -0.054049212 0.088020116
0003e0 6b 46 e1 3d 03 56 b6 bd 6a f1 32 3d a2 6a a2 bb
       0.10999759 -0.08903124 0.04368726 -0.0049565593
0003f0 fe 5e 76 3d e2 73 bf be c0 d2 84 bd f1 05 ab 3d
       0.060149185 -0.373931 -0.0648551 0.083507426

bias f4 [64]
000000 cd df 0c bf 08 20 b2 bf 04 2f 95 be bf bf 28 be
       -0.5502899 -1.3916025 -0.29137433 -0.16479395
000010 39 73 30 bf 5f 3f f4 bd b6 53 aa bd 13 ad 44 be
       -0.68925816 -0.119261496 -0.08316748 -0.19206648
000020 2c a5 84 be f9 a9 fa bd 33 68 25 be 01 1a db 3f
       -0.25907266 -0.12239451 -0.1615303 1.7117311
000030 05 eb 4d be 83 ed 40 be a0 7c 0b bd 3b 0d e2 bd
       -0.20109184 -0.18840604 -0.0340544 -0.1103768
000040 7f dc 32 be 2b 7c 65 be ef 24 a9 bf 5d 5a a1 be
       -0.17466925 -0.22410648 -1.3214396 -0.31514254
000050 8e ea 22 3f 67 df c1 be 36 5c 98 3f ed 89 d0 be
       0.6363915 -0.37865755 1.190314 -0.4073023
000060 0b 52 f1 bd 75 72 c8 be cb 8f 05 bf 04 fc 26 be
       -0.117832266 -0.39149824 -0.52172536 -0.16307074
000070 0b 2d d8 be b1 24 2f bf c6 fe 3d be fd c3 84 be
       -0.42221865 -0.6841536 -0.1855422 -0.25930777
000080 15 21 c7 be 6e 57 10 be 13 04 67 bd 15 80 06 bf
       -0.38892427 -0.14095852 -0.05640037 -0.5253919
000090 18 47 e7 bd ab 4e 49 be 53 b1 94 be a0 46 d3 be
       -0.11292857 -0.19658916 -0.29041538 -0.4126482
0000a0 95 50 bc be a0 07 82 bf 1c c5 03 be 0a 9c 31 be
       -0.3678023 -1.0158577 -0.1286816 -0.1734468
0000b0 45 16 fe be 1d 72 fa 3f d5 81 28 bf 4c 9d b6 be
       -0.49626365 1.9566075 -0.6582311 -0.35666883
0000c0 c6 89 96 be 32 ee 8c be 83 a5 f7 be d6 25 e7 be
       -0.29401988 -0.2752548 -0.48368463 -0.45146054
0000d0 f5 ff 6a be fe 81 98 be 75 99 a8 be 22 ed cf be
       -0.22949202 -0.29786676 -0.32929578 -0.40610605
0000e0 ef 11 68 be a9 c6 57 be 42 fa c9 be 56 1d 1b bf
       -0.22663091 -0.21071877 -0.39448744 -0.6059164
0000f0 81 20 f4 3f c3 f8 e6 be a1 8f 80 be bb 2b ab bd
       1.907242 -0.45111665 -0.2510958 -0.0835795
