mlartifacts/554351476986166068/2d850b23ba544fd6aeeffad79831cf3f/artifacts/models/Model_dim64_layers5_experiment/r2_score0.5303050676429986_run14/data/model.pth (torch, 294728 bytes, 13 tensors)

weight f4 [64, 801]
0.09754751 -0.11606833 -0.07985959 0.10286658 -0.065697566 -0.03989051 -0.034120232 0.13119824
0.12049227 -0.14986324 0.09208229 -0.17608072 0.1888345 0.024478652 0.026033318 -0.3428712
-0.19010732 -0.11984342 0.14683782 -0.13501689 -0.18149494 -0.014510265 -0.0003229423 -0.022833312
0.14896373 0.11871358 0.043362558 0.094716184 -0.23897064 0.049491126 -0.45357895 0.18496515
0.1301444 -0.18308698 -0.04776855 0.0761678 -0.0105189085 0.01626164 -0.18418156 0.086909704
0.34005615 -0.018975556 -0.19661827 0.010237584 -0.09422978 0.07486955 0.0680797 -0.08799158
-0.15771213 -0.066896714 0.22304797 -0.0063956203 0.19774228 -0.2080115 0.004070846 0.02778484
-0.14657876 0.5229476 0.0726668 0.05874615 0.05882524 -0.018578786 0.11402486 0.11268319
0.0035154133 0.1795126 0.0101724295 0.08714742 -0.050493307 0.04335601 0.048788644 -0.018496199
0.16034143 0.016886314 0.21037222 0.2571382 -0.09065366 0.037042104 -0.43613714 0.058147896
0.25794923 0.0079649985 0.2525191 -0.06355675 -0.113286786 -0.1041496 -0.17662174 -0.02279599
-0.080546126 -0.09957867 -0.032574862 0.0754227 -0.22501288 0.11958495 -0.025445113 0.13219461
0.0151948985 -0.054735884 -0.09833268 0.19051048 -0.065304816 -0.035849847 -0.05140577 -0.027747575
0.029776257 -0.24253811 0.14984466 -0.44058725 -0.05105838 -0.0075477846 0.032704696 -0.062829174
-0.12460742 -0.020349095 -0.07512039 0.03869412 -0.025472507 -0.26562458 -0.019741012 0.123955324
0.14105523 0.1018656 0.0077774185 0.1861939 -0.07446622 0.06843061 0.045388512 -0.057078138
0.012787602 -0.19214164 -0.04683913 0.09117759 0.028739646 -0.21301633 -0.052216258 0.020050028
-0.066062875 -0.3201169 -0.033311903 -0.08296289 -0.044422474 -0.14153656 0.0014489873 0.12040024
-0.0021844804 0.08158604 -0.033919506 -0.033258133 0.08822582 0.07663844 0.22700709 -0.021512717
0.025844952 -0.15536612 -0.06900011 0.119437344 -0.14479816 0.10324817 -0.06352492 0.004666499
-0.10359498 -0.024496492 -0.031511012 -0.045646045 0.030251794 -0.15964292 0.0022003807 -0.021226123
-0.013019887 -0.025480652 0.019713692 -0.034898844 0.038080703 0.16222169 0.021639746 0.091108315
-0.09916927 -0.020518301 -0.018872133 0.030120164 -0.08004452 -0.07623796 0.0093722455 0.00817963
-0.0950846 0.1531173 -0.2718797 -0.049512196 -0.03828856 -0.046150755 0.09977369 -0.24545898
0.010224165 0.024241883 0.094984554 -0.010186204 -6.822001e-05 -0.15109468 0.020484421 -0.085851625
0.056940306 -0.11366779 0.072772495 -0.027340949 -0.115729935 -0.01848337 0.06811087 -0.12577243
-0.13669083 -0.12697902 0.08971098 -0.084810436 -0.24728987 0.05974773 0.118064076 0.31549048
0.029473241 0.3112886 -0.087093964 0.07804676 0.17543252 -0.0517026 -0.092673376 0.0051003327
-0.15118372 -0.10010748 -0.20353515 0.016045729 0.06423617 -0.04210744 -0.0054411823 -0.2337192
-0.10913223 -0.00082289695 0.002760197 0.00034452887 -0.006097701 0.074356884 -0.3409007 0.07655601
-0.043553572 -0.11845438 0.10554095 -0.00813453 0.008699475 -0.11544931 -0.1248677 0.12981547
-0.013766134 -0.027454179 -0.019714864 0.017279256 -0.0098016905 0.12107912 -0.15238103 -0.014849596
00000000: fdc6 c73d 3cb5 edbd 6d8d a3bd b7ab d23d
00000010: 728c 86bd 3b64 23bd a8c1 0bbd d558 063e
00000020: a7c4 f63d c075 19be a495 bc3d 814e 34be
00000030: d55d 413e 7487 c83c d343 d53c d08c afbe
00000040: 7eab 42be 7870 f5bd a75c 163e de41 0abe
00000050: cfd9 39be 76bc 6dbc 9550 a9b9 ed0c bbbc
00000060: f389 183e 1b20 f33d f09c 313d 8ffa c13d
00000070: b8b4 74be 35b7 4a3d 803b e8be 8167 3d3e
00000080: 9344 053e 277b 3bbe f5a8 43bd ddfd 9b3d
00000090: 8057 2cbc 2137 853c 179a 3cbe b7fd b13d
000000a0: d71b ae3e a072 9bbc 4d56 49be 8abb 273c
000000b0: 8bfb c0bd 3555 993d 5f6d 8b3d ee34 b4bd
000000c0: 4a7f 21be 2501 89bd b066 643e 5a92 d1bb
000000d0: f47c 4a3e f700 55be bb64 853b 089d e33c
000000e0: be18 16be e5df 053f 55d2 943d ce9f 703d
000000f0: bcf2 703d 8a32 98bc de85 e93d 72c6 e63d
00000100: d962 663b 27d2 373e 43aa 263c 597a b23d
00000110: 12d2 4ebd 1296 313d 9ad6 473d 5785 97bc
00000120: 8b30 243e 2b55 8a3c d16b 573e 9ea7 833e
00000130: a0a8 b9bd 76b9 173d 5e4d dfbe 7d2c 6e3d
00000140: ec11 843e a07f 023c 2f4a 813e 0b2a 82bd
00000150: e702 e8bd 634c d5bd 54dc 34be a8be babc
00000160: 5ef5 a4bd e7ef cbbd 386d 05bd 3777 9a3d
00000170: c769 66be f4e8 f43d 4572 d0bc 065e 073e
00000180: 06f4 783c bc32 60bd a562 c9bd 2e15 433e
00000190: 88be 85bd 4ad7 12bd db8e 52bd e24e e3bc
000001a0: 56ed f33c e95b 78be e170 193e a794 e1be
000001b0: 9822 51bd 6853 f7bb 5cf5 053d 95ac 80bd
000001c0: 2d32 ffbd 25b3 a6bc b8d8 99bd ba7d 1e3d
000001d0: b8ab d0bc f2ff 87be e7b7 a1bc 4adc fd3d
000001e0: c870 103e e99e d03d b7d9 fe3b 9da9 3e3e
000001f0: bf81 98bd 5925 8c3d 4ee9 393d c4ca 69bd
00000200: 1783 513c c7c0 44be 63da 3fbd 51bb ba3d
00000210: 686f eb3c f420 5abe b7e0 55bd f53f a43c
00000220: f94b 87bd 5de6 a3be 1072 08bd 73e8 a9bd
00000230: 57f4 35bd f6ee 10be f2eb bd3a 6794 f63d
00000240: 8029 0fbb 9516 a73d 2eef 0abd ae39 08bd
00000250: bdaf b43d 9df4 9c3d 8c74 683e 703b b0bc
00000260: cbb8 d33c 4c18 1fbe ee4f 8dbd 919b f43d
00000270: f845 14be c773 d33d 5a19 82bd 6ee9 983b
00000280: 9b29 d4bd deac c8bc b111 01bd 59f7 3abd
00000290: 9cd2 f73c 6f79 23be 4334 103b 68e2 adbc
000002a0: 5d51 55bc cdbc d0bc 9c7e a13c 17f2 0ebd
000002b0: 83fa 1b3d 711d 263e d645 b13c ff96 ba3d
000002c0: 4219 cbbd ff15 a8bc bb99 9abc 90be f63c
000002d0: 62ee a3bd a622 9cbd 0c8e 193c db03 063c
000002e0: b7bb c2bd c8ca 1c3e d133 8bbe 4dcd 4abd
000002f0: 77d4 1cbd 9308 3dbd 2656 cc3d 9959 7bbe
00000300: 4283 273c ea96 c63c 4387 c23d 09e4 26bc
00000310: 5711 8fb8 90b8 1abe f2ce a73c fad2 afbd
00000320: 3d3a 693d a9ca e8bd bf09 953d 20fa dfbc
00000330: d103 edbd 706a 97bc b67d 8b3d 7dca 00be
00000340: aef8 0bbe ca06 02be 64ba b73d 18b1 adbd
00000350: 8e39 7dbe 09ba 743d 94cb f13d f887 a13e
00000360: de71 f13c 3861 9f3e 525e b2bd fbd6 9f3d
00000370: 95a4 333e 1bc6 53bd 8acb bdbd b120 a73b
00000380: e8cf 1abe 2705 cdbd 856b 50be 5572 833c
00000390: 418e 833d da78 2cbd f24b b2bb 1654 6fbe
000003a0: b880 dfbd aeb7 57ba 6ce4 343b e2a1 b439
000003b0: 39cf c7bb 6c48 983d 898a aebe 66c9 9c3d
000003c0: 3b65 32bd 3698 f2bd db25 d83d b146 05bc
000003d0: 3e88 0e3c b070 ecbd a3ba ffbd 59ee 043e
000003e0: 5a8b 61bc 96e7 e0bc 1181 a1bc 3a8d 8d3c
000003f0: 4597 20bc 54f8 f73d c609 1cbe b84b 73bc

bias f4 [64]
-0.03890856 -0.0029006733 0.020321453 0.05145612 0.043337226 0.006098627 0.023992198 0.004587439
0.027873486 -0.043467104 -0.022555357 -0.033958767 0.04952158 -0.048520785 -0.034070443 -0.012550742
0.0032605664 0.03015196 -0.0024219106 0.016090473 -0.046852857 -0.03725339 -0.0013320269 -0.042252697
0.012793568 -0.033492617 0.043871485 -0.040446743 -0.01454964 0.01720618 -0.012814977 -0.04498246
-0.007180565 -0.009740598 -0.047853816 -0.020802218 0.038672242 0.007912731 -0.019834563 -0.008727664
0.007593569 0.02790122 0.02059042 -0.022193614 0.06327717 -0.02032629 -0.0041173245 -0.05218378
0.06098809 -0.01859532 -0.00051570905 -0.0016688578 -0.031719454 0.013601944 0.030206395 -0.0060211676
-0.015987588 0.0072651836 0.024457937 0.027554467 0.03590646 -0.016712956 0.02414043 -0.0076286294
00000000: 955e 1fbd 3919 3ebb 2d79 a63c a7c3 523d
00000010: 6082 313d fed6 c73b 498b c43c 3a52 963b
00000020: f056 e43c 900a 32bd 03c6 b8bc 5918 0bbd
00000030: 24d7 4a3d bbbd 46bd 738d 0bbd a1a1 4dbc
00000040: 3aaf 553b 3e01 f73c ebb8 1ebb 2bd0 833c
00000050: c8e8 3fbd 0397 18bd 6897 aeba 2a11 2dbd
00000060: 1d9c 513c 8e2f 09bd 96b2 333d 7cab 25bd
00000070: 9d61 6ebc faf3 8c3c e9f5 51bc 873f 38bd
00000080: f24a ebbb 0797 1fbc 5d02 44bd 6a69 aabc
00000090: c966 1e3d 66a4 013c 187c a2bc 7afe 0ebc
000000a0: 79d3 f83b 1991 e43c 3ead a83c 62cf b5bc
000000b0: 7697 813d 5283 a6bc 9fea 86bb a9be 55bd
000000c0: a6ce 793d 3655 98bc a630 07ba 93bd daba
000000d0: 42ec 01bd b0da 5e3c 6773 f73c 374d c5bb
000000e0: 67f8 82bc c710 ee3b 035c c83c e8b9 e13c
000000f0: a712 133d 9ce9 88bc 27c2 c53c 95f9 f9bb

weight f4 [64, 64]
-0.020850897 -0.018099835 -0.06397737 -0.0091316635 0.01047315 0.023688287 0.1579836 -0.18825518
-0.033051245 0.043926384 -0.10543597 0.0917989 -0.21985525 0.18687199 0.08132943 -0.15540162
-0.076387174 -0.022045746 -0.04255288 0.13964713 0.06819347 -0.051828787 -0.15215188 -0.1216263
0.12292812 0.061172117 0.14269012 -0.22617154 -0.03702834 -0.105517104 -0.22824275 -0.0787594
0.47723177 0.09419852 0.05736199 0.11935134 0.14965902 0.30391142 0.040829286 -0.124527395
-0.071038604 0.10282714 0.1438979 0.039928854 -0.032532454 0.066500925 0.032592524 -0.0648091
0.0456549 0.13106972 -0.009335207 -0.09706006 0.04814276 0.058490053 0.055083405 0.06276777
-0.05640064 0.12203342 0.2535947 0.084844835 0.1393541 0.06994054 0.31437424 0.29754314
0.06596389 -0.23312871 -0.107690185 -0.17919946 0.024516204 0.033892557 0.057750355 -0.055124618
0.018566191 0.03364189 0.01909002 0.04422337 -0.13081008 -0.043323386 0.09430983 0.022958
-0.049316697 -0.048923656 -0.11488889 -0.08902639 -0.05018545 0.023539746 -0.15204382 0.052024573
-0.055325635 0.079820395 0.054034397 -0.0120724095 0.017772049 0.10213776 -0.13551545 0.018329235
-0.013612079 0.03892954 -0.11699161 0.10269002 -0.13736013 -0.07888967 -0.0010652716 -0.09535486
0.0854426 0.06593574 -0.06691727 0.036891818 -0.097969644 -0.038640972 -0.114952 -0.01632281
0.0043142964 0.002184103 0.11402834 -0.11705781 0.007310805 -0.12899493 -0.16759749 -0.06091944
0.03195685 0.032793477 -0.18235219 -0.10688797 0.079273455 0.09516698 -0.0774755 -0.1465186
0.018797519 -0.23788157 -0.28419626 -0.020212892 -0.21254371 0.03497961 -0.20004606 -0.012296166
-0.09889991 -0.06565127 0.033878222 0.11871675 0.15731756 0.13583721 -0.045095112 -0.050594836
0.076189734 0.11339715 -0.022670375 -0.061840843 -0.11832222 0.0835522 -0.16876042 0.14454268
-0.023506103 0.10993966 -0.07079644 0.04084837 -0.07385891 -0.027446488 -0.15647388 0.014826908
0.20078428 -0.020905009 0.06268128 0.07991946 -0.23580594 0.19859743 -0.04630862 -0.106709816
0.0019572526 0.0939225 -0.084663406 -0.06437226 -0.20685032 -0.029819414 0.0750953 0.062265497
-0.07082802 -0.064906225 -0.020553166 -0.021372765 0.09293159 -0.044219006 -0.12552011 0.06813841
0.04092674 0.07373476 0.1958718 -0.046330925 0.06093638 -0.002778414 -0.13443428 0.14089353
-0.086332254 -0.01660516 -0.120240726 0.32668796 0.106471166 0.10601045 -0.020296693 -0.12872773
0.25205424 -0.04806808 0.08930284 -0.06028919 -0.13685162 -0.09134674 0.09236128 0.10439221
0.09760033 0.09465361 0.010080903 0.069771506 0.016806953 -0.056860343 0.06067915 -0.22418952
-0.117956646 0.097856835 -0.036124796 -0.028682316 -0.09984184 -0.0067696534 -0.15051673 0.112090416
0.106385216 0.002588489 -0.09759604 -0.017410185 0.07446928 0.34304452 -0.059577186 -0.04231243
-0.06654382 0.4666494 0.2364047 0.12394284 -0.17281634 0.08928194 0.08544295 -0.088412374
-0.16111332 0.03649145 0.09772111 -0.108121924 -0.060584992 0.05330923 0.11648524 0.02591796
0.098858744 0.055459358 0.10740032 0.045053035 0.041343886 0.17308468 0.25034374 0.17419481
00000000: 80cf aabc 1b46 94bc 9106 83bd f99c 15bc
00000010: 9397 2b3c f00d c23c 74c6 213e f7c5 40be
00000020: be60 07bd 27ec 333d d0ee d7bd 1001 bc3d
00000030: bc21 61be 5f5b 3f3e 0b90 a63d 9a21 1fbe
00000040: e170 9cbd 4899 b4bc ee4b 2ebd a8ff 0e3e
00000050: 05a9 8b3d 6c4a 54bd b4cd 1bbe 3617 f9bd
00000060: bdc1 fb3d 9d8f 7a3d 5c1d 123e 8399 67be
00000070: 07ab 17bd 5a19 d8bd 78b8 69be 9c4c a1bd
00000080: b957 f43e 27eb c03d 68f4 6a3d 7a6e f43d
00000090: 3740 193e 479a 9b3e 9c3c 273d 3808 ffbd
000000a0: b07c 91bd 0997 d23d f959 133e 708c 233d
000000b0: c040 05bd a331 883d bd7f 053d a2ba 84bd
000000c0: a200 3b3d 2437 063e b2f2 18bc 6dc7 c6bd
000000d0: 5831 453d 4493 6f3d 239f 613d 638c 803d
000000e0: 5c04 67bd a8ec f93d 2ad7 813e 21c3 ad3d
000000f0: d7b2 0e3e fc3c 8f3d a9f5 a03e 9357 983e
00000100: 1318 873d 4bb9 6ebe ac8c dcbd 1080 37be
00000110: 35d6 c83c ecd2 0a3d a38b 6c3d 5aca 61bd
00000120: 2018 983c 14cc 093d ac62 9c3c 9023 353d
00000130: 14f3 05be dd73 31bd 8325 c13d 6a12 bc3c
00000140: 4e00 4abd 2c64 48bd de4a ebbd 7853 b6bd
00000150: 428f 4dbd 6dd6 c03c 60b1 1bbe b817 553d
00000160: 229d 62bd e078 a33d 2c53 5d3d 5bcb 45bc
00000170: b096 913c 9a2d d13d 90c4 0abe 3127 963c
00000180: 3305 5fbc 9574 1f3d 4c99 efbd 254f d23d
00000190: 22a8 0cbe e890 a1bd 95a0 8bba 6949 c3bd
000001a0: 88fc ae3d 5109 873d ec0b 89bd e01b 173d
000001b0: 4fa4 c8bd ff45 1ebd f46b ebbd 6ab7 85bc
000001c0: f15e 8d3b 2b23 0f3b b187 e93d 01bc efbd
000001d0: 7a8f ef3b 3f17 04be ad9e 2bbe aa86 79bd
000001e0: 30e5 023d 7452 063d 88ba 3abe 14e8 dabd
000001f0: 1f5a a23d e8e6 c23d 7aab 9ebd f908 16be
00000200: 41fd 993c 3a97 73be 2c82 91be 8295 a5bc
00000210: 0fa5 59be c846 0f3d e0d8 4cbe dc75 49bc
00000220: 098c cabd 2c74 86bd e4c3 0a3d c421 f33d
00000230: db17 213e e918 0b3e a7b5 38bd 883c 4fbd
00000240: 5d09 9c3d c43c e83d 39b7 b9bc d34c 7dbd
00000250: ec52 f2bd 6a1d ab3d 88cf 2cbe ff02 143e
00000260: df8f c0bc 0b28 e13d b9fd 90bd 9f50 273d
00000270: 5743 97bd 75d7 e0bc b03a 20be 8fec 723c
00000280: 659a 4d3e fb40 abbc 0b5f 803d d0ac a33d
00000290: 1d77 71be 205d 4b3e 1cae 3dbd ad8a dabd
000002a0: 4045 003b 715a c03d 0264 adbd 9ad5 83bd
000002b0: 92d0 53be d847 f4bc 91cb 993d 1b0a 7f3d
000002c0: 480e 91bd 8eed 84bd 1d5f a8bc f015 afbc
000002d0: eb52 be3d fd1e 35bd 5888 00be 278c 8b3d
000002e0: cca2 273d 4002 973d 9e92 483e 7fc5 3dbd
000002f0: 6d98 793d 0d16 36bb 24a9 09be 6546 103e
00000300: f7ce b0bd 8b07 88bc c540 f6bd a543 a73e
00000310: 8e0d da3d 021c d93d 4045 a6bc 34d1 03be
00000320: 410d 813e 09e3 44bd 68e4 b63d ccf1 76bd
00000330: d522 0cbe 0014 bbbd e927 bd3d 95cb d53d
00000340: afe2 c73d c0d9 c13d 5f2a 253c 5de4 8e3d
00000350: bcae 893c 64e6 68bd b38a 783d f091 65be
00000360: 4193 f1bd 2a69 c83d 98f7 13bd 2df7 eabc
00000370: e179 ccbd f8d3 ddbb 0f21 1abe a98f e53d
00000380: 7ee0 d93d a4a3 293b 6fe0 c7bd ce9f 8ebc
00000390: 5a83 983d 88a3 af3e 3507 74bd cc4f 2dbd
000003a0: 2048 88bd acec ee3e 1314 723e bed5 fd3d
000003b0: c4f6 30be 73d9 b63d b7fc ae3d 8c11 b5bd
000003c0: e4fa 24be 0f78 153d 0122 c83d 076f ddbd
000003d0: f827 78bd c75a 5a3d d08f ee3d e751 d43c
000003e0: 7476 ca3d 5a29 633d b3f4 db3d 8889 383d
000003f0: 3558 293d 1c3d 313e 0e2d 803e 2060 323e

bias f4 [64]
-0.0707817 0.03287538 0.07901 -0.102057934 0.11662806 0.065345526 0.08323212 0.05138218
-0.016678648 -0.042034384 -0.14767516 0.058093965 -0.03710498 -0.05578614 -0.06796928 -0.03384807
0.03696504 0.10979368 0.024803553 -0.058911905 0.06263048 -0.0144925155 0.06301068 -0.06560819
-0.10289256 -0.040414464 -0.16641279 -0.0949531 -0.015755532 0.03213786 0.092885636 -0.0044106008
-0.014313645 0.08042687 -0.0017924978 -0.08943856 -0.068354726 -0.00981829 -0.061167352 -0.14462174
0.03304494 0.17226416 -0.01448818 -0.086426534 -0.04888863 0.05270719 -0.07355711 -0.07157203
0.08491683 0.08156065 -0.06807028 0.13595958 0.031935327 0.12269021 0.099622004 0.0015514938
-0.0628148 0.05827874 -0.13088974 0.13228345 -0.03905056 -0.025952231 -0.057356697 -0.19180696
00000000: fff5 90bd 56a8 063d ffcf a13d c003 d1bd
00000010: b1da ee3d e0d3 853d 9a75 aa3d 1f76 523d
00000020: a9a1 88bc 3f2c 2cbd 2838 17be f0f3 6d3d
00000030: 64fb 17bd 0280 64bd 7a33 8bbd 46a4 0abd
00000040: a768 173d 82db e03d d230 cb3c 9c4d 71bd
00000050: 6944 803d 0472 6dbc be0b 813d 965d 86bd
00000060: 56b9 d2bd a389 25bd 1d68 2abe c576 c2bd
00000070: bf11 81bc fda2 033d d33a be3d cd86 90bb
00000080: c783 6abc d8b6 a43d 3ff2 eaba 902b b7bd
00000090: 90fd 8bbd e5dc 20bc 9e8a 7abd b917 14be
000000a0: 225a 073d 0466 303e d55f 6dbc 6500 b1bd
000000b0: 723f 48bd 7fe3 573d 1ca5 96bd 5b94 92bd
000000c0: e0e8 ad3d 4509 a73d 6e68 8bbd fd38 0b3e
000000d0: 9ece 023d 0145 fb3d 9f06 cc3d 7e5b cb3a
000000e0: 0ca5 80bd b0b5 6e3d f607 06be 5075 073e
000000f0: 7bf3 1fbd c699 d4bc dbee 6abd 0b69 44be

weight f4 [64, 64]
-0.12638119 -0.090670556 0.1029629 0.076561525 -0.08305951 -0.06818204 0.07435888 0.104531206
-0.019191477 0.08297871 -0.023597838 -0.031242043 0.027023751 -0.06846039 -0.0007273406 -0.12806086
-0.12979884 0.07847478 -0.12292723 0.09419216 -0.053447336 -0.07098378 -0.031533204 -0.06484381
0.07722749 -0.0299312 0.024046272 0.021923952 0.018045045 -0.075908095 -0.1122858 0.021680059
0.096634254 -0.11011902 0.040888257 -0.026511312 0.0082646385 -0.053271912 -0.044096544 0.053327344
0.07117301 0.09925425 -0.0867966 0.09701234 0.10183579 -0.074263856 -0.05573784 0.06838215
-0.09771314 -0.12469672 -0.048571095 -0.063519485 0.064941734 -0.12481906 -0.09315111 -0.0975246
-0.07381737 0.104063295 0.08539724 -0.002699395 -0.10419346 -0.0075971293 -0.0716985 0.07519394
0.1616439 -0.14609428 0.0034555877 -0.104723275 -0.06405946 -0.043057706 -0.10926198 0.016197342
-0.20339741 -0.024379566 -0.23853064 -0.026730709 0.0015416406 -0.19801399 -0.11735239 -0.030920437
0.16489413 -0.07245654 -0.12793584 0.100974284 0.13877314 -0.25236177 -0.10924171 -0.1880756
0.018234093 0.005090071 0.09862646 0.025940113 0.104497045 0.047576178 0.021907397 0.09820354
0.02284991 -0.0068076523 -0.107884 0.08866988 0.016198725 0.14153752 0.102191575 -0.22976078
0.034058366 -0.11509075 0.05521259 -0.13500336 0.108545676 0.06257675 -0.13719463 0.019958604
0.026331423 -0.077443846 0.053656533 0.029729908 -0.025193702 -0.03877319 0.065306805 0.048954066
0.078249805 -0.3689945 -0.012778446 0.025857951 0.08692733 -0.12581258 0.05839362 -0.18682496
0.054518465 0.0413514 0.15111274 -0.121109165 -0.16634867 -0.16774811 0.084571354 0.11109988
-0.17486373 0.074787065 -0.13555641 0.02122307 0.061075397 -0.09427074 0.023430882 0.060158312
0.087679625 -0.04733068 0.08682983 0.06521642 0.18930282 -0.0065373746 -0.07015446 -0.13412818
0.09412658 -0.061774824 0.08104457 -0.23594591 0.22859281 -0.06051636 -0.10535895 0.14395386
-0.03629554 -0.048345327 -0.106172375 0.130255 -0.092305295 0.11934318 0.15634002 -0.037332308
0.09181415 0.06464726 -0.013674439 -0.057325162 -0.06966786 -0.025138557 -0.043094397 0.088786416
0.004123037 -0.2527317 0.06641478 0.07536658 0.017723761 0.05287517 0.109409705 0.002923351
-0.06181059 -0.38710153 0.06473675 0.0958672 0.023177598 -0.013635309 0.018885294 0.07733406
0.21237126 -0.019768888 -0.042817906 0.20924814 0.122598946 -0.078993484 -0.013570097 -0.07608934
0.06056258 -0.0016717638 0.13731895 0.07533838 0.088077985 0.14406982 0.22951223 -0.058204755
-0.21511097 0.03721014 -0.19811109 -0.13755877 -0.10431434 -0.04098407 -0.09648295 0.014392948
0.054451186 -0.14355136 0.07792819 -0.017774902 0.21656534 0.02831473 0.04265188 -0.27088016
0.07113111 0.030596629 -0.058612008 -0.020282991 0.050078075 0.07364014 0.13543467 0.01891881
-0.12532394 0.06312524 0.06384503 -0.065793626 -0.05417149 0.12934606 0.106482126 -0.0144654205
0.16656382 0.05450138 -0.042960323 -0.17737296 -0.029412821 -0.08578073 0.052658368 0.105947204
0.2543236 0.14940646 -0.40350986 -0.11332058 0.21957263 -0.045187473 -0.08981143 0.08702944
00000000: 126a 01be 7cb1 b9bd 37de d23d 4acc 9c3d
00000010: 1b1b aabd 06a3 8bbd 7849 983d 7514 d63d
00000020: 7237 9dbc bef0 a93d 4150 c1bc 50ef ffbc
00000030: ea60 dd3c f634 8cbd 00ab 3eba 6322 03be
00000040: fde9 04be 63b7 a03d 46c1 fbbd d2e7 c03d
00000050: 98eb 5abd f25f 91bd f628 01bd d5cc 84bd
00000060: 7229 9e3d 4732 f5bc b0fc c43c dc99 b33c
00000070: 34d3 933c b475 9bbd 19f6 e5bd 619a b13c
00000080: 2ee8 c53d 1586 e1bd 727a 273d 402e d9bc
00000090: 6868 073c a633 5abd 949e 34bd c66d 5a3d
000000a0: 28c3 913d d045 cb3d 6ac2 b1bd 68ae c63d
000000b0: 488f d03d a617 98bd 5c4d 64bd f10b 8c3d
000000c0: d41d c8bd fe60 ffbd 7cf2 46bd 8116 82bd
000000d0: 2c00 853d 23a1 ffbd 02c6 bebd faba c7bd
000000e0: 902d 97bd 231f d53d c0e4 ae3d 55e8 30bb
000000f0: 6163 d5bd 57f1 f8bb aad6 92bd 48ff 993d
00000100: fb85 253e bd99 15be 2477 623b 2879 d6bd
00000110: 9b31 83bd 475d 30bd bfc4 dfbd 4ab0 843c
00000120: 6947 50be a8b7 c7bc 6041 74be 5cfa dabc
00000130: e010 ca3a 2ec4 4abe 7356 f0bd db4c fdbc
00000140: 02da 283e 1864 94bd 9d01 03be 9bcb ce3d
00000150: 8c1a 0e3e 9035 81be 1eba dfbd e496 40be
00000160: aa5f 953c 9cca a63b abfc c93d 5c80 d43c
00000170: 8c02 d63d 3ddf 423d 2477 b33c f01e c93d
00000180: bc2f bb3c ba12 dfbb 49f2 dcbd 8e98 b53d
00000190: 30b3 843c 36ef 103e d149 d13d 6946 6bbe
000001a0: c980 0b3d b3b4 ebbd 9926 623d 523e 0abe
000001b0: 324d de3d 3d28 803d c07c 0cbe 3a80 a33c
000001c0: ffb4 d73c e19a 9ebd f4c6 5b3d 238c f33c
000001d0: 0663 cebc a3d0 1ebd 93bf 853d 0f84 483d
000001e0: 6f41 a03d d9ec bcbe b05c 51bc 0ed4 d33c
000001f0: f506 b23d 03d5 00be 262e 6f3d 0b4f 3fbe
00000200: c14e 5f3d 1660 293d 4cbd 1a3e 1508 f8bd
00000210: 4e57 2abe 29c6 2bbe bf33 ad3d 5588 e33d
00000220: 7a0f 33be f629 993d 4dcf 0abe 01dc ad3c
00000230: 322a 7a3d 0511 c1bd 1ff2 bf3c 9068 763d
00000240: 6091 b33d d1dd 41bd d7d3 b13d 3090 853d
00000250: 99d8 413e 7937 d6bb 24ad 8fbd e658 09be
00000260: 70c5 c03d 9907 7dbd b2fa a53d ce9b 71be
00000270: 3c14 6a3e 01e0 77bd 6fc6 d7bd a468 133e
00000280: a2aa 14bd c005 46bd e770 d9bd 9161 053e
00000290: 8f0a bdbd 326a f43d 9917 203e c3e9 18bd
000002a0: 0f09 bc3d c865 843d c10a 60bc cacd 6abd
000002b0: 06ae 8ebd 60ef cdbc c083 30bd a7d5 b53d
000002c0: 8b1a 873b 0d66 81be 7904 883d cb59 9a3d
000002d0: 6c31 913c a293 583d 3212 e03d b195 3f3b
000002e0: 1a2d 7dbd 2c32 c6be b494 843d 0656 c43d
000002f0: f2de bd3c a266 5fbc 55b5 9a3c 5261 9e3d
00000300: da77 593e 5df2 a1bc d461 2fbd 2545 563e
00000310: 2815 fb3d 56c7 a1bd 1d55 5ebc bad4 9bbd
00000320: 7810 783d 161f dbba 579d 0c3e 024b 9a3d
00000330: 3b62 b43d 0a87 133e 4105 6b3e 1c68 6ebd
00000340: 0d46 5cbe a969 183d a2dd 4abe 35dc 0cbe
00000350: c2a2 d5bd eade 27bd da98 c5bd 66d0 6b3c
00000360: 3508 5f3d 21ff 12be d198 9f3d ac9c 91bc
00000370: 4ec3 5d3e 4bf4 e73c bdb3 2e3d ceb0 8abe
00000380: 30ad 913d c8a5 fa3c 2513 70bd 8428 a6bc
00000390: ab1e 4d3d a4d0 963d 63af 0a3e 9ffb 9a3c
000003a0: eb54 00be ce47 813d 2fc1 823d cfbe 86bd
000003b0: ede2 5dbd 4b73 043e 4d13 da3d 5f00 6dbc
000003c0: b58f 2a3e d73c 5f3d 2af7 2fbd 42a1 35be
000003d0: 28f3 f0bc cfad afbd 4db0 573d d9fa d83d
000003e0: b436 823e 02fe 183e d898 cebe 9f14 e8bd
000003f0: a6d7 603e 8016 39bd 0eef b7bd 7e3c b23d

bias f4 [64]
-0.13131532 0.11392928 0.16395153 -0.078657456 0.036610894 -0.058102995 0.04009164 0.21403769
0.1300618 0.13702996 -0.16607983 0.2149221 0.021623233 0.10575779 -0.11630185 0.09704435
-0.2024005 -0.058134656 0.1046099 -0.19917227 -0.052971385 0.20396546 -0.07286559 0.10979874
-0.10514565 -0.016653152 0.038600087 -0.023500694 -0.025366036 -0.12594976 -0.15918744 0.011515412
-0.023423592 -0.13507572 0.07585883 -0.15863931 -0.0591004 -0.10029761 -0.18587299 -0.17125918
0.0073324377 -0.09545244 -0.13092394 0.22866914 -0.14167975 0.14524473 0.19435185 0.13983698
0.002882028 0.26724175 0.10829428 -0.0052226107 0.059537485 -0.051756006 0.024518844 0.09074809
0.019786509 -0.17667918 0.15283728 -0.16955844 0.0063753226 -0.006586253 0.11530422 -0.14446563
00000000: 8677 06be c153 e93d e9e2 273e 2917 a1bd
00000010: 4ef5 153d 68fd 6dbd 2237 243d b22c 5b3e
00000020: ec2e 053e 9551 0c3e d510 2abe 8a14 5c3e
00000030: 3523 b13c 8a97 d83d aa2f eebd 30bf c63d
00000040: 1442 4fbe 9b1e 6ebd b73d d63d d1f3 4bbe
00000050: 86f8 58bd 52dc 503e 8e3a 95bd 29de e03d
00000060: 9a56 d7bd 316c 88bc 201b 1e3d 8784 c0bc
00000070: 6fcc cfbc f9f8 00be 0802 23be 23ab 3c3c
00000080: d5e2 bfbc 4a51 0abe e05b 9b3d 5872 22be
00000090: 4313 72bd d568 cdbd 7d55 3ebe 915e 2fbe
000000a0: f244 f03b 927c c3bd ed10 06be 3e28 6a3e
000000b0: 7f14 11be 09bb 143e 2c04 473e 6d31 0f3e
000000c0: 68e0 3c3b e9d3 883e 64c9 dd3d 6f22 abbb
000000d0: 94dd 733d 1bfe 53bd bedb c83c 22da b93d
000000e0: 5117 a23c 63eb 34be 6081 1c3e baa0 2dbe
000000f0: 15e8 d03b 7fd1 d7bb 9e24 ec3d ccee 13be

weight f4 [64, 64]
0.018342366 0.19437136 -0.2084712 0.05193565 0.084434375 0.026392493 -0.02679055 -0.10950693
0.03505166 -0.0320111 -0.045212965 -0.12620893 -0.12118144 -0.20871817 -0.019075606 -0.1935989
0.09569909 0.1002929 -0.015024347 0.071350485 0.09309818 0.08187683 -0.09415728 0.045854785
-0.05021396 -0.08133496 -0.07294103 -0.064128555 -0.040202934 -0.0008685682 0.07309773 0.18276727
0.03542533 -0.016712537 0.027845444 0.022174127 0.056037556 0.13735647 0.11051136 0.17549396
-0.080487736 0.00837859 -0.01799633 -0.13107625 0.034272846 -0.08170136 -0.048128024 0.111278005
0.053855814 -0.26884428 -0.09201699 0.01449105 -0.08321252 0.07650636 0.07147996 -0.0399348
-0.10562838 0.0071120462 -0.045899775 -0.019616736 0.0685722 -0.026187247 -0.08241615 0.038529247
-0.08478072 0.06220816 0.053652562 -0.09251657 -0.18238004 0.046533447 0.13057487 0.031978514
0.10863445 0.05413755 -0.16779678 0.07574038 -0.09530531 -0.21138568 -0.1144665 0.018330561
0.09114915 0.0794065 -0.12515396 0.27569085 0.12134629 0.001883282 -0.05518859 0.12682445
-0.021883024 0.051695026 0.0497247 0.030576743 -0.3055852 -0.04722657 0.0016059815 -0.040674046
-0.19385381 0.01204973 0.16260156 -0.012018148 -0.10436068 0.15628922 0.041026928 0.030928172
-0.07239339 0.05922001 0.012214623 0.017067509 -0.040709894 0.029015005 0.18248221 -0.04646193
0.063505314 0.12263945 0.1788391 0.146501 -0.2029733 -0.036730696 0.0852066 0.037935212
0.11201645 -0.047654606 0.14964409 0.1974061 0.13976964 -0.16726096 0.09960371 0.13657783
-0.08992611 -0.10808023 0.12554578 -0.024662592 -0.031738646 -0.15046994 0.06755031 -0.014297672
-0.0927741 -0.09248235 0.09163515 0.117979854 0.068726465 0.13022737 -0.10047149 0.09706973
-0.07668682 -0.11024998 -0.009747397 -0.032269474 -0.064300485 -0.115988344 -0.08518405 -0.073980264
-0.017271414 -0.029943535 -0.21698289 -0.024039272 -0.0076297596 -0.018513996 -0.100352086 -0.050012816
-0.093136534 -0.11495599 0.15191355 0.07825878 -0.013458733 -0.04571043 0.1115603 0.07647519
0.07547276 0.05542453 0.033251427 0.103691965 -0.1323044 -0.07476287 -0.12434238 0.01948874
-0.091817 0.08783312 0.054020025 -0.046576727 0.121895745 -0.11646327 -0.014561528 -0.11052126
-0.0047338232 -0.13358386 -0.02579504 -0.13993591 0.10955384 -0.06817281 -0.11416295 0.034999564
0.052755702 0.16227669 0.08290621 -0.12688577 0.0021334086 0.10372506 -0.044339824 0.008829328
0.21676376 0.06991049 -0.014920181 0.16295111 0.05334679 0.14700378 -0.048140854 0.14987032
-0.22626452 0.07703918 0.16141754 -0.22651431 0.116651736 0.11584431 -0.0030216572 0.11156023
0.028816389 -0.058698647 0.007909669 0.09736276 -0.06723186 0.004897967 0.033523653 0.009456789
-0.11396106 0.030865045 0.024689926 -0.062337328 -0.025665542 0.17909586 0.026083175 0.15435351
-0.06341292 0.0030935998 -0.056568097 0.031088011 -0.11435668 0.12439493 0.07480399 0.08763661
0.057726175 0.12849508 0.17517145 -0.03830875 0.15001963 -0.0688003 0.11022247 -0.038912885
-0.03428044 0.020603104 0.16096795 -0.10325592 0.1532313 0.03449239 0.058714952 0.26990765
00000000: bb42 963c 4909 473e 7979 55be 7aba 543d
00000010: eeeb ac3d 1235 d83c db77 dbbc 2b45 e0bd
00000020: 5492 0f3d 121e 03bd 3b31 39bd ea3c 01be
00000030: fa2d f8bd 37ba 55be 7244 9cbc ca3e 46be
00000040: e2fd c33d 5d66 cd3d ae28 76bc 3420 923d
00000050: 42aa be3d 0aaf a73d 88d5 c0bd 3ad2 3b3d
00000060: 27ad 4dbd f292 a6bd 1b62 95bd d555 83bd
00000070: d5ab 24bd a0b0 63ba 43b4 953d 5827 3b3e
00000080: 271a 113d bbe8 88bc 211c e43c 84a6 b53c
00000090: a387 653d 2da7 0c3e c853 e23d b0b4 333e
000000a0: c1d6 a4bd 5b46 093c 0a6d 93bc da38 06be
000000b0: af61 0c3d 0b53 a7bd e421 45bd b9e5 e33d
000000c0: ea97 5c3d f5a5 89be 6773 bcbd de6b 6d3c
000000d0: 536b aabd 5eaf 9c3d 1664 923d ac92 23bd
000000e0: b153 d8bd 2b0c e93b 6701 3cbd 47b3 a0bc
000000f0: 956f 8c3d a386 d6bc ccc9 a8bd d8d0 1d3d
00000100: 84a1 adbd fccd 7e3d cac2 5b3d 5479 bdbd
00000110: d5c1 3abe db99 3e3d 6bb5 053e e7fb 023d
00000120: bd7b de3d 56bf 5d3d ebd2 2bbe c61d 9b3d
00000130: 6e2f c3bd 7d75 58be 6a6d eabd f929 963c
00000140: 68ac ba3d e09f a23d 5c28 00be 5a27 8d3e
00000150: 6784 f83d 75d8 f63a 6e0d 62bd 45de 013e
00000160: 0744 b3bc 2abe 533d 21ac 4b3d 147c fa3c
00000170: aa75 9cbe a670 41bd cc7f d23a d499 26bd
00000180: 9d81 46be 3b6c 453c 0681 263e c4e7 44bc
00000190: 0dbb d5bd 480a 203e da0b 283d 145d fd3c
000001a0: fc42 94bd ae90 723d d81f 483c 29d1 8b3c
000001b0: 6bbf 26bd e0b0 ed3c 9edc 3a3e dd4e 3ebd
000001c0: 130f 823d 642a fb3d 9921 373e 5c04 163e
000001d0: 3cd8 4fbe ed72 16bd cc80 ae3d f461 1b3d
000001e0: e168 e53d 7a31 43bd 4d3c 193e d324 4a3e
000001f0: c61f 0f3e 7546 2bbe 08fd cb3d 0fdb 0b3e
00000200: 2e2b b8bd 2b59 ddbd 138f 003e 3409 cabc
00000210: 6200 02bd cb14 1abe d157 8a3d c840 6abc
00000220: 5900 bebd 6367 bdbd 36ab bb3d 6c9f f13d
00000230: 76c0 8c3d 535a 053e ffc3 cdbd 7fcc c63d
00000240: fb0d 9dbd beca e1bd 8cb3 1fbc ff2c 04bd
00000250: f9af 83bd 4c8b edbd fa74 aebd f782 97bd
00000260: c87c 8dbc 254c f5bc c330 5ebe 02ee c4bc
00000270: 1003 fabb aaaa 97bc 6585 cdbd 3dda 4cbd
00000280: 5ebe bebd 0c6e ebbd 3a8f 1b3e 2446 a03d
00000290: 0582 5cbc dc3a 3bbd ba79 e43d 069f 9c3d
000002a0: 7691 9a3d d504 633d a632 083d 745c d43d
000002b0: ce7a 07be 471d 99bd 38a7 febd daa6 9f3c
000002c0: 8d0a bcbd dae1 b33d 1a44 5d3d 3dc7 3ebd
000002d0: 7aa4 f93d 4b84 eebd 7a93 6ebc f858 e2bd
000002e0: 301e 9bbb 35ca 08be 1f50 d3bc 5c4b 0fbe
000002f0: c35d e03d 309e 8bbd 44ce e9bd b45b 0f3d
00000300: 5d16 583d dc2b 263e bbca a93d 58ee 01be
00000310: a8d0 0b3b ce6d d43d ad9d 35bd e3a8 103c
00000320: 52f7 5d3e 3b2d 8f3d c673 74bc a8dc 263e
00000330: 2a82 5a3d 2988 163e 582f 45bd 9b77 193e
00000340: e3b1 67be b8c6 9d3d a44a 253e 5ef3 67be
00000350: 1be7 ee3d c83f ed3d ff06 46bb b179 e43d
00000360: 5910 ec3c fe6d 70bd 8e97 013c 2066 c73d
00000370: dbb0 89bd 207f a03b 1950 093d a6f0 1a3c
00000380: 6b64 e9bd b1d8 fc3c 8742 ca3c 6d55 7fbd
00000390: 8b40 d2bc e864 373e 62ac d53c d90e 1e3e
000003a0: a2de 81bd febd 4a3b f3b3 67bd 49ac fe3c
000003b0: d633 eabd c5c2 fe3d d632 993d d37a b33d
000003c0: 4872 6c3d 3794 033e 2560 333e a3e9 1cbd
000003d0: bf9e 193e 2ce7 8cbd 51bc e13d 1e63 1fbd
000003e0: a669 0cbd d7c7 a83c c8d4 243e d777 d3bd
000003f0: aae8 1c3e e447 0d3d 177f 703d 5631 8a3e

bias f4 [64]
-0.10275748 0.14986424 0.012618939 0.30768818 -0.029400753 -0.14623298 -0.11648936 -0.12769905
0.26489595 0.12818995 -0.092593044 -0.029394386 -0.10813296 -0.15462217 0.2280089 -0.120712966
-0.1414566 -0.15202151 0.1354893 -0.056187626 0.034623355 -0.084620066 0.079879515 0.2482182
-0.14032358 0.28795132 -0.11687097 -0.025252905 0.104120165 0.1377679 0.10328822 -0.0957585
-0.05303795 -0.0051850188 0.09022918 0.0065296493 0.27908668 -0.27934018 0.0025685274 -0.05817
0.010924059 -0.15666345 -0.052972496 0.0023632494 -0.06673927 0.24706708 -0.07791637 -0.008588264
-0.0970169 0.0402749 0.26055032 -0.14844185 0.016887955 0.2822038 0.29280013 -0.04742022
-0.027739147 -0.045208666 -0.22635554 0.030137943 0.2163715 0.10177123 0.042299002 0.34376848
00000000: 8472 d2bd 0376 193e abbf 4e3c 4e89 9d3e
00000010: d9d9 f0bc 19be 15be f991 eebd 8ac3 02be
00000020: 71a0 873e 3a44 033e 6ca1 bdbd 7fcc f0bc
00000030: d074 ddbd 4655 1ebe 2a7b 693e 5c38 f7bd
00000040: 00da 10be 87ab 1bbe b5bd 0a3e ff24 66bd
00000050: 38d1 0d3d 494d adbd df97 a33d e92c 7e3e
00000060: fcb0 0fbe 5b6e 933e 0c5a efbd 2edf cebc
00000070: f43c d53d 0713 0d3e c688 d33d 081d c4bd
00000080: 523e 59bd 17e7 a9bb 14ca b83d abf6 d53b
00000090: 73e4 8e3e ad05 8fbe bd54 283b aa43 6ebd
000000a0: d3fa 323c 626c 20be b0f9 58bd bfe0 1a3b
000000b0: 99ae 88bd 27ff 7c3e 9e92 9fbd cab5 0cbc
000000c0: ccb0 c6bd 4bf7 243d da66 853e 2401 18be
000000d0: 9c58 8a3c 047d 903e e6e9 953e b43b 42bd
000000e0: 353d e3bc b92c 39bd bfc9 67be d9e3 f63c
000000f0: 7e90 5d3e 6f6d d03d b841 2d3d 6c02 b03e

weight f4 [64, 64]
-0.04487945 -0.010278091 0.018578783 -0.0015136054 -0.1128691 -0.09907478 -0.046726897 0.004592091
0.015322444 0.018400058 -0.061086267 0.11593942 -0.021528572 -0.02429094 -0.097732514 -0.026131451
-0.015178174 0.02626133 0.0122401565 -0.027807772 -0.06110251 -0.099839725 0.060860634 -0.11547536
-0.027831849 -0.071792096 -0.07951559 0.017969266 0.09321056 -0.0116175115 0.09541933 0.052810013
-0.009015232 0.017386928 -0.12088856 -0.023976848 0.08679959 0.07445465 0.04754041 0.010035485
-0.10359785 -0.029376075 -0.0593182 -0.045239687 -0.04607722 -0.07147618 -0.11904614 -0.11914341
0.08325162 0.0012619644 -0.060658183 0.007118218 0.03580384 -0.005930975 0.050601 0.06544408
0.028584033 0.07672042 0.0381114 0.07614645 -0.10733415 0.021336354 0.0038574338 0.06483224
-0.05073219 0.06473803 -0.03335303 -0.0055964068 -0.18836828 -0.1579772 -0.07359395 0.11314449
-0.06934626 0.0047642076 -0.08548674 0.09403502 -0.0014447559 -0.037304744 -0.02145723 -0.12309265
-0.11361982 -0.055971522 -0.03507097 -0.0062321452 -0.10205487 0.0016423657 -0.049447 -0.122494005
-0.2150608 0.017544467 0.0061621196 -0.027012121 0.038599536 -0.050684396 -0.15323691 -0.004668322
-0.048424475 -0.040180888 -0.02406445 -0.10833609 -0.1484979 -0.1650001 0.013372177 -0.055776414
-0.095177315 -0.09464072 0.07157509 -0.03655713 -0.06236462 -0.014806265 0.055853035 -0.14429256
-0.0068629608 -0.13632452 -0.11701725 -0.0037793494 0.060989007 -0.102435194 0.02621011 0.030359393
-0.046409585 0.12136909 -0.19884048 -0.03854137 0.009976122 -0.04685969 -0.03039475 0.018752724
0.08306058 -0.046456087 -0.111704916 -0.11302548 0.00026672805 -0.09728089 -0.13339886 0.11562881
0.12319063 0.08340998 -0.0140236765 0.08155533 0.09060482 0.03285732 -0.020783227 0.07135509
0.05561032 -0.009723042 -0.1054351 0.0018855184 -0.037826467 -0.1478462 -0.12117312 0.0071623344
0.053819146 -0.018769639 -0.055909485 -0.15492348 0.018807111 -0.09966559 0.017121496 -0.037286654
0.056831907 0.035253722 -0.10278378 0.056800075 -0.0030203266 -0.25587535 0.016061187 0.054764222
-0.07481594 0.001641342 -0.050234344 -0.024254162 0.027862236 -0.10306936 -0.10881332 -0.043638356
-0.1541843 -0.07526551 -0.0015893875 0.08143832 -0.073616445 0.11137091 0.07767359 -0.11954386
-0.046319053 -0.08540195 -0.05478665 0.029755421 -0.062045816 -0.01708974 -0.050165664 -0.09045968
0.081142016 -0.08528286 -0.09668425 -0.086926386 -0.15754202 -0.02302345 -0.13208923 0.048862636
0.07450918 0.09084685 0.04349956 0.009558323 -0.07317337 -0.008797019 0.041396182 0.026888013
0.0114534665 0.043219257 -0.07835375 -0.026072636 -0.0707546 -0.05531578 0.054491546 -0.04028788
-0.09999576 -0.08480671 -0.02999954 0.02839714 0.011864546 0.007733433 -0.056395773 0.09319347
0.10211794 -0.08722044 -0.083742 0.11182203 0.07247777 0.035303712 0.04307209 -0.05293382
-0.13063493 -0.12821114 0.06128412 -0.038670197 -0.09835261 0.071144626 0.00097272574 0.08594306
0.060774915 -0.14977145 -0.00033688903 0.008744627 0.04950039 -0.007076363 -0.10760313 -0.1141398
-0.015433699 0.036600314 0.051782276 0.073922865 -0.017774181 0.027823359 0.058291983 -0.06796103
00000000: 84d3 37bd 7065 28bc 8832 983c 2b64 c6ba
00000010: ea27 e7bd b8e7 cabd b464 3fbd 4079 963b
00000020: fd0a 7b3c b8bb 963c 9835 7abd a671 ed3d
00000030: b05c b0bc cbfd c6bc fc27 c8bd a011 d6bc
00000040: e0ad 78bc 0022 d73c f08a 483c 20cd e3bc
00000050: a046 7abd c578 ccbd 0049 793d 587e ecbd
00000060: 9eff e3bc bc07 93bd 12d9 a2bd 4834 933c
00000070: 2ee5 be3d 6057 3ebc 366b c33d 504f 583d
00000080: a0b4 13bc 086f 8e3c 6c94 f7bd 186b c4bc
00000090: fcc3 b13d ae7b 983d bcb9 423d e06b 243c
000000a0: 1c2b d4bd 18a6 f0bc a4f7 72bd 404d 39bd
000000b0: 78bb 3cbd 1a62 92bd 76ce f3bd 7601 f4bd
000000c0: d37f aa3d 8068 a53a b774 78bd f13f e93b
000000d0: 0ca7 123d a058 c2bb ff42 4f3d 8c07 863d
000000e0: 1029 ea3c 981f 9d3d b31a 1c3d acf2 9b3d
000000f0: 02d2 dbbd 94c9 ae3c 00cd 7c3b c4c6 843d
00000100: 8fcc 4fbd 5f95 843d 309d 08bd 1062 b7bb
00000110: 9de3 40be c6c4 21be 6db8 96bd 4cb8 e73d
00000120: 6905 8ebd 121d 9c3b ac13 afbd 6f95 c03d
00000130: f75d bdba dccc 18bd 13c7 afbc 0018 fcbd
00000140: 82b1 e8bd 6542 65bd 94a6 0fbd 0637 ccbb
00000150: 2502 d1bd a644 d73a f088 4abd 23de fabd
00000160: e638 5cbe 6ab9 8f3c 9beb c93b 8648 ddbc
00000170: 8c1a 1e3d 719a 4fbd 23ea 1cbe b9f8 98bb
00000180: be58 46bd b794 24bd cf22 c5bc 50df ddbd
00000190: d50f 18be c9f5 28be fa16 5b3c cf75 64bd
000001a0: 53ec c2bd fed2 c1bd f695 923d eebc 15bd
000001b0: 0b72 7fbd fa95 72bc 27c6 643d 6ec1 13be
000001c0: b0e2 e0bb a898 0bbe bda6 efbd f6ae 77bb
000001d0: 9ccf 793d 8bc9 d1bd 96b6 d63c 43b4 f83c
000001e0: fa17 3ebd 5c90 f83d d79c 4bbe 8edd 1dbd
000001f0: e372 233c f2ef 3fbd 69fe f8bc 509f 993c
00000200: aa1b aa3d bd48 3ebd 8cc5 e4bd e779 e7bd
00000210: a2d7 8b39 343b c7bd b699 08be ccce ec3d
00000220: 5e4b fc3d dad2 aa3d 90c3 65bc 7b06 a73d
00000230: 058f b93d 6695 063d 9641 aabc 9e22 923d
00000240: a6c7 633d 654d 1fbc 5cee d7bd 8023 f73a
00000250: edef 1abd ff64 17be 9d29 f8bd 04b2 ea3b
00000260: 7771 5c3d c9c2 99bc 5801 65bd 43a4 1ebe
00000270: 5f11 9a3c 791d ccbd 6142 8c3c e4b9 18bd
00000280: 93c8 683d 3566 103d 4d80 d2bd 32a7 683d
00000290: acf0 45bb 1802 83be c092 833c 7350 603d
000002a0: 1939 99bd 4c22 d73a 87c2 4dbd aab0 c6bc
000002b0: 583f e43c 0716 d3bd 85d9 debd 22be 32bd
000002c0: 7de2 1dbe ce24 9abd ff52 d0ba 22c9 a63d
000002d0: 38c4 96bd 6f16 e43d 5513 9f3d 69d3 f4bd
000002e0: 0cb9 3dbd 38e7 aebd f767 60bd a4c1 f33c
000002f0: c123 7ebd c8ff 8bbc 837a 4dbd ed42 b9bd
00000300: c92d a63d c8a8 aebd 6402 c6bd 7606 b2bd
00000310: b252 21be ad9b bcbc 6642 07be 3024 483d
00000320: 4598 983d ea0d ba3d 982c 323d 839a 1c3c
00000330: ebdb 95bd 5f21 10bc 0b8f 293d 4044 dc3c
00000340: 52a7 3b3c ad06 313d ee77 a0bd 4896 d5bc
00000350: cae7 90bd cd92 62bd 8732 5f3d e704 25bd
00000360: 94ca ccbd 24af adbd 98c1 f5bc 1ea1 e83c
00000370: 8363 423c bd68 fd3b 41ff 66bd 38dc be3d
00000380: 3623 d13d a1a0 b2bd ed80 abbd f302 e53d
00000390: 3a6f 943d a09a 103d 5c6c 303d 22d1 58bd
000003a0: 2ac5 05be c849 03be 0f05 7b3d a464 1ebd
000003b0: 186d c9bd 46b4 913d 85fe 7e3a ea02 b03d
000003c0: 1eef 783d b05d 19be 7ba0 b0b9 a045 0f3c
000003d0: ecc0 4a3d d6e0 e7bb 085f dcbd 21c2 e9bd
000003e0: a0dd 7cbc 36ea 153d a719 543d df64 973d
000003f0: 299b 91bc d0ed e33c 93c3 6e3d 272f 8bbd

bias f4 [64]
-0.10793988 -0.018514179 0.011809664 -0.10125219 0.09308335 -0.3354872 -0.057184003 -0.03537053
-0.029265374 -0.17653564 0.011554654 0.27856863 -0.2986543 0.1698503 -0.07764508 0.046213813
0.022951752 0.1885762 0.0045630443 0.33122885 0.2948012 -0.12887007 0.01305389 -0.0769178
-0.046441216 0.1143527 -0.12643224 0.052456804 -0.06291477 -0.110300675 -0.08246982 -0.14326656
0.037286565 -0.14885816 -0.12312791 0.34187165 0.18917982 -0.06717699 -0.07503502 0.2808226
-0.122634575 -0.09951224 -0.12040932 -0.12431148 -0.025073394 0.28825483 -0.14769284 0.036411893
-0.13243586 -0.03439469 -0.049105104 0.2076575 -0.070611864 -0.13845372 -0.21791716 0.18589596
-0.14944507 0.11353684 -0.08754659 0.007725213 0.26775134 0.1614591 0.16039902 0.07496636
00000000: 950f ddbd 0cab 97bc 527d 413c 4f5d cfbd
00000010: 7ca2 be3d fac4 abbe c639 6abd b0e0 10bd
00000020: f0bd efbc c2c5 34be bb4f 3d3c 8ca0 8e3e
00000030: 37e9 98be 3ded 2d3e 6204 9fbd b24a 3d3d
00000040: 5005 bc3c 1f1a 413e 9785 953b d496 a93e
00000050: 2ff0 963e 84f6 03be fcdf 553c 1487 9dbd
00000060: 2539 3ebd c031 ea3d 7477 01be f2dc 563d
00000070: 75d9 80bd 52e5 e1bd f0e5 a8bd 78b4 12be
00000080: ccb9 183d 466e 18be 7c2a fcbd cd09 af3e
00000090: 5bb8 413e 1794 89bd f6ab 99bd fbc7 8f3e
000000a0: d627 fbbd 13cd cbbd 2999 f6bd 0497 febd
000000b0: b866 cdbc 2396 933e cb3c 17be a324 153d
000000c0: 449d 07be 72e1 0cbd 6f22 49bd 2ba4 543e
000000d0: f49c 90bd d0c6 0dbe ad25 5fbe 835b 3e3e
000000e0: 2108 19be 0186 e83d a04b b3bd c923 fd3b
000000f0: b416 893e 8955 253e a43f 243e f787 993d

weight f4 [64, 64]
-0.11406498 -0.11544785 0.060793683 0.015969768 -0.10824603 -0.0037904382 0.06594361 -0.050031632
0.047778696 0.028757125 0.06527789 -0.10895683 -0.018782914 0.034747556 0.10944864 0.0069414824
-0.06351139 0.08895381 0.013181999 -0.009690717 0.048074186 0.067561954 -0.008740589 0.12225185
-0.028226435 -0.12120354 -0.06291795 0.052827507 0.09309918 -0.053165153 0.07862884 0.07249448
0.01804559 -0.0037651956 -0.06829767 -0.06815979 0.060040668 0.06784162 0.04337211 -0.06263283
0.07087217 0.08534719 0.07028918 0.030689567 -0.042226374 0.09153144 0.12278348 -0.068473995
-0.06341137 0.06455268 -0.05407323 -0.039743587 0.09945716 -0.095251426 -0.059898898 0.07750471
-0.121441275 -0.017042324 0.098690316 -0.11822061 0.08170506 -0.08639319 -0.09036209 0.11121674
0.022841053 -0.11301821 -0.034104884 0.06670333 -0.024751814 0.1367635 0.049494356 0.13874769
0.001517502 -0.16614428 0.04261564 0.09034782 -0.062278584 -0.035345305 0.07156788 0.04049309
-0.07510728 0.13307513 -0.0679966 0.1822587 0.091086395 -0.09967633 -0.027305674 -0.08603951
0.08020762 0.07217645 0.10216613 0.20677988 -0.04869269 -0.11342448 0.06904736 0.003575969
-0.014241168 0.05973275 -0.21172413 0.091795586 0.15808304 -0.02722554 0.0068718377 0.059173707
0.069858484 -0.060952254 0.09048522 -0.027307473 0.051909488 0.06444772 -0.010636946 -0.04887449
-0.057809357 -0.009028373 -0.0010264292 -0.043207493 0.05733825 0.020641362 0.005814161 0.12897742
-0.12944591 0.14143482 -0.08670023 0.08922266 -0.038344268 -0.0028321566 0.09823832 0.0063898484
0.03695178 -0.08249202 0.09810732 0.09957273 0.0013752652 -0.06402652 0.12544894 0.011902392
0.0066366415 -0.14673315 -0.00029724836 0.061982617 -0.18541512 -0.050761595 -0.0782018 0.05208437
-0.0045904964 0.05927628 -0.05204866 0.09352434 -0.092846505 -0.021787032 0.068942085 0.12122059
-0.07158295 0.079556264 0.07192652 0.034273952 0.008959508 -0.10699293 -0.11878641 -0.12408753
-0.0483879 0.04819703 0.05472134 0.0141392015 -0.06475508 0.078911245 -0.09497982 -0.07333475
0.047547758 0.009439245 -0.011465132 -0.1483943 -0.14598821 -0.06660183 0.074470155 0.01391314
-0.11603661 -0.119862616 -0.077919155 -0.068444304 -0.09318915 -0.011184187 -0.108913034 0.02730222
0.07092383 -0.085590065 0.06898631 -0.14020303 -0.041170195 -0.04487838 -0.04397235 0.108382136
0.037101895 -0.12595415 0.08239588 -0.023556026 -0.053140055 -0.055616975 0.075563386 -0.112317085
-0.092157125 -0.058015138 -0.051164977 0.075477585 0.010967001 0.05727866 -0.010454551 -0.027591506
-0.12322195 -0.12180064 -0.045397356 0.059964195 -0.013515166 -0.022792071 0.003646642 -0.09882404
-0.06602065 0.07766402 0.0449661 -0.02221301 -0.04308915 0.048538864 0.11763528 0.015882596
0.06953578 -0.0058989143 0.06666161 0.08450063 0.072536595 0.078465745 0.015020281 -0.016564019
0.015529543 -0.0070049465 0.086355 -0.011401936 0.108660206 -0.062748834 0.082309805 -0.088282466
-0.06429289 -0.10504204 -0.07666831 -0.071323514 0.08524145 -0.12041944 -0.0919265 -0.018774033
-0.070083454 0.12403566 -0.076997295 -0.04029827 -0.08767975 -0.027385226 0.002811957 0.11281048
00000000: e69a e9bd ec6f ecbd cc02 793d 08d3 823c
00000010: 18b0 ddbd 0069 78bb 720d 873d f8ed 4cbd
00000020: 98b3 433d 1094 eb3c 6ab0 853d c224 dfbd
00000030: a0de 99bc 7453 0e3d 9c26 e03d 6075 e33b
00000040: 4212 82bd 6a2d b63d 50f9 573c d0c5 1ebc
00000050: 70e9 443d ec5d 8a3d b034 0fbc 2e5f fa3d
00000060: 203b e7bc 9039 f8bd 20db 80bd a861 583d
00000070: c8aa be3d b4c3 59bd 2808 a13d fc77 943d
00000080: 58d4 933c 80c1 76bb a6df 8bbd 5c97 8bbd
00000090: 34ed 753d 8cf0 8a3d f4a6 313d a445 80bd
000000a0: 6e25 913d 82ca ae3d c6f3 8f3d b068 fb3c
000000b0: 90f5 2cbd d674 bb3d e875 fb3d 183c 8cbd
000000c0: d2dd 81bd 3234 843d e47b 5dbd 2cca 22bd
000000d0: 32b0 cb3d 2e13 c3bd 8c58 75bd caba 9e3d
000000e0: 34b6 f8bd 589c 8bbc 261e ca3d a61d f2bd
000000f0: fc54 a73d eaee b0bd c20f b9bd 9ac5 e33d
00000100: 291d bb3c 1776 e7bd 90b1 0bbd c19b 883d
00000110: 51c4 cabc bb0b 0c3e 98ba 4a3d e013 0e3e
00000120: ebe6 c63a ba21 2abe bd8d 2e3d 4708 b93d
00000130: d417 7fbd 3dc6 10bd 2e92 923d 15dc 253d
00000140: d8d1 99bd d944 083e cd41 8bbd 06a2 3a3e
00000150: 818b ba3d 1b23 ccbd 26b0 dfbc 7c35 b0bd
00000160: e543 a43d 3fd1 933d 7a3c d13d 1bbe 533e
00000170: fc71 47bd 184b e8bd b468 8d3d ce5a 6a3b
00000180: ca53 69bc 54aa 743d 36ce 58be 53ff bb3d
00000190: 85e0 213e 1808 dfbc 272d e13b 2160 723d
000001a0: f711 8f3d 12a9 79bd 5150 b93d ecb3 dfbc
000001b0: 0b9f 543d 2bfd 833d 9646 2ebc 9e30 48bd
000001c0: 81c9 6cbd beeb 13bc 4089 86ba 57fa 30bd
000001d0: 83db 6a3d 1318 a93c b884 be3b a812 043e
000001e0: 788d 04be 4ad4 103e e48f b1bd 5fba b63d
000001f0: e10e 1dbd b49b 39bb 2c31 c93d ef61 d13b
00000200: c05a 173d 94f1 a8bd 7eec c83d caec cb3d
00000210: 3e42 b43a 5620 83bd b075 003e 4002 433c
00000220: 2f78 d93b 3741 16be 00d8 9bb9 7ce1 7d3d
00000230: 76dd 3dbe 64eb 4fbd 4428 a0bd 6c56 553d
00000240: e06b 96bb afcb 723d fa30 55bd b089 bf3d
00000250: 4f26 bebd b87a b2bc 8231 8d3d 8042 f83d
00000260: 159a 92bd 65ee a23d 364e 933d d862 0c3d
00000270: e6ca 123c 1c1f dbbd 4a46 f3bd 9a21 febd
00000280: 6432 46bd 406a 453d 7c23 603d 1ca8 673c
00000290: 509e 84bd 389c a13d c884 c2bd 8830 96bd
000002a0: 70c1 423d 10a7 1a3c 40d8 3bbc adf4 17be
000002b0: ef7d 15be 8a66 88bd cf83 983d f0f3 633c
000002c0: 9aa4 edbd 887a f5bd 1494 9fbd 872c 8cbd
000002d0: f4d9 bebd e13d 37bc cc0d dfbd e8a8 df3c
000002e0: 8340 913d d849 afbd b248 8d3d 6291 0fbe
000002f0: 14a2 28bd 64d2 37bd 5a1c 34bd 74f7 dd3d
00000300: 28f8 173d 20fa 00be 2cbf a83d 91f8 c0bc
00000310: 63a9 59bd a0ce 63bd fac0 9a3d 8006 e6bd
00000320: e0bc bcbd 48a1 6dbd 5e92 51bd fe93 9a3d
00000330: f0ae 333c 079d 6a3d 9149 2bbc 9507 e2bc
00000340: ca5b fcbd 9d72 f9bd 94f2 39bd 049d 753d
00000350: b76e 5dbc 70b6 babc 80fc 6e3b 4264 cabd
00000360: d635 87bd 500e 9f3d 602e 383d 0ff8 b5bc
00000370: 407e 30bd b0d0 463d c4ea f03d 381c 823c
00000380: c668 8e3d ae4b c1bb e285 883d ab0e ad3d
00000390: 118e 943d a6b2 a03d a017 763c 44b1 87bc
000003a0: a06f 7e3c c089 e5bb e4da b03d 30cf 3abc
000003b0: 3e89 de3d 7682 80bd 0b92 a83d 70cd b4bd
000003c0: feab 83bd 4820 d7bd 4604 9dbd 1012 92bd
000003d0: 1293 ae3d 789e f6bd f643 bcbd 00cc 99bc
000003e0: ea87 8fbd 6806 fe3d c2b0 9dbd cc0f 25bd
000003f0: 7191 b3bd fb56 e0bc cf48 383b 2e09 e73d

bias f4 [64]
-0.09447071 0.3258782 -0.24197848 -0.15397523 0.103248686 0.3751475 -0.28648725 -0.12508047
-0.11499806 -0.027921999 -0.110263266 -0.008579845 -0.0261399 -0.0039837905 0.25902405 -0.10351282
-0.042127818 0.0962093 -0.07456297 -0.03060929 0.28109294 0.25736144 -0.15244313 -0.08893178
-0.37813595 -0.19324695 0.24253057 -0.02949319 0.2128793 0.09850555 -0.040535245 0.07144907
-0.004152492 0.27421004 0.39383548 0.32120204 0.26520535 -0.016943915 0.33924997 -0.034781627
-0.036094986 -0.084002964 -0.1885967 0.1295749 0.2937988 -0.002132349 0.26617175 0.3404388
-0.44624862 -0.14528158 0.24574015 0.31814304 -0.2730455 0.22486651 -0.040602718 0.17321369
-0.3914142 0.38993543 0.32761687 0.037448917 -0.027775394 -0.066898145 0.34833142 -0.29126987
00000000: dc79 c1bd 82d9 a63e 35c9 77be afab 1dbe
00000010: 0c74 d33d 5513 c03e 75ae 92be 1815 00be
00000020: 1a84 ebbd adbc e4bc b5d1 e1bd 7a92 0cbc
00000030: 5823 d6bc 758a 82bb cd9e 843e 88fe d3bd
00000040: 388e 2cbd 6209 c53d 78b4 98bd 55c0 fabc
00000050: 6aeb 8f3e e1c4 833e 0d1a 1cbe dd21 b6bd
00000060: 099b c1be 87e2 45be ef59 783e b49b f1bc
00000070: 08fd 593e 47bd c93d 4908 26bd e453 923d
00000080: a111 88bb 4265 8c3e cea4 c93e 9874 a43e
00000090: ffc8 873e f7cd 8abc 2cb2 ad3e 2e77 0ebd
000000a0: 56d8 13bd bf09 acbd 7e1f 41be 48af 043e
000000b0: cc6c 963e e1be 0bbb aa47 883e ff4d ae3e
000000c0: b37a e4be b2c4 14be 4ea3 7b3e a5e3 a23e
000000d0: 9fcc 8bbe 6843 663e 094f 26bd ee5e 313e
000000e0: 7167 c8be 9ea5 c73e 66bd a73e 0964 193d
000000f0: 3989 e3bc e501 89bd 7f58 b23e 5321 95be

weight f4 [1, 64]
-0.09519066 0.07536424 0.033572026 -0.005940191 0.048689377 0.11544057 0.046569817 -0.105930224
-0.0019289411 0.0024863905 -0.01511459 -0.03254254 -0.04640715 -0.0029440057 0.06555396 0.006509844
-0.09258984 -0.112105 -0.12374312 -0.009210715 0.05481889 0.13003008 -0.025229363 -0.020497821
0.25646263 -0.0073493295 0.19943953 0.0069985976 0.13165437 -0.14293343 -0.0052476306 0.07992946
2.3768034e-06 0.051899333 0.1668701 0.17241776 0.068160124 -0.028941073 0.064942725 -0.007221096
0.0038706267 -0.007863868 0.022709748 0.123173416 0.12332291 -0.0035829635 0.2329084 0.11359739
0.29794693 -0.006198866 0.07054742 0.07692826 0.1547121 0.10703369 -0.009825728 0.047599506
0.24969128 0.15517399 0.15158068 -0.13968861 0.007619149 -0.0029487223 0.18389171 0.048134945
00000000: 52f3 c2bd 9158 9a3d d282 093d efa5 c2bb
00000010: 836e 473d 1b6c ec3d febf 3e3d f2f1 d8bd
00000020: 86d4 fcba b6f2 223b 2fa3 77bc 544b 05bd
00000030: 6c15 3ebd 38f0 40bb 2841 863d 8850 d53b
00000040: be9f bdbd 4e97 e5bd 086d fdbd 8ae8 16bc
00000050: c689 603d 9b26 053e cfad cebc 0ceb a7bc
00000060: 124f 833e a5d2 f0bb e039 4c3e 7e54 e53b
00000070: 67d0 063e 245d 12be 51f4 abbb 0fb2 a33d
00000080: 2c81 1f36 6594 543d ffdf 2a3e 488e 303e
00000090: 8997 8b3d d415 edbc b100 853d f29e ecbb
000000a0: 57aa 7d3b 74d7 00bc cb09 ba3c 5842 fc3d
000000b0: b990 fc3d 27d0 6abb 8a7f 6e3e c0a5 e83d
000000c0: 808c 983e db1f cbbb 2a7b 903d 908c 9d3d
000000d0: d96c 1e3e 7b34 db3d 17fc 20bc b3f7 423d
000000e0: 12af 7f3e eee5 1e3e f737 1b3e 880a 0fbe
000000f0: 0eaa f93b 5a3f 41bb 1c4e 3c3e 2629 453d
