mlartifacts/554351476986166068/7cf094388a7a42c4b161e18c047fbfc0/artifacts/models/Model_dim64_layers5_experiment/r2_score0.4546755286703545_run13/data/model.pth (torch, 294728 bytes, 13 tensors)

weight f4 [64, 801]
00000000: e2fa 313c 298e b33c 3ceb 2a3c 7524 943c
00000010: 1b54 2cbc af81 26bd 0cdc c2bc ea11 be3a
00000020: 264b e03a 2575 f3bc 0cec ae3c 12a6 8b3c
00000030: 1172 22bd b736 b43c b3c7 2abc 9b2c b0bc
00000040: 9318 0bbc 39af a7bb 3c7e 1fbc e3a8 fe3c
00000050: 392f 3dbc 1f31 0fbd edae 1d3c 25b4 c2bc
00000060: 7515 07bd 2e06 c0bc c573 89bb db00 b5bc
00000070: 8f89 2bbd c690 4a3c 4eb6 10bd 85fb cf3b
00000080: 7417 02bd 81da de3c 2c16 04bd d6c7 3bbc
00000090: f4e0 223c 8fb1 35bd ba04 29bd 32cd 47bd
000000a0: b2c7 e8bc f235 3d3c c2cb fabb 90fd b53c
000000b0: c9a8 b7bc f385 71bd eb3d f33c 94e9 bfbc
000000c0: 483b 953c c007 fe3c 8bff e7bb 3678 3cbc
000000d0: 2d48 27bd 1c4b 3c3d 3796 18bc 171d b4bc
000000e0: 9362 7fba 298e 503b 9315 10bd b605 da3b
000000f0: d5dc 64bc 591e 01bd c324 16bc 09d3 a83c
00000100: cd93 1a3d 0b4b 993c 67cc f13c 9072 e8bc
00000110: 07b1 12bd 9deb 503d 03ce 05bd e6f4 873c
00000120: d943 223d b6fd 643c 3049 d4ba bcf7 bbbc
00000130: 4333 76bb afac 44bd 42a2 b13c 29bf febc
00000140: 698c d33c 5642 0dbc b123 333c 9740 16bc
00000150: fc79 6b3d 7caa d93c c97f 113c 2417 353d
00000160: bf0d 3d3b f8f6 0bbb 0929 f5bc 857f 01bc
00000170: 6120 51bc ef37 573d a821 54bd fe4c c63c
00000180: 86a0 ef3b d2e8 5bbc ef58 35bc d795 05bd
00000190: 0e61 debc 9557 8b3c bd70 383b 16ea 623b
000001a0: f24d ffbb 61f8 95bc 2560 3439 e41d 1d39
000001b0: 38fa b2bc 6b55 b3bc e318 ad3c 7fd2 cd3c
000001c0: 34af d7bb 640c 8a3b d12b 87bc b525 02bd
000001d0: 3c00 4dbc 6993 86bc 06e3 d73c d883 6f3c
000001e0: 4ffb a23b 9897 c6bc bf32 a93c 0ffd a9bc
000001f0: da02 283d 2c74 16bd 6be4 9fbb 7b73 d9bc
00000200: ece3 59bd 4b0f 6a3c bee5 673d 145e e93c
00000210: 1a5a 14bd 9513 40bc f0ea 38bd 4843 083c
00000220: 53ed 59bd bdac 533c c403 5dbd 9c5d 0fbc
00000230: f89e a9bc 65db 253d 94d9 1cbc b956 19bd
00000240: d8f7 3cbd 3352 abbc da1f e63c 0330 c1bb
00000250: f8fc d13b d2bf a63c ad3e 5ebd 9db2 2bbd
00000260: c128 96bb c24d d03c 3aef 2dbd c1c7 553d
00000270: daa6 1abd 274b ebbc 9d1f 4fbc 17b4 03bd
00000280: 64db 993c d5c4 67bb a265 03bd f8a2 843c
00000290: eaa6 2b3d 79bc 79bc 0b7f bcbb 0454 eebb
000002a0: 2e8e d2bc d51f 04bd f02a 8fbb 0570 e8bc
000002b0: eba1 2fbd 7b1e 633d 7ce8 67bc b85c 52bd
000002c0: eeb6 293d dbcb dcbc cd79 2bbd d95d ae3c
000002d0: c0a1 d83c 95ad 263c 9f7c 2ebd a525 51bd
000002e0: 7e98 5f3d 4dea a43c 0d36 61bd bd92 cfbc
000002f0: 009e dd3c e817 22bd 2268 283c ff16 043d
00000300: 2cb7 fd3b 4299 00bd e16e c4bb c757 39bd
00000310: 0b12 653c 0680 80bc 5077 ec3b 1368 42bd
00000320: e316 94bc 4701 d23b c521 c23a 6b67 2bbc
00000330: fd14 f63a f9e8 83bb 4218 903b cfee 6fbb
00000340: dd20 38bc 08cf 13bd 50e7 74bd 3f03 293d
00000350: b12a b03a c869 00bc 1a39 2fbd 6695 113c
00000360: c15f c43b 455b 0fbd 2737 1bbd 63e6 5dbd
00000370: ed5b e13a 7c56 443c 4f11 ef3c b1e0 533d
00000380: edbf c5bc 05e1 4bbd 7dc1 e8bc 42ab 3abc
00000390: 12e9 4dbc 7bd8 453d 60fc 18bd 20b2 69bc
000003a0: b4b8 193d ccd0 1cbd 16f7 5d3c f5d9 d3bc
000003b0: 929f 14bd d42a d9bc c6b0 ab3c 443c 1e3b
000003c0: 1b67 2d3d 3dca 55bd 9fb6 0eba 0fe7 553d
000003d0: 48c6 af3c cf56 b23c b60e 2ebd daff a33c
000003e0: 5977 30bd 9790 943c 003d 193d f764 e93c
000003f0: cf63 5e3d 9b34 803b 0a28 08bd dbfe 3b3a
0.010863038 0.021918373 0.010432061 0.01808379 -0.010518099 -0.04065102 -0.023786567 0.0014501188
0.001711224 -0.029718945 0.02135279 0.017046962 -0.039659563 0.021998746 -0.010423589 -0.021505645
-0.008489746 -0.0051173237 -0.009734686 0.03108639 -0.011546903 -0.034958955 0.009624225 -0.02376754
-0.032979447 -0.023440447 -0.004194709 -0.022095134 -0.041879233 0.012363618 -0.03533011 0.006347122
-0.031760648 0.0272038 -0.032247707 -0.011461219 0.009941328 -0.044358786 -0.041264273 -0.048779674
-0.028415535 0.011548506 -0.0076536844 0.022215635 -0.02241935 -0.058965635 0.02969261 -0.023426808
0.018216744 0.031009555 -0.0070800236 -0.01150327 -0.040840317 0.045970067 -0.009313158 -0.021986527
-0.0009742167 0.0031823015 -0.035176825 0.006653513 -0.013968666 -0.031523082 -0.009164038 0.020608442
0.03773861 0.018712541 0.029516412 -0.02837494 -0.035813358 0.05100595 -0.03266717 0.016596269
0.039615486 0.013976505 -0.0016196128 -0.022945277 -0.0037567175 -0.048016246 0.021683816 -0.031097012
0.025823789 -0.008621773 0.010933802 -0.009170673 0.05748938 0.026570551 0.008880564 0.04421152
0.0028847305 -0.0021356922 -0.029926794 -0.007903938 -0.012764067 0.052543577 -0.05178991 0.024206635
0.007312837 -0.013422208 -0.011068567 -0.0326136 -0.027145889 0.017009536 0.002814337 0.003462439
-0.007791274 -0.018306913 0.00017201954 0.00014983822 -0.02184783 -0.021891316 0.021130031 0.025124786
-0.006582165 0.004212903 -0.016500385 -0.03177424 -0.012512263 -0.016427713 0.02635337 0.014618836
0.004973806 -0.024242207 0.02065408 -0.02075055 0.041018344 -0.036731884 -0.0048795245 -0.026544323
-0.05319588 0.014285873 0.056615584 0.028487243 -0.03621874 -0.011723419 -0.04514593 0.008316822
-0.053204846 0.012919602 -0.05395867 -0.008750346 -0.020705685 0.040492434 -0.009573359 -0.03743622
-0.0461348 -0.02091322 0.02809136 -0.005895616 0.00640833 0.020355139 -0.05425899 -0.041918386
-0.004582495 0.025427703 -0.042464472 0.052192453 -0.03775678 -0.028722359 -0.012641815 -0.03215417
0.018781371 -0.0035365124 -0.032079346 0.01619099 0.04190723 -0.015242689 -0.0057524494 -0.007273199
-0.025702562 -0.03225692 -0.004369132 -0.028373728 -0.042879026 0.05544899 -0.01415455 -0.051357955
0.04143422 -0.026952675 -0.041864205 0.021284984 0.026444316 0.010173221 -0.042599317 -0.05106129
0.054588787 0.020131255 -0.054983187 -0.025338525 0.02705288 -0.03957358 0.010278733 0.032248493
0.007742783 -0.031396158 -0.005994663 -0.045249727 0.013981353 -0.015686046 0.0072163716 -0.047462534
-0.01807732 0.0064088437 0.001481109 -0.0104616685 0.0018774566 -0.0040255752 0.004397423 -0.0036610847
-0.011238304 -0.036086112 -0.05979091 0.04126286 0.0013440457 -0.00783772 -0.042779066 0.008885717
0.00599286 -0.03499915 -0.037894394 -0.054174792 0.0017193534 0.01198351 0.029183058 0.051727954
-0.024139369 -0.049775142 -0.028412575 -0.01139337 -0.012567775 0.048302155 -0.03735006 -0.01426366
0.037529662 -0.03828506 0.013547679 -0.025860766 -0.03628499 -0.02650968 0.020958316 0.0024144808
0.042334657 -0.052194823 -0.0005444083 0.052222308 0.021456853 0.02176991 -0.0424945 0.02001946
-0.04308257 0.018135352 0.03741169 0.028490527 0.054294404 0.003912521 -0.03324131 0.00071714603

bias f4 [64]
00000000: ad4c acbc 1754 e4bc 8283 3dbc efe3 a43b
00000010: e863 06bd df3c 413d eeb3 76bd dc7c 313d
00000020: 261a 323c ac7d 65bd d385 863c 9423 b8bc
00000030: c2ca 9f3c f511 5bbd 5171 fb3c 2daa 8bbd
00000040: 416a 48bd f94c c0bc 8dbb 19bd 85ec 0abd
00000050: 448e 2ebd b411 5fbc 2f50 d63b ba69 aa3c
00000060: 4369 b93c 8141 27bd 7d13 9b3c 00b9 dd3b
00000070: 7e6c 00bd a211 63bc 7438 3c3c ad87 a6bd
00000080: c25d 0ebd 4322 96bd 6d57 39bd 2cd6 9b3d
00000090: 3b83 503c 9a98 e6bc 53ee a8bd 46f9 e1bc
000000a0: 0c46 98bd 1dd9 7a3c 48e8 98bc f12d 11bd
000000b0: 85d2 623d cb25 5fbd 8e57 653d 2111 65bc
000000c0: 041c 05bd c89d 6cbc b117 6abd 844d 69bd
000000d0: 2013 3dbd 7789 18bd dc5a babc 40b3 24bd
000000e0: 8d83 8bbd dd46 223a 3275 1dbd cdad 29bd
000000f0: c7d3 673d 2a72 85bd 35ef 413c 26c4 ad3b
-0.021032656 -0.027872128 -0.011566998 0.0050320546 -0.03281012 0.04717719 -0.060230188 0.043331966
0.010870492 -0.056028053 0.016421234 -0.022477902 0.019505862 -0.053483922 0.030693682 -0.06819568
-0.048929457 -0.023474203 -0.037532378 -0.03391697 -0.042616144 -0.013615061 0.0065403203 0.020802367
0.0226332 -0.040833954 0.018930191 0.0067664385 -0.031353466 -0.013859184 0.011488069 -0.08131347
-0.034757383 -0.07330754 -0.04524939 0.076092094 0.0127266 -0.028148938 -0.08248582 -0.027584683
-0.074352354 0.015310553 -0.018665448 -0.035444204 0.05537655 -0.0544794 0.0559917 -0.013981135
-0.03249742 -0.014441915 -0.0571515 -0.05695869 -0.046160817 -0.03724047 -0.022748403 -0.04021001
-0.06812201 0.0006190369 -0.038441844 -0.041425515 0.05659845 -0.06515916 0.011836817 0.0053029237

weight f4 [64, 64]
00000000: ab8c 79bd 51d8 09bd 38b7 883c c37d 43bc
00000010: e6db b3bb ee76 283e 05e8 0d3c 7f12 82bc
00000020: ad2b 693c a815 c1bd 3690 863c f8b0 bebd
00000030: a28a cc3d c083 81bd 761d ecbe 1a1a 463d
00000040: 1122 4fbd cce6 883a 3e07 053e 6ed4 e63d
00000050: 0216 a0bd be8c 50bd 6cef 9e3b c641 dfbd
00000060: 27b8 9a3d 14ac 4c3e c490 e63d 05c3 16be
00000070: 85d0 97bd 4066 74bc 40c0 59bd 7bc8 b03d
00000080: 3037 293c eca4 01be 4663 9dbc a2e1 1fbc
00000090: b08b 833c 4021 48bd 6715 d93c 3e5c 90bd
000000a0: 853e bf3d f8f9 2ebd 10dc 6ebc 9847 9cbc
000000b0: fff3 f1bd 7b4b 243e bce0 9ebe 0782 0a3e
000000c0: b3e3 cf3e d7d3 fdbb d953 aa3d b534 92bc
000000d0: a694 f43a 4cdf a73d 5b36 bcbb 07aa 92bd
000000e0: 3b28 733d d38d 6dbd b3d9 053e 21e9 ba3d
000000f0: e0a6 5b3e edf0 103e aca7 11bd c856 ef3d
00000100: 527f a6bc 9673 5a3c a2be f53d 0530 58bd
00000110: 5d68 acbd 7656 08bc 3435 133e 19d2 40be
00000120: ed1b 833d 9434 f63d d949 8bbd 5431 853d
00000130: 5a5b f1bd 5f4e 31bc 5d18 aabd 9657 a63d
00000140: 03a9 84bd 7b57 1bbe 5006 f93d c1b8 fbbb
00000150: e8bc 053d 557e 83bd e952 22be 41da 2c3d
00000160: e5a9 cb3b 84e3 a93d 803b efbb 0136 10be
00000170: c428 c9bd 7e27 813d 3734 873d 7c0d 123d
00000180: 31bb 93bc b553 7bbb bec0 e43d ef5d c8bd
00000190: 1ebc e6bd aab9 bf3c a3b3 c9bd b569 5dbd
000001a0: ef50 5b3d ad58 293d 1038 dcbd db3b 893d
000001b0: 7456 6dbc 197d a0bd ef3e c6bd 3026 06be
000001c0: 1c65 77bd 32cb 863d 0b47 083d d4e8 e23a
000001d0: 0799 65bd e425 fc3b 92ba 5bbc b7c7 eabd
000001e0: e79d 64bc 2400 91bc 7a6a 2d3d 2e43 f43d
000001f0: d7d7 d2bd 8dd7 5cbd 104b 3dbd 20f0 9a3b
00000200: 1438 9c3d e8fe 193d e083 64bd 032c 8ebd
00000210: ddfc d03d 1c21 02be d432 80bd f649 0ebe
00000220: e0e7 c23d 200a e0bb f2ec 36bd dc11 233d
00000230: 4057 2abd 3447 02be 7676 023a bbd7 bc3d
00000240: b07e 873c 68f8 bbbd 2cb1 e83d 7442 9fbd
00000250: 147a 773d 6c2e e33d 29b9 81bc 6867 023d
00000260: 5f93 ff3c 3407 5f3d 0870 3ebd 2453 023d
00000270: cee7 f03d cc96 e23d d869 e2bc 12e6 98bd
00000280: 64a5 293d 5eac b2bd 6d23 21bd 8824 85bc
00000290: 2045 713c f46a 31bd 3a02 d6bd 7c9a 20bd
000002a0: 4045 1e3c 5660 b23d 00b5 f8ba c015 24bd
000002b0: bb39 a3bc 94cd 96bd 94d5 edbd e5b4 07be
000002c0: d641 3bbd ca3e 3d3c 2a8d 11ba 3119 7abd
000002d0: 839c 9c3c 10e3 fbbd 37cc 67bd c475 cfbd
000002e0: 5c91 dfbd 1168 92bd 3d68 3d3c 6cf5 8b3d
000002f0: 604a 59bd e69f 113d c8ff c8bc 88eb 0fbd
00000300: ccca bc3c 373c d3bc a003 cebb 1cb7 bfbc
00000310: 70ce b8bb 95da b83d 72e8 ba3d b110 5f3d
00000320: 5640 00bd 9052 05bb 2b16 573d c881 7b3d
00000330: 184c c1bc 0e6a 9b3d e52b f4bd 8d75 d0bd
00000340: 4c6d b0bd d7a9 7abd c1b9 9cbd 8dcb 623d
00000350: d564 50bd 4499 99bd 3762 44be 3a5f e03c
00000360: 2e57 29bd d9d3 33bc f82f 3f3d b9bd e7bd
00000370: 6fe2 a7bd d0d5 0fbc ec08 183d 53a5 b33c
00000380: 3ae2 bbbd 7cfa f13d bc4a 293c 01bc 23be
00000390: 66fd aabd 3575 b8bb eea9 14bd 72ce 6e3c
000003a0: 310a ecbd c0a3 413c 3c24 023d 3c77 153d
000003b0: bbfb a7bd 41e1 463d ee0d d9bd 8339 d6bd
000003c0: f429 483d 18af cbbc 341e b73c 8247 a3bd
000003d0: 00de f13d 1f2a c9bd 4628 04bd 4c8d aabb
000003e0: 8d96 933d ace4 94bb dddb d2bc aa25 a3bb
000003f0: 3e64 1dbe 9c7e 58bd 8085 acba 5a82 ed3d
-0.060925167 -0.03365356 0.016688928 -0.011931839 -0.0054888604 0.16451618 0.008661275 -0.01587796
0.0142316045 -0.09427959 0.016426187 -0.09311098 0.099873796 -0.063239574 -0.46116227 0.048364736
-0.050569598 0.0010444759 0.12991044 0.112709865 -0.07816698 -0.050915472 0.0048503187 -0.10901217
0.075546555 0.19987518 0.112580806 -0.14722832 -0.07412819 -0.014916956 -0.05316186 0.086319886
0.010328099 -0.12660569 -0.019212376 -0.009758385 0.01605782 -0.048859835 0.026499463 -0.07048844
0.093380965 -0.042718858 -0.014578834 -0.019077107 -0.11814117 0.16044419 -0.31030834 0.13526164
0.40603408 -0.0077462005 0.08316774 -0.017847398 0.0018660023 0.081968874 -0.0057437844 -0.071613364
0.05936454 -0.057996582 0.13071327 0.09126497 0.21450377 0.14154406 -0.035560295 0.11686474
-0.020324383 0.013333222 0.11999251 -0.05278017 -0.08418343 -0.008321395 0.14375764 -0.18830146
0.06401811 0.12021747 -0.06801195 0.06503549 -0.11785002 -0.010821908 -0.08305428 0.081221744
-0.06477549 -0.1517009 0.12159407 -0.0076819365 0.03265086 -0.0642058 -0.1585194 0.04220033
0.0062153214 0.08295348 -0.007300794 -0.14083101 -0.098222286 0.06306361 0.06601756 0.03565739
-0.018033596 -0.0038349454 0.11169575 -0.097835414 -0.11266349 0.023403961 -0.09848716 -0.05405589
0.05354398 0.041344333 -0.107528806 0.0670087 -0.014485944 -0.078363605 -0.096799724 -0.13100505
-0.06039916 0.06581725 0.033270877 0.001731182 -0.05605414 0.0076949466 -0.013411181 -0.11463874
-0.0139536625 -0.017700262 0.042337872 0.11926876 -0.102950744 -0.053916503 -0.046214163 0.004728332
0.076278836 0.037596613 -0.05578983 -0.06941988 0.1020448 -0.12707943 -0.06259695 -0.13895401
0.09516883 -0.0068371445 -0.044659562 0.039811954 -0.041587114 -0.12722474 0.00049767585 0.09220835
0.016539901 -0.09178239 0.11361918 -0.07776347 0.060419157 0.11092839 -0.015835362 0.031836897
0.031198202 0.05445023 -0.04649356 0.03181757 0.11762963 0.110639185 -0.02763836 -0.074657574
0.041417494 -0.08724283 -0.039340425 -0.016252771 0.014725953 -0.04331489 -0.104496434 -0.039209828
0.009660065 0.08709781 -0.0018974841 -0.040059805 -0.019924989 -0.0736343 -0.116130024 -0.132526
-0.045717083 0.011550615 -0.0005552346 -0.06105918 0.0191176 -0.12299168 -0.05659124 -0.10129884
-0.10916397 -0.07148755 0.011560497 0.0683392 -0.053049445 0.03555288 -0.024536029 -0.03513673
0.02304592 -0.025785549 -0.006287053 -0.023402743 -0.0056398436 0.09026066 0.09126367 0.054459278
-0.031311356 -0.00203434 0.052511375 0.061403066 -0.023595855 0.07588588 -0.11922435 -0.10178671
-0.08614597 -0.06119713 -0.07652617 0.055369902 -0.05087741 -0.07499936 -0.19178091 0.027389158
-0.041342907 -0.010975801 0.046676606 -0.113154836 -0.08197486 -0.008779004 0.037117884 0.021929419
-0.09174009 0.11815354 0.0103327595 -0.15989687 -0.08349113 -0.0056292065 -0.03629487 0.014575588
-0.11525381 0.011818826 0.031772837 0.036490664 -0.08202311 0.048554663 -0.1059836 -0.10460188
0.048868135 -0.024863765 0.02235327 -0.079726234 0.11809921 -0.09822487 -0.03226497 -0.005204832
0.0720645 -0.0045438614 -0.025739605 -0.004978855 -0.1537027 -0.05285512 -0.0013162345 0.11597128

bias f4 [64]
00000000: ad50 253e f5fe 89bc 1f4d 49be ba20 5bbd
00000010: 9b6a 22be 4dcc 163e 5d5d 3b3c 0cb7 6e3d
00000020: 6fe3 f9bc b36b cabd 6321 13be 47b1 313e
00000030: 4608 043e 17bc cfbd 82ab 013d 4da8 9ebd
00000040: 1c2c 6cbe 5d93 15bd 7037 47bd 7f0d 03bc
00000050: 115d 20be 1c2e cf3d 9bcb c83d ea0a 003e
00000060: 9f9e 54bd c07c 253e c9c2 f2bd efed 07be
00000070: d45e 023d a669 553d 2803 6e3d 4743 943d
00000080: 2903 c5bd 17ab babd f824 873b 5c29 833c
00000090: ab66 9ebd 0c4e a13c e0a0 923d 064b 29be
000000a0: 0ede c8bc 3a46 2dbe c436 cf3c 7e31 67bd
000000b0: 4dfa ba3d f1b7 143e 31ba 27be 8e63 c2bd
000000c0: b93f a73d 3e40 0bbe 6120 e3bc 587e e33c
000000d0: 23fb 833d f58c 533d 0386 683d b037 01be
000000e0: cdc3 ddbd c94f 16be 5e25 c0bd 2891 2ebe
000000f0: 38a0 623b 7099 ec3d e6b0 fabb 554f b13c
0.16144057 -0.016845206 -0.19658326 -0.053498007 -0.1586098 0.14726372 0.011435834 0.058280036
-0.030503957 -0.09883823 -0.14368205 0.17352782 0.12893781 -0.10143297 0.031657703 -0.077469446
-0.23063701 -0.03651749 -0.048636854 -0.007998823 -0.15660502 0.101162165 0.0980446 0.12504163
-0.051909085 0.1616087 -0.118535586 -0.13274358 0.031828716 0.052102707 0.05810848 0.07239395
-0.096197434 -0.09114664 0.00412428 0.016010933 -0.07734426 0.019690536 0.07159591 -0.16532525
-0.024519946 -0.1692132 0.025294669 -0.056443684 0.09129772 0.14523293 -0.1637962 -0.09491645
0.08166451 -0.13598725 -0.0277254 0.027770206 0.06444385 0.0516481 0.05676843 -0.126189
-0.10828362 -0.14678873 -0.09382127 -0.1704756 0.003458036 0.115527034 -0.0076504825 0.021644274

weight f4 [64, 64]
00000000: 0c33 453c 5a75 a8bd e894 6bbd e3bb 363c
00000010: 3d63 bb3d 4db8 c4be f52a d5bd 572c c53d
00000020: 0307 a5bd 3505 14bd 5f90 ab3d 2a9e 69bd
00000030: d069 4e3d e60d f73d cc4c b83c 8ee3 8fbd
00000040: 9474 f33c 6c30 a53d 2fe3 cbbd ae43 79be
00000050: 52fc c13d 6a64 acbd a521 373e 0ab8 adbd
00000060: 3b1e 85bd 6c49 bcbe 5253 633d a23e 33bd
00000070: 2223 3439 2285 82bd a88b 653b 1d2f ccbd
00000080: c06c 19be 2a6c edbd 7eed 12bd d14f 8a3b
00000090: fbbc 9d3c d379 af3d ad7a cc3d 3b57 b0bd
000000a0: c61f 403c dcb9 48be 582e c03d 161b da3d
000000b0: 6802 17be 6593 a13c 5727 b23b 7d9a bdbc
000000c0: aa54 a3be ea22 ac3c ced9 9ebd 3c20 88bd
000000d0: 64fd bfbd bd41 f7bd 0657 e03d b50e 2bbc
000000e0: 2035 a7bd 18b7 ce3d 6703 05bd ca02 b43d
000000f0: e44b 35bd 01af 453d 9da5 2f3c 2d8e bb3d
00000100: 0a67 9bbd 1e6d eb3d 2651 ba3d d54c 0fbe
00000110: f80c a6bc 6a6b 35be 4688 efbd 1b91 ac3d
00000120: e0fc e6bd 7906 cb3d 0665 b2bb 749d b73d
00000130: 2f31 73bd 2837 7c3d a11d 98bd 6016 8fbb
00000140: fd45 c23d a348 013d 1846 843c d33b 09be
00000150: c02a a43d 3331 86be 19dd 793e 89f8 16be
00000160: 8f94 513d e59a a6be 85fd 09be 4261 d83b
00000170: 9e3f 843d 0782 d5bd 084f 8cbc 6efe ce3c
00000180: c214 483d 70e3 ebbc ffd8 60bd 3372 ddbd
00000190: b0dc b1bd 176a a8bd 0d16 3a3d bfc6 ddb9
000001a0: fb15 71be c1c6 9bbc c3ac c93d 6c19 dcbc
000001b0: f3f8 87bb 4ebf 98bd 5952 2dbd bdbe e13d
000001c0: 336f 60be 1bd6 223d eaf4 ce3d 810e 0ebd
000001d0: a949 a03d 5022 483c 05b4 4c3d c886 05be
000001e0: 3b9c 84bd c101 7a3d 0208 943d d8f0 36bd
000001f0: ca46 8ebd 59c3 993d 5a78 a4bd 7710 2a3e
00000200: cf75 14bd f6f1 e53d 489e 9c3d 4433 933c
00000210: 2642 6dbd 8719 2dbe db90 a23d 2127 80bd
00000220: 3bcf a83d 5241 b93d 867b 8a3d 3aa3 f93d
00000230: 4e01 17be d69c d2bd 70dc eebc 3ebe 81bd
00000240: 07e1 c03c ee3e 95bd 577c cdbd 66a3 36be
00000250: d46d 023d 0065 21be 56c9 b03d 2703 a93d
00000260: ac45 04bc 7257 e2bd 34fa 9a3d ecc6 64be
00000270: 02eb d43c a485 9d3d bef2 833b 2508 3ebe
00000280: 59f6 a8bd 632f e43d 0044 0dbe b3c7 383d
00000290: ec01 96bc 37b8 953d 0de1 1bbd 1561 453c
000002a0: c310 cbbd 68f0 4abd 63c2 953c 604e 993d
000002b0: 8f2c d2bd 4480 35be 9b1f 50bd 86bc 84bc
000002c0: f6b8 7fbe d345 e73c b9e8 0bbd e1ad 5c3d
000002d0: 2b34 103c 3da9 25be b3b6 403b 8471 86bd
000002e0: eeee d73d c377 983d 9bb6 b0bd 9e76 5a3d
000002f0: dfac eabc 3cb5 fb3d 2dd9 40bd 76b1 053e
00000300: 4d81 b53d 4280 cd3c d0ee 14bd 75cb bdbd
00000310: 9fb6 49bd 088c ca3c 7030 ef3d 14f2 f9bd
00000320: 4fce 0ebc 48a1 80bd c6a8 273c 27dd a53e
00000330: 7de3 a83d cb2b a93d c4c1 683d 4d49 263d
00000340: ffeb a1bc 07b0 e3bd 7623 323d 40ac 593c
00000350: cca1 ba3d 9aa1 0d3e c101 993d 1abf 473d
00000360: 9225 61bc a80d 3fbe 3f20 65bd 54a9 f6bd
00000370: e0e2 a83c 437b 9dbd 915f 473e 5560 923d
00000380: 6b27 873d 9720 fbbd 7387 88bd 9dd7 8fbd
00000390: 51ad 743b c940 d2bc 28cb 9c3c af15 953d
000003a0: 0d8c 9b3b 094b e1bc 622c e33c 08b9 22bc
000003b0: bea8 ee3d ed17 2e3e 393b 193c de45 8e3d
000003c0: ab9f adbe 9f46 8e3d 633b f7bd 4413 e83d
000003d0: f4ae 223e ab11 eebd f539 05be 0d7e 4abd
000003e0: c238 e2bc 2faa c33d 5bf6 cf3d 6d9e 56bc
000003f0: f1b5 05bc 6f98 863d 1233 a5bd 2cce d83d
0.012036096 -0.08225508 -0.057515055 0.011153194 0.091497876 -0.3842186 -0.10408584 0.09627598
-0.08057978 -0.03613778 0.08377146 -0.057035603 0.05039388 0.12063198 0.022497557 -0.070258245
0.029718675 0.08065876 -0.09955441 -0.24342224 0.094719544 -0.0841759 0.17883928 -0.08482368
-0.06499907 -0.36774766 0.055499382 -0.043760903 0.00017179226 -0.06373049 0.0035025869 -0.09969924
-0.14982891 -0.11592896 -0.03587102 0.0042209406 0.019255152 0.08568158 0.09984336 -0.08610388
0.011726325 -0.1960215 0.09383839 0.106496975 -0.14747012 0.019723604 0.0054368186 -0.023144955
-0.3190053 0.021012742 -0.07756387 -0.06646773 -0.09374502 -0.120730855 0.109540984 -0.010440518
-0.0816443 0.10093516 -0.032473948 0.087895945 -0.044261828 0.0482626 0.010720638 0.09157977
-0.075880125 0.11495422 0.09097509 -0.13994153 -0.020269856 -0.17716756 -0.11695914 0.08426114
-0.11278701 0.09913344 -0.005444172 0.08965579 -0.059373077 0.06157604 -0.07427526 -0.004366681
0.094860055 0.031563412 0.016146705 -0.13401727 0.080159664 -0.2620941 0.24400748 -0.14743246
0.051167067 -0.3254005 -0.13475616 0.006603391 0.064574465 -0.104251914 -0.017127529 0.025267806
0.04884792 -0.028794974 -0.054894444 -0.108127974 -0.08684671 -0.0822336 0.045431186 -0.00042300482
-0.23543541 -0.019015672 0.09847405 -0.02686759 -0.00414955 -0.074583635 -0.04231486 0.110227086
-0.21917419 0.039754968 0.101053074 -0.0346818 0.078265496 0.012215212 0.049976368 -0.13039696
-0.06475111 0.06103683 0.0722809 -0.04466328 -0.06947096 0.07507963 -0.08030768 0.16607843
-0.036245164 0.11227791 0.07647377 0.017968781 -0.057924412 -0.16904269 0.07937785 -0.06257463
0.08242651 0.09045662 0.067618415 0.12189336 -0.14746591 -0.1028382 -0.029157847 -0.06335114
0.023544801 -0.072873935 -0.100334816 -0.17835769 0.03184302 -0.15761185 0.08632152 0.082525544
-0.008073252 -0.11051835 0.07567254 -0.22341508 0.025990967 0.076915056 0.00402674 -0.18557794
-0.08250112 0.11141851 -0.13795471 0.045112323 -0.018311463 0.07310527 -0.038056422 0.012047072
-0.099153064 -0.049545676 0.018281167 0.07485652 -0.10262405 -0.1772471 -0.05081139 -0.016203176
-0.24972901 0.028231537 -0.03415749 0.05387676 0.0088015 -0.1617784 0.0029405772 -0.0656462
0.10543619 0.07444718 -0.08628579 0.05333578 -0.028646884 0.12290427 -0.047082115 0.13055977
0.08862553 0.025085572 -0.03636056 -0.09267322 -0.049246427 0.024724975 0.116791606 -0.12204376
-0.00871618 -0.06280762 0.01023311 0.32395288 0.08246515 0.08260306 0.056825414 0.04059725
-0.019765852 -0.11117559 0.04349085 0.0132856965 0.091128916 0.13831177 0.07471038 0.048766233
-0.013741868 -0.18657553 -0.055938955 -0.120440155 0.020615995 -0.07689526 0.1947005 0.0714728
0.06599315 -0.122620754 -0.0666646 -0.07023547 0.003733475 -0.025665658 0.019139841 0.072795264
0.00474692 -0.0275016 0.027731124 -0.00993181 0.11653279 0.17001314 0.009352499 0.0694692
-0.3391088 0.06947064 -0.12071874 0.113317996 0.15887052 -0.11624464 -0.1301039 -0.049436618
-0.027614955 0.09553944 0.101544105 -0.013099295 -0.008161054 0.06572043 -0.080663815 0.10586199

bias f4 [64]
00000000: 754b b63d 34f2 723d b1ca 69bd b469 053e
00000010: 392c a33d 9473 b8bd 0248 043e e376 1bbd
00000020: 4c66 fa3d 9ea7 8d3d 3cdc 26bc 306e 5e3e
00000030: 7413 ac3b 3719 a13d 61c1 20be f6a8 f63b
00000040: 31dc 493e 29b7 31bd 4432 cebd cfa1 6fbd
00000050: 89df 1e3e cf7f 3c3c af0a cf3d f6ba 7b3e
00000060: 34be eebd 61b0 f1bd 4d6e 1abd 0ade 063e
00000070: 8a39 ba3d 289b e2bd b1ae 373e e38f 93bb
00000080: f409 9cbd 0b9d 663d 42f3 5ebc b39c 94bd
00000090: 3a4e 03be 2f21 8cbd 5d73 14be 5ff2 1bbe
000000a0: 9277 0b3e 8c75 e1bd 9e0b ecbd aeb5 153c
000000b0: f4d1 cabd fe43 e1bd 6a8a 0a3e ac70 93bd
000000c0: d9fb 22bc 99de 03be 5e48 4bbe 0de5 4fbe
000000d0: 6877 08be 6783 943d c734 913e 511d cc3d
000000e0: d794 2fbd c83f 8abd 17cc 22bd 1671 603e
000000f0: 1d41 4dbd f97a 6b3e fb19 5abc 7052 c03d
0.08901111 0.059313014 -0.057078067 0.13028604 0.07967419 -0.0900642 0.12918094 -0.037955176
0.12226543 0.06916736 -0.010184344 0.2172172 0.0052513424 0.078661375 -0.15698768 0.007527466
0.19712903 -0.043387566 -0.10068181 -0.058503922 0.1551496 0.011505081 0.101094596 0.24583039
-0.11657372 -0.1180122 -0.037702847 0.13170639 0.09093006 -0.1106475 0.17937733 -0.0045032366
-0.07619086 0.05630211 -0.013607802 -0.072564505 -0.1282281 -0.06842267 -0.14497133 -0.15229176
0.13619831 -0.110087484 -0.11525653 0.009137554 -0.09903327 -0.109992966 0.13529363 -0.07199225
-0.0099477405 -0.12877883 -0.19851825 -0.2030222 -0.133268 0.072516255 0.28360578 0.09966529
-0.042866554 -0.067504466 -0.039745416 0.21918139 -0.050110925 0.22996129 -0.013311858 0.09390724

weight f4 [64, 64]
00000000: 1c04 02be 7f50 893d 6cb3 273d 162c 273c
00000010: 0e06 bc3d 93be 643d f5ab 8e3d 9ed2 223c
00000020: 2176 18be c615 f8bc 7263 84bd 2a47 67bc
00000030: 98ec 4b3d fe7c 293d 9482 563d 5a13 03bd
00000040: 67b8 223d 0fa5 e63b 1b39 09be 17db ddbc
00000050: f788 cebd 1357 23bd 54c8 273c c0aa c7bd
00000060: 3030 d2bd 18ed bc3c 3cf9 493d dd84 6b3d
00000070: a091 1abd 702f 98bd 8c29 743d 741c dcbd
00000080: 6a58 c3bd 7143 4fbd 7f5a 15be 4631 de3d
00000090: 1944 83bd a4ca c73d 7018 4b3c 5a5e b5bb
000000a0: 5e7b 80bd 4849 8b3d 79fd 8b3c 5619 d2bd
000000b0: 3496 f2bd 7e3a 413c 5f99 30bd e22b 82bd
000000c0: 11ee 3bbd 9622 1fbd 80a5 263c cdde 18be
000000d0: ee8d 93bd 6ea6 b8bd a9d0 6f3c a079 d0bc
000000e0: 004f 323d 7015 413d bca9 03bd 8c29 01be
000000f0: e8bd 32bd 3b89 133d a095 bcbd eb35 00bd
00000100: d41b e03d 2065 803d 4d55 c9bd cae3 863d
00000110: 5bdd ef3d 19a6 903d 7aff ab3d 0cf1 d2bd
00000120: c4ac b23d b648 ee3d a968 073e c78b 5a3e
00000130: 3a0c 0a3c 3011 43bc 2600 b23d 4fe1 98bb
00000140: e431 173e 693a f33d ebf5 1abe a218 1f3d
00000150: f70e 233d 254d fc3d bfcd 933d f3a1 4e3d
00000160: f7c6 30bd 2d69 e23c 2768 ac3d a840 fa3d
00000170: 3506 5b3d 5921 793d 648b 843d 389b e2bd
00000180: 0ee0 7e3b 5dbe 923d 2a14 913d 8d69 dd3c
00000190: 9880 14bd c0b9 833d e03d a53c 772b 923d
000001a0: c00b 933d 4b05 6dbe f80e 9dbc e64d 5cbc
000001b0: 5002 a2bc f886 133e 40da 8dbd 6983 e13c
000001c0: 008f 03bc 960b dbbb 47a1 d03d a0e3 18bd
000001d0: 83ef 49bd 648d 19bd 86b7 ed3d 7391 3bbd
000001e0: cac5 91bd 6e7a 1ebc eb50 2b3c b09d 563d
000001f0: db09 c73d 9876 163d 9aaf 753d 992e bbbd
00000200: 532f 00be 5c33 91bd 566f 9c3d fa89 c93d
00000210: 5ea6 dabd 631e 04bc 801d 45be 7006 4c3d
00000220: 1841 7c3d f37a f7bd f6b4 053d dcea 9e3d
00000230: ea00 b2bd 183d fcbd cc02 e73d 46a9 d33d
00000240: 9562 2c3e b509 273b 348c e2bc 3371 c23c
00000250: 5291 833c 6506 67be 5a8a 02be 1819 563d
00000260: 5250 b9bd 70e4 44bc 4c5f 84bd 4eba c1bd
00000270: 03f2 a03c 245a 473d 25eb fe3c 6748 e33b
00000280: 5ee6 a3bd 25ae c1bd 2ed0 debd d829 c53d
00000290: 8bb2 e73c 7033 bd3d 40c0 4ebc 7c3e c53b
000002a0: 3e78 a7bc 5469 a7bd 2d1f 3ebd 2b60 6b3e
000002b0: b898 d43d c058 533d cf28 c53d a7d3 a33c
000002c0: 2c2d a23d 76a3 0cbe a4aa 3cbe 7ce1 213d
000002d0: 6085 023c 1c52 68bd aaaf f1bd 689d 41bc
000002e0: d09a 3dbc e027 89bd 15ec ecbc edcf d4bd
000002f0: 20ea 1d3c 3894 19bd cfb9 4bbe 5077 193c
00000300: 98ed 283d 5717 c93c 3c0e 2c3d 1261 96bd
00000310: 4845 283e 1c9f bdbc c6fa 883d 3f3a 65bd
00000320: a54e 893d 13ff 003e 5fd0 b63d e266 c33d
00000330: 39d0 e0bc 5469 8f3d 66a1 93bd 24d5 afbd
00000340: cbd6 86be c376 1ebd 5070 ea3d b408 a8bc
00000350: 0810 fdbd e310 b03b 7241 d03d f81f 1cbe
00000360: 1b20 1fbe 5c7e 373c 5451 ce3b 0420 ef3d
00000370: 26cc 8a3d ab95 2dbd d368 2dbd dbe4 d13d
00000380: 40bd 4abc 67cd 78bd 92c2 613d ac93 fdbc
00000390: 114e 6cbd 51af a6bd 1dc2 1fbe ab57 d0bc
000003a0: 9cef 88bd bc0e 113d 0088 e33c 18f0 7f3c
000003b0: 4057 24bb b752 92bd b1ac 5abd 201a 88bd
000003c0: 65cd 123e 739e 123e 0012 793d 7d84 133e
000003d0: 1276 3dbd a252 3bbd c3fb 0abd d2ea b8bd
000003e0: c0af 393d 6796 7e3d b4a4 463c 5fe3 a0bd
000003f0: 20d3 073d ac29 1ebe 668f 383e e3ca c83d
-0.1269688 0.067048065 0.040942594 0.010203382 0.09180842 0.05584581 0.06966392 0.00993791
-0.14888813 -0.03028382 -0.0646428 -0.014116088 0.04978618 0.041378967 0.052370623 -0.032000877
0.03972664 0.0070387195 -0.1340069 -0.02708201 -0.10084718 -0.039877962 0.010240633 -0.09749365
-0.10263097 0.023062274 0.049309954 0.057499755 -0.037736535 -0.07430923 0.059609935 -0.107476145
-0.09538348 -0.050601427 -0.14585303 0.10849242 -0.06409473 0.097554475 0.012395963 -0.005534929
-0.062735304 0.06801087 0.017088639 -0.10258739 -0.11845055 0.011793731 -0.043115016 -0.06356026
-0.045881335 -0.038851343 0.010171294 -0.14928742 -0.07204805 -0.09016119 0.014637151 -0.02544862
0.04353237 0.047139585 -0.032144293 -0.12613505 -0.04363814 0.036019545 -0.09208226 -0.03130142
0.10942808 0.06269288 -0.09830723 0.06586416 0.11712142 0.070629306 0.08398338 -0.10299882
0.08724359 0.11634962 0.13223518 0.21342383 0.008425767 -0.011905953 0.086914346 -0.0046655308
0.14765126 0.11876375 -0.15132873 0.03884185 0.039809193 0.12319402 0.07216977 0.050447416
-0.043158498 0.027638042 0.08418303 0.122193635 0.053472716 0.06082282 0.06471899 -0.11064762
0.0038890871 0.07165215 0.07083924 0.02702787 -0.03625545 0.064319134 0.020171106 0.071371965
0.071799755 -0.2314655 -0.019172177 -0.013446307 -0.019776493 0.14406955 -0.069263935 0.027528482
-0.008029699 -0.0066847308 0.10187011 -0.037326455 -0.04930068 -0.037488356 0.1160727 -0.045793008
-0.071178034 -0.009672744 0.010456304 0.052396476 0.09718677 0.036734194 0.05998192 -0.09139747
-0.12518053 -0.07089874 0.07638423 0.0984077 -0.10676263 -0.008063885 -0.19249535 0.049810827
0.061585516 -0.120839976 0.03264328 0.077596396 -0.086915806 -0.1231634 0.1127983 0.10335021
0.16834481 0.0025487964 -0.027654745 0.023735618 0.016060505 -0.22561033 -0.1274809 0.052270025
-0.09048523 -0.012017354 -0.06463489 -0.09459363 0.01964665 0.04866995 0.031117985 0.0069361213
-0.080029234 -0.094570436 -0.10879551 0.09627122 0.028283378 0.092383265 -0.012619078 0.0060194116
-0.020443078 -0.081743866 -0.04641645 0.22985904 0.10380691 0.05159831 0.09626924 0.019998385
0.07918772 -0.1373423 -0.18424469 0.03952168 0.007966369 -0.05671893 -0.118010834 -0.011817314
-0.011572555 -0.06697059 -0.028921166 -0.10391221 0.009638339 -0.037494868 -0.19895099 0.009366825
0.041242212 0.024547262 0.042005762 -0.073427334 0.16432679 -0.023147158 0.06688456 -0.05596375
0.067044534 0.12597303 0.089264624 0.09541108 -0.027443038 0.070025116 -0.07208519 -0.08585575
-0.2633575 -0.03868748 0.11447203 -0.020511962 -0.12356573 0.005373107 0.10168733 -0.1524657
-0.15539591 0.01119956 0.006296316 0.11676028 0.067772195 -0.042379063 -0.042336296 0.10248729
-0.012374222 -0.060742762 0.055117197 -0.030954204 -0.057691637 -0.08138908 -0.15601392 -0.025432428
-0.06686327 0.035414442 0.02777481 0.015621208 -0.002507642 -0.07144683 -0.053387348 -0.06645608
0.14336164 0.14318256 0.06080818 0.14406009 -0.04625518 -0.0457331 -0.033931505 -0.090291634
0.045333624 0.062155154 0.012124229 -0.078558676 0.03316033 -0.15445584 0.18023452 0.098043226

bias f4 [64]
00000000: de30 d0bd b5b7 b23e 035a 27bd a358 6cbe
00000010: 6c0a 153d 09ed 473e d8f4 2d3e 7acc 51bd
00000020: ae62 a5bd 9c47 703a 6f92 86bd 39fa cfbd
00000030: 3951 7a3d 97d3 4c3d 6803 883d 8af4 1b3c
00000040: e0c2 c23e bdbe 523e 9570 db3c 0b60 933d
00000050: 2807 99bc 9c82 943e 1bd4 18be c518 ea3d
00000060: 2297 fbbd 08f1 bd3d 7024 2dbe 41ac 30be
00000070: 9dca c0bd 1740 153d 21e2 c5bd d047 cabc
00000080: 27a6 5f3d f35b 763e 12a5 22be f244 973d
00000090: f411 e3bd cce9 19be d07e 0cbd 046b c5bd
000000a0: 2284 03be 6ef2 a2bd 699f aabd abae 0dbe
000000b0: 34af e7bd 5e48 a0bd 3623 dfba b1b5 d93e
000000c0: 549e ea3d d0d5 d93e eb34 aabd 08d6 8e3e
000000d0: efe7 35bc 5d53 113d 2901 833e 6f4d 623d
000000e0: 3a6b 973d 4551 613c 237b a83e 4819 6abe
000000f0: 241c 36bd fa49 2b3d 3feb bc3e 0be1 843d
-0.10165571 0.34905782 -0.040857326 -0.23080687 0.036386892 0.19524015 0.16987932 -0.051220395
-0.08075462 0.0009165944 -0.06570899 -0.10155148 0.061112616 0.050006475 0.06641275 0.009518752
0.38039303 0.20580573 0.026787082 0.07196053 -0.01868017 0.29005897 -0.14924662 0.11430506
-0.12284686 0.09274489 -0.16908431 -0.1725321 -0.094136454 0.036438074 -0.09662271 -0.024692446
0.054601815 0.24058513 -0.15883282 0.07386197 -0.11087409 -0.15030593 -0.034300625 -0.09639552
-0.12843373 -0.07956396 -0.08331186 -0.13836162 -0.11312714 -0.07826303 -0.0017024043 0.42521432
0.1145598 0.42545938 -0.083108746 0.27897668 -0.011102661 0.035479892 0.25586823 0.055249628
0.07393499 0.013752286 0.32906446 -0.22861207 -0.04446043 0.041818596 0.3689823 0.06488236

weight f4 [64, 64]
00000000: 17c5 7739 07ef ec3b 292b ba3c 00e9 dcbd
00000010: 7a2f 193c 13a0 edbd 1f89 4b3d e253 c7bd
00000020: 90cb 2cbe 5fba 193e d291 763d be7d 3abe
00000030: 9ee4 e8bd 0ab5 923d c585 e2bc 5919 4f3c
00000040: 8f2d b9bd 20c0 d9bc 9545 3cbd e0ff 623d
00000050: 0ec6 b83d 7179 07bd 6dde bd3d 2666 59ba
00000060: 0490 f23d 6736 293a 3b37 9b3d 5176 29bd
00000070: 7ed2 513d 4031 e23d 70d3 203d aac1 82bc
00000080: 300f 053c a73f bebd 2c13 22bd b0cc e3bb
00000090: 8d6e e2bc 1ca5 1fbe f07a 0dbc ed63 9abd
000000a0: 5aba 37bd d152 d9bc 0133 8dbd e62b 70bd
000000b0: a866 9c3c 37e2 82be feb4 76bd d640 093d
000000c0: ec28 a53c fa3b 973c 3112 ef3d fbc7 9e3d
000000d0: d0ab ccbc 33d5 ab3d 8293 713d cf99 443d
000000e0: 108c cc3c 579c 993c 18de 0cbe 3e30 42be
000000f0: 1098 713d 9584 00be 7084 2dbd 0f9b 2ebd
00000100: e094 58bd b41e 1f3e 8fce 21be 1748 f4bd
00000110: 9248 49bd 6c95 e03c 61a3 b33d 4e76 1cbe
00000120: 890a 763d cfc4 bfbc 741a 7dbd 538c 473d
00000130: be22 a13d a549 dc3d 0c24 cdbd 39cf 5dba
00000140: 3a9f 8c3d 9640 0b3e c730 85bd 87f5 6c3d
00000150: 829d fabd 09fb 1f3e d0b5 10be 7b1e 60bd
00000160: 5069 f03c 48c8 843d 5559 573b 0747 f6bc
00000170: bebf c2bd 9aeb c9bd 6d7d 7a3d f683 d3bd
00000180: 22b6 b239 acb7 81bd 4c71 35be a411 093d
00000190: f894 77bd 482f 293d 9c79 51bd 2ee6 0c3d
000001a0: 1f15 8abd 75e9 c3bc 4822 75bd 2ca0 283d
000001b0: 1ed4 c43d 72fa cf3d 804d 373d 21c8 253e
000001c0: e527 143e 8d7b 13bd 241b 14be 3b05 023e
000001d0: aa81 8bbd cb7a a7bd 1c4b 3ebd f336 a0bb
000001e0: adb2 8e3b bd19 b13d 18e4 493e 8550 a4be
000001f0: f01b 00bd f26b c93d 7db6 a4bc fddb fc3d
00000200: fb36 d9bd 658c d23d d2a7 2cbd f6f4 44be
00000210: 7b0f 653d a1c0 dbbd 73b0 a33c cb6e 17be
00000220: a9f1 16be 002f b73d 7970 9fbd 09e2 d2bc
00000230: 664b ca3b 7cd0 fb3c 78b6 f63d bfce d93d
00000240: 06d1 0c3e 9b2b 073d 2a04 aebd f2eb 1abd
00000250: 391a d7bd 378b bcb9 0539 9abd 8c61 fb3c
00000260: 7ef4 59bc ec1d e0bd 1afe 1c3d 072b 0bbe
00000270: 1508 c03d 69c2 0a3c 4695 e33d 14ee d7bd
00000280: 3b66 7cbd 3a24 383d e6cc 56be c1b3 91bd
00000290: 6c67 5ebd b6fb d2bd 54cd 69bb 74d4 a03c
000002a0: c5e5 e2bd 356b 72bd 9628 893d 489b d73d
000002b0: 1eb4 e2bd ccf2 6e3d 647c 8cbd 4dea ee39
000002c0: 8ce6 6a3e 3eb3 89bd ec45 58bd 5c56 873d
000002d0: f048 9f3d 5ade 9fbd 56a2 cfbd b353 16be
000002e0: 1101 b53d d99a b9bd 59dc 6cbd 95cf fcbd
000002f0: 3c5e 50bd e943 eebd 35e6 8b3b 55f8 e5bd
00000300: 0819 d3bd 8f74 cf3d b669 403e 2661 d4bb
00000310: 4726 fa3d 5088 c1bd f877 0f3b e1f0 babd
00000320: 5c04 14be 3f98 61bc a585 91bc 8267 623c
00000330: c590 c1bd 6464 a83d 3603 d33c 2889 0abd
00000340: c91c c93d 7a8e f8bd 8c79 7b3d b2d4 1b3e
00000350: d28e 35bc 52c3 45bd 60e7 46bd d0d2 9d3d
00000360: 08e3 c1bd 5638 28bc 11e2 4b3d e25c b7bc
00000370: 4073 843d c335 9ebd 421a c43d e925 9b3d
00000380: 0101 723d 7eb0 4f3d 0995 8f3d 3ae3 9dbd
00000390: 4831 5d3b 2908 d13d e168 8a3d 76aa 9fbd
000003a0: cf4e 953b 8414 85bd 0658 edbc 3eef a53d
000003b0: 905c 3b3d 68bd eabd 3ca8 67bd 8765 1b3e
000003c0: 4faa 773d 245c 143e 3963 a73d a73b 693d
000003d0: 100d 123c b841 9a3d 0163 51bc bad8 d23c
000003e0: a128 8d3d 2238 a03d 59b2 60bd fa11 3bbe
000003f0: 7c88 d7bd 957d c43d 271f 013d 625e 883d
0.00023629177 0.0072306427 0.022725658 -0.10786629 0.009349698 -0.11602797 0.049691316 -0.09732796
-0.16874528 0.15012501 0.06019766 -0.1821203 -0.1137173 0.07163437 -0.027651677 0.012640321
-0.09041893 -0.02658087 -0.045964796 0.055419803 0.09022151 -0.0330748 0.0927094 -0.00082931144
0.11843875 0.0006454945 0.07578894 -0.0413726 0.05122613 0.1104455 0.039264143 -0.015961487
0.008121297 -0.092894845 -0.039569065 -0.006951891 -0.027640605 -0.15590328 -0.008635268 -0.075385906
-0.044855453 -0.026528748 -0.06894494 -0.058635615 0.019091919 -0.25563213 -0.0602312 0.033509098
0.020161115 0.018461216 0.116733916 0.07752987 -0.02498427 0.08390274 0.058978565 0.047998246
0.02496913 0.018751306 -0.13756597 -0.18963715 0.05898291 -0.12550576 -0.04236263 -0.042628344
-0.052876353 0.15539056 -0.15801452 -0.119278125 -0.049141474 0.027415 0.087713964 -0.15279505
0.06006864 -0.023409275 -0.061792806 0.048717808 0.07867955 0.10756234 -0.10016641 -0.00084613595
0.068663076 0.13598856 -0.06503444 0.05785134 -0.122370735 0.15623106 -0.14131856 -0.05471657
0.029347092 0.06483513 0.0032859643 -0.030063165 -0.09509228 -0.098593906 0.06115477 -0.10327904
0.00034086505 -0.06333861 -0.17719 0.03346409 -0.060444802 0.041304857 -0.051141366 0.034399204
-0.0674231 -0.023915032 -0.059847146 0.041168377 0.09610771 0.101551905 0.044751644 0.16189624
0.14468344 -0.0360065 -0.14463478 0.12697308 -0.06811841 -0.08177718 -0.04645835 -0.004889363
0.004354796 0.08647487 0.19715917 -0.32092682 -0.031276643 0.09835042 -0.020106548 0.12346647
-0.1060619 0.102806844 -0.042152233 -0.1923407 0.055922966 -0.107301004 0.019981598 -0.14788358
-0.14740624 0.089445114 -0.07785124 -0.025742548 0.006173539 0.030739062 0.12046522 0.10635137
0.13751611 0.03300057 -0.08496888 -0.03782267 -0.105030484 -0.00035961877 -0.07530407 0.030686162
-0.01330292 -0.10943207 0.038328268 -0.13590632 0.093765415 0.008469203 0.11112456 -0.10543457
-0.061620932 0.044956423 -0.209766 -0.071143635 -0.05429785 -0.10301916 -0.0035675364 0.019632556
-0.11078981 -0.05918427 0.06697194 0.105276644 -0.11069511 0.058337018 -0.06859663 0.00045569465
0.22939509 -0.06723641 -0.052801058 0.066082686 0.077775836 -0.07806082 -0.10138385 -0.14680366
0.08838094 -0.09062738 -0.057827327 -0.12344281 -0.05087112 -0.116340466 0.004269386 -0.11229006
-0.10307509 0.10129654 0.18790326 -0.0064813076 0.12214332 -0.09449828 0.0021891575 -0.09127975
-0.14454788 -0.013769208 -0.017763922 0.0138186235 -0.09451441 0.08222273 0.025758367 -0.03382221
0.098199435 -0.1213655 0.061395213 0.15217856 -0.011081414 -0.048281975 -0.0485605 0.07706225
-0.09467131 -0.010267338 0.04977614 -0.022383157 0.06467295 -0.07725098 0.09575321 0.0757559
0.05908299 0.050705425 0.07010848 -0.07709356 0.0033751298 0.102066346 0.06758285 -0.07796185
0.004556514 -0.06498054 -0.028972637 0.081022725 0.04574257 -0.114619076 -0.056556925 0.15175448
0.060465153 0.14488274 0.08173222 0.056941655 0.008914247 0.07532066 -0.012779952 0.025738109
0.06892515 0.078232065 -0.054857586 -0.18268576 -0.10524079 0.09594265 0.03152385 0.06658627

bias f4 [64]
00000000: eaf5 fdbd 613b 663e 3144 4e3d ef70 b73e
00000010: 780b d43e 7850 c4bd cf0a 503e 063c d13c
00000020: c81b d03e 6b73 1d3e cf4b 9d3e 2891 19be
00000030: bb32 4bbd eb18 c4bc cf45 4c3e 782e fbbd
00000040: 13a9 99bd adf1 933c ed62 fdbd 84d8 643b
00000050: 4c16 733e 61d9 89be 70e3 423e a347 ff3d
00000060: 02dd cf3d 9962 703e 6f14 983e ea37 ea3c
00000070: cb1b 96bd 93d7 f83e 6b53 8ebe ea2a a63d
00000080: ad28 c0bc 9f7c 3ebd 6741 f93e 896d ad3e
00000090: 2e41 eabd 249f cb3d 95f0 bc3e 6ee9 b13e
000000a0: 84e0 8c3c e051 7ebc 9193 6cbe f109 b9bd
000000b0: 91ac 30bb d468 c63d f9aa dc3e b3fe a23b
000000c0: 3667 f23e 8d29 bdbd 071f 64be 7f7f df3e
000000d0: 3be4 e13e 03be 5e3e 6cc5 0dbe bbc5 af3e
000000e0: 2e8f 71be 9515 ac3e 7e2f 9cbd acf7 9bbe
000000f0: 8a17 f1bd 073b 543e 7837 ac3c 3e8d bebd
-0.1240042 0.22483589 0.050358 0.3582835 0.41415 -0.09585661 0.20316623 0.025541317
0.40646195 0.1537606 0.307219 -0.14996779 -0.049608927 -0.023937663 0.19948505 -0.122647226
-0.075029515 0.018059576 -0.12372384 0.0034919092 0.23738974 -0.2692366 0.19032073 0.124648355
0.10149576 0.23475112 0.2970309 0.028591115 -0.0732952 0.4860197 -0.27798018 0.08113654
-0.023456896 -0.046505567 0.4868271 0.3387263 -0.11438213 0.09942463 0.369023 0.34748405
0.017196901 -0.01552245 -0.23103167 -0.09035099 -0.0026958326 0.09687963 0.43099192 0.00497421
0.4734437 -0.09236441 -0.22277461 0.4365196 0.4411944 0.21752171 -0.13844842 0.34330544
-0.23589775 0.33610216 -0.07626246 -0.30462396 -0.11772068 0.20725642 0.021022543 -0.093042836

weight f4 [64, 64]
00000000: 4a4f 733d 92ec 233e 7a2c 073d f9fe 953d
00000010: dbe5 0e3e 633d 413d 2a91 b43d 56b2 fa3d
00000020: 49bd 143d f4d0 583d 9663 25bc 415b 953c
00000030: b908 d2bd ae30 6a3d 1845 0c3e ba01 8cbd
00000040: e4c9 a7bd 571e c43b 96c7 f53d 87f8 8abd
00000050: 9ec6 0ebc 4ad6 5cbe 7559 fc3d 895d 2e3d
00000060: 8299 323d 8cf7 2cbd 0adf e1bd 6d5c f3bd
00000070: e115 bcbc 4b67 10bd a1bb 5d3c c96a f3bc
00000080: 5acd 333d a495 c03d 4bee 2b3e 72e5 01bc
00000090: 0275 9fbd e533 bfbd d47e 0fbd 87ff 2d3e
000000a0: e3e1 ccbd b03a 9e3d 2ee3 c4bd 5bf0 a73d
000000b0: d615 e5bb 11e5 753d cb76 fa3d aa79 18ba
000000c0: b509 133e 61b6 babd 9123 0fbd 7a1a 72bc
000000d0: 400a 333e 669f b23c a53b ff3d b49e 143e
000000e0: 0439 3739 61db fe3d 0bac 13bd c4ef 68be
000000f0: a4ed 1ebd 4141 bb3d 7790 f93c 8e36 86bb
00000100: 2039 923d 5bdf cc3d 73b1 123e bd8c d33d
00000110: 666a 013e 523a 583c 739a 4f3d 2954 56bd
00000120: 380c a43d 8dac 0d3e 32cd de3d 0162 fabd
00000130: 04d8 743d 6623 babc de3b 643d 0657 64bd
00000140: b03d 5bbd ad13 94bc e19c da3d db68 fc3c
00000150: d0da 703d 8561 6dbe 3c0e 80bd d55f 1d3e
00000160: c0c6 2fbd 25e4 203d 077e 043e 673e f9bd
00000170: 7e59 c9bd d03c 033e 3c35 7cbe 2c90 6bbd
00000180: 000a 853d 4f76 b9bd d44c 453e be05 223e
00000190: d685 a0bd 5206 e93d d054 fa3b b904 233e
000001a0: 68e5 ec3d 1cb2 d23d 9b61 43be 0d55 afbb
000001b0: 0b34 56bd 65fe 17bd fa9e 043e 7f02 a9bd
000001c0: 4405 e5bc fdc4 623d ff94 23bd 14e5 363e
000001d0: d32b dd3d ea6d 7e3c ada0 d23d b9ba 0b3e
000001e0: b286 9cbc 0aa7 1b3e 0b96 a53d a17c 1dbe
000001f0: 6cea 89bd 3b34 f7ba 40f2 c03d 3687 6ebd
00000200: 2a09 873d c95d 193e ffa5 073e 6dbe d63d
00000210: a2bf bd3d 3a49 0cbd 3338 ef3d 2d93 99bd
00000220: f1fe bb3d b668 083e a4ce be3d cabd bbbd
00000230: 1bb0 1a3b 4996 703c 0545 3dbd 850a cabd
00000240: b1f8 09be e794 9e3d e575 9fbd 220c cfbc
00000250: 1f1f 323e 6bda 83be fd69 7abc 3b99 d0bc
00000260: 7dc7 bf3a 5876 493c 77c4 0c3e 1931 b93a
00000270: 721e 09bd 9b14 603b d093 aebe 1577 abbc
00000280: 6c99 a93c 6482 2cbd b2a0 9c3d 7ccb 3a3e
00000290: 3c43 ebbd 6377 313d a9b8 c6bc 5577 4c3e
000002a0: 3da7 93bd 70bc 5a3c f181 4ebe b0a4 efbc
000002b0: d101 083e 58db a53d 7215 303d 61be fb3d
000002c0: 79ad 27bc 6a28 77bd 01db e8bc f912 07bd
000002d0: e7e2 1f3e 42b4 c63d 35ac d9bd d892 df3c
000002e0: ca37 b9bd e330 c73d 595d bc3b cc05 da3c
000002f0: 0177 02bc db7d f13d 2e45 2d3d a020 e7bd
00000300: 9936 eb3d 7f0a 8bbd beed 01be 0a59 a63d
00000310: c366 853d c7db 8a3d e4e8 e83d 16fe a4bd
00000320: 6dc2 babb ca1c f63d 9134 ea3c 928e dabc
00000330: 0143 b0bd 50d0 5c3d 0173 f9bc fefe 3ebe
00000340: 4f2c 22bd 7074 01bd 0991 81bd 0747 de3d
00000350: 11ab 1a3e 4524 46be c6d6 dcbd d4bd 9ebd
00000360: cb09 d13d ba10 8d3c debd 783d 2cc7 af3d
00000370: 37bc 873c be17 193d bb61 96bc 9019 c83c
00000380: 6ed3 033e 0e78 b53d 5a9b dbbc 8594 0e3e
00000390: 1031 dbbc 86d7 2d3d 0b6a adba bd6f e7bc
000003a0: 003c ebba e898 97bc 211c 13be a279 fa3c
000003b0: 557f e33d bcd2 e5bd 6a20 0c3e c2aa 7bbd
000003c0: dc23 e83d d140 673d 3c8b 943d 35f4 623c
000003d0: 1a27 c13c 9eba d3bd 21fa 2ebd 8b72 823d
000003e0: 00fd ec3c 067e 213d 22ea 173d 66db 58bd
000003f0: 8985 e0bb 5978 d8bd c458 873d 3ce2 003d
0.059401788 0.16008213 0.0330014 0.07324023 0.1395487 0.047177684 0.0881675 0.12241046
0.03631333 0.05293365 -0.010094544 0.01823199 -0.1025557 0.05717533 0.13698232 -0.06836267
-0.081928045 0.005985062 0.120009586 -0.06785684 -0.008714346 -0.2156612 0.1232175 0.04256967
0.043603428 -0.042228267 -0.110288695 -0.11882863 -0.022959651 -0.035254758 0.013533504 -0.029714005
0.04389701 0.09403542 0.1679012 -0.007928239 -0.07785989 -0.0933607 -0.035033062 0.16992007
-0.10004022 0.077260375 -0.096136436 0.08200141 -0.0069911284 0.060032908 0.12229689 -0.0005816469
0.14359172 -0.09116817 -0.03494603 -0.01477682 0.17484379 0.021804523 0.12462548 0.14513665
0.0001747348 0.12444187 -0.036052745 -0.22747713 -0.03880085 0.091433056 0.030464394 -0.004095859
0.07139802 0.10003539 0.14325504 0.10329578 0.12638244 0.013197498 0.050684404 -0.052326355
0.08010143 0.13835354 0.10878982 -0.12225724 0.05977632 -0.022721957 0.055721156 -0.055747055
-0.053525627 -0.018075788 0.106744535 0.030811718 0.058802426 -0.23181732 -0.06252715 0.15368588
-0.042914152 0.039280076 0.129387 -0.121701054 -0.098315224 0.12816167 -0.24629682 -0.05751054
0.06496048 -0.09055769 0.19267589 0.15822503 -0.07838027 0.11378159 0.007639505 0.1591977
0.11567193 0.10287878 -0.19080202 -0.005350715 -0.052295726 -0.037107844 0.1295127 -0.08252429
-0.027956612 0.055363644 -0.039937016 0.17860824 0.107993744 0.015529135 0.10284553 0.13645448
-0.019107196 0.15200439 0.08085259 -0.15379573 -0.067341655 -0.001886017 0.094212055 -0.058234416
0.06593545 0.14977182 0.13246916 0.104855396 0.09265067 -0.03424952 0.11680641 -0.07498775
0.091794856 0.13321194 0.09316757 -0.09167059 0.0023603502 0.014684268 -0.0462084 -0.09865288
-0.13473774 0.077432446 -0.077861585 -0.02527434 0.17394684 -0.25752577 -0.015284059 -0.025463691
0.0014631596 0.012296282 0.1374682 0.0014129012 -0.0334763 0.003419197 -0.34097147 -0.020930806
0.02070304 -0.042116538 0.07647838 0.18241686 -0.11487433 0.043326747 -0.024257975 0.19967397
-0.072096325 0.013350591 -0.20166756 -0.029253334 0.13281943 0.08098477 0.0429892 0.12292171
-0.01023423 -0.060341276 -0.028424742 -0.032977078 0.156139 0.0970235 -0.10628549 0.0272917
-0.09043844 0.09726121 0.0057484326 0.026614092 -0.007962943 0.11791583 0.042302303 -0.112855196
0.11485023 -0.06789111 -0.12688348 0.081224516 0.06513741 0.067802005 0.11372545 -0.080562755
-0.005699447 0.1201721 0.028589519 -0.026679311 -0.0860653 0.0539096 -0.030450346 -0.1865196
-0.039593037 -0.031605184 -0.063264914 0.10853391 0.15104319 -0.19349773 -0.10783152 -0.077510506
0.10206946 0.01721989 0.060727946 0.08582911 0.01656924 0.037376158 -0.018357148 0.024426252
0.12873623 0.08860789 -0.026807476 0.13923843 -0.026756793 0.042441867 -0.0013230456 -0.028251523
-0.0017946959 -0.018505529 -0.14366199 0.030575577 0.11108271 -0.11221835 0.1368424 -0.061442144
0.11334965 0.056458298 0.07253119 0.013852169 0.023578215 -0.10338329 -0.04271901 0.063695036
0.028929234 0.039426826 0.03708852 -0.05294361 -0.006851856 -0.105698295 0.066087276 0.031465754

bias f4 [64]
00000000: 8f4f db3e e449 a23e 8b8f 9f3e 7e9f 2b3e
00000010: 43c4 9c3e 2a78 acbd 496a 8a3e 128a e0ba
00000020: aa4d ce3e b436 5a3e b341 873e 65b3 123d
00000030: 73e8 7b3e 33de 2bbd a552 00be 6239 a1be
00000040: 706a 6cbc f2cb 363d 77fb fc3d cf23 54be
00000050: 6e0c 1a3d a87d 43bd b9f2 74bd 170f 07be
00000060: aed6 06bc 7cc4 10be 65e0 cdbd df67 8cbd
00000070: 9041 fa3e babd d1bd 6177 bb3e 9d44 163e
00000080: 7d72 a4bd 55e4 823e 6f6a f73d 547a 6bbd
00000090: 1d0f 303c 30a5 093f bcfd dd3e 7508 ee3e
000000a0: 94f6 3cbd 6a5d 32bc 7720 b43e cf02 143f
000000b0: f383 b73c 2a30 74bd a0c5 3ebd 1061 073d
000000c0: 4025 d6bd 3da8 033f 54e5 e43a d337 c53e
000000d0: 224f a6bd a386 0f3d bf4a 3dbd 3a4a 0a3f
000000e0: 9dd5 9fbd 7276 acbd c461 6f3d f4df 83bd
000000f0: 9cd8 d83e c468 f53c cc52 683e 5d35 a03d
0.42834136 0.31697 0.31164202 0.1676006 0.30618486 -0.08421357 0.27034214 -0.0017130992
0.40293628 0.2130993 0.26417312 0.035815615 0.24600391 -0.041959953 -0.12531526 -0.31489092
-0.014429674 0.04462809 0.123526506 -0.20716785 0.03760951 -0.047727257 -0.05980179 -0.1318935
-0.008229895 -0.14137453 -0.100525655 -0.06855749 0.48878145 -0.102412656 0.36614516 0.14674611
-0.080296494 0.2556483 0.120808475 -0.057489708 0.010745791 0.5376768 0.43357646 0.46490827
-0.046133593 -0.010886529 0.3518102 0.57816786 0.022401785 -0.059616245 -0.04657519 0.03305155
-0.104563236 0.51428586 0.0017463365 0.38519153 -0.08120562 0.03504051 -0.04621386 0.5401951
-0.078044154 -0.08421029 0.058442846 -0.064392 0.4235276 0.029957183 0.22687835 0.07822678

weight f4 [1, 64]
00000000: c9f0 a73d efc6 343e e9da e83d 997c 083d
00000010: 54f3 f43d 7099 84bc 4166 8aba a590 333c
00000020: 3ff3 d43c b730 193d 310d d83d 3816 25bd
00000030: 25a8 913c 4401 863c 43c6 cabb c2fd a4bc
00000040: cc35 6fbd 7ba1 573b c124 df3a 4f04 67bb
00000050: 445b a8bd a05f 9ebc 5838 f73c b3fd 703c
00000060: 7d8c b6bc a1c3 12bb b837 aebc 4ad4 283b
00000070: d46c b83d 6055 223d c489 303e 9114 193d
00000080: d29d 253c 2502 e43d 33d9 373c b0e8 cabc
00000090: dfa0 7bbb f43a 403e 8d15 0d3e 427b e83d
000000a0: 4211 9b3d 42dd 9cbc dc3e 5c3d f492 163e
000000b0: 9f93 34bb e005 d0bd e792 65bc fb9a 89bb
000000c0: c8ec d8bc 0dd2 e53d 7c2a 453a f755 563c
000000d0: 9b63 7ebd 0bde 2ab9 0f82 6dbb b642 c23d
000000e0: e2b8 253d 7afa 98ba 381b 3f3c 2db9 c6bc
000000f0: cab2 f83d d998 0cbd ae92 013e 8d1e d5bd
0.08200223 0.17654012 0.11369879 0.03332195 0.11960474 -0.016186446 -0.0010559038 0.010959779
0.025994895 0.037399974 0.10549391 -0.040304393 0.017780373 0.016358025 -0.0061881854 -0.020140532
-0.058400914 0.0032902646 0.0017024503 -0.003525037 -0.082205325 -0.019332707 0.030178234 0.014708924
-0.022283787 -0.0022394436 -0.021266803 0.00257613 0.09005132 0.0396322 0.17240053 0.03737313
0.010108428 0.111332215 0.011221218 -0.024769157 -0.0038395447 0.18772489 0.13777752 0.113516346
0.07571651 -0.019148473 0.053770885 0.14704496 -0.002755381 -0.101573706 -0.014012075 -0.0041993833
-0.026480094 0.11221705 0.0007521284 0.013082019 -0.06210671 -0.00016295181 -0.003624085 0.0948538
0.04045952 -0.0011671328 0.011664204 -0.02425822 0.12143476 -0.034325454 0.1265361 -0.10406218
