models/challenger/artifacts/models/Model_dim64_layers5_experiment/r2_score0.5673723698111446_run23/data/model.pth (torch, 294920 bytes, 13 tensors)

weight f4 [64, 801]
000000 72 96 4d bc 50 2d 7c 3b c8 9a 3b 3c d3 ae c6 3a
       -0.012548076 0.0038479157 0.011450477 0.0015158303
000010 79 63 16 bb f6 1f 1a bd cc 33 a2 bc 01 8c 36 bd
       -0.0022947474 -0.037628137 -0.01980009 -0.044567112
000020 f1 4d 32 bc 3d 51 1a 3c 24 fc dc bc e2 e3 11 bc
       -0.0108828405 0.009418783 -0.026975699 -0.008904429
000030 00 ca e7 bc 25 36 c3 bc 88 ce 10 3b ed 44 88 bc
       -0.028294563 -0.023829529 0.0022095758 -0.016634429
000040 2e 04 94 3c da a6 d5 bc e5 46 33 3c 5b a5 b9 3c
       0.0180684 -0.026080538 0.010942196 0.022661855
000050 73 19 24 bc 97 3c aa 3b 46 ff bd bc 3d 7c 29 3c
       -0.010015833 0.005195211 -0.023193013 0.010344562
000060 be 3f ea bb 18 e6 bd bc bc f1 eb bc ad 60 a1 bc
       -0.007148712 -0.023181006 -0.028801791 -0.019699419
000070 2a 52 86 3c 69 44 6b 3c 5b 8d b1 3b 11 c8 08 bd
       0.0163966 0.014359572 0.005418462 -0.033393923
000080 af 7f 63 bd b8 06 a7 bc b2 e3 10 bd d6 19 87 3c
       -0.05554169 -0.020388946 -0.035373397 0.016491812
000090 56 44 6e bc 65 6b 09 3d 4c cd 98 3c 9e 00 1c bd
       -0.01454266 0.033549685 0.01865258 -0.038086526
0000a0 5f 8e 14 3d c4 d7 96 3c 04 c1 0c bc 5b 95 ad bc
       0.03626859 0.018413432 -0.00859094 -0.021189382
0000b0 bd 08 02 bd 83 75 e2 ba 3b fb 20 3d 7d d4 99 bc
       -0.031746615 -0.0017277453 0.039302092 -0.01877808
0000c0 dd 73 aa bb 31 d0 3d bb 0e 8d 18 bd 15 4b 9b bb
       -0.0052018003 -0.0028963203 -0.037243895 -0.004739175
0000d0 9d 1c 2e bc ef d0 6f 3c aa 1c 3c 3c 70 61 aa bc
       -0.010626939 0.014637216 0.011481443 -0.020798415
0000e0 66 be 09 3a 35 68 5f bd f8 e1 da 3c 80 f8 95 bb
       0.0005254507 -0.05454274 0.026719078 -0.0045767426
0000f0 b6 9e 48 bb c7 32 9b bb c1 37 29 3d 1c 3c ee 3c
       -0.0030612177 -0.0047362777 0.041312937 0.029081397
000100 0f 02 44 3c 57 93 4e 3d b0 09 13 3d db b8 5b 3c
       0.011963381 0.050433483 0.03589791 0.013410772
000110 b7 f8 ac bb f5 a2 73 3b c2 27 69 3b 9c 7a 13 bb
       -0.0052786726 0.0037175987 0.0035576676 -0.00225035
000120 95 c9 19 3c f1 a9 d9 3c 7c c1 a1 3b 91 92 18 bd
       0.00938644 0.026570292 0.004936395 -0.03724915
000130 34 a7 6e bc 7b 7d d4 bc f1 b1 97 3b 40 1b 9c bc
       -0.0145662315 -0.02593874 0.0046293666 -0.019055963
000140 c1 2c 29 3d b8 37 b8 bc 63 df 1a 3d 36 9c 7d 3c
       0.041302446 -0.022487506 0.037810694 0.015479138
000150 21 8c 54 bc d1 08 8e bc 5c bd 00 3d 55 7d 9d bc
       -0.012972862 -0.017338188 0.031430587 -0.019224802
000160 25 c1 42 3c f5 83 9c bc 3c 4b 49 3c be 4d c9 bc
       0.01188687 -0.01910589 0.012286004 -0.024573203
000170 c2 5c 30 3c 81 28 99 bc 33 49 e5 3b 23 19 04 3d
       0.010764303 -0.018696072 0.0069972514 0.032250535
000180 98 4a 86 3c 9f 8b d2 3b 63 37 e8 bc 4d 9c 0b 3d
       0.016392991 0.0064253355 -0.028346723 0.034084607
000190 e4 68 e8 3c 0d 34 07 bb 09 00 b4 3c a9 22 da bc
       0.028370328 -0.002063039 0.021972673 -0.026627855
0001a0 9f 3c 31 3d b1 42 09 bd bb 31 70 bc 73 f2 5d bc
       0.043270703 -0.033510868 -0.014660294 -0.013546574
0001b0 3c 82 ea bc 07 47 ac 3c 24 59 9b 3c 2d 69 b5 3c
       -0.028626554 0.021029962 0.018963404 0.022144878
0001c0 bb e5 05 bb 9e 7d a4 36 88 47 c6 3c 34 7a 5d bb
       -0.002043112 4.9022046e-06 0.02420403 -0.0033794763
0001d0 9d 77 42 bb ce 8b 2e 3c 44 26 a9 bc 0c e5 03 3d
       -0.0029673346 0.010653449 -0.02064813 0.032200858
0001e0 0a 69 98 3c 6e e0 71 3c a6 5e 89 3a cb 53 78 bd
       0.018604774 0.014762981 0.0010480478 -0.060626786
0001f0 8c 4e 94 3c 55 d9 c0 3a 50 fe ab 3c 70 fd ca 3c
       0.01810386 0.0014713207 0.02099529 0.024779052
000200 d1 4f 5d 3d 76 29 39 bc 0d dc 8b bc 87 ca 4f 3c
       0.054031197 -0.011301389 -0.017072702 0.012682564
000210 81 b1 b5 3b d8 b6 14 3d 11 11 2d bd be 3c cc 3c
       0.0055448418 0.036307186 -0.042252604 0.024931308
000220 a8 be cf 3b f5 9a cc bb 01 3c 8b 3c 4a f1 88 bc
       0.0063398667 -0.0062440583 0.016996386 -0.016716618
000230 c9 bc c8 bb a1 e4 1a bc b0 73 e5 bc 6d 62 1a 3b
       -0.0061260206 -0.009453923 -0.028009266 0.0023557201
000240 03 e2 7d 3a bd 12 57 3d f2 79 87 3c 33 ce 08 3d
       0.00096848625 0.052508105 0.01653764 0.033399772
000250 af 49 25 3d 08 63 ea 3b 63 a2 19 bd e3 8d b9 bb
       0.040353473 0.0071529187 -0.03750838 -0.005662666
000260 66 23 ec bb bd 52 04 bc 9c 4c 4a 3c f1 b5 fd 3c
       -0.0072063683 -0.008076367 0.012347367 0.030970545
000270 a6 70 11 bc fd 98 f7 bc 06 52 3b 3c ca e6 dc bc
       -0.008876955 -0.030224318 0.01143313 -0.026965518
000280 fe b2 65 3c 25 19 d5 3c 77 51 13 3d ea 70 79 bb
       0.014019726 0.026012966 0.035966363 -0.0038061687
000290 8b ae 5a 3c f9 cf 76 3c ef 37 6d 3c 00 cb cd bc
       0.013347278 0.015064233 0.014478668 -0.025121212
0002a0 9b 40 7f bc b2 91 20 bd 0c af 22 bd 8e e7 44 ba
       -0.015579368 -0.039201446 -0.03971772 -0.0007511311
0002b0 10 97 be 3c f0 5d e6 bc 54 0b 0b bd 18 12 05 bd
       0.023265392 -0.028120965 -0.03394635 -0.03248796
0002c0 f8 0c f5 bc e2 9d 88 3c 84 3d a7 b9 59 35 ce bc
       -0.02991341 0.016676847 -0.00031898555 -0.025171923
0002d0 70 8c 0d 3d 29 cc bf bc e4 53 13 bd 3c ac 31 bb
       0.03455776 -0.02341278 -0.035968676 -0.0027110716
0002e0 97 6d b1 bc 2b be c8 3c 65 c8 7a bc ef eb b2 ba
       -0.021658702 0.024504742 -0.015306567 -0.0013650636
0002f0 e2 26 92 3c f9 5c e3 bc 6b ee c7 ba 89 52 a0 3c
       0.017840806 -0.027754294 -0.0015253549 0.019570606
000300 f4 79 4f 3b 7d ba cf 3c 4c 7f e6 3c 19 29 56 3c
       0.0031658383 0.02535748 0.028136872 0.013071322
000310 c7 68 be bc 35 e5 16 bd 76 d2 55 3c 8f 84 c3 bc
       -0.023243321 -0.036839683 0.013050666 -0.02386692
000320 6a 15 18 bc 95 f4 1c 3c 6a 70 54 bc cb ed 09 3c
       -0.009282449 0.009579797 -0.012966255 0.008418511
000330 ce ed a0 bc 5a f9 bd bb 9b 20 92 3c 45 d0 a6 bc
       -0.019644644 -0.0057975473 0.017837813 -0.020362983
000340 e8 70 d9 bc c7 1b 4a bc 97 06 87 bc 25 eb c9 3c
       -0.026543096 -0.012335724 -0.016482634 0.024648258
000350 76 ec 7b bc 08 e8 28 3d 16 a9 e9 3c 2c df c9 bc
       -0.015376201 0.041236907 0.02852301 -0.02464255
000360 84 a1 b3 3c 75 69 0e 3d 08 aa 5b 3c de 80 78 bc
       0.021927603 0.03476854 0.013407238 -0.015167443
000370 65 52 10 bb fd b4 39 bd 7f 21 15 bd 49 72 f6 3c
       -0.0022021767 -0.04533862 -0.036408897 0.030083792
000380 78 a5 6b 3a 20 91 19 bc 6f 15 08 3d 02 b9 c3 bc
       0.00089891953 -0.009372979 0.033223566 -0.02389193
000390 a6 60 6e bc a0 b2 a6 bc 93 28 61 3c 86 be 55 bc
       -0.01454941 -0.020348847 0.013742584 -0.013045913
0003a0 0a 1a 7a bc 56 84 d2 3a 12 ed bd 3b ed a7 8b bc
       -0.015264997 0.0016061168 0.0057960832 -0.017047847
0003b0 ec 35 b0 3c c1 59 cb 3a c6 c2 91 3c b8 5b 1b bd
       0.021510087 0.001551442 0.01779307 -0.037929267
0003c0 a9 85 24 3d a6 22 ee bc f4 17 25 3b a4 d0 25 bc
       0.04016653 -0.029069256 0.002519128 -0.010120545
0003d0 2c 76 b7 bc 43 31 c4 bb e9 18 c8 bc 98 91 b4 bc
       -0.022395216 -0.0059873178 -0.02442594 -0.02204208
0003e0 ff 3d 0e bc 10 ba c8 3a f5 05 f2 bc ad a4 43 3b
       -0.008681773 0.001531424 -0.029543856 0.0029852793
0003f0 54 ce e5 3b f0 81 55 3c 9d 70 90 3c a2 96 5f 3c
       0.0070131216 0.013031468 0.017631823 0.0136467535

bias f4 [64]
000000 1c d8 80 3c 28 d5 92 3c a5 b7 9e bc da 4b e5 bc
       0.015728049 0.017923906 -0.019374678 -0.02799027
000010 92 fb 5d 3c ae 47 a8 bd 4b 65 bf bc 1f b8 ca 3b
       0.013548749 -0.08216797 -0.02336373 0.0061864997
000020 08 61 f2 bc f2 b1 1f 3d 19 f8 4e 3c 71 f4 43 3d
       -0.029587284 0.03898806 0.012632393 0.04784054
000030 7b d6 15 bd ee e0 42 bc d0 d8 8c 3b 23 24 e8 bc
       -0.036581498 -0.011894448 0.004298307 -0.028337544
000040 ce 10 0b bc 0c ce 56 3b 06 fc e4 3c c9 8a 22 bc
       -0.008487893 0.0032776622 0.027952205 -0.009920784
000050 fb ca 95 3a 68 05 5d 3c 71 6c b7 bc 46 b3 26 bb
       0.0011428291 0.0134900585 -0.022390576 -0.0025436445
000060 94 a5 3f bc c3 7d 69 bc 88 19 db bc 48 38 59 3c
       -0.011697192 -0.014251175 -0.026745573 0.013258047
000070 ac a9 06 bb 78 82 07 3c 54 e0 16 bd 87 ac ac 3c
       -0.002054791 0.008270852 -0.03683503 0.021078361
000080 26 92 ba 3c d7 d4 5c 3c 5a 57 92 bc a4 96 92 bc
       0.022774767 0.013478479 -0.017863918 -0.017894097
000090 33 61 5a 3d bd d7 02 3c 79 50 06 bd 08 91 52 bd
       0.053315353 0.007986006 -0.03279159 -0.051407844
0000a0 23 47 f0 bb e5 90 15 bd e6 a2 06 bd 9b 3e d6 3c
       -0.007332699 -0.036515135 -0.032870196 0.0261529
0000b0 aa f0 23 bb 06 c4 2c ba 27 60 85 3a 18 19 89 3c
       -0.0025015273 -0.0006590489 0.001017575 0.016735598
0000c0 ec cc e6 39 73 91 ff bc 18 20 cb 3c b9 92 dd bc
       0.00044021697 -0.031197285 0.024795577 -0.027047502
0000d0 58 7a 3f bc 87 a8 cd bc 8d ed 26 bd 57 e1 31 3c
       -0.011686884 -0.025104774 -0.04075389 0.010856948
0000e0 71 6f 1f bd b4 f8 8d bb 6e 8d a9 3d a5 e6 6c bc
       -0.03892464 -0.0043326262 0.08278929 -0.014459287
0000f0 88 3a 04 3d c2 80 32 bd 59 c5 16 bc 83 17 34 3d
       0.032282382 -0.043579824 -0.009202325 0.043967735

weight f4 [64, 64]
000000 68 79 5c bd 1c 20 fb 3d 58 9b 08 be e9 1b d7 bd
       -0.05382672 0.12261984 -0.13340509 -0.1050337
000010 a8 fd 43 be ea db 98 3d 74 4d da 3c c7 e1 de bd
       -0.19139731 0.0746382 0.02664826 -0.10882907
000020 0a ed c7 bd 7c e4 b2 bd fb 51 e6 bd ec e7 01 bf
       -0.097620085 -0.08734986 -0.11246105 -0.5074451
000030 6c 71 7b bd 16 71 aa 3d 3b 2f 28 3b 0e af 02 be
       -0.061387464 0.08322351 0.0025662917 -0.1276209
000040 c4 a5 ac 3d 4f cd 78 bc f6 09 ad be 6c dc f2 bd
       0.08430055 -0.015185668 -0.33796662 -0.118584484
000050 40 39 1d bb 2c 2a a6 bd c3 c0 42 3d 70 db dd 3d
       -0.0023990422 -0.081135124 0.047547113 0.1083287
000060 4b 89 9f bd 49 09 95 bd a8 74 22 bd 1c ef bf bd
       -0.077898584 -0.07277162 -0.039662033 -0.09371778
000070 19 45 32 bd f4 c9 74 3d b6 1c 07 be 88 9b 30 3d
       -0.043522928 0.05976291 -0.13194546 0.043117076
000080 a8 14 76 be ba 63 bb 3d e3 ed d6 3d 28 6c 04 3e
       -0.24031317 0.09149881 0.10494592 0.12931883
000090 0d d6 59 be 7a e1 82 3d c0 83 54 bb 4c 0a f0 bd
       -0.2127306 0.063906625 -0.0032427162 -0.11720714
0000a0 97 be c9 bd e6 47 24 bd 90 2a 46 bd 04 75 12 3e
       -0.09850805 -0.04010763 -0.048380435 0.1430245
0000b0 69 e0 57 3d 20 13 93 bd a8 83 e7 bd 5a c8 14 be
       0.05270425 -0.07181382 -0.11304408 -0.14529553
0000c0 a9 e5 84 be 7e 58 95 bd af 4d 7f bd 2b 8f 7a 3d
       -0.25956467 -0.07292269 -0.062329944 0.061171692
0000d0 24 b5 29 3c 03 cb ad be 2c 0a ea bd f4 6f a1 3e
       0.010358129 -0.33943948 -0.114277214 0.31530726
0000e0 70 3c 49 3c 0d bc dd bd 35 58 91 3d 19 9b 01 be
       0.012282476 -0.108268835 0.07096902 -0.12656821
0000f0 86 a4 85 3d dc 1c 0b bc 30 45 9c bd 2b d5 46 be
       0.06525521 -0.008490767 -0.07630384 -0.19417255
000100 be 4b 87 3d 00 ad 49 3c 4a 29 75 be 0a d4 90 bd
       0.066062436 0.012309313 -0.23941532 -0.07071693
000110 e9 bf b3 3d ce 00 08 be 8e 7a 37 be 75 88 43 3c
       0.08776838 -0.13281557 -0.17917845 0.011934389
000120 37 a3 78 3d dc 1f 0d bd ad 4a e5 bd b2 45 41 bc
       0.06070253 -0.03445421 -0.11195884 -0.011796402
000130 7f 94 06 be 56 10 04 3d 8a cd 01 be f8 2d 44 bd
       -0.13142584 0.03224214 -0.12676063 -0.0478954
000140 e0 35 e0 bb 2b 5b 24 be aa af 56 3e 86 0e 05 be
       -0.00684236 -0.16050403 0.20965448 -0.12993822
000150 d2 01 a2 bd 0d 2a 1a be 6a 45 cf be 3d 70 c3 3d
       -0.079105034 -0.15055104 -0.40482646 0.09542892
000160 bf b6 f6 3d f9 81 6c 3c 45 83 2d bd d6 1e 93 bd
       0.12046575 0.014435285 -0.042361517 -0.07183616
000170 36 fe a9 3d c5 67 51 3d 57 c4 83 3d 04 ca 9f bd
       0.0830044 0.051124353 0.06433933 -0.07802203
000180 1d fa a7 bd cf f3 af 3d 01 22 39 bd 2b 3b ec 3d
       -0.08202002 0.08591425 -0.045198444 0.11534723
000190 12 24 24 3e 81 4d cb 3c 36 69 89 3d 05 6b f8 bc
       0.16029385 0.02481723 0.067095205 -0.030324468
0001a0 ee a3 8b be 36 43 61 be 08 96 c6 bd 14 d7 ba 3c
       -0.27273506 -0.21998295 -0.09696585 0.022807635
0001b0 13 aa 4a 3c 1c 76 d1 3c 3c 4d e9 bd 6f af 3f 3e
       0.01236965 0.025569014 -0.113916844 0.18719266
0001c0 70 52 e7 be 7f f7 27 bd 59 d3 38 be ef e3 02 3e
       -0.45180082 -0.041007515 -0.18049373 0.12782262
0001d0 71 7f 31 bc a5 7e 81 3d 04 ad 0c 3d 7f 4d b5 3e
       -0.010833607 0.06322984 0.034344688 0.35410687
0001e0 6e c2 8f bd 24 e3 20 3e 30 2f 56 bd a5 5a c5 3c
       -0.070195064 0.15711647 -0.052291095 0.024091074
0001f0 50 a3 b2 bd cd 54 0e be c0 15 5e bd e0 36 a4 3d
       -0.08722556 -0.13899536 -0.05421996 0.08018279
000200 a0 f0 ba bb 9e b9 bc 3d fa 0c 2f 3c 0f 25 1a bd
       -0.0057049543 0.09215091 0.010684246 -0.037632998
000210 f0 5f e7 bd 09 a9 8f bc 45 d7 6d 3e d2 ba dc 3d
       -0.112975955 -0.017536657 0.2322665 0.10777821
000220 08 2f 64 3d b2 17 b6 3d 5e 69 b1 be 7b fd 1c 3e
       0.055708915 0.08891238 -0.346507 0.1533107
000230 f0 91 69 3d 5e 37 39 3e e7 ef e8 bd b8 b9 93 be
       0.057023942 0.18087527 -0.11373883 -0.2885263
000240 e4 02 f2 bd 1e c0 31 3e fc 91 de be 9c 0c ac 3d
       -0.118169576 0.17358443 -0.43470752 0.084008425
000250 98 6d ef bd a0 8d b3 3d af 5c a8 be 77 35 77 be
       -0.11690825 0.08767247 -0.32883212 -0.24141489
000260 e6 88 bd bd 19 8e ff bc 70 fd e5 3c 08 13 d0 3c
       -0.09254627 -0.031195687 0.02807495 0.0253997
000270 8d 8e 86 bd 94 cd 51 bd 38 9e c3 bd 04 3b 49 bd
       -0.06570158 -0.051221445 -0.09551662 -0.049128547
000280 85 70 08 3c c8 2a 18 3d 41 e5 1c be a5 08 a8 bc
       0.008327608 0.037150174 -0.15321828 -0.020511935
000290 ac 94 83 be b0 14 f2 bd 24 bc c8 bd 7a 65 81 bd
       -0.25699365 -0.11820352 -0.0980151 -0.06318183
0002a0 d2 0b 89 bd f5 66 d4 3c 02 c7 c3 bd d8 20 38 3e
       -0.06691708 0.025928 -0.09559442 0.17981279
0002b0 d4 17 73 bd 9a c7 9e be 5a 4b fe 3d 26 73 25 be
       -0.059348896 -0.3101166 0.12416716 -0.16157207
0002c0 de 80 91 3d 40 97 67 bd dd 95 d7 3d f0 37 16 bd
       0.071046576 -0.056540728 0.10526631 -0.03667444
0002d0 b8 b1 83 bd 1e 3a 8e 3d 18 f7 dc 3d 35 72 1c bb
       -0.064303815 0.06944679 0.10789317 -0.0023871784
0002e0 2b 57 f9 3d 24 88 bd bd 60 e5 54 3d 76 1c fc 3d
       0.12174829 -0.092544824 0.05197656 0.12310116
0002f0 fe dc dd bd 42 34 9d be b6 fa ba bd 59 84 c3 3d
       -0.108331665 -0.30703932 -0.091298506 0.09546728
000300 9f a0 a6 bc 28 1a 4c 3d 39 68 fb bc 86 93 36 3d
       -0.020340262 0.049829632 -0.030689346 0.044574283
000310 c8 95 df bd 13 ed 81 3d 64 44 27 be d8 9b de bd
       -0.109172404 0.063440464 -0.16334683 -0.108695686
000320 28 43 9f bd 6c cd 28 be 14 ea c8 bd 0a 6a 4e bd
       -0.07776481 -0.16484612 -0.09810272 -0.050394095
000330 67 2d ac bd 02 1b 8f 3d bb eb 3e 3d 8b 9a b2 bb
       -0.08407097 0.06987573 0.04661153 -0.005450552
000340 2a 8c c0 bd f7 80 3f bd 85 60 41 3d 86 4f 39 bd
       -0.09401734 -0.04675385 0.04721119 -0.045241855
000350 60 92 58 3c 43 6b 39 be 4f 5f da bd af 81 86 3d
       0.013218492 -0.18107323 -0.1066271 0.06567704
000360 da 86 c7 3c ad 98 09 bd bc b3 7c bd e0 e4 10 bd
       0.024356294 -0.03359287 -0.061694846 -0.035374522
000370 a9 a1 29 3e 85 87 d4 3d c3 5d 07 3e a0 11 71 bc
       0.16565575 0.10377411 0.13219361 -0.014713675
000380 6b 2d 71 be 04 3d 17 3c f5 30 a0 bd 8f 2c cd 3d
       -0.23552482 0.009230856 -0.07821838 0.100182645
000390 e8 ec e9 bc b0 1e 21 3c 10 b9 45 3c f5 ff 19 3d
       -0.028555349 0.009833977 0.012068048 0.037597615
0003a0 b7 a3 dc 3d 1e c7 77 3d f8 86 b5 3d 3b 29 82 3d
       0.10773414 0.060492627 0.08863634 0.0635552
0003b0 fb 00 ba bd 65 a0 2a bd d5 e6 ee bd 01 22 ad 3d
       -0.09082218 -0.04165687 -0.116651215 0.08453751
0003c0 1e 56 83 bd 70 26 eb 3d cb 1d 07 be af b3 ed 3d
       -0.0641291 0.11481941 -0.13194959 0.116065376
0003d0 0b 3b 7c 3d 1a 0a b0 bd 0e 88 c7 bd 3b 3e 42 3e
       0.061579745 -0.08595677 -0.09742747 0.18969052
0003e0 7b 9e 6c bd 19 25 cb 3c 8a f6 55 3d 75 cc 45 bd
       -0.057768326 0.024797963 0.05223707 -0.04829069
0003f0 68 18 33 3d 88 c8 7b bd 3c a1 0c bd 03 f5 20 bd
       0.043724447 -0.06147054 -0.034333453 -0.03929616

bias f4 [64]
000000 f9 70 74 3c 81 3c 98 3d 94 62 0b be e8 02 79 3d
       0.014919513 0.07433415 -0.13611823 0.060793787
000010 27 6e 9c bd 80 12 f1 bd f6 08 13 3d f3 6e a7 3d
       -0.076381974 -0.11771107 0.035897218 0.08175459
000020 83 1d a1 bd 18 41 54 3a 67 2f 85 3d ca a0 94 bc
       -0.07866957 0.0008096858 0.06503182 -0.018143076
000030 ec 4f 09 3d e4 52 c1 3d 1c 31 ef 3d 82 a9 41 3d
       0.033523485 0.09439638 0.11679289 0.047280796
000040 b7 fa 28 39 3d dc eb bd 11 ed 05 be 11 6b ad bd
       0.00016115127 -0.115166165 -0.13078715 -0.08467687
000050 9e 22 d1 3c 0f 3c bf 3c 5c 4e 7e bc ee 22 6c 3e
       0.025529202 0.023344068 -0.015521612 0.230602
000060 c8 70 45 3e 9f f0 f7 3c 97 3c 55 3d f1 f1 92 3d
       0.19281304 0.030266104 0.052059736 0.07175053
000070 ad 13 ce bd 3f 19 7d 3d 1b 16 37 be 54 49 e1 3c
       -0.100623466 0.061791655 -0.17879526 0.027500786
000080 07 f6 5c bd 0b 0a b1 bd 6b c6 01 be d3 16 34 3d
       -0.053945567 -0.08644494 -0.12673347 0.04396708
000090 c8 9e f3 bd af 2e b1 bd 7f e6 08 bd ce 96 fa 3d
       -0.118955195 -0.08651482 -0.033422943 0.12235795
0000a0 cb 64 20 3e 1e 6e 94 bd ea 9f e6 3b 5c 4b a2 3d
       0.1566345 -0.07247566 0.007038106 0.0792453
0000b0 a0 b7 c2 3c 09 84 2f 3e 48 d1 08 be 0d bd 3c be
       0.0237692 0.17140211 -0.13361084 -0.18431492
0000c0 5d ef 86 bd ea 6f fe 3d d3 93 68 bc 13 b2 11 bc
       -0.06588624 0.1242369 -0.0141954 -0.008892554
0000d0 33 5c 51 bd 82 36 6c 3c 3a 59 0a 3d b6 c3 e2 bd
       -0.05111332 0.014417293 0.0337765 -0.11072485
0000e0 88 41 40 3c a0 0c e9 bd 9b 90 48 3d 1e 87 80 3c
       0.011734374 -0.11379361 0.04896603 0.015689429
0000f0 a2 f7 36 3c ff 23 3c 3a 23 9f 00 be 07 15 25 bd
       0.011167439 0.00071769947 -0.12560706 -0.040303256

weight f4 [64, 64]
000000 71 ee dc bd 30 1e d4 bd 99 f6 22 be 1f 12 a7 3d
       -0.107876666 -0.1035732 -0.15914382 0.08157753
000010 2f 0d a5 bc 7a 9b df 3d 94 8e 65 3c 77 2c d2 3d
       -0.020147888 0.10918327 0.014011044 0.10262387
000020 4a bb 2f be 8f 77 bb bd 66 17 3a be 16 07 21 be
       -0.17161289 -0.09153663 -0.18172988 -0.1572536
000030 50 49 9b bc 30 49 70 3d 23 83 c9 3c 6a 41 4c 3c
       -0.018955857 0.058663547 0.024598664 0.012466768
000040 55 a0 56 3d 71 d4 5b 3d 48 80 05 3d 5e 1c 75 3d
       0.052399 0.053669397 0.03259304 0.059841506
000050 41 0c ba bd 0c e2 27 bc cd 8c 1a be 30 f8 0b 3d
       -0.090843685 -0.010246765 -0.15092774 0.034172237
000060 f6 68 c5 3c dd 14 12 be c4 fa 43 be fb 1e 0e bd
       0.0240979 -0.14265771 -0.19138628 -0.034697514
000070 b8 78 62 bd 17 be ad be 0f fc cb bd 23 32 70 3d
       -0.055290908 -0.3393409 -0.09960186 0.058641564
000080 d3 06 07 be b4 cf 51 bd 74 8d c4 bb 36 92 47 bd
       -0.13186197 -0.05122347 -0.005998308 -0.048723422
000090 0e 29 4c 3c 60 65 04 3d 2e 88 14 3d bf 53 39 be
       0.01246096 0.03232324 0.036262684 -0.18098353
0000a0 c9 7f 85 bc ea 2c dc 3c 39 04 8f 3b 21 77 1b bd
       -0.016296284 0.026876885 0.004364517 -0.037955407
0000b0 83 e2 3d bd f8 91 23 be eb fd 77 be ce a4 87 bc
       -0.046358597 -0.15973651 -0.24217956 -0.016558077
0000c0 97 82 2e bd fd 2d f0 3d 00 75 e6 bd de 35 9a be
       -0.04260501 0.117275216 -0.11252785 -0.30119222
0000d0 e7 4f 7f 3d ef 11 87 3a 65 f9 6a bd 08 b0 dd bd
       0.06233206 0.0010305027 -0.057366747 -0.10824591
0000e0 40 98 ad 3d 69 09 d5 3d 25 b3 21 be 04 8c f9 bd
       0.08476305 0.104021855 -0.15790994 -0.12184909
0000f0 06 ad e8 bd 6f 4f b9 3c 26 bf 21 be ba 01 af bd
       -0.113611266 0.022620885 -0.15795574 -0.08545251
000100 d2 52 6a 3d 51 d3 71 bc 77 49 6d bd 7d 77 95 3d
       0.05720789 -0.014759854 -0.05793139 0.07298181
000110 93 89 a7 bd d4 ed 6e be 17 fb 2c 3d 20 ac 6a bc
       -0.08180537 -0.23332912 0.042231645 -0.014323264
000120 93 1b 83 bd f8 0b ec 3c 6d 8d 76 3d d1 bb 09 bc
       -0.06401744 0.0288143 0.060193468 -0.008406595
000130 ac d8 fb bc 5f 25 4a 3d b7 1f a7 bd a5 47 a5 3d
       -0.030742966 0.049352046 -0.08160346 0.08070306
000140 de e9 fd 3d 20 64 66 bc 29 15 91 3d 54 8d e0 bd
       0.12398122 -0.014061958 0.07084114 -0.10964456
000150 85 48 b2 bc 5e ad fd 3b c3 7d 12 be 2c 99 fe bc
       -0.021763096 0.0077416142 -0.14305787 -0.031078897
000160 8e a2 17 bc 15 2e c2 bc d3 9b 2d be 3c 31 d5 bd
       -0.009255065 -0.023703614 -0.16953973 -0.10409781
000170 15 1d 81 bd 38 d8 28 be 7d f8 fb 3c 5b 6e 35 bd
       -0.06304375 -0.16488731 0.030758137 -0.044294696
000180 aa 84 30 bd 30 3d 33 3d f3 53 28 3d 1e 8d 1b be
       -0.04309527 0.043759525 0.041095685 -0.1519055
000190 87 5d 0c be f1 16 66 bc b2 ca ef 3d bc c4 c5 bc
       -0.13707553 -0.014043556 0.11708583 -0.024141662
0001a0 b5 93 57 bd da 16 39 bd 68 a4 4b 3b f8 62 af bb
       -0.0526311 -0.04518781 0.0031073336 -0.005352374
0001b0 62 4b fc bd e8 37 45 bd e8 9d 28 be 34 3b b6 bd
       -0.12319066 -0.04814902 -0.16466486 -0.08898011
0001c0 8a 6f ab 3b 86 7d 74 3d 78 a7 e5 bd d7 e7 80 bd
       0.0052318024 0.05969002 -0.11213583 -0.0629422
0001d0 af a0 59 3d a0 5b 3f bd 93 a9 b1 3d ad 66 17 3d
       0.053131755 -0.04671824 0.08674922 0.036963154
0001e0 da 6a c2 3d 8b f6 65 bd 78 61 88 be 1c 91 47 be
       0.094930366 -0.056143325 -0.26636863 -0.19488949
0001f0 62 c6 5a bd 28 c2 70 3d d5 10 b2 bd 7c 38 ab bd
       -0.05341185 0.05877891 -0.08694617 -0.08360383
000200 f5 6d 5b bd c4 bf 4f 3e ae 05 a3 3d 23 d0 11 3e
       -0.05357166 0.20287997 0.07960068 0.14239554
000210 3a a4 9e bd d1 8a 9c bd 38 23 4b 3d 73 32 db 3d
       -0.077461675 -0.07643665 0.049594134 0.10702982
000220 a9 49 fb 3d 2a 41 63 bd 92 62 90 3e bd 2c f4 3c
       0.12269909 -0.055482067 0.28200203 0.02980649
000230 36 62 39 bd 1a 58 1a 3d ac 0f 21 3a f8 48 18 3e
       -0.045259677 0.037681676 0.0006143998 0.14871585
000240 2e 21 9a bd 21 04 51 3e 15 f1 a7 be 7c d8 f4 3c
       -0.0752586 0.20411731 -0.32801118 0.029888384
000250 e3 04 f5 bc fe 50 ea 3d ae 67 17 3d 10 82 77 bd
       -0.029909557 0.11441229 0.03696411 -0.06042677
000260 33 01 8b 3c 39 2e 6b 3e df 9d a3 3e df 5e d8 3d
       0.016968345 0.22966851 0.31956384 0.1056497
000270 81 fc 11 be 79 dd b4 3d 4d 1e 8c bd a9 94 03 3d
       -0.14256479 0.08831305 -0.06841717 0.032124195
000280 32 5b c3 bd 12 a2 21 3e 24 b4 96 bd d3 a5 3a 3e
       -0.095388785 0.15784481 -0.07358578 0.1822732
000290 66 b0 d6 bd 83 ee a6 be 7a 94 8e bd ec a8 65 3d
       -0.10482864 -0.32603845 -0.069619134 0.0560693
0002a0 7d 3c a4 3d 35 75 84 bd 4b 72 8c 3c 34 68 1a bd
       0.0801935 -0.06467668 0.017144343 -0.037697032
0002b0 b6 15 a6 bc de 75 ec bc b4 ec 43 bc bd a2 3e bd
       -0.020274024 -0.028864797 -0.01195829 -0.046541918
0002c0 5f 51 de 3d 0d f8 93 3d 39 f4 b9 bd fe 9b 17 bd
       0.10855364 0.07225046 -0.09079785 -0.037014
0002d0 9e 1f 0a 3d 6f 3c 95 bd 15 19 c0 3e 34 9b 05 bc
       0.03372156 -0.072869174 0.37519136 -0.008154679
0002e0 84 17 e3 bb bd 7f 8b 3d 63 6e 04 3d 3f 68 a9 3d
       -0.0069302935 0.068114735 0.032331835 0.082718365
0002f0 70 a9 d2 3d aa b9 c8 3d 8a 7e b1 bd 7f 9d 92 3e
       0.10286224 0.098010376 -0.086667135 0.28635785
000300 ef f8 18 3e 75 62 0a 3e ad de 70 be 1e 8f 5f 3d
       0.1493871 0.13514121 -0.23522444 0.054579847
000310 b0 62 9e bc 35 8c a5 bd d0 f1 94 3e df 9d cd 39
       -0.019334167 -0.08083383 0.29090738 0.0003921827
000320 29 83 63 be 57 4c 82 3e b2 be 46 3e 1e 3a 29 3e
       -0.22218002 0.25448868 0.19408682 0.16526076
000330 8b 96 e6 bb 10 a5 67 3e da 2b 02 3e 0d 23 07 3e
       -0.007036989 0.2262156 0.1271204 0.13196965
000340 67 36 ce bd a1 39 20 3e f6 5b 11 3e 04 a4 b1 3d
       -0.1006897 0.15646984 0.14195237 0.086738616
000350 14 48 a4 3d e7 68 94 bd 4e 35 2e be de da a3 3e
       0.0802156 -0.07246571 -0.17012522 0.3200292
000360 74 52 68 3e 32 02 2e 3e 8a 97 18 3d 0c cc 2f 3e
       0.22687703 0.16993025 0.037253894 0.17167681
000370 eb 4c a6 3d b7 6f 4b 3c af d5 7d bd 64 d8 56 3e
       0.0812014 0.012416772 -0.061971363 0.20980984
000380 84 9c cf bc 55 fa 7c 3d 82 17 bc 3d b0 48 2a 3d
       -0.025343187 0.061762173 0.09184171 0.041573226
000390 24 68 be bc a2 ee 03 3d 75 df bf 3d 08 13 2d 3e
       -0.023243017 0.03221 0.09368793 0.16901791
0003a0 b3 56 58 3e 3a e8 82 be 59 43 99 be 3d 50 35 3e
       0.21126823 -0.255678 -0.29934195 0.1770639
0003b0 1a 67 33 bb 45 01 2e 3e 0c 60 0a 3d ce 6a c3 3d
       -0.0027374686 0.16992672 0.033783004 0.09541856
0003c0 57 b5 39 3d 14 8f 62 3e ff 35 8c bd 3d cc 6a be
       0.045338955 0.22124892 -0.068462364 -0.22929473
0003d0 2f 07 cf 3d a9 40 cb 3d 63 3c 1d 3e 02 7a 10 3e
       0.10108792 0.09924442 0.15355067 0.14109042
0003e0 ca 88 14 bc 61 8d 70 3e 06 25 51 be 4d da c4 be
       -0.009065816 0.23491432 -0.2042428 -0.384478
0003f0 48 c2 55 be 05 52 90 be d3 33 1b 3c 1a cc 60 3d
       -0.20874894 -0.28187576 0.009472805 0.054882146

bias f4 [64]
000000 92 51 c9 3a d3 44 af 3a cb f3 24 be ce 6d 9b 3e
       0.0015359393 0.0013371952 -0.16108625 0.30357212
000010 40 96 30 be eb a3 bc bc 47 29 33 bb f3 d9 b2 3d
       -0.17244816 -0.02302738 -0.0027337836 0.08732977
000020 78 78 fd bd a6 31 f9 3c 72 92 07 be 48 06 fa bd
       -0.12376493 0.030419182 -0.13239458 -0.12208229
000030 d7 e7 52 bd b1 0b a3 bd 19 2d 4c bb 32 74 e2 3c
       -0.05149063 -0.07961214 -0.003115481 0.027643297
000040 e5 a6 e5 bd 4f f4 8e bd 34 63 70 3d 0b e3 15 be
       -0.11213473 -0.06980192 0.058688357 -0.14637391
000050 48 ce 27 3c b1 79 4d bd 60 cd 20 3e fc f0 97 3c
       0.010242052 -0.050164882 0.15703344 0.018547527
000060 2a 01 3e bd 73 d0 a4 3d 94 09 49 be e3 70 0d bd
       -0.04638783 0.08047571 -0.1963256 -0.034531485
000070 07 21 39 be 48 6f ae 3e d5 18 1d be b9 af 50 be
       -0.18079005 0.34069276 -0.15341504 -0.20379533
000080 90 71 bc bd f9 91 45 3d 16 60 34 bd 03 fd 2c be
       -0.09201348 0.048234913 -0.044036947 -0.16893391
000090 28 cb 15 be a5 2d 02 be cd ae d6 bd fa 38 10 be
       -0.14628279 -0.12712725 -0.10482559 -0.14084235
0000a0 40 98 01 3e e7 fc 72 be 0c 2c 03 be 5a d4 96 3e
       0.12655735 -0.23729287 -0.12809771 0.29458886
0000b0 12 a2 98 3e e2 5b d0 bc 11 77 e5 bd 81 6e 9f 3c
       0.2981115 -0.025434438 -0.11204351 0.019461872
0000c0 f5 c9 a5 3e 1c 0a f3 bc 88 66 1e be cc bb d1 bd
       0.32380643 -0.029667906 -0.154688 -0.102408975
0000d0 71 07 f2 bd b0 68 1d bd 63 ed 40 bd 12 83 a3 3d
       -0.118178256 -0.038429916 -0.04710139 0.07983984
0000e0 f1 a7 6f 3d a3 f2 e9 3d 7a e0 e7 bd 26 9e 6b 3d
       0.05850977 0.114232324 -0.113221124 0.05752387
0000f0 c3 14 42 be c5 5d 7e bb 2e 59 8c 3e 3a e1 1d bd
       -0.18953232 -0.0038813215 0.2741179 -0.03854487

weight f4 [64, 64]
000000 f8 33 da bc 38 49 09 3e bf 98 c7 3d f8 6a 3c 3d
       -0.026636109 0.13406837 0.09745931 0.04600045
000010 32 28 6c 3d 6a f0 e3 bc 76 c3 c0 3d 6a 77 e0 bc
       0.05765552 -0.0278246 0.09412281 -0.027400691
000020 bb db 31 be df 83 2b be 09 bd 33 bd 4e 22 c2 3d
       -0.17368977 -0.16749524 -0.04388145 0.09479199
000030 de 30 bc 3d 2c b0 25 3d 7b 2f f6 bd 2d 45 b7 3d
       0.09189008 0.040451214 -0.12020775 0.08948741
000040 4f 91 d4 3d 5a 4f 5f 3d 9d 01 0b be e1 30 9a bd
       0.10379278 0.054519035 -0.13574834 -0.07528854
000050 51 40 15 be 44 9e c3 bd 37 52 5d bc 10 d1 b4 3c
       -0.14575316 -0.09551671 -0.013508371 0.022072345
000060 4f ec 7d 3d b1 bd 80 bc 5b e4 af bd cc fe 0d be
       0.06199294 -0.015715452 -0.08588477 -0.13866729
000070 98 fa 88 3d fa db b2 bd 60 7e 36 bd f3 8f 12 3d
       0.06688422 -0.087333634 -0.044554114 0.035781812
000080 9e f7 9f bb d0 11 71 bd 43 64 4a 3b c2 2a a5 3d
       -0.004881813 -0.058854878 0.0030882515 0.08064796
000090 db 9b de bb d9 95 be bd 45 e8 c2 bc 38 ec 98 bd
       -0.0067934818 -0.09305925 -0.023792395 -0.0746693
0000a0 1e 03 09 be 25 6f 39 ba df 7b f4 3d 29 66 97 3d
       -0.13380095 -0.0007073752 0.11937689 0.073925324
0000b0 94 06 d1 bd 07 e1 e2 bd 88 17 a8 bc 88 48 d8 bd
       -0.10206333 -0.11078077 -0.020519033 -0.10560709
0000c0 46 33 68 bd 5c 27 d5 bd 4c 50 e5 3d 7a 7b 88 bd
       -0.056689523 -0.10407898 0.11196956 -0.06664176
0000d0 2d aa e7 3d 00 9f 70 3d 33 4a 05 be 37 0c 46 3d
       0.11311755 0.058745384 -0.13016586 0.048351493
0000e0 cd c7 56 bd e2 46 17 be b8 80 e1 bd 69 12 03 3e
       -0.05243664 -0.14773133 -0.11010879 0.12799992
0000f0 b5 d8 8b 3d 35 a1 b1 bd 78 c8 60 bd 57 8c bc bc
       0.06828443 -0.08673326 -0.054878682 -0.023016138
000100 36 a3 0c bd f2 34 ca bc a1 0d f0 bc 21 4b 4d 3e
       -0.034335338 -0.02468345 -0.029303374 0.2004819
000110 2d f5 aa 3d 6b 8b e3 3d 7d 7d 29 be a9 a8 28 bd
       0.08347545 0.11110576 -0.16551776 -0.04117647
000120 02 c6 8a bd 3b 95 bf bb 50 22 9e 3d 90 14 fd bd
       -0.06776048 -0.005846647 0.07721388 -0.123574376
000130 29 5b 2b 3d a7 f0 bb 3c 56 98 d2 3d cc d2 45 bd
       0.041834984 0.0229419 0.10282962 -0.048296735
000140 cd 78 af bc e8 9e b7 bd 70 95 b3 3d df 03 ec bd
       -0.021419907 -0.08965856 0.08768737 -0.11524176
000150 ed 98 50 3d 20 59 c8 3b 1c 90 d9 3d 80 b1 46 be
       0.05092709 0.00611414 0.1062319 -0.19403648
000160 e5 f9 e1 bd 44 e3 36 bc ea ec 54 bd 28 15 d5 3d
       -0.11033992 -0.011162583 -0.05198375 0.10404426
000170 1b 82 88 3d 72 2d 99 3d 13 38 44 3d 33 d0 48 3d
       0.06665441 0.07479371 0.04790504 0.04902668
000180 3b 3a 4b be fb 4b 2f be ed 79 50 3d 82 e8 bb 3d
       -0.19846432 -0.17118828 0.050897527 0.09175207
000190 ae f8 9e bd 07 4f e6 bd 69 cf 93 bd de 1d 0b be
       -0.07762276 -0.11245542 -0.07217295 -0.13585612
0001a0 cf 3e 3d 3e b8 fc 8f 3d c4 56 38 3c d5 14 02 3e
       0.18480991 0.07030624 0.011251155 0.1270326
0001b0 e6 d6 0b 3e 05 df 04 bc 6c 66 95 3e db e4 5a bd
       0.13656196 -0.008109813 0.29179704 -0.05344091
0001c0 b7 13 f9 3d 13 b7 97 bc 53 e3 8d bc 6a ae 8b be
       0.121619634 -0.018519914 -0.01732031 -0.27281505
0001d0 32 f2 31 3d a9 30 78 bd 95 ae b5 bd a9 ac 5e bb
       0.043443866 -0.06059328 -0.088711895 -0.0033977425
0001e0 5f 21 94 3c 85 1f 02 3d af 24 a2 3c 1f 37 c1 bb
       0.018082319 0.03176834 0.019792883 -0.0058964635
0001f0 c3 71 93 bd 16 a5 08 bd 81 c0 42 3e 26 37 cb 3c
       -0.07199433 -0.033360563 0.19018747 0.02480657
000200 b3 94 92 3d 47 7b 51 bd 52 35 f3 bd 32 ab 17 3e
       0.071572684 -0.051142957 -0.118754044 0.148114
000210 88 01 bb bd 32 bc a1 bd f4 66 fe bd 85 5a e2 bd
       -0.091311514 -0.078972235 -0.124219805 -0.110524215
000220 10 a8 c3 3d b1 30 37 bd ba 39 af bd 60 20 e1 3c
       0.0955354 -0.04472417 -0.08555932 0.027481258
000230 87 70 89 3c 0f 58 a1 bd 86 11 8e 3d 77 d8 cc 3d
       0.01677729 -0.07878124 0.06936936 0.10002225
000240 b2 16 fa 3d fa 7e dd bd ba 7c 69 3d e7 fe 04 bd
       0.1221136 -0.108152345 0.057003714 -0.032469656
000250 b0 2d 2a 3d 0e 9e 08 be 2f 90 ab 3d 6d 88 b6 3c
       0.041547477 -0.13341543 0.0837711 0.02228185
000260 44 bd bf bd df 6c c5 3d ff 54 d5 3c c5 e6 f2 bb
       -0.093622714 0.09639906 0.026041506 -0.007412764
000270 ca bd 6a 3c 42 b2 57 3d 29 aa ce 3d 42 b2 db 3d
       0.014327476 0.052660234 0.10091049 0.10727359
000280 54 28 d1 3d 8a dc fc bb 43 da bf 3d 46 1b fc 3d
       0.1021277 -0.00771672 0.09367802 0.123098895
000290 85 17 83 3c 99 84 d3 bc 00 8f 78 bd 2d 8f 53 bc
       0.016002426 -0.025820063 -0.06068325 -0.012912554
0002a0 60 67 9b 3d 63 cd 86 bc ea ee 2d bd cd 8a 1b 3c
       0.075880766 -0.016455358 -0.042464174 0.009493542
0002b0 56 ef 23 bd 2e aa a1 3d 83 5c c9 3c 7b 87 52 3c
       -0.04002317 0.07893787 0.024580246 0.012849684
0002c0 d9 ca 84 bd 86 8b 9b bd 19 d1 a2 bd 1a 15 95 bd
       -0.064840026 -0.07594971 -0.079500385 -0.072794154
0002d0 55 b1 d3 bc 4a ee a0 bc 1a 9f ca bb 24 61 fa 3c
       -0.025841394 -0.019644875 -0.006183517 0.030563898
0002e0 d8 29 03 3c 7c e2 c7 3d 22 65 cd 3d 9e a1 f0 bc
       0.008005582 0.09759995 0.10029055 -0.02937394
0002f0 c6 97 0b bc 57 b0 b1 bd be 8f ce bc f0 37 10 bd
       -0.008520072 -0.08676212 -0.025215026 -0.035209596
000300 85 8c 00 be 96 38 f3 b9 19 a4 9b 3d a7 66 76 bd
       -0.12553604 -0.00046390732 0.075996585 -0.06015649
000310 ba 77 fb bc 2d fa 70 bd 6d 30 a1 3d 99 62 a6 bc
       -0.030696739 -0.058832336 0.078705646 -0.020310687
000320 84 e1 ac bd 26 e9 f2 3d bf 0b 05 3e 3a bd c0 3d
       -0.08441451 0.11860876 0.12992762 0.09411092
000330 59 9c ab 3d f0 3a 4f 3d aa 98 98 3b 41 23 93 bc
       0.0837943 0.050593317 0.004656871 -0.017961146
000340 ca e4 13 3c 78 99 4f 3d 52 a4 83 bd 25 98 58 be
       0.0090267155 0.05068347 -0.06427826 -0.21151789
000350 5e 43 8d 3d f6 e5 7d be 87 7a e8 3d d9 75 37 3e
       0.06897615 -0.24794754 0.11351495 0.17916049
000360 1e 00 32 3d 09 82 7e 3e ca e0 86 be f6 4f 66 3a
       0.043457143 0.24854292 -0.26343375 0.0008785719
000370 a5 3d 79 be 0f 76 15 3b 2b 4e 22 3c 1c 12 94 be
       -0.24339922 0.0022805964 0.009906332 -0.28920066
000380 17 e9 d1 3d e2 1b 94 bc 27 47 e0 3d 7a 22 19 3a
       0.102495365 -0.018079702 0.10951071 0.0005841624
000390 23 3f fd 3b 8c f3 a3 bd 46 8c 88 3c 97 c2 4b 3e
       0.0077284737 -0.08005437 0.01666845 0.19898449
0003a0 89 10 d0 3b dd 5b 90 be 39 a3 10 3d 14 8d 0f be
       0.0063496274 -0.28195086 0.03531191 -0.14018661
0003b0 e5 91 03 be b4 12 ff bd d9 0d e1 3d b8 fa 43 3d
       -0.12848623 -0.12454739 0.10988969 0.047846526
0003c0 e6 55 08 3e 85 99 07 3e 39 d7 9d 3d 9b a8 21 3e
       0.13314018 0.13242157 0.07707066 0.15786974
0003d0 0a d9 b9 3c 2d fa 1f 3e 8a 4e f0 3d 49 df 35 bd
       0.0226865 0.15622778 0.1173373 -0.044402394
0003e0 84 25 42 be 15 c9 7f be c1 be d1 bd f9 0f 80 3d
       -0.18959624 -0.2497905 -0.102414615 0.062530465
0003f0 27 ee 5d 3d 71 99 96 3c 33 41 48 bc 3c b2 4e 3e
       0.054182198 0.018383713 -0.012222576 0.20185179

bias f4 [64]
000000 1a 6a 45 3d d0 73 9e 3e 5c bb b7 bc 98 2f 50 bc
       0.04819689 0.30947733 -0.022428207 -0.01270666
000010 6c f0 86 3e bf 0a 13 be 3b 35 2d be 79 7f 84 bd
       0.26355302 -0.14359568 -0.16914837 -0.06469626
000020 ac 5e 35 3d 84 d6 89 bc 4c 55 c6 3e 8e cc 96 3e
       0.04427974 -0.016825922 0.3873695 0.29452938
000030 cb d7 d5 bd 93 72 a3 3e f3 74 05 be 9a 4e c7 bd
       -0.1044155 0.3192335 -0.13032894 -0.09731789
000040 44 fd 49 be 05 c9 b8 bd 53 61 01 be 2d df 33 3e
       -0.1972552 -0.090227164 -0.12634782 0.17565604
000050 94 43 8f bd 50 45 c7 bd 99 9f b1 bd bc c7 47 3e
       -0.069953114 -0.09730017 -0.08673019 0.19509786
000060 ba 2f b2 3e 78 19 8f bb fa bc 08 be a1 11 0d be
       0.34802037 -0.00436705 -0.13353339 -0.13776256
000070 54 83 d2 bd 20 cd 0a bb 16 89 85 bd 30 ba 1a be
       -0.10278955 -0.0021179393 -0.06520288 -0.15110087
000080 b3 d2 13 bd f9 19 4a bd 92 e9 4a 3e 8e 69 80 bc
       -0.03608961 -0.049341176 0.19815663 -0.015675332
000090 21 32 c9 3c e8 a1 82 bc e5 a5 9d bd 68 61 01 bd
       0.024560036 -0.015946344 -0.076976575 -0.031587034
0000a0 fc 74 ca 3e c6 25 f0 3c d4 14 c5 bd 5f 1e b4 bd
       0.39542377 0.029314887 -0.09623113 -0.08794855
0000b0 ff b6 c7 3d 6c 45 85 3e d3 7b 9d bd 55 b2 3c 3e
       0.097517006 0.26029527 -0.07689633 0.18427403
0000c0 6f 2e a4 bd a7 94 ba 3d 41 eb ea bd 87 63 87 bd
       -0.08016669 0.091103844 -0.11470652 -0.0661078
0000d0 ee 90 dd bc 44 ef 32 bd 8e ad 14 be e0 39 04 3d
       -0.027046647 -0.043685213 -0.14519331 0.032281756
0000e0 93 c9 ea 3c 5a 73 cd 3b 0b 6c 93 3c 95 4d 59 be
       0.028660571 0.0062698545 0.017995855 -0.21221001
0000f0 de 6f a3 bd 9f 48 0b be 94 2e ff 3c f7 18 87 3e
       -0.07980321 -0.13601921 0.03115014 0.26386234

weight f4 [64, 64]
000000 32 c0 ab bd fd 04 bd bd c7 92 0f 3e 3b d3 f3 bd
       -0.08386268 -0.09229467 0.14020835 -0.119055234
000010 2b 2b 61 bd 68 41 36 bd ba a5 33 bd 6a f3 d0 3d
       -0.05497281 -0.04449597 -0.04385922 0.102026775
000020 f0 88 e4 bd e0 6c a0 3c 2a 71 a7 bd c8 9a 7b bd
       -0.11158931 0.019583166 -0.08175881 -0.061426908
000030 c8 23 e1 3c c7 d9 49 bd f0 62 05 bd 78 b1 77 3c
       0.027482882 -0.049279954 -0.032565057 0.015117995
000040 d8 e5 dc 3c 16 f2 ac 3d 35 65 85 3c b6 fe bf 3d
       0.026965067 0.08444612 0.01628361 0.09374754
000050 68 02 d3 bd 1d 85 9f bc af 23 d6 3d aa ac e1 bb
       -0.10303193 -0.019472653 0.10456025 -0.0068870382
000060 c8 7f d3 3d 04 91 67 bd d0 83 4b bd 8c d4 a9 3d
       0.10327107 -0.056534782 -0.049686253 0.08292493
000070 ce f6 bb 3d 01 19 b1 3d 80 53 10 bb e0 2a 90 bb
       0.09177934 0.08647347 -0.0022022426 -0.0043996423
000080 12 28 1b 3a f0 b1 90 bd 01 ef b8 3d dc 07 92 3d
       0.00059187517 -0.07065189 0.090299614 0.07130405
000090 f0 29 09 bd cb e3 23 bb 9c ec aa bb 74 5a 8f bd
       -0.03348726 -0.0025007601 -0.0052161943 -0.069996744
0000a0 65 b9 4e 3d 95 4a 2e bc 30 7a 63 3c 0c 1a 78 bd
       0.050469775 -0.010637899 0.013884112 -0.060571715
0000b0 59 77 ff bc a3 90 a5 bc 1e c7 fd 3c b9 42 92 bd
       -0.03118484 -0.02021057 0.030978736 -0.071416326
0000c0 d0 c4 4a bc c8 4e a7 bc 50 a0 66 3d 46 d2 c3 3d
       -0.012376025 -0.020423308 0.05630523 0.09561591
0000d0 64 e5 f5 3d de 7c 9c 3d a0 73 c5 3d 80 21 d7 3b
       0.120066434 0.07641004 0.09641194 0.006565273
0000e0 18 6c 90 3c 64 f7 88 bd c0 d3 b9 3d 5e 05 7c bc
       0.017629668 -0.06687811 0.09073591 -0.015382139
0000f0 8e 69 b4 bd 2e 15 e9 bd b8 d1 60 bd 10 c2 91 3c
       -0.088091955 -0.11380993 -0.054887503 0.017792732
000100 ba f5 00 be a0 95 c2 3d 8c 50 e6 3d 50 77 58 bc
       -0.12593737 0.09501195 0.11245832 -0.01321204
000110 f0 fb fb bd 82 cc 6e 3c b4 de 8e 3d 0c 1a 0c bd
       -0.12303913 0.014575126 0.06976071 -0.034204528
000120 a0 f6 0d 3d b0 78 5c 3c 50 72 97 3d 42 77 55 bd
       0.034659028 0.0134565085 0.0739485 -0.052115686
000130 40 3c a8 bd 33 68 cd bd 32 f3 d0 bd 97 b2 2d 3d
       -0.08214617 -0.1002964 -0.10202636 0.042406645
000140 88 78 8b bd b0 ab 30 3d 3c c8 1f bd 88 0c 54 3d
       -0.06810099 0.043132484 -0.039009318 0.051769763
000150 f8 98 f2 3d 22 58 10 3c 04 e1 f2 bd dd 95 9e 3d
       0.11845583 0.008810075 -0.118593246 0.07743428
000160 57 49 df bc 6b d2 ce bd e8 d2 bf 3d 7c 87 e8 3d
       -0.02725665 -0.10098728 0.09366399 0.113539666
000170 a8 52 f2 bc 10 06 cc 3c 0c 9e 44 bd 50 4c de 3d
       -0.02958043 0.024905235 -0.048002288 0.10854399
000180 14 cf 63 3d 94 07 ee bd 8e 84 b7 3b 55 8a ea bd
       0.055617407 -0.11622539 0.0056005185 -0.11452166
000190 31 7e df bd 9e e8 85 bd 37 44 6d bc fe f9 ca bd
       -0.10912741 -0.06538509 -0.014481596 -0.099109635
0001a0 44 b0 3f 3c 82 63 c4 3d 24 13 d6 3d cc a5 de 3d
       0.01169974 0.09589292 0.104528695 0.10871467
0001b0 50 24 51 bd 9f 18 7e bc 46 38 e1 bb ad 1c 12 3c
       -0.05106002 -0.0155088 -0.0068731634 0.00891797
0001c0 2a 55 80 3d 00 d8 c9 bb c1 9e a4 bd 00 0d db 3c
       0.06266244 -0.0061597824 -0.080380924 0.026739597
0001d0 10 a2 7e bd 5a c4 b4 3d 76 4d f5 3d 04 7b 71 bd
       -0.062166274 0.088265136 0.11977665 -0.058955207
0001e0 64 83 16 3d 8c aa f8 3d ea 6c f0 bd 3d d2 6b bd
       0.036746398 0.12141904 -0.11739524 -0.057573546
0001f0 e0 28 c4 bc c8 d2 8a bd f2 a8 bf bd 00 b3 9e bd
       -0.023945272 -0.067784846 -0.09358396 -0.07748985
000200 af 20 9a bb 37 e0 09 be e1 02 ac bc fb 0d b2 39
       -0.004703603 -0.13464437 -0.020997467 0.00033961222
000210 9c a1 3b bd 32 0e 95 3c 3b b3 df bc de e0 25 3d
       -0.04580842 0.018195245 -0.027307143 0.040497653
000220 b1 41 a8 bd 26 47 92 3b 25 a5 d8 bb 99 d9 7c bd
       -0.08215655 0.004464048 -0.0066114836 -0.061730955
000230 dc 08 4d 3d 2c 1f 76 bd b6 74 ad bd 0b 0c 13 bc
       0.050057277 -0.06008832 -0.084695265 -0.008975039
000240 f0 14 f7 3d 88 15 23 3d 32 1f c9 bd 64 a7 e6 3d
       0.120645404 0.039815456 -0.09820403 0.11262396
000250 ac 76 a9 bd a5 6f 18 be 07 a8 ee 3d 7a 92 86 3d
       -0.08274588 -0.14886339 0.116531424 0.06570907
000260 76 31 48 be ab 2e 83 bd 6d 1a a7 ba 4c b5 e6 3d
       -0.19550118 -0.064053856 -0.0012748964 0.112650484
000270 b5 ce b2 3d f1 c8 9f 3d ea 49 4c bd 32 79 8a 3d
       0.087308325 0.078019984 -0.049875177 0.067613974
000280 17 39 3e 3c 40 ed e3 3b e2 b6 62 bd 76 66 98 bc
       0.011610291 0.0069557726 -0.055350192 -0.018603545
000290 00 64 54 3c 3f ee 2b be 80 5f c2 bc c0 16 93 bc
       0.012963295 -0.16790102 -0.023727179 -0.017955184
0002a0 c5 18 64 bd cb 07 bb bd 34 70 52 bd 77 5d 76 bd
       -0.055687685 -0.09132346 -0.051376536 -0.06014773
0002b0 55 7b 94 3c 6e 81 ba bc 3d ab 3c 3d 85 9b 19 bb
       0.018125216 -0.022766795 0.046061743 -0.0023438644
0002c0 88 80 8e bd cb 71 dd 3c b8 5b a5 bd 29 1f 46 bc
       -0.06958109 0.0270318 -0.080741346 -0.01209239
0002d0 90 08 6f 3d da 9e 87 3d 2a e2 a7 bd e4 46 b0 bd
       0.058357775 0.066220954 -0.08197434 -0.08607271
0002e0 62 80 e6 bd 95 ad a8 bd e5 c4 2d 3d 79 8e 86 bc
       -0.11254956 -0.08236233 0.0424241 -0.016425358
0002f0 e4 3f cc bd a6 4d ee bd 30 07 c2 3c c8 e3 03 be
       -0.09973124 -0.11635904 0.023685068 -0.1287986
000300 2a a3 ab bd f2 3e 6d 3d 87 68 8b bc 40 18 00 be
       -0.083807305 0.057921357 -0.017017616 -0.1250925
000310 e7 86 89 3d 9e c1 c9 3c 1e 8e a5 3c 25 ae 5f 3d
       0.06715184 0.024628457 0.020209368 0.054609437
000320 8c 06 a0 bd d2 0a d9 bd 39 db ec bd cf 2c 5f 3c
       -0.07813749 -0.10597767 -0.11565251 0.013621523
000330 5c 08 31 3d 84 4e b3 bd 05 4e bc 3d e5 1b cd bd
       0.043220863 -0.0875521 0.091945685 -0.10015086
000340 2e 3d fb bd 60 36 fe 3d 16 f6 d5 bd 56 33 9c bd
       -0.122675285 0.12412715 -0.10447328 -0.07626979
000350 a2 3d d6 bd 51 31 bb bd b6 da c1 bd 7d c5 8f 3d
       -0.10460974 -0.09140266 -0.09465544 0.0702009
000360 84 f6 16 be fb 95 dc bc b9 ea 84 bd 2b 55 a5 3c
       -0.14742476 -0.026926985 -0.06490082 0.020182213
000370 8e d5 4b bc 50 ab 15 be 54 d4 9c bd 74 43 83 bd
       -0.012441052 -0.14616132 -0.07657686 -0.0640935
000380 d3 58 26 be 8b 7f 06 bd f2 f6 52 3d f7 68 13 be
       -0.16244821 -0.03283648 0.051505037 -0.1439551
000390 85 d2 22 bb 97 8f cc bd 9f 6c cc bd 35 7c aa bc
       -0.0024844718 -0.09988325 -0.09981655 -0.02081118
0003a0 c2 de 67 be b7 59 1e 3d 88 cd 2d 3d 22 e3 94 bd
       -0.22643569 0.038659777 0.042432338 -0.07269885
0003b0 72 46 13 3e 41 9d 83 3d 44 73 6a bd 4e 22 3e bd
       0.14382342 0.06426478 -0.057238832 -0.046419434
0003c0 72 f0 93 3d 4c f0 9d bd 11 6c 5c be a3 ee 8f 3c
       0.07223596 -0.077118486 -0.21525599 0.017569846
0003d0 0d 52 cf 3c e0 05 bc bd c8 e4 44 bd 4d 98 d8 bb
       0.02530768 -0.09180808 -0.048069745 -0.0066099525
0003e0 cd 68 79 3d 47 0c 12 bc d1 c8 9d 3d 3a 45 19 bd
       0.06089096 -0.00891406 0.07704318 -0.037419535
0003f0 a6 3d c7 3d 76 ff 0b be ae 48 4a bd 7e 2a 99 3d
       0.097285554 -0.1367167 -0.04938572 0.07478808

bias f4 [64]
000000 74 db 94 bd 95 3c ce bd e7 c7 59 3c d4 ad 1d bb
       -0.0726842 -0.10070149 0.013292289 -0.0024059908
000010 93 1d 3d be 75 c7 93 3e 2d 8c 46 bd 3c 0d a7 bd
       -0.18468313 0.2886311 -0.048473526 -0.08156821
000020 28 a4 3b be a6 8f a4 bd 8f 7c 88 bd 9d 72 ea bc
       -0.1832434 -0.08035211 -0.06664383 -0.028619105
000030 59 ee d0 3b f8 34 9a bd 5c 03 5c be 07 ce 8c bd
       0.0063760695 -0.07529634 -0.21485656 -0.06875234
000040 71 ff 12 be 51 6a ed bd b6 0f 55 bd 9d 17 81 3e
       -0.14355256 -0.11592544 -0.052016936 0.25213328
000050 cd 21 bc 3e 77 c6 83 3e 2e 2c 57 bd 38 e7 a6 3e
       0.36744538 0.25737354 -0.052532367 0.3259828
000060 4a 78 0a be c5 d1 90 bc 0c 83 01 3e 62 44 77 bd
       -0.13522449 -0.01767815 0.12647647 -0.06036795
000070 e0 6d 88 bd d5 46 1c be b2 e7 c7 bd 61 b3 e5 bd
       -0.06661582 -0.15261395 -0.09760989 -0.112158544
000080 c2 70 1a be fe a6 c6 bd be 72 1c bd 27 f6 bc bd
       -0.15082076 -0.0969982 -0.038195364 -0.09226637
000090 76 3b 9b 3e e3 56 80 bd aa 51 a2 3c 7d ca 36 3e
       0.30318803 -0.06266572 0.019814331 0.1785068
0000a0 90 7c 8a bd c8 d1 08 be a5 07 fd bb 89 9e 99 3e
       -0.0676204 -0.13361275 -0.0077218586 0.30003765
0000b0 78 31 70 3d b6 e9 6f bc 13 ad f9 bd ae a8 db bd
       0.058640927 -0.014643123 -0.121912144 -0.107255325
0000c0 37 44 64 be 59 c6 e1 3d ed 0a 51 bd 7e 53 c9 bd
       -0.22291647 0.1102416 -0.05103581 -0.09830378
0000d0 07 a8 f9 bd d2 c1 d0 3b 33 46 52 3e 4e c9 47 bd
       -0.12190252 0.0063707614 0.20534591 -0.048775963
0000e0 96 f9 98 bd df f9 ad 3e 31 73 2d 3b d9 5a b6 3d
       -0.0746948 0.339797 0.0026466365 0.089040466
0000f0 71 70 09 3d f4 0b cf 3e 70 ac b8 bc f9 69 7d 3e
       0.033554498 0.40438807 -0.022543162 0.24747457
