mlartifacts/554351476986166068/6bedab141d0d4bbb85ef960b59bbbf09/artifacts/models/Model_dim64_layers5_experiment/r2_score0.1392543625987945_run2/data/model.pth (torch, 294728 bytes, 13 tensors)

weight f4 [64, 801]
0.0023814365 -0.037571006 -0.020909462 0.056014787 0.015499659 0.0032424438 -0.011335733 0.012448715
-0.032198105 0.0022252921 0.010660585 0.010751359 -0.026996547 -0.0048865136 0.0029866395 0.00053989387
0.028586823 -0.026966041 0.008172167 -0.07591843 0.005974791 0.02487267 0.007166888 -0.030679116
0.036672167 0.020666072 0.0640257 0.008904951 0.03407776 0.029482467 -0.01124626 0.044670343
0.006111322 0.011100857 0.0021116408 0.06805913 -0.003447408 0.01713174 0.00588347 0.013273814
0.04116161 -0.021674339 -0.020677755 0.019086236 0.051757038 -0.0025942745 0.07492425 -0.03932675
0.0014402135 -0.039521746 0.051128924 0.004561291 0.019591317 -0.03379089 0.03365305 0.025194855
-0.0620792 0.034318455 -0.0018677037 0.034854244 -0.034961376 -0.012020271 0.04606823 0.05755709
0.025984876 0.047107242 -0.05120066 0.021561997 0.02911777 -0.006661453 -0.0166588 -0.022195604
-0.01840107 -0.012809625 -0.0039011138 0.027559165 -0.027232321 0.032059714 -0.05139925 0.01999597
0.004574693 -0.0013656141 -0.009067436 -0.030001052 -0.023586 -0.017081395 -0.041710284 0.013851004
0.008277664 -0.017211799 -0.03362448 0.00922346 -0.018201305 -0.05172831 -0.017142646 -0.017862685
-0.0423382 -0.047284555 0.028040323 0.010107754 -0.013442502 -0.04242551 0.003597488 0.002380966
-0.011000795 -0.046236813 0.025333922 -0.054976366 -0.02951241 0.008053947 -0.0061108097 -0.009871877
0.022089014 0.046114814 -0.042830657 -0.008689588 -0.040847324 -0.0076113893 -0.047011565 0.014833997
0.030377286 -0.017352978 -0.014936981 0.012552521 -0.058074087 0.041885953 -0.03287658 0.019371053
0.0036826064 -0.06027584 0.0051390748 0.0010366694 0.011209303 -0.012582908 -0.01971386 -0.00033800828
-0.04933634 -0.040029585 0.00020842026 -0.043535993 -0.03174953 -0.00080152147 -0.008810508 -0.059250593
0.044448648 0.014826336 -0.048506238 -0.039881777 -0.040237848 0.018184682 0.034718577 0.01617249
0.04350485 0.021816911 0.0016714758 0.02723604 -0.056029208 0.07075907 0.04116161 -0.026828397
-0.029925993 0.00491946 -0.004770796 0.04760424 -0.021707423 -0.047181178 -0.006194794 0.048989017
-0.030516105 0.013059747 0.018288366 0.022472711 0.049042452 -0.009749887 -0.015015716 0.041064642
-0.008196694 -0.01917042 0.045962594 -0.0033323672 -0.03027377 0.034355033 0.043597586 0.036637858
0.0041340534 0.0141916815 0.043453272 -0.011745987 -0.06059944 -0.011521133 0.027077477 -0.0038776258
0.021635966 0.053721014 0.0426629 0.00044837952 -0.06472234 -0.015163375 -0.0369473 0.019856706
0.009832508 0.0079864655 0.06439035 -0.008504278 -0.023674784 -0.01933995 -0.01760492 -0.0060253744
0.00028413552 -0.007145585 0.020632891 -0.021903882 0.008842047 -0.02751513 0.057854638 0.039727263
0.011639816 0.053030487 0.05196316 0.044267002 0.023759313 -0.043469474 -0.020836538 -0.009790335
-0.009506191 0.05856575 0.0041460334 -0.0006481981 -0.016191732 -0.02441566 0.010328949 -0.013804772
0.013894063 0.044232223 0.006437617 0.020781122 0.01614432 0.014182716 -0.032909796 0.030628653
-0.012107701 -0.03268853 0.01757515 -0.0006093845 -0.005401165 0.005214913 0.033816904 0.048232473
0.0034793436 0.0062512797 -0.03128214 -0.03652799 -0.04582759 0.00039633486 -0.046892516 0.03224069
00000000: e011 1c3b 0ee4 19bd 524a abbc c36f 653d
00000010: 48f2 7d3c 2e7f 543b 83b9 39bc b2f5 4b3c
00000020: 29e2 03bd 35d6 113b bca9 2e3c 7826 303c
00000030: dd27 ddbc 0c1f a0bb 7fbb 433b aa87 0d3a
00000040: ea2e ea3c e3e7 dcbc 8ee4 053c 1f7b 9bbd
00000050: 2ec8 c33b c5c1 cb3c 37d8 ea3b c552 fbbc
00000060: 8e35 163d e54b a93c e81f 833d 12e6 113c
00000070: 1f95 0b3d 3785 f13c 3c42 38bc 40f8 363d
00000080: 7c41 c83b 5ee0 353c 7463 0a3b 9662 8b3d
00000090: e9ed 61bb dd57 8c3c 20ca c03b 697a 593c
000000a0: 1499 283d 628e b1bc 6564 a9bc bd5a 9c3c
000000b0: 30ff 533d b404 2abb e371 993d 1615 21bd
000000c0: 8cc5 bc3a 8ee1 21bd 906c 513d e276 953b
000000d0: f87d a03c 5168 0abd c8d7 093d 7165 ce3c
000000e0: c246 7ebd 8291 0c3d bdcd f4ba 53c3 0e3d
000000f0: a933 0fbd acf0 44bc 0ab2 3c3d fcc0 6b3d
00000100: 3cde d43c 86f3 403d c9b7 51bd c9a2 b03c
00000110: 6488 ee3c 5148 dabb 0978 88bc 8ed3 b5bc
00000120: d7bd 96bc 76df 51bc d4a9 7fbb c2c3 e13c
00000130: 5116 dfbc 0c51 033d 0588 52bd 97ce a33c
00000140: 4ee7 953b 68fe b2ba 958f 14bc c4c4 f5bc
00000150: 6d37 c1bc 48ee 8bbc 67d8 2abd 52ef 623c
00000160: 0a9f 073c c2ff 8cbc d3b9 09bd ff1d 173c
00000170: e71a 95bc 10e1 53bd bc6e 8cbc c454 92bc
00000180: d26a 2dbd 73ad 41bd d2b4 e53c fe9a 253c
00000190: f13d 5cbc 5fc6 2dbd d5c3 6b3b fb09 1c3b
000001a0: ae3c 34bc d062 3dbd 1689 cf3c e62e 61bd
000001b0: 02c4 f1bc b4f4 033c 303d c8bb a7bd 21bc
000001c0: 05f4 b43c e3e2 3c3d 336f 2fbd c65e 0ebc
000001d0: 864f 27bd f668 f9bb 338f 40bd 4b0a 733c
000001e0: c9d9 f83c d527 8ebc 3dba 74bc 17a9 4d3c
000001f0: 18df 6dbd 9b90 2b3d 98a9 06bd 0bb0 9e3c
00000200: e257 713b cde3 76bd af65 a83b dae0 873a
00000210: 39a7 373c 8b28 4ebc f67e a1bc b436 b1b9
00000220: e714 4abd 10f6 23bd 638b 5a39 cc52 32bd
00000230: cc0b 02bd 321d 52ba f359 10bc c0b0 72bd
00000240: c90f 363d 29ea 723c 7aae 46bd 135b 23bd
00000250: 71d0 24bd 0bf8 943c 1135 0e3d 2b7c 843c
00000260: 2432 323d 61b9 b23c 6c15 db3a 1e1e df3c
00000270: e27e 65bd 22ea 903d 1499 283d 3ac7 dbbc
00000280: 5b27 f5bc 6c33 a13b 5654 9cbb aafc 423d
00000290: c4d3 b1bc 0d41 41bd b3fd cabb b5a8 483d
000002a0: e9fc f9bc 8df8 553c 7cd1 953c b118 b83c
000002b0: bde0 483d fdbd 1fbc 7a04 76bc 6633 283d
000002c0: 6d4b 06bc 490b 9dbc 4643 3c3d d863 5abb
000002d0: b300 f8bc ddb7 0c3d 6293 323d 9411 163d
000002e0: f476 873b 3a84 683c 0ffc 313d 3e72 40bc
000002f0: 1e37 78bd 22c3 3cbc 96d1 dd3c c41f 7ebb
00000300: e93d b13c 910a 5c3d 4bbf 2e3d 7b14 eb39
00000310: 258d 84bd ce6f 78bc 0d56 17bd 88aa a23c
00000320: 8718 213c aad9 023c 16df 833d 8755 0bbc
00000330: 9ff1 c1bc d16e 9ebc 3138 90bc 8170 c5bb
00000340: 06f8 9439 8325 eabb 4f06 a93c c56f b3bc
00000350: 3cde 103c 6967 e1bc fcf8 6c3d 0eb9 223d
00000360: edb4 3e3c 7f36 593d 53d7 543d 5151 353d
00000370: e4a2 c23c 0c0d 32bd 63b1 aabc a467 20bc
00000380: dbbf 1bbc a4e2 6f3d 73db 873b d7eb 29ba
00000390: 86a4 84bc 5a03 c8bc c13a 293c 692d 62bc
000003a0: eda3 633c d92c 353d a5f2 d23b 2c3d aa3c
000003b0: 1841 843c 9f5e 683c 6ccc 06bd f1e8 fa3c
000003c0: 615f 46bc 68e4 05bd c3f9 8f3c 1abf 1fba
000003d0: 42fc b0bb dce1 aa3b 9883 0a3d 6a8f 453d
000003e0: b305 643b 89d7 cc3b b421 00bd 609e 15bd
000003f0: b6b5 3bbd 2acb cf39 5e12 40bd d00e 043d

bias f4 [64]
-0.011378039 0.00045908283 0.026363948 -0.015361669 0.0038694004 0.02081404 0.03515461 0.040101834
0.036232736 0.030076418 0.03631271 0.047838856 0.020429667 0.043902934 0.026751375 0.0040672133
-0.029137611 0.032762535 -0.015163384 0.008616319 -0.0015429688 0.055707097 -0.019918125 0.05981055
0.0783696 -0.010845594 -0.014758584 0.01376185 -0.013628546 0.0045874887 0.021229424 0.02512382
-0.024496438 -0.00522178 0.04969555 -0.0075002615 0.011769106 0.007290314 -0.034687556 -0.012266274
0.03877603 -0.009028578 -0.0112267295 0.017033074 -0.020768005 0.004512303 -0.01168799 -0.031690132
0.02113418 0.027454399 -0.002243322 0.028231563 0.0062066237 -0.020401414 0.01938529 -0.02232857
0.012685956 0.027062254 -0.025377404 -0.012189081 -0.026708579 -0.015284981 0.03719483 0.04169876
00000000: f46a 3abc 0eb1 f039 35f9 d73c 82af 7bbc
00000010: c495 7d3b 3582 aa3c 48fe 0f3d d241 243d
00000020: c768 143d d262 f63c a3bc 143d adf2 433d
00000030: 1e5c a73c 90d3 333d b325 db3c 4246 853b
00000040: 00b2 eebc 0232 063d d86f 78bc 762b 0d3c
00000050: 713d caba 202d 643d 562b a3bc e8fb 743d
00000060: 3e80 a03d b8b1 31bc fdcd 71bc 6279 613c
00000070: 444a 5fbc a552 963b 54e9 ad3c 78d0 cd3c
00000080: c1ac c8bc 771b abbb 908d 4b3d c1c4 f5bb
00000090: 35d3 403c 96e3 ee3b 8a14 0ebd 7bf8 48bc
000000a0: 9dd3 1e3d 9aec 13bc 51f0 37bc f288 8b3c
000000b0: aa21 aabc f1db 933b fc7e 3fbc 83cd 01bd
000000c0: 9621 ad3c 0ce8 e03c b304 13bb e145 e73c
000000d0: ef60 cb3b de20 a7bc e6cd 9e3c 68ea b6bc
000000e0: c2d8 4f3c a9b1 dd3c 46e4 cfbc b6b4 47bc
000000f0: f3cb dabc db6d 7abc 9b59 183d 52cc 2a3d

weight f4 [64, 64]
-0.10781588 0.11731142 -0.17038417 0.0974257 -0.041509356 0.012541133 0.067781694 -0.0077107595
0.039533317 0.10749371 0.02399285 0.061246254 0.0069749863 -0.034585454 0.027649999 -0.052500606
0.07251152 -0.08913806 -0.074458815 0.11910289 -0.08030058 -0.041088402 0.04136653 -0.022095697
-0.037508704 0.004411935 0.10715211 0.09359127 -0.19107279 0.09698316 0.09116416 -0.13196918
-0.047674406 0.022906128 0.015833672 -0.06334792 0.08486352 0.10200562 0.06581032 0.033732735
0.07749934 0.014631176 0.12341691 0.038328975 -0.003240434 0.12255938 -0.13812026 0.06931168
-0.062145088 0.1344423 0.04132746 0.02164413 -0.040436286 -0.07328112 0.099359766 0.18135661
0.020945463 0.102176264 -0.13091421 0.12591657 0.071217775 0.15161084 0.03439605 -0.08211197
-0.08411973 -0.026520474 0.0003913439 0.06007774 0.1274734 0.11664433 0.025623301 0.11644901
-0.045494746 0.041876987 0.106630005 -0.0708327 0.02713796 -0.02815596 -0.08287172 -0.10888122
0.048976116 0.026653063 0.014545436 -0.04713033 0.053540606 -0.030538104 -0.11343259 -0.021085765
0.00079958857 0.14801453 0.016245518 0.013470631 -0.045070548 0.011599297 0.11281449 0.02865032
-0.07325372 -0.07190667 0.059642266 0.06818642 0.0056690504 0.04126063 0.12886977 0.04361485
-0.014829705 -0.044948265 -0.06404195 -0.07246502 -0.05036382 0.05322504 -0.1104931 0.06561421
0.09309028 -0.04988564 0.032282714 0.07251947 0.052998696 -0.09572849 -0.030014155 0.15610711
0.009734222 -0.062686145 -0.09986987 0.15947725 0.00030197203 0.09392832 0.06522241 0.06880111
0.04682578 0.10393177 -0.02997607 0.03768845 -0.06081325 -0.055231273 -0.06857373 -0.118044525
-0.10769726 -0.01456219 0.06678994 -0.11785613 0.0043977946 -0.028843164 0.086869925 0.04084003
0.109948635 -0.1216504 0.033702523 0.08782263 -0.012056813 -0.12477134 -0.026726887 0.04391603
-0.06007652 0.12045945 0.039493278 0.0039634258 0.026862308 -0.12394631 -0.0754423 0.033958033
0.09933546 -0.095879525 0.0069008768 -0.024043486 -0.020367727 0.099377945 -0.053250805 -0.07344377
0.09911206 -0.013712972 0.057300568 0.08028288 -0.06258157 -0.087652266 0.008026525 0.027321875
-0.10265833 -0.010473564 -0.02210781 0.09447415 0.092002764 0.010593817 0.03205706 0.011932954
-0.10393034 -0.006357193 0.061317846 0.11284971 0.046189368 0.0792741 -0.08125055 -0.029115036
-0.0271253 -0.08088637 0.06015072 -0.091525 0.0224501 0.10492512 -0.0014867375 0.05736552
-0.026899854 0.0642439 0.13381147 -0.069966465 0.1145172 0.16011576 -0.059311256 0.03373933
-0.10388373 0.09669742 0.028531635 0.019356322 0.13251284 0.08229601 -0.028696196 -0.032038815
0.14456072 0.1056995 0.031676885 0.12667422 -0.18354116 -0.04385173 0.040524743 0.06691852
0.07120556 0.008724622 0.12956144 -0.0032524138 -0.046094235 0.025113404 0.042211242 -0.010128252
0.110787004 -0.101765506 0.14176436 0.13505258 -0.07562798 0.1170449 0.010542155 -0.16872437
-0.020210423 0.14225326 0.13264199 0.07733373 -0.040791124 0.03270315 0.05454976 -0.029623345
0.10156822 -0.0090789795 -0.045071006 -0.0023101808 0.0635438 0.11398073 0.07706015 -0.07634686
00000000: 92ce dcbd f840 f03d 3079 2ebe 2087 c73d
00000010: b705 2abd 5379 4d3c 21d1 8a3d 8aaa fcbb
00000020: b0ed 213d aa25 dc3d a78c c43c 5add 7a3d
00000030: 6d8e e43b 7aa9 0dbd 4082 e23c e00a 57bd
00000040: eb80 943d 048e b6bd dd7d 98bd 37ec f33d
00000050: a174 a4bd 504c 28bd f36f 293d 0902 b5bc
00000060: baa2 19bd fe91 903b 9172 db3d c8ac bf3d
00000070: 96a8 43be 1b9f c63d 46b4 ba3d ee22 07be
00000080: 3d46 43bd a2a5 bb3c 9eb5 813c 8ebc 81bd
00000090: edcc ad3d 53e8 d03d 90c7 863d 562b 0a3d
000000a0: f9b7 9e3d 9ab7 6f3c 01c2 fc3d d8fe 1c3d
000000b0: 765d 54bb 6a00 fb3d 666f 0dbe 48f3 8d3d
000000c0: d98b 7ebd 3eab 093e fc46 293d 084f b13c
000000d0: 85a0 25bd 6914 96bd 227d cb3d 8cb5 393e
000000e0: d295 ab3c ca41 d13d 600e 06be 46f0 003e
000000f0: a0da 913d df3f 1b3e dfe2 0c3d 522a a8bd
00000100: f746 acbd 7741 d9bc 4a2d cd39 1414 763d
00000110: 6388 023e 39e3 ee3d f5e7 d13c d27c ee3d
00000120: b358 3abd 3487 2b3d d560 da3d bc10 91bd
00000130: 6d50 de3c 54a7 e6bc a6b8 a9bd 1efd debd
00000140: 2e9b 483d 8657 da3c fb4f 6e3c bc0b 41bd
00000150: 654d 5b3d 0c2b fabc 594f e8bd 0ebc acbc
00000160: 7b9b 513a 1f91 173e 5215 853c ecb3 5c3c
00000170: e59b 38bd fa0a 3e3c 490b e73d 13b4 ea3c
00000180: 0c06 96bd ce43 93bd 734b 743d 52a5 8b3d
00000190: 71c3 b93b e800 293d 70f6 033e 7ca5 323d
000001a0: 4af8 72bc ac1b 38bd 6d28 83bd 8a68 94bd
000001b0: 4b4a 4ebd 8002 5a3d 354a e2bd be60 863d
000001c0: 1ea6 be3d e354 4cbd e13a 043d 1685 943d
000001d0: 2915 593d 4c0d c4bd 3fe0 f5bc 8bda 1f3e
000001e0: 497c 1f3c 9861 80bd 9388 ccbd 014e 233e
000001f0: 0052 9e39 7e5d c03d 5493 853d 99e7 8c3d
00000200: 64cc 3f3d 2eda d43d 6090 f5bc 345f 1a3d
00000210: 5017 79bd 303a 62bd 6270 8cbd 54c1 f1bd
00000220: 6290 dcbd 4096 6ebc 2ac9 883d 8e5e f1bd
00000230: 601b 903b 8048 ecbc dce8 b13d e047 273d
00000240: c02c e13d d823 f9bd a80b 0a3d 5adc b33d
00000250: f089 45bc 1e88 ffbd 58f2 dabc 4ce1 333d
00000260: cc12 76bd 72b3 f63d b4c3 213d a0df 813b
00000270: 580e dc3c 90d7 fdbd 7e81 9abd 9417 0b3d
00000280: 6470 cb3d 7c5c c4bd c020 e23b d8f6 c4bc
00000290: 38da a6bc aa86 cb3d 841d 5abd b069 96bd
000002a0: 44fb ca3d 60ac 60bc 00b4 6a3d 5a6b a43d
000002b0: c42a 80bd 0883 b3bd b081 033c 20d2 df3c
000002c0: 883e d2bd 5099 2bbc 701b b5bc aa7b c13d
000002d0: f26b bc3d b091 2d3c 444e 033d 7082 433c
000002e0: 6ed9 d4bd 0050 d0bb 6c28 7b3d c01d e73d
000002f0: 1031 3d3d 765a a23d b066 a6bd a882 eebc
00000300: e135 debc c1a7 a5bd 9a60 763d 7671 bbbd
00000310: 46e9 b73c fbe2 d63d a2de c2ba 1cf8 6a3d
00000320: 155d dcbc 4e92 833d e005 093e 944a 8fbd
00000330: fe87 ea3d 63f5 233e 5cf0 72bd 4032 0a3d
00000340: fec0 d4bd 4c09 c63d 2dbb e93c 2691 9e3c
00000350: 72b1 073e cf8a a83d 4914 ebbc 223b 03bd
00000360: ba07 143e fb78 d83d 9fbf 013d e3b6 013e
00000370: 37f2 3bbe df9d 33bd 46fd 253d 940c 893d
00000380: 38d4 913d b8f1 0e3c c1ab 043e 7326 55bb
00000390: 4fcd 3cbd a0ba cd3c b2e5 2c3d f8f0 25bc
000003a0: 4ce4 e23d 6f6a d0bd ad2a 113e 394b 0a3e
000003b0: d8e2 9abd 3db5 ef3d 01b9 2c3c 15c6 2cbe
000003c0: 5490 a5bc d7aa 113e 4dd3 073e 2661 9e3d
000003d0: 9814 27bd bdf3 053d 926f 5f3d a8ac f2bc
000003e0: 0003 d03d 00c0 14bc 609c 38bd 6766 17bb
000003f0: 4023 823d bb6e e93d b6d1 9d3d be5b 9cbd

bias f4 [64]
-0.04765239 -0.00053539913 -0.0005072355 -0.029008467 -0.09884111 0.06626406 0.0322651 0.07600299
-0.07113212 -0.005027251 -0.008803549 0.0664967 -0.0012814347 -0.050121028 -0.01413013 -0.05467859
-0.01095508 -0.005317445 0.016268246 0.07248635 0.045858856 -0.055367175 0.107997246 0.0096327895
0.074839905 0.022453355 -0.07637466 -0.039361946 0.014921831 -0.009848548 0.06952978 0.115671776
-0.073197946 0.077875204 -0.11766906 0.08253557 -0.0697233 0.004250258 -0.10729546 -0.024353893
-0.029038811 0.053610284 -0.030804785 0.05481661 0.1091972 0.0066928715 0.024022121 -0.004690806
-0.09200688 0.042240422 -0.027767058 -0.045384478 0.07164342 0.14225142 -0.008865608 0.10156713
0.10170466 -0.053721264 0.09085065 0.1368855 0.023205921 -0.025096526 0.11300363 -0.043307297
00000000: 272f 43bd 075a 0cba 00f8 04ba 2aa3 edbc
00000010: 356d cabd 74b5 873d 6928 043d 75a7 9b3d
00000020: b8ad 91bd a3bb a4bb c33c 10bc 6c2f 883d
00000030: d0f5 a7ba b54b 4dbd 1082 67bc a8f6 5fbd
00000040: f07c 33bc f63d aebb fc44 853c b973 943d
00000050: 7fd6 3b3d b1c8 62bd a92d dd3d d9d2 1d3c
00000060: aa45 993d 19f0 b73c 516a 9cbd fe39 21bd
00000070: b27a 743c ce5b 21bc a165 8e3d 53e5 ec3d
00000080: cee8 95bd 097d 9f3d 7afc f0bd 6908 a93d
00000090: 17cb 8ebd c045 8b3b b9bd dbbd d181 c7bc
000000a0: cde2 edbc 7596 5b3d 515a fcbc 6287 603d
000000b0: c8a2 df3d e04f db3b 0aca c43c 55b5 99bb
000000c0: 1a6e bcbd 4b04 2d3d be77 e3bc 13e5 39bd
000000d0: c9b9 923d 5baa 113e 0e41 11bc 6d02 d03d
000000e0: 884a d03d d40a 5cbd e80f ba3d b62b 0c3e
000000f0: 581a be3c 3b97 cdbc 726e e73d fe62 31bd

weight f4 [64, 64]
0.09472823 -0.060661696 0.027044535 -0.074981056 0.07997301 0.105373375 -0.087150976 -0.11944176
0.042274218 0.04227106 0.084846705 -0.03983558 -0.04865306 -0.10596567 0.068947345 0.08927958
0.07439833 -0.09803706 -0.120985515 -0.02724542 0.15640874 -0.054276176 0.035760645 -0.01113181
-0.11452296 0.031685542 0.117519155 0.10936974 0.10539161 -0.05927257 -0.09454457 0.02745072
-0.06405491 -0.09718472 0.10088876 0.045299374 0.071971335 -0.033854365 0.010222411 -0.010329353
0.058100414 -0.08298978 0.06652197 0.114629984 -0.06841577 0.11110209 -0.069401465 0.11175765
0.04455731 0.04394355 0.07877691 -0.0035429262 -0.09018399 -0.08147647 0.005497766 0.13973054
0.20057683 0.032495838 0.1395301 0.12273642 -0.081600145 0.061515633 0.037805278 -0.0038331226
-0.0050439066 0.0815733 -0.041897878 -0.02358532 -0.06642929 0.04633573 0.009384219 0.031775143
-0.00033779241 -0.010669809 0.09671205 0.033534978 -0.09906077 0.051417995 -0.09838034 0.025075838
0.08336386 0.08465188 -0.09077387 -0.05441872 -0.025051102 -0.08577459 -0.08494156 -0.0015995761
0.054334544 -0.06018389 0.0847382 0.05105903 0.046288945 0.03807967 0.10737893 -0.010541848
0.07472245 -0.043541018 -0.06557569 -0.013297891 0.12811586 0.119980946 0.044591334 0.009130702
-0.010541136 -0.086411834 0.10302279 -0.0870506 -0.06241036 -0.10319558 -0.07094565 0.113850065
0.014767429 0.07616456 0.009425105 0.08576398 0.011418329 -0.1233522 -0.063982025 0.02869641
0.1008283 0.05789966 -0.03227852 0.11787138 0.016328499 -0.049514536 -0.0077767707 -0.12421802
0.10774217 0.0992958 -0.0998255 0.17493202 0.01542735 0.09921047 0.07378918 0.15548436
0.14636932 -0.016376834 -0.06473152 0.13326916 0.15413646 0.018249767 0.12977903 0.006714627
0.026374 0.14165768 -0.049575396 -0.041420855 0.045264907 0.07331791 -0.052684996 0.115584
0.170951 -0.025015278 0.07336068 0.05110892 0.09772115 0.023567084 0.07520126 0.033792943
0.095800735 -0.061780553 -0.05204965 0.117658824 0.08614809 0.0026356578 -0.02348592 0.09813888
0.13907114 0.15226991 0.11161585 0.12943129 0.1521062 -0.067675665 0.16479674 -0.024605816
0.17277656 0.005535807 0.021174442 0.1544009 0.06307365 0.06474849 0.024139043 -0.089050196
-0.03011289 -0.14154911 0.10455642 0.13216037 0.076331705 0.07189274 0.10994237 -0.0804092
0.06608224 0.042121038 -0.12306325 -0.10722279 -0.05476607 0.015632944 0.06883593 -0.08173617
0.06847605 0.052191474 -0.0714226 -0.11202061 0.08013411 0.045122236 0.042607363 0.122086644
-0.10604145 -0.09949303 0.091456525 0.05489716 -0.097624846 0.026785154 -0.045193758 0.044768423
-0.052475866 0.0060972557 -0.12107822 -0.13165486 -0.10043613 -0.07399424 0.037886515 -0.0032472794
0.09721668 -0.07323508 -0.013386026 0.08638609 0.06488332 0.05738367 0.0005979225 -0.10214217
0.025757955 0.07173931 -0.053982515 -0.019928202 0.071631715 0.055018157 0.05956382 0.10238417
0.08755195 -0.10488907 -0.03589552 0.039844096 0.011768403 0.045057725 0.08704697 -0.0686101
-0.10271589 -0.03181888 -0.119861975 -0.093084835 0.12471999 -0.10045124 0.062425118 -0.107638106
00000000: e000 c23d 6678 78bd 808c dd3c ab8f 99bd
00000010: e4c8 a33d ffcd d73d 367c b2bd e29d f4bd
00000020: bb27 2d3d 6b24 2d3d 1cc4 ad3d a22a 23bd
00000030: 6e48 47bd 8704 d9bd 4434 8d3d 36d8 b63d
00000040: 275e 983d a7c7 c8bd 41c7 f7bd c931 dfbc
00000050: 9d29 203e b250 5ebd c179 123d 3262 36bc
00000060: 038b eabd b3c8 013d e2ad f03d 3efd df3d
00000070: 8ed7 d73d cbc7 72bd 95a0 c1bd 55e0 e03c
00000080: 382f 83bd c808 c7bd c49e ce3d d68b 393d
00000090: b565 933d e0aa 0abd e67b 273c 723c 29bc
000000a0: b3fa 6d3d 8cf6 a9bd ac3c 883d 20c3 ea3d
000000b0: 911d 8cbd 7e89 e33d 5b22 8ebd 32e1 e43d
000000c0: ba81 363d 27fe 333d ca55 a13d 7030 68bb
000000d0: 62b2 b8bd 23dd a6bd 9b26 b43b 8615 0f3e
000000e0: 0364 4d3e 5b1a 053d fbe0 0e3e 3b5d fb3d
000000f0: fa1d a7bd d1f7 7b3d b5d9 1a3d 2035 7bbb
00000100: 5b47 a5bb e70f a73d 1c9d 2bbd 0036 c1bc
00000110: 140c 88bd 89ca 3d3d 44c0 193c a726 023d
00000120: bb19 b1b9 6cd0 2ebc f810 c63d f95b 093d
00000130: 5fe0 cabd ad9b 523d a27b c9bd d86b cd3c
00000140: acba aa3d f75d ad3d a7e7 b9bd 2ae6 5ebd
00000150: f837 cdbc 97aa afbd d7f5 adbd dea8 d1ba
00000160: e68d 5e3d 6283 76bd 398b ad3d 4623 513d
00000170: 7a99 3d3d 6ef9 1b3d 7ce9 db3d b7b7 2cbc
00000180: 1508 993d 1158 32bd 8c4c 86bd 66df 59bc
00000190: ce30 033e 92b8 f53d 67a5 363d f198 153c
000001a0: bbb4 2cbc b0f8 b0bd 9dfd d23d 9647 b2bd
000001b0: 01a2 7fbd 3458 d3bd f44b 91bd 392a e93d
000001c0: 16f3 713c 2afc 9b3d c16b 1a3c 07a5 af3d
000001d0: f113 3b3c 14a0 fcbd 0209 83bd bc14 eb3c
000001e0: 117f ce3d 3228 6d3d 7b36 04bd 8d66 f13d
000001f0: 58c3 853c c1cf 4abd 48d4 febb 0466 febd
00000200: eda7 dc3d 995b cb3d 5071 ccbd 6121 333e
00000210: ffc2 7c3c dc2e cb3d c81e 973d 4b37 1f3e
00000220: d7e1 153e b628 86bc f691 84bd b677 083e
00000230: f3d5 1d3e 8980 953c cbe4 043e 6006 dc3b
00000240: 490e d83c b60e 113e 920f 4bbd eaa8 29bd
00000250: b267 393d b327 963d 39cc 57bd 4eb7 ec3d
00000260: c70d 2f3e d7ec ccbc 203e 963d 9657 513d
00000270: 0722 c83d c20f c13c 1e03 9a3d 786a 0a3d
00000280: 2d33 c43d 9b0d 7dbd 0432 55bd 1cf7 f03d
00000290: 696e b03d 00bb 2c3b 8b65 c0bc 0afd c83d
000002a0: aa68 0e3e a5ec 1b3e da96 e43d a389 043e
000002b0: bac1 1b3e 8a99 8abd 7ac0 283e 2392 c9bc
000002c0: 57ec 303e b765 b53b 0676 ad3c 451b 1e3e
000002d0: c22c 813d db9a 843d 3ebf c53c f35f b6bd
000002e0: 4faf f6bc 40f2 10be ad21 d63d 0c55 073e
000002f0: cc53 9c3d 803c 933d 7729 e13d 94ad a4bd
00000300: 2056 873d 1c87 2c3d 9608 fcbd 9f97 dbbd
00000310: 6352 60bd a910 803c daf9 8c3d 4b65 a7bd
00000320: 2c3d 8c3d bac6 553d 0346 92bd 106b e5bd
00000330: 5a1d a43d 18d2 383d 0f85 2e3d 9008 fa3d
00000340: 422c d9bd 00c3 cbbd 8f4d bb3d d8db 603d
00000350: 89ef c7bd 8a6c db3c 171d 39bd 185f 373d
00000360: eff0 56bd 7dcb c73b dcf7 f7bd 88d0 06be
00000370: 75b1 cdbd 4b8a 97bd e42e 1b3d 4fd0 54bb
00000380: 8a19 c73d 46fc 95bd 1051 5bbc 31eb b03d
00000390: 8ce1 843d 240b 6b3d e6bd 1c3a ea2f d1bd
000003a0: 5902 d33c 0fec 923d c51c 5dbd 7840 a3bc
000003b0: a6b3 923d b85a 613d 31f9 733d cbae d13d
000003c0: 704e b33d 15d0 d6bd 2e07 13bd 9033 233d
000003d0: 43d0 403c 738e 383d af45 b23d 7483 8cbd
000003e0: b55c d2bd 8454 02bd 327a f5bd 43a3 bebd
000003f0: 326d ff3d 61b9 cdbd 7bb1 7f3d 5e71 dcbd

bias f4 [64]
0.121919066 -0.005447542 0.02595013 -0.046125114 0.051265407 0.008512963 -0.12010555 0.08016236
-0.051654685 0.02522555 0.15127942 0.058313217 0.022794148 -0.07148214 0.06236601 0.05197668
-0.012470728 0.10693785 -0.045481108 -0.102649264 0.0042901393 0.08698819 0.10293325 -0.07071446
0.0091440175 -0.10450413 -0.09047699 0.03618854 -0.08605925 -0.076984584 -0.07468657 0.08170383
-0.10206518 -0.069168165 -0.10416213 0.07619601 0.112865284 -0.047432434 0.16884112 -0.02404286
0.10347993 -0.027663331 0.15377672 -0.014672056 0.029063033 0.075995944 -0.062743425 0.14143984
-0.056805894 -0.049079504 -0.1096074 -0.036564037 0.031516377 -0.11047912 0.010440767 -0.010814713
0.10852704 0.027524896 -0.09935829 0.011217705 0.022511201 -0.057859898 0.06288428 0.0125411935
00000000: b4b0 f93d 4b81 b2bb 5e95 d43c b0ed 3cbd
00000010: adfb 513d f479 0b3c e6f9 f5bd 2a2c a43d
00000020: dd93 53bd d0a5 ce3c fee8 1a3e d7d9 6e3d
00000030: cbba ba3c 3a65 92bd 8073 7f3d 80e5 543d
00000040: 0652 4cbc 3b02 db3d 664a 3abd c739 d2bd
00000050: 4c94 8c3b dd26 b23d abce d23d bed2 90bd
00000060: cad0 153c 4306 d6bd 004c b9bd 6f3a 143d
00000070: d53f b0bd 18aa 9dbd 46f5 98bd 5654 a73d
00000080: 8d07 d1bd 0aa8 8dbd f452 d5bd a70c 9c3d
00000090: ea25 e73d 8348 42bd b0e4 2c3e 88f5 c4bc
000000a0: 49ed d33d 369e e2bc a577 1d3e 1063 70bc
000000b0: 9915 ee3c c3a3 9b3d a07f 80bd 9bd5 103e
000000c0: 4cad 68bd 9707 49bd d879 e0bd 2cc4 15bd
000000d0: 5117 013d e042 e2bd c00f 2b3c 3230 31bc
000000e0: 6d43 de3d e47b e13c 5c7c cbbd 77ca 373c
000000f0: 6969 b83c 80fe 6cbd 79c9 803d 9479 4d3c

weight f4 [64, 64]
-0.013242624 0.025820084 -0.059027795 0.005321185 0.016439345 0.024369959 -0.11880875 -0.047094356
-0.038717072 -0.015572354 0.10220762 -0.057564754 0.04825256 0.054488502 -0.008409728 0.09655708
-0.12739491 0.0846631 0.053534795 -0.115136676 0.04136477 0.06777491 -0.15352108 0.11855962
0.12049165 0.0957066 -0.04613666 -0.05085756 0.01837026 -0.123676024 0.04069833 -0.035631344
0.06903527 0.050862033 -0.06527339 -0.17596403 0.11800724 0.059067175 -0.10972997 -0.0056907237
-0.036280166 0.006385296 -0.081754684 -0.036912292 -0.15620357 -0.16536483 -0.07934411 -0.098181866
-0.10921614 0.02994796 -0.012874126 0.06928812 -0.16055675 -0.04984619 0.0639386 0.0038204985
0.028362747 -0.061380856 0.09252085 0.12284922 0.04464306 0.017731056 0.10015929 -0.10686333
-0.049196575 -0.067672044 -0.0007130253 -0.044704825 0.07134729 -0.028492995 -0.11889474 -0.059670135
0.03802029 -0.10426347 -0.024795547 0.1215807 0.13587733 0.06966336 0.017469091 -0.0996447
0.05504298 -0.08597704 -0.06004942 0.076477565 0.12766324 0.08916148 0.0889199 0.11261943
-0.06152447 -0.09115417 0.118760385 0.030090867 0.11236884 -0.042198457 -0.040121496 0.0023372918
-0.11011785 -0.05475685 0.026459694 -0.025582708 -0.04975827 0.08953635 -0.05440259 -0.061260954
-0.12643881 -0.047291327 0.02992477 -0.079640746 0.12358153 0.024807466 -0.0747937 0.14149211
0.012228176 0.06596649 -0.029397786 -0.04082647 0.09802487 0.03397792 -0.049891114 -0.044434015
-0.0151652 0.07998931 -0.0005600093 0.016735667 0.023526147 0.11677052 0.044189602 -0.097366475
0.027408069 -0.023062529 0.012226596 -0.0730229 -0.13751553 0.019385273 -0.06815092 0.12424393
-0.006806571 -0.097714126 -0.11390207 -0.12958425 0.014059099 0.005721562 0.14946352 0.112036
-0.08453866 0.14761253 0.05334569 0.010054279 -0.033693418 -0.12192117 -0.12990062 -0.05972332
0.12488644 0.14347823 -0.0055885543 -0.09943911 -0.05827735 -0.13443235 -0.09351869 -0.048580587
0.01146779 0.06946626 0.03139083 -0.099291794 -0.077766076 -0.04201528 -0.083601676 0.021128282
0.14693445 0.08158051 -0.04070924 0.08754733 -0.15358153 -0.09810441 0.044541232 0.0629502
0.029194966 -0.07680556 -0.11536169 0.051349536 0.03308871 0.014452563 -0.1233664 0.12893225
-0.04170557 0.036765646 0.044546608 -0.035755087 0.012463667 -0.055949397 -0.047698807 -0.07169722
-0.16918145 0.08473667 -0.04745752 0.11433431 -0.16737401 0.109416775 -0.09043212 0.12126369
-0.18090661 -0.08745949 0.007322879 -0.14652961 -0.1859803 0.08761048 0.19751334 0.08561683
0.0046766265 0.15892577 -0.116813764 0.010351949 -0.1821727 -0.006810829 -0.019960951 0.103698984
0.19691162 0.032260872 -0.06986275 -0.1551818 -0.02075849 -0.08177677 -0.116336204 -0.031141877
0.07516908 -0.023265973 -0.078076765 -0.057026442 -0.027810581 0.16279435 0.15666623 -0.02952829
0.06719816 0.010332826 0.11120862 -0.100675195 0.04422859 -0.0352428 -0.097031444 0.0213243
0.089396946 0.13588673 -0.0445558 -0.08427748 0.05988114 0.008494126 0.06352766 0.13513413
0.06457639 -3.8427246e-05 0.013186807 0.15654702 -0.025808884 -0.04937071 -0.09319023 -0.04401046
00000000: 97f7 58bc a484 d33c 21c7 71bd 565d ae3b
00000010: ceab 863c 82a3 c73c 0052 f3bd 03e6 40bd
00000020: cb95 1ebd 3023 7fbc 3b52 d13d 05c9 6bbd
00000030: 7aa4 453d 562f 5f3d f5c8 09bc b8bf c53d
00000040: d073 02be d963 ad3d 4d47 5b3d c7cc ebbd
00000050: 1b6e 293d 92cd 8a3d a134 1dbe 63cf f23d
00000060: 54c4 f63d d201 c43d cbf9 3cbd 0450 50bd
00000070: 3a7d 963c db49 fdbd 4bb3 263d 2cf2 11bd
00000080: 5d62 8d3d b554 503d 0eae 85bd ea2f 34be
00000090: c8ad f13d 6cf0 713d 1bba e0bd 4079 babb
000000a0: 839a 14bd bf3b d13b 006f a7bd 5831 17bd
000000b0: d4f3 1fbe 6655 29be 2a7f a2bd 9313 c9bd
000000c0: b6ac dfbd 6d55 f53c 00ee 52bc eee6 8d3d
000000d0: fd68 24be 852b 4cbd 3ef2 823d 5461 7a3b
000000e0: fe58 e83c 7e6a 7bbd 927b bd3d 5f98 fb3d
000000f0: a4db 363d b840 913c 5020 cd3d 29db dabd
00000100: 5982 49bd a497 8abd 51ea 3aba 681c 37bd
00000110: 871e 923d 246a e9bc 167f f3bd ac68 74bd
00000120: 2abb 1b3d 1688 d5bd 0820 cbbc 4dff f83d
00000130: 6d23 0b3e aaab 8e3d 571b 8f3c 8512 ccbd
00000140: bf74 613d bb14 b0bd 61f6 75bd 45a0 9c3d
00000150: 27ba 023e 4b9a b63d a31b b63d 04a5 e63d
00000160: 1501 7cbd 0aaf babd a538 f33d 1f81 f63c
00000170: a221 e63d 4ad8 2cbd 7056 24bd 402d 193b
00000180: 7885 e1bd b848 60bd 00c2 d83c d492 d1bc
00000190: 54cf 4bbd d55e b73d 40d5 5ebd c4ec 7abd
000001a0: 2d79 01be 8db4 41bd cb24 f53c b01a a3bd
000001b0: 5018 fd3d 0739 cb3c 702d 99bd 4fe3 103e
000001c0: b058 483c 7019 873d a0d3 f0bc a839 27bd
000001d0: 43c1 c83d 6e2c 0b3d a05a 4cbd 7100 36bd
000001e0: 7677 78bc 6fd1 a33d 97cd 12ba 3d19 893c
000001f0: e8b9 c03c 6225 ef3d 2800 353d 1368 c7bd
00000200: e386 e03c a1ed bcbc 0f52 483c 088d 95bd
00000210: dfd0 0cbe ddcd 9e3c b692 8bbd 9a73 fe3d
00000220: a809 dfbb 581e c8bd 7d45 e9bd bcb1 04be
00000230: 2358 663c f17b bb3b f70c 193e 2173 e53d
00000240: 9b22 adbd bd27 173e 0381 5a3d b4ba 243c
00000250: 1c02 0abd ceb1 f9bd ab04 05be 71a0 74bd
00000260: 76c4 ff3d f5eb 123e 3120 b7bb bba6 cbbd
00000270: 3bb4 6ebd a2a8 09be ba86 bfbd 70fc 46bd
00000280: 66e3 3b3c 5444 8e3d ac93 003d 7f59 cbbd
00000290: d243 9fbd 3718 2cbd 5b37 abbd 3815 ad3c
000002a0: fc75 163e af13 a73d bbbe 26bd 044c b33d
000002b0: 7a44 1dbe f7ea c8bd de70 363d 09ec 803d
000002c0: 482a ef3c 3c4c 9dbd c042 ecbd e453 523d
000002d0: 0788 073d 71ca 6c3c 86a7 fcbd d106 043e
000002e0: 76d3 2abd 9397 163d 8176 363d ed73 12bd
000002f0: 6934 4c3c 322b 65bd d35f 43bd fed5 92bd
00000300: e73d 2dbe 6b8a ad3d d162 42bd 1b28 ea3d
00000310: 1864 2bbe e715 e03d 7a34 b9bd 1959 f83d
00000320: 953f 39be f61d b3bd c3f4 ef3b dc0b 16be
00000330: 9f71 3ebe 206d b33d f040 4a3e e057 af3d
00000340: 633e 993b 70bd 223e 0e3c efbd 399b 293c
00000350: 7b8b 3abe 602d dfbb 2685 a3bc 2260 d43d
00000360: 33a3 493e fa23 043d 3414 8fbd fae7 1ebe
00000370: b50d aabc 947a a7bd ad41 eebd 401d ffbc
00000380: 3ff2 993d 4898 bebc b6e6 9fbd 8f94 69bd
00000390: 04d3 e3bc 90b3 263e 1d6d 203e 50e5 f1bc
000003a0: 309f 893d 034b 293c 58c1 e33d cc2e cebd
000003b0: 0a29 353d c15a 10bd 6cb8 c6bd 4cb0 ae3c
000003c0: bf15 b73d e425 0b3e 2480 36bd ac99 acbd
000003d0: ed45 753d f22a 0b3c ca1a 823d 9a60 0a3e
000003e0: a040 843d f12c 21b8 7a0d 583c dd4d 203e
000003f0: 276d d3bc f138 4abd 85da bebd 5044 34bd

bias f4 [64]
0.030557545 0.01231765 0.11195045 0.13158135 0.13519745 0.03993457 0.0764933 0.0646865
0.036411844 0.070257165 0.014019797 0.0763724 0.083806224 0.1287849 -0.09005216 0.015758337
0.080641165 -0.07494062 -0.0061550336 0.03234621 -0.045035005 -0.052503955 -0.08931725 0.024948254
0.1338522 0.08925607 -0.01515992 0.13300939 0.009628441 -0.064805344 0.08863824 -0.038067754
-0.0123181185 0.013904461 0.016046545 -0.05414693 -0.04099664 0.09514005 -0.065334186 0.02945716
-0.0014200489 -0.0703601 0.06310877 0.14245537 0.09954891 -0.072467774 0.10835054 -0.019539326
0.04288613 -0.027780497 -0.08948652 0.017048752 0.119643144 -0.058193285 0.094332136 0.06975676
0.0897446 -0.0552202 -0.037959486 -0.065138444 0.13606726 -0.124029085 -0.0740811 -0.100425765
00000000: d153 fa3c f8cf 493c 4746 e53d 43bd 063e
00000010: 3371 0a3e 6f92 233d 85a8 9c3d 5b7a 843d
00000020: 9624 153d fde2 8f3d 4ab3 653c 2269 9c3d
00000030: 99a2 ab3d 30e0 033e 446d b8bd a117 813c
00000040: 3227 a53d 787a 99bd 2ab0 c9bb 767d 043d
00000050: a076 38bd 630e 57bd f6eb b6bd 4860 cc3c
00000060: 8d10 093e e3cb b63d 5061 78bc 9d33 083e
00000070: 9cc0 1d3c aab8 84bd f787 b53d efec 1bbd
00000080: efd1 49bc 89cf 633c 0b74 833c 2cc9 5dbd
00000090: 18ec 27bd c9d8 c23d eecd 85bd 2450 f13c
000000a0: ef20 baba f518 90bd 2c3f 813d d2df 113e
000000b0: 4de0 cb3d fc69 94bd e3e6 dd3d f010 a0bc
000000c0: 5ea9 2f3d ed93 e3bc b544 b7bd d3a9 8b3c
000000d0: 7707 f53d 155c 6ebd 3531 c13d a2dc 8e3d
000000e0: 04cc b73d 942e 62bd 687b 1bbd 4e67 85bd
000000f0: 3755 0b3e f602 febd d5b7 97bd 06ac cdbd

weight f4 [64, 64]
-0.1077109 0.10468405 -0.13821606 -0.12740019 -0.024449177 -0.047965184 -0.117466 0.095411904
0.093341306 0.06995901 -0.0016077602 0.04750142 -0.06250613 0.08954727 -0.08644751 -0.0069469283
0.07395138 0.029938936 -0.025445182 0.14101242 0.07552107 -0.021155003 0.116191655 -0.012222424
0.020191228 -0.10190897 -0.06681849 0.15021242 0.072214514 0.07063232 -0.05338075 0.066047475
0.05006368 0.03444264 0.01967926 0.10816851 0.07276328 0.039368875 -0.016939102 0.044734392
0.027118621 -0.002200727 0.027359026 0.026834704 -0.09142673 -0.08678316 0.049353193 0.115635514
0.0043870667 0.037797153 0.12202094 0.096363015 -0.011382886 0.06249994 0.04710256 0.084780715
-0.053853378 -0.006802661 0.08278102 0.08769797 0.075864814 0.0871595 -0.04762192 -0.037969053
0.066077635 0.1545915 -0.072431065 0.03792338 0.041518766 -0.11386643 -0.12293637 0.1371141
0.06744905 0.13665518 0.0997591 -0.0893765 0.025889078 0.046217583 0.057024136 -0.08299062
-0.063854225 -0.021597356 -0.016516091 0.028992765 0.012981653 0.09856308 -0.028991148 0.011783525
0.1129773 0.11332786 0.01966171 0.15193518 -0.000849012 -0.019601777 0.14418106 -0.0025422582
0.09933899 0.023673413 -0.058682334 0.07690094 -0.018860862 -0.10357026 -0.12557395 0.11983163
0.14601524 -0.122499146 -0.11357342 -0.035599425 -0.012104918 -0.07578954 -0.10176156 0.16078937
0.16732243 -0.011056907 0.07787092 0.11995134 0.10481459 0.03078413 0.048122313 -0.081433564
0.14269057 0.04294533 -0.052682117 0.11545673 0.11744844 0.016548768 -0.033400275 0.086658195
0.041798487 -0.12226383 0.15961862 0.11980628 0.015258835 -0.09808266 -0.06586462 0.10889148
0.05934757 -0.02809056 -0.12904176 0.076972246 -0.06343552 0.090456165 -0.048087567 0.015341014
0.07302312 0.08609259 0.06818994 -0.1490922 -0.12050578 -0.039489865 0.015132949 0.006881982
0.07944203 -0.09129618 0.11626634 -0.098799564 -0.021484211 -0.11063729 0.013728361 -0.0946234
-0.15520136 -0.0036361734 -0.08884396 -0.13155909 -0.033455104 -0.14152536 -0.052943565 -0.079937875
-0.11307507 0.034672067 -0.0100396555 0.074287824 -0.025355093 -0.004699575 0.03220806 -0.05024735
0.059266474 0.11688846 -0.13391213 -0.08182924 0.098464355 -0.15130453 0.060374673 -0.08553809
-0.11293866 0.006656915 -0.07034244 0.05294442 0.10777377 -0.11645053 -0.014811687 -0.046431422
-0.031005016 -0.01344282 -0.060690608 0.0011493134 0.026627196 -0.03612761 -0.08478914 0.012771411
0.012810993 -0.02776303 0.0045619686 -0.09443485 0.092752285 0.10881975 -0.12009883 0.11144731
-0.08971148 -0.042011127 0.053693797 -0.0018121292 -0.11281064 -0.07415481 0.0042466074 0.029849693
0.061024215 0.11001135 0.076385945 -0.0017345235 -0.027737519 -0.029326588 0.09217147 -0.04228504
0.03612924 0.028537638 0.1056735 0.14396818 -0.014668226 0.019165765 0.045377333 -0.017258009
0.11770491 0.10826657 -0.020838944 -0.042095937 0.097132474 -0.06445084 0.060996823 0.14862934
0.0949049 -0.07226375 0.05041936 -0.0053583556 -0.0024799367 0.066905305 -0.09463406 0.040961992
-0.027478771 0.09391548 -0.024450613 0.09850651 0.11012359 -0.11593513 0.007790732 -0.01972887
00000000: 8897 dcbd 9764 d63d 8388 0dbe 3275 02be
00000010: a449 c8bc 2477 44bd 0492 f0bd 5167 c33d
00000020: ba29 bf3d ab46 8f3d 7bbb d2ba d990 423d
00000030: 3703 80bd 8f64 b73d 640b b1bd 0fa3 e3bb
00000040: d273 973d 8042 f53c 6a72 d0bc 8f65 103e
00000050: caaa 9a3d 424d adbc e4f5 ed3d 9040 48bc
00000060: 1368 a53c a6b5 d0bd 22d8 88bd 49d1 193e
00000070: 34e5 933d aea7 903d c6a5 5abd e643 873d
00000080: 930f 4d3d ba13 0d3d 6636 a13c 7487 dd3d
00000090: ea04 953d 4241 213d dfc3 8abc 693b 373d
000000a0: df27 de3c 123a 10bb 0920 e03c 74d4 db3c
000000b0: f03d bbbd 5fbb b1bd 9326 4a3d 50d2 ec3d
000000c0: 62c1 8f3b 30d1 1a3d 1de6 f93d f959 c53d
000000d0: 497f 3abc f0ff 7f3d 9dee 403d 83a1 ad3d
000000e0: 5c95 5cbd dbe8 debb 1889 a93d fe9a b33d
000000f0: 035f 9b3d ae80 b23d 340f 43bd 7085 1bbd
00000100: b653 873d 3c4d 1e3e bd56 94bd 8c55 1b3d
00000110: 950f 2a3d ce32 e9bd 10c6 fbbd a367 0c3e
00000120: ba22 8a3d 56ef 0b3e 804e cc3d 070b b7bd
00000130: 5515 d43c a64e 3d3d 2492 693d fcf6 a9bd
00000140: 01c6 82bd f0ec b0bc c14c 87bc 3c82 ed3c
00000150: 00b1 543c 71db c93d d87e edbc b00f 413c
00000160: a560 e73d 7018 e83d 9811 a13c e594 1b3e
00000170: 3b90 5eba e893 a0bc 33a4 133e 049c 26bb
00000180: 3e72 cb3d bfee c13c e35c 70bd 3d7e 9d3d
00000190: 1882 9abc a51c d4bd 7596 00be 496a f53d
000001a0: 0585 153e d5e0 fabd 2e99 e8bd b4d0 11bd
000001b0: b553 46bc 8c37 9bbd 5d68 d0bd f8a5 243e
000001c0: 9256 2b3e 0728 35bc ca7a 9f3d 0ca9 f53d
000001d0: 08a9 d63d 002f fc3c e71b 453d a4c6 a6bd
000001e0: 7a1d 123e 71e7 2f3d 34c9 57bd 9474 ec3d
000001f0: cf88 f03d 4891 873c bace 08bd da79 b13d
00000200: e434 2b3d 7565 fabd 1073 233e ff5c f53d
00000210: 3100 7a3c 90df c8bd 08e4 86bd 7f02 df3d
00000220: 7016 733d 2d1e e6bc 8623 04be a0a3 9d3d
00000230: 7bea 81bd 1541 b93d 78f7 44bd e058 7b3c
00000240: 258d 953d 5051 b03d 2ba7 8b3d a0ab 18be
00000250: bccb f6bd 20c0 21bd 30f0 773c 4082 e13b
00000260: 81b2 a23d 7ef9 babd 0c1d ee3d 6d57 cabd
00000270: a8ff afbc ce95 e2bd ebec 603c eac9 c1bd
00000280: 1bed 1ebe de4c 6ebb d2f3 b5bd 6db7 06be
00000290: 3808 09bd 06ec 10be 5adb 58bd 78b6 a3bd
000002a0: e793 e7bd 4c04 0e3d 5e7d 24bc 3724 983d
000002b0: 7cb5 cfbc e4fe 99bb 99ec 033d 2ad0 4dbd
000002c0: 67c1 723d 3863 ef3d 4320 09be 1796 a7bd
000002d0: aea7 c93d 93ef 1abe 6f4b 773d 982e afbd
000002e0: 624c e7bd 4022 da3b b20f 90bd 40dc 583d
000002f0: 7fb8 dc3d 9e7d eebd b8ac 72bc e02e 3ebd
00000300: 3bfe fdbc 463f 5cbc b796 78bd 8fa4 963a
00000310: 4721 da3c 8bfa 13bd eea5 adbd 2e3f 513c
00000320: 33e5 513c 4b6f e3bc 917c 953b 0f67 c1bd
00000330: e9f4 bd3d e4dc de3d 60f6 f5bd 7d3e e43d
00000340: a7ba b7bd dc13 2cbd 07ee 5b3d f784 edba
00000350: 4409 e7bd 7ade 97bd 2027 8b3b 5887 f43c
00000360: 87f4 793d a14d e13d 3c70 9c3d f358 e3ba
00000370: cb39 e3bc 503e f0bc 65c4 bc3d 1433 2dbd
00000380: 41fc 133d c4c7 e93c 596b d83d 656c 133e
00000390: 0053 70bc 8601 9d3c 95dd 393d ab60 8dbc
000003a0: 460f f13d ddba dd3d 6fb6 aabc ca6c 2cbd
000003b0: 64ed c63d cdfe 83bd ced7 793d 4a32 183e
000003c0: 805d c23d 04ff 93bd 8884 4e3d 2595 afbb
000003d0: 6f86 22bb a605 893d 81cf c1bd c3c7 273d
000003e0: 291b e1bc c256 c03d a74c c8bc c8bd c93d
000003f0: 7a88 e13d 666f edbd 6649 ff3b 709e a1bc

bias f4 [64]
0.00695347 0.06641187 -0.09374706 0.10633044 0.11683572 -0.08075082 0.017935505 -0.067445494
0.048405595 -0.044186093 -0.065916665 -0.024961973 0.07555814 -0.08511021 0.07177917 -0.047575418
-0.11969913 0.0853148 0.007222971 -0.054323003 0.008187192 0.06589468 0.010262394 -0.0016433802
-0.054134034 -0.08038318 -0.116093814 0.09257078 -0.05168371 -0.09534343 0.06614705 0.15155019
0.04294953 -0.06292166 0.044959884 -0.03195415 0.13598174 -0.12152219 -0.10870921 -0.0028051133
0.035045464 0.07986722 -0.016385484 -0.10972302 -0.026068397 -0.03469026 0.13944101 0.15178601
0.016960492 -0.10548684 0.011764311 0.052251745 -0.11725293 0.090430655 0.07375362 -0.030237721
0.11952107 -0.11274902 -0.026234161 -0.0322873 0.01661802 -0.08629421 0.10104672 0.13352016
00000000: efd9 e33b f202 883d 75fe bfbd c6c3 d93d
00000010: 9147 ef3d b060 a5bd 7bed 923c dd20 8abd
00000020: f244 463d 7afc 34bd 51ff 86bd 0d7d ccbc
00000030: 3abe 9a3d 434e aebd f500 933d 71de 42bd
00000040: d124 f5bd 87b9 ae3d acae ec3b cc81 5ebd
00000050: 9223 063c caf3 863d 9a23 283c b066 d7ba
00000060: a6bb 5dbd f09f a4bd 98c2 edbd c095 bd3d
00000070: 4cb2 53bd 6b43 c3bd 1b78 873d f92f 1b3e
00000080: d9eb 2f3d 12dd 80bd db27 383d 5be2 02bd
00000090: cc3e 0b3e a0e0 f8bd efa2 debd fed5 37bb
000000a0: d58b 0f3d 6d91 a33d da3a 86bc 76b6 e0bd
000000b0: 648d d5bc 6017 0ebd a0c9 0e3e cb6d 1b3e
000000c0: bbf0 8a3c 7c09 d8bd 19bf 403c ed05 563d
000000d0: 4e22 f0bd b533 b93d 230c 973d 19b5 f7bc
000000e0: 76c7 f43d f5e8 e6bd 06e9 d6bc b03f 04bd
000000f0: 8422 883c 05bb b0bd 95f1 ce3d 82b9 083e

weight f4 [64, 64]
-0.14758193 -0.14517711 -0.0077071902 -0.0012683494 -0.06239849 0.09066343 -0.14618856 0.08094898
-0.147572 0.16199043 0.045947704 0.11991751 0.14039563 -0.009896702 -0.026241746 -0.045644898
0.00054602156 0.15384729 -0.048234485 0.12764886 -0.069402926 -0.052718356 -0.15962358 -0.12931849
-0.009116236 0.0057040453 -0.08609855 0.04884619 0.085788965 0.037537415 0.066264085 0.1811572
-0.10974969 -0.0932665 -0.054384034 0.0072635347 0.020360367 -0.032096714 -0.14432149 -0.15187177
-0.05925795 -0.061363693 -0.106699444 0.07751149 -0.04610449 -0.12813637 -0.03699683 0.063831076
0.019383281 -0.100137025 0.03387305 0.0014633198 0.12322076 0.0081933 -0.053849876 0.08917822
0.17106937 -0.11017609 -0.051473625 -0.052981943 -0.04758468 -0.039183334 -0.03273136 0.019644037
0.1184546 -0.046435382 -0.08720569 0.08930653 -0.012186804 -0.0023220778 0.09632827 0.006339348
-0.10008322 0.067079365 -0.02828839 0.08257884 -0.057756178 0.047837894 -0.14318249 -0.13690266
-0.016693573 -0.053947024 0.024712255 0.077660605 -0.0101147685 0.118457854 0.002441671 0.08958505
0.038113616 0.10309753 -0.025839552 -0.079823166 0.0609082 0.004313017 -0.073603556 0.089708835
0.098726794 -0.09817971 0.0040069884 0.1201141 0.10339281 -0.10682432 0.0022964398 0.03853012
0.03046316 0.10727765 0.09557658 0.056385353 0.060118172 -0.038901154 -0.007641757 0.08550736
-0.0051842146 -0.10482255 0.13434361 0.06520065 0.054828078 -0.09068199 0.01547518 -0.058375247
0.02669565 -0.027957043 -0.06713206 0.011103287 0.073318005 0.024605032 -0.061381355 -0.03058788
-0.12235975 -0.09192007 0.051046163 0.061663073 0.012768397 -0.111861765 -0.028186284 0.09472871
-0.014033143 0.06329168 -0.012235078 -0.0061321408 -0.030718073 0.074370064 0.113260314 -0.113995366
-0.15894182 0.046582848 0.048225172 0.002847703 -0.093124814 0.056602236 0.0052907174 -0.04227745
-0.1422275 0.024466023 0.07676189 0.16818145 0.1095507 0.037986357 0.0024701513 0.10012437
-0.18419705 -0.09579563 -0.17552261 0.16636278 -0.07525781 0.017336145 0.018680554 -0.15966448
-0.18439244 0.026655337 0.075866 -0.032647744 -0.023264555 -0.17269613 0.056465242 0.07360891
-0.098585226 -0.112996206 -0.011057727 0.04478809 0.059091955 0.047507793 -0.09536206 0.08160841
0.08384194 0.09680766 0.05418334 0.07882385 0.11696188 -0.047359567 0.16633026 -0.17362851
0.012091711 0.038122594 0.0144863725 -0.041803285 -0.0776986 -0.073067784 -0.016569808 -0.023307905
0.08557795 0.04428655 -0.00791806 -0.12311688 0.06149693 -0.10584371 -0.06473704 0.082974136
-0.07878849 -0.11866398 0.041166633 -0.07299656 -0.106988296 -0.045892313 0.045156628 -0.001014784
0.02869451 -0.0046299994 0.014203861 0.056278974 0.010978028 0.10174109 0.0933892 0.026861012
0.055123404 0.06729028 -0.120425284 0.07405187 -0.0021997541 -0.08173111 0.11795539 0.109773606
-0.058665738 -0.10701549 0.041891873 0.10224916 0.017342865 0.07697588 0.002303496 -0.025843397
-0.045191795 0.112738684 0.042438313 0.0675901 -0.045422047 -0.0630279 -0.08497316 -0.06895922
-0.033780247 -0.024810359 -0.0911984 -0.09306897 -0.055960372 0.07806331 0.082016855 -0.106150046
00000000: b81f 17be 4fa9 14be 998c fcbb be3e a6ba
00000010: 8f95 7fbd c0ad b93d 74b2 15be 94c8 a53d
00000020: 1d1d 17be d2e0 253e a933 3c3d 5097 f53d
00000030: dfc3 0f3e c725 22bc eef8 d6bc 25f6 3abd
00000040: e322 0f3a 258a 1d3e 8691 45bd 62b6 023e
00000050: 1f23 8ebd 34ef 57bd 5d74 23be 116c 04be
00000060: 445c 15bc 00e9 ba3b 7054 b0bd f112 483d
00000070: 20b2 af3d d5c0 193d 77b5 873d 4681 393e
00000080: 72c4 e0bd 8202 bfbd cbc1 5ebd f202 ee3b
00000090: c9ca a63c d877 03bd 03c9 13be 4684 1bbe
000000a0: 77b8 72bd 7f58 7bbd 3d85 dabd 58be 9e3d
000000b0: 10d8 3cbd 2e36 03be fd89 17bd deb9 823d
000000c0: b0c9 9e3c a414 cdbd 78be 0a3d ddcc bf3a
000000d0: 2a5b fc3d 313d 063c b091 5cbd 12a3 b63d
000000e0: cf2c 2f3e 00a4 e1bd 02d6 52bd 9803 59bd
000000f0: 27e8 42bd b47e 20bd 5211 06bd 88ec a03c
00000100: 5398 f23d 0733 3ebd e698 b2bd 58e6 b63d
00000110: 29ab 47bc 002e 18bb c247 c53d 4eba cf3b
00000120: 6ef8 ccbd e860 893d 0ebd e7bc 181f a93d
00000130: be91 6cbd abf1 433d 6e9e 12be 3630 0cbe
00000140: f6c0 88bc 8ef7 5cbd 5b71 ca3c 860c 9f3d
00000150: 6ab8 25bc 089a f23d 7104 203b 5e78 b73d
00000160: 061d 1c3d cc24 d33d 78ad d3bc 547a a3bd
00000170: e07a 793d 3554 8d3b 76bd 96bd 44b9 b73d
00000180: 4631 ca3d 7212 c9bd 0e4d 833b 62fe f53d
00000190: 9cbf d33d b6c6 dabd de7f 163b c2d1 1d3d
000001a0: e08d f93c 62b4 db3d a7bd c33d 54f4 663d
000001b0: 793e 763d d156 1fbd b467 fabb 7c1e af3d
000001c0: 58e0 a9bb 35ad d6bd 5f91 093e eb87 853d
000001d0: 6893 603d 7bb7 b9bd 9c8b 7d3c e21a 6fbd
000001e0: d6b0 da3c 2b06 e5bc 897c 89bd 90ea 353c
000001f0: c027 963d 7e90 c93c 046b 7bbd 6f93 fabc
00000200: c097 fabd 9740 bcbd c815 513d 6b92 7c3d
00000210: 8a32 513c c817 e5bd ece6 e6bc 2001 c23d
00000220: 45eb 65bc 119f 813d a375 48bc 20f0 c8bb
00000230: 78a4 fbbc 554f 983d 06f5 e73d 6776 e9bd
00000240: a5c1 22be a8cd 3e3d c287 453d 87a0 3a3b
00000250: 39b8 bebd bfd7 673d c15d ad3b 1f2b 2dbd
00000260: 16a4 11be f86c c83c 5635 9d3d c237 2c3e
00000270: 1e5c e03d 9597 1b3d 43e2 213b 010e cd3d
00000280: 279e 3cbe 8030 c4bd 33bc 33be 015b 2a3e
00000290: c420 9abd 8804 8e3c f607 993c 167f 23be
000002a0: 5fd1 3cbe 4b5c da3c a25f 9b3d a4b9 05bd
000002b0: 4f95 bebc 41d7 30be 1948 673d 45c0 963d
000002c0: 0de7 c9bd 8e6a e7bd 782b 35bc b773 373d
000002d0: 680a 723d 8897 423d 2f4d c3bd 4f22 a73d
000002e0: 53b5 ab3d 1843 c63d 5aef 5d3d 666e a13d
000002f0: b689 ef3d 1bfc 41bd 7b52 2a3e accb 31be
00000300: 501c 463c 7026 1c3d 4058 6d3c ec39 2bbd
00000310: 7220 9fbd 90a4 95bd 68bd 87bc 38f0 bebc
00000320: 7e43 af3d d065 353d c0ba 01bc b424 fcbd
00000330: 34e4 7b3d 96c4 d8bd da94 84bd 58ee a93d
00000340: dc5b a1bd 1a06 f3bd 589e 283d 387f 95bd
00000350: ae1c dbbd 94f9 3bbd 28f6 383d 8002 85ba
00000360: c010 eb3c 40b7 97bb 50b7 683c c884 663d
00000370: 30dd 333c a25d d03d d642 bf3d a00b dc3c
00000380: 14c9 613d 7ccf 893d 88a1 f6bd 82a8 973d
00000390: c029 10bb a462 a7bd 9892 f13d fcd0 e03d
000003a0: 7c4b 70bd f02a dbbd d096 2b3d 0268 d13d
000003b0: a012 8e3c 88a5 9d3d 40f6 163b 88b5 d3bc
000003c0: 081b 39bd 8ae3 e63d ccd3 2d3d ae6c 8a3d
000003d0: 780c 3abd c614 81bd 6806 aebd 7e3a 8dbd
000003e0: 285d 0abd 183f cbbc 3ac6 babd f29a bebd
000003f0: b436 65bd a8df 9f3d 74f8 a73d 3265 d9bd

bias f4 [64]
0.120187834 0.009617005 0.003041472 -0.07978669 0.015166022 -0.041043766 0.026772723 0.11579278
-0.10539536 -0.104317054 -0.07400997 -0.11627343 0.05209142 -0.05153458 0.09585431 -0.021083718
-0.063680984 -0.04669007 0.06009523 0.0941696 0.07345455 -0.016657157 -0.09944343 0.063920796
0.1263158 -0.055196732 -0.0010870317 0.10974118 0.11278303 -0.0807751 0.07448777 0.10804491
-0.027220631 0.06148136 -0.01986861 0.11659362 -0.062957875 -0.10305746 0.0023681237 0.052765496
0.041384846 0.06970812 0.050120674 0.06438599 -0.104656845 -0.037190977 -0.09063045 0.08960326
0.004582778 0.095559865 -0.11274958 -0.05397795 -0.044149663 -0.11855645 -0.11517296 -0.038992617
-0.08366172 0.106082916 -0.046908807 -0.008541237 0.03500232 0.087427795 -0.002834329 0.1426808
00000000: 0a25 f63d a490 1d3c 6f53 473b 3467 a3bd
00000010: e87a 783c 821d 28bd 7852 db3c c424 ed3d
00000020: 86d9 d7bd 2ea4 d5bd 8a92 97bd c420 eebd
00000030: d05d 553d ec15 53bd 444f c43d c3b7 acbc
00000040: 2d6b 82bd 163e 3fbd 6a26 763d fedb c03d
00000050: 576f 963d 9774 88bc ffa8 cbbd e8e8 823d
00000060: ee58 013e f815 62bd bb7a 8eba fcbf e03d
00000070: cafa e63d 6a6d a5bd 0b8d 983d a646 dd3d
00000080: cdfd debc e1d3 7b3d 7fc3 a2bc a3c8 ee3d
00000090: 0ff0 80bd ca0f d3bd 8632 1b3b a220 583d
000000a0: 2883 293d 21c3 8e3d 564b 4d3d cddc 833d
000000b0: 5456 d6bd 9155 18bd 759c b9bd ea81 b73d
000000c0: 212b 963b e4b4 c33d 40e9 e6bd fc17 5dbd
000000d0: 47d6 34bd b9cd f2bd cddf ebbd b9b6 1fbd
000000e0: d656 abbd 0042 d93d 7323 40bd 8bf0 0bbc
000000f0: 985e 0f3d 580d b33d 26c0 39bb ea1a 123e

weight f4 [1, 64]
0.20055196 -0.037686437 0.0742016 0.061409533 0.12334665 -0.070758656 -0.062940955 -0.12807941
0.009749562 -0.12413764 -0.02217841 0.045676365 -0.0094681615 -0.030640217 -0.003585395 -0.0672821
-0.07851337 0.13660796 -0.026389731 -0.0398431 -0.08493656 -0.09176373 -0.09612445 -0.000517086
0.16096595 0.034678984 -0.02919559 0.15556869 0.17087492 0.05430799 0.10549503 -0.027170446
0.07370972 -0.0328992 0.07510163 0.14137413 0.02569887 0.15695193 -0.035309423 0.15977524
-0.061676145 0.16882505 0.15265568 -0.11127058 0.11566276 0.0633329 -0.07489154 -0.03574191
0.11594015 -0.0054578055 -0.023863507 0.05247754 -0.051435467 -0.09482319 -0.061942663 -0.13014099
0.15746896 -0.099414565 0.06913165 0.10628461 0.17971806 -0.092213504 0.15122047 0.13644636
00000000: 7e5d 4d3e 185d 1abd 02f7 973d 9088 7b3d
00000010: 2b9d fc3d eae9 90bd 30e7 80bd 4027 03be
00000020: a0bc 1f3c e03b febd 7faf b5bc 2417 3b3d
00000030: 5920 1bbc 3101 fbbc f2f8 6abb 33cb 89bd
00000040: 9ecb a0bd f5e2 0b3e 472f d8bc 8532 23bd
00000050: 38f3 adbd 9fee bbbd e5dc c4bd 0e8d 07ba
00000060: 42d4 243e 8d0b 0e3d 972b efbc 664d 1f3e
00000070: d6f9 2e3e 0e72 5e3d c70d d83d 8e94 debc
00000080: 1ff5 963d 50c1 06bd e2ce 993d 61c4 103e
00000090: 7086 d23c 02b8 203e 9da0 10bd 1f9c 233e
000000a0: 20a0 7cbd 79e0 2c3e c551 1c3e d4e1 e3bd
000000b0: 99e0 ec3d aeb4 813d bc60 99bd 1c66 12bd
000000c0: 0872 ed3d 64d7 b2bb 677d c3bc b0f2 563d
000000d0: ffad 52bd a932 c2bd 97b7 7dbd ae43 05be
000000e0: 8b3f 213e dd99 cbbd e594 8d3d bfab d93d
000000f0: 0308 383e 6fda bcbd 8ad9 1a3e 98b8 0b3e
