mlartifacts/554351476986166068/056b9b6a04b2407d93c9a3c75a232cc3/artifacts/models/Model_dim64_layers5_experiment/r2_score0.47138689265527906_run22/data/model.pth (torch, 294728 bytes, 13 tensors)

weight f4 [64, 801]
0	0xbdc2285e	-0.09480356
1	0x3d45f680	0.048330784
2	0x3d0077be	0.031364195
3	0x3c316dd5	0.010829409
4	0xbddb2d93	-0.10702052
5	0x3d174280	0.036928654
6	0xbd036099	-0.032074545
7	0xbd8c3769	-0.06846506
8	0x3c1f19dd	0.009710756
9	0x3e69c672	0.22829607
10	0xbd43258c	-0.04764323
11	0x3da4a6d6	0.08039634
12	0x3db6524b	0.08902415
13	0xbd8772b3	-0.06613674
14	0xbe5d7f27	-0.21630536
15	0x3d4f6db1	0.05064172
16	0x3d55bc7a	0.0521817
17	0xbcbcde40	-0.023055196
18	0xbda65960	-0.08122516
19	0xbec3f74e	-0.38274616
20	0xbd281790	-0.041038096
21	0xbcc0e47d	-0.023546452
22	0xbc905a5c	-0.017621212
23	0x3cf659ad	0.030072058
24	0xbe8baad9	-0.27278784
25	0xbc41d82b	-0.011831324
26	0x3d312801	0.04325104
27	0x3b4bb2a2	0.0031081815
28	0xbdd63adc	-0.10460445
29	0xbdb3e784	-0.087843925
30	0xbcf3461f	-0.029696522
31	0x3bb0c6af	0.0053947787
32	0xbda54778	-0.08070272
33	0x3db35367	0.08756142
34	0xbd570f6a	-0.052504934
35	0x3c49ff5a	0.012328947
36	0x3dd8e2e3	0.1059015
37	0xbd7aeedf	-0.06126296
38	0xbdab83a8	-0.08374721
39	0xbd3b9a47	-0.045801427
40	0x3d428744	0.04749228
41	0xbcecce9c	-0.028907113
42	0x3d1fa6fd	0.03897761
43	0x3c08c1d1	0.008346991
44	0xbd81fd1b	-0.06347104
45	0xbd1872b4	-0.037218764
46	0xbd9000c6	-0.070313975
47	0x3b1009da	0.0021978528
48	0x3d662b5d	0.0561937
49	0x3d837653	0.06419053
50	0xbccb391e	-0.024807509
51	0x3cd99a01	0.026562693
52	0xbcab1c4e	-0.02088752
53	0x3d1381eb	0.03601257
54	0x3c87deca	0.016585726
55	0x3d67245b	0.056431156
56	0x3da5ff30	0.08105314
57	0xbd1d76a2	-0.038443215
58	0xbdc9ad43	-0.098475
59	0xbd7611b0	-0.060075462
60	0xbdefba15	-0.11705414
61	0xbc8e0451	-0.017336043
62	0x3d3f9408	0.046772033
63	0x3d5381cb	0.051637452
64	0x3d0aba13	0.03386886
65	0xbc47e5c2	-0.012200775
66	0xbca65d6e	-0.020308223
67	0x3e137aea	0.14402357
68	0xbc08ae78	-0.008342378
69	0x3d6769ce	0.056497388
70	0xbcb76cb9	-0.02239071
71	0x3c4e2ba1	0.012583644
72	0xbd8333ad	-0.06406341
73	0x3c5d6346	0.013512438
74	0x3dc4cec2	0.096097484
75	0xbe30b96a	-0.1725823
76	0xbbbb0734	-0.005707646
77	0x3d645cc8	0.055752546
78	0x3ce9979a	0.028514672
79	0x3e5c63e7	0.21522485
80	0xbd3fe0f3	-0.046845388
81	0xbd309a2f	-0.04311579
82	0xbe35d6e8	-0.17757761
83	0x3d52e3a5	0.05148663
84	0xbc71645f	-0.014733403
85	0x3dda6998	0.10664672
86	0x3d699817	0.05702981
87	0xbd2d5e02	-0.04232598
88	0xba39a888	-0.0007082303
89	0xbe098d4c	-0.13432807
90	0x3d383511	0.044972483
91	0xbdcc121f	-0.09964394
92	0x3c06273f	0.008188068
93	0xbd48a6e5	-0.048987288
94	0x3a85b8b4	0.001020214
95	0xbc782bf6	-0.0151472
96	0x3b9de646	0.0048187105
97	0xbd695049	-0.05696133
98	0x3d2b462d	0.04181497
99	0xbe41772e	-0.1889312
100	0x3d2dab59	0.042399738
101	0xbe36aca2	-0.17839292
102	0xbd9310d7	-0.07180946
103	0x3d8363ad	0.06415496
104	0xbcbeb6ef	-0.023280589
105	0xbd5267f4	-0.05136867
106	0x3c5e5f9d	0.013572601
107	0x3d1e8f89	0.038711105
108	0xbd94008a	-0.07226665
109	0xbdd28d22	-0.10280825
110	0x3d727b9a	0.059199907
111	0x3dedeb49	0.11617143
112	0x3b9a8c90	0.0047164634
113	0x3c110163	0.008850428
114	0x3df8de3e	0.12151764
115	0x3d8283e9	0.06372816
116	0x3e091427	0.13386594
117	0xbd9931be	-0.07480191
118	0xbbaf69a5	-0.00535317
119	0xbcc6f04d	-0.024284506
120	0xbc15274d	-0.009103608
121	0xbe19d160	-0.15021276
122	0x3a0b864d	0.00053224416
123	0xbe16c655	-0.14724095
124	0x3d83fb29	0.064443894
125	0xbd8ee20f	-0.06976711
126	0xbd9d009a	-0.0766613
127	0xbe18b57e	-0.14912984
128	0x3d1771e3	0.036973845
129	0x3e1f517f	0.15558432
130	0x3c095690	0.0083824545
131	0xbc3cc021	-0.0115204165
132	0xbde3e193	-0.11127009
133	0x3e056c1b	0.1302952
134	0x3d1c28a0	0.03812468
135	0xbcdb8706	-0.026797783
136	0xbd43d6dd	-0.04781233
137	0x3db47278	0.08810896
138	0xbce3694f	-0.027760176
139	0x3c9353aa	0.01798423
140	0x3bfdbdee	0.0077435886
141	0xb96ed6cf	-0.00022777471
142	0xb9858a3e	-0.00025470735
143	0xbde62995	-0.112384
144	0x3ccb5d88	0.024824873
145	0xbc99cb39	-0.018773662
146	0x3c9cc965	0.019139001
147	0x3da4c437	0.080452375
148	0x3e0216dc	0.12704033
149	0xbd5c0ad9	-0.053721283
150	0x3da05f30	0.078306556
151	0xbdd9a052	-0.10626282
152	0xbd8845ee	-0.06653963
153	0xbcc65699	-0.024211215
154	0xbad8b8ca	-0.0016534564
155	0x3ceac45c	0.028658085
156	0xbbacd29f	-0.0052741314
157	0xbd801470	-0.06253898
158	0xbcad9162	-0.021187488
159	0xbc422b3a	-0.011851126
160	0x3da4689b	0.080277644
161	0x3e05f10f	0.13080238
162	0xbd8e06b2	-0.06934871
163	0x3e34014a	0.17578617
164	0x3d476264	0.048677817
165	0x3db6507c	0.0890207
166	0xbd773973	-0.060357522
167	0x3d821c9e	0.063531145
168	0x3da3b9c6	0.07994418
169	0xbd3c203d	-0.045929182
170	0x3d9f0f8e	0.07766639
171	0x3d00b7c0	0.031425238
172	0xbd96b223	-0.07358196
173	0xbb0cf957	-0.0021510923
174	0xbd8b2f32	-0.06796111
175	0xbc583afd	-0.013197658
176	0xbcfa309e	-0.03054076
177	0x3da1ee65	0.07906798
178	0xbb0f3535	-0.0021851782
179	0x3e188493	0.14894323
180	0x3ba73dc2	0.0051037977
181	0xbd8c336e	-0.06845747
182	0xbcb4ac5c	-0.022054844
183	0xbdee9394	-0.11649242
184	0x3d83a658	0.06428212
185	0xbc74137d	-0.0148972245
186	0xbd4b3821	-0.049614076
187	0xbcd94373	-0.02652142
188	0x3d5c5299	0.05378971
189	0xbc9fd108	-0.019508854
190	0x3d2ad344	0.041705385
191	0x3d21a56c	0.0394644
192	0xbd3ac008	-0.04559329
193	0xbc2971ac	-0.010342043
194	0xbd8ece17	-0.06972902
195	0xbd0c6461	-0.034275416
196	0xbd2fec95	-0.04295023
197	0xbd9ae9d4	-0.075641304
198	0x3c899db1	0.016798826
199	0xbcd8ce6a	-0.026465613
200	0xbe2f9d6c	-0.17149895
201	0x3d99cb4e	0.075094804
202	0xbd355ac1	-0.044276003
203	0x3c9fc558	0.01950328
204	0x3d784bd5	0.060619194
205	0xbc747e1a	-0.014922643
206	0xbd9b18f8	-0.07573122
207	0x3c5051ce	0.012714816
208	0x3cf2dcad	0.029646242
209	0xbe0d0046	-0.13769636
210	0xbddceffe	-0.107879624
211	0x3c1186ef	0.008882268
212	0xbe1f95a5	-0.15584429
213	0x3e04025f	0.1289153
214	0xbd92594f	-0.071459405
215	0x3dd63dce	0.10461007
216	0x3dd3ca2a	0.10341294
217	0xbdca9a5f	-0.09892725
218	0xbdcce12f	-0.10003888
219	0xbc60d144	-0.013721768
220	0xbd5a53d0	-0.053302586
221	0xbd163f31	-0.036681358
222	0xbad2a0bf	-0.0016069635
223	0x3d0e3b03	0.034724247
224	0xbca3de08	-0.020003334
225	0x3e102000	0.14074707
226	0xbd11467e	-0.035467617
227	0x3c8ff33f	0.017572043
228	0x3e4d8607	0.20070659
229	0xbc4e37fc	-0.01258659
230	0x3c87dbe1	0.016584339
231	0x3e2ad9fa	0.16684714
232	0x3db0d300	0.08633995
233	0x3dd468af	0.10371529
234	0x3d236db8	0.039899558
235	0x3d53566b	0.051596086
236	0x3e004ceb	0.12529342
237	0xbdc7066e	-0.09718023
238	0x3dd5df7a	0.104430154
239	0x3dbaeedd	0.09127591
240	0x3e075a6d	0.13218088
241	0x3c24bd3b	0.010054882
242	0xbddf504f	-0.109039895
243	0xbd216d72	-0.039411016
244	0x3c3df9e9	0.011595228
245	0x3d8efe64	0.06982115
246	0x3b7c3a8d	0.0038487047
247	0x3de46e68	0.11153871
248	0xbe0b7011	-0.13616969
249	0x3d3fb5ba	0.046804167
250	0x3afeba19	0.0019434124
251	0xbcfe8f51	-0.031074198
252	0x3da7dee3	0.08196809
253	0x3e47b4e0	0.19502592
254	0xbd19f420	-0.03758633
255	0x3dc225e4	0.09479883

bias f4 [64]
0	0xbcbd9998	-0.023144528
1	0x3cbfc57d	0.0234096
2	0xbd159bb5	-0.036525447
3	0xbd21034c	-0.039309785
4	0x3a9508be	0.0011370403
5	0xbda1909d	-0.07888911
6	0xbdc0c83e	-0.09413193
7	0xbb9ff22a	-0.004881163
8	0x3cd6150d	0.026133085
9	0xbd6a4d45	-0.057202596
10	0x3c088633	0.008332777
11	0xbdbdab6e	-0.09261213
12	0xbc034a1b	-0.008013274
13	0xbde64782	-0.11244108
14	0xbd680d92	-0.056653567
15	0x3d84cccd	0.06484375
16	0x392bc316	0.00016380506
17	0x3d937b31	0.07201231
18	0xbc927854	-0.017879643
19	0x3c68ecde	0.01421663
20	0x3c418fd0	0.011814073
21	0xbd50e600	-0.051000595
22	0x3d7817d8	0.060569614
23	0x3d434791	0.047675673
24	0xbd3835a5	-0.044973034
25	0xbd524a66	-0.051340483
26	0xbda5b127	-0.0809043
27	0xbd44bf8d	-0.04803424
28	0x3d36bc79	0.044613335
29	0x3c8c8aee	0.01715609
30	0xbd61b60d	-0.055105258
31	0x3d04f574	0.032460645
32	0x3cec73f3	0.028863883
33	0xbcc3b3fc	-0.023889534
34	0xbcda82f5	-0.026673773
35	0xbced83c1	-0.02899349
36	0x3ca0a377	0.019609196
37	0xbdbdd13f	-0.09268426
38	0x3ca1cf2f	0.019752113
39	0xbd714c6b	-0.05891077
40	0x3d6bb489	0.05754522
41	0xbc8cb1eb	-0.017174682
42	0xbc212a5a	-0.009836758
43	0xbd8a2586	-0.06745438
44	0xbb6f5ff1	-0.0036525691
45	0x3befea63	0.0073216422
46	0xbc5ce586	-0.013482457
47	0xbdb270df	-0.08712935
48	0x3cbe5a7c	0.023236506
49	0xbd084a93	-0.033274245
50	0xbcec8b84	-0.02887512
51	0xbcc8721c	-0.024468474
52	0xbcb73740	-0.022365212
53	0x3c7e5c7b	0.015524979
54	0xbd0eeb31	-0.034892265
55	0xbcb7d241	-0.022439124
56	0xbd23026b	-0.039797228
57	0xbdda1aae	-0.1064962
58	0x3c7f91d3	0.015598732
59	0xbc4a6a8d	-0.012354505
60	0x3cae413d	0.021271342
61	0xbd0dcfde	-0.034622066
62	0xbcb01118	-0.021492526
63	0xbc90ce06	-0.017676365

weight f4 [64, 64]
0	0x3d806ad5	0.062703766
1	0x3ceb28a1	0.028705897
2	0xbcc2c9ec	-0.023777924
3	0xbabb2d0d	-0.0014280394
4	0x3d517c38	0.051143855
5	0x3d88ece6	0.0668581
6	0x3b8b2fdf	0.00424765
7	0x3d4463f5	0.04794689
8	0xbe203f4c	-0.15649146
9	0xbd876d41	-0.066126354
10	0xbdc4d96b	-0.09611782
11	0x3df16341	0.11786509
12	0x3e09e3f1	0.13465859
13	0xbdcebb81	-0.10094357
14	0x3cdb16ac	0.02674421
15	0xbf03c293	-0.5146877
16	0xbd2d7b29	-0.042353783
17	0xbe02c9c0	-0.12772274
18	0xbd7bc59b	-0.061467748
19	0xbd189c80	-0.037258625
20	0x3b7ab6eb	0.0038256
21	0xbd22b9f3	-0.039728116
22	0xbe97e6fd	-0.29668418
23	0xbe0ce909	-0.13760771
24	0xbbc73a26	-0.00607993
25	0xbcbbb40a	-0.022912998
26	0x3db5525c	0.088535994
27	0x3dd46cdd	0.103723265
28	0x3dab761a	0.083721355
29	0xbda21465	-0.07914046
30	0x3e0c20e6	0.13684425
31	0xbb386cb5	-0.0028140966
32	0xbe0ae2e3	-0.13563113
33	0x3ca5dd50	0.020247132
34	0x3dec81ed	0.11548219
35	0x3d97a9a2	0.07405402
36	0x3d4ba464	0.049717322
37	0xbc781053	-0.015140611
38	0xb9ce2acd	-0.0003932327
39	0x3cb1c2dc	0.021699362
40	0xbd66ee9f	-0.05637991
41	0xbdcb4b4a	-0.099264696
42	0xbc1e44b1	-0.009659932
43	0xbb647f01	-0.003486574
44	0x3da7e0fa	0.08197208
45	0x3ab0a6de	0.0013477465
46	0xbd89944d	-0.06717739
47	0x3e0bdaed	0.13657732
48	0xbe00bf5e	-0.12573001
49	0xbc2db3c1	-0.010601939
50	0x3df9f074	0.12204066
51	0xbd2a7bbd	-0.041621912
52	0xbe37cf01	-0.1795006
53	0x3c3056cf	0.010762884
54	0xbd8467e0	-0.06465125
55	0x3c362497	0.011117122
56	0x3d1058f5	0.035241086
57	0x3dd1a704	0.10236934
58	0xbdb68ca0	-0.08913541
59	0xbd8dbaa7	-0.06920367
60	0x3c8d2e80	0.017234087
61	0xbcd726ba	-0.026263583
62	0x3d879673	0.06620493
63	0x3ddf8a8e	0.10915099
64	0xbcede91e	-0.029041823
65	0x3ce283ef	0.027650801
66	0xbd208270	-0.039186895
67	0xbd7abe7d	-0.06121682
68	0xbc36845d	-0.011139956
69	0x3c8dc29f	0.017304717
70	0xbd96cad0	-0.07362902
71	0x3e81d8e2	0.2536078
72	0xbe00661e	-0.12538955
73	0x3daafca2	0.08348967
74	0xbcabd911	-0.020977529
75	0x3d9d5901	0.07682992
76	0x3e254a7c	0.16141695
77	0x3d7e8070	0.062134206
78	0xbd19ea23	-0.037576806
79	0xbea30f57	-0.3184764
80	0x3dacb578	0.0843305
81	0xbe0dda60	-0.13852835
82	0xbdd26e32	-0.10274924
83	0xbdbc8fe3	-0.09207132
84	0x3db9bb35	0.0906891
85	0x3e81469c	0.25249183
86	0xbe4e99ae	-0.20175812
87	0x3d2dcd13	0.042431902
88	0xbd859bff	-0.065238945
89	0x3e600dd6	0.21880278
90	0x3db95ef8	0.09051317
91	0x3dd8cd31	0.10586012
92	0x3da3f92f	0.080065124
93	0x3a233d78	0.0006227116
94	0x3e06f7de	0.13180491
95	0xbe07f45e	-0.13276812
96	0xbe70763a	-0.234826
97	0xbdb37b4a	-0.0876375
98	0x3dae21e4	0.08502558
99	0xbe064bb4	-0.13114816
100	0xbe2040f7	-0.15649782
101	0xbd084a90	-0.033274233
102	0xbd5ec382	-0.05438567
103	0x3ce936d7	0.028468532
104	0x3d2a37e2	0.0415572
105	0xbe131fac	-0.1436755
106	0x3d35358e	0.044240527
107	0x3d1234b0	0.035694778
108	0x3cc18714	0.02362398
109	0x3dc6e15e	0.09710954
110	0x3e067b64	0.13133007
111	0x3e0e1ef4	0.13878995
112	0xbd5ccd82	-0.053906925
113	0x3caaee8a	0.020865697
114	0x3d170b04	0.03687574
115	0x3ded1f74	0.11578265
116	0xbe3bb0ed	-0.1832921
117	0x3cf5db5a	0.030011822
118	0x3b5673c6	0.0032722815
119	0x3db5f100	0.08883858
120	0x3dee5ea2	0.116391435
121	0x3d8b0b79	0.067892976
122	0xbd955260	-0.072911024
123	0x3b6b1dc1	0.003587589
124	0x3de7337c	0.11289117
125	0xbda8a3a8	-0.0823434
126	0xbd072343	-0.032992613
127	0x3b11b174	0.0022231014
128	0x3d30f77d	0.043204773
129	0x3d29a9cb	0.041421693
130	0x3d13fd24	0.036130086
131	0x3e2fd045	0.17169292
132	0xbdd509e2	-0.104022756
133	0x3df12843	0.117752574
134	0xbcee86f3	-0.029117083
135	0xbc4d4dc0	-0.012530744
136	0xbe0cc1d9	-0.13745822
137	0xbd9945fd	-0.07484052
138	0x3dedfeba	0.11620851
139	0x3cd612b6	0.026131969
140	0xbc9f4f9b	-0.019447139
141	0xbd975ef8	-0.07391161
142	0xbd5664e9	-0.05234233
143	0xbc59c51b	-0.0132916225
144	0x3e9fb61f	0.31193635
145	0x3d845533	0.06461563
146	0x3db21d1a	0.08696957
147	0x3e462ec7	0.19353782
148	0x3de27ff5	0.11059562
149	0x3e075b2a	0.1321837
150	0xbd285353	-0.04109509
151	0x3c6d63b5	0.014489104
152	0x3de705fd	0.11280439
153	0x3d037952	0.032098122
154	0x3b84e92b	0.004056116
155	0x3d2974c1	0.04137111
156	0x3cb23c29	0.021757202
157	0x3e5963cf	0.2122948
158	0xbcbd8575	-0.023134926
159	0x3d886414	0.066597134
160	0x3d3b6d63	0.045758616
161	0xbc929ba8	-0.017896488
162	0x3e205cb5	0.15660365
163	0x3d93e809	0.072219916
164	0x3e1f02ad	0.15528364
165	0xbcaa8ca4	-0.020819016
166	0x3cbfc620	0.023409903
167	0x3db458f1	0.08806027
168	0x3de3cfd1	0.11123622
169	0xbc37056e	-0.011170728
170	0x3dd75e0d	0.10515986
171	0x3dd2dc51	0.10295928
172	0xbddcad58	-0.1077525
173	0x3e03058c	0.12795085
174	0x3e110164	0.14160687
175	0xbdb6843e	-0.08911942
176	0x3d87f4d4	0.06638494
177	0xbe0c52f2	-0.13703516
178	0xbb9ac628	-0.004723329
179	0x3c2dcdc0	0.010608137
180	0xbd10c131	-0.03534049
181	0x3e36e5b2	0.1786106
182	0x3bcf571e	0.006327524
183	0xbd2a329c	-0.04155217
184	0xbcb586e9	-0.022159057
185	0x3c70e765	0.014703606
186	0x3d90ad90	0.070643544
187	0xbd83ffd3	-0.06445279
188	0x3d0e3284	0.034716144
189	0xbcea5108	-0.028603092
190	0xbd467a25	-0.04845633
191	0x3dc51304	0.096227676
192	0xbdb3d5e0	-0.08781028
193	0xbddd692c	-0.108110756
194	0x3dec199b	0.11528321
195	0x3d28caa3	0.041208874
196	0xbde3dfda	-0.11126681
197	0x3d9a1070	0.075226665
198	0x3e09ce49	0.13457598
199	0x3d2a5835	0.041588027
200	0xbdd08f3d	-0.101835705
201	0x3ded1043	0.11575367
202	0xbd8bcac2	-0.06825782
203	0x3c15c29c	0.009140637
204	0x3e13adb3	0.1442173
205	0x3da4833a	0.08032842
206	0x3dafd08d	0.085847
207	0xbe976ea9	-0.29576614
208	0xbe189acc	-0.149028
209	0xbd81a120	-0.0632956
210	0xbdef35a1	-0.11680151
211	0xbd967290	-0.0734607
212	0x3da5fada	0.08104487
213	0xbdc373f0	-0.09543598
214	0xbe097a4b	-0.13425557
215	0xbc7ea247	-0.01554162
216	0xbd785216	-0.06062516
217	0xbd16b9c1	-0.036798242
218	0xbda95e0c	-0.08269891
219	0xbd999a32	-0.075001135
220	0xbd39dd3a	-0.045376994
221	0xbd07d8a2	-0.03316558
222	0x3d6febd0	0.058574498
223	0x3c69ddb2	0.014274048
224	0x3af95437	0.001902229
225	0xbda4063c	-0.080090016
226	0x3e223f6b	0.15844505
227	0xbe459fe3	-0.19299273
228	0xbdf9705e	-0.121796355
229	0xbd245ee3	-0.040129554
230	0x3c21499d	0.009844211
231	0x3dedab4c	0.11604938
232	0x3d5a51f9	0.05330083
233	0xbe335a6a	-0.17514959
234	0xbcf6f085	-0.030143986
235	0x3d142005	0.03616335
236	0x3c903622	0.017603938
237	0xbd330392	-0.043704577
238	0x3dcb8394	0.09937206
239	0x3e04059d	0.12892766
240	0xbdc5e348	-0.09662491
241	0x3d88ffd7	0.066894226
242	0x3c166b8b	0.009180914
243	0xbdeb120a	-0.1147805
244	0xbe2533ab	-0.16132991
245	0x3d5897a4	0.05287899
246	0x3e368b79	0.17826642
247	0x3d9ee8b0	0.07759225
248	0x3de99516	0.11405389
249	0x3e0a5f5d	0.1351294
250	0xbdd28923	-0.10280063
251	0x3de785c5	0.113048114
252	0xbdcb8894	-0.099381596
253	0x3d9f48a8	0.0777753
254	0x3cae10a7	0.021248175
255	0x3ba85c41	0.0051379506

bias f4 [64]
0	0xbd7ff132	-0.06248588
1	0xbdb05aaa	-0.08611043
2	0x3c824995	0.015904227
3	0xbdce524c	-0.10074291
4	0x3d288aec	0.04114811
5	0xbdb7c5f2	-0.08973302
6	0xbd835b25	-0.06413869
7	0xbba05adf	-0.004893645
8	0xbdac3230	-0.0840801
9	0xbc889032	-0.01667032
10	0x3e6ab894	0.22921973
11	0x3d2badc3	0.04191376
12	0x3e222135	0.1583298
13	0xbd927a45	-0.07152227
14	0xbccb8420	-0.024843276
15	0x3e605f56	0.21911368
16	0xbd7a6eb4	-0.06114073
17	0x3d610f3f	0.05494618
18	0xbd12f98f	-0.03588253
19	0xbe23730d	-0.15961857
20	0x3d49e9b7	0.049295153
21	0xbd6dd767	-0.05806675
22	0xbc953c2f	-0.018217174
23	0xbe04721c	-0.12934154
24	0xbce255cf	-0.027628807
25	0xbdd7b483	-0.10532477
26	0xbe0a2e82	-0.13494304
27	0x3d3fab6a	0.046794333
28	0xbda93a5d	-0.08263085
29	0xbd84e86c	-0.064896435
30	0xbe2b8bbf	-0.16752528
31	0xbc3abee8	-0.011398055
32	0xbde3f721	-0.111311205
33	0xbd765da6	-0.060147904
34	0x3e20d944	0.1570788
35	0x3c8548c3	0.016270047
36	0x3e219949	0.1578113
37	0xbe25154b	-0.16121404
38	0x3de2844e	0.11060391
39	0xbd04e5e2	-0.032445796
40	0x3dce23cb	0.10065421
41	0x3e1b07e1	0.15139724
42	0xbb880ad3	-0.004151681
43	0x3c5c185c	0.013433542
44	0x3ca312df	0.01990646
45	0x3e1610a7	0.1465479
46	0x3d7df7df	0.062003966
47	0x3e1b89f1	0.15189339
48	0x3c3a6000	0.011375427
49	0xbc9d9f6d	-0.01924106
50	0x3cf006e3	0.029300159
51	0x3c5c2dbc	0.013438638
52	0x3bee77ff	0.0072774882
53	0xbd71eb49	-0.059062276
54	0xbd8d5667	-0.069012456
55	0xbce29cc4	-0.027662642
56	0xbe1213a8	-0.14265311
57	0x3de4fee0	0.11181426
58	0xbd43d2d1	-0.047808472
59	0xbe3d21fd	-0.18469997
60	0xbbb7b566	-0.005606341
61	0x3d5191aa	0.051164307
62	0xbddb8b84	-0.1071997
63	0x3d9e63b6	0.07733862

weight f4 [64, 64]
0	0xbd6794fa	-0.05653856
1	0x3b981231	0.0046408405
2	0xbdbd4d08	-0.09243208
3	0xbc829067	-0.015937997
4	0xbd272b4a	-0.040812768
5	0x3da50873	0.08058252
6	0x3dd810c4	0.10550073
7	0xbd92a82e	-0.07160984
8	0xbb01debc	-0.0019816598
9	0xbc4d0721	-0.012513907
10	0x3d5ff6e0	0.054678798
11	0x3d30ae87	0.043135192
12	0xbd28bcae	-0.041195564
13	0x3d92b049	0.0716253
14	0x3d85ca6a	0.06532748
15	0xbd7af84c	-0.06127195
16	0x3da65cea	0.08123191
17	0xbda5937c	-0.08084771
18	0x3b40fe67	0.002944851
19	0xbded893e	-0.115984425
20	0xbdc06ff1	-0.09396351
21	0xbe02ae39	-0.12761773
22	0xbdbb57e4	-0.09147623
23	0xbda01d30	-0.07818067
24	0x3d632bb0	0.055461586
25	0xbda5b0c6	-0.080903575
26	0x3dbce80e	0.092239484
27	0xbc742636	-0.014901688
28	0x3d8ff154	0.070284516
29	0x3dd5ec0c	0.10445413
30	0xbcabb05c	-0.020958118
31	0xbdb11369	-0.0864628
32	0x3c48da90	0.012259141
33	0x3c80165e	0.015635666
34	0x3c13d5d9	0.009023153
35	0xbd859a66	-0.0652359
36	0x3d586cc8	0.052838117
37	0xbde621a2	-0.11236884
38	0xbdf0d1b4	-0.11758748
39	0xbd958833	-0.073013686
40	0x3c4fad16	0.012675544
41	0xbdc10c5c	-0.094261855
42	0x3d84b2e2	0.06479432
43	0xbd8ff323	-0.070287965
44	0xbd73ca54	-0.059519127
45	0xbcc66d4b	-0.024222037
46	0xbd262759	-0.04056487
47	0x3de210d3	0.11038365
48	0x3acd8885	0.0015680945
49	0x3da26c97	0.07930868
50	0xbca1d8c2	-0.019756678
51	0xbd923aa3	-0.0714009
52	0xbdbbb1b6	-0.09164755
53	0xbde432d1	-0.11142505
54	0x3dfb2a8e	0.12263976
55	0xbd7a49fc	-0.061105713
56	0x3d8ce704	0.0688
57	0xbda393e7	-0.079871945
58	0x3dc76174	0.097353846
59	0xbd05c718	-0.032660574
60	0x3d9228c2	0.0713668
61	0xbdd99013	-0.10623183
62	0x3d909c12	0.07061018
63	0xbd4f02ec	-0.050539896
64	0x3dad6317	0.084661655
65	0x3d1a2535	0.03763314
66	0x3b8acefb	0.0042361
67	0x3dfebcff	0.12438392
68	0x3d7610b9	0.06007454
69	0x3d1f54bf	0.03889918
70	0xbd79c35c	-0.060977325
71	0xbe4f2fa7	-0.20233022
72	0x3dbe1a99	0.09282417
73	0xbbae1370	-0.0053123757
74	0x3dba4677	0.09095471
75	0x3cdb613d	0.026779765
76	0x3d207764	0.03917636
77	0x3d6fa0bf	0.05850291
78	0x3e15ace8	0.1461674
79	0x3d6a9d9f	0.057279225
80	0x3d58bf64	0.0529169
81	0xbcc5fbf9	-0.024168001
82	0xbd550db7	-0.052015033
83	0x3d224144	0.039613023
84	0xbcdc850a	-0.026918907
85	0x3e2da29c	0.16956562
86	0xbd81c164	-0.063357145
87	0x3d322984	0.043496624
88	0xbe05c64d	-0.13063927
89	0xbd7c9b4d	-0.061671544
90	0x3d0f0e14	0.034925535
91	0x3e3369f6	0.1752089
92	0x3cd1966f	0.025584428
93	0xbd4fcf06	-0.050734542
94	0x3d5a7a88	0.05333951
95	0x3de7a64c	0.113110155
96	0x3da0088c	0.0781413
97	0xbe0e73ec	-0.13911408
98	0x3e00caff	0.12577437
99	0x3db94d3f	0.09047937
100	0x3d2dac80	0.042400837
101	0xbd9eb8d2	-0.077500954
102	0x3dbc3c46	0.09191184
103	0xbd28dd8c	-0.04122691
104	0xbda52501	-0.080636986
105	0xbd6495e7	-0.05580702
106	0x3e1862fb	0.14881508
107	0x3dbf5812	0.0934297
108	0x3d605738	0.05477068
109	0x3db0a826	0.08625822
110	0x3db9e4ed	0.09076867
111	0x3c3d89a3	0.01156846
112	0x3c874c2f	0.01651582
113	0xbd863a69	-0.065541096
114	0xbd6316bf	-0.055441614
115	0x3df8ef0f	0.12154972
116	0xbe2dc022	-0.16967824
117	0x3da3d1bc	0.07998988
118	0x3ca6e6f4	0.020373799
119	0xbd876f40	-0.06613016
120	0x3d91854a	0.07105501
121	0xbc97ca8a	-0.018529195
122	0xbd51fff7	-0.051269498
123	0x3dd77305	0.10519985
124	0xbd45e600	-0.04831505
125	0xbdc687d2	-0.096938744
126	0xbd44899a	-0.04798279
127	0x3ccc5d34	0.024946786
128	0x3daa1ece	0.08306657
129	0xbc7484b3	-0.014924216
130	0x3e17d9d5	0.1482919
131	0xbd3ad107	-0.0456095
132	0xbce33c56	-0.027738731
133	0xbd48ad64	-0.048993483
134	0x3db5047a	0.088387445
135	0xbddaa550	-0.10676062
136	0xbc8944dc	-0.016756468
137	0x3d8cf570	0.06882751
138	0xbdd398ce	-0.103318796
139	0xbc6fcc60	-0.014636129
140	0xbc842d2c	-0.01613482
141	0x3d8fa771	0.07014359
142	0x3cca92d5	0.024728218
143	0x3dbdea07	0.09273153
144	0x3e5e7900	0.21725845
145	0xbcf193b4	-0.029489376
146	0x3dc21416	0.09476487
147	0x3dd3db86	0.10344605
148	0x3ce217d0	0.027599245
149	0x3cf37a51	0.029721411
150	0x3d9e8f2b	0.07742151
151	0x3e099600	0.13436127
152	0x3d512dd8	0.05106911
153	0xbd4d3728	-0.05010143
154	0x3d644967	0.055734064
155	0x3c50603a	0.012718255
156	0xbe237f23	-0.15966468
157	0x3e2c0175	0.16797431
158	0x3db106b7	0.08643859
159	0x3e0123c7	0.12611304
160	0xbda2728b	-0.079320036
161	0x3ddeb09e	0.10873531
162	0xbdbb82b0	-0.09155786
163	0xbdef5a0d	-0.11687098
164	0xbe945578	-0.28971457
165	0x3cffb3b7	0.031213624
166	0xbcf8259a	-0.030291367
167	0x3dfc1541	0.12308741
168	0xbc99aafa	-0.018758286
169	0xbdba44f5	-0.09095184
170	0x3e44ce15	0.19219239
171	0x3dc1e72b	0.0946792
172	0xbda979b2	-0.08275165
173	0xbe20052c	-0.15626973
174	0x3dda9a2e	0.10673939
175	0x3cd77d71	0.026304932
176	0x3dad3337	0.08457034
177	0x3b0c7daf	0.0021437218
178	0x3da1c611	0.07899106
179	0xbd4e6b4a	-0.050395288
180	0xbd9b9342	-0.075964466
181	0xbcdd5909	-0.027019994
182	0x3d99c257	0.075077705
183	0xbd424bf0	-0.0474357
184	0x3dd808f6	0.10548584
185	0xbe3eb85b	-0.18625014
186	0xbd890369	-0.066901036
187	0xbd9fb070	-0.07797325
188	0xbe1a155e	-0.15047213
189	0x3dd4933e	0.10379647
190	0x3d0296d1	0.03188211
191	0xbd60b798	-0.05486259
192	0xbdc2adc6	-0.09505801
193	0xbd780a02	-0.06055642
194	0xbca1517a	-0.019692171
195	0xbd0c7d0e	-0.03429895
196	0x3dc1a19e	0.09454654
197	0x3e035da9	0.12828697
198	0x3dc86c7a	0.09786315
199	0x3ae5c379	0.0017529569
200	0x3dfda2f3	0.12384596
201	0xbddc6df5	-0.1076316
202	0x3d2df7f4	0.042472795
203	0xbdbaf14c	-0.09128055
204	0xbaee7453	-0.0018192626
205	0x3db96ee3	0.09054353
206	0x3b3f36d5	0.002917697
207	0xbe07357f	-0.13204001
208	0xbb951d80	-0.004550636
209	0xbce6ca92	-0.028172765
210	0xbdc14106	-0.0943623
211	0xbd940232	-0.07226981
212	0xbe30fdde	-0.17284343
213	0x3d217ebf	0.039427515
214	0x3dbc3062	0.09188916
215	0x3dfe92a6	0.12430315
216	0xbc358920	-0.011080056
217	0x3e0dc26f	0.13843702
218	0x3dafe76a	0.085890606
219	0x3dcc238d	0.09967718
220	0x3b8b2131	0.0042459
221	0xbd81f361	-0.06345249
222	0xbd60b808	-0.054863006
223	0xbe26c9fb	-0.16287987
224	0xbd286c48	-0.04111889
225	0xbd4a317a	-0.04936359
226	0xbe2223bd	-0.15833946
227	0xbcfa3f8d	-0.030547881
228	0x3dea6441	0.11444903
229	0xbde0e6a0	-0.10981488
230	0xbde66c31	-0.112511046
231	0xbe101d22	-0.14073613
232	0xbe01724b	-0.12641256
233	0xbb3bb946	-0.0028644367
234	0xbc8d9e7f	-0.01728749
235	0x3b9ddebf	0.004817813
236	0xbd0e3178	-0.034715146
237	0xbc92d0a0	-0.017921746
238	0x3d5c7eb0	0.053831756
239	0xbe02320a	-0.12714401
240	0x3b410071	0.0029449726
241	0xbddbb4f6	-0.10727875
242	0xbd3c18ea	-0.045922197
243	0x3df32509	0.11872298
244	0xbdd44e8d	-0.10366545
245	0x3c7b28c4	0.0153295435
246	0xbd050766	-0.03247776
247	0xbd3c2c9c	-0.04594098
248	0x3c695bed	0.014243108
249	0xbd7ad21d	-0.061235536
250	0xbdfd8ce1	-0.12380386
251	0xbdc5d9c8	-0.09660679
252	0xbdd961a2	-0.10614325
253	0x3d10188a	0.035179652
254	0x3d88aed8	0.06673974
255	0xbced809a	-0.028991986

bias f4 [64]
0	0xbe02f2bb	-0.12787907
1	0xbdb9bc43	-0.09069111
2	0x3dfd9410	0.12381756
3	0x3d0e43f7	0.034732785
4	0x3db8bac5	0.090199985
5	0x3d06fd4d	0.03295641
6	0xbdb63d9c	-0.0889847
7	0x3e4c9941	0.19980337
8	0x3c1de52d	0.009637159
9	0x3dd31ca7	0.103081994
10	0xbe012fbb	-0.12615864
11	0xbe125778	-0.14291179
12	0xbdda37e8	-0.106551945
13	0x3c9e7ae1	0.019345703
14	0x3cd604f2	0.026125405
15	0xbdc7326e	-0.097264156
16	0xbd23e946	-0.04001739
17	0x3cafde87	0.021468414
18	0x3b49a88e	0.0030770632
19	0x3daee41a	0.08539601
20	0x3daaa161	0.08331562
21	0xbd3d1f8d	-0.046172667
22	0x3d183fb9	0.037170146
23	0xbd8626d1	-0.065503724
24	0xbd3a5bfb	-0.045497876
25	0x3d91e684	0.071240455
26	0x3e09316c	0.13397759
27	0xbc115bb4	-0.008871961
28	0xbdfb28fd	-0.12263677
29	0x3e7e92fa	0.24860755
30	0xbe08ff24	-0.13378578
31	0x3db71a54	0.089405686
32	0x3ceddaad	0.029034937
33	0x3d2d865b	0.04236446
34	0xbe27be63	-0.1638122
35	0xbe147874	-0.14499074
36	0xbcc8becb	-0.02450504
37	0xbdcd1922	-0.10014559
38	0xbd358990	-0.044320643
39	0xbc1c4eba	-0.009540254
40	0x3e85dae3	0.2614356
41	0xbbca847e	-0.006180345
42	0xbcdca7bf	-0.026935456
43	0xbe3025c4	-0.17201906
44	0xbbac9071	-0.005266242
45	0xbc1c1684	-0.0095268525
46	0x3d78d7b1	0.060752574
47	0x3d0d7efc	0.03454493
48	0x3e0efa69	0.13962711
49	0xbdfa49e9	-0.122211285
50	0x3df85434	0.121254355
51	0xbdb966ff	-0.09052848
52	0xbc7b9c5d	-0.015357104
53	0xbc93dc46	-0.01804937
54	0xb8cfb80c	-9.9048106e-05
55	0xbc8d2273	-0.01722834
56	0x3e0da79d	0.1383347
57	0x3cccb73b	0.024989715
58	0xbde19055	-0.11013857
59	0x3e804285	0.2505075
60	0xbcdceaa7	-0.02696736
61	0x3e487f27	0.19579755
62	0x3d80bce3	0.06286027
63	0x3d1317ac	0.035911247

weight f4 [64, 64]
0	0x3d61df8d	0.055144835
1	0xbd2cb6ad	-0.0421664
2	0xbcadf009	-0.021232622
3	0xbda3e204	-0.080020934
4	0xbda3e9b2	-0.08003558
5	0xbe1116d3	-0.14168863
6	0x3c86f571	0.016474457
7	0xbe5e5e14	-0.21715575
8	0xbb03a51e	-0.0020087431
9	0xbda9ae7a	-0.08285232
10	0x3ca9f12b	0.02074488
11	0x3d961110	0.07327473
12	0xbda35b4b	-0.07976397
13	0xbdb9a37c	-0.09064385
14	0x3de827a7	0.11335688
15	0xbe670433	-0.22560196
16	0xbb90dd9d	-0.0044209496
17	0x3dd7575c	0.10514709
18	0xbde10435	-0.109871306
19	0x3d4e5cc9	0.050381456
20	0xbcfb577a	-0.03068136
21	0x3b9cf475	0.0047898837
22	0x3dafa277	0.085759096
23	0x3d8dabd4	0.06917539
24	0xbcf66fed	-0.030082667
25	0x3a82e778	0.0009987196
26	0xbcebfb3b	-0.02880632
27	0x3d21f811	0.039543215
28	0x3d1aeb3c	0.037821993
29	0x3d99e486	0.075142905
30	0x3d922b6b	0.071371876
31	0xbe1504cc	-0.14552611
32	0xbd2435db	-0.040090423
33	0xbd008593	-0.031377386
34	0xbe48d3a3	-0.19611983
35	0xbd42a554	-0.04752095
36	0xbd3cccd0	-0.046093762
37	0xbde7b1cc	-0.11313209
38	0x3c612ed0	0.013744071
39	0xba951548	-0.001137414
40	0x3d870dcc	0.065944284
41	0xbdc591b2	-0.0964693
42	0xbd8e0588	-0.06934649
43	0xbe385562	-0.18001321
44	0x3dd99bc9	0.10625417
45	0xbd72da32	-0.05929012
46	0xbde10a8d	-0.109883405
47	0xbcae0182	-0.021240953
48	0x3d078cf4	0.033093408
49	0x3ca679ab	0.020321688
50	0x3dacb2a1	0.08432508
51	0xbd5d2f3b	-0.05400012
52	0x3df1e95b	0.11812087
53	0x3e0ac788	0.13552678
54	0x3d97c002	0.074096695
55	0x3dd85891	0.10563768
56	0x3c85b761	0.016322793
57	0x3d032fd7	0.032028046
58	0x3d9408f2	0.07228269
59	0xbcf1fe6e	-0.029540267
60	0x3dce7861	0.10081554
61	0xbcf461d6	-0.029831808
62	0x3a43d227	0.0007469975
63	0xbe1d640d	-0.15370198
64	0xbd04a2b3	-0.032381725
65	0x3db5ac91	0.08870805
66	0xbdb0e22a	-0.08636887
67	0xbb429c8e	-0.0029695365
68	0xbe3d05ef	-0.18459295
69	0x3cc36919	0.023853825
70	0xbd8890d9	-0.066682525
71	0xbdc93256	-0.09824054
72	0xbd650f38	-0.055922717
73	0x3cd84f0c	0.02640488
74	0xbceb4926	-0.028721403
75	0x3cb24a62	0.021763984
76	0xbd4cc370	-0.04999107
77	0x3e115db1	0.14195897
78	0xbd7771dd	-0.060411323
79	0xbe6f42f6	-0.23365387
80	0x3e139ee8	0.14416087
81	0xbd1f1fef	-0.038848814
82	0xbd78e566	-0.060765646
83	0x3bcbe004	0.006221773
84	0xbdaea4c8	-0.08527523
85	0xbe089024	-0.13336235
86	0x3d7239a5	0.059137005
87	0xbd8b3e18	-0.06798953
88	0xbcab3edf	-0.020904003
89	0x3de01bf7	0.10942834
90	0x3bc85615	0.0061137774
91	0xbd07c985	-0.03315117
92	0x3d661849	0.056175504
93	0x3d9ca7f6	0.076492235
94	0x3c6c572a	0.014425078
95	0xbcffd490	-0.031229287
96	0x3d5c2b36	0.053752147
97	0xbd98c03d	-0.074585415
98	0x3db184f9	0.08667941
99	0x3d5a46eb	0.05329029
100	0xbf07e368	-0.5308137
101	0xbd103c18	-0.03521356
102	0x3de04c44	0.109520465
103	0x3e08fc3f	0.13377474
104	0x3dff0106	0.12451367
105	0x3db69df3	0.08916845
106	0xbb66f080	-0.0035238564
107	0x3de0c3f6	0.109748766
108	0x3c92e429	0.01793106
109	0x3ded3c34	0.115837485
110	0x3e309364	0.17243725
111	0xbccec0f9	-0.0252385
112	0xbdfbef3f	-0.12301492
113	0x3dfa9e49	0.12237222
114	0xbd11a79b	-0.03556023
115	0x3df69356	0.12039821
116	0xbde9551a	-0.11393185
117	0x3cc7a6a4	0.024371453
118	0x3ae464f9	0.0017425112
119	0xbdd04571	-0.10169495
120	0x3e0da0b2	0.13830832
121	0xbdcf30ba	-0.10116716
122	0xbcb9d6fc	-0.02268552
123	0x3c533a36	0.012892297
124	0xbd017e30	-0.031614482
125	0xbcf97da5	-0.03045542
126	0xbd821ad7	-0.063527755
127	0xbdaf9b37	-0.08574527
128	0xbd6229b7	-0.055215564
129	0x3d79b939	0.060967658
130	0x3d6f58a9	0.058434162
131	0x3c96497e	0.01834559
132	0x3a9b3d38	0.0011843806
133	0x3cd511d4	0.026009478
134	0x3c8e5f53	0.017379439
135	0x3d8a3250	0.067478776
136	0xbc1acc31	-0.009448097
137	0xbc5c7ea0	-0.013457924
138	0xbd7028e8	-0.05863276
139	0xbd8ecfce	-0.06973229
140	0xbcd09272	-0.025460456
141	0x3e20f47d	0.15718265
142	0xbd731c9a	-0.05935345
143	0xbd91a04c	-0.07110652
144	0x3dd45362	0.103674665
145	0x3e08a86d	0.133455
146	0x3be983b1	0.0071262945
147	0x3dc3baad	0.0955709
148	0x3d7925d9	0.06082711
149	0xb801bebe	-3.093364e-05
150	0xbd755b7f	-0.05990171
151	0x3daced93	0.08443751
152	0x3d7165c7	0.058934953
153	0xbd6010ae	-0.054703407
154	0xbb2862f2	-0.0025693742
155	0xbd146cf1	-0.036236707
156	0x3da460c8	0.08026272
157	0xbddb1d06	-0.10698895
158	0xbd9888e2	-0.07447983
159	0xbd8e7ecf	-0.069577806
160	0x3d5131e0	0.051072955
161	0xbe0abfe2	-0.1354976
162	0xbc8304ca	-0.015993495
163	0xbd70df5c	-0.058806762
164	0x3cc38f90	0.023872167
165	0xbd773075	-0.060348947
166	0x3c4b366d	0.012403113
167	0x3da68d34	0.08132401
168	0x3ded2cac	0.11580786
169	0xbcf55c13	-0.029951131
170	0xbdc7f038	-0.09762615
171	0xbe222079	-0.158327
172	0x3daeb555	0.0853068
173	0x3e201a36	0.15634999
174	0xbd3266eb	-0.04355518
175	0x3d0c2905	0.034218807
176	0xbccee055	-0.025253454
177	0x3dc067d5	0.093948044
178	0xbde147d1	-0.11000026
179	0x3ca62655	0.02028195
180	0xbd4c0d5c	-0.049817428
181	0xbdc62aac	-0.09676108
182	0x3d6c38b3	0.05767126
183	0x3da2097e	0.07911967
184	0x3da34562	0.07972218
185	0xbd38d3dd	-0.045123924
186	0x3d6acfc0	0.057327032
187	0xbe49105e	-0.1963515
188	0x3e0733b9	0.13203324
189	0xbe005fec	-0.12536591
190	0xbd8e5fe4	-0.069518834
191	0xbd797676	-0.06090399
192	0x3db5728c	0.08859739
193	0xbc94ffac	-0.01818832
194	0x3c49e7ab	0.0123233
195	0x3b86b856	0.00411133
196	0xba89d4c4	-0.001051568
197	0xbd884263	-0.06653287
198	0xbdbaa95b	-0.09114333
199	0xbd015115	-0.031571466
200	0xbc62bea7	-0.0138394
201	0x3d17b2bd	0.037035692
202	0xbdf21d49	-0.11821992
203	0xbdbab15f	-0.09115862
204	0x3e07d9b5	0.13266642
205	0x3ded79e4	0.115955144
206	0x3d1a726b	0.037706774
207	0x3d829282	0.063756004
208	0xbcef57d2	-0.02921668
209	0x3e1776de	0.14791438
210	0x3e14036a	0.14454427
211	0x3d1f8fa7	0.038955357
212	0xbd37c903	-0.044869434
213	0x3c17ee89	0.00927318
214	0x3cc12543	0.023577338
215	0x3df31d5f	0.118708365
216	0x3e0324ff	0.12807082
217	0x3cb12d1f	0.02162796
218	0x3c98d5ff	0.018656729
219	0x3dc98d0a	0.09841354
220	0xbe516944	-0.20450312
221	0x3e1f2fb8	0.15545547
222	0xbda04de2	-0.07827355
223	0xbe2aeadf	-0.16691159
224	0x3db3f60a	0.087871626
225	0x3c6dadce	0.01450677
226	0x3d8ea589	0.06965167
227	0xbcd189ee	-0.025578465
228	0xbe9e78cf	-0.30951545
229	0x3ca4bc55	0.020109335
230	0x3e1bd8b4	0.15219384
231	0x3dffefd5	0.12496916
232	0x3e87da03	0.26533517
233	0xbcc53d1a	-0.024076987
234	0xbd69daf8	-0.05709359
235	0x3cad5e32	0.02116308
236	0x3cd59560	0.026072204
237	0x3d909ba1	0.07060934
238	0x3d2066de	0.0391606
239	0x3d450f60	0.048110366
240	0x3d0ee13e	0.034882776
241	0x3d6e1f08	0.058135062
242	0x3d459b06	0.048243545
243	0x3debf582	0.11521436
244	0xbda41cc6	-0.080133006
245	0x3c903801	0.01760483
246	0x3e1ded37	0.15422522
247	0xbdbc54b9	-0.09195847
248	0x3d3e9e69	0.04653779
249	0x3d97b016	0.074066326
250	0x3cb530c8	0.022117987
251	0xbde20d9f	-0.11037754
252	0x3cc2d93d	0.023785228
253	0xbbb6313f	-0.00556007
254	0xbd5e6822	-0.054298528
255	0xbe242f2a	-0.16033617

bias f4 [64]
0	0xbbc5b3ee	-0.006033412
1	0xbca03fe2	-0.019561712
2	0xbd0f2217	-0.03494462
3	0xbc02adb9	-0.007975989
4	0x3e179cf1	0.14805962
5	0xbde44ca1	-0.11147428
6	0x3da5bc7a	0.0809259
7	0x3d465790	0.04842335
8	0xbdd3b78e	-0.10337745
9	0x3db94dee	0.09048067
10	0x3e097f9b	0.13427584
11	0x3e0f1417	0.13972507
12	0xbdeb7d17	-0.11498468
13	0xbe633d5b	-0.22191374
14	0x3e4f4aaf	0.20243333
15	0x3e2199cc	0.15781325
16	0x3d828aa4	0.063741
17	0xbda7cb4b	-0.08193072
18	0xbe0a0a39	-0.13480462
19	0xbdf0d54e	-0.11759435
20	0xbca9106e	-0.020637717
21	0x3b361a9e	0.0027786861
22	0x3ca8580d	0.020549798
23	0xbcfbb8be	-0.03072774
24	0xbe040d7e	-0.12895772
25	0x3c5404d0	0.0129406005
26	0x3c69fb79	0.014281147
27	0x3d517b4c	0.051142976
28	0x3d232215	0.039827425
29	0xbda0fa7c	-0.07860276
30	0x3e804b8a	0.25057632
31	0xbd999dfa	-0.07500835
32	0xbe04fd7f	-0.12987326
33	0xbdec68ae	-0.115434036
34	0xbd20e6d7	-0.039282646
35	0x3e4a4d37	0.19756018
36	0x3cfbe474	0.030748583
37	0xbd221238	-0.039568156
38	0xbc9cffd6	-0.01916496
39	0xbe119dd6	-0.14220366
40	0xbdfff14f	-0.12497198
41	0x3e967569	0.29386452
42	0xbc48c2a1	-0.012253434
43	0x3d912c5b	0.07088538
44	0x3dd40735	0.10352937
45	0x3e39d4b3	0.18147545
46	0x3df8966d	0.121380664
47	0x3e3043a7	0.17213307
48	0xbe162316	-0.14661822
49	0xbe6de6f4	-0.23232633
50	0xbdf2d151	-0.1185633
51	0x3d8bdeff	0.068296425
52	0x3dd14c43	0.10219624
53	0x3e195d9d	0.14977117
54	0xbdc2ad49	-0.09505708
55	0xbc2713d7	-0.010197601
56	0xbc4b25e1	-0.012399168
57	0xbcb667fa	-0.022266377
58	0x3d2609ea	0.0405368
59	0xbe1af7d1	-0.15133597
60	0xbd067353	-0.032824825
61	0x3d7b6729	0.061377678
62	0xbe2e54ed	-0.17024584
63	0xbd962d83	-0.073328994

weight f4 [64, 64]
0	0x3db3cebb	0.08779665
1	0xbd7f7831	-0.062370483
2	0x3da6face	0.08153306
3	0x3e0543f3	0.13014202
4	0x3e408802	0.18801883
5	0x3de79fbd	0.113097645
6	0xbdd719eb	-0.1050299
7	0xbdeadad2	-0.11467518
8	0xbcb474d0	-0.022028357
9	0x3e22e189	0.15906347
10	0x3d644270	0.055727422
11	0xbba407e4	-0.0050058234
12	0xbde7bc17	-0.11315172
13	0x3da9d6c5	0.08292917
14	0x3da25cb7	0.0792784
15	0xbda39460	-0.07987285
16	0xbaadaf8e	-0.0013251172
17	0x3da3c38b	0.07996281
18	0x3c6adb9a	0.014334584
19	0x3d8e211a	0.06939907
20	0x3cedf528	0.029047564
21	0xbcaae161	-0.020859422
22	0xbc86fa98	-0.016476914
23	0x3df0a1be	0.117496
24	0xbd144ca1	-0.03620589
25	0xbd63e0ed	-0.055634428
26	0x3dbe3526	0.09287481
27	0xbacfea50	-0.0015862677
28	0x3d8d9144	0.06912473
29	0x3dd0f10b	0.10202225
30	0x3e3b738d	0.18305798
31	0x3d64f308	0.055895835
32	0x3d65e95c	0.056130752
33	0xbd9c4f93	-0.07632365
34	0x3e0417b8	0.12899673
35	0x3c7a4ba2	0.015276821
36	0xbda6d29f	-0.081456415
37	0xbcf4345f	-0.029810129
38	0xbd93c214	-0.07214752
39	0xbd474991	-0.048654143
40	0x3d82a47f	0.063790314
41	0x3e307212	0.17231014
42	0xbd9bd61b	-0.07609197
43	0xbd4e9fed	-0.050445486
44	0xbd8475dd	-0.06467793
45	0x3e1c6da6	0.15276203
46	0x3d5de759	0.05417571
47	0x3db96c87	0.09053903
48	0xbdad6951	-0.08467353
49	0x3d93d6ec	0.072187275
50	0xbdf4ff16	-0.11962716
51	0x3db2917e	0.08719157
52	0x3c42b780	0.01188457
53	0xbd809855	-0.06279055
54	0xbd73e304	-0.05954267
55	0xbda88ef8	-0.08230394
56	0xbe09fc5e	-0.13475177
57	0xbdc44a83	-0.095845245
58	0x3d8df162	0.06930806
59	0xbd111b09	-0.035426173
60	0xbd81e5c9	-0.06342656
61	0x3cde919a	0.027169038
62	0xbd6fd512	-0.05855281
63	0x3dfdb62a	0.12388261
64	0x3be7d5cf	0.0070750485
65	0x3d507c49	0.050899778
66	0x3cb21302	0.02173758
67	0xbc93421b	-0.017975857
68	0xbc4ddd09	-0.012564906
69	0x3d35b843	0.04436518
70	0xbd8d4a70	-0.068989635
71	0xbd458dd1	-0.04823095
72	0xbe0fc1c4	-0.1403876
73	0x3da03edb	0.07824489
74	0x3dd25125	0.10269383
75	0xbdae94ea	-0.08524497
76	0x3d24c51b	0.040227037
77	0xbe188caf	-0.14897417
78	0xbc96531c	-0.018350177
79	0xbd1ce986	-0.038308643
80	0xbdcf8bb2	-0.10134067
81	0xbdce388c	-0.10069379
82	0xbcf8b9e8	-0.030362085
83	0xbc685bc0	-0.014182031
84	0xbd719a0a	-0.058984794
85	0xbd1e3d02	-0.0386324
86	0x3b4396a3	0.0029844425
87	0xbe05d5e6	-0.13069877
88	0xbca2a9a8	-0.019856289
89	0x3ce48e1e	0.027899798
90	0x3c19a502	0.00937772
91	0xbdd2fab7	-0.10301726
92	0x3d954f40	0.07290506
93	0x3da6bd57	0.081415825
94	0x3c73307d	0.0148431035
95	0xbd9d8644	-0.07691625
96	0xbcf573b4	-0.029962398
97	0xbd244880	-0.040108204
98	0xbdb75147	-0.08951049
99	0x3d28f8fc	0.041253075
100	0x3dab022f	0.08350026
101	0x3d860027	0.06542998
102	0xbbd2d48e	-0.00643403
103	0xbccc3115	-0.024925748
104	0xbdd1d3e2	-0.102454916
105	0xbddcc1be	-0.10779141
106	0x3b49c1f9	0.0030785783
107	0x3ca83b39	0.020536052
108	0xbdb64b8d	-0.08901129
109	0xbe00ee99	-0.12591018
110	0xbd01a40b	-0.031650584
111	0xbbaee200	-0.005337
112	0xbdb6adc4	-0.08919862
113	0x3d3fbc42	0.046810396
114	0xbd844968	-0.06459314
115	0x3d79884d	0.060921002
116	0x3cc5bd47	0.024138106
117	0x3c8aaac7	0.016927136
118	0xbdda6822	-0.10664393
119	0x3d6500e0	0.055909038
120	0xbc5419f5	-0.012945642
121	0xbdb612b5	-0.08890287
122	0xbd000c82	-0.03126193
123	0x3cd20a38	0.025639638
124	0x3aea94b7	0.0017897104
125	0xbc283e32	-0.010268735
126	0xbd57fb2b	-0.052729767
127	0xbdd29f89	-0.10284335
128	0x3dd33098	0.10312003
129	0x3dd04b87	0.10170656
130	0x3e1869f8	0.14884174
131	0x3d8916f4	0.06693831
132	0x3e88c2e3	0.26711187
133	0x3e1f3030	0.15545726
134	0x3daf9f0b	0.08575257
135	0x39c2a67d	0.00037126607
136	0x3d5bb2db	0.053637367
137	0x3e8e0084	0.27734768
138	0xbdfe5ea5	-0.12420396
139	0x3ddcf991	0.107897885
140	0x3d216f32	0.039412685
141	0x3be58c0a	0.0070052193
142	0x3d1f5afc	0.03890513
143	0x3df735a6	0.120707795
144	0x3c5e990b	0.013586293
145	0xbe14bcf5	-0.14525206
146	0xbdc7bf17	-0.09753244
147	0x3b125cc0	0.0022333115
148	0x3e0b0208	0.13574994
149	0xbd3fe82b	-0.046852272
150	0x3d63eb47	0.0556443
151	0xbc910c9f	-0.017706214
152	0x3e0cccf1	0.13750054
153	0xbde461ce	-0.11151467
154	0x3b8bd8c9	0.004267786
155	0xbd67ecb7	-0.056622233
156	0x3de7d7b1	0.11320437
157	0x3d083e85	0.03326275
158	0x3e86ecb3	0.26352462
159	0x3dc43ec9	0.09582288
160	0x3e1abb9b	0.15110628
161	0x3dd6feee	0.10497843
162	0x3de20193	0.110354565
163	0x3d12147f	0.035664078
164	0xbc26d738	-0.010183148
165	0x3de2da8e	0.11076842
166	0x3cc67e9e	0.024230298
167	0x3e0cd89c	0.13754505
168	0x3c83bfa3	0.01608259
169	0x3e55c81f	0.20877121
170	0x3d372fa8	0.044723183
171	0x3db5b38b	0.08872136
172	0xbd009df4	-0.031400636
173	0x3e343844	0.17599589
174	0x3df1253c	0.1177468
175	0x3d4e941d	0.05043422
176	0x3cefa673	0.029254174
177	0x3b966bf4	0.0045905057
178	0xbd73ae4e	-0.0594924
179	0x3dd929b9	0.10603661
180	0x3d6798dc	0.056542262
181	0x3cb2e551	0.021837862
182	0x3d2a8836	0.041633807
183	0xbdc525b7	-0.09626334
184	0xbbd238f0	-0.006415479
185	0x3c0dc6f6	0.008653393
186	0xbd3d2975	-0.046182115
187	0x3c5a1fcd	0.013313246
188	0x3defb729	0.11704857
189	0xbdd3efd7	-0.1034848
190	0x3ba6e6a9	0.005093415
191	0x3e08fbc9	0.13377298
192	0x3cc4e90e	0.02403691
193	0x3a2dc1be	0.0006628296
194	0xbcc8d27b	-0.024514427
195	0xbdf644b9	-0.120248266
196	0x3e33a899	0.17544784
197	0xbd5a0257	-0.053224888
198	0xbdf4f0a4	-0.11959961
199	0xbd5e365a	-0.054251052
200	0x3d154c7a	0.036449887
201	0xbdb9b18c	-0.090670675
202	0x3db049be	0.08607815
203	0xbe22c1de	-0.15894267
204	0x3bdda0ca	0.0067635523
205	0xbd19902b	-0.037491005
206	0xbd53f394	-0.051745966
207	0xbd1d6a2f	-0.038431343
208	0xbe0ddd08	-0.13853848
209	0xba2d63f5	-0.0006614321
210	0xbdcdd7d9	-0.10050935
211	0x3dc62248	0.096745074
212	0xbd852f64	-0.0650318
213	0xbe2b5f08	-0.1673547
214	0x3dddc25e	0.10828088
215	0x3db8469f	0.08997845
216	0x3da54c70	0.0807122
217	0x3c9f91a8	0.019478634
218	0xbd33e89b	-0.043923
219	0xbe01e48c	-0.1268484
220	0x3d26957d	0.040669907
221	0xbd703248	-0.058641702
222	0x3cddce7a	0.027075995
223	0x3d64adde	0.055829875
224	0x3e16c172	0.14722231
225	0x3d739428	0.059467465
226	0xbc7bb458	-0.0153628215
227	0xbdb380aa	-0.08764775
228	0xbdf0e96f	-0.11763274
229	0x3c567c7b	0.013091202
230	0xbe273606	-0.16329202
231	0xbd1ba114	-0.037995413
232	0x3cc3ba11	0.023892434
233	0xbd810ee8	-0.06301671
234	0x3e0cbd28	0.13744032
235	0x3db2ab5e	0.08724092
236	0xbd2c8820	-0.042122006
237	0xbdef5f97	-0.11688154
238	0xbddd3ec0	-0.10802984
239	0xbd4bf6c0	-0.049795866
240	0xbd4867fb	-0.04892729
241	0xbd985b5d	-0.07439301
242	0xbd53bfd9	-0.051696632
243	0x3b2242c5	0.0024759036
244	0xbd543105	-0.05180456
245	0x3d9c2e1a	0.07625981
246	0x3ca1c6a3	0.019748038
247	0x3db8bf64	0.0902088
248	0x3ddadb60	0.10686374
249	0x3cf581d5	0.029969135
250	0xbd1a8430	-0.03772372
251	0xbda5476d	-0.08070264
252	0x3df7b141	0.120943554
253	0x3dc3b4aa	0.09555943
254	0x3d102ed7	0.03520092
255	0xbb90ed03	-0.0044227852

bias f4 [64]
0	0x3eb2eb53	0.34945163
1	0xbdbc658e	-0.091990575
2	0x3e70f2a3	0.23530059
3	0x3d049c95	0.03237589
4	0xbd4c6b7b	-0.04990719
5	0xbd8091b0	-0.06277788
6	0x3e3dd84a	0.18539539
7	0xbdecfe0b	-0.11571892
8	0xbe008cae	-0.12553665
9	0x3e4263e3	0.18983416
10	0xbe1e6320	-0.154675
11	0xbda89924	-0.08232334
12	0xbdf30e06	-0.11867909
13	0xbd82d9c9	-0.063891955
14	0xbe1a2c23	-0.150559
15	0xbe3bdead	-0.18346663
16	0x3d3bed27	0.045880463
17	0x3c5b0077	0.01336681
18	0xbc2c367b	-0.010511036
19	0xbd8ea5f9	-0.069652505
20	0xbd4f1fbd	-0.050567377
21	0xbd88bb59	-0.06676359
22	0xbcbc5231	-0.02298841
23	0xbc6ca4ae	-0.01444356
24	0x3c8a6eb7	0.016898496
25	0x3e1f6f90	0.15569901
26	0xbc22e599	-0.009942436
27	0xbd6767f9	-0.05649564
28	0x3d13a898	0.036049455
29	0xbe0f2af4	-0.13981229
30	0xbd1646ca	-0.036688603
31	0x3e10a80b	0.14126603
32	0x3bf379a7	0.0074302736
33	0xbd68c3d9	-0.0568274
34	0xbe1cdd3e	-0.15318772
35	0x3dbe9bdf	0.09307074
36	0x3cb6d851	0.022319945
37	0xbe17653d	-0.14784713
38	0x3d588881	0.052864555
39	0xbc4cc81a	-0.01249888
40	0x3d1c2b55	0.038127262
41	0xbd171bb9	-0.036891673
42	0xbd98c929	-0.07460243
43	0xbd5bb7d7	-0.05364212
44	0x3e2a2a67	0.16617738
45	0xbe0b360d	-0.13594837
46	0x3e318747	0.1733676
47	0xbe359189	-0.17731299
48	0x3b966ceb	0.0045906208
49	0xbe1223fa	-0.14271536
50	0x3c73de89	0.0148845995
51	0xbd823c88	-0.06359202
52	0xbeceb89c	-0.4037522
53	0x3e4a2a24	0.19742638
54	0xbdf1ec08	-0.118125975
55	0xbe7ab7fa	-0.24484244
56	0xbc909832	-0.017650697
57	0xbdd7c7d1	-0.10536159
58	0x3d144b24	0.036204472
59	0xbc46db3c	-0.0121372305
60	0xbdcd5f8b	-0.10027989
61	0x3e24af94	0.16082603
62	0x3dfbda16	0.12297456
63	0x3d0eb325	0.034838814

weight f4 [64, 64]
0	0xbe1200c4	-0.14258105
1	0x3c726615	0.014794846
2	0xbdac8800	-0.084243774
3	0xbd887de0	-0.06664634
4	0x3c949a78	0.018140063
5	0x3d43f4a2	0.047840722
6	0xbd28c63f	-0.041204687
7	0xbe0ef7d3	-0.13961725
8	0x3cac6011	0.021041902
9	0x3cbdb19a	0.023155976
10	0xbd2e46b0	-0.04254788
11	0x3d92cf82	0.07168485
12	0xbe63ce19	-0.22246589
13	0x3da7b056	0.0818793
14	0x3d5d2fb4	0.05400057
15	0xbdf9b37f	-0.12192439
16	0xbdf97290	-0.12180054
17	0x3cca2b21	0.024678769
18	0xbcd63831	-0.026149841
19	0x3dad9ca5	0.08477143
20	0x3d3e7af1	0.046503965
21	0xbdbe2ce1	-0.09285904
22	0xbca0f70d	-0.019649053
23	0x3c7bed2d	0.015376371
24	0xbbc14d4c	-0.005899107
25	0x3c719653	0.014745313
26	0x3b166463	0.0022948019
27	0x3db3269d	0.08747599
28	0x3d573be7	0.05254736
29	0x3d9d5994	0.07683101
30	0x3d432a22	0.047647603
31	0xbd870bf2	-0.06594075
32	0xbd66ce3d	-0.056349028
33	0xbc5d7ca0	-0.013518482
34	0x3d8a1c7e	0.06743716
35	0x39eed7d7	0.0004555571
36	0xbdf11902	-0.11772348
37	0xbdf46394	-0.119330555
38	0xbd537556	-0.051625572
39	0x3d1170dd	0.035508025
40	0x3d1b10d7	0.037857857
41	0xbcca0e70	-0.024665087
42	0xbcd3b600	-0.02584362
43	0xbe445760	-0.19173956
44	0x3c1f0e0f	0.009707942
45	0xbd2276f9	-0.039664242
46	0xbd0c67cb	-0.034278672
47	0x3d4f443b	0.05060218
48	0xbda61abb	-0.08110567
49	0x3da22453	0.079170845
50	0xbbc462d1	-0.005993225
51	0x3d221e98	0.039579958
52	0x3c828ce6	0.015936326
53	0xbd34e118	-0.04415998
54	0x3d390d70	0.04517883
55	0xbcc396e3	-0.02387566
56	0x3c661a4f	0.014044358
57	0xbd8d2c63	-0.06893232
58	0xbd9fd773	-0.078047656
59	0xbdced62e	-0.10099445
60	0x3c866689	0.016406314
61	0xbcd7f9ce	-0.026364233
62	0x3d403a05	0.04693033
63	0x3d44ce37	0.048048224
64	0xbddbfcf1	-0.10741604
65	0xbb36b6a0	-0.002787985
66	0x3d91db79	0.07121939
67	0x3d2a6f12	0.04160983
68	0xbc9d9ed0	-0.019240767
69	0xbb8152cb	-0.0039466373
70	0xbbf6ba8d	-0.007529563
71	0xbcdf2a98	-0.02724199
72	0xbdd44fe4	-0.103668004
73	0xbd6bae3b	-0.057539206
74	0x3d1fad66	0.038983725
75	0x3c690620	0.014222652
76	0x3c7f2c75	0.015574564
77	0x3d8ca471	0.06867302
78	0x3d73c734	0.059516147
79	0xbc041119	-0.008060717
80	0x3dbd9eca	0.09258802
81	0xbe19fa82	-0.15036967
82	0xbde24b78	-0.11049551
83	0x3d16afe1	0.036788825
84	0xbd122136	-0.035676204
85	0xbdd97df2	-0.10619725
86	0x3db6dd68	0.08928949
87	0xbd08968d	-0.0333467
88	0x3d1fc8fe	0.03901004
89	0x3daa3053	0.08309998
90	0x3dc8dfb7	0.09808295
91	0x3c9bfc96	0.01904134
92	0xbcec4585	-0.028841743
93	0xbda0d874	-0.07853785
94	0xbdc1a1b6	-0.09454672
95	0x3d557e0b	0.052122157
96	0xbcb1f036	-0.021720987
97	0x3dcca915	0.09993187
98	0x3d6697db	0.056297164
99	0x3d6a90d5	0.05726703
100	0x3d29a2de	0.041415088
101	0xbce189a6	-0.027531456
102	0xbdc8ed97	-0.09810942
103	0x3b329473	0.0027249127
104	0x3da380b3	0.07983532
105	0xbd9e8253	-0.07739701
106	0xbd7e42ae	-0.06207531
107	0xbd05f907	-0.032708194
108	0xbca63a89	-0.020291584
109	0xbd8828ed	-0.06648431
110	0xbdccf33e	-0.10007332
111	0xbd855b7b	-0.06511589
112	0xbdae200e	-0.08502208
113	0xbe0c7bac	-0.13719052
114	0xbd1b6737	-0.03794023
115	0xbce49f45	-0.027907977
116	0xbcec32df	-0.028832851
117	0xbddcc0da	-0.10778971
118	0xbd9f5bd0	-0.07781184
119	0xbd0af7f6	-0.03392788
120	0xbca2c67e	-0.01987004
121	0x3cb4300a	0.021995563
122	0x3b9ef151	0.0048505445
123	0x3dd6907a	0.104767755
124	0x3dbb88dc	0.09156963
125	0xbbbba39f	-0.0057262923
126	0xbdaffa01	-0.08592606
127	0x3db80d91	0.089869626
128	0x3de73ea8	0.112912476
129	0xbdc3806c	-0.09545979
130	0x3dd4e8d5	0.10395972
131	0xbbe861bd	-0.0070917294
132	0x3c53dc7a	0.012930984
133	0x3cf0445b	0.02932947
134	0x3e79f677	0.24410425
135	0x3df8bffd	0.12145994
136	0xbe51c340	-0.20484638
137	0xbba72f1c	-0.0051020514
138	0x3df1f6d9	0.118146606
139	0xbd886965	-0.066607274
140	0x3e0adad6	0.13560042
141	0xbd076453	-0.03305466
142	0x3d6ae191	0.057344023
143	0xbd6d49c1	-0.057931665
144	0x3e3cd1ec	0.18439454
145	0x3e775399	0.24152984
146	0xbdb96d3a	-0.090540364
147	0x3dd708fd	0.10499761
148	0xbd93fd5a	-0.07226057
149	0xba4f64d7	-0.00079114496
150	0x3d41a0d6	0.047272526
151	0x3e53dbca	0.20689312
152	0x3e050b00	0.12992477
153	0x3e7c1274	0.24616414
154	0x3d872ed3	0.06600728
155	0xbdd98ab8	-0.106221616
156	0x3e63cb81	0.222456
157	0xbd1d37b0	-0.038383186
158	0x3df06c3b	0.11739393
159	0x3e6c82ae	0.23096725
160	0xbe3a869d	-0.18215413
161	0x3e18d183	0.14923672
162	0x3de94a13	0.11391082
163	0x3e43b82e	0.19113228
164	0xbd495c14	-0.04916008
165	0xbcf3f399	-0.029779242
166	0xbd975387	-0.073889785
167	0x3d1123cb	0.035434525
168	0x3da4010d	0.08008013
169	0xbd9fd3ae	-0.078040466
170	0xbd551175	-0.0520186
171	0xbdb209bf	-0.08693265
172	0x3e2da220	0.16956377
173	0x3db4b971	0.08824433
174	0xbe22f18a	-0.15912452
175	0x3d751ea9	0.059843693
176	0x3d296590	0.041356623
177	0xbcd8d56d	-0.026468957
178	0xbd04c048	-0.032409936
179	0xbd75f934	-0.06005211
180	0x3db0f1e5	0.08639888
181	0x3d36bf5a	0.04461608
182	0x3dc7e5a3	0.097605966
183	0xbe9bf42f	-0.30459735
184	0xbd936aab	-0.0719808
185	0x3de096f6	0.109662935
186	0x3d936fce	0.071990594
187	0x3cbcc310	0.023042232
188	0x3d1a8450	0.03772384
189	0x3e417989	0.18894018
190	0x3e0f5797	0.13998257
191	0x3d93b028	0.072113335
192	0x3da9645b	0.082710944
193	0x3d8cafd4	0.06869474
194	0x3a76eea1	0.0009419714
195	0xbe563c4b	-0.20921437
196	0x3ca8160a	0.020518322
197	0xbc429e0a	-0.0118785
198	0x3dfa4558	0.122202575
199	0xbd9bfc7b	-0.07616516
200	0xbe9b25f8	-0.30302405
201	0x3d889676	0.06669323
202	0xbd15803b	-0.036499243
203	0x3e182020	0.14856005
204	0x3e0dd098	0.13849103
205	0x3d3df0ea	0.04637233
206	0x3d9c7ec0	0.07641363
207	0x3dad5b73	0.08464708
208	0x3ceed39d	0.02915364
209	0x3dcf4d53	0.1012217
210	0x3d0a27b2	0.033729263
211	0x3dd3987d	0.10331819
212	0xbe0b8362	-0.13624337
213	0xbd96c452	-0.07361664
214	0x3dae9a72	0.08525552
215	0x3dbc801f	0.09204125
216	0x3c561cda	0.013068402
217	0x3e159d9e	0.14610907
218	0x3c791d08	0.0152046755
219	0x3def934a	0.11698015
220	0xbd06fa3f	-0.032953497
221	0x3d35203e	0.0442202
222	0xbe077194	-0.1322692
223	0x3ea9258a	0.33036453
224	0xbe1aee8b	-0.1513006
225	0x3d3b1182	0.045670994
226	0x3dc3ae3b	0.09554716
227	0x3ddd7822	0.10813929
228	0xbd19f5be	-0.037587874
229	0x3dc4bee6	0.096067235
230	0x3db92c66	0.090416715
231	0x3de520d4	0.11187902
232	0x3d9a768c	0.07542142
233	0xbd4bfa40	-0.049799204
234	0xbd8927ab	-0.06697019
235	0x3e49dcba	0.19713107
236	0x3d46d9e9	0.04854766
237	0x3d8492d5	0.064733185
238	0x3e1120d8	0.14172685
239	0xbc4ebbcc	-0.012618016
240	0x3dce9ead	0.10088859
241	0xbda32e64	-0.07967833
242	0x3cb2c1c6	0.021820914
243	0x3db55a4e	0.08855115
244	0xbdecc5fe	-0.115612015
245	0x3bda348e	0.006659097
246	0xbd99d717	-0.07511728
247	0xbdf42104	-0.1192036
248	0xbd62e303	-0.055392276
249	0x3ca5fc9d	0.020262057
250	0x3ccd7dbd	0.02508437
251	0x3db6c0f9	0.08923525
252	0xbd1f1e01	-0.038846973
253	0x3e048ef9	0.12945165
254	0x3d8ea226	0.06964521
255	0x3da59b64	0.08086279
