mlartifacts/554351476986166068/ff6cb44ba8c343faa55b6e2fcee2dcbe/artifacts/models/Model_dim64_layers5_experiment/r2_score-0.0006916935666100669_run0/data/model.pth (torch, 294728 bytes, 13 tensors)

weight f4 [64, 801]
0.03362868 0.031224264 0.034995697 0.016202737 -0.01717557 0.029767025 -0.015798092 -0.016134735
0.011198271 0.024519071 -0.034488898 -0.0055164406 -0.011671303 -0.006460442 -0.0011406393 0.02006526
0.024113653 0.006178024 -0.024472745 0.005257387 0.014152835 -0.0020153958 -0.005730195 0.03457499
0.0062270556 -0.0026697905 0.022403669 0.003915347 -0.007248403 0.005585747 0.030237624 -0.032723423
-0.0124915065 -0.017880412 0.03119901 0.018002568 -0.008144918 -0.030552642 0.02160178 -0.010167651
-0.025534874 -0.011093577 0.032744434 0.025347475 -0.034241363 0.023365824 -0.021063557 0.026908722
0.0048421635 -0.008729129 0.0058112163 -0.026452756 -0.0287574 -0.01972231 0.012833566 0.011348322
-0.033584256 0.023153516 -0.0011366964 -0.034644626 -0.02414642 -0.016389541 0.029648352 0.01616759
0.023510346 -0.0057267905 0.03199984 -0.022912381 0.0035653398 -0.01592091 0.0009339845 -0.020312294
-0.03084344 0.008767965 0.003938611 0.009283568 0.028993806 0.02826789 0.019136794 0.01995521
0.026305629 -0.021576194 0.0171909 -0.025190312 -0.007228519 -0.029934099 -0.009515921 -0.03494656
-0.025325138 -0.020045554 0.021589914 0.028435444 0.034173552 -0.025300205 -0.028252536 0.011295371
0.030577073 -0.023963286 -0.0115461545 0.008565626 0.007880803 0.0021251182 0.032102346 -0.0065928027
-0.020046962 -0.027901305 0.0017139233 -0.025274796 0.023196446 -0.031573333 0.0006748101 -0.0035558334
-0.007260527 -0.02971711 -0.01738789 -0.026531493 0.011723167 -0.005826335 -0.025457788 0.009592142
0.014734221 0.025948329 0.020907247 -0.034840975 -0.03281435 -0.019763784 -0.019317914 0.019212643
-0.028326213 -0.00881125 0.0027568745 -0.010141362 0.022686407 0.018706439 -0.009265848 0.025821915
0.005519236 0.027750729 0.033261277 0.019097334 -0.0051692976 0.023919124 -0.029002277 -0.020822661
0.0038620695 0.014050505 -0.02795238 0.016260462 0.028477663 0.012837378 -0.007575413 0.009322816
-0.0014565102 0.02845042 -0.0048011835 0.031874835 -0.015540572 0.026723891 -0.017610982 -0.02756016
-0.013773185 -0.011193954 0.018271497 -0.033660375 -0.027540851 -0.020103477 -0.02841588 -0.0033861366
0.019992786 -0.011954586 0.00046664153 0.01248395 0.00010640902 -0.009764788 0.007282678 -0.008245525
-0.02893084 -0.0011456658 0.026101755 0.033513654 -0.007365797 -0.010131072 -0.029904628 -0.001689813
-0.018426508 0.016516134 -0.008422038 0.024225628 -0.007000876 -0.0057748496 0.030518387 0.025420658
0.029024623 0.022013174 -0.024910936 -0.0003453609 -0.0138636455 -0.025284646 0.004474841 -0.020719016
0.03152581 -0.0064250925 -0.0074211084 0.0035552904 -0.020646388 -0.023852922 0.011823873 0.022178104
0.008678059 -0.018361755 0.014438501 0.033290576 0.025621869 -0.0036654172 0.0002165577 0.023713935
-0.008950892 -0.015979715 -0.016292006 -0.026533496 -0.025880769 0.0061566066 -0.03331793 -0.015829915
0.03082819 0.0039273687 -0.032691464 0.032337967 -0.025054324 0.025423028 -0.030168708 -0.0027683915
0.0015021751 -0.031880684 -0.031851884 -0.007661865 -0.022381866 0.032541826 0.033491835 0.017552292
0.028627561 0.0036385613 -0.031342354 0.00043389594 -0.013660881 -0.015395823 -0.010855989 -0.03141854
0.035045218 0.015708817 0.028889405 -0.023625053 -0.015909756 0.0050462713 -0.030060306 0.0239713
00000000: 3abe 093d 07ca ff3c a657 0f3d 9abb 843c
00000010: c8b3 8cbc fad9 f33c 006b 81bc fe2c 84bc
00000020: f478 373c 38dc c83c 3b44 0dbd 42c3 b4bb
00000030: fe38 3fbc 1eb2 d3bb 8181 95ba e65f a43c
00000040: ff89 c53c 0671 ca3b 117b c8bc 2946 ac3b
00000050: 4be1 673c bb14 04bb 5cc4 bbbb 819e 0d3d
00000060: 540c cc3b a7f7 2ebb e687 b73c 504c 803b
00000070: 0384 edbb a408 b73b e5b4 f73c ff08 06bd
00000080: 2da9 4cbc f179 92bc 1195 ff3c 1f7a 933c
00000090: 4372 05bc 8949 fabc 37f6 b03c 3896 26bc
000000a0: 832e d1bc d6c1 35bc 071f 063d 82a5 cf3c
000000b0: ac40 0cbd af69 bf3c 7b8d acbc ae6f dc3c
000000c0: 03ab 9e3b 9f04 0fbc 046c be3b 73b3 d8bc
000000d0: a494 ebbc af90 a1bc e143 523c 50ee 393c
000000e0: a58f 09bd 71ac bd3c 34fd 94ba 86e7 0dbd
000000f0: b7ce c5bc 5c43 86bc 1ae1 f23c e571 843c
00000100: c598 c03c cda7 bbbb 4412 033d bfb2 bbbc
00000110: 7aa8 693b 916c 82bc a4d6 743a f865 a6bc
00000120: 62ab fcbc 83a7 0f3c 770f 813b 1b1a 183c
00000130: 6b84 ed3c 1092 e73c c4c4 9c3c 1c79 a33c
00000140: e77e d73c 8fc0 b0bc eed3 8c3c ea5b cebc
00000150: 36dd ecbb 5b38 f5bc aae8 1bbc 2024 0fbd
00000160: aa76 cfbc 9336 a4bc 55dd b03c 73f1 e83c
00000170: 91f9 0b3d 6042 cfbc dd71 e7bc 3810 393c
00000180: c57c fa3c a74e c4bc 152c 3dbc d756 0c3c
00000190: 7c1e 013c 9145 0b3b c07d 033d 7008 d8bb
000001a0: 8739 a4bc 4791 e4bc b9a5 e03a 170d cfbc
000001b0: 7906 be3c 0a53 01bd bde5 303a fc08 69bb
000001c0: b7e9 edbb 4c71 f3bc 0c71 8ebc 9358 d9bc
000001d0: 8712 403c d7ea bebb da8c d0bc 5c28 1d3c
000001e0: cd67 713c 9791 d43c ad45 ab3c 69b5 0ebd
000001f0: 5768 06bd a9e7 a1bc 9a40 9ebc d563 9d3c
00000200: 600c e8bc 105d 10bc aeac 343b f527 26bc
00000210: d8d8 b93c 3f3e 993c c9cf 17bc 7b88 d33c
00000220: b5da b43b 7f55 e33c fa3c 083d 0372 9c3c
00000230: 3663 a9bb 0af2 c33c 2f96 edbc 4994 aabc
00000240: c61a 7d3b 1734 663c 64fc e4bc a934 853c
00000250: fd49 e93c de53 523c 2c3b f8bb b9be 183c
00000260: 5fe8 beba db10 e93c 3f53 9dbb 308f 023d
00000270: e29d 7ebc 10ec da3c e844 90bc d8c5 e1bc
00000280: eda8 61bc d966 37bc 1bae 953c 76df 09bd
00000290: 5a9d e1bc 0cb0 a4bc 6bc8 e8bc f2e9 5dbb
000002a0: e9c7 a33c 2bdd 43bc 91a7 f439 7b89 4c3c
000002b0: e827 df38 7dfc 1fbc 88a3 ee3b 3d18 07bc
000002c0: 5e00 edbc 2a2a 96ba 59d3 d53c 9d45 093d
000002d0: c95c f1bb ccfc 25bc 8dfa f4bc b77c ddba
000002e0: 30f3 96bc d84c 873c 96fc 09bc d374 c63c
000002f0: 9b67 e5bb f33a bdbb b201 fa3c fc3e d03c
00000300: 0cc5 ed3c f954 b43c 0512 ccbc 8e11 b5b9
00000310: 5824 63bc bf21 cfbc b0a1 923b edba a9bc
00000320: 3521 013d 9589 d2bb c52c f3bb e0ff 683b
00000330: 9d22 a9bc 3467 c3bc ebb8 413c dbae b53c
00000340: 6b2e 0e3c 646b 96bc 768f 6c3c b35b 083d
00000350: f4e4 d13c 7f37 70bb c413 6339 ba43 c23c
00000360: c3a6 12bc e4e7 82bc d076 85bc c65c d9bc
00000370: e803 d4bc 5cbd c93b 6278 08bd bdad 81bc
00000380: 668b fc3c 28b1 803b 7ce7 05bd d174 043d
00000390: ba3e cdbc f443 d03c 5e24 f7bc e76d 35bb
000003a0: a2e4 c43a 5295 02bd 1f77 02bd 6210 fbbb
000003b0: 2d5a b7bc 944a 053d bc2e 093d d3c9 8f3c
000003c0: 5984 ea3c ee74 6e3b d760 00bd 877c e339
000003d0: e3d1 5fbc c33e 7cbc 51dd 31bc bab0 00bd
000003e0: 938b 0f3d c7af 803c 79a9 ec3c 5489 c1bc
000003f0: 2d55 82bc 315b a53b 0841 f6bc 765f c43c

bias f4 [64]
-0.029887293 -0.032158103 -0.032577798 -0.013010729 0.020108216 0.030714612 0.0015957798 -0.008198865
0.026522832 -0.005710741 0.0043798476 0.027859244 0.029693412 -0.033611394 -0.015345573 0.012402759
0.031395685 -6.812899e-05 -0.022795403 -0.017114613 0.017092723 -0.013751417 -0.017406525 0.027861774
0.014059404 0.030196121 -0.01898996 -0.001687418 -0.018575916 -0.0012027258 0.031299222 -0.022341337
0.017953621 -0.008962476 0.01774572 0.008448744 -0.025219621 -0.029182903 0.028798172 -0.027647285
0.00807551 0.032546494 -0.013830996 0.033102892 0.0048862286 -0.03424245 0.017259495 -0.016666971
-0.012039396 0.0039265146 -0.009228013 -0.015829133 -0.026103277 0.02181111 -0.0036288912 -0.010943548
0.0192751 0.02131444 -0.0010363318 0.020216895 -0.027190216 -0.030249905 0.034812327 -0.008372785
00000000: 32d6 f4bc 37b8 03bd 4c70 05bd f42a 55bc
00000010: fcb9 a43c 369d fb3c 7c29 d13a 8854 06bc
00000020: 6946 d93c 2b21 bbbb d384 8f3b 1239 e43c
00000030: 993f f33c 1aac 09bd 006c 7bbc f134 4b3c
00000040: c398 003d 79e0 8eb8 6dbd babc f233 8cbc
00000050: 0a06 8c3c a04d 61bc 2198 8ebc 603e e43c
00000060: 6a59 663c db5d f73c d590 9bbc 5a2c ddba
00000070: 852c 98bc c8a4 9dba 9d33 003d 2e05 b7bc
00000080: 7913 933c 59d7 12bc 795f 913c 9a6c 0a3c
00000090: 6199 cebc fc10 efbc 25ea eb3c 8f7c e2bc
000000a0: 254f 043c 794f 053d 679b 62bc e696 073d
000000b0: a81c a03b d041 0cbd c963 8d3c 2c89 88bc
000000c0: e340 45bc fea9 803b 1831 17bc 19ac 81bc
000000d0: 8ad6 d5bc 37ad b23c b1d2 6dbb 914c 33bc
000000e0: d1e6 9d3c 9f9b ae3c 86d5 87ba e79d a53c
000000f0: 04be debc a6ce f7bc 5f97 0e3d 012e 09bc

weight f4 [64, 64]
0.077748135 -0.11842974 -0.041148968 -3.9673174e-05 0.06348556 0.016158655 0.043984056 -0.022625742
-0.094257355 0.07937807 0.013696564 0.032908097 -0.0127997445 0.11780941 -0.03748015 0.062138047
0.11950956 -0.034733623 -0.10113544 0.07374263 0.10280062 0.08217585 -0.11883742 0.0041677826
-0.032438196 0.10790708 -0.010495736 -0.11321956 0.044038277 -0.05125169 0.07442095 -0.09332686
0.057142638 0.10342574 -0.09961505 -0.07856286 0.0075442293 -0.10340155 -0.090772085 0.07151997
0.041644637 -0.05846296 0.063977204 0.115673535 -0.044733506 0.011336442 0.09364562 -0.07195849
0.0545368 0.09501893 0.124777704 0.020422254 0.0009122938 0.06343942 -0.030439666 -0.025102653
0.072327524 0.055549636 0.091639355 0.12463297 -0.10333254 0.061177984 -0.0749122 -0.047988776
0.090973794 0.105699144 -0.032231055 0.037719063 -0.1195046 0.109983265 0.05413697 -0.07240522
0.09758642 0.018836807 0.08743972 0.07992539 -0.06629987 0.02974111 -0.04389297 -0.102179565
0.034720544 -0.017525699 -0.12021942 0.038931184 -0.0003926771 -0.034711104 0.07665216 -0.013933277
0.12198678 0.08589825 -0.07997464 0.0183756 0.12142642 -0.0377543 -0.08290816 -0.103084125
-0.033927303 0.055499043 -0.10251774 -0.007547726 -0.095065966 -0.043840393 -0.049178816 0.020465804
0.090030156 -0.107530236 -0.12165464 -0.09677343 0.090257905 -0.030346693 0.006154699 -0.10405382
0.03021958 -0.057292357 0.047744125 0.05140094 0.12409511 -0.04304577 -0.023669446 0.10831305
-0.07227517 0.015985163 0.006843446 0.08614469 -0.023447162 0.070191965 0.012265862 0.05539078
-0.033017777 -0.07997647 0.0017973813 -0.0024277193 -0.050940745 -0.029143492 -0.06515534 -0.043505277
0.10397627 -0.039927132 -0.06929279 -0.031243544 0.10794466 0.08950116 -0.09692508 -0.06925719
-0.037492704 0.050369937 0.0851967 0.050410263 -0.118804835 0.109165505 -0.12445345 0.09834236
0.050387807 0.12354938 -0.041632347 0.002200773 0.07864112 0.009096434 0.039656214 -0.10112558
0.05673662 0.1188434 0.06925561 0.031945396 0.08331574 -0.011470605 -0.115310125 -0.11679215
-0.05561431 -0.016936641 0.037929464 -0.05932685 -0.08227144 0.10744639 0.061400816 0.10762746
0.0790096 -0.08322073 0.031891264 -0.06644817 -0.102908276 0.011052765 0.0010787138 -0.10771251
-0.014955723 -0.07778376 -0.07535198 0.07280013 -0.037113152 0.12220523 0.07293445 -0.117721364
-0.0021157956 -0.07089343 -0.09921922 -0.07896163 0.09094004 0.07676098 -0.1198573 -0.03976419
-0.08944592 0.1000552 -0.11140476 0.09060799 -0.08065594 -0.022701925 0.029290428 -0.005922181
-0.0081626475 -0.09791955 -0.07283606 0.034017004 0.07630471 -0.062606335 -0.03146401 -0.0028446303
-0.0019781492 -0.028924968 0.063002974 0.05827586 0.07696693 -0.095814794 -0.028623577 0.043678254
0.05429555 0.09403594 0.068105884 0.05114855 -0.069559254 -0.07040987 -0.11727795 0.0663398
-0.060791023 -0.03763479 -0.03783704 -0.04573745 0.11383861 -0.0015051147 -0.025656085 -0.042431835
-0.020150721 0.07944066 -0.09438601 0.11063318 0.07584603 -0.010790646 0.11808539 -0.12266129
-0.012182167 -0.018042998 0.12326995 0.02212796 -0.11574119 -0.07346472 -0.0451721 -0.11712163
00000000: 6a3a 9f3d 4b8b f2bd d28b 28bd bf66 26b8
00000010: b804 823d 285f 843c a028 343d 9f59 b9bc
00000020: 000a c1bd f890 a23d 8e67 603c a4ca 063d
00000030: 05b6 51bc 0f46 f13d c984 19bd 7784 7e3d
00000040: 6ec1 f43d d844 0ebd 1920 cfbd 6006 973d
00000050: 2289 d23d d04b a83d 0961 f3bd e591 883b
00000060: eadd 04bd 63fe dc3d 4ff6 2bbc a8df e7bd
00000070: 7b61 343d 4bed 51bd 036a 983d 2722 bfbd
00000080: 660e 6a3d e0d0 d33d fa02 ccbd 91e5 a0bd
00000090: 9535 f73b 31c4 d3bd b7e6 b9bd 1079 923d
000000a0: 9193 2a3d db76 6fbd 7b06 833d 3fe6 ec3d
000000b0: 7b3a 37bd 7cbc 393c 46c9 bf3d f95e 93bd
000000c0: fb61 5f3d 4999 c23d 748b ff3d 924c a73c
000000d0: 0027 6f3a 87ec 813d 9b5c f9bc 14a4 cdbc
000000e0: 7420 943d 0488 633d 6aad bb3d 923f ff3d
000000f0: 03a0 d3bd c495 7a3d 916b 99bd e18f 44bd
00000100: 7850 ba3d cb78 d83d b604 04bd 4e7f 1a3d
00000110: d4be f4bd e83e e13d babe 5d3d 3049 94bd
00000120: 64db c73d a64f 9a3c 9913 b33d ecaf a33d
00000130: 3ac8 87bd a1a3 f33c 1dc9 33bd 8543 d1bd
00000140: 2137 0e3d 0e92 8fbc 9935 f6bd 4e76 1f3d
00000150: 3ae0 cdb9 3b2d 0ebd cffb 9c3d 6648 64bc
00000160: 34d4 f93d 6ceb af3d bec9 a3bd 6d88 963c
00000170: 6aae f83d 41a4 1abd c1cb a9bd c51d d3bd
00000180: 5bf7 0abd f752 633d d2f4 d1bd ea52 f7bb
00000190: f2b1 c2bd fc91 33bd ba6f 49bd e7a7 a73c
000001a0: bb61 b83d d038 dcbd 1126 f9bd 2631 c6bd
000001b0: 23d9 b83d a199 f8bc 5bad c93b 2b1a d5bd
000001c0: 0d8f f73c 64ab 6abd 588f 433d cb89 523d
000001d0: 9425 fe3d c350 30bd 6de6 c1bc 3bd3 dd3d
000001e0: 0105 94bd 51f3 823c fc3e e03b a16c b03d
000001f0: 4314 c0bc cec0 8f3d c1f6 483c 71e1 623d
00000200: a63d 07bd b4ca a3bd 1c96 eb3a 5f1a 1fbb
00000210: 3ea7 50bd 55be eebc 2a70 85bd 9732 32bd
00000220: 83f1 d43d a28a 23bd 61e9 8dbd 76f2 ffbc
00000230: 1712 dd3d 624c b73d a880 c6bd b7d6 8dbd
00000240: f391 19bd b550 4e3d 9c7b ae3d fe7a 4e3d
00000250: f34f f3bd 2a92 df3d 73e1 febd b867 c93d
00000260: 7263 4e3d 7507 fd3d ae86 2abd d83a 103b
00000270: 980e a13d 3609 153c 8e6e 223d ee1a cfbd
00000280: a864 683d 2b64 f33d e3d5 8d3d 2dd9 023d
00000290: 71a1 aa3d 34ef 3bbc b727 ecbd b930 efbd
000002a0: d5cb 63bd b6be 8abc ed5b 1b3d b600 73bd
000002b0: ee7d a8bd da0c dc3d 6c7f 7b3d c96b dc3d
000002c0: c9cf a13d a16f aabd 6aa0 023d fa15 88bd
000002d0: 93c1 d2bd a816 353c a163 8d3a 6098 dcbd
000002e0: d908 75bc 184d 9fbd 2452 9abd 3c18 953d
000002f0: f603 18bd bc46 fa3d a85e 953d e617 f1bd
00000300: 29a9 0abb 9330 91bd 7233 cbbd a3b6 a1bd
00000310: c63e ba3d dc34 9d3d be77 f5bd c6df 22bd
00000320: 6c2f b7bd bee9 cc3d 2e28 e4bd af90 b93d
00000330: f12e a5bd 63f9 b9bc 7bf2 ef3c db0e c2bb
00000340: a0bc 05bc 0c8a c8bd 122b 95bd 6a55 0b3d
00000350: a545 9c3d c037 80bd 68e0 00bd fa6c 3abb
00000360: d6a3 01bb 0ef4 ecbc b407 813d abb2 6e3d
00000370: d6a0 9d3d 8c3a c4bd fe7b eabc f8e7 323d
00000380: 0365 5e3d ea95 c03d 197b 8b3d 2481 513d
00000390: 1575 8ebd 0d33 90bd 6c2f f0bd 29dd 873d
000003a0: 0200 79bd f026 1abd 03fb 1abd 3157 3bbd
000003b0: 3824 e93d 4547 c5ba b62c d2bc 01cd 2dbd
000003c0: 2013 a5bc c9b1 a23d 744d c1bd a693 e23d
000003d0: 2a55 9b3d 40cb 30bc c1d6 f13d d835 fbbd
000003e0: b697 47bc e9ce 93bc f574 fc3d b245 b53c
000003f0: b809 edbd ac74 96bd 6106 39bd 77dd efbd

bias f4 [64]
0.047626574 0.0124813765 0.058151174 0.12154571 0.12105798 -0.042956907 -0.120991364 -0.040068563
-0.09557742 -0.05074525 0.049530033 -0.11256695 0.077861406 -0.106810294 0.021367855 0.11345315
-0.027610412 0.015652476 0.10362599 -0.032404922 -0.06498339 -0.072227225 0.0410775 0.023202522
0.08830489 -0.049157917 0.058187563 0.037369564 -0.034030356 -0.042299386 -0.08792722 0.07372568
0.04090413 0.11870642 -0.045253318 -0.02217421 0.014917763 -0.0047284877 -0.045246635 -0.06041047
-0.02065529 -0.050699487 -0.06672739 0.08729809 -0.055553813 -0.05468548 -0.07979841 0.090862855
-0.024318472 -0.04734894 -0.0040490814 -0.0022706608 -0.08687215 -0.010977443 0.0004050876 -0.009541688
0.08883187 -0.05948564 -0.1149703 0.0010350987 0.08897846 0.05922018 0.017501233 -0.10107387
00000000: 1514 433d b07e 4c3c ed2f 6e3d f5ec f83d
00000010: 3fed f73d 95f3 2fbd 52ca f7bd ef1e 24bd
00000020: 18be c3bd 40da 4fbd 01e0 4a3d 8089 e6bd
00000030: cd75 9f3d 5bbf dabd a40b af3c 205a e83d
00000040: 3b2f e2bc 9f39 803c dd39 d43d 06bb 04bd
00000050: 0316 85bd deeb 93bd e140 283d 3713 be3c
00000060: 32d9 b43d d059 49bd 1556 6e3d d410 193d
00000070: 6a63 0bbd 1f42 2dbd 3013 b4bd 7dfd 963d
00000080: 178b 273d 5a1c f33d 8b5b 39bd b0a6 b5bc
00000090: a269 743c 6ef1 9abb 8954 39bd f870 77bd
000000a0: 4835 a9bc 44aa 4fbd 5fa8 88bd 57c9 b23d
000000b0: 658c 63bd e2fd 5fbd 596d a3bd 4e16 ba3d
000000c0: 8837 c7bc f6f0 41bd 28ae 84bb 5ecf 14bb
000000d0: 07ea b1bd bcda 33bc f061 d439 bd54 1cbc
000000e0: 7ced b53d 37a7 73bd 8c75 ebbd 26ac 873a
000000f0: 573a b63d dc90 723d bf5e 8f3c d1ff cebd

weight f4 [64, 64]
0.07766855 0.000910064 -0.10389522 -0.10515382 0.010160988 0.05794578 -0.021078307 0.023873879
-0.11485689 0.0015964473 -0.050023757 0.11813175 0.06830324 0.03041005 0.11569356 0.05591768
0.087282784 -0.042673167 -0.04758353 -0.022886451 -0.120658666 0.086302966 0.00015005993 0.11993805
-0.0036291576 0.08885122 -0.075329095 0.088487595 0.089289546 0.0840037 -0.0715007 -0.092294805
0.028534273 -0.086179964 -0.00027983118 -0.077974446 -0.08238877 0.11700376 0.07055076 -0.048579264
-0.017133677 0.0023444588 0.055593546 -0.08381553 0.066923656 -0.09428831 -0.02686115 -0.093902506
-0.12382939 -0.054964602 -0.010191303 -0.02022887 0.11737106 -0.10108659 -0.023423877 0.056175217
-0.08498025 0.10247864 0.024642028 -0.058056496 -0.092404276 0.09930002 0.052189335 0.055293433
-0.08535344 0.09808037 -0.011539485 -0.041294027 -0.00813514 0.031483456 0.09812783 0.013913269
-0.054271888 0.0012498569 -0.05890308 0.07767533 0.05137244 -0.024010904 0.0892578 -0.07761797
-0.023311622 0.11616702 0.039371885 -0.0568464 0.035199996 0.053781465 -0.020377243 -0.115568034
-0.017377494 0.0849215 -0.10878303 -0.09123938 -0.058150355 0.11050082 0.08431088 -0.011347798
-0.070615284 0.05705787 0.03043418 -0.04333139 -0.030826407 -0.08418428 0.04974799 -0.10506907
-0.1093908 0.0904031 0.06552162 -0.10036977 0.09238586 0.10388386 -0.039438955 -0.0827608
0.033425357 0.029345674 0.11015386 -0.070633195 0.059696227 0.05786293 -0.08462072 -0.00542046
-0.077367246 0.021294901 -0.06661657 -0.019183856 0.1219572 -0.029573303 -0.0047908714 0.086580984
0.025511043 -0.108208135 -0.10125781 -0.087258354 0.05207654 0.0023050155 -0.087339 -0.013843585
-0.11691384 -0.074531004 -0.046817243 0.012088735 -0.12056058 -0.0049388725 0.12291229 0.10900767
-0.050035223 0.111915365 -0.005151083 0.11609459 -0.09766561 0.034010213 0.08904064 0.092975765
-0.113519244 0.016122758 0.06599029 -0.03584958 0.054566782 0.08952232 -0.054970067 -0.038831588
-0.07160424 -0.05869706 -0.07287797 0.11548827 -0.08558286 0.062485725 0.08020613 -0.12275596
-0.07137421 -0.042203087 0.0789974 0.02827303 -0.021446092 -0.06594851 -0.065100774 -0.07128221
0.047559205 0.117547445 -0.01920296 0.03276829 0.066237025 -0.07764167 0.06287867 0.079503015
0.04939917 -0.017897526 -0.105136395 -0.03601676 0.03488561 0.023355516 -0.11285683 0.02780906
-0.108623825 -0.0311528 -0.03656415 0.023151673 0.049946725 0.0074859764 -0.038987406 0.011450853
-0.0806135 -0.021132017 0.10398579 -0.004214972 0.067071475 -0.11513625 -0.06425373 -0.11783038
0.1042165 -0.047173545 -0.10771285 0.016852302 0.06763033 0.023504026 -0.062532306 0.10182764
-0.069719814 0.005947871 0.055060502 -0.06446314 -0.0636227 0.03705571 -0.10374786 -0.026793681
0.030375544 0.06975665 0.0015994529 0.10303402 -0.07424174 -0.10581459 -0.108372085 -0.10203974
0.055600952 -0.07451174 0.001427568 -0.077288195 0.066427715 -0.12147838 0.051863447 -0.047692955
-0.040142346 -0.119729504 0.06949178 0.05472825 -0.09513362 0.021398881 -0.043506254 -0.0787645
0.09413032 -0.053480297 0.0024854385 -0.021113465 0.07547322 0.03526629 -0.013231795 -0.028626781
00000000: b010 9f3d 5c91 6e3a 04c7 d4bd e35a d7bd
00000010: 467a 263c 8e58 6d3d 6aac acbc 2793 c33c
00000020: 173a ebbd e23f d13a b6e5 4cbd 0fef f13d
00000030: 92e2 8b3d 7f1e f93c bff0 ec3d f009 653d
00000040: 51c1 b23d 0fca 2ebd f3e6 42bd 5e7c bbbc
00000050: e41b f7bd 9cbf b03d 6859 1d39 15a2 f53d
00000060: 29d7 6dbb a1f7 b53d 2446 9abd fc38 b53d
00000070: 70dd b63d 220a ac3d f66e 92bd 0f05 bdbd
00000080: b5c0 e93c 1f7f b0bd 4eb6 92b9 11b1 9fbd
00000090: 72bb a8bd ab9f ef3d eb7c 903d 0dfb 46bd
000000a0: ed5b 8cbc 7ea5 193b 0fb6 633d 7aa7 abbd
000000b0: 450f 893d 3b1a c1bd ea0b dcbc f54f c0bd
000000c0: 439a fdbd 9022 61bd 6cf9 26bc 04b7 a5bc
000000d0: 3d60 f03d 7c06 cfbd 6ee3 bfbc fc17 663d
000000e0: 200a aebd 52e0 d13d 14de c93c a6cc 6dbd
000000f0: 743e bdbd cf5d cb3d 7cc4 553d 5e7b 623d
00000100: c9cd aebd 5cde c83d 1c10 3dbc ed23 29bd
00000110: 4049 05bc ccf4 003d 3ef7 c83d 7bf4 633c
00000120: 334c 5ebd 3dd2 a33a 5b44 71bd 3e14 9f3d
00000130: e86b 523d 84b2 c4bc cbcc b63d 2cf6 9ebd
00000140: 04f8 bebc f9e8 ed3d 6a44 213d c5d7 68bd
00000150: df2d 103d f449 5c3d 2dee a6bc efae ecbd
00000160: 3f5b 8ebc 53eb ad3d a3c9 debd b6db babd
00000170: 112f 6ebd 414e e23d 2fab ac3d 1dec 39bc
00000180: bf9e 90bd 83b5 693d 1a51 f93c 417c 31bd
00000190: a987 fcbc cf68 acbd 8cc4 4b3d 742e d7bd
000001a0: 4908 e0bd 4325 b93d 3330 863d aa8e cdbd
000001b0: cc34 bd3d 10c1 d43d be8a 21bd 7f7e a9bd
000001c0: 07e9 083d 5766 f03c 5998 e13d 23a8 90bd
000001d0: 0884 743d ae01 6d3d a14d adbd 1d9e b1bb
000001e0: b872 9ebd a572 ae3c 456e 88bd 7627 9dbc
000001f0: b2c4 f93d b643 f2bc befc 9cbb 5f51 b13d
00000200: 89fc d03c 3a9c ddbd 4160 cfbd 82b4 b2bd
00000210: 364e 553d be0f 173b cade b2bd 34d0 62bc
00000220: 8670 efbd b6a3 98bd 70c3 3fbd d40f 463c
00000230: 77e8 f6bd 44d6 a1bb 70b9 fb3d 6a3f df3d
00000240: bcf1 4cbd e233 e53d 6bca a8bb 00c3 ed3d
00000250: e804 c8bd 4b4e 0b3d f05a b63d 146a be3d
00000260: c77c e8bd e013 843c eb25 873d 02d7 12bd
00000270: 6b81 5f3d 7a57 b73d 4b28 61bd df0d 1fbd
00000280: 3ea5 92bd 546c 70bd 0c41 95bd 1d85 ec3d
00000290: 1146 afbd 08f1 7f3d 1d43 a43d 7a67 fbbd
000002a0: a42c 92bd 25dd 2cbd 64c9 a13d d79c e73c
000002b0: b7af afbc 0310 87bd 8e53 85bd 68fc 91bd
000002c0: 71cd 423d b7bc f03d 874f 9dbc 0b38 063d
000002d0: 47a7 873d 9902 9fbd 88c6 803d 7ad2 a23d
000002e0: c956 4a3d d59d 92bc c051 d7bd 4f86 13bd
000002f0: 37e4 0e3d 1154 bf3c 7b21 e7bd d3cf e33c
00000300: 2b76 debd 2834 ffbc 4ac4 15bd 94a8 bd3c
00000310: f094 4c3d ec4c f53b 42b1 1fbd 5c9c 3b3c
00000320: b118 a5bd 0d1d adbc 80f6 d43d bf1d 8abb
00000330: c55c 893d 8ecc ebbd 7697 83bd 0e51 f1bd
00000340: 766f d53d 0c39 41bd 8e98 dcbd d70d 8a3c
00000350: c581 8a3d 848b c03c f010 80bd 028b d03d
00000360: 43c9 8ebd 5ce6 c23b 1f87 613d 4005 84bd
00000370: 9e4c 82bd bac7 173d c279 d4bd 6c7e dbbc
00000380: 22d6 f83c 93dc 8e3d bca4 d13a 8003 d33d
00000390: 0e0c 98bd 52b5 d8bd 2ff2 ddbd 36fa d0bd
000003a0: d3bd 633d 9c99 98bd 3c1d bb3a 4649 9ebd
000003b0: 410b 883d a8c9 f8bd c46e 543d b059 43bd
000003c0: 4d6c 24bd be34 f5bd b551 8e3d bb2a 603d
000003d0: 6ad5 c2bd b54c af3c 9d33 32bd 484f a1bd
000003e0: 66c7 c03d 280e 5bbd bde2 223b 25f6 acbc
000003f0: b491 9a3d 6373 103d 2cca 58bc b682 eabc

bias f4 [64]
0.12411977 -0.07205212 0.022631489 -0.10930733 0.12331414 0.07230228 -0.110172816 0.032880284
-0.09494059 0.07362853 -0.026396587 -0.111707404 0.0719099 -0.11498608 -0.08184709 0.10507347
0.037540734 -0.00895187 -0.06896677 0.09182893 0.10336864 0.05000002 0.045368038 -0.099535964
-0.030215235 0.008601725 0.07490786 0.097025275 0.026661284 -0.02204447 -0.001273304 0.12012875
0.099639274 -0.03453631 -0.029347273 -0.11889688 0.03950768 0.050046142 -0.0010212674 0.11391428
0.087852366 -0.05095403 -0.024508946 -0.051541556 9.056131e-05 0.0714642 0.009266238 -0.06973262
-0.08457584 0.052369647 -0.0133367805 0.085812114 0.04197595 -0.12154733 -0.108096614 -0.12275832
0.002610966 -0.08755385 0.015061474 0.0030630392 0.10954443 0.0030473943 0.0626619 0.10382419
00000000: 8232 fe3d 1090 93bd ac65 b93c 85dc dfbd
00000010: 208c fc3d 3813 943d 49a2 e1bd 7aad 063d
00000020: 3670 c2bd 8eca 963d a83d d8bc dac6 e4bd
00000030: 7f45 933d d27d ebbd 729f a7bd c230 d73d
00000040: 50c4 193d ddaa 12bc 733e 8dbd ce10 bc3d
00000050: f0b2 d33d d2cc 4c3d d6d3 393d 83d9 cbbd
00000060: f185 f7bc 40ee 0c3c 4b69 993d 30b5 c63d
00000070: c468 da3c 9b96 b4bc fee4 a6ba 1006 f63d
00000080: ad0f cc3d f275 0dbd b169 f0bc 3580 f3bd
00000090: ced2 213d 2ffd 4c3d 0cdc 85ba e44b e93d
000000a0: f1eb b33d 2cb5 50bd fcc6 c8bc 3d1d 53bd
000000b0: bceb bd38 d35b 923d 6bd1 173c facf 8ebd
000000c0: 1936 adbd 8e81 563d 8382 5abc 43be af3d
000000d0: f9ee 2b3d ceed f8bd c261 ddbd b768 fbbd
000000e0: be1c 2b3b 6f4f b3bd 67c4 763c 45bd 483b
000000f0: d558 e03d cbb6 473b e254 803d c7a1 d43d

weight f4 [64, 64]
-0.014591485 -0.017747832 -0.06188265 -0.1176719 -0.106220156 0.054302897 0.06334871 0.007835418
0.07453208 0.06939494 -0.07629344 0.083170645 -0.013427537 0.08346733 0.04704523 0.070389025
-0.12003103 -0.06842538 0.041871462 -0.033121597 0.044244397 0.045643598 0.0073662912 -0.060758747
-0.030425746 -0.029601898 0.050540715 -0.038188584 -0.032968413 0.12406498 0.061007448 -0.052000105
0.07628362 0.04858786 -0.08664516 -0.070013456 -0.08764588 0.04603088 -0.064272776 0.12406151
-0.006069733 0.024463631 -0.08881647 -0.04899314 -0.10651334 -0.025784425 0.08401752 -0.021898488
0.026296102 0.11910779 0.066211216 0.115463756 0.08464063 0.025713153 0.07771905 -0.023748629
-0.104393035 -0.09903246 0.059909165 0.02398675 0.08464176 0.11135369 -0.042129654 -0.103227496
-0.033139404 -0.12232013 0.0736966 -0.029626664 -0.01744528 -0.07966312 -0.042968575 -0.07775678
-0.08403245 0.07585026 -0.071612045 -0.05777323 -0.06419732 -0.11663489 0.07467641 -0.11978468
0.043943036 0.12346222 0.11036608 0.023546614 -0.025062434 0.12404163 -0.0653162 -0.040366042
0.08421367 -0.10831071 0.097788036 -0.043430153 0.11929915 -0.080708556 0.037285827 -0.023399882
-0.06165797 0.019648787 -0.11352711 0.0282586 -0.011545684 0.08245129 0.0059780907 0.0016193907
0.055405032 -0.00892557 0.09245677 0.05823015 0.08582354 0.007647191 0.017724274 -0.03951072
-0.11653855 0.09763807 0.072505 0.023665033 0.011469271 0.069497176 0.10187657 -0.1148759
-0.027263245 0.08337731 0.06400938 -0.08642899 -0.024252735 -0.009257479 0.057311896 -0.008054018
0.01841138 0.07318863 -0.10152131 0.07330896 0.054307338 0.050618112 -0.036847837 -0.11580308
-0.052671522 -0.078142226 0.071251 0.11475142 -0.09699713 -0.095809326 -0.08245122 0.0017882462
0.12141147 -0.07121631 0.020872021 0.07858561 0.12389769 -0.093934566 0.010398296 0.078302324
-0.033648815 -0.03993963 0.010765654 -0.072764814 -0.008021802 0.121016316 -0.06121292 0.009462295
-0.070367284 0.1041207 -0.08926337 0.062390238 -0.0156921 -0.058183853 0.04985109 -0.0058567207
-0.058507815 0.07328375 0.039450757 0.12449844 -0.053129047 -0.03330965 -0.11558906 0.023471288
-0.020254502 0.122943886 -0.056459952 -0.11420996 -0.015508495 0.05693768 -0.095087424 0.06797012
0.0038111084 0.10668664 0.05814934 -0.10798055 -0.09419823 -0.029046359 0.029036554 0.094398856
-0.09115633 -0.108779244 -0.068315595 -0.024903245 0.098391265 -0.011347385 0.053604722 -0.0024473346
0.029396309 0.10488352 -0.084677815 0.10304518 0.09565416 -0.11790599 0.072441064 -0.08342714
0.06668179 -0.027052382 0.041593987 0.10379989 -0.0062753856 0.04075553 0.10801152 -0.114881866
-0.06838713 0.07459541 -0.05577942 0.08776033 -0.016837697 0.06817815 0.04436942 -0.09766456
0.0770845 -0.098853886 -0.11803235 -0.07820988 0.032343138 0.09239991 0.10742545 -0.0302548
0.07424988 -0.08246835 -0.028629374 0.02859765 -0.0006790569 0.119163394 -0.022542253 0.12210559
0.03462037 0.00013077453 0.009740427 -0.033068486 -0.024922973 -0.09385525 -0.01379476 -0.10644825
0.010108395 0.07955945 0.0630197 -0.056143712 -0.022442348 0.05734215 0.10012115 0.023125172
00000000: 2011 6fbc e763 91bc a978 7dbd f7fd f0bd
00000010: f489 d9bd b76c 5e3d f8bc 813d 2060 003c
00000020: 46a4 983d ef1e 8e3d bc3f 9cbd 5f55 aa3d
00000030: 2cff 5bbc ebf0 aa3d 80b2 403d 1f28 903d
00000040: d4d2 f5bd 9b22 8cbd 6981 2b3d 83aa 07bd
00000050: 9d39 353d c8f4 3a3d ee60 f13b 2ade 78bd
00000060: 6a3f f9bc ae7f f2bc c803 4f3d a26b 1cbd
00000070: e309 07bd c815 fe3d f2e2 793d 10fe 54bd
00000080: 963a 9c3d 1004 473d 0573 b1bd 3763 8fbd
00000090: af7f b3bd e08a 3c3d 72a1 83bd f613 fe3d
000000a0: 9ce4 c6bb f467 c83c 69e5 b5bd 08ad 48bd
000000b0: aa23 dabd dc39 d3bc 6111 ac3d 7564 b3bc
000000c0: ec6a d73c c9ee f33d bf99 873d 4378 ec3d
000000d0: 1158 ad3d 64a4 d23c 2a2b 9f3d 7c8c c2bc
000000e0: 04cc d5bd 88d1 cabd 5063 753d dc7f c43c
000000f0: a958 ad3d 670d e43d 2590 2cbd f068 d3bd
00000100: 2fbd 07bd fa82 fabd 3eee 963d 9eb3 f2bc
00000110: 67e9 8ebc 6b26 a3bd d1ff 2fbd f23e 9fbd
00000120: 3519 acbd 6257 9b3d 56a9 92bd 9fa3 6cbd
00000130: e279 83bd 46de eebd f2ef 983d ac51 f5bd
00000140: 9dfd 333d c3d9 fc3d 9d07 e23d d4e4 c03c
00000150: bc4f cdbc 8a09 fe3d 80c4 85bd dd56 25bd
00000160: 3778 ac3d 01d2 ddbd 1845 c83d d1e3 31bd
00000170: 1d53 f43d 874a a5bd 06b9 183d 1cb1 bfbc
00000180: 118d 7cbd 7ef6 a03c e780 e8bd 947e e73c
00000190: 1c2a 3dbc 39dc a83d dce3 c33b bc41 d43a
000001a0: 63f0 623d 8e3c 12bc fa59 bd3d bd82 6e3d
000001b0: 41c4 af3d 4a95 fa3b 7f32 913c fed5 21bd
000001c0: c3ab eebd 78f6 c73d 807d 943d 2cdd c13c
000001d0: 9ce9 3b3c 8954 8e3d aaa4 d03d 0e44 ebbd
000001e0: 2b57 dfbc b9c1 aa3d 5a17 833d af01 b1bd
000001f0: acad c6bc aeac 17bc e1bf 6a3d 00f5 03bc
00000200: 76d3 963c ece3 953d 68ea cfbd 0223 963d
00000210: 5f71 5e3d f054 4f3d c2ed 16bd 2a2a edbd
00000220: 18be 57bd 0809 a0bd 0bec 913d cb02 eb3d
00000230: 6ea6 c6bd ae37 c4bd 2fdc a8bd 9663 ea3a
00000240: 94a6 f83d dbd9 91bd cdfb aa3c 7ef1 a03d
00000250: 12be fd3d c460 c0bd 9d5d 2a3c f85c a03d
00000260: 57d3 09bd bd97 23bd 6d62 303c b805 95bd
00000270: e06d 03bc 67d7 f73d 66ba 7abd be07 1b3c
00000280: b91c 90bd 3c3d d53d b7cf b6bd e88c 7f3d
00000290: b88c 80bc 3152 6ebd a830 4c3d bce9 bfbb
000002a0: e4a5 6fbd ca15 963d 1e97 213d 0af9 fe3d
000002b0: d89d 59bd b36f 08bd f5b9 ecbd dc46 c03c
000002c0: c5ec a5bc 01ca fb3d 8d42 67bd e9e6 e9bd
000002d0: 5817 7ebc 7c37 693d 32bd c2bd eb33 8b3d
000002e0: cac3 793b 867e da3d 012e 6e3d e824 ddbd
000002f0: 00eb c0bd a1f2 edbc 11de ed3c 3054 c13d
00000300: 2cb0 babd a7c7 debd 0ce9 8bbd e401 ccbc
00000310: 5c81 c93d 62ea 39bc a090 5b3d 7663 20bb
00000320: 87d0 f03c 2ccd d63d 906b adbd 5a09 d33d
00000330: 54e6 c33d b278 f1bd fb5b 943d d9db aabd
00000340: 7690 883d f59c ddbc 755e 2a3d 0995 d43d
00000350: c0a1 cdbb 45ef 263d 2535 dd3d 2f47 ebbd
00000360: 8d0e 8cbd 7ac5 983d f678 64bd b0bb b33d
00000370: 36ef 89bc fca0 8b3d b5bc 353d 5b04 c8bd
00000380: 7ade 9d3d e873 cabd f2ba f1bd 802c a0bd
00000390: 3d7a 043d 2a3c bd3d e001 dc3d ead8 f7bc
000003a0: 5210 983d 2be5 a8bd 2688 eabc 9e45 ea3c
000003b0: bd02 32ba f00b f43d 88aa b8bc 7f12 fa3d
000003c0: 17ce 0d3d 8520 0939 5096 1f3c d272 07bd
000003d0: 432b ccbc 2e37 c0bd 6b03 62bc 8a01 dabd
000003e0: ae9d 253c 11f0 a23d 7910 813d f3f6 65bd
000003f0: 04d9 b7bc 9adf 6a3d 510c cd3d 0071 bd3c

bias f4 [64]
-0.11051231 -0.062775806 -0.095721096 -2.3719303e-05 -0.07362814 0.022790287 0.052576 -0.039222132
0.04004869 -0.029992484 -0.053656906 0.09985927 0.050595112 -0.0012923551 -0.102035336 0.100649394
-0.002700794 -0.07590768 0.04674044 -0.07786812 -0.09889043 -0.041165203 -0.024430819 0.049617205
0.051520508 -0.109269105 -0.04552912 0.044211593 -0.024232298 -0.07333888 -0.010968957 -0.01622434
-0.052594274 0.008399625 0.0042924364 0.05974929 -0.043183256 -0.012216713 0.057518367 0.020119822
-0.10038374 -0.0401488 -0.07888974 0.03339122 -0.08585448 -0.07544044 0.051747117 -0.032549128
0.05518795 -0.08805274 0.06183781 -0.058020376 0.052886836 0.10385642 -0.119371414 0.06684197
-0.08745948 0.023679813 -0.09947337 0.06058551 -0.10281327 0.0921404 0.07212593 -0.101334736
00000000: 4754 e2bd 9a90 80bd 6c09 c4bd d1f8 c6b7
00000010: 5aca 96bd b2b2 ba3c ef59 573d 63a7 20bd
00000020: 180a 243d ccb2 f5bc 58c7 5bbd 0483 cc3d
00000030: d23c 4f3d 3e64 a9ba e7f7 d0bd 4521 ce3d
00000040: ceff 30bb 7c75 9bbd e772 3f3d 5279 9fbd
00000050: 1187 cabd d89c 28bd 2423 c8bc 693b 4b3d
00000060: 2b07 533d 7bc8 dfbd be7c 3abd 3717 353d
00000070: d082 c6bc b232 96bd 24b7 33bc e8e8 84bc
00000080: 186d 57bd 959e 093c 91a7 8c3b acbb 743d
00000090: ede0 30bd 9c28 48bc 6198 6b3d 53d2 a43c
000000a0: fe95 cdbd 1173 24bd f290 a1bd 3bc5 083d
000000b0: 79d4 afbd 8480 9abd c9f4 533d 3c52 05bd
000000c0: c30c 623d ff54 b4bd a549 7d3d c6a6 6dbd
000000d0: de9f 583d adb2 d43d 0079 f4bd 71e4 883d
000000e0: f51d b3bd 2bfc c13c b2b8 cbbd 8328 783d
000000f0: c48f d2bd 1bb4 bc3d c2b6 933d 9688 cfbd

weight f4 [64, 64]
0.032500014 7.4110445e-05 0.020375112 -0.0037434003 -0.013993929 -0.018844036 -0.10520675 -0.09105918
0.0464375 -0.065857984 0.035613757 -0.012319918 -0.05985594 -0.059639756 -0.12279823 -0.083597526
0.0060632755 0.07779616 -0.056280356 -0.0011826709 -0.009096603 0.08517017 -0.044894 0.109469414
0.023954894 -0.07331249 0.11747099 -0.080276914 0.09817514 -0.019210543 0.12285656 0.094540715
0.038478665 -0.03722871 0.04125023 -0.08787959 0.07153523 0.07834919 0.05244798 -0.08617191
0.066530354 -0.023258649 -0.03855457 0.047990467 -0.0194831 -0.10289189 -0.045633018 0.034998607
-0.04303833 0.10666509 -0.06723858 0.030619325 -0.023994137 -0.07894963 0.09709169 -0.11118933
0.023372702 -6.2885105e-05 -0.09257905 -0.07843244 0.044459168 0.10906078 -0.10992391 -0.05346687
0.118073076 -0.1102267 0.032217994 -0.013150506 -0.09154393 0.09861498 -0.016646778 -0.0075811762
-0.12326709 0.072125286 -0.10239637 -0.08853078 -0.12007498 -0.1172399 -0.08056349 -0.015376125
0.028744234 -0.06325421 0.094625436 -0.11663385 -0.046704683 0.014187245 -0.022261629 0.11321638
-0.024407571 0.054784786 -0.03539228 -0.032993607 0.0034813327 0.08352438 -0.1170375 0.0675386
-0.12316879 0.076121934 -0.0036078063 -0.086800426 6.5264954e-05 0.043749083 -0.08149965 -0.115961954
0.06987826 0.03622649 -0.069899894 -0.060346488 0.10994571 0.05491997 -0.0034284545 -0.0083194515
-0.074907385 0.038075455 -0.052893296 -0.0057844706 0.07841368 0.07935571 -0.079016745 -0.07645068
0.036945872 -0.08456464 -0.06495722 0.086861275 0.075164825 -0.12097169 0.079799965 -0.019252103
0.021168629 0.111757606 -0.021994228 -0.033189036 -0.080733724 0.06008115 0.069032066 0.04385997
0.04119766 -0.05312285 -0.090200014 -0.047265466 -0.03260753 0.06404255 -0.086372264 -0.03912024
0.06861059 -0.091484025 -0.07427781 -0.049577996 -0.10089162 0.08917386 0.11781431 0.114223965
-0.065223694 -0.03593292 0.04165222 -0.0009974191 -0.11971807 -0.11537924 -0.0815614 0.085165344
-0.034918454 -0.11233123 0.122658625 0.07094866 -0.056975234 -0.09254111 0.019211512 0.031004485
0.02626989 -0.08916276 -0.11318379 0.11010304 0.08303835 -0.11732938 -0.081225045 -0.11703499
0.042749345 -0.04585345 0.025894249 -0.11266664 0.082148 0.12388296 -0.0143595375 -0.040473506
-0.06418641 -0.11490905 0.091555595 -0.027861807 -0.01828694 0.004110187 0.00021525762 -0.069348745
-0.1090109 -0.10210842 0.08669645 -0.10141952 0.09043569 -0.124782376 0.085841574 -0.095087335
-0.034249466 0.09745538 -0.012519952 0.006594577 0.027258737 0.013866979 -0.07720226 -0.078506894
0.09338466 0.118109584 0.09372388 0.03221096 0.013266412 -0.09125586 0.06943125 0.09769677
-0.121795 0.044306535 0.08868455 0.044384904 0.07928356 0.019342344 0.028470207 -0.045782506
-0.057286832 0.0025082943 0.08206236 0.060792137 -0.105192095 0.046470806 0.08485901 0.04101017
-0.044304702 0.09840688 -0.07603939 -0.11142572 -0.09035086 -0.069884546 0.06639502 -0.060058847
0.013455624 -0.06701752 0.10145815 -0.084580205 0.067481615 -0.023735046 0.11601955 -0.10900489
-0.05409065 0.042459022 -0.051030874 0.03136843 0.053846627 0.061108634 -0.035831265 -0.09424077
00000000: bc1e 053d be6b 9b38 b5e9 a63c d653 75bb
00000010: cb46 65bc cf5e 9abc a376 d7bd 3c7d babd
00000020: 3f35 3e3d 8de0 86bd bbdf 113d 7bd9 49bc
00000030: 812b 75bd d148 74bd a37d fbbd 2e35 abbd
00000040: 71ae c63b 9853 9f3d 3b86 66bd da03 9bba
00000050: eb09 15bc b36d ae3d c5e2 37bd 8031 e03d
00000060: 0e3d c43c dc24 96bd a194 f03d 3968 a4bd
00000070: 0c10 c93d 6e5f 9dbc 389c fb3d 909e c13d
00000080: ce9b 1d3d 227d 18bd 00f6 283d 37fa b3bd
00000090: 1081 923d 8a75 a03d b1d3 563d e67a b0bd
000000a0: 1141 883d ec88 bebc 66eb 1dbd a791 443d
000000b0: 069b 9fbc fcb8 d2bd b0e9 3abd b35a 0f3d
000000c0: f648 30bd 3a73 da3d 61b4 89bd 61d5 fa3c
000000d0: 5a8f c4bc 58b0 a1bd 02d8 c63d 3bb7 e3bd
000000e0: 1c78 bf3c 2fe1 83b8 169a bdbd 30a1 a0bd
000000f0: d11a 363d 425b df3d c91f e1bd 1400 5bbd
00000100: 4cd0 f13d 89be e1bd 04f7 033d 3875 57bc
00000110: 627b bbbd a7f6 c93d d35e 88bc 846b f8bb
00000120: 7573 fcbd 6cb6 933d 30b5 d1bd a04f b5bd
00000130: dfe9 f5bd 791b f0bd 79fe a4bd 25ec 7bbc
00000140: 0779 eb3c 6c8b 81bd fbca c13d badd eebd
00000150: 694d 3fbd 9e71 683c 055e b6bc fddd e73d
00000160: 63f2 c7bc 0366 603d 7ff7 10bd 4e24 07bd
00000170: 1227 643b d50e ab3d 5bb1 efbd ad51 8a3d
00000180: eb3f fcbd d1e5 9b3d f270 6cbb 6cc4 b1bd
00000190: dbde 8838 3d32 333d 4ae9 a6bd 767d edbd
000001a0: 551c 8f3d 3a62 143d ad27 8fbd e12d 77bd
000001b0: 372b e13d c3f3 603d ecaf 60bb 4f4e 08bc
000001c0: 0b69 99bd 02f5 1b3d a4a6 58bd a88b bdbb
000001d0: 5a97 a03d 3f85 a23d 88d3 a1bd 2d92 9cbd
000001e0: 8e54 173d 3a30 adbd 4a08 85bd 53e4 b13d
000001f0: 04f0 993d 01c0 f7bd 2a6e a33d 96b6 9dbc
00000200: d569 ad3c 2ce1 e43d 3d2d b4bc 3af1 07bd
00000210: b957 a5bd a717 763d af60 8d3d 83a6 333d
00000220: e1be 283d 5897 59bd c9ba b8bd 6f99 41bd
00000230: 798f 05bd be28 833d f1e3 b0bd 8b3c 20bd
00000240: b683 8c3d fa5b bbbd f71e 98bd 4c12 4bbd
00000250: 44a0 cebd c9a0 b63d a148 f13d 41ee e93d
00000260: 0094 85bd 662e 13bd 859b 2a3d d5bb 82ba
00000270: bf2e f5bd f34b ecbd aa09 a7bd 2b6b ae3d
00000280: a706 0fbd ea0d e6bd 7234 fb3d 884d 913d
00000290: dd5e 69bd 3286 bdbd 7661 9d3c 1efd fd3c
000002a0: f433 d73c f79a b6bd e7cc e7bd b47d e13d
000002b0: 0310 aa3d 634a f0bd 5159 a6bd 0ab0 efbd
000002c0: f019 2f3d d4d0 3bbd 2d20 d43c c4bd e6bd
000002d0: 363d a83d 59b6 fd3d 4444 6bbc 8cc7 25bd
000002e0: 2a74 83bd 7055 ebbd 8081 bb3d 723e e4bc
000002f0: 7ece 95bc bfae 863b c7b6 6139 b706 8ebd
00000300: 1b41 dfbd 381e d1bd e98d b13d 0ab5 cfbd
00000310: 5936 b93d e78d ffbd b5cd af3d 26bd c2bd
00000320: 2b49 0cbd b096 c73d 7c20 4dbc 5217 d83b
00000330: b74d df3c 5332 633c 381c 9ebd 39c8 a0bd
00000340: 7540 bf3d 70e3 f13d 4ef2 bf3d a4ef 033d
00000350: 5d5b 593c 5ae4 babd f931 8e3d 3f15 c83d
00000360: a86f f9bd c57a 353d 3fa0 b53d f2cc 353d
00000370: 6b5f a23d d673 9e3c 5a3a e93c 7086 3bbd
00000380: 99a5 6abd 3262 243b 5010 a83d 2d01 793d
00000390: f46e d7bd 2c58 3e3d 90ca ad3d 48fa 273d
000003a0: d978 35bd 8c89 c93d 8aba 9bbd 2b33 e4bd
000003b0: df09 b9bd a11f 8fbd 1dfa 873d 4400 76bd
000003c0: fa74 5c3c 7b40 89bd 4ac9 cf3d 6338 adbd
000003d0: cd33 8a3d 0070 c2bc a89b ed3d f53d dfbd
000003e0: 288e 5dbd 83e9 2d3d c005 51bd 2f7c 003d
000003f0: 488e 5c3d 0c4d 7a3d cec3 12bd 4e01 c1bd

bias f4 [64]
0.103155285 0.07158687 0.038082454 0.027330106 -0.03899824 0.100891285 -0.11742971 0.002891532
-0.12333157 -0.02839497 0.03356952 -0.018509012 0.115101434 -0.0026393759 -0.101155356 0.005893033
0.034193438 0.08159078 -0.0016176066 0.06542125 0.12126189 0.07137291 -0.10827441 0.03819121
0.062694594 0.054043062 -0.1145905 -0.08830423 0.06943589 0.00530438 0.114526905 0.05202345
0.11004116 -0.10442282 -0.08976015 -0.11248932 -0.066090025 0.03952104 0.09018945 0.12013734
-0.035752513 0.10280378 -0.11512959 -0.10080621 -0.046062887 0.005756802 -0.08277955 -0.022386903
-0.021672258 0.05073144 0.07240421 -0.08857442 -0.0524188 0.054595787 -0.04658845 0.09385361
0.04746604 -0.11120986 0.018747278 -0.04175489 0.10265691 0.07367757 -0.06829066 -0.085589565
00000000: 1443 d33d 239c 923d 59fc 1b3d 63e3 df3c
00000010: 9ebc 1fbd 17a0 ce3d fd7e f0bd db7f 3d3b
00000020: 4395 fcbd 919c e8bc 3180 093d 36a0 97bc
00000030: 4dba eb3d 61f9 2cbb 8a2a cfbd 581a c13b
00000040: 6b0e 0c3d 1119 a73d df05 d4ba 94fb 853d
00000050: 2758 f83d f62b 923d f9be ddbd 636e 1c3d
00000060: 0666 803d 425c 5d3d 6dae eabd d9d8 b4bd
00000070: 6734 8e3d 5dd0 ad3b 158d ea3d 8b16 553d
00000080: 425d e13d a2db d5bd 2bd4 b7bd cd60 e6bd
00000090: 355a 87bd d0e0 213d 3fb5 b83d 910a f63d
000000a0: 3a71 12bd ca8a d23d 10c9 ebbd 7c73 cebd
000000b0: 70ac 3cbd 8ea3 bc3b 5388 a9bd bd64 b7bc
000000c0: 058a b1bc c5cb 4f3d a948 943d 8166 b5bd
000000d0: 18b5 56bd d59f 5f3d 88d3 3ebd 5236 c03d
000000e0: c06b 423d ffc1 e3bd e493 993c 2d07 2bbd
000000f0: c93d d23d 44e4 963d f9db 8bbd 9549 afbd

weight f4 [64, 64]
0.061937243 0.10744488 -0.101881325 0.099880725 0.100147516 -0.06849032 -0.026461653 -0.0593994
-0.09595442 0.095957875 -0.026440047 0.047461465 -0.12461856 -0.06193365 -0.03281447 0.09809476
0.11623233 0.107597664 -0.015061702 -0.067688145 0.058906596 0.11184261 -0.02227504 0.12255973
0.016867114 -0.028864851 -0.031391382 -0.10784009 -0.06506032 -0.122564085 0.06481165 -0.04007042
0.054909986 -0.08964639 0.022678504 0.06277686 0.115953594 0.013960983 0.11924546 0.11701216
0.11279464 0.1188413 -0.081530295 -0.07048077 0.05772042 0.08364325 0.006901977 0.12413034
0.027608907 0.12340737 -0.05340737 -0.07302262 -0.116692245 -0.11714299 0.003861489 -0.056641605
-0.078745574 0.035376485 0.097938865 0.049761772 -0.10139646 0.092696235 -0.07509428 0.110609345
0.04465573 -0.124758676 -0.0802047 -0.0020442603 -0.06308961 -0.045967594 -0.090208165 -0.10780056
-0.053500935 0.11093905 0.019832592 -0.08232685 0.033149537 0.101462394 -0.029439567 0.00045740278
0.07371494 -0.107648775 0.11585964 -0.122577064 -0.078304246 0.05659839 -0.085940935 -0.1162416
-0.036198564 -0.018667053 -0.07616371 -0.034021404 -0.10258995 0.04896751 0.117180206 -0.09846316
0.027422404 0.118344754 0.10827208 -0.110627614 -0.09652728 -0.035302382 0.055851158 -0.102265686
0.067517914 -0.041130383 -0.04773569 -0.04403152 -0.06449725 0.087579645 0.0886048 0.00050659105
-0.12013289 -0.09232615 0.07875934 0.0818891 -0.021228293 -0.09345737 0.016383318 -0.09116873
0.015394085 0.0462123 -0.08081413 0.04557018 -0.11638541 0.10220645 0.119168036 0.08385218
0.045224328 0.09917419 -0.035102498 -0.08206526 0.08667322 0.0773969 -0.08384112 0.08012956
-0.0230392 0.0003241877 -0.06605997 -0.04994832 0.086733945 -0.097567454 0.070971005 -0.12384214
-0.10939952 -0.034164276 -0.05734845 -0.013914551 0.10333496 -0.046253145 -0.054707523 -0.052148208
0.10633345 0.041911338 0.06674611 -0.0485709 -0.12227993 -0.06034225 -0.09520255 0.018997323
-0.06443736 0.014504569 0.1170419 0.03767719 0.06686241 -0.094652966 0.040188003 0.005717052
0.03558747 0.0051754103 0.04140793 -0.05499498 -0.07625498 -0.09004938 0.042611066 0.0689329
0.05939201 -0.093641296 0.06445427 -0.056562036 0.059862703 0.03797371 -0.09333938 0.018233951
-0.046334 0.12109215 0.019822147 0.075854 -0.0909438 0.08446751 -0.09080879 -0.07782552
0.09955156 0.07129671 -0.08405432 -0.011904124 0.11882258 -0.06384953 0.060336467 0.08136359
0.053891763 -0.11981845 0.08602834 0.08050271 0.06822865 -0.08603001 -0.0066856723 -0.1079375
-0.0735372 0.06555651 0.03823403 -0.07304589 0.03133379 -0.09767259 -0.012255605 -0.11846879
0.07367495 -0.048021734 0.029484402 0.05268134 0.05860795 -0.120916314 -0.037047718 0.108155094
0.078091644 0.10078266 0.021106074 0.032535926 0.12217851 0.04762223 -0.036421802 -0.0715021
0.053768083 0.01968077 0.11565873 -0.02465617 0.07566571 0.08779798 0.029995508 0.01063807
-0.09361479 0.05368488 -0.043874286 -0.087377794 -0.04915306 -0.059203934 -0.11628386 -0.00041505863
0.119604096 0.03808952 0.101814926 0.11620087 -0.008956379 -0.046778355 0.015000787 0.08434851
00000000: e8b1 7d3d 100c dc3d 28a7 d0bd 448e cc3d
00000010: 241a cd3d a744 8cbd 1cc6 d8bc c94c 73bd
00000020: c083 c4bd 9085 c43d cc98 d8bc f466 423d
00000030: 0438 ffbd 24ae 7dbd 7768 06bd e8e5 c83d
00000040: 370b ee3d 2a5c dc3d 5bc5 76bc 15a0 8abd
00000050: 0b48 713d bd0d e53d 257a b6bc 9900 fb3d
00000060: e72c 8a3c fb75 ecbc 4094 00bd 44db dcbd
00000070: 583e 85bd e102 fbbd f8bb 843d e120 24bd
00000080: 4be9 603d 8798 b7bd 45c8 b93c 2891 803d
00000090: 1479 ed3d 9bbc 643c f736 f43d 12a4 ef3d
000000a0: e000 e73d 1163 f33d 5bf9 a6bd 3958 90bd
000000b0: 3f6c 6c3d 274d ab3d fb29 e23b 0c38 fe3d
000000c0: 132c e23c 01bd fc3d b0c1 5abd e28c 95bd
000000d0: 58fc eebd aae8 efbd 0911 7d3b 0701 68bd
000000e0: 5c45 a1bd efe6 103d 2c94 c83d 00d3 4b3d
000000f0: f2a8 cfbd 86d7 bd3d 08cb 99bd 2787 e23d
00000100: ede8 363d 7a81 ffbd 5d42 a4bd fff8 05bb
00000110: 2035 81bd 8448 3cbd 0fbf b8bd 8ac6 dcbd
00000120: cc23 5bbd 0334 e33d f677 a23c fb9a a8bd
00000130: cfc7 073d 84cb cf3d 3f2b f1bc 90cf ef39
00000140: dcf7 963d f676 dcbd d247 ed3d af09 fbbd
00000150: fa5d a0bd b7d3 673d cd01 b0bd 1310 eebd
00000160: f244 14bd a6eb 98bc b8fb 9bbd 075a 0bbd
00000170: ae1a d2bd 2892 483d 2dfc ef3d 0ea7 c9bd
00000180: f3a4 e03c bc5e f23d c1bd dd3d bb90 e2bd
00000190: 18b0 c5bd 3b99 10bd 2fc4 643d ac70 d1bd
000001a0: d546 8a3d 5578 28bd 8086 43bd 655a 34bd
000001b0: 2217 84bd f55c b33d 6f76 b53d c0cc 043a
000001c0: 3c08 f6bd 7e15 bdbd 944c a13d 79b5 a73d
000001d0: f5e6 adbc 9466 bfbd 4f36 863c acb6 babd
000001e0: 7937 7c3c 1c49 3d3d e181 a5bd cca7 3a3d
000001f0: 795b eebd 9e51 d13d 5f0e f43d b1ba ab3d
00000200: 253d 393d d61b cb3d a3c7 0fbd d511 a8bd
00000210: bb81 b13d 4482 9e3d e5b4 abbd f71a a43d
00000220: b4bc bcbc bdf7 a939 734a 87bd 9c96 4cbd
00000230: 91a1 b13d 72d1 c7bd 3f59 913d f3a0 fdbd
00000240: db0c e0bd d7ef 0bbd 35e6 6abd dbf9 63bc
00000250: 48a1 d33d f073 3dbd ff14 60bd 5c99 55bd
00000260: 5ac5 d93d 39ab 2b3d 2fb2 883d 48f2 46bd
00000270: e66d fabd 6f29 77bd 8ef9 c2bd 46a0 9b3c
00000280: bcf7 83bd 92a4 6d3c aab3 ef3d 6653 1a3d
00000290: 29ef 883d 6ad9 c1bd 2d9c 243d 1c56 bb3b
000002a0: 2bc4 113d 7d96 a93b 5d9b 293d 6b42 61bd
000002b0: 922b 9cbd cf6b b8bd f188 2e3d b12c 8d3d
000002c0: 0945 733d 02c7 bfbd 9a00 843d 98ad 67bd
000002d0: 9832 753d 528a 1b3d b828 bfbd 5e5f 953c
000002e0: b8c8 3dbd 29ff f73d 0e62 a23c 5859 9b3d
000002f0: be40 babd 4dfd ac3d f5f9 b9bd fc62 9fbd
00000300: b0e1 cb3d 0204 923d ac24 acbd 8409 43bc
00000310: 4159 f33d 8bc3 82bd 5f23 773d f4a1 a63d
00000320: 9cbd 5c3d 6063 f5bd a02f b03d 9bde a43d
00000330: 76bb 8b3d 8030 b0bd 7c13 dbbb 560e ddbd
00000340: ac9a 96bd 7e42 863d 499b 1c3d 1599 95bd
00000350: dc57 003d 9108 c8bd bccb 48bc c49f f2bd
00000360: e4e2 963d 70b2 44bd 4689 f13c 64c8 573d
00000370: e40e 703d f9a2 f7bd 59bf 17bd 6b80 dd3d
00000380: 83ee 9f3d 2467 ce3d a5e6 ac3c 6444 053d
00000390: ba38 fa3d 870f 433d 072f 15bd b16f 92bd
000003a0: ec3b 5c3d 9139 a13c 7cde ec3d bcfb c9bc
000003b0: a0f6 9a3d 6dcf b33d 24b9 f53c 4d4b 2e3c
000003c0: 1cb9 bfbd ade4 5b3d 86b5 33bd 21f3 b2bd
000003d0: b854 49bd d37f 72bd 3b26 eebd 3a9c d9b9
000003e0: fef2 f43d c203 1c3d 5884 d03d b9fa ed3d
000003f0: c7bd 12bc a99a 3fbd dcc5 753c e9be ac3d

bias f4 [64]
-0.11095845 -0.09610619 -0.019632887 0.019883454 -0.026790852 0.036675174 -0.0278941 -0.08764657
0.09457755 0.11111038 0.07014893 0.048776645 0.06563245 0.05482526 -0.049927518 -0.07025128
0.054529153 -0.08337065 -0.036959283 -0.005317891 0.08377926 0.006161058 0.042386916 0.08390078
-0.09573108 -0.013422111 -0.038116343 -0.08536906 -0.019871095 -0.057388324 -0.113207646 -0.119874224
0.06856356 0.027153498 -0.06814822 -0.045503974 0.110790685 -0.10917809 0.022340424 0.041954633
-0.024554275 -0.085234754 0.05058828 -0.08763368 0.0022697444 -0.09020249 0.037279554 -0.122996576
0.033995647 0.054698665 0.06915225 -0.013183426 0.06651366 0.08403555 0.018647071 -0.08095343
-0.033203997 -0.10640696 0.020262348 -0.005455731 -0.04680261 0.120634474 0.098324254 -0.08140413
00000000: 2f3e e3bd 52d3 c4bd 26d5 a0bc a0e2 a23c
00000010: 7d78 dbbc b538 163d 2b82 e4bc 0b80 b3bd
00000020: e0b1 c13d d78d e33d 3eaa 8f3d 05ca 473d
00000030: 4e6a 863d 7490 603d cc80 4cbd e7df 8fbd
00000040: f659 5f3d 3bbe aabd 9e62 17bd b441 aebb
00000050: 7694 ab3d b3e2 c93b e79d 2d3d 2cd4 ab3d
00000060: a80e c4bd 6ae8 5bbc e21f 1cbd f9d5 aebd
00000070: b5c8 a2bc 0510 6bbd 69d9 e7bd 9e80 f5bd
00000080: 0d6b 8c3d 0371 de3c 4b91 8bbd 6062 3abd
00000090: 3ae6 e23d c398 dfbd 4403 b73c 9fd8 2b3d
000000a0: 0c26 c9bc 8f8f aebd a835 4f3d 4979 b3bd
000000b0: febf 143b 15bc b8bd 72b2 183d a1e5 fbbd
000000c0: 053f 0b3d b50b 603d b29f 8d3d 4cff 57bc
000000d0: 5038 883d d51a ac3d bec1 983c e9ca a5bd
000000e0: ea00 08bd e4eb d9bd 39fd a53c fdc5 b2bb
000000f0: 18b4 3fbd 350f f73d 3a5e c93d 35b7 a6bd

weight f4 [1, 64]
0.062714845 0.0007335653 0.04263814 0.07832248 0.006638165 0.06430834 -0.07295367 -0.06385288
0.0034467175 0.011438472 -0.09348584 0.0059677335 -0.020409724 -0.101576254 0.11045749 0.09813312
0.055359915 0.056510627 0.013746385 -0.051967688 -0.04026646 0.041525733 -0.07254562 0.017787034
0.123213746 -0.10227357 -0.043390866 0.08111013 -0.108904876 0.11646614 0.031566024 -0.075248584
-0.036218576 -0.07362409 0.09530534 -0.041607533 -0.09979381 -0.10775709 0.03017029 0.06145336
-0.080223724 0.06743928 0.012332995 -0.06342581 -0.037987597 0.042782325 -0.09101976 -0.05788804
0.023873428 0.04536299 -0.05723101 -0.005534558 0.028104102 0.053439066 0.08890758 0.05210282
-0.119910255 -0.09827039 -0.12000541 -0.04348049 -0.115217336 -0.056851305 -0.0016882769 0.10945176
00000000: a470 803d bc4c 403a 55a5 2e3d 8967 a03d
00000010: f784 d93b 17b4 833d bc68 95bd 4cc5 82bd
00000020: 53e2 613b 6e68 3b3c 8175 bfbd fa8c c33b
00000030: 4b32 a7bc 3607 d0bd 8937 e23d 04fa c83d
00000040: 14c1 623d b077 673d 8538 613c 12dc 54bd
00000050: 72ee 24bd e316 2a3d cc92 94bd 1db6 913c
00000060: 7d57 fc3d ce74 d1bd 9fba 31bd 111d a63d
00000070: 8509 dfbd cd85 ee3d 604b 013d ee1b 9abd
00000080: ee59 14bd 3ac8 96bd 722f c33d a96c 2abd
00000090: b260 ccbd c0af dcbd af27 f73c 85b6 7b3d
000000a0: 564c a4bd 9b1d 8a3d 5510 4a3c 64e5 81bd
000000b0: e298 1bbd 853c 2f3d 9168 babd 021c 6dbd
000000c0: 3592 c33c 8bce 393d 106b 6abd 3d5b b5bb
000000d0: 933a e63c ece2 5a3d 2d15 b63d c469 553d
000000e0: 8293 f5bd fc41 c9bd 65c5 f5bd 9918 32bd
000000f0: 11f7 ebbd eadc 68bd 2c49 ddba 3f28 e03d
