mlartifacts/554351476986166068/4491a77cf53741abb0b214846f6bc4d1/artifacts/models/Model_dim64_layers5_experiment/r2_score0.3041762320650271_run12/data/model.pth (torch, 294728 bytes, 13 tensors)

weight f4 [64, 801]
0	0xbd503ee4	-0.050841227
1	0x3d61da34	0.055139735
2	0x3cc7f334	0.02440796
3	0x3d10a16e	0.0353102
4	0xbd140eef	-0.036147054
5	0x3d8e64df	0.069528334
6	0xbc8692ea	-0.016427476
7	0x3c043090	0.008068219
8	0xbb9f8339	-0.004867938
9	0x3c321069	0.01086817
10	0xbccd356d	-0.02504989
11	0x3c2d2b44	0.010569397
12	0x3c2601a3	0.010132226
13	0xbc44f625	-0.012021576
14	0x3c98d381	0.01865554
15	0x3d713d1b	0.058896165
16	0xbd2cf3bc	-0.04222463
17	0xbcd5fc9c	-0.02612143
18	0x3ce74eae	0.02823576
19	0x3cde9af5	0.027173499
20	0xbcb23523	-0.021753853
21	0xbb48cd18	-0.0030639824
22	0xbc4896c8	-0.01224298
23	0xbcc66a45	-0.024220595
24	0xbc9ba5f5	-0.019000033
25	0xbcabb61c	-0.02096086
26	0x3bbd3cf7	0.00577509
27	0x3ca8a9a5	0.020588705
28	0xbbb04092	-0.005378791
29	0x3a7b8f8e	0.00095962815
30	0x3c994817	0.018711133
31	0xbd478471	-0.04871029
32	0xbbe5e366	-0.0070156334
33	0xbc9f0982	-0.019413713
34	0xbbc76bda	-0.006085855
35	0xbd2910ca	-0.041275777
36	0x3c936f59	0.01799743
37	0xbce6965e	-0.028147873
38	0x3d5981f0	0.053102434
39	0xbbf824aa	-0.00757273
40	0x3d176e8a	0.036970653
41	0xbc96b808	-0.0183983
42	0x3bad64b8	0.0052915476
43	0xbbba4252	-0.0056841755
44	0xbc904b07	-0.0176139
45	0x3ce21e1b	0.027602246
46	0xbcedf3a5	-0.029046843
47	0x3d06e16f	0.032929834
48	0xbb7284ea	-0.0037005492
49	0xbbe7ea03	-0.007077457
50	0x3cd3016a	0.02575751
51	0x3b883b68	0.0041574724
52	0xbbf2b658	-0.007406991
53	0xbc112807	-0.008859641
54	0xbc7a2b33	-0.015269089
55	0x3a3bf963	0.00071706454
56	0x3d69811d	0.057007898
57	0xbd2c3fb7	-0.04205295
58	0xbc884ce8	-0.016638234
59	0xbbca6ce2	-0.0061775306
60	0x3cd2ee12	0.025748286
61	0xbc61deb9	-0.013786011
62	0xbd3d05ce	-0.046148114
63	0x3ca3bcf3	0.019987559
64	0x3c389c83	0.011267784
65	0x3d1352de	0.0359677
66	0xbccced2c	-0.025015436
67	0x3caabaec	0.020841084
68	0xbcdb5adf	-0.02677673
69	0x3b689d46	0.0035494133
70	0xbc0b1318	-0.008488439
71	0x3ce48cf7	0.027899249
72	0x3ccead2b	0.025229057
73	0x3d09fd49	0.033688817
74	0x3baf6e45	0.0053537213
75	0xbcb7fae1	-0.022458496
76	0x3cb26744	0.021777757
77	0xbc4a1910	-0.012335077
78	0xbbafd75f	-0.0053662504
79	0x3c9b0a21	0.018925728
80	0xbd02548d	-0.031818915
81	0x3cc3c474	0.023897387
82	0x3cd07fb2	0.025451515
83	0x3b1a6a14	0.0023561763
84	0x3cacac16	0.02107815
85	0xbd1806b1	-0.037115756
86	0xbc878327	-0.01654203
87	0xbc324b57	-0.01088222
88	0x3b3ac8ca	0.0028501027
89	0xbbebd24f	-0.0071967016
90	0xbc47dd2f	-0.01219873
91	0xbcdee048	-0.027206555
92	0x3d228d69	0.03968564
93	0xbc530184	-0.012878779
94	0xbcb1bd0e	-0.021696594
95	0xbd2ee204	-0.042696014
96	0xbcb5ab82	-0.022176508
97	0x3c83f844	0.016109593
98	0xbd04af13	-0.032393526
99	0x3c81077a	0.015750635
100	0x3cfd8ea1	0.0309518
101	0xbb872400	-0.0041241646
102	0x3d3098ca	0.04311446
103	0xbafda244	-0.0019350727
104	0xbc9af75c	-0.018916778
105	0x3d06acab	0.032879513
106	0xbccabb0d	-0.024747396
107	0x3bc1235b	0.0058941073
108	0xbd09b2a9	-0.03361765
109	0x3c22c8a6	0.009935534
110	0xbd49a8c4	-0.049233213
111	0x3cc5cb62	0.024144832
112	0x3c5ac976	0.013353696
113	0x3bdabde9	0.006675471
114	0xbc955146	-0.01822723
115	0xb7b93556	-2.2078555e-05
116	0x3d39bf11	0.04534823
117	0xbc2d80b1	-0.010589764
118	0x3cd56152	0.026047383
119	0x3b4851fa	0.003056644
120	0x3ca470c4	0.020073302
121	0x3c8fb22e	0.017541017
122	0x3ba72394	0.005100677
123	0x3c2b298a	0.010446915
124	0x3cc5141e	0.024057444
125	0x3c63608c	0.013877999
126	0xbbf2e292	-0.007412263
127	0x3c332e46	0.010936325
128	0xbbc4309c	-0.00598724
129	0x3d43a45c	0.047764167
130	0xbb060b29	-0.002045343
131	0xbd04d1dd	-0.032426704
132	0xbc3f457f	-0.011674284
133	0x3cdb08d1	0.026737602
134	0x3ca11edc	0.019668035
135	0xbcd45eb3	-0.025924062
136	0xbc17705c	-0.009243097
137	0x3d13d831	0.036094848
138	0xbbe7404d	-0.007057226
139	0xbc025774	-0.007955421
140	0xbcca760a	-0.024714489
141	0x3ba00f35	0.0048846253
142	0x3cb09900	0.021557331
143	0xbba9228f	-0.0051615904
144	0x3ba8d29b	0.0051520593
145	0xbcd688af	-0.026188223
146	0xbc02efdd	-0.007991758
147	0x3b7c8b86	0.003853531
148	0x3c3fb3cd	0.011700583
149	0x3cc27b3d	0.023740405
150	0x3c9375df	0.018000541
151	0x3bc1b416	0.0059113605
152	0x3ba1edbb	0.0049416698
153	0xbc87a7ff	-0.016559599
154	0x3d1c606f	0.038177904
155	0xbce7a795	-0.028278152
156	0x3d104d59	0.035230014
157	0xbd33983a	-0.043846346
158	0x3baa9403	0.0052056327
159	0x3d0725d7	0.03299507
160	0x3caef9d7	0.021359367
161	0xb97be11b	-0.00024021084
162	0x3ccb1734	0.024791338
163	0xbb55ae4a	-0.0032605105
164	0x3d0c7819	0.03429422
165	0xbc5a933f	-0.01334077
166	0xbc18c507	-0.009324319
167	0xbcc6363f	-0.024195788
168	0xbc93879a	-0.018008996
169	0xbb5aae72	-0.0033368138
170	0xbbd5683d	-0.0065126703
171	0x3cf70faa	0.030158836
172	0xbcb1757b	-0.021662464
173	0xbc3c81d1	-0.01150556
174	0xbc8e312c	-0.017357431
175	0x3c95bb8d	0.018277908
176	0x3caad092	0.020851407
177	0x3cdec42d	0.027193153
178	0xbb2e61aa	-0.0026608505
179	0x3cc9b56f	0.024622647
180	0x3c69670b	0.014245759
181	0xbadac34a	-0.0016690281
182	0xbcaa8a53	-0.020817911
183	0x3bcf4490	0.006325312
184	0x3d146a7b	0.03623436
185	0xbcef6274	-0.02922175
186	0xbc85ae5b	-0.01631849
187	0x3c7947f2	0.015214907
188	0x3d04d41d	0.03242885
189	0x3d1a2fd2	0.03764326
190	0xbcb0a0a1	-0.021560969
191	0xbca677e7	-0.020320846
192	0xbc16b778	-0.009199016
193	0x3c68e5f2	0.0142149795
194	0x3cbb47d9	0.022861408
195	0xbc9fd01c	-0.019508414
196	0x3ccebb3d	0.025235767
197	0x3d060d1e	0.032727353
198	0xb6aff17a	-5.243518e-06
199	0xbb7d72c5	-0.0038673144
200	0xbb166cee	-0.002295311
201	0xbd0558a3	-0.032555234
202	0xbd3d335b	-0.046191555
203	0xbc0c69fe	-0.008570192
204	0x3bfb5375	0.007669861
205	0xbce4da1e	-0.027936038
206	0x3c89f76c	0.016841613
207	0x3c46e39c	0.012139227
208	0x3d049d5f	0.032376643
209	0xbc99a56a	-0.018755633
210	0xbb3e47b9	-0.002903445
211	0xbc0f9e51	-0.008765773
212	0xbd0abc3b	-0.033870917
213	0xbd036998	-0.032083124
214	0xbd31df4e	-0.04342585
215	0x3b60a0b2	0.003427547
216	0xbc505f09	-0.012717971
217	0xbce89ba4	-0.028394528
218	0xbcb643f2	-0.022249196
219	0xbd1038a2	-0.03521026
220	0xbc2f6344	-0.010704819
221	0x3cabc95e	0.020970043
222	0x3d367033	0.044540595
223	0x3d12302f	0.035690483
224	0x3d24d928	0.04024616
225	0x3ceb9af6	0.028760415
226	0x3c2b4e9e	0.0104557555
227	0xbc784e6f	-0.015155419
228	0x3d134fbb	0.03596471
229	0xbb9e8dbd	-0.004838674
230	0xbbe6d1df	-0.0070440616
231	0x3ceddd3b	0.029036155
232	0xb9e2a93d	-0.0004323217
233	0xbbd67c17	-0.0065455544
234	0xbc0e2df3	-0.008677947
235	0x3d096169	0.033540163
236	0xbd313939	-0.043267462
237	0xbd648781	-0.05579329
238	0x3a0df7c8	0.00054156454
239	0x3b5038a0	0.0031772032
240	0x3cc8b2aa	0.024499256
241	0xbc669e95	-0.014075895
242	0xbcaf088e	-0.021366384
243	0x3b638b3d	0.0034720444
244	0x3c5f896e	0.013643606
245	0xbcdaf837	-0.026729686
246	0x3ba7aed0	0.005117275
247	0x3bb27181	0.0054456596
248	0xbcc5aa7e	-0.024129149
249	0xba13237e	-0.0005612894
250	0x3d7d2805	0.061805744
251	0xbcccccbb	-0.024999967
252	0x3c5c8d94	0.013461489
253	0x3cd8807a	0.02642845
254	0x3c120231	0.008911655
255	0x3d156074	0.036468938

bias f4 [64]
0	0x3d05d8d6	0.032677494
1	0x3ccff1d2	0.025383864
2	0xbcf45039	-0.02982341
3	0xbbddb8f0	-0.006766431
4	0xbcb571bc	-0.02214896
5	0xbca25d45	-0.019819865
6	0x3ce3f85f	0.027828394
7	0x3c6b2053	0.014350968
8	0x3c9135eb	0.017725905
9	0xbafd545b	-0.0019327508
10	0xbc774975	-0.015093197
11	0x3cacbdc5	0.021086583
12	0xbc9c1ab0	-0.019055694
13	0xbc84fd7d	-0.016234154
14	0xbc887212	-0.016655955
15	0xbc918a29	-0.017766075
16	0x3c612697	0.013742111
17	0x3d00305d	0.031296123
18	0x3cd3bf78	0.025848135
19	0x3cbd14cf	0.023081211
20	0xbccc0ed2	-0.02490941
21	0xbc9b2597	-0.018938823
22	0x3b5cca99	0.0033690094
23	0xbc321b77	-0.010870806
24	0xbc3ea41d	-0.011635807
25	0xbb54e38c	-0.0032484261
26	0xbc2e1506	-0.01062513
27	0x3c930745	0.017947802
28	0x3a9d5943	0.0012004751
29	0x3d1db0dd	0.038498748
30	0x3d5d092b	0.05396382
31	0x3c8f7bc5	0.017515073
32	0xbd1c6b7d	-0.038188446
33	0xbba94486	-0.0051656393
34	0x3b90df7e	0.0044211736
35	0xbc8802f2	-0.016602967
36	0x39aa4451	0.00032475826
37	0x3c45537f	0.012043833
38	0xbba877bc	-0.0051412266
39	0xbc2b7253	-0.010464269
40	0xbb8b1c70	-0.0042453334
41	0x3ca789d1	0.020451458
42	0x3cce623e	0.02519333
43	0xbcae86eb	-0.021304568
44	0xbd090142	-0.033448465
45	0xbcd919d5	-0.026501575
46	0x3c99dbe1	0.018781604
47	0xbd098d42	-0.03358198
48	0xbc25d667	-0.010121918
49	0xbc1c4d10	-0.0095398575
50	0xbc8a4496	-0.016878407
51	0xbcddab58	-0.027059242
52	0xbc57a2fe	-0.013161419
53	0xbcd94a77	-0.026524765
54	0xbcb639fb	-0.022244444
55	0x3ce4b2e5	0.027917335
56	0xbb01668b	-0.0019744958
57	0xbb421653	-0.0029615357
58	0xbce68454	-0.02813927
59	0xbcf58a91	-0.0299733
60	0xbbb0dc2f	-0.0053973417
61	0x3c6009be	0.013674198
62	0x3d4530d7	0.04814228
63	0x3bf5005a	0.0074768486

weight f4 [64, 64]
0	0xbd940be5	-0.07228831
1	0xbdad8572	-0.08472718
2	0x3d325246	0.043535493
3	0x3df6defd	0.120542504
4	0x3de3d1c8	0.11123997
5	0x3d8d9408	0.06913
6	0xbd074ecf	-0.033034142
7	0xbd1f0187	-0.038819816
8	0x3c944baa	0.018102486
9	0x3df5dbd5	0.1200482
10	0x3c821d88	0.015883222
11	0xbcd57e65	-0.026061246
12	0x3c18117c	0.009281512
13	0x3dcd96ad	0.10038505
14	0x3ce277e0	0.027645051
15	0x3da2d262	0.079502836
16	0x3b863be2	0.004096494
17	0xbd3753d0	-0.044757664
18	0xb8949ae7	-7.086043e-05
19	0xbdd728f6	-0.105058596
20	0xbce2cc4f	-0.027685313
21	0x3e175af8	0.14780796
22	0xbd1f8ece	-0.03895455
23	0xbd9af235	-0.075657286
24	0x3dbe3652	0.092877045
25	0x3dbb6fa7	0.09152155
26	0x3dea4387	0.11438661
27	0x3b90d673	0.0044200956
28	0xbb9a034f	-0.0047001014
29	0xbdb9f5d9	-0.09080095
30	0x3d283795	0.041068632
31	0x3d0252dc	0.031817302
32	0x3d83ad15	0.06429497
33	0x3d6f0146	0.058350824
34	0xbdc8ad38	-0.09798664
35	0x3de1ebbe	0.110312924
36	0xbc2f1f8e	-0.010688676
37	0xbded83ca	-0.115974024
38	0x3dd3a45b	0.10334083
39	0x3d9ce34b	0.0766054
40	0xbc821a74	-0.015881754
41	0xbd9badc3	-0.07601502
42	0x3dee4b84	0.11635497
43	0x3cdc87b0	0.02692017
44	0xbdb8ef77	-0.09030049
45	0x3da287f7	0.079360895
46	0xbcdd27f4	-0.02699659
47	0xbcc1e638	-0.023669347
48	0x3c8807d3	0.016605293
49	0xbd8844f9	-0.066537805
50	0xbd4ff0b9	-0.05076668
51	0x3e06dda4	0.13170487
52	0x3b90bce5	0.0044170492
53	0xbdec5ef5	-0.11541549
54	0xbd42b39a	-0.047534563
55	0xbb95400e	-0.004554755
56	0x3db6c577	0.08924382
57	0xbd539536	-0.05165597
58	0x3d7fffef	0.062499937
59	0x3d49e6a6	0.04929223
60	0x3d97637d	0.07392023
61	0x3dbd9ec1	0.092587955
62	0x3d3d0ad5	0.04615291
63	0x3b37f2ad	0.002806823
64	0x3da19899	0.07890434
65	0xbda70d05	-0.0815678
66	0xbd942fb9	-0.07235665
67	0x3c4c5c48	0.012473173
68	0xbc5f7948	-0.013639756
69	0xbbdf2c1f	-0.0068106796
70	0xbd61a234	-0.05508633
71	0xbab470c2	-0.0013766515
72	0xbdc8855f	-0.097910635
73	0xbd157102	-0.036484726
74	0xbdc9644f	-0.098335855
75	0x3c0481ea	0.008087615
76	0xbd945edd	-0.07244656
77	0xbd7e26a3	-0.062048566
78	0x3d9fac96	0.0779659
79	0x3c8ce847	0.017200602
80	0x3de9c4bb	0.114144765
81	0x3d0cc65e	0.034368865
82	0xbdb4180c	-0.08793649
83	0x3bbe3d7e	0.0058056703
84	0x3dcd94c7	0.10038143
85	0xbd4c570f	-0.049887713
86	0x3dde67c0	0.108596325
87	0x3dcae84a	0.09907587
88	0xbd9e5474	-0.07730952
89	0x3d8404b8	0.064462125
90	0xbde75e1a	-0.11297245
91	0x3de97bb3	0.11400547
92	0xbdadf46d	-0.08493886
93	0x3d9bbf23	0.07604816
94	0xbd25d502	-0.040486343
95	0x3de4a784	0.111647636
96	0xbd718c03	-0.058971416
97	0x3bd12371	0.006382399
98	0x3de7f1ce	0.113254175
99	0x3d8ac050	0.06774962
100	0x3c6680fd	0.014068839
101	0x3d8469da	0.06465502
102	0xbd53249f	-0.051548596
103	0xbdc2ff8d	-0.09521399
104	0xbc87996e	-0.016552653
105	0xbdc81bb2	-0.097709075
106	0xbde7b7f5	-0.11314384
107	0xbcf9a018	-0.030471846
108	0x3decc1a1	0.11560369
109	0xbcab8fdc	-0.020942621
110	0x3b8cf369	0.0043014777
111	0x3d283116	0.041062437
112	0xbd1fa59a	-0.03897629
113	0xbd8d088e	-0.06886397
114	0x3d4e010e	0.050293975
115	0xbdaa503b	-0.08316084
116	0x3d660486	0.056156658
117	0xbbde41e4	-0.006782757
118	0xbd8c577f	-0.06852626
119	0xbde46830	-0.11152685
120	0x3d283183	0.041062843
121	0x3d35142f	0.0442087
122	0xbd78f8ac	-0.060784027
123	0x3de45a8d	0.11150084
124	0xbd86cf7a	-0.06582542
125	0xbd97120b	-0.07376488
126	0xbd5921a6	-0.053010605
127	0xbd1cdee0	-0.038298488
128	0x3dd39ec7	0.10333019
129	0x3d34e5fe	0.04416465
130	0xbdf27d88	-0.118403494
131	0x3d20fb89	0.039302383
132	0xbc694775	-0.014238228
133	0x3c520612	0.01281883
134	0x3dd9efef	0.10641467
135	0x3d8fa0d0	0.070130944
136	0x3dd096bc	0.10185
137	0x3d9d24d7	0.07673042
138	0x3db95231	0.0904888
139	0x3e316311	0.17322947
140	0xbb9c7ff8	-0.0047759973
141	0x3dbe585d	0.09294198
142	0xbd959b1c	-0.073049754
143	0x3df7b2d0	0.12094653
144	0xbccd9d33	-0.025099372
145	0x3de4b3b5	0.11167089
146	0xbc94f32c	-0.01818236
147	0xbd93596f	-0.071947925
148	0x3db42bc2	0.08797409
149	0xbe55975f	-0.20858525
150	0xbdc1e83b	-0.094681226
151	0x3e05ecf7	0.13078676
152	0x3d3abbbc	0.045589194
153	0x3d420165	0.04736461
154	0xbde03a7b	-0.10948654
155	0x3e3154aa	0.17317453
156	0x3e061c7a	0.130968
157	0x3e75351f	0.23946045
158	0x3e830135	0.25586858
159	0x3e317ba0	0.17332315
160	0xbd740769	-0.05957738
161	0x3d79453a	0.060857035
162	0xbd563920	-0.052300572
163	0xbd7a9a12	-0.06118209
164	0x3d89b538	0.06724018
165	0x3e2112b8	0.15729797
166	0x3def68f3	0.11689939
167	0xbd3bfb6b	-0.045894068
168	0xbc04b835	-0.008100559
169	0x3dc90b9f	0.0981667
170	0xbde96731	-0.11396635
171	0x3db6fc26	0.08934812
172	0xbda7b1e5	-0.081882276
173	0xbd80dac4	-0.06291726
174	0xbdabbcad	-0.083855964
175	0x3cb34795	0.021884719
176	0xbca22d02	-0.019796852
177	0x3ba9d173	0.005182439
178	0xbc267b1c	-0.0101611875
179	0x3c59fe87	0.013305313
180	0x3d836c17	0.06417101
181	0xbc824901	-0.015903952
182	0xbd99731d	-0.07492659
183	0x3e420476	0.18947014
184	0xbe0427d9	-0.12905826
185	0xbd860127	-0.065431885
186	0x3d848b83	0.06471922
187	0x3d6c43a8	0.05768171
188	0x3da78936	0.08180468
189	0xbd81d01a	-0.0633852
190	0x3e4e90e7	0.20172463
191	0xbd87781c	-0.06614706
192	0x3d17821f	0.036989328
193	0xbda508d3	-0.08058324
194	0xbddba625	-0.10725049
195	0x3d5e21f3	0.054231595
196	0x3d765365	0.060138125
197	0x3df97706	0.12180905
198	0x3cf80860	0.030277431
199	0x3da3d39a	0.07999344
200	0xbdce328a	-0.10068233
201	0x3cff0753	0.031131422
202	0xbd6236ab	-0.055227917
203	0xbdae61de	-0.085147604
204	0x3e180d4c	0.14848822
205	0x3d627931	0.05529136
206	0x3d194cd6	0.037426792
207	0xbc47c4a2	-0.012192877
208	0xbccd3d0f	-0.02505353
209	0xbdd2f612	-0.103008404
210	0x3d8de788	0.06928927
211	0xbc2464b6	-0.010033777
212	0xbd741f92	-0.05960042
213	0xbbe72bcd	-0.007054782
214	0xbd26746c	-0.040638372
215	0x3ddf92a5	0.10916642
216	0x3d69bb3d	0.05706333
217	0x3d598d7e	0.053113453
218	0x3dd33480	0.10312748
219	0xbc8a0cd2	-0.016851816
220	0xbd963d85	-0.07335953
221	0xbe4b7f4a	-0.19872776
222	0x3ce5675b	0.028003385
223	0xbdf58e92	-0.11990084
224	0x3dd3c276	0.10339825
225	0xbd418a1c	-0.047250852
226	0x3cadfb61	0.02123803
227	0xbc8a3924	-0.01687295
228	0x3d1b9086	0.037979625
229	0x3c8489a3	0.016178912
230	0x3db8e49a	0.09027977
231	0x3da02493	0.07819476
232	0xbc35db9e	-0.011099724
233	0xbde7c2f0	-0.11316478
234	0x3d22d1f1	0.039750997
235	0xbdd85d8c	-0.10564718
236	0xbd1a0d90	-0.03761059
237	0xbdf89339	-0.121374555
238	0xbde9b360	-0.11411166
239	0xbd92ca35	-0.07167474
240	0xbd4ec820	-0.050483823
241	0x3dd04ee0	0.10171294
242	0xbc94040c	-0.018068336
243	0xbc027874	-0.007963289
244	0x3d76d7eb	0.06026451
245	0xbc39eeab	-0.011348407
246	0xbd0b1deb	-0.03396408
247	0x3d6ec611	0.05829436
248	0x3da38e0d	0.079860784
249	0x3dcfbc7b	0.10143372
250	0xbd93f37f	-0.072241776
251	0x3de7f45a	0.11325903
252	0xbde97e79	-0.11401076
253	0xbde71f52	-0.11285271
254	0xb6ceb9e5	-6.1609194e-06
255	0x3db6d342	0.08927013

bias f4 [64]
0	0x3e208bca	0.15678325
1	0xbdd81b3e	-0.10552071
2	0x3bac1442	0.0052514384
3	0x3dbc1f90	0.091857076
4	0xbdbbc9d0	-0.09169352
5	0x3de577b1	0.1120447
6	0x3da1932c	0.07889399
7	0x3dd348ce	0.10316621
8	0x3d7eb413	0.06218345
9	0xbcedda65	-0.029034803
10	0x3d9dcc06	0.0770493
11	0x3d25af60	0.040450454
12	0xbd3259b4	-0.04354258
13	0xbd5e2545	-0.05423476
14	0xbd16eb4b	-0.036845487
15	0x3d9e2cc1	0.0772338
16	0xbd9b0cb4	-0.07570782
17	0xbda7a3c9	-0.081855364
18	0x3dddcd9f	0.10830235
19	0x3dec91e4	0.11551264
20	0x3db1fa61	0.08690334
21	0xbdb5c478	-0.08875364
22	0x3e0cb3cf	0.13740467
23	0xbb78c63a	-0.003795995
24	0x3da44e30	0.080227256
25	0x3da74dbf	0.08169126
26	0xbd278985	-0.040902633
27	0xbd1f926c	-0.038958
28	0xbdc7b503	-0.09751322
29	0xbdd83553	-0.10557046
30	0x3d4aa110	0.049470007
31	0x3d7b757f	0.06139135
32	0x3c6b30ab	0.014354865
33	0xbd51df9d	-0.051238645
34	0xbe025ad3	-0.12729959
35	0x3b85bd0a	0.004081373
36	0x3dcd8f0c	0.1003705
37	0x3d37ae5d	0.04484402
38	0x3d0f9166	0.035050772
39	0xbd53c238	-0.051698893
40	0xbccf9a9f	-0.025342284
41	0x3da1bbab	0.07897123
42	0xbccb7eb0	-0.024840683
43	0xbd1bf90d	-0.03807931
44	0xbd8c4301	-0.068487175
45	0x3d2d7a5a	0.04235301
46	0x3d31c0f9	0.043396924
47	0x3e495a9b	0.1966347
48	0x3e309185	0.17243011
49	0xbdd8da98	-0.105885684
50	0x3cc46e01	0.023978235
51	0xbc119c67	-0.008887387
52	0xbd08d4a3	-0.03340591
53	0xbdf6d35e	-0.12052034
54	0xbd0b5205	-0.034013767
55	0xbdc0619a	-0.09393616
56	0x3bad1768	0.0052823313
57	0x3cb33ab2	0.021878574
58	0xbe01e744	-0.12685877
59	0xbd302a7d	-0.04300927
60	0x3d053523	0.03252138
61	0xbd9e7d7b	-0.07738777
62	0x3ccba3ad	0.02485832
63	0xbdede40d	-0.11615763

weight f4 [64, 64]
0	0xbdc7492e	-0.09730755
1	0x3c12f6b2	0.00896995
2	0x3c052508	0.008126505
3	0x3d5fe2d2	0.054659672
4	0xbdacaefa	-0.08431812
5	0x3dce91cd	0.10086403
6	0xbdc9d508	-0.098550856
7	0xbdd956d8	-0.10612267
8	0x3d869f5d	0.06573365
9	0xbdd9e131	-0.10638655
10	0x3d1d6867	0.038429644
11	0xbc554a00	-0.013018131
12	0xbdc27ea2	-0.094968095
13	0x3d9a414c	0.07531986
14	0x3d879c89	0.066216536
15	0x3deb7ac3	0.11498024
16	0xbdbed23d	-0.093174435
17	0x3c765e3a	0.015037114
18	0xbdc689cc	-0.096942514
19	0xbd91b559	-0.071146674
20	0xbdb1bc9a	-0.08678551
21	0x3dea12f7	0.114293985
22	0x3dc0659f	0.09394383
23	0xbe022276	-0.12708458
24	0x3db375d1	0.08762706
25	0xbd385b2a	-0.045008816
26	0xbda3fa6b	-0.08006748
27	0x3da08f8a	0.07839878
28	0x3d31787a	0.043327786
29	0x3c4c578f	0.0124720475
30	0x3d0ca890	0.03434044
31	0xbde3312e	-0.11093365
32	0xbddc64bf	-0.10761403
33	0xbd38e013	-0.04513557
34	0xbd3c0e19	-0.045911882
35	0x3d2b88ba	0.04187844
36	0xbc72112d	-0.014774603
37	0xbcd4100b	-0.025886556
38	0x3df4a75c	0.11945984
39	0x3de0d9db	0.10979053
40	0x3def0af3	0.1167201
41	0x3d7f0dcf	0.06226903
42	0xbd7eff14	-0.06225498
43	0x3ded7e8f	0.11596405
44	0xbdf7ed09	-0.12105758
45	0xbd2411c2	-0.040055998
46	0x3dedad38	0.116053045
47	0x3d998654	0.07496324
48	0x3d0dce6c	0.034620687
49	0x3ddb42f0	0.10706127
50	0x3daefe90	0.08544648
51	0x3cf832a2	0.030297581
52	0x3dedf803	0.1161957
53	0x3d937aca	0.072011545
54	0xbdf71a48	-0.120655596
55	0x3ddb4f8c	0.10708532
56	0x3df1717f	0.11789226
57	0x3ca1ec95	0.019766131
58	0x3d55e438	0.0522196
59	0xbdae0afd	-0.084981896
60	0xbcf13778	-0.029445395
61	0xbc322c9b	-0.010874893
62	0xbd012cf0	-0.031536996
63	0xbcfd6029	-0.030929642
64	0x3a244e43	0.00062677654
65	0xbcd096e6	-0.025462579
66	0x3e01c563	0.12672953
67	0xbca631ab	-0.020287355
68	0x3de4fdb7	0.11181205
69	0x3ccfd6b6	0.025370937
70	0xbdaa1a31	-0.08305777
71	0xbcffe2e2	-0.031236116
72	0xbd548017	-0.05187997
73	0xbdb16b0f	-0.08662998
74	0x3da14927	0.07875281
75	0xbd17535a	-0.036944725
76	0xbc626d2d	-0.013819975
77	0x3caf1afe	0.021375176
78	0x3c940840	0.01807034
79	0x3db49bec	0.08818802
80	0x3d853bbc	0.06505534
81	0xbdca8adf	-0.09889769
82	0xbb949bcc	-0.004535174
83	0xbd0f588f	-0.034996565
84	0x3b8e2e7a	0.0043390365
85	0x3d1e6c14	0.03867729
86	0xbcd05ada	-0.025433946
87	0xbd993149	-0.074801035
88	0xbdc41a37	-0.095753126
89	0x3d34e797	0.044166174
90	0x3d65164f	0.05592948
91	0x3d6b5cd1	0.057461563
92	0xbd0cce1f	-0.03437626
93	0xbde94ce8	-0.11391622
94	0xbd9f9159	-0.07791395
95	0xbd8af551	-0.06785072
96	0xbd53cc70	-0.05170864
97	0x3d39d9c6	0.0453737
98	0xbdd948b7	-0.106095724
99	0x3cae7c5b	0.021299532
100	0xbd98565a	-0.07438345
101	0xbdda212a	-0.10650857
102	0x3db6636f	0.08905684
103	0x3d859da2	0.06524207
104	0xbdca8c86	-0.09890084
105	0xbdef5e0c	-0.1168786
106	0x3cc822a7	0.024430586
107	0x3bee084f	0.007264174
108	0x3dee6508	0.11640364
109	0xbcabceb9	-0.020972596
110	0x3d9aec1f	0.07564568
111	0xbde2af59	-0.11068601
112	0x3d30714b	0.043076795
113	0xbc4407cc	-0.01196475
114	0xbd8ea3c9	-0.06964833
115	0x3c456a27	0.0120492345
116	0xbd31939e	-0.04335367
117	0xbd4e42c8	-0.050356656
118	0xbd33a0fc	-0.0438547
119	0xbc0da0d7	-0.008644304
120	0x3d5857ac	0.052817985
121	0xbde8eaf8	-0.11372942
122	0x3d2b3365	0.04179706
123	0x3d93324f	0.0718733
124	0x3be676dc	0.007033212
125	0x3b151199	0.0022746085
126	0xbd9f88f6	-0.07789795
127	0x3b6853d6	0.003545036
128	0xbd88211b	-0.06646939
129	0xbd201d9c	-0.039090738
130	0x3dc8cfbe	0.09805249
131	0xbd4da638	-0.050207347
132	0xbd84dd7e	-0.06487559
133	0x3ccd136d	0.025033677
134	0x3d8fe1fb	0.07025524
135	0xbd387b16	-0.04503926
136	0xbd19d778	-0.037559003
137	0x3dd97a6b	0.106190525
138	0xbd99e9a0	-0.075152636
139	0xbdde5f2e	-0.10857998
140	0xbdba5f68	-0.091002285
141	0xbded064f	-0.11573469
142	0x3dc024f8	0.09382051
143	0x3d8bd881	0.06828404
144	0x3dcc9f1a	0.09991284
145	0xbd10d637	-0.03536054
146	0xbd81a15f	-0.06329607
147	0xbc8b63e3	-0.017015403
148	0xbd1a7e19	-0.037717912
149	0x3dba9ceb	0.09111961
150	0x3d9cb9a3	0.07652595
151	0x3d9cb189	0.0765105
152	0xbd80edf4	-0.06295386
153	0x3dc6b6b6	0.09702818
154	0xbd530ad8	-0.051524013
155	0xbd9be0b6	-0.076112196
156	0x3da15965	0.07878379
157	0x3d8fcfe5	0.070220746
158	0x3dd3b748	0.103376925
159	0x3cb581dd	0.02215665
160	0x3d74a63c	0.059728846
161	0xbdfbbcff	-0.122919075
162	0xbddbec2c	-0.107384056
163	0x3ddf51e0	0.10904288
164	0x3dbd7286	0.09250359
165	0xbc1b8502	-0.009492161
166	0xbcccb716	-0.024989646
167	0xbd43bf68	-0.04778996
168	0x3d4d1dee	0.05007737
169	0xbd9972bf	-0.07492589
170	0xbdeeb7cd	-0.11656151
171	0x3cea8bf7	0.028631194
172	0x3ddc6703	0.107618354
173	0xbdb01de5	-0.08599452
174	0xbcebe355	-0.028794924
175	0xbd031b0e	-0.032008223
176	0xbce998d0	-0.02851525
177	0x3d073deb	0.033018034
178	0x3d596dc7	0.053083207
179	0x3d073004	0.033004776
180	0x3df27d39	0.118402906
181	0xbca99e70	-0.020705432
182	0x3b4c94fb	0.003121673
183	0x3dcd76b7	0.10032409
184	0xbca9e403	-0.020738607
185	0x3c6d7fc9	0.014495798
186	0xbcce85a1	-0.025210204
187	0xbded57f3	-0.115890406
188	0x3dcf97f5	0.101364054
189	0x3cd1b6c0	0.025599837
190	0x3df67e59	0.12035818
191	0x3ddc353a	0.1075234
192	0x3e0930c4	0.13397509
193	0xbcda677e	-0.026660677
194	0x3d3c318f	0.0459457
195	0x3dda7b0d	0.10668001
196	0xbd988924	-0.074480325
197	0x3de45399	0.111487575
198	0x3dbbd5ea	0.0917166
199	0x3dda0a78	0.10646528
200	0xbd016e1e	-0.031599157
201	0xbd1054d7	-0.03523716
202	0xbd5d3491	-0.05400521
203	0x3dd6e55c	0.104929656
204	0x3da89333	0.08231201
205	0xbe14410a	-0.14477935
206	0xbd9d677a	-0.07685752
207	0xbde4e891	-0.11177171
208	0xbc95c9a7	-0.018284632
209	0x3d48bab2	0.04900617
210	0x3de48945	0.111589946
211	0x3d5d5d9c	0.05404435
212	0x3df73622	0.12070872
213	0x3d8b20a4	0.06793335
214	0x3df2a6ef	0.11848246
215	0xbda32525	-0.07966069
216	0xbd9e631f	-0.077337496
217	0x3e180f81	0.14849664
218	0x3d8b89b6	0.06813376
219	0x3d9f58ed	0.07780633
220	0x3dc8c6a1	0.098035105
221	0xbd016c21	-0.03159726
222	0xbd0747e6	-0.033027552
223	0xbd9bddb3	-0.07610645
224	0x3cab2ad0	0.020894438
225	0xbd91031d	-0.07080672
226	0x3da35461	0.079750784
227	0x3d1625b8	0.036657065
228	0x3d048a2a	0.032358326
229	0xbd09a8d4	-0.033608273
230	0xbdfbc7fb	-0.122940026
231	0x3dd19966	0.102343366
232	0x3d36fbab	0.044673603
233	0x3e2d6fb8	0.16937149
234	0xbd5b431b	-0.053530794
235	0xbd42e519	-0.047581766
236	0x3dd676a4	0.10471848
237	0x3dfd1f77	0.12359517
238	0xbd8ef896	-0.06981008
239	0x3b019b91	0.0019776563
240	0x3c06e1b4	0.008232523
241	0x3d869c1a	0.06572743
242	0xbd8db051	-0.06918395
243	0xbdaad1ef	-0.08340823
244	0x3e0b20f3	0.13586788
245	0x3d406e12	0.04697997
246	0x3d5a27fd	0.053260792
247	0xbdf52db1	-0.119716056
248	0x3cf50478	0.029909357
249	0x3db90a3f	0.090351574
250	0xbddbdb4f	-0.10735189
251	0xbdbeaa59	-0.09309835
252	0xbcab58e1	-0.020916404
253	0x3dda056d	0.10645566
254	0xbde8e1d6	-0.113712
255	0x3a31ef49	0.00067876704

bias f4 [64]
0	0x3db5976b	0.08866771
1	0x3b697425	0.0035622206
2	0x3d0d3ff2	0.03448481
3	0x3ded4f93	0.11587443
4	0xbd9840a0	-0.07434201
5	0xbdbe3e79	-0.092892595
6	0x3b139ac4	0.0022522667
7	0x3ce8bbfa	0.028409947
8	0x3e010341	0.12598898
9	0xbc50481f	-0.0127125075
10	0xbdb7594d	-0.0895258
11	0x3ba6007e	0.0050659766
12	0x3dc4d625	0.09611157
13	0xbccf2269	-0.025284963
14	0x3df84526	0.12122564
15	0x3c931dce	0.017958548
16	0xbbc633fb	-0.006048677
17	0x3c86a50b	0.01643612
18	0xbcaf41f6	-0.021393757
19	0x3de488c6	0.111589
20	0x3e0aba04	0.13547522
21	0x3aed5f01	0.0018109978
22	0x3e1e50e0	0.15460539
23	0xbd738b1c	-0.059458837
24	0xbceb327f	-0.028710602
25	0x3d232875	0.039833505
26	0x3da5b186	0.080905005
27	0x3e7b8707	0.24563228
28	0x3d70f396	0.05882605
29	0x3e18cb90	0.14921403
30	0xbdf21e3e	-0.118221745
31	0xbdc1b459	-0.09458227
32	0xba775914	-0.0009435576
33	0x3e370643	0.17873482
34	0xbdd5a731	-0.1043228
35	0x3b18bee7	0.0023307146
36	0xbdc96637	-0.09833949
37	0xbdb64fa6	-0.089019105
38	0x3de3fcec	0.111322254
39	0xbd97ef58	-0.07418698
40	0x3d1c28c4	0.038124815
41	0xbcce834f	-0.025209097
42	0x3d6e11b9	0.05812237
43	0xbd025a23	-0.031824242
44	0xbc253da5	-0.010085498
45	0xbd6bad1f	-0.057538148
46	0x3dbf0727	0.09327536
47	0x3cb882a9	0.022523241
48	0xbdbc7009	-0.092010565
49	0xbdbf7a81	-0.09349538
50	0xbc31b472	-0.010846244
51	0x3de628a3	0.112382196
52	0xbd9c49f1	-0.07631291
53	0x3dc2b51b	0.095071994
54	0x3e4c6583	0.19960599
55	0x3c6bbfba	0.014388973
56	0x3d828c8d	0.06374464
57	0x3dfc0865	0.12306289
58	0x3cc04e74	0.02347491
59	0x3d091787	0.033469703
60	0x3c0dcd84	0.008654956
61	0x3c954590	0.018221647
62	0x3ccf8fbd	0.025337094
63	0xbdf3f7ac	-0.11912474

weight f4 [64, 64]
0	0x3d119ec5	0.035551805
1	0x3a0d90bd	0.0005400291
2	0x3b096ce0	0.0020969436
3	0xbdd79140	-0.10525751
4	0x3deab757	0.114607506
5	0xbd2a857f	-0.041631218
6	0x3db1352e	0.08652721
7	0x3db90449	0.090340205
8	0xbd87404d	-0.06604061
9	0x3db26287	0.08710199
10	0xbdeff50f	-0.11716663
11	0xbdc202e3	-0.09473207
12	0xbdb69193	-0.08914485
13	0xbdf567f2	-0.119827166
14	0x3ce7f5c6	0.028315436
15	0x3d4c4ee0	0.04987991
16	0x3c77200c	0.015083324
17	0xbda2afc7	-0.07943683
18	0xbd5ba1b3	-0.053621005
19	0x3dac3cb7	0.08410018
20	0xbd9d8aa3	-0.076924585
21	0xbc9210b9	-0.01783024
22	0x3c914180	0.017731428
23	0x3c896b92	0.016774926
24	0x3c8ab5cd	0.016932392
25	0x3d801464	0.06253889
26	0xbc6fd073	-0.0146371005
27	0x3d8b8b02	0.06813623
28	0x3dc6e934	0.09712449
29	0xbd17a319	-0.037020776
30	0xbca39e0f	-0.01997283
31	0x3dc0e6da	0.094190314
32	0xbc9e99e5	-0.019360492
33	0xbd4b8252	-0.04968483
34	0xbdd91d30	-0.1060127
35	0x3db49307	0.08817106
36	0x3c538627	0.012910402
37	0x3d83e5a5	0.064402856
38	0x3d042574	0.03226228
39	0xbd896d37	-0.06710284
40	0x3dc1467d	0.09437273
41	0xbd910e89	-0.070828505
42	0x3ce1bd39	0.027556049
43	0x3ca70d57	0.020392103
44	0xbdc2f5d9	-0.09519548
45	0xbc31d016	-0.010852834
46	0x3d396b94	0.04526861
47	0x3bc9e979	0.0061618653
48	0x3e04d8bb	0.12973301
49	0x3dfa9f11	0.12237371
50	0xbd9c7e26	-0.076412484
51	0xbdd9535f	-0.10611605
52	0xbdc23841	-0.09483386
53	0x3d9b3eb5	0.0758032
54	0xbd9df765	-0.077132024
55	0x3ded561f	0.11588692
56	0xbd8c2a73	-0.06844034
57	0x3d69ec2f	0.057110008
58	0xbd57c4e5	-0.052678008
59	0xbd02ebc9	-0.031963143
60	0xb97ff548	-0.0002441007
61	0x3dc9bb72	0.098502055
62	0x3ddc0e15	0.107448734
63	0xbd08b72a	-0.033377804
64	0x3db3f7a0	0.08787465
65	0xbd267249	-0.040636335
66	0x3d675f36	0.056487285
67	0xbc36be89	-0.011153826
68	0x3d13f273	0.03611989
69	0x3df62b9c	0.120200366
70	0xbd47d21c	-0.04878436
71	0xbd0cd66c	-0.034384176
72	0xbd4ea41f	-0.050449487
73	0xbcad759b	-0.021174243
74	0x3d01fb0b	0.031733554
75	0x3ded656e	0.11591612
76	0xbd2e8cd6	-0.04261478
77	0x3d62d5e7	0.055379774
78	0xbda5b4e1	-0.080911405
79	0xbc84270d	-0.016131902
80	0xbcc455e1	-0.023966732
81	0x3d281542	0.041035898
82	0xbd12fbec	-0.035884783
83	0xbdcbd357	-0.09952419
84	0xba1fe504	-0.00060994946
85	0xbc299a0e	-0.010351671
86	0xbd31fb2e	-0.043452434
87	0x3c690b68	0.014223911
88	0x38de1a8d	0.000105907304
89	0x3d2e90e7	0.04261866
90	0x3df93ab3	0.12169399
91	0xbdac62c6	-0.08417277
92	0x3d6ce2d5	0.05783351
93	0x3cf1ce45	0.029517302
94	0x3d8a7fcc	0.067626566
95	0x3dbc8b2c	0.092062324
96	0x3bd4bb58	0.0064920597
97	0xbdc2d3f7	-0.09513085
98	0x3dfe8233	0.12427177
99	0x3dd8c63c	0.10584685
100	0x3dd96a38	0.10615963
101	0xbda19281	-0.078892715
102	0x3d0982fd	0.033572186
103	0x3d7ccff4	0.061721757
104	0x3d3759d9	0.04476342
105	0x3cbff38e	0.023431566
106	0xbd85f346	-0.06540541
107	0x3d4be150	0.04977542
108	0xbd3fda0d	-0.04683881
109	0x3d7da255	0.06192239
110	0x3dd0ee32	0.10201682
111	0x3c3b4873	0.011430847
112	0xbde6e5f4	-0.11274329
113	0xbd8bc421	-0.06824518
114	0x3d9aa19f	0.07550358
115	0xbdc12cfb	-0.094324075
116	0xbce50169	-0.027954774
117	0xbcc73010	-0.02431491
118	0xbd978ac6	-0.07399516
119	0xbdceb842	-0.10093738
120	0x3d6fed09	0.058575664
121	0x3d82ab07	0.06380277
122	0xbdba748c	-0.09104261
123	0x3db01c19	0.08599109
124	0xbbf569c2	-0.007489414
125	0x3c9bcbdf	0.019018112
126	0x3dd595ea	0.104289845
127	0x3dd23b46	0.10265212
128	0x3dd0355d	0.10166428
129	0x3e0ab12d	0.1354415
130	0xbde005e4	-0.109386235
131	0xbdba47fd	-0.09095762
132	0xbd51ea08	-0.05124858
133	0xbdcce0a8	-0.10003787
134	0x3d4456c5	0.047934312
135	0xbd50d171	-0.05098099
136	0xbc6e317d	-0.014538166
137	0x3dd05159	0.10171766
138	0x3dc51885	0.09623817
139	0xbdb6c512	-0.08924307
140	0xbc4eaac7	-0.012613959
141	0x3c64fd3c	0.013976391
142	0x3a93038d	0.0011216268
143	0x3d395039	0.045242522
144	0x3df5461e	0.119762644
145	0xbdb21499	-0.08695335
146	0x3d9b1a0d	0.07573328
147	0xbe036478	-0.12831295
148	0x3d19d80f	0.037559565
149	0x3c9fbe20	0.019499838
150	0xbdcc8bc0	-0.09987593
151	0x3b9b158d	0.0047327937
152	0xbd0877de	-0.03331744
153	0x3db57c79	0.08861632
154	0xbda85345	-0.082190074
155	0xbdac4e4e	-0.08413373
156	0xbdb15ec9	-0.08660657
157	0x3d793d9d	0.060849775
158	0x3e09f800	0.1347351
159	0xbcfa619b	-0.03056412
160	0xbdc323f0	-0.09528339
161	0xbdd457ec	-0.10368332
162	0xbd52c860	-0.051460624
163	0x3d77e2e8	0.06051913
164	0xbd0f4947	-0.034981992
165	0xbc214256	-0.009842476
166	0x3c92e247	0.017930163
167	0xbdae85f0	-0.0852164
168	0xbd1d59b4	-0.038415626
169	0x3b2d5f1e	0.00264544
170	0xbd8e7843	-0.06956532
171	0x3da487e0	0.080337286
172	0xbb64e06c	-0.0034923805
173	0xbddfea9e	-0.109334216
174	0xbc0692b0	-0.008213684
175	0xbdcd12f3	-0.1001338
176	0x3ade4b2f	0.0016959662
177	0x3d6b7c7c	0.057491764
178	0xbda7baf7	-0.081899576
179	0xbd9392f9	-0.07205767
180	0x3d77a191	0.060456816
181	0x3c9a635d	0.018846208
182	0x3d786b93	0.060649466
183	0x3e17239e	0.1475968
184	0x3d2dbb48	0.042414933
185	0x3e0e2b23	0.13883643
186	0x3de07e11	0.10961545
187	0x3c375197	0.011188886
188	0x3daf13ff	0.08548736
189	0x3deec36f	0.1165837
190	0xbd31bd18	-0.043393224
191	0xbd565f2e	-0.052336864
192	0x3cb568f4	0.022144772
193	0x3db1a2d6	0.086736366
194	0x3d87c687	0.06629663
195	0x3ded7c80	0.11596012
196	0x3dd67c34	0.104729086
197	0xbdfa54de	-0.122232184
198	0xbb8b6377	-0.0042538005
199	0xbccd1cb1	-0.025038095
200	0xbd9506ec	-0.07276711
201	0xbd31b923	-0.04338945
202	0x3d766b74	0.06016107
203	0xbd92c535	-0.071665205
204	0x3dad35e4	0.084575444
205	0xbdf3f7a6	-0.119124696
206	0x3c2593ff	0.010106086
207	0x3da5bd10	0.080927014
208	0x3dd9741d	0.1061785
209	0x3df87331	0.12131346
210	0xbdb00bf6	-0.08596031
211	0x3d98c48d	0.07459364
212	0xbc69b3bb	-0.0142640425
213	0x3dc1d4c5	0.09464411
214	0xbdcaed39	-0.09908528
215	0x3dfd51f7	0.12369149
216	0x3c163f2d	0.009170336
217	0x3c483f85	0.0122221755
218	0x3cf40808	0.029788986
219	0x3e029ee2	0.12755921
220	0xbdebf3d2	-0.115211144
221	0x3d667713	0.0562659
222	0x3da7e5ba	0.08198114
223	0x3d92e685	0.07172874
224	0xbc775c7a	-0.015097732
225	0x3dee984e	0.116501436
226	0xbd0f64ba	-0.03500817
227	0xbc7ad25c	-0.015308943
228	0x3daa3244	0.08310369
229	0x3d86aea9	0.065762825
230	0xbb43471f	-0.002979703
231	0x3d6875b8	0.05675289
232	0x3dbe99ae	0.09306656
233	0x3b302040	0.0026874691
234	0xbd2f1905	-0.04274847
235	0xbd9c6a55	-0.07637469
236	0x3d9647fa	0.07337947
237	0xbd5c42cb	-0.053774636
238	0x3dc1ea77	0.09468549
239	0x3b855250	0.0040686503
240	0xbdd85f1e	-0.10565017
241	0x3d8a6557	0.0675761
242	0x3d38d94d	0.04512911
243	0xbd84985b	-0.06474372
244	0x3d364807	0.044502284
245	0xbbc292f3	-0.005937928
246	0xbdd08dc0	-0.10183287
247	0xbd5ec82b	-0.054390114
248	0xbd4c7176	-0.049912892
249	0x3d8e683d	0.069534756
250	0xbd0548d5	-0.03254016
251	0xbdb5e0d1	-0.08880771
252	0xbbf21da2	-0.0073887864
253	0xbcb4366d	-0.021998608
254	0xbcb9fa9a	-0.022702504
255	0x3cdc8bda	0.026922155

bias f4 [64]
0	0x3ca9f423	0.020746296
1	0x3dbd8e91	0.09255708
2	0x3d98f380	0.07468319
3	0xbdc473d6	-0.095924065
4	0xbdd80905	-0.10548595
5	0x3c920332	0.01782379
6	0xbd9a6325	-0.075384416
7	0xbdb4e921	-0.08833528
8	0x3eb08895	0.34479204
9	0xbc6778a1	-0.014127881
10	0xbd8c991d	-0.068651415
11	0xbd86982d	-0.06571994
12	0xbde4c3f6	-0.11170189
13	0xbdca3476	-0.098732874
14	0xbd93bbcf	-0.07213556
15	0x3dc89901	0.09794808
16	0x3d1c7212	0.038194723
17	0x3dfa7ef9	0.12231249
18	0xbdbe3416	-0.09287278
19	0xbb97a5c4	-0.004627915
20	0xbd251f11	-0.04031283
21	0xbda80b12	-0.082052365
22	0xbd6d1b66	-0.057887457
23	0x3d85c7bb	0.06532236
24	0xbdea68c1	-0.114457615
25	0xbc656ec8	-0.014003463
26	0x3d163503	0.03667165
27	0xbd530166	-0.051515006
28	0x3ce6cd7d	0.028174156
29	0x3c8b3220	0.016991675
30	0x3d608d15	0.054822046
31	0x3e0f790d	0.14011021
32	0x3e724be6	0.23661765
33	0xbdf78085	-0.1208506
34	0x3d985f8e	0.074401006
35	0x3d333708	0.043753654
36	0xbd56f3a6	-0.052478455
37	0x3d510c9c	0.051037416
38	0x3e1c851e	0.15285155
39	0x3dbc78d9	0.09202737
40	0xbe107ea5	-0.14110811
41	0x3e598499	0.21241988
42	0x3c08fb4e	0.008360697
43	0xbde36949	-0.11104066
44	0x3bf5b382	0.0074982056
45	0x3e6ca457	0.23109566
46	0x3e26af91	0.16277911
47	0x3dabc413	0.083870076
48	0xbded9b93	-0.11601939
49	0x3d06cfb8	0.03291294
50	0x3d9d2e3d	0.07674835
51	0xbd962815	-0.07331864
52	0x3db26b95	0.08711926
53	0x3d313b9f	0.04326975
54	0x3e189dd0	0.1490395
55	0xbd8d3a87	-0.06895929
56	0x3c983845	0.018581519
57	0x3d8a5227	0.067539506
58	0x3db85ee8	0.09002477
59	0x3d00d872	0.03145642
60	0x3e212ac8	0.15738976
61	0x3db2232e	0.08698116
62	0x3e0eab9b	0.1393265
63	0xbe078cff	-0.1323738

weight f4 [64, 64]
0	0x3d01fa29	0.031732712
1	0x3dd84c40	0.105614185
2	0x3d93b31e	0.07211898
3	0xbdd02aba	-0.101643994
4	0xbdc07e33	-0.093990706
5	0xbdd4adc0	-0.10384703
6	0x3d655ac8	0.05599478
7	0xbdd7093e	-0.1049981
8	0x3e49ae47	0.19695388
9	0xbe04b965	-0.12961347
10	0x3d775d78	0.060391873
11	0xbc695e29	-0.014243641
12	0x3d940f54	0.07229486
13	0x3da82c48	0.08211571
14	0x3de11a4e	0.10991345
15	0x3d9836e6	0.07432346
16	0x3d2b4a81	0.0418191
17	0xbd3c96b0	-0.046042144
18	0x3c255bf7	0.010092727
19	0x3d3e6ce1	0.046490554
20	0xbd0f8b1e	-0.035044782
21	0xbd86388c	-0.06553754
22	0x3c8aa4ba	0.01692425
23	0x3db0b57b	0.08628365
24	0xbd916c9c	-0.07100794
25	0xbd8087fa	-0.062759355
26	0x3d7daeaf	0.06193417
27	0x3a7b853b	0.0009594743
28	0xbdae33ff	-0.08506011
29	0x3ccba52b	0.024859032
30	0x3c564fe3	0.01308057
31	0x3daae017	0.08343523
32	0x3e276a3f	0.16349123
33	0x3c3b4c86	0.011431819
34	0x3d551b65	0.05202808
35	0xbbc0ca3b	-0.0058834828
36	0xbe04120e	-0.12897512
37	0xbe0b5df1	-0.13610055
38	0x3d0da70e	0.034583144
39	0x3c0b05ce	0.008485271
40	0xbcad4d35	-0.02115498
41	0x3e09c0ab	0.13452403
42	0x3dbd7155	0.09250132
43	0xbd2263ef	-0.039646085
44	0x3d1eed9a	0.038800813
45	0x3e38e2d0	0.18055272
46	0x3c26832f	0.010163113
47	0xbccf67d1	-0.025318058
48	0xbd300f4c	-0.04298334
49	0x3da7b37a	0.08188529
50	0xbd024239	-0.031801436
51	0x3b774520	0.003773041
52	0xbce45ad2	-0.027875338
53	0x3d742a32	0.059610553
54	0xbd65b4eb	-0.05608074
55	0x3c9acba2	0.018895928
56	0xbd994244	-0.07483342
57	0xbdc75e2e	-0.0973476
58	0xbd79fcb9	-0.06103203
59	0xbdeccf0c	-0.115629286
60	0x3d9b9bc1	0.07598067
61	0xbb91dc21	-0.0044512902
62	0x3e260a51	0.16214873
63	0x3db4d8ed	0.08830438
64	0x3b8307e6	0.0039987443
65	0x3d0f05f5	0.03491779
66	0x3cf0ae38	0.029379949
67	0xbaf7a0e4	-0.0018892554
68	0x3b9634a3	0.0045839115
69	0x3dced3d2	0.10098995
70	0x3c9f123e	0.019417878
71	0xbda9a3f1	-0.082832225
72	0xbd59ae66	-0.053144835
73	0x3dcd8902	0.10035898
74	0x39ba28af	0.00035506996
75	0x3c550fef	0.013004287
76	0x3dafd917	0.085863285
77	0xbabbc07f	-0.0014324336
78	0xbd813b3e	-0.06310128
79	0xbae9853a	-0.0017816194
80	0x3c4a1f64	0.012336586
81	0x3dc1addc	0.09456989
82	0xbd099de4	-0.03359784
83	0x3cc7d0e3	0.024391597
84	0xbbf69800	-0.007525444
85	0x3cf789f0	0.03021714
86	0x3df1a3f6	0.11798851
87	0x3d336c82	0.043804653
88	0xbc1256f3	-0.008931863
89	0x3d577f14	0.052611426
90	0xbd536172	-0.051606603
91	0xbddd4452	-0.10804047
92	0xbd1bc7dc	-0.038032398
93	0x3de7af30	0.11312711
94	0x3dcf61f0	0.10126102
95	0xbc85ef4f	-0.016349463
96	0x3d1c9674	0.03822942
97	0xbd853fd3	-0.06506314
98	0x3dff69b8	0.12471336
99	0x3dbf725c	0.09347984
100	0x3d697b34	0.05700226
101	0x3d23e281	0.040010933
102	0xbde72ddd	-0.112880446
103	0x3db6e397	0.08930128
104	0x3c81a144	0.015823968
105	0xbd75ab14	-0.059977606
106	0x3d51fd63	0.05126704
107	0xbc5c9caa	-0.013465086
108	0xbb04f262	-0.0020286073
109	0x3d0daaab	0.03458659
110	0xbdd8c580	-0.10584545
111	0xbcc1e852	-0.02367035
112	0xbc774c38	-0.015093856
113	0xbda9e730	-0.08296049
114	0x3cb17464	0.021661945
115	0xbbe3077f	-0.006928384
116	0xbce07fe6	-0.027404737
117	0xbd498b87	-0.04920533
118	0x3c902cf1	0.017599555
119	0x3c80bd4d	0.015715266
120	0x3daaded3	0.083432816
121	0xbc3aa3aa	-0.01139156
122	0x3ccc5878	0.024944529
123	0x3d93b257	0.0721175
124	0x3df3a076	0.1189584
125	0xbc512b68	-0.0127666965
126	0xbdf55201	-0.11978532
127	0x3d4acd41	0.04951215
128	0x3d808d43	0.062769435
129	0x3b834d12	0.00400699
130	0x3becea19	0.007230055
131	0x3da8e1bd	0.08246181
132	0xbddde9fa	-0.10835643
133	0xbd75beb9	-0.05999634
134	0xbd9ec3bc	-0.07752177
135	0xbdb709df	-0.0893743
136	0xbc1830f9	-0.00928902
137	0xbd930df6	-0.07180397
138	0x3d74b82c	0.059745952
139	0x3da9332d	0.08261714
140	0x3def4bc2	0.116843715
141	0xbdc22a17	-0.09480684
142	0x3d015a2d	0.03158014
143	0xbd87352e	-0.0660194
144	0x3d458b64	0.048228636
145	0x3dcd5e1f	0.10027718
146	0x3dca54f4	0.09879485
147	0x3dd503c9	0.104011126
148	0xbd6c98a6	-0.057762764
149	0x3ca020d2	0.0195469
150	0x3d9abedf	0.07555937
151	0xbd4c0849	-0.04981259
152	0xbdd7b094	-0.105317265
153	0x3da7466c	0.08167729
154	0x3d8d3f4a	0.06896837
155	0xbc8171a8	-0.015801266
156	0xbbf0eeb4	-0.0073526744
157	0xbd08779e	-0.0333172
158	0xbdf27c3b	-0.11840101
159	0xbd223f6d	-0.03961127
160	0x3ddc24ed	0.107492305
161	0x3db78539	0.08960957
162	0xbcf953ce	-0.030435469
163	0xbde25919	-0.1105215
164	0xbcac05a9	-0.020998793
165	0x3cb73bee	0.022367444
166	0x3d6472a7	0.055773403
167	0x3da1bb70	0.07897079
168	0x3de39f1d	0.11114333
169	0x3c9be046	0.01902784
170	0xbbb699f4	-0.005572552
171	0xbdb447f9	-0.0880279
172	0xbdd73ce0	-0.10509658
173	0xbdd39370	-0.10330856
174	0xbd731bb1	-0.05935258
175	0xbdbbbf3a	-0.09167333
176	0xbc3ba396	-0.011452576
177	0xbd251ea0	-0.04031241
178	0x3d807207	0.06271749
179	0x3dd7db74	0.10539904
180	0xbdbde1ce	-0.092715845
181	0x3d22898b	0.039681952
182	0xbd58811f	-0.052857514
183	0x3dbf8645	0.09351782
184	0x3c8f84b3	0.01751933
185	0xbc934294	-0.017976083
186	0xbd94f980	-0.07274151
187	0x3db1b86a	0.08677752
188	0xbd551243	-0.05201937
189	0x3d8fa124	0.07013157
190	0x3db2569d	0.087079264
191	0xbde97dd1	-0.11400951
192	0x3d6d7334	0.057971194
193	0x3c598160	0.013275474
194	0xbb8e9656	-0.0043514175
195	0x3dedbdf6	0.11608498
196	0x3dbce8c7	0.09224086
197	0xbd92193c	-0.07133719
198	0xbc830caf	-0.015997259
199	0xbde1bd4e	-0.11022435
200	0xbd4731fd	-0.048631657
201	0x3cee2d78	0.029074416
202	0xbd2db556	-0.042409264
203	0xbdbdfee2	-0.09277131
204	0x3d27ce8e	0.04096847
205	0xbdd6b66e	-0.104840145
206	0x3d190a3f	0.037363287
207	0x3cc0114d	0.02344575
208	0x3dcee483	0.10102179
209	0xbd1caad7	-0.038248863
210	0x3d4e3c11	0.050350253
211	0xbd6da0eb	-0.05801479
212	0xbd8a3260	-0.067478895
213	0x3ca22889	0.01979472
214	0xbdcb2a77	-0.09920209
215	0x3bb45f45	0.005504521
216	0xbd2f858a	-0.042851962
217	0xbd77621a	-0.06039629
218	0x3e030fd5	0.12799008
219	0xbd9f857e	-0.077891335
220	0xbd069bfa	-0.032863595
221	0x3d13ccea	0.036084093
222	0x3e0df6a3	0.13863616
223	0x3d6df6be	0.05809664
224	0x3d0e5e62	0.03475798
225	0xbd4c8a54	-0.049936607
226	0xbca520f2	-0.020157311
227	0xbd121394	-0.035663202
228	0x3da83fd2	0.08215298
229	0xbe0e1903	-0.13876729
230	0x3d8dea1d	0.06929419
231	0xbdef3ea0	-0.11681867
232	0xbadbf736	-0.0016782049
233	0xbd0c85ca	-0.03430728
234	0x3d0134bc	0.031544432
235	0x3d856ab1	0.065144904
236	0x3d11f4c6	0.035633825
237	0x3e0d0bfb	0.13774101
238	0x3d4ed392	0.050494738
239	0xbd71c6db	-0.059027534
240	0x3de9dc87	0.114190154
241	0x3db9b249	0.09067208
242	0x3df518bd	0.11967609
243	0xbd8a9af5	-0.06767837
244	0xbc9b3471	-0.018945904
245	0x3de31f27	0.11089926
246	0xbd036920	-0.032082677
247	0x3d50c6d0	0.050970852
248	0xbdaa1eb2	-0.08306636
249	0xbd3f147c	-0.046650395
250	0xbd7c3121	-0.06157029
251	0x3d34f30f	0.04417711
252	0xbd59eaf3	-0.05320258
253	0x3e0884ef	0.1333196
254	0x3de60353	0.11231103
255	0x3dad0a4c	0.084492296

bias f4 [64]
0	0x3df56a74	0.11983195
1	0xbbaf229e	-0.005344703
2	0xbd9eb42c	-0.07749209
3	0x3dadbe5f	0.08483576
4	0xbd85e516	-0.06537835
5	0x3e73b9f9	0.23801412
6	0x3d11710f	0.03550821
7	0xbd7dd8e0	-0.061974406
8	0x3d865589	0.06559283
9	0xb9d94088	-0.00041437545
10	0x3d90e165	0.070742406
11	0xbc84c4e9	-0.016207175
12	0xbda9af99	-0.08285446
13	0x3ee62eab	0.4495748
14	0x3e72a3d0	0.23695302
15	0x3e047074	0.12933522
16	0x3dbab891	0.091172345
17	0x3db520a9	0.0884412
18	0xbd907011	-0.07052625
19	0x3d5a9ce3	0.053372275
20	0x3d7399ef	0.059472974
21	0xbdb61105	-0.08889965
22	0xbd7a51ea	-0.061113276
23	0x3d7d26f3	0.061804723
24	0xbd8d2589	-0.06891925
25	0x3d3c2726	0.045935772
26	0xbd823d10	-0.06359303
27	0xbd9a59c3	-0.07536652
28	0x3e768571	0.24074341
29	0xbde4f0de	-0.11178754
30	0xbdd6aa4d	-0.10481701
31	0x3d6a5fda	0.057220317
32	0x3df79f1c	0.120908946
33	0x3d92edd8	0.07174271
34	0x3d453590	0.048146784
35	0x3e6737c4	0.22579867
36	0xbd02ca21	-0.031931046
37	0x3d873f20	0.06603837
38	0xbd24d512	-0.040242262
39	0x3dbca29a	0.09210701
40	0x3cda79ae	0.02666935
41	0xbcef7940	-0.029232621
42	0xbd610af8	-0.0549421
43	0xbdad9b77	-0.08476918
44	0xbdd00d17	-0.10158747
45	0xbd331773	-0.043723535
46	0x3d5dc576	0.05414339
47	0x3dd951c1	0.106112964
48	0xbd5f47a1	-0.05451167
49	0x3d8c7e53	0.06860032
50	0xbdd97d10	-0.10619557
51	0xbd9f23c2	-0.07770492
52	0xbba3d521	-0.004999772
53	0xbcd6f8ab	-0.026241621
54	0x3dc1f320	0.094702005
55	0xbc7a4281	-0.015274645
56	0x3db7af07	0.08968931
57	0xbd6470bc	-0.055771574
58	0x3e32789b	0.1742882
59	0xbdd18288	-0.10229975
60	0xbd1d8158	-0.03845343
61	0x3d3a6cda	0.045513965
62	0x3ea6e548	0.32596803
63	0xbd1242e6	-0.03570833

weight f4 [64, 64]
0	0x3d09ed7e	0.033673756
1	0xbd764a8f	-0.0601297
2	0x3c696dc9	0.014247366
3	0xbd9eddb4	-0.0775713
4	0xbc41b53f	-0.011822998
5	0xbc93bec2	-0.018035296
6	0x3db80a3b	0.08986326
7	0x3d950c16	0.07277696
8	0x3de86f31	0.11349333
9	0x3d7fb647	0.062429693
10	0x3c91dd5b	0.017805746
11	0xbdae9f92	-0.08526529
12	0xbdd99a90	-0.106251836
13	0x3d9246ff	0.07142448
14	0x3db03ec7	0.08605724
15	0xbcdde7ee	-0.027088132
16	0xbdef3010	-0.11679089
17	0x3cf6b7d1	0.030116947
18	0xbcbce28b	-0.023057243
19	0x3df3134a	0.118689135
20	0x3d2215c8	0.039571553
21	0xbc6a55b1	-0.014302657
22	0x3d9ffbd2	0.07811703
23	0xbc92f451	-0.017938765
24	0xbd3dbb4c	-0.0463212
25	0xbd284641	-0.041082624
26	0x3cbec7ab	0.023288568
27	0xbd9c737a	-0.07639213
28	0xbc426b15	-0.011866351
29	0x3daa3f71	0.08312882
30	0x3d13f366	0.036120795
31	0xbdcfebe8	-0.101524174
32	0xbc21806f	-0.009857281
33	0xbd4acf90	-0.049514353
34	0x3d5ef0df	0.05442893
35	0xbd48a3c2	-0.048984297
36	0xbcc5c18c	-0.024140142
37	0xbdf2a4a4	-0.11847809
38	0x3dd564af	0.104195945
39	0xbd82a680	-0.063794136
40	0x3d32682f	0.04355639
41	0x3da8e66a	0.08247073
42	0x3de193e9	0.1101454
43	0xbd364166	-0.044495963
44	0xbb401232	-0.002930772
45	0x3c20346a	0.0097781215
46	0xbdeaf073	-0.11471643
47	0xbdb390b6	-0.08767836
48	0xbd475620	-0.04866612
49	0xbca46897	-0.020069404
50	0xbc03b611	-0.0080390135
51	0xbdab33be	-0.083594784
52	0x3d40f589	0.04710916
53	0xbccf800e	-0.025329616
54	0x3d088534	0.033330157
55	0x3bb4d5f7	0.0055186707
56	0x3db38b61	0.08766819
57	0x3bc55dc9	0.006023143
58	0x3d8eb828	0.06968719
59	0xbd80a9af	-0.062823646
60	0x3c681f76	0.014167657
61	0xbd054896	-0.032539926
62	0xbdabddb2	-0.083918944
63	0xbb7b1544	-0.0038312236
64	0x3dee1c7e	0.11626528
65	0xbd1ace6a	-0.037794508
66	0x3b511e4d	0.003190893
67	0xbd05c1ef	-0.032655653
68	0xbda00d93	-0.07815089
69	0x3b5de8f0	0.0033860765
70	0x3d73ee77	0.05955359
71	0x3c8b05d6	0.016970556
72	0x3df09db8	0.117488325
73	0xbd21c886	-0.039497875
74	0xbd75e5a8	-0.06003347
75	0x3c2331cc	0.009960603
76	0xbd52ca18	-0.051462263
77	0xbd93db69	-0.072195835
78	0xbd1f9e4f	-0.038969334
79	0xbd72024d	-0.059084225
80	0xbdd6db51	-0.1049105
81	0x3c9146e3	0.017733997
82	0xbd35f11c	-0.044419393
83	0xbdffbb0f	-0.124868505
84	0xbda39c75	-0.07988826
85	0x3cf77b68	0.030210212
86	0x3c8844ca	0.016634364
87	0x3d9252a9	0.071446724
88	0xbca51fd6	-0.020156782
89	0xbdc8f99a	-0.09813233
90	0x3c7acdf3	0.015307891
91	0xbd532e42	-0.051557787
92	0xbd96f8a2	-0.07371642
93	0x3de4f25c	0.11179039
94	0xbd62eeb6	-0.055403434
95	0x3d32d0d5	0.04365619
96	0xbc05488a	-0.00813497
97	0x3d7427c1	0.059608225
98	0x3de04c50	0.109520555
99	0xbd3790cf	-0.044815835
100	0xbdd0e59f	-0.10200047
101	0x3d6c95a6	0.057759903
102	0xbd5c9616	-0.05385407
103	0xbcbd6165	-0.02311773
104	0xbd460edc	-0.048354015
105	0x3d673e7e	0.05645608
106	0xbd9f87b3	-0.077895544
107	0x3de524b1	0.11188639
108	0x3dd9ddee	0.10638033
109	0x3ddd4e1e	0.10805915
110	0xbc6ab954	-0.014326412
111	0x3d0c7e0c	0.034299895
112	0xbdd943ec	-0.10608658
113	0x3d80cc7b	0.062890016
114	0x3de08f45	0.109648265
115	0xbdd69c65	-0.10479049
116	0xbd6b6d67	-0.05747738
117	0x3db8a13b	0.09015127
118	0xbd9aff25	-0.07568196
119	0xbd213b38	-0.039363116
120	0x3ca342a3	0.019929236
121	0xbd1d9caf	-0.038479503
122	0xbdb9b809	-0.09068305
123	0x3d8ef794	0.069808155
124	0x3d703e9f	0.05865347
125	0x3d97305c	0.07382271
126	0x3da620a7	0.08111697
127	0x3cf6b4a0	0.030115426
128	0xbdb0e393	-0.08637156
129	0xbdf328ad	-0.11872993
130	0x3ce6fe49	0.028197424
131	0xbd7e490b	-0.062081378
132	0x3de5be97	0.11217993
133	0xbda4aee2	-0.08041169
134	0xbd796f7b	-0.06089733
135	0xbc5a8a79	-0.0133386785
136	0xbd016ac8	-0.031595975
137	0x3dba6d76	0.09102909
138	0x3d3238d3	0.043511223
139	0x3d99b4df	0.075052015
140	0x3df7a3b2	0.12091769
141	0x3daf007a	0.08545013
142	0xbcc6c65d	-0.024264509
143	0xbcd3943c	-0.02582752
144	0x3d8d84df	0.06910109
145	0xbcab910e	-0.02094319
146	0xbd86554d	-0.065592386
147	0xbda3ceda	-0.07998438
148	0x3aebef0f	0.0018000322
149	0x3de3a1de	0.11114858
150	0xbd7ec7b9	-0.06220219
151	0xbddeaa07	-0.10872274
152	0xbd6ab1bc	-0.057298407
153	0xbdf4b192	-0.11947931
154	0xbdbf2dc7	-0.09334903
155	0xbd135b82	-0.03597594
156	0x3c4954d1	0.012288288
157	0xbd51edc7	-0.051252153
158	0xbc24dca8	-0.010062374
159	0x3d3132d3	0.04326136
160	0xbcab2b3e	-0.020894643
161	0xbde68e57	-0.11257618
162	0xbdb2abce	-0.087241754
163	0x3db7efb7	0.08981269
164	0xbd5be088	-0.053680927
165	0xbc2cfbca	-0.010558078
166	0x3d0008d2	0.03125841
167	0x3ba1bd40	0.0049358904
168	0x3da3ce60	0.07998347
169	0x3de89949	0.11357362
170	0xbc8d72af	-0.0172666
171	0x3c742295	0.014900823
172	0x3dbbe5c9	0.091746874
173	0x3d06d07e	0.032913677
174	0x3c9aeb9b	0.018911174
175	0x3ded1907	0.11577039
176	0xbde84208	-0.113407195
177	0xbcf0c4f7	-0.029390795
178	0x3b1a0a64	0.0023504728
179	0x3cf7bc38	0.030241117
180	0x3d1c7b22	0.038203366
181	0xbd3ebbe1	-0.046565894
182	0xbd88bf01	-0.06677056
183	0x3b9c1702	0.004763485
184	0xbc9f01b5	-0.019409994
185	0xbdd1440a	-0.102180555
186	0xbbf9e2cc	-0.0076259132
187	0x3d5d4040	0.05401635
188	0x3ddc1db8	0.10747856
189	0xbd859812	-0.06523146
190	0xbde289fb	-0.11061474
191	0x3df9675f	0.121779196
192	0x3ccf2d11	0.025290044
193	0xbd38d517	-0.045125093
194	0x3d00ab80	0.031413555
195	0x3dfb8873	0.12281885
196	0xbd06e676	-0.03293463
197	0xbdb29528	-0.087198555
198	0x3ddcd037	0.10781901
199	0xbd5a6951	-0.053323094
200	0xbb8ea115	-0.0043526986
201	0xbdb3188d	-0.08744917
202	0x3c00adb1	0.007853911
203	0xbc840f10	-0.016120464
204	0xbc3e3a82	-0.011610629
205	0x3ce4aafc	0.027913563
206	0xbdcd4a85	-0.10023979
207	0xbde951d7	-0.11392563
208	0x3c773510	0.015088335
209	0xbc53e354	-0.012932617
210	0x3d8dbfeb	0.06921371
211	0xbc23493b	-0.00996619
212	0x3d2569af	0.04038399
213	0x3d68a979	0.056802247
214	0xbba12c42	-0.004918606
215	0xbdcc4096	-0.09973256
216	0xbdc2e6d9	-0.09516687
217	0xbda7aefe	-0.08187674
218	0xbd88cb9d	-0.06679461
219	0xbd9c9392	-0.07645334
220	0x3dbb8f56	0.091581985
221	0x3c66515b	0.014057483
222	0x3c677ae8	0.014128424
223	0xbb729969	-0.003701771
224	0xbcbc5c0d	-0.022993112
225	0xbda48c13	-0.080345295
226	0x3dec05c3	0.115245365
227	0xbd951344	-0.07279065
228	0xbd2d5b46	-0.042323373
229	0xbc676a68	-0.01412449
230	0xbdf6253f	-0.12018823
231	0xbda47fa3	-0.08032157
232	0x3da6399b	0.08116456
233	0x3d97077a	0.07374473
234	0x3dde3e72	0.10851754
235	0x3b41bb93	0.0029561266
236	0x3d419670	0.04726261
237	0xbd9badc2	-0.07601501
238	0xbd7b7742	-0.06139303
239	0x3d9d663e	0.07685517
240	0xbc118ea9	-0.0088841105
241	0x3d4aa8c7	0.049477365
242	0xbdf73f3c	-0.12072608
243	0xbd731bf7	-0.05935284
244	0x3d522c83	0.05131198
245	0x3db2c0c2	0.08728172
246	0xbd0ed12c	-0.03486745
247	0xbd048783	-0.032355797
248	0xbd8e0d13	-0.069360875
249	0xbc8a93b3	-0.016916132
250	0xbda99d13	-0.08281913
251	0x3d69729d	0.05699407
252	0x3d15c26d	0.036562372
253	0xbde5ea73	-0.11226358
254	0x3c08568e	0.0083214175
255	0xbdef9b95	-0.11699597
