mlartifacts/554351476986166068/702f0d17867947d4aebe343a47419435/artifacts/models/Model_dim64_layers5_experiment/r2_score0.30105582161743444_run7/data/model.pth (torch, 294728 bytes, 13 tensors)

weight f4 [64, 801]
0	0xbd8932fa	-0.06699176
1	0xbdca559d	-0.09879611
2	0x3d4ad1c9	0.049516473
3	0x3d84f56c	0.06492123
4	0x3d0f5545	0.03499343
5	0xbd8be3ca	-0.06830557
6	0x3b2cdb97	0.0026376003
7	0xbd2a2be9	-0.041545782
8	0xbd94f51f	-0.07273316
9	0x3c314be8	0.01082132
10	0x3d3319d1	0.043725792
11	0xbd20f073	-0.03929181
12	0xbd7a3bb3	-0.06109209
13	0xbd4b5cce	-0.049649052
14	0xbd76e7be	-0.0602796
15	0xbd377909	-0.044793162
16	0x3ce9df8e	0.028548982
17	0x3ce11f94	0.027480878
18	0x3ccdb0fe	0.02510881
19	0xbcebbde6	-0.028777074
20	0xbd616053	-0.055023503
21	0xbca99ef5	-0.02070568
22	0xbd0d9057	-0.03456148
23	0xbd074f0c	-0.03303437
24	0x3d1e204b	0.038605016
25	0xbd8cc3a7	-0.06873255
26	0xbd9f5705	-0.077802695
27	0xbd9aafa7	-0.07553034
28	0xbdbcaada	-0.09212275
29	0xbd0325b5	-0.032018382
30	0xbd657675	-0.056021173
31	0xbcfeca1e	-0.031102236
32	0xbd580eea	-0.0527486
33	0x3dbcc490	0.09217179
34	0xbc8ef894	-0.017452516
35	0xbd688eef	-0.056776937
36	0x3d310055	0.043213207
37	0xbd795a7d	-0.060877312
38	0xbcfeb688	-0.031092897
39	0xbcfd2151	-0.030899676
40	0x3d5f26c0	0.054480314
41	0x3db54a83	0.088521026
42	0xbd4bae68	-0.049726874
43	0x3d68e287	0.05685666
44	0xbd7fdf64	-0.0624689
45	0xbcd7a25a	-0.026322532
46	0xbd581dbf	-0.052762743
47	0xbd5d7ae3	-0.054072272
48	0x3da09815	0.07841507
49	0xbd55bff8	-0.05218503
50	0xbd190d36	-0.037366115
51	0x3d5d98f5	0.05410095
52	0xbd1c7701	-0.03819943
53	0x3d0b30de	0.03398215
54	0xbc9fe91f	-0.01952034
55	0x3d91b128	0.07113868
56	0xbb9d69f3	-0.00480389
57	0x3db401ca	0.08789404
58	0xbdb1c4e3	-0.08680131
59	0xbd4e3c36	-0.05035039
60	0xbda39c81	-0.07988835
61	0xbd99ef93	-0.07516398
62	0x3d88de0a	0.066829756
63	0x3da7e18c	0.081973165
64	0x3d344db6	0.044019423
65	0xbdaa92fa	-0.08328815
66	0x3d88abac	0.06673369
67	0xbd45a572	-0.048253484
68	0xbd8f1b27	-0.06987601
69	0x3d381b1d	0.044947732
70	0x3d87ec76	0.06636898
71	0x3d985835	0.07438699
72	0x3d4f1f70	0.05056709
73	0x3caabf18	0.020843074
74	0x3d4f77e0	0.05065143
75	0xbda8c865	-0.08241347
76	0xbd305b90	-0.04305607
77	0xbcca575e	-0.024699863
78	0xbdb0d328	-0.08634025
79	0xbd020565	-0.031743426
80	0x3cd61f9a	0.026138116
81	0xbd5a41bf	-0.053285357
82	0x3db49658	0.08817738
83	0xbd78c66f	-0.060736116
84	0x3d167c59	0.03673968
85	0x3c82e642	0.015978936
86	0x3d0a3631	0.033743087
87	0x3d21a98b	0.03946833
88	0x3d994d27	0.07485419
89	0xbd7cb13b	-0.061692458
90	0x3db9c78c	0.09071264
91	0xbd28471c	-0.04108344
92	0xbd39b1a1	-0.045335416
93	0x3d39110a	0.045182265
94	0xbd937d57	-0.07201641
95	0x3cdfaf5b	0.027305296
96	0x3d9ee9e6	0.07759456
97	0x3d42a09b	0.047516447
98	0xbd9a660e	-0.07538997
99	0x3d015c15	0.031581957
100	0x3d234cc1	0.03986812
101	0xbd19cde2	-0.03754986
102	0x3d23a4e6	0.03995218
103	0xbd6d5dcc	-0.05795078
104	0x3d0ca2f4	0.03433509
105	0xbcd67309	-0.0261779
106	0x3cc38076	0.023864966
107	0xbd89dd5b	-0.06731673
108	0xbd356c2f	-0.044292625
109	0xbdb2337d	-0.08701227
110	0x3da0e4be	0.07856129
111	0x3d3b173c	0.045676455
112	0xbd6bc763	-0.057563197
113	0xbd02da92	-0.031946726
114	0x3da1b817	0.078964405
115	0xbd28932b	-0.041155975
116	0x3d26f8dc	0.040764675
117	0x3c8d6a16	0.0172625
118	0x3d4d8c8b	0.05018286
119	0xbcf9004e	-0.030395653
120	0xbd9d1b86	-0.07671265
121	0x3d76a2f8	0.060214013
122	0xbd84c0e0	-0.064821005
123	0xbd129878	-0.035789937
124	0x3d2e5a43	0.04256655
125	0xbd520d4c	-0.051282212
126	0xbd115439	-0.03548071
127	0xbd951369	-0.07279093
128	0xbcd91ed8	-0.026503965
129	0x3dd6ebc9	0.10494191
130	0x3d84ee99	0.064908214
131	0x3cf21e48	0.029555455
132	0xbd1c68ea	-0.03818599
133	0x3d784f8e	0.060622744
134	0xbda73e7f	-0.08166217
135	0xbd1f3386	-0.038867496
136	0xbcdf1033	-0.027229404
137	0x3db02c24	0.08602169
138	0xbdacdf20	-0.08440995
139	0x3d3c1df6	0.04592701
140	0xbbe76dfd	-0.007062672
141	0xbd968993	-0.07350459
142	0xbda5137a	-0.080603555
143	0xbd2cc007	-0.04217532
144	0xbd22db3a	-0.039759852
145	0xbd816e9e	-0.06319927
146	0x3ab6b1af	0.0013938452
147	0x3d473ce5	0.048642058
148	0x3d8a16a2	0.06742598
149	0xbc811d67	-0.01576109
150	0xbd006a7a	-0.031351544
151	0xbd11b31c	-0.035571203
152	0xbd8d7742	-0.06907512
153	0x3c4ca6a6	0.012490904
154	0xbd533762	-0.05156649
155	0x3d495f42	0.04916311
156	0xbcb1d3ae	-0.021707382
157	0xbdad393a	-0.08458181
158	0xbcdbe5ec	-0.026843034
159	0xbd8b69c4	-0.068072826
160	0x3c9291f1	0.017891856
161	0x3d86749c	0.0656521
162	0xbd27600e	-0.04086309
163	0x3d1611ad	0.03663795
164	0x3d491edc	0.049101695
165	0xbdaa2d26	-0.08309393
166	0xbd7c84d5	-0.061650116
167	0xbc6381dc	-0.013885941
168	0xbda1f26f	-0.07907569
169	0xbd9a99ec	-0.075488895
170	0x3d4b4701	0.04962826
171	0xbcf36c5a	-0.029714752
172	0xbd69e431	-0.057102386
173	0x3c9db5ed	0.019251788
174	0xbd88e58c	-0.066844076
175	0xbd290737	-0.041266646
176	0xbd31cac6	-0.04340627
177	0xbd89b02d	-0.06723056
178	0xbdb32d5f	-0.08748888
179	0x3d8c4122	0.068483606
180	0x3d914906	0.07094006
181	0xbcaeff65	-0.021362016
182	0xbd8a0c23	-0.06740596
183	0xbd9c394e	-0.076281175
184	0x3cea0f14	0.028571643
185	0x3da48029	0.08032257
186	0xbce5b538	-0.028040513
187	0xbdb3e517	-0.0878393
188	0x3d96c71e	0.07362197
189	0xbd58aa91	-0.05289704
190	0xbd7f3214	-0.062303618
191	0x3d0ae7e2	0.033912547
192	0xbd1bd1aa	-0.038041748
193	0xbda8c512	-0.08240713
194	0xbd4a544b	-0.049396794
195	0xbd87e215	-0.066349186
196	0x3d6e0bc1	0.05811668
197	0xbdcf9425	-0.10135678
198	0xbd534d15	-0.051587183
199	0xbdaeb773	-0.08531084
200	0xbd22fcdd	-0.03979193
201	0xbd71b1a7	-0.059007313
202	0x3d4db05c	0.050217018
203	0x3dc8392d	0.097765304
204	0xbd4b0519	-0.04956541
205	0xbd8290b9	-0.0637526
206	0xbd6d8436	-0.057987414
207	0x3d99305f	0.07479929
208	0x3db00a99	0.08595771
209	0xbca65a9c	-0.020306878
210	0xbc9e9018	-0.019355819
211	0x3cb1006a	0.021606643
212	0x3d9bce50	0.0760771
213	0x3d8c99e4	0.0686529
214	0xbcd697b9	-0.026195394
215	0x3d1da185	0.038484115
216	0xbcbdcca7	-0.023168875
217	0x3d020859	0.031746242
218	0xbd55c964	-0.052194014
219	0xbc941021	-0.018074097
220	0x3d55d56a	0.05220548
221	0xbd8ff6ad	-0.070294715
222	0x3daef29b	0.08542367
223	0xbdc546bf	-0.09632634
224	0xbd9d0666	-0.07667236
225	0xbd47099b	-0.048593145
226	0xbd49a6bd	-0.04923128
227	0xbccac55b	-0.02475231
228	0xbc947638	-0.018122777
229	0x3d9e1935	0.077196516
230	0xbda261a6	-0.07928781
231	0xbd7e3014	-0.06205757
232	0x3da76890	0.081742406
233	0xbdb239d5	-0.08702437
234	0x3cf4ac73	0.029867386
235	0xbc9cc910	-0.019138843
236	0x3d7486be	0.059698813
237	0xbd8486d1	-0.06471027
238	0xbd4682b0	-0.048464477
239	0xbd3eedc1	-0.04661346
240	0x3dbe0a8b	0.09279355
241	0xbd254736	-0.040351115
242	0xbd6f0b1d	-0.058360208
243	0x3cbf93ad	0.023385847
244	0xbd2ca737	-0.042151656
245	0x3da3a320	0.07990098
246	0xbc958518	-0.01825194
247	0x3d640665	0.05567016
248	0xbd4fa139	-0.050690863
249	0x3d7b1455	0.061298687
250	0x3d362475	0.044468362
251	0x3c08842e	0.008332295
252	0x3d5ec53c	0.054387316
253	0xbcf5a473	-0.029985642
254	0xbd8fc3d8	-0.07019776
255	0x3db4350b	0.0879918

bias f4 [64]
0	0xbd955318	-0.072912395
1	0xbd18589e	-0.037193887
2	0xbe2b2825	-0.16714533
3	0xbd763f0f	-0.06011873
4	0xbcf30744	-0.02966655
5	0xbca3bf4e	-0.019988682
6	0xbdd13bd0	-0.102164865
7	0xbe3b365e	-0.18282458
8	0xbd1ae32d	-0.037814308
9	0xbda100b1	-0.0786146
10	0xbe2b192d	-0.16708823
11	0xbc943382	-0.018090967
12	0xbd186feb	-0.03721611
13	0xbd956230	-0.072941184
14	0x3dfe89ef	0.124286525
15	0xbdb3d203	-0.08780291
16	0xbdb1bc59	-0.086785026
17	0xbd4fd1f0	-0.05073732
18	0xbcf636a0	-0.030055344
19	0xbda7e2cc	-0.08197555
20	0xbd642b4c	-0.055705354
21	0xbda3748e	-0.079812154
22	0xbd552654	-0.052038506
23	0xbe0dc954	-0.13846332
24	0xbd807361	-0.06272007
25	0xbd8524fa	-0.06501193
26	0xbd1f2d07	-0.0388613
27	0xbd25db87	-0.04049256
28	0xbd94c513	-0.072641514
29	0xbd6fabd9	-0.058513496
30	0xbd480f4b	-0.04884271
31	0xbdc9f1c5	-0.09860567
32	0xbcaac31a	-0.020844985
33	0xbe29c76a	-0.16579977
34	0xbd5d134c	-0.05397348
35	0x3e353e81	0.17699625
36	0xbe2e1a16	-0.17002138
37	0xbd7b6435	-0.06137486
38	0x3e2dcddb	0.16973059
39	0xbd338934	-0.04383202
40	0xbc98a4ed	-0.01863333
41	0x3f178586	0.59188116
42	0xbd1fa685	-0.038977165
43	0xbeac27c1	-0.3362408
44	0xbdde91b4	-0.108676344
45	0x3cf9cd41	0.03049338
46	0xbd85b54b	-0.065287195
47	0x3ed1db5b	0.40987667
48	0xbe113adf	-0.14182614
49	0xbe08c41c	-0.1335606
50	0xbd46514e	-0.048417382
51	0xbdcec098	-0.10095328
52	0xbd236220	-0.0398885
53	0xbcb18378	-0.021669134
54	0xbd5fc8e8	-0.05463496
55	0xbd143c54	-0.036190346
56	0xbe04d29f	-0.1297097
57	0xbd5df8df	-0.05419242
58	0xbd9852c6	-0.07437663
59	0xbe06429d	-0.13111348
60	0xbe19fa91	-0.1503699
61	0xbd9e908b	-0.07742413
62	0xbd62eade	-0.055399768
63	0xbdbf32d2	-0.09335865

weight f4 [64, 64]
0	0x3cc4e810	0.024036437
1	0x3d9b3a34	0.07579461
2	0xbd8bb936	-0.068224356
3	0xbd1b1d46	-0.037869714
4	0x3c413349	0.0117920125
5	0x3bb8a740	0.005635172
6	0xbe09bee6	-0.13451728
7	0xbc4c0038	-0.012451224
8	0x3dc535ea	0.09629424
9	0x3da3864b	0.07984599
10	0xbdc1e099	-0.09466667
11	0x3c570120	0.013122827
12	0xbd58bf04	-0.05291654
13	0x3dff2d96	0.12459867
14	0xbebc2b19	-0.3675163
15	0xbd013953	-0.03154881
16	0xbdbaef91	-0.09127725
17	0x3e2619a4	0.16220719
18	0xbdb3dba0	-0.087821245
19	0xbd23d8c4	-0.040001646
20	0x3d37078d	0.044684935
21	0x3d8851b0	0.06656206
22	0x3cb4aa68	0.022053912
23	0xbe2db0e3	-0.16962008
24	0xbd106c31	-0.03525943
25	0x3d7792ae	0.06044262
26	0x3e39d6e0	0.18148375
27	0xbe25eb1b	-0.16202967
28	0xbdfa8aec	-0.122335285
29	0x3db29300	0.08719444
30	0x3d9957a1	0.07487417
31	0xbcae69c4	-0.021290667
32	0x3ca2b11a	0.01985984
33	0xbe62113c	-0.22076887
34	0x3d71166a	0.058859266
35	0xbe217a57	-0.15769325
36	0xbd998817	-0.0749666
37	0xbdae9954	-0.08525339
38	0xbddac97a	-0.1068296
39	0xbd38ffbf	-0.045165773
40	0xbdf4224c	-0.11920604
41	0xbe0dc4bf	-0.13844584
42	0xbd4baac2	-0.049723394
43	0xbe0b987e	-0.1363239
44	0x3d3fa342	0.046786554
45	0x3d135728	0.03597179
46	0xbd5fb116	-0.05461224
47	0xbdd17237	-0.10226863
48	0x3dc17585	0.09446243
49	0xbd6feb1f	-0.05857384
50	0x3d572778	0.052527875
51	0xbc1459f0	-0.009054646
52	0x3df3b97a	0.11900611
53	0xbe026c35	-0.1273659
54	0xbdb69ace	-0.089162454
55	0x3cf06ae4	0.029347844
56	0x3c713cb6	0.014723947
57	0x3e030830	0.12796092
58	0xbd161a20	-0.03664601
59	0xbd8e5826	-0.06950407
60	0xbd62b41d	-0.05534755
61	0xbe920a40	-0.28523445
62	0x3de65a94	0.11247745
63	0x3ddca488	0.10773569
64	0x3cc15140	0.023598313
65	0xbe2f221e	-0.17102858
66	0x3d34b8dc	0.04412161
67	0xbcee8228	-0.029114798
68	0x3cb8c94b	0.022556921
69	0xbe0f00e7	-0.13965188
70	0xbc4ad100	-0.012378931
71	0x3dd8e8aa	0.10591252
72	0x3e22bcc4	0.15892321
73	0x3cb4840f	0.022035627
74	0x3ca3c4d0	0.019991308
75	0x3daeec52	0.08541168
76	0xbdbc0c8a	-0.09182079
77	0x3df443c4	0.11926988
78	0xbdfd2078	-0.123597085
79	0x3d59ea93	0.053202223
80	0x3e46e72b	0.19424121
81	0xbd93734f	-0.07199728
82	0x3decc07a	0.115601495
83	0x3d8f176a	0.06986888
84	0xbd540857	-0.051765766
85	0x3de7c6bf	0.11317205
86	0xbe06b757	-0.13155876
87	0x3d6c0e55	0.057630856
88	0xbdf1ca80	-0.11806202
89	0x3cdaf84a	0.026729722
90	0x3e14e098	0.145388
91	0xbd92c289	-0.07166011
92	0xbc3938d0	-0.011305049
93	0x3d225298	0.03962955
94	0x3db36284	0.08759025
95	0x3e368505	0.1782418
96	0x3c31b75f	0.010846942
97	0xbe4e092c	-0.20120686
98	0xbdf84fcc	-0.12124595
99	0xbd67c1f0	-0.056581438
100	0xbba96ebc	-0.0051706713
101	0x3d68a330	0.056796253
102	0xbde8f3a0	-0.11374593
103	0x3dcab5ef	0.09897982
104	0xbdda930a	-0.10672577
105	0xbebae0c9	-0.36499622
106	0xbd813e8e	-0.063107595
107	0xbe4082de	-0.18799922
108	0xbca88a57	-0.020573778
109	0xbcc57b08	-0.024106517
110	0xbdea6e19	-0.11446781
111	0xbf389555	-0.7210286
112	0xbd59c0c1	-0.05316234
113	0x3d5b1577	0.053487267
114	0xbd458dc2	-0.048230894
115	0xbbcaa394	-0.006184051
116	0x3df12bab	0.11775907
117	0x3d98faf0	0.074697375
118	0xbc78de7c	-0.015189763
119	0x3dbdaf18	0.09261912
120	0x3dda62bd	0.10663364
121	0x3d759892	0.059959956
122	0xbcff0fc8	-0.031135455
123	0xbdf18a57	-0.11793964
124	0x3e0149bf	0.12625788
125	0x3c6fad81	0.014628769
126	0xbe21d4e2	-0.15803865
127	0xbd322fc6	-0.04350259
128	0xbd137a8b	-0.036005538
129	0xbdf5cc36	-0.12001841
130	0xbd0f5a0b	-0.03499798
131	0xbd996644	-0.07490209
132	0xbcfdd998	-0.030987546
133	0xbd263f4c	-0.04058771
134	0x39de0bf2	0.0004235204
135	0x3c5d32ee	0.013500912
136	0x3ce609c8	0.028080836
137	0xbdabe620	-0.08393502
138	0x3d1423c0	0.036166906
139	0xbce9fb08	-0.028562084
140	0xbd98f3c0	-0.074683666
141	0x3c710e17	0.014712832
142	0xbec1681f	-0.3777475
143	0x3e0564be	0.13026711
144	0xbdbb18ea	-0.09135611
145	0x3d8d7ac0	0.06908178
146	0x3cdbc448	0.026826993
147	0xbc2ac310	-0.010422483
148	0x3dcab072	0.098969355
149	0x3ca579d1	0.020199688
150	0xbdcd4738	-0.100233495
151	0x3e0bb171	0.13641907
152	0xbdaefa24	-0.08543804
153	0xbdab3628	-0.08359939
154	0x3dbe96a0	0.09306073
155	0xbd8d426a	-0.06897433
156	0xbd6db06c	-0.058029577
157	0x3d5c790c	0.053826377
158	0xbdd88ae2	-0.10573365
159	0x3e0e91cb	0.13922803
160	0x3c1a8020	0.009429961
161	0x3e01c786	0.12673768
162	0xbd372ac0	-0.044718504
163	0x3d4e3a23	0.050348412
164	0x3b9e1767	0.004824567
165	0x3d73f1d8	0.059556812
166	0x3b80cb95	0.003930519
167	0xbdab5808	-0.083664
168	0xbd5055dc	-0.050863132
169	0x3e6ed6a0	0.2332406
170	0x3c19c850	0.009386137
171	0x3e2d0c5f	0.1689925
172	0x3dcaa95a	0.098955825
173	0xbdfb64d4	-0.12275091
174	0xbe9d0dba	-0.30674535
175	0xbf330a41	-0.6993752
176	0x3d3644f8	0.044499367
177	0x3e1866ca	0.14882961
178	0xbdc12d08	-0.09432417
179	0xbe0328eb	-0.12808578
180	0xbd81b26a	-0.06332858
181	0xbb8b1100	-0.00424397
182	0x3d41d0f0	0.0473184
183	0xbd281d84	-0.041043773
184	0x3e0e54fc	0.13899606
185	0xbe24af82	-0.16082576
186	0xbce78520	-0.028261721
187	0x3dec436b	0.115362965
188	0x3d830598	0.06397551
189	0xbd885a6d	-0.06657872
190	0xbceb73c8	-0.028741732
191	0x3a8afc00	0.0010603666
192	0xbcd531a2	-0.026024643
193	0x3d871003	0.06594851
194	0x3c426392	0.01186456
195	0x3c6bf8c9	0.014402577
196	0x3d28e36e	0.04123252
197	0x3c57ffba	0.013183529
198	0xbe588156	-0.21143088
199	0x3c73209e	0.0148393195
200	0x3ce83be1	0.028348865
201	0x3db0169c	0.085980624
202	0xbcd4da66	-0.025983047
203	0xbc4c018f	-0.0124515435
204	0xbd14dd5e	-0.036343925
205	0x3d9d540a	0.07682045
206	0xbd7ed36f	-0.062213358
207	0x3db4ade3	0.08822229
208	0x3df9e36b	0.1220158
209	0x3dd2c3a9	0.102912255
210	0xbd5c8714	-0.053839758
211	0x3e0ed817	0.13949619
212	0x3df5b37b	0.11997124
213	0x3d4712e6	0.048602007
214	0x3c8f6ae8	0.017507032
215	0x3dade386	0.08490662
216	0x3d79bf5a	0.060973503
217	0xbbd7960f	-0.0065791677
218	0xbd1f8bda	-0.038951732
219	0xbde6d736	-0.11271517
220	0xbd7b2e90	-0.061323702
221	0x3d974cf6	0.07387726
222	0x3d839b72	0.06426133
223	0x3d5f0ec3	0.054457437
224	0xbd227e31	-0.039671127
225	0xbd9c9ea0	-0.07647443
226	0xbdf0e525	-0.11762456
227	0xbe93ad19	-0.28843
228	0x3d2dd1e6	0.042436503
229	0x3c9027c0	0.01759708
230	0xbdfebb79	-0.12438101
231	0xbbe45aed	-0.006968847
232	0xbd02bc18	-0.03191766
233	0xbe9cca6b	-0.30623183
234	0x3d4686fb	0.04846857
235	0xbdd4f7d3	-0.10398831
236	0xbc6b23e7	-0.0143518215
237	0xbd2838a4	-0.04106964
238	0xbe7381b0	-0.2377994
239	0x3ca58a8c	0.020207666
240	0xbd9f3590	-0.07773888
241	0x3d7ae52d	0.061253715
242	0x3d184d99	0.037183378
243	0xbd198380	-0.037478924
244	0xbcf27e4c	-0.029601239
245	0x3c8327f6	0.016010266
246	0x3dec7c43	0.115471385
247	0x3d1538e5	0.036431212
248	0x3d9d4dc0	0.07680845
249	0xbd4f1de6	-0.050565623
250	0x3da839c8	0.08214146
251	0x3d45cf62	0.04829348
252	0x3db80730	0.08985746
253	0xbde4d45d	-0.111733176
254	0xbd5a21d3	-0.053254914
255	0xbcdfca4d	-0.027318144

bias f4 [64]
0	0xbbcf8678	-0.0063331686
1	0xbe813655	-0.25236765
2	0x3e4da305	0.20081718
3	0xbe2aa744	-0.1666537
4	0xbd2fb553	-0.042897534
5	0xbd1a0415	-0.03760155
6	0xbdf94c03	-0.12172701
7	0xbeb3b2bf	-0.3509731
8	0xbe83926e	-0.25697654
9	0xbeb0d4f1	-0.3453746
10	0xbe47a4d3	-0.19496469
11	0x3c882df5	0.016623477
12	0xbed8085d	-0.4219388
13	0xbe284257	-0.16431557
14	0xbd43ce2c	-0.047804043
15	0xbc311a00	-0.010809422
16	0xbe934258	-0.28761554
17	0xbe04d308	-0.12971127
18	0x3dcb3ecb	0.09924086
19	0xbdbd67e1	-0.09248329
20	0xbec9406c	-0.39306962
21	0xbdbaf414	-0.091285855
22	0xbe36fe69	-0.17870487
23	0xbd1a7b55	-0.037715275
24	0xbe8673a4	-0.26260102
25	0xbeb46ce4	-0.35239327
26	0xbe85d70f	-0.2614064
27	0x3f19fd13	0.60151786
28	0x3efe0e69	0.4962037
29	0xbeaec38b	-0.34133562
30	0xbd859ba4	-0.06523827
31	0xbe5bbb01	-0.21458055
32	0xbd94ff4d	-0.07275257
33	0xbe82699d	-0.25471202
34	0xbe6b7c6a	-0.22996679
35	0xbe9f8c8b	-0.31161913
36	0xbde004c6	-0.109384105
37	0xbe91943d	-0.2843341
38	0xbd689cea	-0.05679027
39	0xbec70703	-0.38872537
40	0xbea2e963	-0.31818685
41	0xbe03c672	-0.1286867
42	0xbda5a33c	-0.08087775
43	0x3e82a9eb	0.25520262
44	0xbe4aed58	-0.19817102
45	0x3bcc3549	0.006231938
46	0xbf07aed4	-0.5300114
47	0xbe92c5c2	-0.28666502
48	0xbec8616d	-0.3913683
49	0xbe2ae5d3	-0.16689233
50	0xbe207f6a	-0.15673605
51	0xbe0667f5	-0.13125594
52	0xbe5f1b18	-0.21787679
53	0xbdb92176	-0.09039585
54	0xbd68fe62	-0.056883223
55	0xbd825fea	-0.063659504
56	0x3d5074b5	0.05089255
57	0xbee44cbf	-0.44589803
58	0xbc44f411	-0.012021081
59	0xbcfb7b1e	-0.030698355
60	0xbe58f2c6	-0.2118636
61	0x3d968474	0.07349482
62	0xbdaa013f	-0.08301019
63	0xbe18fd30	-0.14940333

weight f4 [64, 64]
0	0xbde11c70	-0.10991752
1	0x3d970de6	0.07375698
2	0xbe3a8267	-0.18213807
3	0xbdf7fd21	-0.121088274
4	0xbdac8602	-0.084239975
5	0xbd631b72	-0.055446096
6	0xbda467ac	-0.08027586
7	0xbe1cf82f	-0.1532905
8	0xbd12a9b8	-0.035806388
9	0x3c3fe460	0.011712164
10	0xbd94858d	-0.07252035
11	0xbe82367d	-0.25432196
12	0x3c45c300	0.012070417
13	0xbc83d423	-0.016092366
14	0x3d830e78	0.06399244
15	0xbe0ff6b0	-0.14058948
16	0x3c4766d6	0.012170514
17	0xbe1e3559	-0.15450038
18	0xbe7e8feb	-0.24859588
19	0xbdab53f8	-0.08365625
20	0xbcfd491d	-0.030918652
21	0xbd97afa4	-0.07406548
22	0xbe3597b0	-0.17733645
23	0x3d0b73ff	0.03404617
24	0xbe1e612c	-0.15466756
25	0xbd7ae998	-0.06125793
26	0xbdaaecc0	-0.08345938
27	0xbd81b2a6	-0.063329026
28	0xbc31dda0	-0.010856062
29	0x3de03fec	0.10949692
30	0xbc85a4d4	-0.016313948
31	0xbb066fdb	-0.0020513448
32	0xbc534415	-0.01289465
33	0xbe11f829	-0.14254822
34	0xbcf55d36	-0.029951673
35	0xbe02c0ec	-0.12768906
36	0xbe2efa13	-0.17087583
37	0xbddc2669	-0.10749514
38	0x3d47c635	0.04877301
39	0x3d288634	0.04114361
40	0xbd10627f	-0.035250183
41	0xbe0f362d	-0.1398551
42	0x3daeb9f8	0.085315645
43	0xbdba5fe1	-0.09100319
44	0xbe35b8aa	-0.17746225
45	0xbc4f65d2	-0.012658553
46	0x3c66eeb0	0.0140949935
47	0x3dfbe214	0.1229898
48	0xbd895d3c	-0.06707236
49	0xbd3acad8	-0.045603603
50	0xbd82f60e	-0.063945875
51	0xbd60bab5	-0.054865558
52	0xbe18698f	-0.14884017
53	0xbdbaa2d4	-0.09113088
54	0xbe0a8fca	-0.13531414
55	0x3d1dc0e0	0.038514018
56	0xbe3106d7	-0.17287765
57	0xbe16c508	-0.14723599
58	0xbe124c3e	-0.14286897
59	0xbdb0059c	-0.0859482
60	0x3d0b738c	0.03404574
61	0xbd90a3f9	-0.07062525
62	0xbd5d2081	-0.053986076
63	0xbca8d590	-0.020609647
64	0x3e2535c6	0.16133794
65	0x3c5ffa67	0.01367054
66	0x3dfacaf7	0.12245744
67	0x3dbcb311	0.09213842
68	0xbda73d52	-0.08165993
69	0x3c12904b	0.008945535
70	0x3e1f9499	0.1558403
71	0xbdb98654	-0.09058824
72	0xbdd8df89	-0.10589511
73	0xbd1ae30d	-0.03781419
74	0x3cc0967a	0.023509253
75	0xbf05a6ae	-0.5220746
76	0xbde040ea	-0.109498814
77	0xbd9f622c	-0.07782397
78	0x3dee676a	0.116408184
79	0xbde512b7	-0.1118521
80	0xbcedfd18	-0.029051349
81	0x3d18fb77	0.03734919
82	0xbe6e7e65	-0.23290403
83	0x3ddaacfe	0.10677527
84	0x3c5efc0e	0.013609899
85	0xbd6a7749	-0.057242665
86	0x3e175f68	0.14782488
87	0x3d9510a5	0.07278565
88	0xbae7b040	-0.0017676428
89	0x3dad19d2	0.084521905
90	0xbc89eafb	-0.01683568
91	0xbcaec55b	-0.02133434
92	0xbe0ad6b1	-0.13558461
93	0xbe26a284	-0.16272932
94	0xbe15b80d	-0.14620991
95	0x3daba9ba	0.08381982
96	0xbea87ee5	-0.32909313
97	0xbdd6f2fb	-0.104955636
98	0xbddef1fc	-0.108859986
99	0xbd967628	-0.07346755
100	0x3dfb8413	0.122810505
101	0xbee494f3	-0.4464489
102	0x3df50677	0.11964124
103	0x3e86d678	0.26335502
104	0x3e6b18b9	0.2295865
105	0xbdbf1902	-0.09330942
106	0xbd740cbc	-0.059582457
107	0xbf38634e	-0.72026527
108	0x3b1bbe82	0.0023764675
109	0x3e2f0444	0.17091471
110	0x3de1ea88	0.110310614
111	0xbd233186	-0.03984215
112	0x3c962b77	0.018331273
113	0xbd9a7df1	-0.07543553
114	0xbca4c7e8	-0.020114854
115	0x3d6ba6da	0.05753217
116	0x3db154de	0.08658765
117	0xbdb7d16a	-0.089754894
118	0xbdbd9822	-0.09257533
119	0xbd6c1570	-0.057637632
120	0x3e9b9aab	0.3039144
121	0xbdb3b31e	-0.08774398
122	0xbcde1050	-0.027107388
123	0x3d50fbb7	0.051021304
124	0x3d915313	0.07095923
125	0x3c5cc23c	0.013474043
126	0x3d9beb3e	0.07613228
127	0x3e2455ac	0.16048306
128	0x3d084a58	0.033274025
129	0xbe278fa8	-0.16363394
130	0xbee0ead2	-0.43929154
131	0x3cde4c67	0.02713604
132	0x3e8af008	0.27136254
133	0xbd0d066e	-0.03442996
134	0xbde48951	-0.111590035
135	0xbddf9c3e	-0.10918473
136	0x3d955025	0.07290677
137	0x3d63e2b8	0.055636138
138	0xbd4a6075	-0.049408395
139	0xbea7582c	-0.32684457
140	0xbd9387a0	-0.07203603
141	0x3ce52f73	0.027976727
142	0xbe3545fb	-0.17702477
143	0x3d61abae	0.055095367
144	0x3dd1b241	0.10239077
145	0x3d398d48	0.045300752
146	0xbea0fd51	-0.31443265
147	0xbd476a79	-0.048685525
148	0x3d49254a	0.049107827
149	0x3d63eb74	0.055644467
150	0xbd71da1e	-0.059045903
151	0x3dbb5057	0.09146183
152	0xbcf44c09	-0.029821413
153	0x3c854f43	0.016273146
154	0xbda384eb	-0.079843365
155	0xbea96b59	-0.33089712
156	0xbf05ecf3	-0.5231468
157	0xbd9c8b9c	-0.07643816
158	0x3e3e1221	0.18561603
159	0x3c930c79	0.017950283
160	0xbf037dbd	-0.51363736
161	0xbd6269d6	-0.055276714
162	0x3e4e277f	0.20132254
163	0xbded7cff	-0.11596107
164	0xbc96ed67	-0.01842375
165	0xbe841197	-0.2579467
166	0xbe046d6f	-0.1293237
167	0xbdaacf07	-0.083402686
168	0x3cff3bb4	0.031156398
169	0x3ba7f500	0.005125642
170	0x3da3a854	0.079910904
171	0xbd8db885	-0.0691996
172	0xbcde9112	-0.027168784
173	0x3d24d94b	0.04024629
174	0xbbaa1b00	-0.005191207
175	0x3d4c7d5e	0.049924247
176	0xbc989083	-0.018623596
177	0xbe3d324b	-0.18476216
178	0x3d97f18d	0.07419119
179	0xbe966468	-0.2937348
180	0x3e14d1d8	0.14533174
181	0xbc8508cf	-0.016239552
182	0xbd5ab659	-0.053396557
183	0xbceec0a0	-0.029144585
184	0xbda3f0c8	-0.0800491
185	0xbc0485d5	-0.008088549
186	0x3daf0280	0.08545399
187	0xbd0cc730	-0.034369648
188	0x3eba7b49	0.36422184
189	0xbd9306fe	-0.07179068
190	0xbdb3dcab	-0.087823234
191	0x3d892f0a	0.06698425
192	0xbe077585	-0.13228424
193	0xbe09727f	-0.13422583
194	0x3e1d50a2	0.1536279
195	0xbe18462b	-0.14870517
196	0xbedd4b5f	-0.43221566
197	0x3d2cb824	0.042167798
198	0xbd806175	-0.062685885
199	0xbe81892c	-0.25299966
200	0xbc6192e1	-0.013767929
201	0xbd0234b5	-0.031788547
202	0xbe3159e6	-0.1731945
203	0xbee57d60	-0.44822216
204	0x3cfa0298	0.030518815
205	0x3de4df4f	0.11175405
206	0xbe2aedaf	-0.16692232
207	0x3de3627b	0.11102768
208	0x3dbd2acc	0.092366785
209	0xbd88e15d	-0.0668361
210	0x3deb7c6b	0.1149834
211	0xbd65cfdc	-0.056106433
212	0xbe5d8f20	-0.21636629
213	0xbdc64565	-0.09681205
214	0xbd893a09	-0.067005225
215	0xbcfff375	-0.031244019
216	0xbe1a29bd	-0.15054984
217	0xbe154422	-0.14576772
218	0xbe4ad15b	-0.19806425
219	0xbded32d4	-0.1158196
220	0xbec3d24c	-0.3824638
221	0xbdd387e2	-0.10328652
222	0x3db817ee	0.08988939
223	0xbc88b03c	-0.016685598
224	0xbed14ab6	-0.40877312
225	0xbd211de5	-0.03933515
226	0xbeb15884	-0.34637845
227	0x3e5f17c5	0.21786411
228	0x3d4e277a	0.050330617
229	0x3d2b53e8	0.041828066
230	0x3d3fc81b	0.046821695
231	0xbd836e08	-0.06417471
232	0xbc7f2933	-0.0155737875
233	0xbd482ba8	-0.04886976
234	0x3cc09460	0.02350825
235	0xbd87bbfe	-0.066276535
236	0xbcb57812	-0.02215198
237	0xbd2fc7e4	-0.04291524
238	0xbdec53de	-0.11539434
239	0xbe987493	-0.2977644
240	0xbd359dfd	-0.044340122
241	0xbdfdc5d5	-0.12391249
242	0xbcdee762	-0.027209941
243	0xbeb38c2a	-0.35067874
244	0xbdbf3d80	-0.09337902
245	0x3daaf98a	0.08348377
246	0x3dd696bc	0.10477969
247	0x3dea8ad0	0.11452258
248	0xbebcaf2d	-0.368524
249	0xbe166b52	-0.14689377
250	0x3c44fa84	0.012022618
251	0x3d29b40b	0.041431468
252	0xbe481ea2	-0.19542935
253	0x3da06ea9	0.07833607
254	0xbdca1f57	-0.09869259
255	0xbd20d32c	-0.03926389

bias f4 [64]
0	0xbe644951	-0.22293593
1	0xbee81b4a	-0.4533332
2	0xbea16aec	-0.31526887
3	0x3ef9a40a	0.48757964
4	0xbee408bc	-0.44537914
5	0xbe33699d	-0.17520757
6	0xbde2a124	-0.110658914
7	0x3e0d2fc7	0.13787757
8	0xbe8b2667	-0.27177736
9	0xbedca14a	-0.43091804
10	0xbec5bdca	-0.3862136
11	0xbe6cd96d	-0.23129816
12	0x3e221135	0.15826876
13	0xbe9d18b6	-0.30682915
14	0xbe259747	-0.16170989
15	0x3e112b71	0.14176728
16	0xbe18191c	-0.14853328
17	0xbea389f2	-0.3194118
18	0xbe834778	-0.25640464
19	0x3ebe424d	0.37159958
20	0x3e20431f	0.15650605
21	0xbc0c3199	-0.008556747
22	0xbea77518	-0.32706523
23	0x3ebe5db8	0.37180877
24	0xbe8462b7	-0.25856563
25	0xbef64fae	-0.48107666
26	0xbec76cf1	-0.38950303
27	0xbc820b72	-0.015874598
28	0x3db99767	0.09062081
29	0xbe4dbdf1	-0.20091988
30	0xbed595c8	-0.41715837
31	0xbe45bbae	-0.19309875
32	0xbe57f927	-0.21091138
33	0xbe993b18	-0.29927897
34	0xbea698a5	-0.32538334
35	0xbdba42e4	-0.090947896
36	0xbe517cd9	-0.20457782
37	0xbe9dd7d5	-0.3082873
38	0x3d1d6e23	0.038435113
39	0xbe18fdec	-0.14940614
40	0xbdb6ccf1	-0.08925808
41	0x3dc6245f	0.09674906
42	0xbe998789	-0.29986218
43	0x3e18fe48	0.1494075
44	0x3ebea808	0.37237573
45	0xbde6edb0	-0.11275804
46	0xbe6b44ab	-0.22975414
47	0x3aad5baf	0.0013226176
48	0x3dd59da5	0.10430459
49	0x3d3cb423	0.04607023
50	0xbed6db0f	-0.41964003
51	0x3e6816ca	0.22664943
52	0xbdd61633	-0.10453453
53	0xbed8d42f	-0.42349383
54	0xbe3790d4	-0.17926341
55	0xbdf06c7e	-0.11739443
56	0xbf474c25	-0.7785056
57	0xbe146edf	-0.14495419
58	0xbe411584	-0.18855864
59	0x3e25065b	0.16115706
60	0xbb2e5d48	-0.0026605893
61	0xbd51551b	-0.051106554
62	0xbee9e678	-0.45683646
63	0x3bfe1831	0.0077543487

weight f4 [64, 64]
0	0x3dfeec8d	0.12447462
1	0x3ee1ae28	0.44078183
2	0xbe173e7a	-0.14769927
3	0xbeba34fd	-0.36368552
4	0x3e91a66f	0.2844729
5	0x3d61b03b	0.055099707
6	0xbd20f028	-0.03929153
7	0xbe2449b6	-0.16043743
8	0x3d03b538	0.032155246
9	0x3f11f7d2	0.5701877
10	0x3e9b8bbf	0.30380055
11	0x3dd3c7a7	0.10340815
12	0x3d7af932	0.061272807
13	0xbce2c711	-0.027682813
14	0xbdec3529	-0.11533577
15	0xbd3e91fa	-0.046525933
16	0x3d49d611	0.049276415
17	0x3d81820e	0.06323634
18	0xbdc0e586	-0.09418778
19	0x3e057064	0.13031155
20	0xbdba5dbf	-0.09099912
21	0x3d791e49	0.060819898
22	0xbe3b6a04	-0.1830216
23	0x3f0b93de	0.545225
24	0xbd171a38	-0.03689024
25	0xbdad221c	-0.084537715
26	0x3e30c92f	0.17264245
27	0x3c8f4537	0.017489059
28	0x3ddaf8d9	0.10691995
29	0xbdacd628	-0.084392846
30	0xbd792101	-0.06082249
31	0xbef5f317	-0.48037025
32	0x3e7daf2f	0.24773858
33	0x3e8e6ffc	0.27819812
34	0x3e74931e	0.23884246
35	0x3e14421d	0.14478345
36	0xbdb94408	-0.09046179
37	0xbd3eda96	-0.04659518
38	0x3d6a23f3	0.05716319
39	0x3cb82061	0.022476377
40	0x3e299aa0	0.16562891
41	0xbef5a71f	-0.47979066
42	0x3e5214d5	0.2051576
43	0xbc3b85b5	-0.011445452
44	0x3ee57098	0.44812465
45	0x3e10d82f	0.14144967
46	0xbb8464f6	-0.004040356
47	0xbaddfd74	-0.0016936497
48	0xbd907db4	-0.07055226
49	0xbdf67182	-0.12033369
50	0xbdf0436c	-0.1173161
51	0xbee1d0c5	-0.4410459
52	0xbe6d5b9b	-0.23179476
53	0xbd8fbdcf	-0.07018625
54	0x3e968ac2	0.2940274
55	0xbdc1044a	-0.09424646
56	0x3e9c6e94	0.30553114
57	0xbea03a1d	-0.31294337
58	0xbe22fb6e	-0.15916225
59	0xbe296bc1	-0.16545011
60	0xbeba42ca	-0.3637908
61	0x3e64e55b	0.22353117
62	0xbce67f34	-0.028136827
63	0x3de64002	0.11242677
64	0xbd466309	-0.04843429
65	0xbe82d6df	-0.2555456
66	0x3ba7b0da	0.005117518
67	0x3f2e229f	0.6802158
68	0xbe9b4f0f	-0.30333754
69	0x3d832245	0.06403021
70	0x3c8782c3	0.016541844
71	0x3c8667ba	0.016406883
72	0xbeeb70d8	-0.4598453
73	0xbd68aa85	-0.056803245
74	0x3e02d5f7	0.12776934
75	0xbbef76ad	-0.0073078484
76	0x3e18a917	0.14908253
77	0x3d8ad1a0	0.06778264
78	0xbe1d25be	-0.15346429
79	0xbda02064	-0.07818678
80	0x3e27bce1	0.16380645
81	0x3d82f4e0	0.063943624
82	0x3dd21a92	0.10258974
83	0x3f088dfd	0.53341657
84	0x3b7b12d7	0.003831079
85	0xbe568dba	-0.20952502
86	0xbd96ae75	-0.07357494
87	0x3e21d6d2	0.15804604
88	0xbdc2d5fb	-0.0951347
89	0xbe1d3918	-0.15353811
90	0x3df544ed	0.11976037
91	0x3e02a3bc	0.12757772
92	0xbbb1c4d6	-0.005425076
93	0xbd995e82	-0.07488729
94	0xbd57d89e	-0.052696817
95	0xbd2c672d	-0.042090584
96	0x3dc92b9b	0.0982277
97	0x3e85e1e3	0.261489
98	0xbde1f1a2	-0.11032416
99	0x3e755f1f	0.23962067
100	0xbd503ca8	-0.050839096
101	0x3d9c0b55	0.07619349
102	0x3e62abe1	0.22135879
103	0xbbdaa284	-0.0066722054
104	0x3dc6b10d	0.097017385
105	0xbdbacfac	-0.091216415
106	0x3d43698f	0.04770809
107	0x3e5b2cd9	0.21403827
108	0x3e49e515	0.19716294
109	0x3d794a84	0.06086208
110	0x3ec61781	0.38689807
111	0xbb00d4bb	-0.0019658047
112	0x3f1eac66	0.6198181
113	0xbc45a4d8	-0.012063228
114	0xbe05815e	-0.13037631
115	0xbe933745	-0.28753105
116	0xbeea2c48	-0.4573691
117	0xbde45bdb	-0.111503325
118	0xbe4ca809	-0.19985975
119	0x3e0f2e5f	0.13982533
120	0x3cf98667	0.030459596
121	0xbe825d1d	-0.25461665
122	0xbdec66d5	-0.11543051
123	0x3df53fb6	0.119750425
124	0x3e77636e	0.24159023
125	0x3e843305	0.25820175
126	0x3b490856	0.0030675135
127	0xbec97a08	-0.39350915
128	0xbe2e6869	-0.17032017
129	0x3d443044	0.047897592
130	0x3e37b91c	0.17941707
131	0xbe3061b0	-0.17224765
132	0xbd760ce1	-0.060070876
133	0x3cb15f38	0.02165185
134	0x3d4e27f3	0.050331067
135	0xbd0d96fb	-0.034567814
136	0xbe3c4754	-0.18386585
137	0x3de7e508	0.11322981
138	0xbe054645	-0.13015087
139	0xbe273ef4	-0.16332608
140	0xbdf17cf3	-0.1179141
141	0xbe036b37	-0.12833868
142	0xbe129f06	-0.14318475
143	0xbd800fdb	-0.06253024
144	0xbd8c4344	-0.068487674
145	0xbdbb78fa	-0.09153934
146	0xbda6bcff	-0.08141517
147	0xbcb39950	-0.021923691
148	0xbd551076	-0.05201765
149	0xbe25872c	-0.16164845
150	0x3dda1586	0.106486365
151	0xbe0069a8	-0.12540305
152	0xbe7e04cc	-0.24806517
153	0xbd0afa90	-0.03393036
154	0x3cb56a70	0.02214548
155	0x3c945259	0.018105673
156	0xbd725f88	-0.059173137
157	0x3d5b43c2	0.053531416
158	0x3cd1aa3f	0.025593875
159	0x3d362806	0.044471763
160	0xbdfe1844	-0.12406972
161	0xbd36d8ea	-0.04464046
162	0x3bab78e0	0.0052329153
163	0xbe143ba8	-0.14475882
164	0xbe19b66c	-0.15010995
165	0xbe1b9ec7	-0.15197287
166	0xbe344343	-0.17603783
167	0xbe446dbc	-0.19182485
168	0x3e04752f	0.12935327
169	0x3c15ede5	0.009150957
170	0x3dbabbe8	0.091178715
171	0xbe0b0455	-0.13575871
172	0x3cfedb45	0.031110415
173	0x3d159b08	0.036524802
174	0x3d54a5f3	0.051916074
175	0xbdf12963	-0.11775472
176	0xbc6b1ae0	-0.014349669
177	0xb9dcf554	-0.00042144454
178	0xbd43173f	-0.04762959
179	0xbe1605d4	-0.14650661
180	0xbeacc9be	-0.33747667
181	0x3ddb6384	0.107123405
182	0xbe0c00c5	-0.13672169
183	0xbd1824c6	-0.037144445
184	0x3d50bdc0	0.05096221
185	0x3d754868	0.059883505
186	0xbe59a836	-0.21255574
187	0x3d7f88d0	0.062386334
188	0xbcad4a28	-0.021153525
189	0xbe00a78c	-0.12563914
190	0xbd3de0a0	-0.046356797
191	0xbdec2ea3	-0.11532333
192	0xbcabc8ee	-0.020969834
193	0xbe0c66eb	-0.13711135
194	0xbe3e3c48	-0.18577683
195	0xbe6e077c	-0.23245043
196	0x3dd79f89	0.10528476
197	0x3df82d5e	0.12118028
198	0x3d0320a6	0.032013558
199	0xbe0b340c	-0.13594073
200	0x3cea94c3	0.028635388
201	0x3d871954	0.06596628
202	0x3e31f66e	0.17379162
203	0xbe251002	-0.16119388
204	0x3d7056b6	0.058676444
205	0xbdd20d9d	-0.10256503
206	0xbda3fb1d	-0.080068804
207	0x3d21b5c7	0.039479997
208	0xbe1b03f3	-0.15138225
209	0xbe3e8750	-0.18606305
210	0xbcde9cb9	-0.02717434
211	0x3ce13309	0.027490156
212	0xbd8d46a7	-0.068982415
213	0x3dba10d3	0.0908524
214	0xbdebcd50	-0.115137696
215	0xbe82b359	-0.25527456
216	0xbe01e21c	-0.1268391
217	0x3d8f48c4	0.06996301
218	0xbc51b5c3	-0.012799683
219	0x3bcfd6f1	0.0063427617
220	0xbe1ab932	-0.15109709
221	0xba6aa2e0	-0.0008950662
222	0xbdbf98c9	-0.09355313
223	0x3d661fc1	0.056182627
224	0xbdf8a61c	-0.12141058
225	0x3a809e01	0.0009812714
226	0x3e302543	0.17201714
227	0xbde02e19	-0.109462924
228	0xbcd0d580	-0.02549243
229	0xbdccf25e	-0.10007165
230	0xbde38963	-0.11110189
231	0xbe20fee3	-0.15722232
232	0x3e318656	0.17336401
233	0x3d3e330a	0.046435393
234	0x3dbffb13	0.093740605
235	0xbe697872	-0.22799852
236	0xbea5c5a0	-0.32377338
237	0xbe1b1416	-0.15144381
238	0xbe09fc69	-0.13475193
239	0x3c762ef9	0.015025848
240	0xbdbb1c56	-0.09136264
241	0xbeab0713	-0.33403835
242	0x3e0fd7fd	0.14047237
243	0x3b861120	0.004091397
244	0xbe1ae998	-0.15128171
245	0x3dde60ba	0.10858293
246	0x3d6221af	0.055207904
247	0xbb5ee838	-0.0034012925
248	0xbe211053	-0.15728883
249	0x3d63b6a0	0.055594087
250	0xbdc119c2	-0.09428741
251	0x3e44db40	0.19224262
252	0xbe44a21b	-0.19202463
253	0x3d46ab70	0.04850334
254	0xbda96ab4	-0.08272305
255	0xbdb160cc	-0.08661041

bias f4 [64]
0	0xbdfbcf4f	-0.122954
1	0x3c840e7c	0.016120188
2	0xbe8b8cd1	-0.27255872
3	0xbe69d21b	-0.22834055
4	0xbe472ff0	-0.1945188
5	0xbea26ccf	-0.3172364
6	0xbe3f7c93	-0.18699865
7	0x3b7c90ae	0.0038538384
8	0xbd87c8a3	-0.06630065
9	0xbe8dd0ec	-0.27698457
10	0xbe43ca7f	-0.19120215
11	0xbdd00d28	-0.10158759
12	0xbcc6c9b2	-0.024266098
13	0xbdaab17c	-0.08334634
14	0xbdb84810	-0.0899812
15	0xbc3d2861	-0.011545272
16	0xbd888854	-0.066666275
17	0xbe973a1b	-0.29536518
18	0xbe7497fb	-0.23886101
19	0xbf1ca1d0	-0.61184406
20	0xbeb9bb05	-0.36275497
21	0xbe882a39	-0.26594713
22	0xbdf6e395	-0.120551266
23	0xbe689bba	-0.22715655
24	0xbf05cfd0	-0.5227022
25	0xbe4d8d33	-0.20073394
26	0xbd45fb9e	-0.048335664
27	0x3dfc3e74	0.123165995
28	0xbe87972d	-0.26482525
29	0xbec4397a	-0.383251
30	0xbe98a7ed	-0.29815617
31	0xbed63efa	-0.41844922
32	0xbeb08e0f	-0.34483382
33	0xbd9190f6	-0.07107727
34	0xbeb7dbac	-0.35909784
35	0xbe5bee6d	-0.21477671
36	0xbe86ed42	-0.26352888
37	0xbe872485	-0.2639505
38	0xbe88c6ed	-0.26714268
39	0xbc85604f	-0.016281275
40	0xbdd71fd3	-0.10504117
41	0xbe32e9eb	-0.17472045
42	0xbd14ac05	-0.036296863
43	0xbe1d50e1	-0.15362884
44	0xbe3b6f87	-0.18304263
45	0x3d555572	0.05208344
46	0xbdf221f6	-0.11822884
47	0xbdfe7d59	-0.12426252
48	0xbdddebcf	-0.108359925
49	0xbdab30c2	-0.08358909
50	0xbe039097	-0.12848125
51	0xbd6d4737	-0.057929244
52	0xbe2df305	-0.16987236
53	0xbe295d31	-0.16539456
54	0xbe2757bf	-0.16342066
55	0xbda36e12	-0.079799786
56	0xbc580afa	-0.013186211
57	0xbf591afe	-0.8480681
58	0xbf5b5161	-0.8567105
59	0xbdd281bf	-0.10278653
60	0x3dfb54d6	0.122720405
61	0xbcae5967	-0.021282865
62	0xbc73b22a	-0.014874021
63	0xbe28c396	-0.1648086

weight f4 [64, 64]
0	0x3c8e7bd8	0.017393038
1	0xbe035ca4	-0.12828308
2	0x3df56f79	0.11984152
3	0xbbacdaad	-0.0052750916
4	0xbda9f2be	-0.082982525
5	0xbc66a3f0	-0.014077172
6	0xbb1c391b	-0.0023837748
7	0xbcb119d5	-0.021618763
8	0xbd7a3ae1	-0.061091308
9	0x3d138233	0.03601284
10	0x3aa9e3c0	0.0012961552
11	0xbce3970e	-0.02778199
12	0xbdb04438	-0.08606762
13	0x3dbc374d	0.09190235
14	0x3cd9871a	0.02655368
15	0xbd6c7a0e	-0.057733588
16	0xbd780826	-0.060554646
17	0x3e166714	0.14687759
18	0x3dfd87f2	0.12379445
19	0xbec44492	-0.38333565
20	0x3d7d85a9	0.061895046
21	0x3a465476	0.0007565686
22	0xbe3ea3a1	-0.18617107
23	0xbd37147b	-0.044697266
24	0xbe6dbdaa	-0.23216882
25	0xbce4341e	-0.027856883
26	0x3e162b57	0.1466497
27	0xbcbfd6c3	-0.023417836
28	0x3d668560	0.05627954
29	0xbbdc0e20	-0.006715551
30	0xbe0e1e78	-0.1387881
31	0x3d4d6780	0.050147533
32	0x3d52eb00	0.051493645
33	0xbe7fd970	-0.2498529
34	0xbdae9af5	-0.085256495
35	0x3b85c580	0.0040823817
36	0x3a0e9e41	0.0005440452
37	0x3cc73899	0.02431898
38	0xbd2e044b	-0.042484563
39	0xbe1a420b	-0.15064256
40	0xbcd7f629	-0.026362495
41	0xbc8b8047	-0.01702894
42	0xbd4dc18b	-0.050233405
43	0xbe053460	-0.1300826
44	0xbdae98b7	-0.08525222
45	0x3d5ebc0a	0.054378547
46	0xbde51c80	-0.111870766
47	0x3df0ec0e	0.11763774
48	0xbe65fe72	-0.22460344
49	0xbd83aeb7	-0.064298086
50	0x3d7af640	0.06127
51	0xbd2cea00	-0.042215347
52	0xbba583ca	-0.005051111
53	0x3de70372	0.11279954
54	0xbd90f4ba	-0.07077928
55	0xbe289fb8	-0.16467178
56	0xbc9ed290	-0.019387513
57	0xbd736bfc	-0.059429154
58	0xbe489bdb	-0.19590704
59	0xbd618fe1	-0.055068854
60	0xbd9facd3	-0.077966355
61	0x3d85012c	0.06494364
62	0x3c800436	0.015627008
63	0xbe3b7c1e	-0.18309066
64	0xbe99ff20	-0.30077457
65	0xbe04b656	-0.1296018
66	0x3d61c2e9	0.05511752
67	0x3b2a4230	0.0025979392
68	0x3d0ec304	0.03485395
69	0x3c290dac	0.010318201
70	0x3e02f069	0.12787022
71	0xbd864fb6	-0.065581724
72	0x3c6b8b94	0.01437654
73	0xbe185aac	-0.14878339
74	0x3d4b6c3d	0.04966377
75	0xbc59f46a	-0.013302902
76	0xbcfbb7fa	-0.030727375
77	0xbe310416	-0.17286715
78	0xbd747058	-0.05967745
79	0xbd44068a	-0.0478578
80	0xbdfae852	-0.12251343
81	0x3d1328c0	0.035927534
82	0x3c6e35d0	0.014539197
83	0xbe72ef12	-0.2372401
84	0xbe20b390	-0.15693498
85	0x3d549b29	0.051905785
86	0xbc16c0e3	-0.009201261
87	0xbd7e1810	-0.062034667
88	0xbef7e808	-0.48419213
89	0x3d5a3f96	0.053283297
90	0x3d2c4ccd	0.04206543
91	0xbb78f5e9	-0.003798837
92	0xbdd0f85e	-0.10203622
93	0x3bba62a0	0.0056880265
94	0x3d801e27	0.06255751
95	0xbbacf6c0	-0.0052784383
96	0xbd1adab0	-0.037806213
97	0x3d278a50	0.04090339
98	0xbda31cf5	-0.079645075
99	0x3da64ffe	0.08120726
100	0x3cef0a07	0.029179586
101	0xbd6ce25c	-0.05783306
102	0xbe11d145	-0.14239986
103	0xbe35b7fd	-0.17745967
104	0xbd68d60b	-0.056844752
105	0xbe2deae6	-0.16984138
106	0xbd683ee1	-0.05670059
107	0x3d4c1f3c	0.049834475
108	0xbe9cecd2	-0.3064943
109	0xbce53ab3	-0.027982092
110	0xbdeb61e8	-0.114932835
111	0xbda5c390	-0.08093941
112	0xbdeff67c	-0.11716935
113	0xbd23fb1c	-0.0400344
114	0xbe3c921b	-0.1841511
115	0xbe0c5340	-0.13703632
116	0xbd2a3e58	-0.041563362
117	0x3ccb5060	0.0248186
118	0xbc54020d	-0.012939942
119	0xbde49e5b	-0.111630164
120	0x3c070362	0.008240553
121	0xbe4cec03	-0.20011906
122	0xbe637086	-0.22210893
123	0xbd0ae909	-0.033913646
124	0xbe3e3104	-0.18573385
125	0xbd56e176	-0.05246111
126	0x3c9c335b	0.019067457
127	0xbe4e4710	-0.20144296
128	0xbe2ce109	-0.16882719
129	0x3cc83f5f	0.02444428
130	0xbdd7c445	-0.10535482
131	0xbd2087a3	-0.039191853
132	0xbcadcc66	-0.021215629
133	0xbdabbe7b	-0.08385941
134	0xbe18dd9d	-0.14928289
135	0xbe3aff1f	-0.18261383
136	0x3cca9570	0.02472946
137	0xbac1e695	-0.001479345
138	0x3d3171ae	0.043321304
139	0xbdd1cb47	-0.1024385
140	0xbd19b4ea	-0.03752605
141	0xbcc1589d	-0.023601824
142	0x3d8a4756	0.067518875
143	0x3c8fe3b0	0.017564625
144	0xbceb7988	-0.028744474
145	0xbdb25cb0	-0.08709085
146	0xbd6008c8	-0.054695874
147	0xbe9cb4f3	-0.30606803
148	0xbcc3c8ae	-0.023899402
149	0xbd994ff8	-0.07485956
150	0xbdb4f605	-0.08835987
151	0xbe4a36c0	-0.19747448
152	0xbe5125cc	-0.20424575
153	0xbd1e4eb3	-0.038649272
154	0xbda7884d	-0.08180294
155	0xbe49c613	-0.19704466
156	0x3cc460b0	0.023971885
157	0xbd0f00c8	-0.034912854
158	0xbe0a35cf	-0.13497089
159	0xbe22f6c1	-0.15914442
160	0xbdbbf92e	-0.09178387
161	0xbcab6730	-0.020923227
162	0xbd13807c	-0.036011204
163	0xbdf0fd60	-0.117670774
164	0x3cdde0f4	0.027084805
165	0xbd97e12e	-0.074159965
166	0xbe1419d1	-0.14462973
167	0xbd4b3b36	-0.049617015
168	0xbd8be10c	-0.06830034
169	0xbda07879	-0.07835478
170	0xbda25f8c	-0.0792838
171	0xbdc22f1b	-0.09481641
172	0xbd5ca5cb	-0.05386905
173	0xbd087e20	-0.033323407
174	0x3c09c310	0.008408323
175	0xbdece1da	-0.11566515
176	0xbdebc138	-0.11511463
177	0xbcfc0970	-0.030766219
178	0x3b1797d5	0.002313127
179	0xbcb33b92	-0.021878991
180	0xbc7fdc40	-0.015616477
181	0xbcb09df0	-0.021559685
182	0x3ca82dcf	0.020529656
183	0xbd3c19f6	-0.045923196
184	0x3d643085	0.055710334
185	0xbe917e04	-0.28416455
186	0xbe9685e6	-0.2939903
187	0x3cd26714	0.025683917
188	0xbd60b8fb	-0.05486391
189	0x3cbdc4ac	0.02316507
190	0xbe265fbf	-0.16247462
191	0xbe3851ec	-0.18
192	0x3ea5ac75	0.32358137
193	0xbc834c9a	-0.016027737
194	0xbe3555f0	-0.17708564
195	0xbec100df	-0.37695977
196	0x3d652a47	0.055948522
197	0x3dcee5e8	0.10102445
198	0x3d92b952	0.07164253
199	0x3de6deb6	0.112729475
200	0xbdc5c283	-0.09656241
201	0x3dec45ff	0.11536788
202	0x3c8b72b6	0.017022472
203	0xbd381f3c	-0.044951662
204	0xbda1b764	-0.07896307
205	0x3c376c76	0.011195293
206	0x3dfa3fae	0.12219177
207	0xbe5b1e66	-0.21398315
208	0xbc87a524	-0.016558237
209	0x3e6cee1e	0.2313771
210	0xbe5ab304	-0.21357352
211	0xbe8001ec	-0.25001466
212	0xbca9afe4	-0.020713754
213	0x3daae6c9	0.083448
214	0x3d3629b7	0.044473376
215	0xbe0b0b14	-0.13578445
216	0x3c6950a6	0.0142404195
217	0x3db43c03	0.08800509
218	0xbe70d71d	-0.23519559
219	0x3de27cc7	0.11058956
220	0xbe0a47e7	-0.13503991
221	0xbd20986c	-0.03920786
222	0x3ea3ba43	0.31978044
223	0x3ec668f0	0.38751936
224	0xbd5cc1bd	-0.0538957
225	0xbebf88a3	-0.37408933
226	0xbd6a453d	-0.057194937
227	0x3c9231e8	0.017846063
228	0x3bfb9356	0.007677476
229	0x3e0c8f0f	0.13726448
230	0x3d8fb5b9	0.07017083
231	0x3e390f24	0.18072182
232	0xbd059f72	-0.032622762
233	0xbdf4e11a	-0.11956997
234	0x3e1e55d8	0.15462434
235	0x3d45244e	0.048130326
236	0xbec48739	-0.38384417
237	0xbcd4d1d1	-0.025978955
238	0x3d2036ae	0.039114647
239	0x3d5ff144	0.05467345
240	0x3e34f3dd	0.17671151
241	0x3e666c54	0.22502261
242	0xbda8f41e	-0.08249687
243	0x3cd446ea	0.02591272
244	0xbe712a50	-0.23551297
245	0xbdb3790e	-0.08763324
246	0x3e1597a3	0.14608626
247	0x3db477c1	0.08811904
248	0xbd287ea5	-0.041136403
249	0xbe428c0b	-0.18998735
250	0xbe9edb30	-0.31026602
251	0xbc5a7964	-0.013334606
252	0x3da68442	0.08130695
253	0xbd661aa7	-0.05617776
254	0x3d0d5a10	0.03450972
255	0xbe38071b	-0.1797146

bias f4 [64]
0	0xbeb1d2af	-0.3473105
1	0xbbbeb069	-0.0058193696
2	0xbe7a9f25	-0.24474771
3	0x3f5b2147	0.8559765
4	0xbcbb0e36	-0.022833925
5	0xbf146775	-0.5797036
6	0xbe92b45f	-0.28653237
7	0xbd1d8c81	-0.038464073
8	0xbe08e9f3	-0.13370495
9	0xbe863b3a	-0.2621706
10	0xbe2be461	-0.16786338
11	0xbd8ed7de	-0.06974767
12	0xbda88fc0	-0.08230543
13	0xbe826b7b	-0.25472626
14	0xbd6b7fd2	-0.057494946
15	0xbd8bf846	-0.06834464
16	0xbec326d1	-0.38115552
17	0xbdbccd93	-0.09218898
18	0xbedbae7b	-0.42906556
19	0xbeb7b5bf	-0.3588085
20	0xbeb8f88c	-0.36127126
21	0xbe596667	-0.2123047
22	0xbe3d7eb0	-0.18505359
23	0xbdc6c483	-0.097054504
24	0xbe0351aa	-0.12824121
25	0xbe04c55c	-0.12965912
26	0x3f5fe18e	0.87453544
27	0xbe97093d	-0.29499236
28	0xbde635fd	-0.11240766
29	0xbe378a6b	-0.17923896
30	0xbe859f31	-0.26098016
31	0xbf0bdd40	-0.54634476
32	0xbf2182c7	-0.63090175
33	0xbf106602	-0.5640565
34	0xbf213837	-0.629764
35	0xbe876cd5	-0.2645022
36	0xbe087c75	-0.13328727
37	0xbf5ec2ac	-0.87015796
38	0xbe11ff03	-0.14257436
39	0x3d8c79c1	0.0685916
40	0xbe962df7	-0.29331943
41	0xbed082a7	-0.4072468
42	0xbe82e059	-0.2556179
43	0xbf0909cb	-0.5353057
44	0xbec87d5e	-0.39158148
45	0xbea7db49	-0.3278449
46	0xbf17b959	-0.59267193
47	0xbe9e7b5f	-0.309535
48	0xbe819de2	-0.25315768
49	0x3f67cf97	0.9055113
50	0xbeb40af3	-0.35164604
51	0xbee19115	-0.44056
52	0xbda90ecc	-0.082547754
53	0xbebed5d8	-0.37272525
54	0xbeed5f8c	-0.4636196
55	0x3e54dd3e	0.20787522
56	0x3fa45586	1.28386
57	0xbedc77c5	-0.43060127
58	0xbea424e4	-0.32059395
59	0x3e82e9fe	0.25569147
60	0x3a81f221	0.0009914079
61	0xbf7fd783	-0.9993822
62	0xbef6ceb5	-0.4820458
63	0xbeb26bc7	-0.34847853

weight f4 [64, 64]
0	0x3e2a74dd	0.16646142
1	0xbd2d5e88	-0.04232648
2	0x3e1971ec	0.14984864
3	0xbe87d4fd	-0.26529685
4	0x3d6424ec	0.055699274
5	0xbd6a55ed	-0.05721085
6	0xbdf36cb8	-0.11885971
7	0xba8c1fcf	-0.0010690632
8	0xbc83721d	-0.016045624
9	0x3e011129	0.12604202
10	0x3d976394	0.0739204
11	0xbdb080b2	-0.08618297
12	0x3d44ecc4	0.04807736
13	0xbcd1014a	-0.02551331
14	0x3dcee200	0.101017
15	0x3d79afa8	0.060958534
16	0xbdd3d0c2	-0.10342552
17	0x3d699512	0.05702693
18	0x3e66da1b	0.22544138
19	0xbdbd22c0	-0.09235144
20	0x3d7aea50	0.061258614
21	0xbc9c8ddb	-0.01911061
22	0x3db1d411	0.086830266
23	0xbd8a3f88	-0.06750399
24	0x3e53af78	0.20672405
25	0xbe3920fc	-0.18078989
26	0xbd99e930	-0.0751518
27	0xbe1b7be2	-0.15183976
28	0x3e9e798c	0.30952108
29	0x3db1e7db	0.08686801
30	0xbd53e8d4	-0.051735714
31	0xbe768eb2	-0.24077871
32	0xbe7c68c9	-0.24649347
33	0xbe845eac	-0.2585348
34	0xbec3c8ee	-0.38239235
35	0x3dbff07a	0.09372039
36	0xbd03d03b	-0.032181006
37	0xbd7f5ac6	-0.062342428
38	0x3d90e032	0.07074012
39	0x3d84dd75	0.06487552
40	0xbd90a4ce	-0.07062684
41	0xbd9a8d55	-0.07546488
42	0xbe9c894d	-0.30573502
43	0xbe87a4a0	-0.26492786
44	0xbe0dffdb	-0.13867132
45	0x3e494757	0.1965612
46	0xbc75f63a	-0.015012318
47	0xbe1455b6	-0.14485821
48	0x3de4b4d1	0.111673005
49	0x3e19dd4b	0.15025823
50	0x3dc52232	0.09625663
51	0x3de9e7d2	0.11421169
52	0xbea2844c	-0.3174156
53	0xbdd66e0e	-0.1047021
54	0xbd8b98cc	-0.06816253
55	0x3bd2b337	0.0064300555
56	0xbe41f5df	-0.18941449
57	0xbea11999	-0.31464842
58	0xbccfb27f	-0.025353668
59	0xbdb7dcde	-0.08977674
60	0xbed9bf26	-0.42528647
61	0xbc8aa31a	-0.016923476
62	0xbe906d12	-0.28208214
63	0x3e166be8	0.146896
64	0xbde2a2a8	-0.110661805
65	0xbdc0b5fc	-0.09409711
66	0xbdbcd9cc	-0.09221229
67	0x3d12f634	0.03587933
68	0xbd6eca54	-0.058298424
69	0x3d033d94	0.032041147
70	0x3db3f3d0	0.08786738
71	0x3dd1660e	0.102245435
72	0x3ae76c00	0.0017656088
73	0xbd9fcb54	-0.07802454
74	0xbe34d739	-0.17660226
75	0xbce947e0	-0.028476655
76	0xbdc6e7b9	-0.09712166
77	0x3b6225c0	0.0034507364
78	0xbcd04a70	-0.02542612
79	0x3d9912a0	0.074742556
80	0xbdb78368	-0.08960611
81	0xbdc5991e	-0.096483454
82	0x3de500be	0.11181782
83	0x3dfadeea	0.12249549
84	0x3d950130	0.07275617
85	0x3dd66d2e	0.10470043
86	0x3caeeb80	0.02135253
87	0xbd8a3c2e	-0.067497596
88	0x3df79634	0.12089196
89	0x3ccb9b3e	0.024854299
90	0xbdbe47d4	-0.09291044
91	0xbd946918	-0.072466075
92	0xbd2511d0	-0.04030019
93	0xbc975b10	-0.01847604
94	0xbdd13374	-0.10214892
95	0x3d045810	0.032310545
96	0xbd0f27a0	-0.0349499
97	0x3d788e9c	0.060682878
98	0xbcd4ba1e	-0.025967654
99	0xbcb951e5	-0.022622058
100	0x3caed128	0.021339968
101	0xbe30ec7a	-0.17277709
102	0x3dd02904	0.10164073
103	0x3d71f298	0.059069246
104	0xbdd6edd2	-0.104945794
105	0xbdeb0212	-0.11475004
106	0x3c35dea0	0.011100441
107	0x3d11527c	0.035479054
108	0xbd80b7fc	-0.06285092
109	0x3c594360	0.013260692
110	0x3d7959a4	0.060876504
111	0xbe0b32af	-0.13593553
112	0xbdbd4422	-0.09241511
113	0xbd486fc8	-0.048934728
114	0xbdac8fb0	-0.08425844
115	0x3d8b62ac	0.068059295
116	0xbd9bdc98	-0.07610434
117	0xbdc02c2c	-0.09383425
118	0x3d6ab0c0	0.05729747
119	0x3b468c80	0.0030296147
120	0xbda89a05	-0.08232502
121	0xbc21d560	-0.009877533
122	0xbdedc296	-0.1160938
123	0xbe217a37	-0.15769278
124	0xbc50a6d7	-0.01273509
125	0xbe602be9	-0.2189175
126	0xbd98b903	-0.07457163
127	0xb91c3400	-0.00014896691
128	0xbe43a8e5	-0.19107397
129	0x3e16aaac	0.14713544
130	0x3d9abe52	0.07555832
131	0xbc4e2527	-0.0125821
132	0x3c1e649f	0.009667545
133	0xbcaefb8f	-0.021360187
134	0x3d8dd2b8	0.06924957
135	0x3dae2255	0.08502642
136	0xbd9c95d2	-0.076457635
137	0xbdbd90d1	-0.09256137
138	0xbcf2f86a	-0.029659469
139	0x3df2a85c	0.11848518
140	0x3d597a88	0.05309537
141	0xbdbc2785	-0.09187225
142	0xbde55a61	-0.11198879
143	0xbd2a32a8	-0.041552216
144	0x3bf5038f	0.007477231
145	0x3d2bf75d	0.04198395
146	0x3e24ccbe	0.16093728
147	0xbce5b628	-0.02804096
148	0x3d7fda39	0.062463973
149	0x3c723a85	0.01478446
150	0x3d3822af	0.04495495
151	0xbca0f383	-0.019647365
152	0x3c123038	0.008922629
153	0xbd4684f4	-0.048466638
154	0xbc04c9a1	-0.008104713
155	0x3d159b58	0.0365251
156	0x3e0398a0	0.1285119
157	0xbe171c01	-0.14756776
158	0x3c64f420	0.01397422
159	0xbdf03949	-0.11729676
160	0x3de5b868	0.11216813
161	0xbdd7b1ab	-0.10531934
162	0xbbe90d3c	-0.0071121734
163	0xbd657080	-0.05601549
164	0x3d5725ab	0.052526157
165	0xbe26dfbb	-0.16296284
166	0x3d5d5e2b	0.054044884
167	0xbdcdf013	-0.10055556
168	0x3c539fad	0.012916488
169	0xbd1e0839	-0.03858206
170	0x3e47ffb1	0.19531132
171	0xbd1aae8b	-0.037764113
172	0x3cc7ebf9	0.024404513
173	0xbde46930	-0.111528754
174	0x3ccc8736	0.024966817
175	0xbca7be8f	-0.020476608
176	0x3c6d9d48	0.014502831
177	0xbd831da7	-0.0640214
178	0x3cbaf7b0	0.022823185
179	0x3d06e659	0.03293452
180	0xbe0b8a8f	-0.13627075
181	0x3e10917f	0.14118002
182	0x3d69b64c	0.057058617
183	0x3d6364fb	0.055516224
184	0xbe32862a	-0.17433992
185	0x3d08bbb9	0.03338215
186	0xbdab7395	-0.08371655
187	0xbc0f25d3	-0.008737045
188	0xbd985740	-0.074385166
189	0xbe9d82b5	-0.30763784
190	0xbe439469	-0.19099583
191	0xbd9be11a	-0.07611294
192	0x3ddb2d96	0.10702054
193	0xbd009e00	-0.03140068
194	0x3dd03728	0.1016677
195	0xbdebadb6	-0.11507742
196	0xbd245b08	-0.040125877
197	0x3d9a4e52	0.0753447
198	0x3df84044	0.12121633
199	0xbdb01dea	-0.08599456
200	0x3dac1d72	0.08404054
201	0x3d9243a2	0.07141806
202	0xbe18e2e5	-0.14930303
203	0x3da46dd2	0.08028759
204	0xbdfd8a34	-0.12379876
205	0xbca44bd0	-0.020055681
206	0xbd646b24	-0.05576624
207	0x3dd1615e	0.102236494
208	0xbda1b94e	-0.07896672
209	0xbd8c7d6c	-0.0685986
210	0x3d912286	0.07086663
211	0x3df18d12	0.11794485
212	0x3d9244de	0.071420416
213	0x3df78738	0.12086338
214	0x3cc88ae8	0.024480298
215	0xbe3daf41	-0.18523885
216	0x3dfa0f56	0.12209956
217	0xbceea410	-0.029130965
218	0xbe69d179	-0.22833814
219	0x3beff460	0.007322833
220	0x3cf727c8	0.030170336
221	0xbdb87f0e	-0.09008609
222	0x3d276df4	0.040876344
223	0xbd876846	-0.066116855
224	0xbdae717a	-0.08517738
225	0xbd96468a	-0.07337673
226	0xbe8218e1	-0.25409606
227	0xbce1b96c	-0.027554236
228	0x3dcf7fdc	0.10131809
229	0xbd506d98	-0.050885767
230	0x3d854804	0.065078765
231	0x3c233b40	0.009962857
232	0x3cf04250	0.029328495
233	0xbd0944e8	-0.03351298
234	0x3cec5018	0.028846785
235	0xbda0e60e	-0.078563794
236	0x3db31acc	0.087453455
237	0x3d51c8c8	0.05121687
238	0x3da1b30a	0.07895477
239	0xbd6cbff7	-0.05780026
240	0xbdcb8a0a	-0.09938438
241	0xbd9ae740	-0.07563639
242	0x3dbe0d5a	0.0927989
243	0x3d1cff1c	0.03832923
244	0xbe3c64cc	-0.18397826
245	0x3dd7cef0	0.10537517
246	0xbd6f1cf4	-0.05837722
247	0x3c40a120	0.011757165
248	0xbdb20b43	-0.08693554
249	0x3db0d89a	0.086350635
250	0xbdea9b00	-0.11455345
251	0xbde2129d	-0.110387065
252	0xbe8842dd	-0.26613513
253	0xbe770bd7	-0.2412561
254	0xbd8fa5c6	-0.07014041
255	0xbd7fe968	-0.062478453
