mlartifacts/554351476986166068/d44c0440dabe4f2cba7acb96fecacb1f/artifacts/models/Model_dim64_layers5_experiment/r2_score0.402546063852004_run19/data/model.pth (torch, 294728 bytes, 13 tensors)

weight f4 [64, 801]
00000000: da76 89bc c467 aa3c bf0d e53c eb06 e83c
00000010: 191a d13c aa22 78bc c038 3a3c 6d46 11bd
00000020: d1f3 9bbb 78e1 b93b cb48 293d d22c bbbb
00000030: 3ab8 aabb 4e54 453c 6788 083a 2400 c53c
00000040: b988 a53c eea6 273c c44f 573b b109 dc3c
00000050: 2765 8b3b 9445 963c 9cfb 043d 29e2 c63c
00000060: 54eb 0abd 6255 03bc 9682 2fbd 10ef b2bc
00000070: 6039 793c d8d0 89ba 0910 253d a3de acbc
00000080: f8ec 0bbb d708 ebbb 142b cf3c 5ac4 0c3c
00000090: ae45 313d 50c8 67bc c4ca 8b3d 572d 37bd
000000a0: c31d b0bd c20a 86ba db08 783d 286b ecb9
000000b0: d964 b33c a914 433c 1126 dabc ab78 7d3d
000000c0: a5fa 2b3d 7297 893c 1396 3dbd f8cc 8c3c
000000d0: 0f26 a73c 12c5 163d 1731 d83c 3f0f 24bd
000000e0: ef08 213c 4c0d bbbd 2ebb 26bb 31ca c9bc
000000f0: 9565 053d 4479 e23c f9ae 48bd d1a8 81bd
00000100: 0c0d 8bbc 7134 57bd 12e6 283d 8d12 e1bc
00000110: 665e f3bc abc1 ce3a f840 493b bf23 f13c
00000120: ce13 dabc a3d1 083c cd9d 11bd fc54 fdbb
00000130: e904 e33c de6b 25bd 0129 b83d 9297 d5bc
00000140: 6970 3bbc 6356 3abd 1b77 82bb 6a6c 513c
00000150: 9b6a 043c 4a61 373c 9351 8a3d bfe0 21bd
00000160: 3ebb c539 2ead 973d f0d4 ca3b a846 5d3c
00000170: 2992 0c3d 3dfa ce3b 7493 513c 4496 ffbc
00000180: 2e51 663c d96b 82bc c955 0b3c 43ef b1bc
00000190: 332c adbc 0cad a0bb 6dd3 773c 7fd3 19bc
000001a0: 34ef dd3b 77f1 7e3d 97d3 81bd d51d 653d
000001b0: 9320 463d a9ba fd3c 78a8 84bb ace9 84bc
000001c0: 3611 133d 0257 083c 2369 053d 1127 c4bc
000001d0: dc21 343d f3c0 e3bb 312d cd3c 7cef fbbb
000001e0: 7cd8 ecbc 4ab6 143d 1056 7f3c 33bb 3cbd
000001f0: 660a 53bb 74ae 73bd 2546 263d 68ce b73a
00000200: d7ca 623c cc8f c63a 92b1 c13c 8d7c b83c
00000210: e8cd 483a c36e f93c 1706 223d 3f9a ec3c
00000220: a107 0d3d f56d f43c 0235 a6bc ffc5 eebc
00000230: 7ac4 e0bb 97e4 ccbb 94bf 243c 8d26 893d
00000240: e499 63ba 10b8 413b 64a3 72b9 f0b5 cebc
00000250: ada8 343c 78e0 cbbc 0962 333b 560a 3fbc
00000260: cc1c 503d a5e2 edbc 4360 7c3d 4822 8238
00000270: 19c0 7a3c 70c4 483a 4d38 793d af73 183d
00000280: 618e 773d d527 d03c 6183 96bc 051a 9abb
00000290: 8cbc abbb eee1 4b3d 635b 02bd 2a90 5a3b
000002a0: 9fc0 8a3c f22b 383d 9d0e 23bd e45a be3c
000002b0: 9955 7e3b 0a95 34bd 8152 c9bb 9e90 903c
000002c0: 7c5c adbc be89 123d 63f4 cabb 1a3b f43c
000002d0: d501 bdbb f0c6 c93b dd4e 8abb a36e 0dbc
000002e0: f9bb b4bb 1c57 9cbc ef89 b6bc 605f 3ebd
000002f0: 7044 353c a815 243c 8cba 1cbd 5e62 123c
00000300: f41a 6c39 6c2d 433c 842f b4bc 706e 9b3c
00000310: 2ca8 633d 5df7 3b3c c776 313d 68ac 97bc
00000320: e421 b8ba f331 a1bc 6270 4abd 0f3d 9b3c
00000330: bc53 3f3d f710 533d ac3c 113d 9115 7fbc
00000340: 6071 6dbc b1b3 503c 3ade d4bc 7a6d a8ba
00000350: 50b4 643d 78a0 003c 9df2 afbc e710 76bd
00000360: e65a be3c 664e 30bc ddba 03bd 15e1 c4bb
00000370: 1cfa c6bb b32a d33c 9210 1bbb 67f5 85bc
00000380: 9a8b 013c 344d 60bd 0a27 9d3d 81ae 68bc
00000390: 9ac5 cb3c 0650 3e3c cea7 45bd 43e0 343d
000003a0: a0df 143d ebcb 56bc ad30 f6bc bea0 853c
000003b0: e221 69bd 05a4 9d3c 8ef9 743d 70a3 17bd
000003c0: e679 99bc 3a1f 0f3d 9189 d6bc b627 1c3b
000003d0: edaf b33c f843 5c3c 3461 1a3d e686 77bd
000003e0: 4d1c 2f3d a7f4 abbb 11bb 7b3c 725f 16bd
000003f0: 9a0c 18bc dc62 38bc 844f ba3c 049c 93bb
-0.016780306 0.020801432 0.027960656 0.028323611 0.02552514 -0.015144983 0.011366069 -0.035467554
-0.00475929 0.00567263 0.041329186 -0.00571213 -0.00520995 0.012044026 0.0005208314 0.024047919
0.020206796 0.01023267 0.003285394 0.02686009 0.0042540017 0.018343724 0.032466516 0.024277763
-0.033915833 -0.008015962 -0.042849146 -0.02184251 0.015211433 -0.0010514511 0.040298495 -0.021102255
-0.0021350961 -0.0071726847 0.025289096 0.008591736 0.043279342 -0.014146879 0.06825784 -0.044720974
-0.085994266 -0.0010226595 0.06055532 -0.00045093265 0.021898674 0.011906781 -0.02662948 0.061882656
0.04198708 0.016795848 -0.0462857 0.01718758 0.02040389 0.036809035 0.026390595 -0.040053602
0.00982879 -0.091333956 -0.0025441158 -0.024632545 0.03256758 0.027645715 -0.048994992 -0.06331027
-0.016973995 -0.052540246 0.041235037 -0.027474666 -0.029708099 0.001577427 0.003070889 0.02943599
-0.026620772 0.008350763 -0.03555088 -0.007731078 0.027712302 -0.040386073 0.08992196 -0.02607325
-0.011440375 -0.04549254 -0.0039814836 0.012782196 0.008082057 0.011192629 0.0675384 -0.039520975
0.00037714274 0.07406078 0.006189935 0.013505615 0.034319077 0.006316452 0.012791503 -0.031199582
0.014057441 -0.015920566 0.0085043395 -0.021720534 -0.02113924 -0.0049034413 0.015126091 -0.0093888035
0.0067729 0.062241998 -0.06339186 0.055936653 0.04837091 0.030972796 -0.0040484034 -0.016224705
0.035905086 0.0083215255 0.03257097 -0.02394441 0.043977603 -0.0069504916 0.025045963 -0.007688461
-0.028911822 0.036306657 0.015584484 -0.046076965 -0.0032202243 -0.059492543 0.04059424 0.0014023306
0.013842306 0.0015149056 0.023644242 0.022520328 0.0007660077 0.030448323 0.03955659 0.028882144
0.034431104 0.029837588 -0.020288948 -0.029147146 -0.0068593593 -0.006252836 0.010055441 0.06696806
-0.0008682294 0.0029559173 -0.00023139786 -0.025233239 0.011026544 -0.024887308 0.0027371666 -0.011660179
0.050808713 -0.029038737 0.06161524 6.2052684e-05 0.015304589 0.0007658666 0.06084471 0.0372197
0.060438517 0.025409618 -0.018373193 -0.004702809 -0.0052409824 0.04977601 -0.031825434 0.0033350089
0.016937552 0.044963785 -0.03980886 0.0232367 0.0038808344 -0.044087447 -0.0061438684 0.017647084
-0.021162264 0.035775892 -0.006193684 0.029813338 -0.0057680407 0.0061577484 -0.004220827 -0.008632335
-0.005515572 -0.019084506 -0.022282569 -0.046477675 0.01106368 0.010014929 -0.038263842 0.008934585
0.00022516755 0.011912685 -0.021995313 0.01897356 0.055580303 0.01147255 0.043326166 -0.018514827
-0.0014048186 -0.019677138 -0.049423583 0.018950013 0.046710715 0.05152985 0.03545825 -0.015569107
-0.014492363 0.012738154 -0.025984872 -0.0012850009 0.055836022 0.007850759 -0.021477992 -0.060074713
0.023236703 -0.010760879 -0.03216063 -0.006008277 -0.006072296 0.025777197 -0.0023661 -0.016352369
0.007906819 -0.054761127 0.07673462 -0.014201761 0.024874497 0.011615759 -0.048255734 0.044159185
0.036346078 -0.013110141 -0.030052507 0.016312 -0.05691708 0.01924325 0.059808306 -0.0370211
-0.018734884 0.03494189 -0.026188644 0.002382738 0.021934474 0.013443939 0.037690356 -0.060431384
0.0427516 -0.0052476707 0.015364424 -0.036712117 -0.009280348 -0.011254039 0.022742994 -0.0045046825

bias f4 [64]
00000000: 6d6c abbc 5166 f7bb 612a 6f3c 8344 9a3b
00000010: 0a2f 323c 6b82 f93c f96d 6a3b 692c 983b
00000020: 80f9 08bc 1d72 c43c 24a5 b3bc 16cb 3d3c
00000030: ef12 3b3d 1ee4 abbc f67c ebbb 36e3 a53c
00000040: cc4b 68bb d759 81bc ceb9 f33a 584a b93a
00000050: 5abc 1a3d af4d 393d 5c4b ddbc 8b85 343d
00000060: 5045 a43a 4c7c bbbc 5f1e ca3c 2c0e 8b38
00000070: 09d0 ecba bef2 ef3c 6533 583c efea 913c
00000080: c61e 17bc 9d52 bd3c 9a9f 47bb e792 6e3c
00000090: 0c02 013b 3c92 2d3b 8122 2ebc 4004 b4bc
000000a0: c5ac f13c ba13 e9bb d000 143d 9805 9dbc
000000b0: c59f 8cbc 3539 04bd 0e13 283b 33c0 2f3c
000000c0: fadf 6c3b 8773 333d 7606 053c e544 013d
000000d0: de08 9eb9 4187 c23c ffca 143c 0cd2 05bd
000000e0: 6fe7 853c 26ad 423d 8944 42ba c2e8 63bb
000000f0: 87a0 173d 2cc8 08bd 4789 68bc 4ff0 a2bb
-0.020925725 -0.007550039 0.014597506 0.0047078743 0.010875473 0.030457696 0.0035771115 0.004643966
-0.008360267 0.023980195 -0.021929331 0.011584064 0.045672353 -0.020982798 -0.0071865274 0.020249944
-0.003544557 -0.01578991 0.0018594803 0.0014136536 0.037777282 0.0452401 -0.027013473 0.04407267
0.0012532864 -0.022886418 0.024672685 6.630676e-05 -0.001806737 0.029290553 0.013195847 0.01781222
-0.009223646 0.023110682 -0.003046012 0.014561391 0.0019685058 0.0026484868 -0.010628344 -0.021974683
0.029501328 -0.0071129473 0.036133587 -0.019167706 -0.017166028 -0.03228112 0.0025646123 0.010726976
0.0036144243 0.043811347 0.008119216 0.031559844 -0.00030142715 0.023746135 0.009081601 -0.03267102
0.016345708 0.04752841 -0.0007410725 -0.0034776186 0.037018325 -0.033394024 -0.014192886 -0.0049724947

weight f4 [64, 64]
00000000: 26b6 3e3d e8b0 4aba 8ac9 333d 1590 463d
00000010: 2e5b f6bd 26aa 393c 9337 d6bd 39ef f2bd
00000020: 96da 71bd f54b a0bd 3b36 e13d cd90 273e
00000030: 33d7 713d db4b 1a3d 0817 883d 18b6 dd3d
00000040: 09e8 06be f205 fcbd 289b e73a 5401 093e
00000050: b66d 3a3d 59a2 e13d 9569 05be bd30 e83d
00000060: e699 7b3e 5e23 a43c 9b43 92bc 898b a03d
00000070: a948 6d3c 7ba7 50be eb7a db3c f35f ebbc
00000080: 382a e93d ed55 fcbd f89b ef3d 4cce db3d
00000090: 4a8e 09be 7a76 4dbd 5fb3 6fbd 1cf2 183e
000000a0: ea81 e1bd 3c4a f33d c8a1 96bd 770c 0f3d
000000b0: f09c 8c3d 6c0b 823d 7673 113e 6ce8 2e3e
000000c0: 8222 8e3d 094f ec3d 0cdc 25bd 1fc9 bcbd
000000d0: 98df 253d 6808 63bd d6bb 153e 77bb 96bd
000000e0: bf88 173e 181b 133e f05c 663d 459e 803d
000000f0: 9a5c 06be 8e22 b6bd a0e6 3ebd 00a0 a03d
00000100: 6df9 423d ec7a ad3d a07c a5bd 9e38 9ebd
00000110: 9852 08bd 1ccf 473d 3b7a e63c 4244 583e
00000120: 3299 3ebe 74e2 123e 51b5 0a3e dfad 5dbd
00000130: 0519 81bd 191c f43c 0d36 303c 5319 d6bd
00000140: 47d9 fb3c 5f5b 153e 215b 95bd fef6 28be
00000150: 79e2 783d 9d41 cab8 8735 bb3d 71b1 283d
00000160: 691e abbd 20d2 7abd c4a5 e13d ec4d 513d
00000170: d417 2cbe eb4a 323e 7f13 8c3d 3dbd 8abd
00000180: 1a35 ce3c 3d6d 813d acf2 8b3d d877 15bd
00000190: 4ed8 67bd e041 cc3b 4ba2 e2bd 0db6 c6bd
000001a0: d386 67bc 82f2 07bd 8ffa c03d e519 a83d
000001b0: f44e a2bd 78bf de3b 97f2 1f3c 977f 1ebe
000001c0: 0115 a3bd 29d9 55be 63c7 853c dcb1 53bd
000001d0: 404c 533c 71f8 843d 43e6 f1bc ae5b a3bd
000001e0: f695 3fbe 09f2 103d 6b08 a23d f958 d83c
000001f0: c6f3 803d 949a f7bc daf0 033e 6243 00be
00000200: 47fd 82bd eeae 3ebd 8d52 9d3c d33e bd3b
00000210: 1b1c 1f3d 572b 20bd 2f1c 0bbd 629b b8bd
00000220: 5189 6ebd 4b39 febd 9099 ccbd 6d8a 68bd
00000230: d413 8bbd 2cba ea3d 24ee 7f3d 92f6 d63c
00000240: 4c0c 1b3c 99f7 0bbd 5806 6d3d dbc7 ab3d
00000250: bf76 b4bd 9531 a7bd 1146 15bd 0de5 73bd
00000260: 1281 413d 209a 693c 3823 d4bd 5fb0 7bbd
00000270: 3b53 683d 6756 633d 2527 47bd 4100 d2bd
00000280: c001 d23d 8481 4ebd c2c5 cf3d 2412 aabb
00000290: 2fa3 5b3c 2894 83bd e00d 553d bf34 85bb
000002a0: a418 00be 2351 e03c a51b 09bd 3328 d5bd
000002b0: 9830 b1bd 7bb7 0abd bcdd 893d 7147 bb3d
000002c0: b294 d33b ea78 a639 0bee 693d 3e5e b7bc
000002d0: e6b5 ad3d 3030 4b3c 87fb 7dbd cd4d ac3d
000002e0: 7475 c43d 7a14 c8bc 1cbf 323d 3c01 25bd
000002f0: 3601 80bd aebc d0bd d255 e2bc 8549 83bd
00000300: 2edd 5bbd 8d15 dc3d 6525 44bd 48bc 26bd
00000310: 00de 7bbc f12a a1bd a5a0 e1b9 e785 55bd
00000320: 95ab dd3d 43f3 f63c a71f 0dbd 00cb e0ba
00000330: 5adf dbbd ea87 8fbc 82d9 60bd 7715 8d3d
00000340: d06d a83d 81a6 46ba 97aa 8ebd 5074 26bd
00000350: eb06 d03c 1624 2dbd cb26 91bc 44be ddbd
00000360: 515e b3bd 88d2 d5bd 6be0 81bd 6042 e9bc
00000370: 3481 8f3d f039 2f3d 0e90 bcbd cc93 4c3d
00000380: 747b d3bc 806c adbb f023 f1bd 4873 dcbd
00000390: 8d40 853d 4a9e 993d 4077 933d bcfa 883d
000003a0: e0cf de3d 6a8e 8a3d 9242 d53c 1a7e d5bc
000003b0: d4ab 753d 54c2 8bbd 0c63 253d 544e ba3c
000003c0: 2b18 ae3d 6387 96bd f134 d8bd 9750 843d
000003d0: 4c15 0bbd 2eb7 d6bd f31f 803d 885a bcbc
000003e0: 5fab a1bd 8a1f bc3a 40d2 c83d 52fc 7b3d
000003f0: 5086 8abc a2cf 873d 8939 e8bd 9102 e8bd
0.04656043 -0.00077320496 0.043893375 0.04847725 -0.1202911 0.01133207 -0.10459819 -0.11862034
-0.05904635 -0.07826988 0.10996672 0.16363831 0.05904312 0.037669998 0.06645018 0.10825747
-0.13174452 -0.123058215 0.0017670142 0.13379413 0.045514785 0.110172935 -0.13028558 0.11337421
0.24570426 0.020036396 -0.017854502 0.07839114 0.014482656 -0.20376389 0.02679201 -0.028732276
0.11385006 -0.123210765 0.116996706 0.107327074 -0.13433185 -0.050161816 -0.05852067 0.14936107
-0.11011107 0.118793935 -0.07355076 0.034923997 0.06865871 0.06349835 0.14204201 0.1708085
0.069401756 0.11538512 -0.040493056 -0.09218048 0.04049644 -0.05542794 0.14622435 -0.07359975
0.14798258 0.14365804 0.056240976 0.062801875 -0.13121262 -0.088933095 -0.04660666 0.078430176
0.047601152 0.08470711 -0.08080411 -0.077256426 -0.033281893 0.0487815 0.028134456 0.21119788
-0.18613127 0.14344198 0.13545729 -0.054120895 -0.063036 0.029798554 0.010755074 -0.10454049
0.030743254 0.14585637 -0.07292772 -0.1650047 0.060762856 -9.644332e-05 0.09141069 0.041184846
-0.0835541 -0.061235547 0.110179454 0.051099703 -0.16805965 0.17411391 0.06839656 -0.067743756
0.025171805 0.06319664 0.06833395 -0.036491245 -0.05660277 0.006233439 -0.11066111 -0.09702692
-0.014131266 -0.033190258 0.0942279 0.08208064 -0.07925215 0.006797727 0.009762428 -0.15478359
-0.079629906 -0.20883621 0.016330427 -0.05168329 0.012896597 0.06492699 -0.029528743 -0.07976471
-0.1870955 0.035387073 0.07911762 0.026409613 0.06296496 -0.030225076 0.12884846 -0.12525705
-0.06395965 -0.046553545 0.019204402 0.0057753115 0.038845163 -0.039103832 -0.033962425 -0.09014012
-0.058236424 -0.124132715 -0.09990227 -0.056772638 -0.06790891 0.11461291 0.062482968 0.02624062
0.009463381 -0.034171674 0.057867378 0.08387729 -0.088117115 -0.08163754 -0.036443774 -0.05954461
0.04724223 0.014257938 -0.1035828 -0.061447497 0.05672 0.05550232 -0.048621316 -0.10253955
0.1025424 -0.050416484 0.10145141 -0.005190151 0.013405605 -0.06424743 0.052015185 -0.0040651257
-0.125094 0.027382439 -0.03347363 -0.10408058 -0.08651847 -0.033866387 0.067317456 0.09144486
0.006456935 0.00031752075 0.05711178 -0.022383805 0.0848196 0.0124016255 -0.062007453 0.08413277
0.09592715 -0.024423826 0.043639287 -0.04028438 -0.06250231 -0.10192238 -0.027628813 -0.06410507
-0.05367773 0.10746298 -0.047887225 -0.040706903 -0.015372753 -0.078695185 -0.00043035034 -0.052129652
0.10823742 0.030145293 -0.034454014 -0.0017150342 -0.1073596 -0.017520864 -0.05489493 0.0688886
0.0822407 -0.00075779116 -0.06966131 -0.040638268 0.025393924 -0.042270742 -0.017718693 -0.10827306
-0.08758224 -0.10440546 -0.063416325 -0.028474033 0.070070654 0.042779863 -0.09207164 0.049945638
-0.025815703 -0.005292475 -0.11774433 -0.10764176 0.06506453 0.07500894 0.072004795 0.06688449
0.10879493 0.067654446 0.02603272 -0.026061106 0.05997832 -0.068241745 0.04037766 0.022742428
0.085007034 -0.07350042 -0.10556973 0.06460684 -0.033955857 -0.104841575 0.06256094 -0.022992387
-0.078940146 0.0014352661 0.09805727 0.06151993 -0.016909748 0.066314 -0.11339099 -0.113286145

bias f4 [64]
00000000: 8987 763b 8509 1abd 7003 583d ed0b 553b
00000010: 98ba fabb e164 9abd a0a2 a9bd 96cd 6cbd
00000020: 260f 643d cf63 ba3d d048 c1bd 7e1d c83d
00000030: ad78 bb3c 5d26 5abd b031 273d 517a 9e3d
00000040: 7bcc 573d 0d28 b23c c6c0 123e 3119 92bd
00000050: 44dd adbd d270 663d 80f9 d23d aa25 703d
00000060: c3ed 353c d726 083e 1c84 c33d 256e 363d
00000070: 7883 e63d 7789 74bd 9bc1 5e3c f05a 64bd
00000080: bcb1 493c 9bec 8e3d 006f b2bd df01 94bd
00000090: 4ffe bebd d49b 903d 101f f43d 22d8 7a3c
000000a0: 62df a2bc fe77 00be 62f3 a83d c79b a53d
000000b0: d32b 623d b168 f53d 655f fa3c df68 343d
000000c0: 319a 06bd 036b a2bc 99ec 943d fdcd b4bd
000000d0: 90e4 4bbd 0c36 393d c58d ac3d 406e 61bd
000000e0: e072 993d 5cea 073e 202d 8e3d f5b3 6a3d
000000f0: 67e0 fc3d a507 a63d 46cd 16bd 673e 1d3e
0.0037617406 -0.037606735 0.052737653 0.003250833 -0.0076516382 -0.075387724 -0.082829714 -0.05781325
0.05567851 0.09101068 -0.09437716 0.0977125 0.022884691 -0.053259242 0.04081887 0.07738174
0.052685242 0.021747613 0.1433135 -0.07133711 -0.08489469 0.056259938 0.103014946 0.05862967
0.01110405 0.13296066 0.09546682 0.044538636 0.112555444 -0.05970141 0.013595964 -0.055750787
0.012310442 0.06978723 -0.08712578 -0.072269194 -0.09325849 0.07060972 0.11919987 0.015310319
-0.019881908 -0.12545773 0.082495466 0.08086353 0.055217575 0.11982859 0.030563066 0.044045325
-0.032861892 -0.019826418 0.0727169 -0.08828352 -0.04977852 0.04521756 0.08425478 -0.055036783
0.07492614 0.13272995 0.06942201 0.057300527 0.12347489 0.08106927 -0.036816858 0.15355836

weight f4 [64, 64]
00000000: cf32 a7bd 4fca 0d3d 0cac 3e3d 1722 ae3d
00000010: faf0 9fba 4934 843d aa68 6f3d f248 813c
00000020: 95a6 a53d 3816 953d e77d 2f3e 2ebf ce3d
00000030: 53a4 74bb 836e ad3d 9456 84bd f78f 333e
00000040: b7d3 2e3e 736d 7d3d ecb7 573d af9d ce3c
00000050: 116f 00bd a9ad ebbb a32f ef3d e5c1 b23c
00000060: c669 3cbd a2ae e43d 1bf1 dd3d 2ac3 2fbc
00000070: 1a19 bbbc beaf b63c a5a6 d03d d892 ad3d
00000080: 00c3 fc3d 4ec7 30bd c06c 93be a9f4 15bd
00000090: 40f7 6abc 620d 773d 67c3 833d 0caa 443c
000000a0: 63d7 1f3b 64d5 76bd ae7d 8e3d f257 b03c
000000b0: ab1c bc3a d0f9 bb3d 34de b8bb f28a 5d3d
000000c0: 60fc e2bd 19ab 533d ca6e 87bd 5983 d33d
000000d0: ee6d cb3d 1d9f 0e3e e100 7b3d 86f9 663d
000000e0: 2433 a4bd add2 b4bd 6360 553d 1f10 453c
000000f0: e282 9b3c e177 34be ad8a 503d 9ad9 313e
00000100: 4d84 dd3d 5d96 2ebd e337 2cbd 8880 e8bd
00000110: 2353 43be e7ef b43c 7701 043d d498 f03d
00000120: 7d31 b0bc 32a4 3ebe a6d1 aabc 0f21 03be
00000130: 536b 073c e01e 853c 3057 d6bc 2824 623d
00000140: 9753 a33d 94f2 01bd b06d df3d be3a 96bd
00000150: 49a1 95bc d48d 32bd bca3 953d 456d 46bb
00000160: c154 523d 8de0 0ebd 4e92 49bd 2df2 77bc
00000170: b15f 193d bd99 c23c 8660 9c3d e804 96bd
00000180: f99e b63b f678 0fbe a551 75bd 3fac cb3d
00000190: e084 5cbd a959 923c 1d77 2d3e 6a67 dbbd
000001a0: c739 b43d 7b68 da38 bc1a a1bd dd94 d93d
000001b0: 9062 d03d 9a0c 823d 9e6b 22bc f323 61bd
000001c0: d377 b43d 52df 893d 0c23 83bd dd87 76bd
000001d0: 4c1d a5bd 559d 133c 41aa ed3d 5c3c 0e3b
000001e0: ddbf 873d 105d 233e 5fe2 6d3d 8bae f5bb
000001f0: 00af 92bc 685c a53d 2e02 583d f484 b5bd
00000200: b70f fabb 3952 0b3e 51a5 313d 1aae 863d
00000210: 6db2 d1bc f9d8 b23d 2213 ea3d eb0d 1ebc
00000220: 748b e2bd f5ca 613d f57a 86bd 30e0 9abd
00000230: 14a6 383d c5e5 23be da48 c03d 33e8 14bc
00000240: 0af8 2d3d 4c87 e73d 539e 103d c84a 5bbd
00000250: ffc4 063e 9b99 1cbb bb77 cf3d 4988 80bd
00000260: bac4 1dbd bf8f b4bd 2787 fa3d d038 f53d
00000270: 9ace b0bd 29c0 433d 54a2 f93d 50ad 623c
00000280: f70f 0f3e bded 3dbe 8a34 25be c09d e8bc
00000290: a06c b23c d1cf ed3d d1a6 06be 7c25 9dbd
000002a0: 13a2 bd3d 609a 56bd 07d6 1fbd 076c c0bd
000002b0: 0f3f 043e d7d0 3abd a847 d83c 5acf 353d
000002c0: 9a5b 013e a0d9 933c 7764 183e 3a94 083e
000002d0: 6078 30bc 442b 1c3e df36 cb3d 6a58 0bbe
000002e0: b8a3 adbc 8401 523d 3568 79bd 3e85 9a3d
000002f0: 78df 2f3d f1b9 23be da9c e3bd 311c cd3c
00000300: 300b db3d 3261 c0bb e0d7 c73d 0648 1e3d
00000310: cee4 7ebb 4241 8a3c 8603 db3d 069b 95bd
00000320: 78d1 abbd d346 07be ca49 48bc 1d01 e4bd
00000330: e8cc 463d 7ea0 143e 34c9 f7bd 88b2 22bd
00000340: 301b ee3d 42dd e2bb 4a00 05bd 8cab e1bd
00000350: 3cad cfbd 5481 a13d b74d 1a3e 1369 8a3c
00000360: d43e a2bd 2646 533d c5aa da3c 30d0 dfbd
00000370: 532b 603b 19fe 29bd 45b0 babd 8043 52bb
00000380: bc8d 5a3d 59e3 38bc 45fe 89bb 367b aebc
00000390: 9585 cebd f5ba 7e3d 9fb8 983d 6ecb d53d
000003a0: 9de0 69bd 5bb7 cebc a393 d3bd 555d 373e
000003b0: 0470 833d 6bc8 d53d 1dca 693d d17b dc3d
000003c0: 8f3c 36bd 6f84 993d 3501 70bd 649d 0b3d
000003d0: e0e9 453c ab4d 73bd bf57 a93d 01c6 df3d
000003e0: 5d69 2f3e cf11 eb3d d76b efbd 4123 ef3b
000003f0: 369d 0bbd 36f2 713d db87 e63d 706e 8fbd
-0.08163988 0.034616765 0.046550795 0.08502596 -0.0012202554 0.06455285 0.058449425 0.015781853
0.080884136 0.072796285 0.17137872 0.100950584 -0.003732939 0.08468344 -0.06461826 0.17535387
0.1707295 0.061871957 0.052665636 0.025221674 -0.03135592 -0.0071923328 0.11679008 0.021820972
-0.04599931 0.11166121 0.10837003 -0.010727683 -0.022839118 0.022300597 0.10188035 0.08475274
0.12341881 -0.04315882 -0.28793907 -0.03661028 -0.014341176 0.060315497 0.064337544 0.012003433
0.0024389855 -0.0602621 0.06957565 0.02152631 0.0014351805 0.09178507 -0.005641723 0.054087587
-0.11083293 0.051676843 -0.06612928 0.10327787 0.09933077 0.13927884 0.061280135 0.056390308
-0.08017567 -0.08829246 0.052093875 0.012027769 0.018983308 -0.17623855 0.0509135 0.17368165
0.1081625 -0.042623866 -0.042045485 -0.113526404 -0.19074683 0.02208705 0.03222796 0.117479
-0.021507973 -0.18617323 -0.020851921 -0.1280558 0.008265334 0.016250074 -0.026164621 0.055210263
0.07974928 -0.03172548 0.10909593 -0.07335423 -0.018265383 -0.04359229 0.073066205 -0.0030277532
0.05135036 -0.034882117 -0.049211793 -0.015133423 0.037444774 0.023754949 0.07635598 -0.073251545
0.0055731502 -0.14010987 -0.059892315 0.09944963 -0.053837657 0.017865019 0.1693997 -0.10713084
0.08800083 0.00010414511 -0.07866427 0.106240965 0.10175049 0.0635006 -0.009913353 -0.054965924
0.08811917 0.06732048 -0.06403169 -0.060188163 -0.080622286 0.009009679 0.11604739 0.0021703457
0.06628392 0.1595347 0.058077212 -0.007497614 -0.017905712 0.08074266 0.052736454 -0.088632494
-0.007631268 0.13605584 0.04337055 0.06576176 -0.025597775 0.087327905 0.114294305 -0.009646873
-0.11061755 0.055125196 -0.06566421 -0.075622916 0.04508026 -0.16005619 0.09388895 -0.009088564
0.042472877 0.11305103 0.03530724 -0.053538114 0.13161086 -0.0023895267 0.10130259 -0.06275994
-0.03851769 -0.0881648 0.122328095 0.11973727 -0.08633156 0.04779068 0.12189165 0.013835266
0.13970934 -0.18547721 -0.16133323 -0.028395534 0.021780312 0.116119035 -0.13149573 -0.07673165
0.09259429 -0.052393317 -0.03902247 -0.093956046 0.1291468 -0.04560932 0.026401356 0.0443872
0.126326 0.018048108 0.14882074 0.13337794 -0.010770887 0.1525088 0.09922575 -0.13607946
-0.021196231 0.051270977 -0.060890395 0.07544945 0.042937726 -0.159889 -0.111139014 0.025037857
0.10695493 -0.0058709616 0.09757972 0.038642906 -0.0038893702 0.01687682 0.106940314 -0.07304959
-0.08389562 -0.13210611 -0.012224624 -0.11133025 0.048535258 0.14514348 -0.12098923 -0.039721042
0.11626279 -0.0069233486 -0.03247098 -0.11019048 -0.10140464 0.078859955 0.15068708 0.016895806
-0.0792214 0.05158057 0.026692757 -0.109283805 0.003420551 -0.041502092 -0.09115652 -0.003208369
0.053357825 -0.011284673 -0.0042112195 -0.021298986 -0.100840725 0.062190015 0.07457089 0.10439192
-0.057098974 -0.025233915 -0.10330894 0.17906697 0.0641785 0.10438617 0.057077516 0.107658036
-0.044491347 0.07495963 -0.0585949 0.034085646 0.012079686 -0.05940024 0.08268689 0.10926438
0.17130037 0.11478006 -0.11690491 0.0072979038 -0.034085475 0.05906888 0.11256381 -0.07003486

bias f4 [64]
00000000: df89 e93b 5382 2cbd dd80 3dbd ad40 273d
00000010: 7808 3bbd 5e5d ae3d fe5d fbbd eb4f 28bd
00000020: 2518 e4bd b80c 1c3b 967e 94bd c0ec 953d
00000030: 4c1b d93d 949d 23bc 68ff 5dbc 090b 9d3d
00000040: 5380 b2bc 30d5 a8bd 2bd0 333d 6611 5d3d
00000050: c772 eabd 596c 053e 5371 65bd cc05 34bd
00000060: 595b 96bd 0a55 c03d 558d d43d 54a3 cdbd
00000070: e051 f8bc 7009 66bd 33c0 fb3d f428 69bd
00000080: fc41 8b3d 571b 0b3c 324a a93d 1817 b13c
00000090: 3bd5 0bbd 1e7f 46bd 6e72 fdbd 4b6b 2abd
000000a0: 8a9e 03be 67f2 fe3d e85a 683d bfce d73d
000000b0: 8c8e 52bd 708a e43d 6b4a 8fbc 4c65 3fbd
000000c0: f24f bc3d 5a40 dd3d 31d6 87bd aee3 d33d
000000d0: 16df ccbd db9d 0fbd 1d09 debd 0b13 8b3d
000000e0: cb1a 88bd b071 b2bd 94be 74bd 40fe a13c
000000f0: ab5c d23d f23d babd 0c25 673d baee 10bd
0.007127031 -0.042116474 -0.04626547 0.040833164 -0.045662373 0.08513902 -0.12273787 -0.04109184
-0.11137418 0.0023811292 -0.07250707 0.07320547 0.106009096 -0.0099863 -0.013549663 0.076681204
-0.021789705 -0.08243787 0.043899696 0.05397167 -0.11447673 0.13029613 -0.056016278 -0.04395084
-0.07341642 0.0939122 0.103785194 -0.10040918 -0.030312479 -0.056161344 0.122925185 -0.05692382
0.06799695 0.008490405 0.08266105 0.021617457 -0.0341389 -0.048461072 -0.12375341 -0.04160623
-0.12853447 0.12448578 0.05672732 0.105374806 -0.051405475 0.11159217 -0.01749154 -0.046727464
0.09194936 0.1080329 -0.06632651 0.10346161 -0.10003488 -0.035062652 -0.10841582 0.067907415
-0.06645735 -0.087130904 -0.059752062 0.019774556 0.10271581 -0.090938464 0.056431815 -0.035383917

weight f4 [64, 64]
00000000: d396 983d b09a 833d 6c8b cf3d 8ce5 cb3d
00000010: 00be f43a 7bde f1bd b8b8 89bc 844b b43c
00000020: 8e0e 03bd e703 513d d7f1 edbd 9694 0fbd
00000030: 7e39 edbc 93bc 2d3d 33f6 64bc e43e b83d
00000040: 5adc 9d3d f44e 5fbd 1e9c 9f3d e7a1 94bd
00000050: 43e6 043c 47dc 893d 91fd afbc 783f d6bd
00000060: 4e34 e7bd ca1f bbbd 04a7 cdbb 89e9 54bd
00000070: ae69 e7bc 8364 283e 897a 163e 34ab e1bd
00000080: eff8 c7bd ea0e a73d 8479 a7bc 78f4 bbbc
00000090: b0f0 f93d 13c4 f73a e30b 59bd 4fed c93c
000000a0: d7e9 e4bc 4ee1 1e3d e55d edbd 712e b33d
000000b0: 4546 3b3a f2bb 153d 2da5 f23d 2a37 e03d
000000c0: a601 66bc b316 e2bd 9e11 2dbd 0226 be3d
000000d0: aa8c f5bd 49ff febd d8a6 bb3c 88c0 0d3e
000000e0: 81f7 403d 5c01 113d 3134 ef3c 6435 4a3d
000000f0: 6866 a53d 0b5f e5bc 0887 1d3c 14c2 c8bb
00000100: 27dc a73d 5ad7 aabd e0b2 ee3c 8370 a03d
00000110: c6d0 f53c 3b96 8e3d 7240 f93d 329b 603d
00000120: 1a31 ee3c 447c c9bd 19d8 c23c b603 f0bd
00000130: 87fc 1fbc 9c57 ffbc 3b32 c7bd f1ee afbc
00000140: 3120 b83d 9697 c7bd 005d 50bd 744f b0bd
00000150: d6a0 bd3c ac1c e5bc 447c 893d 0fde d43d
00000160: 3826 703d b7a9 f43d 6566 62bd 2adb b8bd
00000170: b6bd 6cbd 9995 ccbd 4613 193e 0894 c0bc
00000180: 4cc4 95bd 06dd 9bbd 0267 85bd 4835 3b3d
00000190: 6c2a d0bd ddb7 b83d c64a 4ebd 3975 923c
000001a0: 3037 2e3d fe85 02bd b507 ddbd 62d3 a83c
000001b0: 46e2 c33c 9dd1 0b3e 70b1 afbd 049a fa3d
000001c0: c602 873d 2900 893c 0ca1 923d c459 19bd
000001d0: 8463 5cbd de8d 5f3d 0b5f b5bc fdd5 0f3e
000001e0: 72bf aebd 3a09 89bd b50a 19be 40e7 8bbc
000001f0: 0730 d43d 898a df3d 06a8 0b3e 15e2 afbd
00000200: bac0 4b3d 398c 1d3d 10ec b3bd 0a33 9b3d
00000210: d89c cdbc dd02 fa3c 22fa ab3d 25c5 ce3d
00000220: 99fb d03b 956a 0bbe a682 d7bd 9d57 ce3d
00000230: dd61 6a3d c3e7 ecbc b701 3b3d c9ae 82bd
00000240: 7c6e fb3c 2306 25bd a4f0 d03d 9ad7 9dbd
00000250: be07 273e 756d 40bc 4057 20bd b9b0 1fbd
00000260: 70d8 d9bd 58ea a53d 7629 23bc 7bdd 09bc
00000270: 821f c73d 11a1 84bd 03b2 c5bc e843 6a3d
00000280: c274 dcbd 9c1b d13d 4222 1bbd 4cf9 dd3d
00000290: 40e3 183b e3ea ac3a 63ed cd3d b114 37bd
000002a0: 1154 bc3d 79ab eebd bbb9 05bc 3f7b 373e
000002b0: 567f b1bd fa35 9c3d 7b8d bb3d a073 02bc
000002c0: 3327 113d 9577 90bd 662d 7cbd 520f e93d
000002d0: f847 e03c f241 273d aa05 24bd 7f97 303e
000002e0: a794 0ebe 7a32 f03d a104 613d e0da d7bd
000002f0: 160d d33d 84a6 e6bd 28c2 83bc 14c6 eabd
00000300: d54f 1e3e 6ad5 d6bd 4aa8 ef3d ebc9 0c3d
00000310: b1e5 cc3d 0cd4 183d 2212 f9bd 5c68 12be
00000320: f60e d43d 94a6 3c3d ac55 34bd a72f 76bc
00000330: 4542 abbd 8abe de3d 9d99 b93d 8dd8 fbbc
00000340: 4082 893d 8bbd 653d 843f 1d3d b13f 10ba
00000350: 01e1 733d fe71 6f3d f668 6d3d a1fd e2bc
00000360: 6e07 8abc e116 2a3e fdc0 bf3d 90dc 3dbd
00000370: 8aa1 74bd a50e 243e 3e1a a3bd ee85 d73d
00000380: 9fba 173d 8180 6c3d fd89 89bd bc19 2bbd
00000390: 625b 6bbc 3e76 d03b 22ee 253e 73ec 0dba
000003a0: d2a0 b93d a210 cf3c 17ec a43d 2755 0abc
000003b0: ce69 50bd dc46 1f3e 59b8 9a3c 4ac0 b93d
000003c0: 7607 783d 2e64 2dbd a77c ed3d 8133 5cbd
000003d0: b0f8 c5bd 3e46 82bd 8c14 e83d 350e d8bd
000003e0: c51f 6c3c d4b1 f33d 6c45 08bd 9afa bd3d
000003f0: 176a af3c fb13 973b 514b 00be 992c b03d
0.074506424 0.06425989 0.101340145 0.09955892 0.0018672347 -0.11810013 -0.016811714 0.022008665
-0.031996302 0.051029112 -0.11618393 -0.035053812 -0.028958078 0.042416167 -0.013974714 0.089963704
0.07708044 -0.054518655 0.07793449 -0.07257443 0.008111539 0.06731468 -0.021483215 -0.104613245
-0.11289273 -0.09136923 -0.0062760133 -0.05198053 -0.028248634 0.16444592 0.14695181 -0.110189825
-0.09764277 0.081571415 -0.020443685 -0.02294372 0.122041106 0.0018903039 -0.05298985 0.02464929
-0.027943535 0.038789086 -0.115901746 0.08749092 0.0007143955 0.03655619 0.11847911 0.10948022
-0.014038479 -0.11039486 -0.04225313 0.09284593 -0.1198972 -0.124510355 0.022906706 0.13842976
0.047111038 0.035401687 0.029199691 0.049367324 0.08076173 -0.027999422 0.0096147135 -0.0061266515
0.081962876 -0.08341856 0.029138029 0.0783396 0.030006777 0.06962248 0.12170495 0.054835506
0.029076148 -0.09838155 0.023784684 -0.11719458 -0.009764797 -0.031169705 -0.097263776 -0.02147624
0.08990515 -0.097457096 -0.05086994 -0.086089045 0.023147982 -0.027967773 0.06713155 0.10393917
0.0586302 0.11946433 -0.055273432 -0.09026177 -0.05779811 -0.09989471 0.14948758 -0.023508087
-0.07312831 -0.07610516 -0.06513788 0.04570511 -0.10164341 0.09019444 -0.05036428 0.017878162
0.0425331 -0.031866066 -0.107924856 0.020608608 0.023911607 0.1365418 -0.085787654 0.122364074
0.06592326 0.01672371 0.071596235 -0.037439123 -0.053805843 0.054578654 -0.022140047 0.14046474
-0.08532609 -0.06691213 -0.1494549 -0.017078042 0.10360723 0.10915095 0.13638315 -0.085880436
0.049744345 0.038463805 -0.0878526 0.07578094 -0.025099203 0.030518943 0.083973184 0.10096196
0.006377649 -0.13614877 -0.10522966 0.10075305 0.057222236 -0.028919106 0.045655932 -0.06380994
0.030692331 -0.040289056 0.102021486 -0.07707138 0.16311547 -0.011744847 -0.039145708 -0.038986895
-0.10636985 0.08101338 -0.0099586155 -0.008414621 0.097228065 -0.064760335 -0.024132734 0.057193667
-0.10764457 0.10210344 -0.037874468 0.10838565 0.002332881 0.001319256 0.100550435 -0.044697467
0.09195722 -0.116537996 -0.008161957 0.17918108 -0.086668655 0.07627483 0.09157845 -0.007962137
0.035437774 -0.070540585 -0.061566733 0.11379875 0.027378067 0.040834375 -0.040044464 0.17245291
-0.13923894 0.11728378 0.054936055 -0.10539794 0.1030523 -0.11262229 -0.016083792 -0.11463562
0.15460141 -0.10489924 0.117020205 0.03437225 0.10004748 0.0373116 -0.12161662 -0.14297622
0.10354416 0.0460573 -0.044027016 -0.01502601 -0.08362249 0.10876186 0.090625025 -0.030742908
0.06714296 0.056088965 0.03839065 -0.0005502655 0.059540752 0.05845832 0.057961427 -0.02770883
-0.016849246 0.1661029 0.093629815 -0.046352923 -0.05972437 0.16021211 -0.0796399 0.10523592
0.03704321 0.05773974 -0.06715772 -0.04177259 -0.014365049 0.006361752 0.16204122 -0.0005413957
0.09063877 0.025276486 0.08052843 -0.008443153 -0.050882153 0.15554374 0.018886732 0.09069879
0.06055399 -0.042331867 0.11596041 -0.053760055 -0.09666574 -0.06361054 0.11332044 -0.10549585
0.014411871 0.118991524 -0.03326933 0.09276314 0.021412892 0.004610536 -0.12528731 0.08602256

bias f4 [64]
00000000: b5f5 f3bd e0d5 bf3c 5b5e 54bc aa63 b23d
00000010: 98a7 ae3d 2640 d73d d2ca cabc 480d e9bc
00000020: 5d99 0bba bf57 d23d 7ef3 b7bd 8c93 e43d
00000030: 46dc d93d 516f ee3d 0c08 7dbd 9193 003b
00000040: 7eaa c33a 6ec7 98bd 76d5 abbd 7b5d 6d3a
00000050: f2f8 0cbd c664 a0bd bbbb 013d 2fbb 113c
00000060: 47fa 67bc 4070 4fbb 69cc ed3d e21a 793d
00000070: dfba 4e3d 4b22 973d 574f e13d cc5a b0bd
00000080: 7888 7fbd 2088 0a3e 9169 383c 8d86 dc3d
00000090: f6c7 22bd 407a 313c a7f6 b43d e891 b6bc
000000a0: d4a1 1ebd 8af6 babd b91a 96bd ce49 8bbd
000000b0: 02c2 1cbd e4e8 b03d 3ad9 89bd 4718 bd3d
000000c0: e8de 4ebd 7123 1fbd 2173 593d 85f0 36bd
000000d0: e071 db3d 483a d53d 1a32 acbc 8120 aebc
000000e0: 6bd3 893d 3300 3ebc c439 e9bd a40d 7dbd
000000f0: 5cda 863c 3c8b 71bd 669c c53d 4f7e 803c
-0.11912099 0.023417413 -0.012961949 0.08710416 0.0852806 0.10510282 -0.024754915 -0.028448716
-0.0005325282 0.102706425 -0.08981989 0.11160955 0.10637717 0.11642326 -0.061775252 0.0019619206
0.001492813 -0.07459913 -0.08390324 0.0009054762 -0.0344171 -0.07831721 0.031673174 0.008894726
-0.014158792 -0.00316526 0.11611254 0.060816653 0.050471183 0.07379588 0.11001461 -0.08611068
-0.062386006 0.1352849 0.011255638 0.10767851 -0.03974148 0.010832369 0.08836108 -0.02228637
-0.03872855 -0.09129055 -0.07329316 -0.068011865 -0.038270958 0.0863817 -0.06730886 0.09233146
-0.05050555 -0.03885216 0.05308831 -0.04466297 0.10715079 0.10411507 -0.021019984 -0.021255733
0.06729778 -0.011596727 -0.11387971 -0.061780587 0.016461544 -0.058970675 0.09648971 0.015685229

weight f4 [64, 64]
00000000: 0073 3cbe 63ca 82ba 29b7 22be 4ec7 abbd
00000010: 26d7 abbd 0c13 ea3d 96f4 cebd b884 40bd
00000020: 3ed7 ec3d 60e6 273e 39b8 1c3e f78e 08bd
00000030: df63 12be 4ae3 ba3d e097 133e fd4a b5bb
00000040: 6ac8 283e 0ee1 79bc dfa9 72bd ff8c c43d
00000050: 3a46 a53c b9d7 843d f183 103e 391c 93bd
00000060: 1d0f 97bd bcb5 f1bd c342 aa3d 997a 523d
00000070: 3b50 673d 3f22 213c 4fb3 0ebd 0a92 c63d
00000080: 3402 07bd 0c5a 71bd b5df 1dbd e364 b33d
00000090: 3e3c 373e 5e2f abbd af2e 55be 104f 6e3c
000000a0: 0209 f53d e077 d7bd 7dbe 53bd 7a1f f43d
000000b0: c017 5fbe 8ce8 23bd 40ef 7a3d 21f1 dd3d
000000c0: a08f 713c 4da6 1b3c d08f 39be e96e d53d
000000d0: 1bce e43c fdf8 1a3e 069d 3ebe cc32 f1bd
000000e0: 3d18 0a3d 43fa bcbd 9225 fe3d 1acc 213d
000000f0: c593 8abd 8e95 cc3d 1f54 8d3c db20 243c
00000100: 49ba 8abb 63e8 80bd 0c7e 18be 9c19 4dbd
00000110: 8f6e ce3d cf44 863d 97cc 083d 5431 16bd
00000120: 5a89 233d d680 0c3e f61e 29bd fe27 bdbd
00000130: d398 16bc 78cb 013d 47a0 203e 80ff 04bd
00000140: 1962 49bd 0478 7d3d 895d 123e 4a56 1b3e
00000150: e461 9e3d c2e6 de3d a931 433e ebba 073e
00000160: f279 0f3e ce89 ce3d 9d74 e33d 1a34 693d
00000170: f0f0 08bc ae18 30bd 20f2 8cbd cdeb 853a
00000180: c0f2 b2bb 88fd 4b3d b09a 0d3d 27d8 463d
00000190: 99a1 eb3b ac56 d03d 8d1a 1cbe fa32 8abd
000001a0: 7453 98bd c078 d43c 26d6 183b 8cfd e6bd
000001b0: b1af a0bc 14de cc3c 3dc4 93bc 6889 6bbd
000001c0: f662 ee3d fcd0 b5bd cb62 e7bd 32e8 ea3d
000001d0: d52c 02be 0014 fb3c 0270 d13c f4e5 29bd
000001e0: 3ad1 b73d b5a4 a13c bca5 913d c6ed 9fbd
000001f0: afa6 833d 14b5 a8bd 2cb1 fa3d 4323 06bd
00000200: cd6b c43d 899a 033e ced0 403d 4855 fe3d
00000210: a13c 003e f24e b5bd ac0f 72bd c01a e7bc
00000220: 36f2 d53c 191f fbbd d4a8 d9bc 3b5e 493d
00000230: c3ae fd3d 6285 fd3c 4be6 13be 619d ac3d
00000240: 7bc6 39be 9b2b e3bd 33d2 b7bb 517c 07be
00000250: 13d8 c4bd f378 c93d 03d5 81bc 2255 f9bd
00000260: 5fb2 f7bc 6c6b e5bd a83d 18bd aad7 993d
00000270: 81e9 933c 43d2 84bd 9554 c63d 65ac 93bd
00000280: 98cd 6c3d 6b59 d23c e3f9 efbd 4886 8c3c
00000290: f6b4 c33c 6ab3 e83d 88a0 f13d 602c d7bd
000002a0: dbec f1bd 1606 fb3d b09a 8abc 1062 3d3c
000002b0: b0cf 20bc da1f 16bc 9792 fcbb ac07 e83d
000002c0: 9eb9 93bd e9ed 24bc 8e9a 6d3d ecbd 1dbd
000002d0: c331 68bb 2d31 02be 39a0 f9bc 7d5e 31bc
000002e0: f40c 4c3d beb7 83bb fdc6 88bd 40ec c9bc
000002f0: 505a 4bbe c2ab ec3c 91bf 04be 8cf5 80bd
00000300: f620 d0bd 954b 27be e55c 06bc 8339 b83d
00000310: 10d1 c23c edbb 673d ecfe cf3d 608c a33d
00000320: f4b0 ec3d 9b94 2c3d dfe8 ee3c 32f2 a5bc
00000330: e570 53be ec24 eebd 5a3b 0b3e cf8c e73d
00000340: c626 183e 4103 6e3d 2b0a 833d f1b2 a43d
00000350: f6ba 8fbd 61a9 e1bd 4fe1 2f3e cf1f fb3b
00000360: b3fd 0e3e f0ef fcbc 8d2f aa3c 4d40 babd
00000370: a37c 843c cef1 adbc 215f fc3d c63d dc3c
00000380: 1afe 8e3d e3f8 633d b3d5 e63d 7842 79bd
00000390: 6c96 283e 14ca de3d f8ec 48be c098 c83d
000003a0: ce60 cdbd 68fc 743d 8e30 92bd 9060 f33c
000003b0: 6ee2 02be 5857 4ebc 4f12 3e3d 2d5c 663d
000003c0: 4804 f43d 99b5 d0bd 0582 33be 6791 9d3c
000003d0: 430b b3bd 6e18 b73d 0efa c0bd 16d3 923d
000003e0: 5563 f2bd 1290 38be 8cc9 11bd 9b5f a13d
000003f0: 1605 f53d e6b5 a0bd 02df b73d 1bba 393c
-0.18403244 -0.0009978529 -0.15890183 -0.08387624 -0.08390646 0.11429414 -0.10105245 -0.04700157
0.11564492 0.16396475 0.1530465 -0.033339467 -0.1429591 0.09125383 0.14413404 -0.005532621
0.16482702 -0.015251411 -0.059244033 0.09597205 0.020175088 0.06486458 0.14112832 -0.071831174
-0.073759295 -0.11802241 0.08313515 0.05138645 0.056472998 0.009834825 -0.03483897 0.096958235
-0.032961085 -0.058923766 -0.03854342 0.08759477 0.17894074 -0.08358644 -0.2081859 0.014545217
0.11964609 -0.10520911 -0.051695336 0.11920066 -0.21786404 -0.040016696 0.061263323 0.10837007
0.0147437155 0.009500098 -0.18121266 0.10421545 0.02793031 0.15134044 -0.18614587 -0.11777267
0.03371452 -0.09227421 0.1240951 0.039501287 -0.06766466 0.09989463 0.017252026 0.010017599
-0.0042336327 -0.06294324 -0.14891833 -0.05007325 0.10079681 0.06556093 0.033398237 -0.036668137
0.03992591 0.13721022 -0.041289292 -0.092361435 -0.00919171 0.031688184 0.15686141 -0.032470226
-0.04916582 0.061882034 0.14293493 0.15169635 0.07733515 0.10883857 0.19061913 0.13254897
0.14011362 0.10084878 0.111062266 0.056934454 -0.008358225 -0.042992286 -0.06882119 0.0010217369
-0.005461067 0.049802333 0.03457135 0.048545983 0.007190895 0.10172781 -0.15244503 -0.06748004
-0.074377924 0.025936484 0.0023321002 -0.11278829 -0.019615026 0.025008239 -0.01803791 -0.057504088
0.11639969 -0.08877751 -0.1129814 0.11470069 -0.12712415 0.030649185 0.025566105 -0.041479066
0.08975454 0.019731859 0.071116894 -0.078090236 0.06428277 -0.08237663 0.12240824 -0.032748472
0.09590874 0.12851919 0.04707413 0.1241861 0.12523128 -0.08852948 -0.059096977 -0.028210998
0.026116472 -0.12261791 -0.026569761 0.04916213 0.12386849 0.030947391 -0.14443319 0.08428455
-0.1814212 -0.110923015 -0.0056097745 -0.13231017 -0.096115254 0.09837522 -0.015848642 -0.12174441
-0.030236421 -0.1120213 -0.037168175 0.07511838 0.01805568 -0.06485417 0.096841015 -0.07210616
0.057813257 0.025677403 -0.11717584 0.017153874 0.02389 0.113623455 0.11798197 -0.10506511
-0.11812755 0.1225702 -0.016919464 0.011559024 -0.009815142 -0.009162867 -0.0077079046 0.11329588
-0.07213138 -0.010066488 0.058008723 -0.0385112 -0.003543005 -0.12714072 -0.030471908 -0.01082575
0.04981704 -0.0040197065 -0.06678579 -0.024648786 -0.1985867 0.028890494 -0.12963702 -0.06296834
-0.10162537 -0.16337426 -0.008200859 0.089953445 0.02378133 0.056575704 0.10156044 0.07985759
0.11557189 0.04213391 0.029163776 -0.02025709 -0.20648535 -0.11628136 0.1359686 0.11306154
0.14858541 0.058108572 0.06398424 0.08041943 -0.07018082 -0.110186346 0.17175792 0.007663704
0.13963966 -0.03087613 0.020774627 -0.09094296 0.016172713 -0.021233466 0.12322832 0.026884925
0.0698206 0.05565728 0.11271229 -0.060854405 0.16463631 0.10878387 -0.19621646 0.0979476
-0.1002823 0.059811026 -0.07138167 0.02970913 -0.12781689 -0.012594067 0.04640418 0.05624025
0.11914879 -0.10190887 -0.17530067 0.019234372 -0.087423824 0.089402065 -0.09422694 0.07169168
-0.11835352 -0.18023708 -0.0355926 0.078795634 0.11963861 -0.078471944 0.08978082 0.011335875

bias f4 [64]
00000000: ff87 893d 7f26 90bd c35b a63c 4d34 9b3d
00000010: 6cfa bfbd 8c13 183d 686f 8ebd c638 e4bd
00000020: 8e47 eebd 72e2 e93d 0e66 9d3d 04cb 1b3d
00000030: e6fc 32ba 7a81 5dbd 6f8d ea3c 5a0a dcbd
00000040: 9795 d9bd 8349 6b3d daec 41bd 1c93 e1bd
00000050: 1766 483d 20bf 0b3d 5436 04bc b187 acbd
00000060: 4983 403d 40f6 f83d f98b 8fbd ff0d f73d
00000070: 7f33 4bbd c505 543d d373 00be 66d6 7fbd
00000080: a33d 40bc 7aeb 23bd 9677 a03d 6320 8ebd
00000090: d0c6 92bd 1b07 8bbd e8d9 c53a 22b0 c93d
000000a0: 1586 903c d166 c33d d505 acbd e4be 0b3e
000000b0: c912 d83d 73fc eabc a9c5 9fbc 004c 2dbd
000000c0: 7f41 1ebd 6980 6f3c 9226 68bc 7f5b a4bc
000000d0: ff2d 97bd 81b0 c43d e5ee 193d 60f1 893c
000000e0: 971d e6bd b388 d7bd d5d6 1e3d 224a 6ebd
000000f0: 753e 81bd 9e09 fd3d 342b e63d e596 edbc
0.06715392 -0.070385925 0.020307427 0.07578335 -0.09373936 0.037128016 -0.06954843 -0.11143641
-0.11634742 0.11420144 0.07685481 0.038035408 -0.0006827846 -0.054078557 0.028631894 -0.10744162
-0.10624235 0.057443153 -0.04734502 -0.11014387 0.048925485 0.034117818 -0.008069593 -0.084243186
0.047000203 0.121563435 -0.070091195 0.120632164 -0.049609657 0.051763315 -0.12544183 -0.062460326
-0.011733445 -0.04001949 0.07835309 -0.06939771 -0.07166827 -0.06788465 0.0015094848 0.09848048
0.01764206 0.09541095 -0.0839955 0.13647038 0.10550458 -0.02868483 -0.019503431 -0.042308807
-0.03863668 0.014618018 -0.014169352 -0.02006316 -0.0738182 0.09603978 0.037581343 0.01683873
-0.112361126 -0.1052412 0.0387791 -0.058176167 -0.06310741 0.1235535 0.11238709 -0.029002616

weight f4 [64, 64]
00000000: 2061 8f3b 08e7 0ebd acfa 0cbd 285a bd3c
00000010: 186f fb3d 4833 2ebd 5291 dcbd 0a1a 56bd
00000020: b65a 8cbd 050d 8b3d 8847 b9bd 13c1 8abc
00000030: 3831 cf3d 6a89 fd3d 2826 223d 7c1c 703d
00000040: 08da d4bc 3aad a93d 103a 533c 3066 08bd
00000050: 8a87 e8bd 18c1 02bd e385 87bd 54fd 85bd
00000060: d456 99bd 0a5d dfbd 75cc aabc 88ce c33d
00000070: ffd0 c53d 47fc 7fbd 1ba3 cebd f0da e03c
00000080: 5e40 b93d 964a d03d f2cd debd d822 b53d
00000090: e020 ddbd 8415 ba3d 765c 3e3d 8c77 eebd
000000a0: 56e3 f43d b09c 08bc 0529 83bd cbe6 3d3d
000000b0: b09f 5f3d 52fe 933d 0416 c8bd 1e03 f4bd
000000c0: 467c afbd d409 f63d 1476 733d 4c76 debd
000000d0: 5852 83bc 1a28 fd3d a842 2bbd eca1 39bd
000000e0: 2035 1bbc c5d8 7d3d 158c 40bd 420d f73d
000000f0: f687 d4bd 2996 7c3d a1e3 e63d 9284 6a3d
00000100: 519c 733d 6035 ccbc bb57 7b3c a49d 13bd
00000110: 58d7 8dbd c5d7 c0bd fc5c 373d 5bda fa3d
00000120: d882 f1bd 2fe2 813d a1f1 09bc f862 f83d
00000130: 86a8 da3d a075 c1bd 8fc7 d3bc d06c 26bc
00000140: 892e 413d e2d3 1cbd 9d58 9dbc b471 463d
00000150: 8ffa 96bd ebcd 8ebd bcc6 06be e000 703d
00000160: 958a 873d 5e20 c0bd a4a7 d3b9 8429 34bb
00000170: 853a f13d bf12 b13d b0bc 3a3d 72dc 31bd
00000180: 5c4f 1f3d 7caf f53d e18f ae3d 4cdc 57bd
00000190: c669 483d 4ad4 f93d 0b22 aabd 251f 04be
000001a0: b8d7 5e3d df4f 79bd 5005 a7bd 75ee ed3c
000001b0: 1d59 b33d 6ba8 efbd 923e 01bb b2b8 f3bd
000001c0: 3680 cd3d f732 44bd 486b 4c3d 9da4 d0bd
000001d0: ac04 dbbd 47c3 2cbd 3e13 dd3c 3883 e23c
000001e0: 382a 4abd ec97 a73c 75cd 00be c87f 58bd
000001f0: b13b 2f3c 9717 8c3d f758 7cbc 1f4b d5bc
00000200: 298c 923c 04fa 1cbd c977 96bd c399 d3bc
00000210: dc0c 96bd 307c 703c 50db 7c3c 83fe dcbd
00000220: 8050 f33b 6355 99bd 7092 023d 7eba 553d
00000230: fc55 3e3d 5d3c 853d cba7 bdbd 2a44 9a3d
00000240: ca56 b3bd 88d5 d93d cde2 06be bc5c 363d
00000250: e780 b13d c618 8abd e94b 24bd 6480 92bd
00000260: 979a 1fbd 97d8 3a3d 4afe 913d 1aa3 4c3c
00000270: 74d1 5e3c ef81 bc3c eaca debc 29f3 14bd
00000280: 9a64 433d 980e 0ebd 26e2 06be 8aef 78bb
00000290: 18b8 f73d 1822 68bd 3094 eabc 2b8c e3bd
000002a0: 273b 2dbd 4668 753d 31a0 bcbd 3f4b 45bd
000002b0: 9b11 a2bd e43d 613d bf00 9e3a aebb ebbd
000002c0: 96a7 19bd 9443 05bb 3c00 f83d 0d64 893d
000002d0: dda2 c2bd 1b5c 883d 764f a6bd f440 6cbd
000002e0: d44e 833d abc2 63bd 1398 4e3d 9e81 a3bd
000002f0: 4407 7d3d 7cc0 bebd 5fce 8ebd 7813 933d
00000300: 8058 1a3d c9e6 d53d eef5 9cbd 6879 febd
00000310: c642 80bd e081 ebbd 701a d9bc 33dc 6e3d
00000320: 0443 523d 6037 8d3c 4247 26bd 9b26 b2bd
00000330: de55 bd3d 4093 013b b01d 1bbc 72fe 9ebc
00000340: b585 8e3d 7237 afbd 6491 c23d 91bf 14bd
00000350: 147e 723c a07f b33b 9a09 713d 1fb1 1c3d
00000360: 8a16 26bb f54f 92bd 0d44 6bbc f1ed 8ebd
00000370: 9bec ccbd 8063 3dbd f5c9 b5bd 3cf3 3abd
00000380: ec19 2c3d fbf1 35bd e49b 79bd 0423 a73d
00000390: 02c3 f5bc 2e55 b13d 7102 413d d389 e3bc
000003a0: e04c f83d ccbd b6bd 4184 1c3d 2b16 d73d
000003b0: 9069 193c e23e 80bd a32f 48bd 98f3 02be
000003c0: 2cca acbc 30f8 ba3c 3897 f3bc 449b 543c
000003d0: 6162 9abc 7f4a f2bd f880 4c3d 6472 c13d
000003e0: 089d c33d 5494 99bd f598 d43d 83ed c3bd
000003f0: 698c c73d 1ff3 f1bd 661d 2abd b01f 8dbd
0.004375592 -0.034888297 -0.034418747 0.023114279 0.12277049 -0.042529374 -0.10769905 -0.052270927
-0.06853239 0.06789593 -0.09046847 -0.016937768 0.101168096 0.12379725 0.03958717 0.058620915
-0.025982872 0.082849935 0.012892261 -0.03330058 -0.11353977 -0.03192243 -0.06617334 -0.06542459
-0.07487264 -0.10906418 -0.020849446 0.09560877 0.096590035 -0.06249645 -0.10089704 0.027448148
0.0904548 0.10170476 -0.10879125 0.088445365 -0.10797286 0.09086135 0.046474896 -0.116438955
0.119574234 -0.008338138 -0.06404308 0.04636268 0.05459565 0.07226242 -0.09769824 -0.11914657
-0.08568625 0.12013593 0.05943878 -0.10862407 -0.016030475 0.123611644 -0.041811615 -0.045320436
-0.009473115 0.061974306 -0.047008593 0.120630756 -0.10377495 0.06166664 0.112738855 0.057255335
0.059475247 -0.024927795 0.015340741 -0.03603901 -0.06925839 -0.09416155 0.04476641 0.12248679
-0.117925346 0.06341969 -0.008419425 0.12128252 0.106766745 -0.09446263 -0.025851993 -0.010157779
0.04716352 -0.038288005 -0.019207293 0.04844828 -0.07372009 -0.069728695 -0.13161749 0.058594584
0.06618229 -0.093811736 -0.00040369958 -0.0027490566 0.1177874 0.08646154 0.045590103 -0.043423124
0.038894042 0.119963616 0.085235365 -0.052700326 0.048929 0.12198694 -0.083072744 -0.12902506
0.054404944 -0.060867187 -0.0815531 0.02904437 0.087572314 -0.11702045 -0.0019721133 -0.11900462
0.1003422 -0.047900166 0.049907 -0.101876475 -0.106942505 -0.04217842 0.026986714 0.02765046
-0.04935667 0.020458184 -0.12578376 -0.052856237 0.010695384 0.06840437 -0.01540207 -0.026036797
0.0178891 -0.03832437 -0.07347066 -0.025830155 -0.073266715 0.014678046 0.015433148 -0.10790732
0.007425368 -0.07486989 0.031877935 0.052179806 0.04646872 0.06505654 -0.092605196 0.075325325
-0.08756788 0.10636431 -0.13172455 0.044522032 0.08667164 -0.067430064 -0.040111456 -0.07153395
-0.038965788 0.045616712 0.0712858 0.012490058 0.013599742 0.023011176 -0.027196366 -0.036364708
0.047703363 -0.034681886 -0.13172206 -0.0037984573 0.1209566 -0.05667314 -0.028635114 -0.11110719
-0.04229274 0.059913896 -0.092102416 -0.048167463 -0.07913514 0.054990664 0.0012054666 -0.115104064
-0.037513338 -0.002033447 0.1210942 0.06708536 -0.0950372 0.06658193 -0.08120625 -0.05767913
0.0641152 -0.05560557 0.050437998 -0.07983707 0.061774507 -0.09314057 -0.06972956 0.07181448
0.037682056 0.104444094 -0.07664095 -0.124255 -0.06262736 -0.11499381 -0.026501864 0.058315467
0.051333442 0.017238319 -0.0405953 -0.0869877 0.092448935 0.0019771606 -0.009467527 -0.019408438
0.06959096 -0.08555497 0.09500387 -0.036315504 0.014800567 0.0054778606 0.058847047 0.038254853
-0.0025343024 -0.07144157 -0.014359486 -0.069789775 -0.100060664 -0.04623747 -0.08876411 -0.045642123
0.04201691 -0.044420224 -0.060939685 0.081609756 -0.030000214 0.08658825 0.04712147 -0.02777568
0.12124038 -0.0892292 0.038212065 0.10502275 0.009363547 -0.06261994 -0.048873555 -0.12788236
-0.021092497 0.022823423 -0.029735193 0.012976471 -0.018845739 -0.11830615 0.04992768 0.094456464
0.09551436 -0.074989945 0.10380737 -0.09566786 0.09743578 -0.1181395 -0.041531943 -0.068908095

bias f4 [64]
00000000: 9477 eabd 0e8f 973d f1fd b93d c079 8fbd
00000010: 1a6a b3bd fc49 40bd 0240 84bd 98d1 6e3d
00000020: 91a8 9ebd 9c9d a73d 5411 68bc d38f 85bd
00000030: 3a1e beba 56e2 aa3b 48c1 eebd 715f b53c
00000040: 650f 963d e31f 4d3d 134c fdbd a128 513d
00000050: c253 e63d 5f0a fabd 533b a93d 40c9 37bc
00000060: 061d 213c 02fa eebd 4a4f 22bd 89b8 f03d
00000070: 4584 793d c6aa f2bd 38d3 9bbd b7f8 e9bd
00000080: e071 09be 76d6 123e 4bd8 09bd 52f3 c3bd
00000090: 913b f8b9 2e44 093e 308a d93c 4618 12bd
000000a0: 1f81 2fbd a044 0bbd 71c3 06be 312f c4bc
000000b0: c0f4 c43c 5d90 7dbd dfa0 a93d 6c95 853d
000000c0: 0d39 cbbd 7817 7fbc 2a61 b53c 8ab3 d1bd
000000d0: c34f b03d eab0 ea3c 742a 8cbc 5710 a0bd
000000e0: 05ea 9abb f668 013e 20cd 63bd 99a2 87bd
000000f0: 736f 993d 40af 8f3b 4d7b b33d 5dbb ec3c
-0.11448589 0.074003324 0.090816386 -0.07005644 -0.08760472 -0.046945557 -0.06457521 0.058305353
-0.07746995 0.081843585 -0.014164288 -0.06521573 -0.0014504858 0.0052149696 -0.11657959 0.022140237
0.07327155 0.050079238 -0.12368026 0.051064137 0.11246444 -0.122090094 0.08263268 -0.011217415
0.00983358 -0.11668779 -0.039626397 0.11753947 0.060917158 -0.11848979 -0.07608646 -0.11424392
-0.13422346 0.14339623 -0.03365354 -0.09567894 -0.00047346627 0.13404915 0.02655515 -0.03566768
-0.04284775 -0.034000993 -0.13160492 -0.023948284 0.024042487 -0.061905254 0.08282637 0.065226406
-0.09922991 -0.01556956 0.022141058 -0.102393225 0.08608963 0.028648812 -0.017110087 -0.078156166
-0.0047276043 0.12637696 -0.055615544 -0.0662281 0.074919604 0.004384905 0.08763752 0.028897936

weight f4 [1, 64]
00000000: edd6 e43d 642b 8cbc 7dfa b0bd a74a 0fbd
00000010: 5b12 333e 2c9f 783d 6fdd b9bd f2a7 10be
00000020: 556f 93bd 9953 e4bd 6f7a 963d 8e04 c23d
00000030: fd02 d8bc d90d 033e a2e2 50bd d100 dabd
00000040: dc1b c93d 24c6 9c3d 3c1e 2dbd 7473 81bd
00000050: 37fe 84bd 7743 cebc 1772 8d3d 384b b13c
00000060: 40be 00bd ba2a 263e 8bdc 113e 4042 79bd
00000070: 13ed b93d cae6 663d aa2f f93d 9f18 94bd
00000080: 2a6a a8bd 7936 1e3e d73b 073e f079 1a3d
00000090: c4fa fc3d 5bc5 c93d e537 77bd 8070 283c
000000a0: 60de e03d 641a 873d 2259 5ebd d42e 5ebd
000000b0: 3992 03be 612b fbbc 96d3 b6bd b449 123e
000000c0: 6714 0a3e 41fd 19be eeee 0a3e ca8a 0d3e
000000d0: ffb6 45bd 7d39 cebd c58c 0b3e c298 3c3d
000000e0: 42f1 1fbd 4116 57bd 96b2 b0bc 09dc b23d
000000f0: 37a1 e33d 646a cebd c3d5 37bd c8b1 e33d
0.11173806 -0.017110534 -0.08641527 -0.034983303 0.17487471 0.060698673 -0.09075438 -0.14126566
-0.07198969 -0.111487575 0.07347571 0.09473525 -0.026368612 0.12798251 -0.050997384 -0.10644687
0.09819767 0.0765498 -0.042265162 -0.06320849 -0.064938 -0.025178654 0.069065265 0.021642312
-0.031431437 0.16227236 0.14244287 -0.060854197 0.090784214 0.05637244 0.12167294 -0.072312586
-0.08223374 0.15450467 0.13206421 0.037713945 0.12352517 0.09852096 -0.06035604 0.010280728
0.10979915 0.065968305 -0.054284222 -0.054243878 -0.12848748 -0.030660333 -0.089270756 0.14285928
0.13484345 -0.15038015 0.13567707 0.13822475 -0.04827022 -0.10069559 0.13627918 0.04604412
-0.03904844 -0.052511457 -0.021569531 0.087333746 0.11114734 -0.10078886 -0.044881593 0.111178935
