mlartifacts/554351476986166068/9c91ba65582649838962fefb4b51af11/artifacts/models/Model_dim64_layers5_experiment/r2_score-0.005308199669041613_run15/data/model.pth (torch, 294728 bytes, 13 tensors)

weight f4 [64, 801]
-0.017718846 -0.024173211 -0.024111148 -0.028209202 -0.019687334 -0.013712771 -0.02420596 -0.0042050234
-0.023575457 -0.026161354 -0.028979622 0.022109404 0.027247377 0.01768181 -0.023515584 -0.021754099
-0.012877907 -0.021259999 0.028557032 0.009729501 -0.009567141 0.020933002 -0.0065818396 -0.015800841
0.022853408 -0.027111016 0.016913146 0.0021280937 0.02882431 0.02960498 -0.017879764 -0.028775943
0.029270068 -0.021044055 0.017824596 0.029821424 -0.011256913 0.019344965 0.003911287 0.010747886
0.027714252 -0.013600013 0.01608001 0.001232139 -0.024919525 0.0044540865 -0.007583772 -0.0076705674
0.001482807 -0.024624823 -0.00953684 0.012019288 0.028330838 0.0036889892 0.010971225 -0.028473945
-0.029630378 0.013724016 -0.022590363 0.004454832 0.017024029 0.0031206708 -0.026267083 -0.007872914
0.0008555048 0.020637665 -0.017176509 -0.02746971 -0.02252602 0.02952995 0.02655088 0.011529641
0.018107902 0.024160322 0.019383086 0.012920662 0.027804138 -0.0036394023 0.006507498 0.0040386347
-0.029066937 -0.01047401 0.0165011 -0.0060123457 -0.009265165 0.018028874 -0.009110988 0.026277026
0.027079215 -0.0037072578 0.013114271 0.007386595 0.010430106 0.0021758494 0.0051691267 0.010004687
-0.02547761 -0.0046277684 -0.012632882 0.01653824 -0.02962438 0.026289502 -0.020410115 -0.007202127
0.015840702 0.020558506 -0.029788708 0.002794122 -0.011301249 0.0016617639 0.026464455 0.025936604
-0.003988585 0.009469227 -0.015558368 -0.0060974713 0.00857258 0.016693529 0.028756347 -0.0062261815
-0.016860614 0.0075037754 0.010189738 -0.030477086 0.0026458292 0.020341389 -0.0006343752 -0.024852453
0.0016169887 -0.004935188 -0.0004121831 0.029764792 -0.006882603 0.019114172 0.021158691 0.02995229
-0.0137613835 0.028440071 0.0037625262 -0.03059206 0.017146781 0.0104041165 -0.016600838 -0.006459553
0.02824813 -0.013635519 -0.003922662 -0.0056362525 0.027399613 0.0036889708 0.0014201773 0.007333298
-0.010578362 0.018814487 -0.03018816 0.029270388 0.016513886 -0.018611468 0.0207451 -0.0069734487
0.024982601 0.0014798605 -0.02055501 -0.018695839 -0.02916856 0.0023917637 0.0023910054 0.0008971715
-0.0058391476 -0.021286655 -0.0027041459 0.017779361 -0.029898634 0.008843145 0.007975284 -0.025431937
-0.0038477841 -0.011145538 0.02375023 -0.014974702 -0.007026458 0.016339527 0.011508635 0.022893
-0.004468925 -0.004628874 0.024681188 0.0024049934 -0.012456486 -0.01992076 -0.009280554 -0.015145939
0.005295821 0.025797453 -0.010541922 0.028350657 -0.008226509 -0.015048214 -0.020861484 0.013215124
-0.029972605 -0.019356234 -0.010550328 -0.0067537194 -0.012548797 -0.010222736 0.014977781 0.0014328678
0.022693316 0.013525821 -0.019165669 0.0057489285 -0.022146048 0.013472941 0.013860705 0.017771322
-0.018507363 0.019766303 -0.026527056 -0.015208233 0.027127434 0.021287207 0.008819602 0.026343033
-0.011544714 0.022046693 0.02606973 -0.026090745 0.02519242 0.006849017 0.021032514 -0.030910976
0.016806416 -0.000492609 0.017036801 -0.0006579554 -0.02679486 0.009318716 -0.017018445 -0.0031303465
0.021149166 0.009924804 0.018504059 -0.022003926 -0.02336779 -0.028695915 -0.024626998 0.0035815332
2.2603532e-05 -0.009686528 0.0020583847 0.00090564654 0.0059851627 0.030403828 0.009864777 0.0050961967
00000000: 1d27 91bc e606 c6bc be84 c5bc fc16 e7bc
00000010: 5547 a1bc 88ab 60bc 944b c6bc 4bca 89bb
00000020: 5121 c1bc 5650 d6bc ac66 edbc c81e b53c
00000030: e435 df3c 71d9 903c c1a3 c0bc a735 b2bc
00000040: dbfd 52bc 7329 aebc 70f0 e93c 7c68 1f3c
00000050: 7fbf 1cbc b07b ab3c 79ac d7bb c470 81bc
00000060: 1237 bb3c ec17 debc 708d 8a3c 7d77 0b3b
00000070: f620 ec3c 2586 f23c 9578 92bc 87bb ebbc
00000080: c8c7 ef3c 9564 acbc e304 923c 0f4c f43c
00000090: ea6e 38bc 5579 9e3c 412a 803b e717 303c
000000a0: 0009 e33c 97d2 5ebc 3aba 833c b97f a13a
000000b0: 0824 ccbc 96f3 913b 4a81 f8bb 6259 fbbb
000000c0: bf5a c23a ffb9 c9bc 6840 1cbc 8cec 443c
000000d0: 1316 e83c f8c2 713b a7c0 333c 3142 e9bc
000000e0: 68bb f2bc b2da 603c 6d0f b9bc d7f9 913b
000000f0: fa75 8b3c 2b84 4c3b 112e d7bc 65fd 00bc
00000100: f543 603a 5210 a93c c0b5 8cbc 2808 e1bc
00000110: 7d88 b8bc cbe8 f13c 3b81 d93c d2e6 3c3c
00000120: 0657 943c deeb c53c 47c9 9e3c 2fb1 533c
00000130: 81c5 e33c 0a83 6ebb da3c d53b 8656 843b
00000140: c91d eebc 2f9b 2bbc 512d 873c 3603 c5bb
00000150: ebcc 17bc 4ab1 933c 4146 15bc eb42 d73c
00000160: 3bd5 dd3c 77f5 72bb 3ddd 563c 400b f23b
00000170: 09e3 2a3c b298 0e3b c761 a93b b3ea 233c
00000180: 6cb6 d0bc 89a4 97bb 26fa 4ebc 347b 873c
00000190: d4ae f2bc 155d d73c 1d33 a7bc d2ff ebbb
000001a0: 5cc4 813c 506a a83c 7307 f4bc 971d 373b
000001b0: e028 39bc 8bcf d93a fccb d83c 0079 d43c
000001c0: adb2 82bb d124 1b3c 86e8 7ebc 4ccd c7bb
000001d0: 0274 0c3c dec0 883c 6e92 eb3c ff04 ccbb
000001e0: 451f 8abc 3be2 f53b dcf2 263c 15ab f9bc
000001f0: a665 2d3b fca2 a63c 334c 26ba 5f97 cbbc
00000200: 23f1 d33a 5cb7 a1bb 471a d8b9 4bd5 f33c
00000210: 7587 e1bb 5395 9c3c fe54 ad3c 815e f53c
00000220: 6d77 61bc 27fb e83c b794 763b 339c fabc
00000230: 6877 8c3c 0776 2a3c 7bfe 87bc a8aa d3bb
00000240: 9f68 e73c 8367 5fbc ad89 80bb 50b0 b8bb
00000250: 2775 e03c a9c2 713b 3e25 ba3a 2a4c f03b
00000260: de50 2dbc d720 9a3c 294d f7bc 74c8 ef3c
00000270: 2148 873c 1477 98bc a1f1 a93c 8781 e4bb
00000280: 50a8 cc3c e1f7 c13a fb62 a8bc 0428 99bc
00000290: e7f2 eebc 23bf 1c3b 6ab2 1c3b 2930 6b3a
000002a0: 5256 bfbb 5a61 aebc 0a38 31bb 06a6 913c
000002b0: fbed f4bc d7e2 103c c4aa 023c a356 d0bc
000002c0: 1b2b 7cbb c69b 36bc d88f c23c 7458 75bc
000002d0: 343e e6bb 79da 853c b78e 3c3c 1a8a bb3c
000002e0: 0f70 92bb cfad 97bb 3430 ca3c 189d 1d3b
000002f0: 4a16 4cbc dd30 a3bc 770d 18bc ac26 78bc
00000300: 9188 ad3b 2e55 d33c 07b8 2cbc a33f e83c
00000310: 7bc8 06bc c98c 76bc b4e5 aabc 3f84 583c
00000320: 1c89 f5bc f790 9ebc 48db 2cbc 4e4e ddbb
00000330: 7899 4dbc 437d 27bc 5e65 753c 11cf bb3a
00000340: 55e7 b93c 689b 5d3c 5201 9dbc 8261 bc3b
00000350: a16b b5bc 9cbd 5c3c 0318 633c 2a95 913c
00000360: c19c 97bc f1ec a13c 454f d9bc f42b 79bc
00000370: 5a3a de3c 8262 ae3c 1880 103c 58cd d73c
00000380: 0a26 3dbc 449b b43c 3090 d53c 42bc d5bc
00000390: 5660 ce3c b86d e03b 614c ac3c 0439 fdbc
000003a0: 9cad 893c 6e22 01ba c390 8b3c a47a 2cba
000003b0: e580 dbbc 87ad 183c 446a 8bbc 8026 4dbb
000003c0: 0441 ad3c a59b 223c d395 973c 9441 b4bc
000003d0: cf6d bfbc b213 ebbc 8fbe c9bc 28b8 6a3b
000003e0: b79c bd37 3eb4 1ebc f7e5 063b e968 6d3a
000003f0: 2f1f c43b 7311 f93c e09f 213c fffd a63b

bias f4 [64]
-0.0010184661 0.01517396 -0.027869808 0.010636217 0.04760011 -0.03430559 -0.037089143 0.15118036
-0.011317715 0.021046901 0.016302615 0.0018991 -0.024426581 -0.026783256 -0.007887259 0.011620435
-0.012863279 -0.004402993 0.01843893 0.010771329 0.0047776722 -0.06036651 0.10836446 0.0047375364
-0.00038806716 -0.0393528 -0.0018464619 -0.016143288 0.0036946763 -0.03386306 -0.033284213 0.28137386
-0.00891615 0.015752764 -0.02355561 -0.016162256 0.012439781 -0.006079993 0.011782502 -0.027744582
-0.037491396 -0.006992423 0.034741916 0.0060224594 0.043052576 -0.004043853 0.0110426685 -0.021702921
-0.0006668548 0.0140188765 -0.012284156 -0.06076986 -0.023032788 0.011020011 -0.059368443 -0.002654169
0.038401198 -0.01768383 0.0216051 -0.019239811 -0.03201663 -0.0056451284 -0.026522245 0.014696992
00000000: 0d7e 85ba 339c 783c 394f e4bc 8743 2e3c
00000010: 55f8 423d 0584 0cbd c9ea 17bd 06cf 1a3e
00000020: f06d 39bc 8d6a ac3c 108d 853c 39eb f83a
00000030: 411a c8bc 8f68 dbbc 9039 01bc a363 3e3c
00000040: 81c0 52bc fb46 90bb 3d0d 973c 3a7a 303c
00000050: 058e 9c3b e042 77bd 30ee dd3d 563d 9b3b
00000060: 7e75 cbb9 6730 21bd fb04 f2ba ee3e 84bc
00000070: 6222 723b feb3 0abd 0755 08bd 3c10 903e
00000080: 0b15 12bc f10b 813c b2f7 c0bc b566 84bc
00000090: 39d0 4b3c ae3a c7bb 650b 413c 9b48 e3bc
000000a0: 9490 19bd b220 e5bb 8a4d 0e3d 0d58 c53b
000000b0: e657 303d 4c82 84bb 4fec 343c 53ca b1bc
000000c0: decf 2eba 6eaf 653c 7c43 49bc d1e9 78bd
000000d0: 42af bcbc 478d 343c 532c 73bd 91f1 2dbb
000000e0: 934a 1d3d aedd 90bc 2efd b03c cf9c 9dbc
000000f0: df23 03bd c5fa b8bb 2e45 d9bc a7cb 703c

weight f4 [64, 64]
0.042600535 -0.04737678 0.018449841 0.08770695 0.06897987 0.1728434 0.1083952 -0.018057652
-0.100973904 0.06906964 -0.0763755 0.022804469 0.0337456 -0.014386062 0.2872159 -0.028016074
0.11879935 0.102267526 0.045435287 0.14034507 -0.09061788 -0.3964556 0.14904642 -0.090085946
-0.043044165 0.12518887 0.04688434 -0.06934275 0.19438905 0.019055841 -0.07350971 0.22216435
0.08898757 0.010659845 -0.057980623 0.09751081 -0.113480195 0.07080592 -0.05522548 0.050101276
0.057970885 0.04222217 -0.022332458 -0.094550714 0.12395793 -0.104653634 0.06818353 -0.02680623
-0.048183125 0.04653115 -0.15444496 0.3196727 0.101564646 -0.082816824 0.17300509 -0.066093385
0.050557487 -0.015552248 0.08694658 -0.031347692 -0.10341688 -0.095787816 0.07868898 -0.0003612325
-0.09736689 -0.0011890035 -0.10085376 0.101134956 -0.016934905 0.092572644 -0.06712272 0.010119019
-0.06921865 0.013556635 0.0074988087 0.08303365 0.09552556 -0.095649384 0.022774272 -0.09739223
0.0115877 0.103118554 -0.09542132 0.05459288 -0.091213055 -0.048672907 -0.06577455 -0.0479633
0.05618622 0.019176772 -0.035480563 -0.07272422 -0.12104811 -0.10151828 0.008148668 -0.019766288
-0.06798626 0.103983946 -0.021615217 -0.040246442 0.03256111 0.045304347 0.008798048 0.054850005
0.04247442 0.08727198 -0.06852423 0.08329933 -0.07686122 0.011945815 0.05837146 -0.006578063
-0.06758755 -0.045948565 -0.052771773 -0.09548711 -0.03875623 -0.066111594 0.053730052 -0.0973771
0.072778955 0.036276147 -0.029817736 -0.022262137 -0.07039309 0.054625787 0.03362572 0.11025952
0.009065592 0.096211836 0.08960319 0.0677719 0.008048742 0.04543213 0.08771529 -0.043334804
-0.048950475 0.18008001 -0.05433172 0.024648268 -0.074580036 0.06813087 -0.18469039 -0.035562195
0.080507934 0.030571392 0.028988084 0.0753784 0.09207909 -0.31718183 0.10466516 0.036549464
0.065429114 -0.044498757 -0.08076152 0.016947336 0.08068023 0.004108587 0.026561303 0.20527089
0.0066430583 0.05147021 0.08804144 0.09587021 -0.04703109 0.0076363715 0.084954806 0.03680111
0.036138296 0.0020800529 0.13039541 0.0631595 0.12898396 0.02764333 -0.045686055 -0.08418484
-0.049935874 0.0017796272 -0.18828003 -0.11657207 -0.0067552277 0.021283438 -0.08614873 0.03672614
0.0036697164 0.06396546 0.08785504 0.011344761 -0.04044495 -0.10351502 -0.04210527 -0.0024948507
-0.097156525 0.015083833 0.084309034 0.08160548 0.057045944 0.012533869 0.08059083 -0.21476015
-0.04900725 0.019489989 -0.00795954 0.045695264 -0.07064489 0.027417637 -0.027207177 -0.008287719
-0.076265424 -0.021593079 -0.091808505 -0.090631686 -0.0059964512 -0.100685485 0.04592644 -0.115115
-0.08256104 0.070836246 -0.022183634 0.062072963 -0.056082398 -0.080694094 -0.0145637365 0.07617232
-0.03180449 0.0060875355 0.09157757 0.10185988 -0.048828308 -0.07210136 -0.08303153 0.067561634
-0.032541145 0.03574035 0.046212118 0.089256644 0.020897549 -0.058017407 -0.05219005 0.03586347
0.110832416 -0.018553386 -0.13919406 -0.052535 -0.0077666626 0.066110514 0.08081674 -0.10511337
-0.06934725 -0.041707106 -0.028633453 -0.06417415 -0.047836393 -0.048667498 0.038660754 -0.030729622
00000000: e67d 2e3d 280e 42bd 1f24 973c b49f b33d
00000010: 5145 8d3d dcfd 303e 4dfe dd3d a4ed 93bc
00000020: 68cb cebd 6274 8d3d c26a 9cbd 70d0 ba3c
00000030: d438 0a3d 84b3 6bbc f60d 933e f781 e5bc
00000040: 134d f33d a371 d13d 5a1a 3a3d 9eb6 0f3e
00000050: de95 b9bd 3afc cabe a09f 183e fb7e b8bd
00000060: 144f 30bd 8331 003e cb09 403d 9203 8ebd
00000070: ec0d 473e ff1a 9c3c 428c 96bd 0d7f 633e
00000080: 1d3f b63d a1a6 2e3c 177d 6dbd bfb3 c73d
00000090: 4e68 e8bd b202 913d 1d34 62bd ff36 4d3d
000000a0: e172 6d3d 27f1 2c3d 8ff2 b6bc cea3 c1bd
000000b0: a8dd fd3d a554 d6bd cea3 8b3d bd98 dbbc
000000c0: ab5b 45bd 7297 3e3d d226 1ebe 24ac a33e
000000d0: 2001 d03d de9b a9bd 3f28 313e f85b 87bd
000000e0: 5e15 4f3d dbce 7ebc 0c11 b23d 7066 00bd
000000f0: 3bcc d3bd 672c c4bd b027 a13d ce63 bdb9
00000100: 4b68 c7bd 56d8 9bba 6b8c cebd d81f cf3d
00000110: 12bb 8abc ba96 bd3d a377 89bd 3eca 253c
00000120: 82c2 8dbd a61c 5e3c 91b8 f53b 8c0d aa3d
00000130: e8a2 c33d d3e3 c3bd 1c91 ba3c 9475 c7bd
00000140: 56da 3d3c d22f d33d 416c c3bd c99c 5f3d
00000150: e9cd babd 3e5d 47bd cfb4 86bd 2a75 44bd
00000160: 8623 663d 9b18 9d3c 1154 11bd 70f0 94bd
00000170: 12e8 f7bd d1e8 cfbd fe81 053c e9ec a1bc
00000180: 613c 8bbd 89f5 d43d 6512 b1bc 74d9 24bd
00000190: cc5e 053d 0d91 393d b025 103c 66aa 603d
000001a0: a8f9 2d3d a7bb b23d 6e56 8cbd d798 aa3d
000001b0: 6a69 9dbd 61b8 433c e916 6f3d cb8c d7bb
000001c0: 576b 8abd 9034 3cbd 3727 58bd bf8e c3bd
000001d0: dabe 1ebd 8465 87bd 0b14 5c3d a56d c7bd
000001e0: 220d 953d 4c96 143d 5344 f4bc 165f b6bc
000001f0: 412a 90bd 4abf 5f3d 1fbb 093d becf e13d
00000200: d987 143c b60a c53d e181 b73d fecb 8a3d
00000210: dfde 033c 0b17 3a3d 13a4 b33d d67f 31bd
00000220: 4b80 48bd e566 383e f08a 5ebd 2aeb c93c
00000230: 6bbd 98bd 3388 8b3d 7a1f 3dbe aaa9 11bd
00000240: 58e1 a43d db70 fa3c 6b78 ed3c fe5f 9a3d
00000250: f693 bc3d a865 a2be b05a d63d e4b4 153d
00000260: b3ff 853d 5444 36bd 4c66 a5bd 24d5 8a3c
00000270: ad3b a53d 53a1 863b 1797 d93c 8832 523e
00000280: 03ae d93b 6dd2 523d 124f b43d 9a57 c43d
00000290: aca3 40bd 873a fa3b c9fc ad3d c3bc 163d
000002a0: c005 143d 7f51 083b 6086 053e c559 813d
000002b0: 5f14 043e 4474 e23c 4d21 3bbd 1a69 acbd
000002c0: 8f89 4cbd 6142 e93a 7bcc 40be 56bd eebd
000002d0: f55a ddbb 9b5a ae3c bf6e b0bd 266e 163d
000002e0: a07f 703b 5300 833d 58ed b33d 60df 393c
000002f0: 9ba9 25bd afff d3bd 9376 2cbd a680 23bb
00000300: 00fa c6bd 2e22 773c 37aa ac3d c620 a73d
00000310: 02a9 693d db5a 4d3c ce0c a53d 16ea 5bbe
00000320: d4bb 48bd 78a9 9f3c bb68 02bc f52a 3b3d
00000330: 45ae 90bd f49a e03c 96e1 debc 37c9 07bc
00000340: 0c31 9cbd f8e3 b0bc 1906 bcbd 1b9d b9bd
00000350: e17d c4bb 3134 cebd 5d1d 3c3d 6ac1 ebbd
00000360: c315 a9bd 9812 913d 74ba b5bc 3840 7e3d
00000370: a8b6 65bd f242 a5bd bd9c 6ebc 3c00 9c3d
00000380: 6d45 02bd f379 c73b 058d bb3d ea9b d03d
00000390: 3100 48bd e1a9 93bd 6f0c aabd c15d 8a3d
000003a0: dd49 05bd 7964 123d eb48 3d3d 30cc b63d
000003b0: 5631 ab3c a9a3 6dbd 3cc5 55bd 93e5 123d
000003c0: 1bfc e23d 45fd 97bc e388 0ebe f12e 57bd
000003d0: 7d7f febb f364 873d 3f83 a53d ae45 d7bd
000003e0: ee05 8ebd 12d5 2abd b490 eabc bd6d 83bd
000003f0: 18f0 43bd 9257 47bd bd5a 1e3d b0bc fbbc

bias f4 [64]
-0.10687425 -0.10042416 -0.07786943 -0.024877917 0.0032642588 0.066912614 0.03254734 0.022218334
-0.024203774 0.03265524 0.015487924 0.008196601 -0.14842106 -0.02060231 -0.071116224 -0.048408926
-0.08857778 0.052988265 -0.13878123 -0.07652513 -0.116443485 -0.01978003 -0.11984407 -0.046313435
-0.07206768 0.05379618 0.06280088 0.003111341 -0.11436654 -0.024737844 -0.049036246 -0.12461585
-0.13399076 0.07889927 -0.06406749 0.09064176 0.071967795 0.010705361 -0.026890526 0.0976522
0.07594308 -0.006136818 0.09956467 -0.07514884 -0.023214981 0.043859698 0.04775936 0.0077874702
-0.0048925127 -0.009569365 -0.039394006 -0.012909093 -0.031778168 -0.0758517 -0.05326621 0.0010653699
0.008649097 -0.1371344 -0.10870329 -0.018344706 -0.020466946 0.03947999 0.018902345 -0.013033857
00000000: e3e0 dabd 2fab cdbd 027a 9fbd c6cc cbbc
00000010: 2ded 553b 7b09 893d 5c50 053d 3903 b63c
00000020: fe46 c6bc 80c1 053d 10c1 7d3c 094b 063c
00000030: b1fb 17be 2dc6 a8bc 62a5 91bd 7048 46bd
00000040: 4468 b5bd 390a 593d ab1c 0ebe 35b9 9cbd
00000050: ec79 eebd bb09 a2bc cf70 f5bd 28b3 3dbd
00000060: 3898 93bd 6259 5c3d bf9d 803d a4e7 4b3b
00000070: 0139 eabd 05a7 cabc 3bda 48bd 9836 ffbd
00000080: e034 09be f195 a13d d135 83bd 63a2 b93d
00000090: da63 933d 8a65 2f3c 8549 dcbc e0fd c73d
000000a0: 0c88 9b3d 5c17 c9bb 90e8 cb3d a3e7 99bd
000000b0: 582d bebc 3aa6 333d 529f 433d 092e ff3b
000000c0: 5f51 a0bb d3c8 1cbc 9c5b 21bd a980 53bc
000000d0: d329 02bd 2358 9bbd ab2d 5abd e2a3 8b3a
000000e0: f1b4 0d3c f66c 0cbe d59f debd a347 96bc
000000f0: 4caa a7bc c5b5 213d 17d9 9a3c f58b 55bc

weight f4 [64, 64]
0.007876452 -0.13073944 -0.057882726 0.021394255 -0.034472547 0.14352249 0.1015401 0.3560328
-0.07986581 -0.008434616 -0.02194041 0.051599346 -0.1772216 0.016560743 -0.03449514 0.12801428
0.048173703 -0.021143433 0.08374761 0.06116845 -0.017147714 -0.00074300234 0.096591316 -0.013104816
0.04890732 -0.01677312 0.04729023 0.083339944 0.100688964 -0.039847508 0.014197522 0.09854665
0.032803003 0.29995608 -0.07153123 0.067019604 -0.054512836 -0.113353886 0.021658994 0.0064709536
-0.0955213 0.06904366 0.058875706 0.033748023 -0.06449732 0.18584102 0.04250206 0.07930581
0.0075363754 -0.043017983 0.09178263 0.06503559 0.036795553 0.03859823 0.03772846 0.18146998
0.03526021 0.18191697 -0.20773406 -0.092272475 -0.08113272 -0.13526462 0.021337701 -0.06461576
0.018679447 0.005618013 -0.067498066 -0.018716022 -0.083250985 -0.10965425 0.06312318 -0.020208437
0.0542713 0.08090411 0.07644456 -0.061003074 -0.056508712 0.021242712 -0.08062615 -0.07685416
-0.11276636 -0.1292691 -0.116674006 0.04275822 0.034750033 0.004896228 -0.08124459 -0.008237674
0.028631985 0.048114654 -0.024398867 -0.0791952 -0.10848636 -0.048404668 -0.02182034 -0.067076206
-0.02950908 -0.17322522 0.024575096 0.006883797 -0.057844773 0.020017825 -0.043021213 0.11240786
-0.019276267 -0.03410766 -0.03391502 -0.10436192 0.055148445 0.06657622 0.0028781903 -0.08070032
-0.090189494 -0.024483815 -0.053631987 -0.15024765 0.044933457 0.077105984 -0.0143825235 0.0012720821
-0.09890475 0.0036818697 -0.05358085 -0.029958056 -0.04260379 -0.02933978 0.08790604 0.045013875
-0.06371828 0.0119709 0.03959774 0.0065696156 -0.088034034 -0.031817406 0.10663527 0.043511454
0.0377119 -0.031591408 0.0066620633 -0.02084867 -0.1368277 0.028517663 0.09148312 0.044946626
-0.07479527 -0.14070687 -0.08315311 -0.07140166 -0.010677919 0.04364265 0.04921421 0.0677156
-0.025486387 0.08060981 0.09016876 0.044734757 -0.08704751 0.09907879 -3.635996e-05 0.040717393
0.0052475464 0.027326424 -0.05658607 -0.09422096 0.03579349 0.047506493 0.0051256837 0.022325756
-0.017247587 0.01972932 -0.013291424 -0.02402582 -0.072134286 0.05721892 0.058189385 -0.10072668
-0.021130724 -0.1026596 -0.045567106 -0.0738718 -0.028830105 -0.06428634 -0.012731683 -0.11631698
-0.13609448 -0.08004088 -0.02608654 -0.13688801 0.060742285 -0.11165564 -0.096613094 0.10533645
0.05492802 -0.09486151 -0.09988334 0.017352836 0.08964262 -0.103525385 -0.10480826 -0.11718524
-0.022300782 0.021743305 -0.019697491 -0.00813389 -0.17517307 -0.056394406 -0.10787227 0.052107006
-0.030223632 -0.11527015 -0.10177346 -0.06608226 0.033473607 -0.010321551 0.097834356 -0.00058080995
0.0037881625 -0.10215239 -0.03243758 -0.036932014 -0.07926948 -0.0761483 0.091510676 0.039934438
-0.06514098 0.037788156 -0.07526044 -0.018957466 0.07738358 -0.0067656892 0.009605553 0.08228989
-0.010985174 -0.010384827 0.036838733 0.09137321 -0.057245053 -0.07498318 -0.020271175 -0.072123684
-0.010032301 0.042450294 0.07866696 -0.115768075 0.09111927 0.037882935 0.09302192 -0.048402064
-0.039118685 -0.09857919 -0.0049537346 0.06257696 -0.05496533 -0.10598409 -0.104370646 0.015029959
00000000: 3c0c 013c 8fe0 05be 7016 6dbd 0143 af3c
00000010: 1633 0dbd 8ff7 123e 42f4 cf3d ee49 b63e
00000020: b090 a3bd 5831 0abc 60bc b3bc d659 533d
00000030: 9479 35be 65aa 873c c74a 0dbd 2d16 033e
00000040: ca51 453d fe34 adbc de83 ab3d c58b 7a3d
00000050: 5d79 8cbc 0bc6 42ba abd1 c53d 95b5 56bc
00000060: 0b53 483d c867 89bc 66b3 413d 22ae aa3d
00000070: 0436 ce3d 2437 23bd b99c 683c d3d2 c93d
00000080: 715c 063d d893 993e f77e 92bd 9341 893d
00000090: da48 5fbd 1526 e8bd 346e b13c 4b0a d43b
000000a0: aca0 c3bd c366 8d3d a727 713d 5e3b 0a3d
000000b0: 2c17 84bd 1c4d 3e3e a416 2e3d 166b a23d
000000c0: b3f3 f63b a033 30bd 88f8 bb3d 6131 853d
000000d0: efb6 163d 2d19 1e3d 2889 1a3d 44d3 393e
000000e0: 036d 103d 7148 3a3e 3db8 54be 5af9 bcbd
000000f0: e928 a6bd cf82 0abe 67cc ae3c 4555 84bd
00000100: a405 993c 4f17 b83b 6d3c 8abd 5852 99bc
00000110: 7e7f aabd 6892 e0bd ba46 813d 2a8c a5bc
00000120: 954b 5e3d 0eb1 a53d f78e 9c3d 5cde 79bd
00000130: ae75 67bd 3205 ae3c 531f a5bd b765 9dbd
00000140: 0df2 e6bd 1e5f 04be c8f2 eebd 3e23 2f3d
00000150: 0d56 0e3d 8a70 a03b 9063 a6bd 4ff7 06bc
00000160: a08d ea3c df13 453d 22e0 c7bc 1831 a2bd
00000170: 192e debd f943 46bd 92c0 b2bc 405f 89bd
00000180: 07bd f1bc f461 31be b651 c93c 7991 e13b
00000190: a4ee 6cbd 6cfc a33c 0337 30bd 1836 e63d
000001a0: 43e9 9dbc 79b4 0bbd 7aea 0abd b4bb d5bd
000001b0: 56e3 613d 1d59 883d 05a0 3c3b 3646 a5bd
000001c0: 45b5 b8bd 4892 c8bc 37ad 5bbd 85da 19be
000001d0: 250c 383d bee9 9d3d ada4 6bbc febb a63a
000001e0: 938e cabd 864b 713b 9877 5bbd 996a f5bc
000001f0: 5081 2ebd fa59 f0bc 1508 b43d 7860 383d
00000200: bb7e 82bd 9821 443c 3d31 223d ee45 d73b
00000210: 304b b4bd f852 02bd 9863 da3d 1139 323d
00000220: cb77 1a3d fe65 01bd 704d da3b d4ca aabc
00000230: 901c 0cbe e09d e93c 815b bb3d f419 383d
00000240: 432e 99bd 7615 10be 2e4c aabd 093b 92bd
00000250: 70f2 2ebc a3c2 323d d794 493d 7aae 8a3d
00000260: d4c8 d0bc c216 a53d 66aa b83d cb3b 373d
00000270: f745 b2bd d2e9 ca3d 3681 18b8 48c7 263d
00000280: 9cf3 ab3b aadb df3c ccc6 67bd ebf6 c0bd
00000290: 329c 123d 2b96 423d 5af5 a73b 81e4 b63c
000002a0: d04a 8dbc 629f a13c 46c4 59bc ccd1 c4bc
000002b0: 24bb 93bd 635e 6a3d fe57 6e3d ca49 cebd
000002c0: 571a adbc 323f d2bd 93a4 3abd 194a 97bd
000002d0: 1d2d ecbc 8ea8 83bd 8d98 50bc 9937 eebd
000002e0: 5a5c 0bbe 79ec a3bd 71b3 d5bc 5f2c 0cbe
000002f0: e7cc 783d b6ab e4bd 16dd c5bd a3ba d73d
00000300: 34fc 603d c046 c2bd a38f ccbd 8927 8e3c
00000310: 8d96 b73d 1e05 d4bd b7a5 d6bd d1fe efbd
00000320: 21b0 b6bc 041f b23c a25c a1bc 0244 05bc
00000330: 9260 33be d2fd 66bd 23ec dcbd 286e 553d
00000340: 8d97 f7bc c212 ecbd 9b6e d0bd 2356 87bd
00000350: 9f1b 093d b91b 29bc 615d c83d 7f41 18ba
00000360: d242 783b 4635 d1bd 45dd 04bd 0646 17bd
00000370: 0a58 a2bd a4f3 9bbd f369 bb3d 4b92 233d
00000380: a268 85bd c1c7 1a3d 2522 9abd b04c 9bbc
00000390: 487b 9e3d b7b2 ddbb 9c60 1d3c 9a87 a83d
000003a0: 29fb 33bc 1f25 2abc 36e4 163d e121 bb3d
000003b0: ca79 6abd c890 99bd bc0f a6bc 95b5 93bd
000003c0: 855e 24bc 5ce0 2d3d 251c a13d d017 edbd
000003d0: bd9c ba3d 232b 1b3d 4782 be3d 3e41 46bd
000003e0: ea3a 20bd e3e3 c9bd f052 a2bb 5928 803d
000003f0: 5323 61bd 300e d9bd 47c0 d5bd 3840 763c

bias f4 [64]
0.06854324 -0.069289215 -0.111510076 -0.03691454 -0.096797444 -0.08785034 0.080975905 -0.014243904
0.014476628 -0.07615374 -0.12107708 -0.076053694 0.07261334 -0.06674702 0.043615114 -0.0011877739
-0.02681351 -0.05509459 -0.14478937 -0.02654438 -0.061539594 0.08229013 0.041234482 0.121582314
0.060375005 -0.06347107 -0.09870286 -0.06330189 -0.07273382 0.056458835 -0.0837094 -0.067112446
-0.08422151 -0.12823822 0.10381301 -0.115870364 0.07100636 0.0747464 -0.15691766 -0.034267556
-0.0676866 0.0002205976 -0.07447754 0.1213741 -0.10348342 0.05080236 0.016369123 0.0040484755
0.015009309 -0.0935094 -0.042023897 0.0768936 -0.048401497 -0.09446681 0.029117772 -0.082017355
-0.09334376 -0.011003192 -0.160112 0.015273633 0.061694432 0.049645074 -0.01806831 0.0054873135
00000000: 6660 8c3d 81e7 8dbd 655f e4bd b333 17bd
00000010: bd3d c6bd e1ea b3bd b2d6 a53d 435f 69bc
00000020: 612f 6d3c 7ef6 9bbd 43f7 f7bd 0ac2 9bbd
00000030: 4eb6 943d a9b2 88bd c3a5 323d 14af 9bba
00000040: 02a8 dbbc ddaa 61bd aa43 14be 9973 d9bc
00000050: f110 7cbd ba87 a83d 7de5 283d 2600 f93d
00000060: c84b 773d 1ffd 81bd ba24 cabd 6ca4 81bd
00000070: 78f5 94bd 6141 673d d56f abbd 4072 89bd
00000080: 547c acbd e150 03be ea9b d43d 714d edbd
00000090: c86b 913d a414 993d 06af 20be 235c 0cbd
000000a0: 469f 8abd 3850 6739 ae87 98bd fc92 f83d
000000b0: 1eef d3bd 2316 503d 8a18 863c 13a9 843b
000000c0: 9be9 753c db81 bfbd 4021 2cbd 647a 9d3d
000000d0: a640 46bd d177 c1bd 6588 ee3c b7f8 a7bd
000000e0: 032b bfbd bb46 34bc 66f4 23be 433e 7a3c
000000f0: 4db3 7c3d a258 4b3d fe03 94bc ecce b33b

weight f4 [64, 64]
0.030110143 0.106568344 -0.31428155 -0.09385615 0.012917616 -0.16515382 -0.050799184 -0.037531897
-0.023841163 -0.02844151 -0.08412793 -0.06417002 0.10261492 -0.12997717 -0.03388437 0.04172497
0.0014591427 -0.07149878 0.059244324 0.123134285 0.0653814 0.06928557 0.021289574 -0.07797986
-0.019972043 0.08011884 0.038681637 0.026093004 -0.026379919 0.09661165 -0.07451032 0.02728828
-0.103346854 -0.083227836 0.0085356245 -0.052374158 -0.039567206 -0.04142713 -0.13195278 -0.10648418
-0.100788265 -0.03807115 -0.009644828 -0.1008845 -0.09940995 -0.053513624 -0.21273406 -0.09193327
-0.07666054 0.010995056 0.12206399 -0.013846813 0.09991152 0.083811484 -0.07959816 -0.15354183
-0.1964793 0.07249247 0.048718493 -0.15305783 0.008593259 -0.012362471 -0.014104884 0.0680635
-0.041471913 0.05807796 -0.1746386 0.10102914 0.020039735 0.04496637 0.014794284 0.007892557
-0.061732147 -0.07163539 -0.089912064 -0.075472794 -0.09392339 -0.041664016 0.03822435 -0.09894034
0.07650978 -0.0638968 -0.04606857 -0.0596208 0.0019950287 -0.08643096 -0.0646432 -0.017982071
-0.020605212 -0.0015802343 0.013383256 -0.010106129 -0.10595103 0.051422026 -0.012569587 0.06781895
0.026968576 -0.04579445 -0.020045197 -0.062132455 0.007936873 -0.084602 -0.11362414 0.05396098
-0.05086524 0.049268074 -0.0055257543 -0.08586609 0.05521705 -0.042500284 -0.03375001 -0.0937406
-0.062381335 -0.043197982 -0.008411574 -0.0003630878 0.0185064 -0.093171746 0.0202838 0.009257871
-0.017760314 -0.073440626 0.06761293 -0.108673304 -0.036408562 0.033422433 0.09631458 0.04206608
0.10500685 0.041677758 -0.03549728 -0.07622343 0.020894736 -0.015530638 0.09431311 -0.01603259
-0.07940688 0.030401988 -0.08333448 -0.08685488 -0.06101938 -0.054715928 -0.037126962 0.097394355
-0.010578054 -0.076037936 -0.03958507 0.01833079 -0.10624181 -0.040693667 0.075997196 0.065138504
-0.034446847 -0.055622306 0.058652658 -0.040672187 0.06899031 -0.04781503 -0.073442094 0.075757384
0.03057353 0.07235609 0.06258055 0.10281616 -0.09143851 -0.08763981 0.032389693 0.0026085712
-0.08323063 0.024300689 -0.06719871 0.0439035 -0.10687813 0.07157022 -0.041648798 -0.0770059
-0.034972303 -0.052235752 0.05026201 -0.10069403 -0.062391177 -0.09368732 -0.10190273 -0.032991443
0.06706524 0.0035433914 0.05840117 -0.120943315 -0.098047785 -0.082544416 -0.07931626 -0.046387654
-0.08398336 -0.10342033 0.014355676 0.06733922 0.017662792 -0.0023122542 0.050908506 -0.09123653
-0.053618737 -0.053620603 0.08428327 -0.061397724 -0.04987625 0.032341056 -0.0016551083 0.096727856
0.030315023 -0.044469234 -0.024181886 0.058478694 -0.033511356 -0.031185353 0.019543918 -0.1264554
0.05799229 -0.07425184 0.012054417 0.07833601 -0.115567364 0.04591667 0.058724925 -0.010565861
0.098467864 -0.04008498 -0.093969055 -0.10299507 0.06088725 0.02008218 0.0020339333 -0.04674495
-0.08792418 -0.10467644 -0.09332936 -0.012825569 -0.014619289 -0.037262205 0.026601363 -0.14149514
0.021331716 -0.060920257 -0.08904159 -0.021224344 -0.014382504 -0.05010596 0.08476729 0.047926076
0.076023445 0.03368204 -0.017691867 -0.025360195 -0.026588613 -0.07585238 0.0178 0.03342139
00000000: 8ca9 f63c 8140 da3d 83e9 a0be a737 c0bd
00000010: 69a4 533c 151e 29be ce12 50bd 0cbb 19bd
00000020: 8b4e c3bc 2bfe e8bc 444b acbd 926b 83bd
00000030: c527 d23d bc18 05be 56ca 0abd cde7 2a3d
00000040: b440 bf3a f46d 92bd 2daa 723d d42d fc3d
00000050: afe6 853d 98e5 8d3d 7967 ae3c e8b3 9fbd
00000060: 699c a3bc 5915 a43d a370 1e3d ffc0 d53c
00000070: b31a d8bc 54dc c53d de98 98bd ac8b df3c
00000080: 84a7 d3bd 5b73 aabd 01d9 0b3c 4986 56bd
00000090: 3911 22bd 7faf 29bd a11e 07be 6114 dabd
000000a0: 146a cebd 7ff0 1bbd 5705 1ebc 889c cebd
000000b0: 7297 cbbd 1a31 5bbd f5d6 59be 8347 bcbd
000000c0: 3400 9dbd 9b24 343c affc f93d bedd 62bc
000000d0: 699e cc3d 5ba5 ab3d 5c04 a3bd 123a 1dbe
000000e0: df31 49be ef76 943d 0b8d 473d 31bb 1cbe
000000f0: beca 0c3c f68b 4abc 2c18 67bc e064 8b3d
00000100: 74de 29bd 28e3 6d3d 76d4 32be 5ee8 ce3d
00000110: 5f2a a43c a82e 383d b963 723c c94f 013c
00000120: d9da 7cbd 93b5 92bd d123 b8bd 7b91 9abd
00000130: e85a c0bd e3a7 2abd 2391 1c3d 3ca1 cabd
00000140: 29b1 9c3d 53dc 82bd 66b2 3cbd f134 74bd
00000150: 07bf 023b b702 b1bd a763 84bd 234f 93bc
00000160: 43cc a8bc dd1f cfba 7245 5b3c 2d94 25bc
00000170: dbfc d8bd e79f 523d abf0 4dbc a9e4 8a3d
00000180: 34ed dc3c f692 3bbd d335 a4bc 9a7e 7ebd
00000190: a809 023c d043 adbd c6b3 e8bd 3006 5d3d
000001a0: 1258 50bd 52cd 493d 6311 b5bb 90da afbd
000001b0: 462b 623d c714 2ebd 733d 0abd 12fb bfbd
000001c0: 9283 7fbd 5ef0 30bd b3d0 09bc d25c beb9
000001d0: bc9a 973c d4d0 bebd 362a a63c 53ae 173c
000001e0: 147e 91bc 0a68 96bd a678 8a3d 1c90 debd
000001f0: 2521 15bd f6e5 083d 9440 c53d 7b4d 2c3d
00000200: d50d d73d 4cb6 2a3d 9965 11bd 081b 9cbd
00000210: 702b ab3c 3874 7ebc 3b27 c13d c756 83bc
00000220: 13a0 a2bd 970d f93c 45ab aabd f9e0 b1bd
00000230: 75ef 79bd cf1d 60bd 7112 18bd b176 c73d
00000240: 934f 2dbc c7b9 9bbd f423 22bd 742a 963c
00000250: 4e95 d9bd 67ae 26bd 6ba4 9b3d 5667 853d
00000260: 2318 0dbd 37d4 63bd c53d 703d e197 26bd
00000270: cb4a 8d3d b1d9 43bd cf68 96bd b026 9b3d
00000280: 5775 fa3c 6e2f 943d 3b2a 803d 4791 d23d
00000290: 1d44 bbbd 807c b3bd 0eab 043d 90f4 2a3b
000002a0: d274 aabd 3d12 c73c 7a9f 89bd 28d4 333d
000002b0: ece2 dabd 6893 923d ee97 2abd 45b5 9dbd
000002c0: 1e3f 0fbd 28f5 55bd 8adf 4d3d ac38 cebd
000002d0: e48d 7fbd 23df bfbd 61b2 d0bd 0922 07bd
000002e0: 8059 893d 3e38 683b 1136 6f3d 21b1 f7bd
000002f0: 47cd c8bd 0c0d a9bd 9070 a2bd fb00 3ebd
00000300: 78ff abbd 0ace d3bd 1234 6b3c 25e9 893d
00000310: 8fb1 903c 3089 17bb 7085 503d 38da babd
00000320: 529f 5bbd 47a1 5bbd b59c ac3d 2e7c 7bbd
00000330: 0a4b 4cbd 0e78 043d 38f0 d8ba 4119 c63d
00000340: 3657 f83c 5f25 36bd 1719 c6bc 5b87 6f3d
00000350: 3443 09bd 6d78 ffbc 911a a03c 867d 01be
00000360: 5389 6d3d 5911 98bd e47f 453c a16e a03d
00000370: 95ae ecbd 1e13 3c3d 8c89 703d 6f1c 2dbc
00000380: 85a9 c93d 2630 24bd d972 c0bd 14ef d2bd
00000390: e964 793d 6283 a43c bd4b 053b a277 3fbd
000003a0: 9811 b4bd 9a60 d6bd 7723 bfbd 5622 52bc
000003b0: be85 6fbc 41a0 18bd 1aeb d93c 1ae4 10be
000003c0: dabf ae3c 8587 79bd 705b b6bd adde adbc
000003d0: 98a4 6bbc e83b 4dbd 799a ad3d 224e 443d
000003e0: 2eb2 9b3d 2ef6 093d 89ee 90bc 2fc0 cfbc
000003f0: 5dd0 d9bc 7e58 9bbd 4ed1 913c dee4 083d

bias f4 [64]
0.14413092 -0.06299432 -0.09523048 0.00816387 -0.04364744 0.040538628 -0.13243888 0.014937096
-0.09793528 -0.09099064 -0.006425636 -0.12662743 -0.028282216 -0.08720219 -0.08736719 0.004794414
-0.11061119 -0.0014741446 -0.015611893 -0.0053347927 0.09265072 -0.055097744 -0.034877647 0.13728449
-0.05023403 -0.09040321 0.04528445 -0.108569555 0.057976548 -0.07205281 -0.07906289 0.033274952
-0.105033904 -0.087922424 -0.13370511 -0.13621871 0.043160014 0.0003713404 -0.099472 -0.01727648
-0.086023055 0.026027432 0.049839146 -0.14062357 -0.025667008 -0.058783352 -0.09893277 0.1227738
-0.0047426126 -0.0649454 -0.019803178 0.08888573 -0.02036295 -0.02984946 0.08273423 -0.02081793
0.15948115 0.03681987 -0.009436308 -0.04579301 -0.02464842 -0.12562136 -0.014359521 -0.08323873
00000000: 0e97 133e 2b03 81bd 3308 c3bd c1c1 053c
00000010: a8c7 32bd d50b 263d 0f9e 07be b9ba 743c
00000020: 4b92 c8bd 4d59 babd 248e d2bb 9faa 01be
00000030: 1bb0 e7bc 1097 b2bd 92ed b2bd 761a 9d3b
00000040: 1f88 e2bd 1638 c1ba 06c9 7fbc 7ccf aebb
00000050: a9bf bd3d 2cae 61bd dddb 0ebd 4e94 0c3e
00000060: 33c2 4dbd 5125 b9bd 307c 393d b759 debd
00000070: d178 6d3d 6c90 93bd b9eb a1bd 514b 083d
00000080: 041c d7bd ac10 b4bd fee9 08be eb7c 0bbe
00000090: 8ec8 303d 77b0 c239 fab7 cbbd 6887 8dbc
000000a0: db2c b0bd 7b37 d53c 2224 4c3d a0ff 0fbe
000000b0: 9e43 d2bc d0c6 70bd 449d cabd d470 fb3d
000000c0: eb67 9bbb 1802 85bd 463a a2bc b909 b63d
000000d0: 34d0 a6bc db86 f4bc 9070 a93d 5d8a aabc
000000e0: 074f 233e 6fd0 163d bf9a 1abc 7491 3bbd
000000f0: 7ceb c9bc e3a2 00be 3244 6bbc 1179 aabd

weight f4 [64, 64]
0.1083056 -0.09841179 -0.045399144 0.016516477 -0.0546245 -0.08563966 0.018578418 -0.085806236
-0.040520657 -0.06222461 0.022136915 0.066515535 -0.07719729 0.086595625 0.09073479 0.06353155
-0.065256305 -0.040920705 0.063505754 -0.004243719 -0.009540761 -0.0004884281 -0.0963478 0.056482065
-0.094291 0.051972374 -0.010596111 -0.053745527 0.1494058 0.08412142 -0.09032075 -0.08945219
-0.072583176 -0.051161196 0.007775914 0.024692895 -0.0074068033 0.015696548 0.06290599 0.02924198
-0.009827394 -0.023080576 -0.038373277 0.063446656 0.005906848 -0.03431055 -0.14034972 0.10618591
-0.0031645736 -0.008339828 -0.033783477 0.028001126 -0.0017141065 -0.01984564 -0.044590775 0.06952524
0.060810618 -0.099545114 -0.06690253 -0.09278151 -0.06936388 -0.03799964 -0.11290833 0.09022446
0.037406925 0.0022209059 0.0804597 0.01983673 -0.15627314 -0.10784802 0.05021191 -0.06810921
0.0667486 -0.13704476 0.05087898 -0.046014022 -0.10879345 -0.115810804 -0.06918533 0.0439944
-0.088391125 -0.09649842 -0.07363085 0.020755736 0.008865861 -0.16525428 -0.08829358 0.0075916923
-0.038330168 -0.13660327 -0.19661793 0.025925847 0.038429044 -0.03205801 -0.0072221905 0.021998081
0.041175798 0.028721048 -0.07589744 -0.09083069 -0.17401044 -0.025560584 -0.004473479 -0.09464373
-0.081629485 -0.038542584 -0.021367596 0.02674854 0.020208811 0.09420577 -0.11310668 -0.043864775
-0.08062657 -0.038593214 0.055520672 -0.098935306 0.06540483 -0.09477396 -0.0819548 -0.0061845817
0.0061774356 -0.12919408 -0.08813848 -0.099520594 -0.014542959 -0.04504469 0.0790662 -0.10110432
-0.10724806 -0.03329673 0.08892341 0.07931029 0.04157571 -0.00079482346 -0.122111745 0.058513943
-0.09052734 0.054955475 -0.032281857 0.03999523 -0.0019732353 0.0109202685 -0.024582205 -0.012782975
0.046457645 -0.10749891 0.07347843 0.05751082 0.070405476 -0.02684248 -0.07988205 -0.100900695
-0.108420104 0.019592332 -0.10207697 -0.026183987 -0.10001335 0.08293079 0.069695406 0.029607134
-0.07175487 -0.07748703 -0.13211182 0.0628061 -0.0419712 -0.06504686 -0.09426825 -0.09480108
-0.004189882 -0.01375768 -0.002275639 -0.06131152 0.018721823 -0.012414995 0.01995006 0.007203115
0.015286009 -0.07483145 -0.0069166278 -0.029150747 -0.06895954 -0.051848836 -0.17869394 -0.04824921
0.068687044 -0.054170802 0.011693991 0.009239993 -0.059235565 -0.011964953 0.074023545 0.04038486
0.051144514 -0.03302349 -0.02638205 -0.061081763 -0.027978746 -0.041751795 -0.07000726 0.09676249
0.03778615 0.04215198 -0.09863895 0.023664093 0.09386621 -0.023619499 -0.0043596067 -0.10320569
0.052192662 0.04697908 -0.07213 0.09831009 0.070636794 0.06421696 0.016058668 -0.10374393
0.019983388 -0.041749846 0.005160111 -0.074343204 -0.04893918 0.05004264 0.042395733 -0.021189012
-0.10840868 -0.016235255 -0.09935475 -0.10459337 -0.08231911 0.06851904 -0.06303493 0.0708316
0.026705068 -0.07743143 -0.045760766 0.0029880689 -0.051903095 0.0142020285 -0.023334177 -0.08620253
-0.020965526 0.02290976 0.019571243 0.10206982 -0.09772826 0.09526053 -0.062348895 0.010533638
0.035259966 0.011448146 0.077638745 0.02015816 0.066180214 0.09790627 0.040889245 -0.07255032
00000000: 54cf dd3d 1f8c c9bd 74f4 39bd 904d 873c
00000010: f1bd 5fbd d963 afbd c431 983c 2ebb afbd
00000020: fdf8 25bd 3cdf 7ebd 7a58 b53c 4c39 883d
00000030: 9d19 9ebd 0c59 b13d 29d3 b93d d41c 823d
00000040: 19a5 85bd 789c 27bd 4e0f 823d e50e 8bbb
00000050: da50 1cbc db09 00ba ff51 c5bd bd59 673d
00000060: a41b c1bd fce0 543d 509b 2dbc 4524 5cbd
00000070: d6fd 183e da47 ac3d 16fa b8bd b632 b7bd
00000080: 7da6 94bd 678e 51bd 18cd fe3b c148 ca3c
00000090: c5b4 f2bb 0c96 803c dbd4 803d e08c ef3c
000000a0: 1403 21bc 7a13 bdbc 4c2d 1dbd 52f0 813d
000000b0: 3b8e c13b 3889 0cbd d6b7 0fbe 0078 d93d
000000c0: bc64 4fbb c6a3 08bc 8b60 0abd 9e62 e53c
000000d0: dfab e0ba 5393 a2bc d1a4 36bd 4063 8e3d
000000e0: 8e14 793d 4fde cbbd 3204 89bd 3b04 bebd
000000f0: a60e 8ebd 83a5 1bbd 7c3c e7bd 9ac7 b83d
00000100: 0138 193d 9e8c 113b 0ec8 a43d a380 a23c
00000110: 1106 20be 6cdf dcbd 01ab 4d3d d77c 8bbd
00000120: 7db3 883d 7655 0cbe 7a66 503d 3379 3cbd
00000130: 1acf debd 372e edbd 0ab1 8dbd 7933 343d
00000140: 6806 b5bd f7a0 c5bd c5cb 96bd ef07 aa3c
00000150: 1e42 113c 6b38 29be 44d3 b4bd bbc3 f83b
00000160: 1800 1dbd bae1 0bbe 3656 49be 7162 d43c
00000170: c667 1d3d 434f 03bd 20a8 ecbb 5235 b43c
00000180: f4a7 283d 6748 eb3c 1e70 9bbd 7105 babd
00000190: cb2f 32be 6e64 d1bc 4396 92bb 92d4 c1bd
000001a0: 5c2d a7bd d4de 1dbd 190b afbc c11f db3c
000001b0: f38c a53c f4ee c03d 7aa4 e7bd 8dab 33bd
000001c0: 8b1f a5bd eb13 1ebd a569 633d 989e cabd
000001d0: f8f2 853d da18 c2bd ebd7 a7bd 08a8 cabb
000001e0: 166c ca3b 744b 04be f381 b4bd 74d1 cbbd
000001f0: 9745 6ebc c880 38bd 76ed a13d c80f cfbd
00000200: dfa4 dbbd 2762 08bd 7a1d b63d 6f6d a23d
00000210: 4b4b 2a3d b35b 50ba b915 fabd 51ac 6f3d
00000220: 6666 b9bd fe18 613d fb39 04bd 0ad2 233d
00000230: 6551 01bb edea 323c 9f60 c9bc af6f 51bc
00000240: 5f4a 3e3d 6328 dcbd dc7b 963d 7790 6b3d
00000250: bf30 903d c3e4 dbbc 3399 a3bd 06a5 cebd
00000260: 5c0b debd 1980 a03c bb0d d1bd cd7f d6bc
00000270: cdd3 ccbd 9ed7 a93d 77bc 8e3d a98a f23c
00000280: 38f4 92bd 85b1 9ebd 5248 07be 7ca0 803d
00000290: fee9 2bbd 4a37 85bd b60f c1bd 1227 c2bd
000002a0: 474b 89bb e467 61bc e322 15bb ca21 7bbd
000002b0: 825e 993c 4368 4bbc 4f6e a33c 1c08 ec3b
000002c0: 2b72 7a3c 3b41 99bd e1a4 e2bb 8ccd eebc
000002d0: a93a 8dbd 725f 54bd 8bfb 36be f7a0 45bd
000002e0: cbab 8c3d 34e2 5dbd 2798 3f3c 5763 173c
000002f0: fea0 72bd a608 44bc a899 973d 986a 253d
00000300: e97c 513d a443 07bd 2b1f d8bc df30 7abd
00000310: af33 e5bc ee03 2bbd f75f 8fbd 6a2b c63d
00000320: a6c5 1a3d 8ea7 2c3d 3803 cabd 33db c13c
00000330: ed3c c03d ae7d c1bc 08db 8ebb 815d d3bd
00000340: f9c7 553d 236d 403d e5b8 93bd cd56 c93d
00000350: 06aa 903d 2e84 833d 788d 833c b377 d4bd
00000360: 34b4 a33c e301 2bbd 2616 a93b 4041 98bd
00000370: 7374 48bd 83f9 4c3d 26a7 2d3d 9494 adbc
00000380: 5f05 debd ccff 84bc 817a cbbd 0c35 d6bd
00000390: ec96 a8bd b653 8c3d 7518 81bd 2810 913d
000003a0: 96c4 da3c 5f94 9ebd a46f 3bbd 7ad3 433b
000003b0: 5798 54bd a0af 683c 5127 bfbc f48a b0bd
000003c0: e5bf abbc 40ad bb3c df53 a03c fb09 d13d
000003d0: c125 c8bd f417 c33d 8e61 7fbd 4895 2c3c
000003e0: c16c 103d 0191 3b3c 1001 9f3d ba22 a53c
000003f0: 7e89 873d 1583 c83d 7b7b 273d 4395 94bd

bias f4 [64]
0.06199682 0.14224678 0.09015675 0.02060947 0.087141864 -0.035855837 -0.08058194 0.0046950793
0.0020699066 -0.08023889 -0.048735514 0.022343444 0.24518503 -0.08724887 -0.013090105 -0.046698537
0.33909124 0.38565466 0.028831117 0.07103974 0.003278556 0.069906585 -0.09783489 -0.11275562
-0.09239559 -0.078624435 -0.0681908 -0.040584967 -0.02015796 0.13584061 -0.060321394 0.29877004
0.07520435 -0.13321912 -0.079922795 -0.07108351 -0.0236307 0.07844942 -0.1229166 -0.008849188
-0.11183654 -0.029618248 0.14577371 -0.11436939 -0.0701556 0.049627956 -0.05854557 0.22562502
-0.11703261 -0.023218097 -0.060285993 -0.002719599 -0.15715925 -0.04578586 -0.081413746 0.32433334
0.20144722 0.24173354 -0.040196527 0.25113335 -0.07219281 0.052678026 -0.039279316 0.016113164
00000000: 61f0 7d3d 24a9 113e 1aa4 b83d 31d5 a83c
00000010: 6f77 b23d 92dd 12bd 2508 a5bd 2ed9 993b
00000020: 45a7 073b 4a54 a4bd e49e 47bd 9909 b73c
00000030: c911 7b3e 89af b2bd e177 56bc f746 3fbd
00000040: 5e9d ad3e 8774 c53e 3c2f ec3c 497d 913d
00000050: 0bdd 563b 2f2b 8f3d a95d c8bd 6bec e6bd
00000060: e639 bdbd d905 a1bd 9ea7 8bbd 6c3c 26bd
00000070: 4e22 a5bc cd19 0b3e 9113 77bd 63f8 983e
00000080: bd04 9a3d 986a 08be 90ae a3bd 3b94 91bd
00000090: 2b95 c1bc 17aa a03d b3bb fbbd 2ffc 10bc
000000a0: 8e0a e5bd f8a1 f2bc b445 153e 803a eabd
000000b0: bdad 8fbd af46 4b3d 7bcd 6fbd 3f0a 673e
000000c0: cbae efbd e133 bebc 72ee 76bd 4d3b 32bb
000000d0: 5bee 20be f489 3bbd 40bc a6bd 050f a63e
000000e0: 2e48 4e3e ff88 773e 1da5 24bd 8d94 803e
000000f0: d3d9 93bd eac4 573d 59e3 20bd c1ff 833c

weight f4 [64, 64]
-0.01331459 -0.010555106 0.02742249 0.05469381 0.004957271 -0.06526634 0.10933903 -0.09742622
-0.01923666 -0.01881512 0.06925936 0.03973346 0.013560516 -0.023966655 -0.08175842 0.06639559
0.09958133 0.05993463 0.09002434 0.0068968446 -0.09036142 0.06276841 -0.0937161 -0.038042706
-0.028331144 -0.07485078 0.0035616013 0.06961912 -0.03754129 0.01758271 0.0148286745 -0.06253598
-0.07855079 -0.04367212 0.060222723 -0.104863204 -0.014229066 -0.04130682 -0.0012367426 0.06859191
-0.069277585 -0.021478672 -0.11258808 0.020051884 0.102209926 0.04788844 -0.055956665 0.09617238
-0.084950425 -0.034350663 -0.013911447 0.05872743 -0.016615776 0.057544373 -0.120889865 -0.096780986
-0.08534022 -0.05433908 -0.041708678 0.011208537 0.058742367 -0.10918159 0.038447794 0.0008570922
0.04966597 -0.08025482 0.0030322007 -0.037140697 0.009487419 0.07548161 -0.0808139 0.030013125
0.065890335 0.08494962 0.055008963 0.038143285 -0.083835155 -0.040881537 0.08409201 0.089556135
-0.043455053 -0.0787025 0.032055084 -0.041679807 0.09708168 0.087070994 -0.003969174 0.032223403
0.1003579 -0.0839582 -0.027294522 0.056382086 0.08807767 -0.06357617 0.05690964 0.010312235
-0.01608047 -0.053695917 0.03945542 0.108104765 0.06901089 -0.15608019 -0.033640783 0.056965917
0.06823246 -0.100906625 0.058365166 0.032567196 0.0250946 0.10730546 -0.040553384 0.027518425
0.013719349 -0.0039504846 0.03804629 0.086188324 0.008096344 -0.11249119 -0.13229513 -0.08021142
-0.042265363 0.046420734 0.065870576 0.07575528 0.054164644 0.08305087 0.07339478 0.020109667
-0.016183034 -0.09852743 -0.032110896 -0.03268927 0.052009232 0.073281534 -0.0010652298 -0.07558296
-0.04230718 -0.08016505 -0.095973276 -0.060977187 0.030251235 -0.01386084 -0.030411044 -0.04021745
-0.016081056 0.07890805 0.042092726 0.05508669 -0.057163224 0.10412404 -0.060752645 -0.083365746
0.03584506 0.046953782 -0.1285255 -0.02185517 -0.029071249 -0.04098266 0.0062427786 -0.038093954
0.0999476 -0.11658497 -0.11461724 -0.0871656 0.07343919 -0.07947476 -0.22270013 -0.09956415
0.045221638 0.08232603 0.0861447 -0.092441075 0.027723396 0.04533025 -0.10643165 0.078574635
-0.13709736 -0.09314304 0.052022073 -0.030745165 -0.06487376 -0.09799617 0.09095332 0.061412565
-0.10631275 -0.008856632 -0.044175494 0.04609495 0.054739174 0.00096476445 0.009438683 0.09478299
0.06221199 0.07778415 0.0025864118 -0.0440792 -0.025241701 -0.07896839 -0.045504827 -0.06068634
-0.04801316 0.073627554 0.06409134 -0.023991892 -0.10918601 -0.08036176 0.050927997 -0.014552472
-0.10805191 0.021715676 0.023702653 0.06181417 0.04063318 0.071133606 -0.011149723 0.10718875
-0.093667194 0.08622534 -0.10971272 0.10507538 -0.017466044 -0.07712179 0.06253351 0.010586749
0.06986293 0.07680483 -0.028290017 -0.02684559 -0.0731592 -0.10254024 -0.0022333658 0.083687976
0.008727106 -0.018970242 0.10529421 0.06648875 -0.053184558 -0.02058358 -0.040910937 -0.0384424
0.08248462 0.021450128 0.047979124 0.048004758 0.09248324 -0.07800085 -0.0057765557 0.071566746
-0.06689857 -0.07827963 -0.04920026 -0.008255006 0.06420552 -0.07730626 0.036335386 0.06228498
00000000: 7025 5abc 53ef 2cbc 21a5 e03c 9e06 603d
00000010: 9a70 a23b 5caa 85bd 24ed df3d 6687 c7bd
00000020: 3396 9dbc 2b22 9abc dad7 8d3d 8dbf 223d
00000030: ed2c 5e3c b855 c4bc f570 a7bd 69fa 873d
00000040: 4cf1 cb3d 047e 753d ae5e b83d edfe e13b
00000050: 680f b9bd b98c 803d 3aee bfbd abd2 1bbd
00000060: b716 e8bc 5e4b 99bd c169 693b 7894 8e3d
00000070: e5c4 19bd 9e09 903c f8f3 723c dd12 80bd
00000080: 3ddf a0bd 89e1 32bd 1aac 763d 85c2 d6bd
00000090: 0721 69bc 5731 29bd 321a a2ba ea79 8c3d
000000a0: 68e1 8dbd 0af4 afbc 9494 e6bd d943 a43c
000000b0: 7053 d13d ab26 443d d132 65bd 06f6 c43d
000000c0: 7dfa adbd 48b3 0cbd d6ec 63bc 2c8c 703d
000000d0: cf1d 88bc a6b3 6b3d 1b95 f7bd 1c35 c6bd
000000e0: dac6 aebd a892 5ebd b8d6 2abd 03a4 373c
000000f0: d69b 703d 999a dfbd 6f7b 1d3d 7cae 603a
00000100: 8b6e 4b3d a45c a4bd e3b7 463b d820 18bd
00000110: 1f71 1b3c 1a96 9a3d c281 a5bd 16de f53c
00000120: 83f1 863d 11fa ad3d 1451 613d 223c 1c3d
00000130: c4b1 abbd 6673 27bd 6f38 ac3d 3569 b73d
00000140: edfd 31bd c72e a1bd 314c 033d 72b8 2abd
00000150: c3d2 c63d 4752 b23d d80f 82bb b0fc 033d
00000160: 7188 cd3d 47f2 abbd c398 dfbc e7f0 663d
00000170: 1162 b43d 3934 82bd 151a 693d a6f4 283c
00000180: 31bb 83bc 40f0 5bbd 029c 213d 0866 dd3d
00000190: 9555 8d3d 7cd3 1fbe ebca 09bd 1855 693d
000001a0: 76bd 8b3d 22a8 cebd 5010 6f3d 2e65 053d
000001b0: 3193 cd3c f7c2 db3d 4e1b 26bd 526e e13c
000001c0: 1fc7 603c 1173 81bb 6dd6 1b3d 8183 b03d
000001d0: 87a6 043c c861 e6bd 6078 07be e345 a4bd
000001e0: 721e 2dbd ab23 3e3d 27e7 863d 9625 9b3d
000001f0: bfdb 5d3d 9316 aa3d 0150 963d 07bd a43c
00000200: 4892 84bc c0c8 c9bd b786 03bd 2fe5 05bd
00000210: a207 553d a114 963d 2e9f 8bba 3dcb 9abd
00000220: 4b4a 2dbd 932d a4bd a38d c4bd 37c3 79bd
00000230: 70d1 f73c 9418 63bc 9520 f9bc 0ebb 24bd
00000240: 6bbc 83bc 8b9a a13d 6c69 2c3d 95a2 613d
00000250: fc23 6abd fc3e d53d c4d7 78bd a9bb aabd
00000260: 45d2 123d 9c52 403d 309c 03be 9d09 b3bc
00000270: d426 eebc 6fdd 27bd 3990 cc3b 6808 1cbd
00000280: 54b1 cc3d 1ac4 eebd 72bc eabd e183 b2bd
00000290: 4967 963d aac3 a2bd 810b 64be 4ae8 cbbd
000002a0: 533a 393d 8d9a a83d a26c b03d bf51 bdbd
000002b0: 2d1c e33c 36ac 393d d6f8 d9bd bdeb a03d
000002c0: 4063 0cbe c7c1 bebd 1915 553d 49dd fbbc
000002d0: 89dc 84bd 37b2 c8bd bc45 ba3d be8b 7b3d
000002e0: 80ba d9bd 681b 11bc 5df1 34bd 0fce 3c3d
000002f0: 2f36 603d 3fe8 7c3a b5a4 1a3c 961d c23d
00000300: 00d2 7e3d 4c4d 9f3d ca80 293b 648c 34bd
00000310: afc7 cebc 2eba a1bd 4563 3abd 3d92 78bd
00000320: 72a9 44bd 0bca 963d 5242 833d a58a c4bc
00000330: ea9c dfbd b594 a4bd e099 503d 7e6d 6ebc
00000340: 524a ddbd 13e5 b13c 112c c23c db30 7d3d
00000350: fa6e 263d 7fae 913d 54ad 36bc c685 db3d
00000360: 96d4 bfbd e996 b03d 10b1 e0bd c331 d73d
00000370: f314 8fbc 07f2 9dbd 9211 803d 0b74 2d3c
00000380: 4c14 8f3d da4b 9d3d 77c0 e7bc 48eb dbbc
00000390: 7ed4 95bd 9e00 d2bd a95d 12bb 9a64 ab3d
000003a0: 23fc 0e3c 7b67 9bbc 7ea4 d73d 412b 883d
000003b0: 0dd8 59bd e59e a8bc 3a92 27bd c775 1dbd
000003c0: b2ed a83d 2eb8 af3c c285 443d a3a0 443d
000003d0: da67 bd3d e9be 9fbd 4349 bdbb 9691 923d
000003e0: 1e02 89bd 1251 a0bd 3686 49bd 0140 07bc
000003f0: 2f7e 833d bf52 9ebd 6ad4 143d 891e 7f3d

bias f4 [64]
0.0236723 -0.087833315 0.3724749 -0.08617054 0.14601372 -0.12169762 0.15003048 -0.11592314
-0.1178783 -0.029843578 0.17684796 -0.114823036 -0.16565783 0.6489461 0.352579 0.43132368
-0.04669094 -0.100343436 -0.102981016 0.16456036 -0.06891951 0.061495923 -0.07249386 0.54475063
0.038514033 -0.1189373 0.18785748 -0.09611328 0.2583359 0.2126298 0.41652676 -0.089218594
0.06625965 -0.16001466 0.50657815 -0.031523537 0.0323304 0.22298637 -0.098151565 0.13608767
0.22360979 0.00839289 0.058512017 0.08892705 -0.023815986 0.029394893 -0.121521786 0.0601699
0.45723793 -0.011315529 -0.010209908 -0.12550035 0.9164279 0.31157506 0.0050642146 0.5773135
-0.10056277 -0.013869463 0.33855465 0.23826136 -0.05818368 0.033552192 0.09161426 -0.016203243
00000000: 69ec c13c f4e1 b3bd 08b5 be3e 2e7a b0bd
00000010: 9f84 153e 9a3c f9bd 97a1 193e 1c69 edbd
00000020: 2e6a f1bd 857a f4bc a217 353e 5728 ebbd
00000030: 35a2 29be 5521 263f 3c85 b43e 75d6 dc3e
00000040: 003f 3fbd dc80 cdbd b6e7 d2bd 8382 283e
00000050: ac25 8dbd 26e3 7b3d a977 94bd c774 0b3f
00000060: e4c0 1d3d 6695 f3bd b65d 403e 0ad7 c4bd
00000070: 9a44 843e a0bb 593e ff42 d53e 3db8 b6bd
00000080: 24b3 873d e2da 23be 1baf 013f d31e 01bd
00000090: e26c 043d 8a56 643e b003 c9bd 915a 0b3e
000000a0: f7f9 643e 5582 093c 4caa 6f3d 631f b63d
000000b0: be19 c3bc 8fcd f03c 6ae0 f8bd b774 763d
000000c0: 171b ea3e c564 39bc 7547 27bc 2a83 00be
000000d0: 059b 6a3f c486 9f3e b6f1 a53b d1ca 133f
000000e0: dbf3 cdbd be3c 63bc 0957 ad3e c9fa 733e
000000f0: 0352 6ebd 066e 093d 42a0 bb3d aabc 84bc

weight f4 [1, 64]
0.0012584954 -0.030122753 0.3005782 -0.018453581 0.11463344 -0.06814964 0.12170821 -0.11143132
-0.059709977 0.034196194 0.1382532 0.3566758 0.09836852 0.49156588 0.26967445 0.34075642
-0.012221852 0.09771748 -0.08391771 0.09994016 0.09545125 -0.0105396025 0.059635922 0.42977288
0.050734192 -0.13085642 0.13413683 0.03177671 0.2394626 0.15587112 0.28210846 0.02521002
0.015403337 0.54379743 0.37105364 -0.037123274 -0.003172015 0.17243348 -0.0044726105 0.103513084
0.13967489 -0.08370333 0.0028690884 0.086942576 -0.009260125 0.027856443 0.14665222 -0.0068228366
0.29970032 0.030761132 0.077625304 0.15066582 0.62234503 0.22813042 -0.01988189 0.45797658
0.15255097 -0.012075307 0.25863007 0.19725345 0.0012550936 -0.046991125 0.023615938 0.05278926
00000000: 19f4 a43a fec3 f6bc 63e5 993e f72b 97bc
00000010: f0c4 ea3d 0a92 8bbd 2742 f93d 1b36 e4bd
00000020: 7392 74bd 4f11 0c3d 3f92 0d3e 369e b63e
00000030: 6f75 c93d 86ae fb3e c512 8a3e a077 ae3e
00000040: 2a3e 48bc 1a20 c83d 0cdd abbd 6dad cc3d
00000050: f27b c33d 4cae 2cbc cc44 743d 310b dc3e
00000060: a8ce 4f3d 3aff 05be 2a5b 093e 4c28 023d
00000070: af35 753e ae9c 1f3e 8570 903e 3e85 ce3c
00000080: 475e 7c3c 4f36 0b3f befa bd3e 930e 18bd
00000090: 95e1 4fbb 6792 303e fa8e 92bb abfe d33d
000000a0: ef06 0f3e a76c abbd 5107 3c3b f30e b23d
000000b0: c8b7 17bc 3233 e43c 002c 163e 1a92 dfbb
000000c0: 5272 993e c5fe fb3c 04fa 9e3d 2448 1a3e
000000d0: 0152 1f3f 059b 693e 58df a2bc e87b ea3e
000000e0: 5236 1c3e 82d7 45bc 296b 843e cffc 493e
000000f0: f481 a43a c479 40bd 3676 c13c 8d39 583d
