mlartifacts/554351476986166068/4b0692eee1af4f859786ff61e8ae6977/artifacts/models/Model_dim64_layers5_experiment/r2_score0.3758929578442969_run10/data/model.pth (torch, 294728 bytes, 13 tensors)

weight f4 [64, 801]
000000 2a 82 52 3a 61 ee 12 bd 3a 95 b2 3c be 28 3c 3d
       0.000803026 -0.035871867 0.021799672 0.045937292
000010 9e bb 9b ba 7e 08 ed bc bb 07 a2 3c e7 85 da 3c
       -0.0011881476 -0.028934713 0.019779077 0.026675178
000020 1a 10 d2 3c e9 5b 00 3c da de 90 3c e9 35 a4 3c
       0.025642443 0.007834413 0.017684389 0.020045238
000030 3d 28 8b 3c d2 f2 e8 bc 78 90 07 bd b2 3d 73 bc
       0.01698696 -0.028436098 -0.03309676 -0.014846252
000040 9b 84 9f bc 49 11 00 bd 39 20 0b bd 3d 63 00 bd
       -0.01947241 -0.031266484 -0.033966277 -0.03134464
000050 d6 eb b8 b9 44 b6 00 bd 97 f5 3d 3b 88 3e 02 3c
       -0.00035270926 -0.031423822 0.0028985494 0.007949479
000060 65 2a 0a 3d a3 ac ac 3c a0 80 2a 3d f0 1e b5 3c
       0.033731837 0.021078413 0.041626573 0.022109479
000070 d4 1f 59 bc 4e bd 05 3d cc 57 01 bd 45 08 10 3d
       -0.013252217 0.03265124 -0.03157787 0.035164136
000080 dc c5 31 bc 65 c4 a4 3c 9a 8b 23 bc e5 ed 0b 3d
       -0.010850396 0.02011318 -0.009982014 0.03416242
000090 7f 37 b2 bc 47 34 af ba de 7b e1 bc 38 bd 18 ba
       -0.021754978 -0.001336702 -0.027524885 -0.00058265356
0000a0 fa e6 36 3d fd f1 f0 3b ee e0 37 bd 17 d9 70 3c
       0.04465387 0.007353066 -0.044892244 0.014700196
0000b0 c9 1d 49 3d a5 bf d4 3c 1e b5 02 3d e4 87 1f bd
       0.04910067 0.02597029 0.031911008 -0.038947955
0000c0 f1 0a 4b bd 17 4d 6b bd 04 9f 3f 3d 27 9f 2c bd
       -0.04957098 -0.057446565 0.04678251 -0.042143967
0000d0 55 35 7e bc 46 3f be bb df 33 0f bc e6 7f 37 3d
       -0.015515645 -0.0058058826 -0.008740394 0.044799708
0000e0 81 a5 96 bc a9 20 1a 3d d7 43 0c 3d 88 f0 8a b8
       -0.018389465 0.037628803 0.034244385 -6.625155e-05
0000f0 a9 54 16 bd e2 c6 fc 39 7b e3 88 3c 2d 45 3a 3d
       -0.036701832 0.00048213365 0.016710034 0.045476127
000100 9d da 9a bc fb 3a 48 3d 87 28 97 39 d1 6e 9d 3c
       -0.018903071 0.048884373 0.0002883116 0.01921788
000110 06 a2 0c 3c 3b c6 34 bb f1 6f 02 bc ac 5b bb bc
       0.008583551 -0.0027583975 -0.007961259 -0.022870861
000120 e4 cc 93 bc 97 d9 09 bc 68 06 85 bc 2b 86 ba bc
       -0.018042035 -0.008413694 -0.016238406 -0.022769054
000130 39 47 f6 bc 51 62 8d 3c 7c 87 45 bd 63 2e 85 3d
       -0.030063258 0.017258795 -0.04822491 0.06502988
000140 a4 b6 f7 3c b1 11 da 3c 3c cf 04 3d d8 bf cd bc
       0.030238457 0.026619764 0.032424197 -0.025115892
000150 99 01 99 3c bd db e8 3c d4 c4 a5 bd 28 5d a3 bc
       0.01867752 0.028425092 -0.080941826 -0.019941881
000160 23 f0 ef bc 98 30 2d bc 4b ac a8 bc 92 79 07 3d
       -0.02928931 -0.010570668 -0.020589968 0.033074923
000170 a0 7c 2c bc bb d0 5e bd 58 49 0c 3d 9a bc 8f bc
       -0.01052776 -0.05439828 0.034249634 -0.017545987
000180 ef f6 57 bd c6 c5 2d bc 80 f3 98 bc 18 75 f2 3c
       -0.05272573 -0.010606235 -0.018670797 0.02959685
000190 53 82 17 bb 38 81 84 bc b6 7d 16 ba dd 45 a0 bb
       -0.002311845 -0.016174898 -0.0005740778 -0.004891141
0001a0 6c 31 2f bc bc 82 95 bd b4 8d 81 3d 27 55 8a bd
       -0.010692935 -0.07300326 0.06325856 -0.06754523
0001b0 74 94 ec bc 0a c6 01 bc 11 37 b3 bc ac b9 3a 3c
       -0.028879382 -0.007920751 -0.021876844 0.011396807
0001c0 dc db b1 bc 06 7d 9f 3c 61 57 11 bc 2e 11 24 3d
       -0.021711282 0.019468796 -0.00887093 0.040055446
0001d0 5f 7f 62 bc af 2e f0 bb 86 5b 15 bd 1b 45 5b bc
       -0.013824313 -0.007329784 -0.036464237 -0.013383175
0001e0 fa a9 39 3c bd 31 9a bc dc a6 7e bd f4 6e 57 3d
       0.0113320295 -0.018822545 -0.06217085 0.052596048
0001f0 1a fc 24 bd 9a 66 1f 3c 75 2f 20 ba 3c b5 d1 3c
       -0.040279485 0.009729052 -0.0006110587 0.025599115
000200 1c fb 1f bc 46 b1 b5 ba 84 49 a0 3a 94 3d 0c 3d
       -0.009764459 -0.0013862036 0.0012228941 0.034238413
000210 bb 6f bf 3c 47 5a 45 bc 27 82 f6 bc e0 18 98 3c
       0.023368707 -0.01204545 -0.030091358 0.018566549
000220 fb 0b 9d bc 68 75 19 bd ec 0c 9a 3c 50 1c be bc
       -0.019170752 -0.037465483 0.01880499 -0.02320686
000230 44 1f f2 bb 8b 6e ea 3c be c1 dc bc 42 61 10 bd
       -0.007388981 0.028617164 -0.026947852 -0.035249002
000240 12 ef a9 bc 29 19 59 3c 55 17 11 bd 3a 35 f1 bc
       -0.02074388 0.013250628 -0.03542264 -0.029444326
000250 18 07 08 bb 61 76 35 3d 9a 70 cc 3c 58 36 ac bc
       -0.0020756181 0.044302348 0.024956036 -0.021022007
000260 c3 75 94 3c 33 6c 9c bc 73 a7 b8 bb eb 34 4e bc
       0.01812256 -0.019094562 -0.005635196 -0.012585859
000270 fe 13 56 bd 1a 91 30 3c e3 b8 a3 3c 6b 09 ee bc
       -0.05226516 0.010776782 0.019985622 -0.029057225
000280 cb be 15 bd c3 05 d9 bc 25 28 0b 3c a9 c0 bd 3b
       -0.036558907 -0.026492005 0.008493458 0.005790789
000290 b3 63 b7 3c 26 96 91 bd b4 13 5a 3c 4f 53 61 3d
       0.022386407 -0.07108717 0.013310362 0.05501109
0002a0 5d 3a df bc 48 ec 5f bd 0b b4 fc 3c f9 62 bf 3c
       -0.02724951 -0.054668695 0.03084757 0.023362624
0002b0 53 26 26 3d 79 aa 58 bc cb a5 46 ba 31 a3 11 3b
       0.040563893 -0.013224238 -0.00075778057 0.0022222514
0002c0 6c ee 3b bc c0 86 0b bc 2f 57 2b 3d 82 d9 d8 bc
       -0.011470418 -0.008516014 0.04183119 -0.026470903
0002d0 d4 0e 4e bd 20 d4 d9 bc 64 be e8 3c 6d cf 22 bc
       -0.05030711 -0.026590407 0.028411098 -0.0099371495
0002e0 d1 76 02 bd 08 c4 41 3c a4 7f df ba 52 29 16 3b
       -0.031851593 0.011826523 -0.001705159 0.0022912812
0002f0 cc cb bc bb dd 3a c4 bb 20 ce 0f 3d b2 73 83 ba
       -0.005761599 -0.0059884624 0.035108685 -0.0010028987
000300 76 44 74 bc 66 0e 3f 3d ce 7a 2e 3d 28 b4 1c 3b
       -0.0149089005 0.04664459 0.042597584 0.0023911092
000310 a0 1a 58 bd 73 57 f2 bc fa 99 2e bc 2c fd 94 3c
       -0.052759767 -0.029582715 -0.010656828 0.018187128
000320 fe 53 be 3c 14 2b 9c 3b de cd a2 3d 28 df 2b bb
       0.02323341 0.0047658775 0.07949422 -0.002622554
000330 14 5f 56 bd f6 43 27 bc 30 e4 e9 3c cb 51 4b bc
       -0.052336767 -0.010209074 0.028551191 -0.012409638
000340 fa ed 92 3c 9e b2 73 bc 5c db cd 3c 6d 7f a2 3b
       0.017935742 -0.014874129 0.025129013 0.004959038
000350 99 f0 01 bd 83 98 7b bd c0 dd f1 3b 71 d2 8d 3d
       -0.031723592 -0.061424743 0.007381171 0.06924904
000360 e5 ca 57 3d eb f7 3f 3d ad 00 ca 3c d0 9c 94 3d
       0.05268373 0.046867292 0.024658525 0.07256472
000370 3f a1 33 3d 7b 06 f7 3b e0 b2 e3 3b c4 11 69 bd
       0.043854948 0.0075386143 0.006948814 -0.05690171
000380 ca 51 b3 bc aa b0 8e 3c ae 53 56 bd d4 65 7f 3c
       -0.021889586 0.017418224 -0.052325897 0.015588243
000390 42 63 2b 3c 28 ca 3e bd ab 61 19 3c e9 04 0a bd
       0.010460677 -0.04657951 0.009361665 -0.03369609
0003a0 2c 76 bd 3b 7a ab 8c bc e2 a1 e7 3c f0 27 d1 3c
       0.0057819095 -0.01717161 0.028275434 0.025531739
0003b0 12 af 5e 3d fb a5 13 b9 4d e6 92 bc 68 6c e4 3a
       0.05436618 -0.00014080845 -0.017932082 0.0017427327
0003c0 b1 87 c3 3c 4b 09 c8 3c 5c 1d 7f 3c 58 99 28 3c
       0.023868414 0.024418494 0.015570965 0.010290466
0003d0 11 5e 50 bd d5 8a 23 bd f1 fe 91 b9 aa 9b 42 3d
       -0.05087096 -0.039927322 -0.000278465 0.047511734
0003e0 2d 3d 45 bc 65 4a 1c bd 87 07 45 bc c0 03 f1 bc
       -0.012038511 -0.038156886 -0.01202572 -0.029420733
0003f0 cc ce 06 bd 7a dd 24 bb 64 74 93 bc ef e9 e6 bb
       -0.03291206 -0.0025156424 -0.017999835 -0.00704693

bias f4 [64]
000000 28 46 d9 bc 18 6f f7 3c 6c d0 a0 3b 6e 87 0d 3d
       -0.02652271 0.03020434 0.0049076583 0.034552984
000010 4d 28 3a bb b5 82 bd 3c 79 ac b1 bc 2e ae 3d bc
       -0.0028405369 0.023133615 -0.021688687 -0.011577172
000020 e9 15 bc 3c d9 0a 6a bc 30 21 0f 3c b3 b4 eb 3c
       0.022959666 -0.014284813 0.00873594 0.028772688
000030 3a 4a 6f bc 07 8f e6 3c e1 b9 2b 3d 18 ee 5f 3c
       -0.014605099 0.028144373 0.041925315 0.013667606
000040 81 a7 24 bd 5e 09 db 3b c3 b1 a3 bc 1c 1d 1b bd
       -0.040198807 0.0066844663 -0.019982224 -0.037869558
000050 78 38 03 bc ae f3 fd 3c 27 13 0b 3d f2 a8 02 3d
       -0.008009069 0.030999985 0.033953812 0.0318994
000060 48 4b 35 bc b9 3e 8a 3b 27 21 4c 3c 40 cb f5 bc
       -0.011065312 0.004218903 0.012459076 -0.030004144
000070 fc 0c 76 bc 7d a2 23 3d 9e 8a 5d bc c8 ca 13 3d
       -0.015017744 0.039949883 -0.013521818 0.03608206
000080 3d bd 01 3d 1a 51 65 3c 4c a1 15 3d a5 ab e6 bc
       0.031674612 0.013996387 0.036530778 -0.028158018
000090 c7 ba 8b 3c 20 65 f0 3c 64 a3 34 3c b4 cf c7 3c
       0.017056836 0.029345095 0.0110252835 0.024391033
0000a0 cf 0a ea 3c 9a e4 8c 3c fc b2 ce 3c 13 ea f7 3c
       0.028569607 0.01719885 0.02523183 0.030262982
0000b0 d2 d1 df bb ee 5e bf bb d3 2d aa bc f1 ab 80 bc
       -0.0068304325 -0.005840174 -0.020773804 -0.015706988
0000c0 ba 34 61 3b a3 7c 77 3b d6 6b 0a 3c 22 67 9c 3b
       0.0034363703 0.0037763498 0.008448562 0.0047730366
0000d0 f1 4e 43 bc 8a 95 c3 3c 8f a8 43 3d b4 e2 9e bb
       -0.011920677 0.023875017 0.047768172 -0.0048488025
0000e0 21 d7 0f 3d fc 10 1d 3d 6e 71 11 3c 9c 2e ee bb
       0.035117272 0.038346276 0.008877141 -0.00726874
0000f0 8b 7d ed 3c 33 6f d8 3b 93 41 7b 3d 2a f9 cc 3c
       0.028990528 0.006605053 0.061341833 0.025021154

weight f4 [64, 64]
000000 51 4d 53 bd dd d7 f6 3d a5 2c 2d 3e 88 4e 94 3d
       -0.051587407 0.120528914 0.16911562 0.07241541
000010 ff 99 13 3d 42 9a b0 3d bb 22 e3 bc a4 37 e4 bc
       0.036035534 0.08623172 -0.027726522 -0.027858563
000020 2e 2c 26 bd c3 1e ce bd 3d f8 cb 3d 56 4c 09 3e
       -0.040569477 -0.10064461 0.09959457 0.13408026
000030 40 c9 d1 3c c8 a3 8d bd cb 7b b9 3d 2c 78 34 3e
       0.025608659 -0.069160044 0.09056815 0.17623967
000040 57 46 97 3c 77 f0 48 3c fe 6e 3e ba f4 a4 c5 3d
       0.018466158 0.012264363 -0.0007264464 0.09650603
000050 87 a3 ff 3c a5 93 69 bd c5 8c e8 bd 13 75 d2 bd
       0.031205906 -0.05702557 -0.11354975 -0.102762364
000060 40 37 fc 3c 0a 5d 62 3c 59 b4 2d 3e dd ab bb bd
       0.030788064 0.013816128 0.16963328 -0.0916364
000070 59 03 b6 3d de d8 94 3d 0a 36 92 bd c2 eb ff 3d
       0.08887357 0.07267927 -0.071392134 0.12496139
000080 27 fa b6 3d 74 63 bb 3d c1 e8 58 3d c6 dd d2 bb
       0.089344315 0.091498286 0.052956346 -0.006435129
000090 2f 7b af 3d 81 82 2d bc 96 ed d9 bd f8 25 dc 3d
       0.08568417 -0.010590197 -0.10641019 0.107494295
0000a0 ca 36 34 be cd f7 39 bd 8f 05 25 3e b5 17 79 bb
       -0.17599025 -0.045402337 0.16115402 -0.0038008515
0000b0 ce cf 02 be 60 a2 a8 3d 8f 74 ef 3c 2c 47 02 bd
       -0.12774584 0.082340956 0.029230384 -0.031806156
0000c0 9a 27 b8 3d f6 1f c1 bd 3e 71 1b be 7f 2b e7 3d
       0.089919284 -0.09429924 -0.15179917 0.11287593
0000d0 28 38 da 3b fe 7a f2 bc 32 4e 44 3d 49 83 07 be
       0.0066595264 -0.029599663 0.047926135 -0.13233675
0000e0 b5 66 10 3e 13 a4 bf bd 80 3e e2 3c 25 a6 35 3e
       0.1410168 -0.093574665 0.027617693 0.1773916
0000f0 6d f9 59 3c 18 a6 e2 3d af c5 00 3e 0c 5b cb 3d
       0.013304097 0.11066836 0.1257541 0.09929475
000100 76 4f e8 bd 81 6c 1d 3d d8 8b 95 bd 11 c9 f7 bd
       -0.11343281 0.038433556 -0.07302064 -0.12098897
000110 cd 6c ed bc ed 5a 0b bd 69 9e 4b bd 75 cc 62 3d
       -0.028982544 -0.03402226 -0.04971162 0.055370767
000120 d5 34 01 bd af e8 fa bd c4 d3 87 bd f7 c8 bf bd
       -0.031544525 -0.12251412 -0.06632188 -0.09364503
000130 54 35 c6 bd ad 05 68 3d 80 5d 13 3c 94 06 da 3c
       -0.0967814 0.056646038 0.00899446 0.026614465
000140 1a 51 f6 bd 5a be 39 3d 3d fa 83 bc 50 7c 53 bc
       -0.12027188 0.04534755 -0.016110534 -0.012908056
000150 7a 3f 37 bd eb 9c c7 3d b3 e7 dd 3c 8e d2 2f 3a
       -0.04473827 0.097467266 0.027088022 0.00067070953
000160 e5 8b 38 bd 4f 90 fa bd 12 b3 c6 bd 67 7d 0e 3d
       -0.04505529 -0.12234556 -0.09702124 0.03478756
000170 6c 65 8f bd e7 92 d8 3a a4 1c 2f 3d 19 98 df bd
       -0.070017666 0.0016523272 0.042751923 -0.10917682
000180 8e 22 de bd dc c4 ab bd 1b 6e d5 3d fa 57 18 bc
       -0.108464345 -0.08387157 0.104213916 -0.009298319
000190 f6 0c 68 bd ab 32 b7 bd b4 7b 84 3b 18 14 c4 3d
       -0.056652986 -0.08945211 0.004043067 0.09574145
0001a0 4c 34 e9 bc 56 59 d8 3d 88 1d 93 3d 1e fb 6f bd
       -0.02846732 0.105639145 0.07183367 -0.058589093
0001b0 00 4b be 3d 2a f0 2c 3d c7 a5 f3 3c c6 b3 81 bd
       0.09291649 0.042221226 0.029742135 -0.06333117
0001c0 23 ba 45 bc 70 d2 be bc d6 ec 9e bd 91 a4 5a 3d
       -0.012068304 -0.023293704 -0.077600166 0.0533796
0001d0 41 4a cd 3b 21 2b 3f bd 71 ce 57 bd 7d 22 65 bd
       0.0062649553 -0.04667199 -0.052687112 -0.055941094
0001e0 ad f8 ea 3d 6e fb 1d 3d 40 35 fb 3d c2 9e c6 3d
       0.114732124 0.03856986 0.12266016 0.096982494
0001f0 e4 e6 9a bd f7 f2 d5 3c d9 49 f3 3d aa 7b 8f 3d
       -0.0756357 0.026116831 0.1187932 0.07006009
000200 37 33 03 3d 41 7f b6 3d ab b2 2b 3e 42 bb c5 3c
       0.032031264 0.089109905 0.16767375 0.024137143
000210 be b3 97 bd ca 92 c7 bd 5b b5 49 3d c3 d6 08 be
       -0.0740733 -0.09744795 0.04924522 -0.13363175
000220 23 e5 b8 3c 68 81 96 bd fe 2b 91 3d d3 46 23 3d
       0.022570198 -0.07348901 0.07088469 0.039862465
000230 68 41 c4 3d d3 8b e6 bd e7 06 12 3e 3a 35 0f 3e
       0.09582788 -0.11257138 0.14260446 0.13985148
000240 5d 38 8c bd 8a d5 d6 3d b3 e1 96 3d f4 01 64 3b
       -0.06846688 0.10489948 0.073672675 0.0034791203
000250 19 4a 02 be c6 7e b8 3d 38 82 e7 3d 8d 91 db bc
       -0.12723579 0.09008555 0.11304134 -0.026802802
000260 74 c8 5e bb 18 0a d5 3c 12 a9 e7 bd 08 84 a7 3d
       -0.003399399 0.02600579 -0.113115445 0.0817948
000270 00 c4 c0 bc 72 a6 a7 3d 16 19 85 bd 17 2d 04 3b
       -0.02353096 0.08186044 -0.064989254 0.0020168477
000280 9c 74 4c bd 06 c0 98 b8 ad 7e 09 bd ec 7e d5 3d
       -0.049915895 -7.283692e-05 -0.033568073 0.10424599
000290 c2 7f 80 bc d5 f0 15 bc 15 f3 a4 3d 1e eb a1 3d
       -0.01568592 -0.009151657 0.08054177 0.07906173
0002a0 f2 6d 31 3e 26 e4 64 3e 74 1e 56 bd a3 1f 0c bd
       0.17327097 0.22352657 -0.052275136 -0.03420986
0002b0 13 2f d7 3d 1b 9d ee bc 9b 71 70 bd 30 7c 55 3c
       0.105070256 -0.029127648 -0.058702093 0.013030097
0002c0 4a 16 1f bd e0 bd e8 bc 26 61 a0 3b a6 f3 6e 3d
       -0.038839616 -0.028410852 0.0048943935 0.05833783
0002d0 61 ad ad bd 08 4b 99 bc 88 29 a7 bd 1c 8a 15 be
       -0.08480335 -0.018712536 -0.08162218 -0.14603466
0002e0 42 d1 ae 3d 63 07 f8 3c 64 7b f4 bd d1 85 15 3e
       0.085360065 0.03027696 -0.119375974 0.14601828
0002f0 f3 35 a6 bd 77 53 02 bd 53 11 d5 3d f9 34 99 3d
       -0.08115759 -0.03181788 0.10403695 0.07480807
000300 14 0f f1 bd 68 c1 c7 bd c3 77 33 bd fa 9e 24 bc
       -0.11770454 -0.09753686 -0.043815386 -0.010047669
000310 68 b3 eb bd 08 19 62 bd 89 9f 9d 3b bb b4 c3 bc
       -0.115088284 -0.055199653 0.004810278 -0.02388989
000320 cf ad 9a 3d 07 f6 98 3d d8 5a ac bc f2 85 8e bd
       0.075526826 0.07468801 -0.021039411 -0.06959142
000330 ec 7e 79 3d dc 05 bc bd 37 12 d7 3c ab 22 b5 3b
       0.060912058 -0.09180805 0.026253803 0.0055278144
000340 98 86 b7 3d c0 30 83 3d 35 27 4f bc 24 48 86 bd
       0.089612186 0.06405783 -0.012643625 -0.065567285
000350 b2 77 c1 3c ec 67 d5 bd cd be 6b 3d e2 71 ca 3d
       0.023616645 -0.10420212 0.05755501 0.09885003
000360 33 a8 d7 bd 05 29 9a bd bd e3 8b 3d 8f a2 e6 bc
       -0.10530128 -0.07527355 0.06830547 -0.028153686
000370 42 96 ff bd cc 33 e3 bd 8e ad ec 3d 59 37 95 bd
       -0.12479831 -0.11093864 0.115565404 -0.07285947
000380 01 f8 ce bc 37 66 f4 bd 09 ab a2 bd dd 1d 4e 3d
       -0.025264742 -0.119335584 -0.079427786 0.05032145
000390 c1 77 94 bc 15 59 3b bd 89 26 b4 3d a4 1c 8f bd
       -0.01812351 -0.045739252 0.087964125 -0.06987885
0003a0 03 d8 c0 3d 80 0d fd 3a 1e fd df bd 5c 52 4e bd
       0.09416201 0.0019306391 -0.1093695 -0.050371513
0003b0 96 58 92 3d 84 56 0d bd fb f4 92 bd e5 a8 79 bc
       0.07145803 -0.034506336 -0.071756326 -0.0152380215
0003c0 14 ff 69 bc 38 57 a5 3d 32 6a c0 bc de 90 23 3d
       -0.014282007 0.08073276 -0.023488138 0.039933078
0003d0 10 5d 41 3c 4f 97 24 3c 5c c9 42 bd a4 c6 dc 3d
       0.011801973 0.01004584 -0.047555313 0.10780075
0003e0 69 ea 19 bc 21 e1 e2 bd 1a 16 94 3d f3 25 d9 3d
       -0.009394267 -0.11078096 0.07230778 0.10602941
0003f0 f8 3a 8c 3d 66 71 ae bd 43 a5 bd 3d 7c 14 f8 bd
       0.06847185 -0.08517723 0.09260037 -0.12113282

bias f4 [64]
000000 df 63 84 bd c2 d3 32 3c c1 98 ba bd 21 68 88 3d
       -0.064643614 0.010914745 -0.09111167 0.06660486
000010 e1 7e 7d bd 05 cf 95 bb 4b a9 0f 3e 0e 93 c8 bd
       -0.06188858 -0.004571798 0.14029424 -0.097936735
000020 12 14 8f 3d 11 7d b7 3b 8b bb f5 bc 42 52 fc 3b
       0.0698625 0.005599626 -0.029996654 0.0077002356
000030 08 4e 81 3d 8b 54 9b bd 82 47 fe 3d c1 22 8e 3c
       0.063137114 -0.07584485 0.12415983 0.017350556
000040 ef 26 2f bd b6 97 10 3e 06 42 f2 3c ff a4 99 3d
       -0.04276174 0.14120373 0.029572498 0.07502174
000050 2b 43 7e bd 57 3d 9a bd 0c ba 95 3d 6b 18 81 bd
       -0.062075775 -0.07531231 0.07310876 -0.063034855
000060 62 4c 4a bd 6f 96 e5 bc 31 7d b4 3b 81 79 f7 bd
       -0.04938925 -0.028025834 0.005508088 -0.12083722
000070 fa c0 7c 3c 04 b7 ba 3c 38 dc ec 3c e2 2c d2 3d
       0.015426869 0.022792347 0.028913602 0.10262467
000080 ff c8 80 3d 45 4b 91 3c fe 9a 0d 3d 7b a4 01 be
       0.06288337 0.017736087 0.03457164 -0.126604
000090 bf 92 4b bd cb 08 61 bd 5d dc 04 3e e8 25 9c 3c
       -0.049700495 -0.054940026 0.12974687 0.019061044
0000a0 a6 32 63 3d 78 d4 61 3d a1 65 67 bd 3d 8a 12 3e
       0.055468224 0.055134267 -0.056493405 0.14310546
0000b0 e6 4d 9d bc 6f cc a1 bd ee 4f c1 bd 8a ff 24 bc
       -0.019202184 -0.07900321 -0.094390735 -0.010070691
0000c0 fc 6b 97 bd 48 e9 ae 3d 77 bb 4b 3d 32 f5 25 bd
       -0.07393643 0.085405886 0.049739327 -0.04051704
0000d0 67 c6 22 bc f0 01 7e bd a2 10 e3 3d 26 c4 f2 3d
       -0.009934998 -0.062013566 0.11087157 0.118538186
0000e0 f1 6d 12 3e 02 9c b3 bd 28 1a 5a 3c f7 02 df bd
       0.14299752 -0.087699905 0.0133119 -0.108892374
0000f0 01 f1 20 bc fa c4 05 3e a6 b7 8b 3d f4 d4 75 3d
       -0.009823085 0.13063422 0.068221375 0.06001754

weight f4 [64, 64]
000000 3b 6a 01 be c1 9e a0 bd ac 20 c7 bc d4 50 d4 bd
       -0.1263818 -0.0784278 -0.024307571 -0.10366979
000010 a0 e6 2d 3d 0f d0 c2 bd b4 7c 12 bc 2e f1 9f 3d
       0.04245627 -0.0951234 -0.008940864 0.07809673
000020 96 84 71 bd 87 bd b3 bd a8 cb c8 bd 6a 0f 92 bc
       -0.058964334 -0.08776384 -0.09804469 -0.017829616
000030 e1 65 e0 3d 70 bb 9d 3c 61 36 6e bd 81 d2 ae 3d
       0.10956932 0.019254416 -0.05815733 0.08536244
000040 da cc 70 3d 7a 02 00 be ff cf ba 3c 64 c7 8f bd
       0.05878911 -0.12500945 0.022804258 -0.070204526
000050 53 cc a5 3c d1 42 30 bd cd 96 b9 bd ee b3 dc 3d
       0.020239031 -0.04303247 -0.09061966 0.10776506
000060 2b a1 c5 bd e3 c7 10 bb e7 5a d2 3d b1 1d a7 bc
       -0.09649881 -0.0022091798 0.102712445 -0.0203999
000070 a1 73 94 bd 59 e0 da bc 04 8e b2 3d 82 41 9b 3d
       -0.07248617 -0.026718305 0.087184936 0.07580854
000080 0a 08 3a bd 1f 18 fc bd aa 69 97 3d 36 ab eb bd
       -0.045417823 -0.12309288 0.07393201 -0.11507265
000090 da c0 e5 bc 31 d3 ee bd e9 bd 48 bd 6b 55 56 3d
       -0.02804606 -0.11661375 -0.049009237 0.052327555
0000a0 a8 d3 12 3d b3 10 dc 3d 02 23 92 3d 05 8b 89 bd
       0.035846382 0.107453726 0.071355835 -0.06715969
0000b0 6e 3f 0f 3d 5c 24 de 3d c6 77 8d 3d f5 d6 d5 3d
       0.0349726 0.10846779 0.069076106 0.104413904
0000c0 82 d4 0f bd c0 8b eb 3c bb ba bf bd f8 4f 09 bd
       -0.035114773 0.028753161 -0.09361788 -0.03352353
0000d0 8d a6 2a 3d 94 32 9a bd 1e 8b e3 3d 55 ef 20 3c
       0.04166274 -0.07529178 0.11110519 0.009822686
0000e0 bb c6 cb bd 96 fc 5c 3c 62 fa aa 3d 14 c6 85 bd
       -0.09950014 0.013487956 0.08348538 -0.06531921
0000f0 48 42 82 3d c2 cd b6 3c 0e e5 2d 3d 71 e8 f0 bb
       0.063602984 0.02231491 0.04245477 -0.007351928
000100 d0 5f fc bc 7c 9c 10 bd 00 b8 f6 3b 0e 9c dd bd
       -0.030807406 -0.035305485 0.0075292587 -0.10820781
000110 4e 8c d5 bd 56 0f b5 3d 70 bf 4d 3c 02 76 d5 bd
       -0.104271516 0.08840816 0.012557849 -0.10422899
000120 1a ba c4 bd 3c 2f ed 3d 24 c9 a8 3d 68 8d d7 bd
       -0.096058086 0.11581275 0.082414895 -0.10525018
000130 14 75 99 3d e4 63 57 3d 30 45 2a 3d cc 7f 17 3d
       0.07493034 0.052585497 0.04156989 0.03698711
000140 e0 65 b6 bb a0 f0 ea bd 36 20 af bd a0 d3 72 3d
       -0.0055663437 -0.11471677 -0.085510656 0.059283853
000150 c2 d3 de 3d 34 e8 80 3d 76 f2 ea 3d 28 b6 93 bc
       0.10880233 0.06294289 0.11472027 -0.018031195
000160 f4 52 82 3d 2a ec 92 bd 56 e1 b3 3d 00 7c 33 bc
       0.06363478 -0.07173951 0.08783214 -0.010954857
000170 e8 7e 36 bd 7a 7a d4 bd 78 d9 e3 bd fa 3a cf bd
       -0.04455462 -0.10374923 -0.11125463 -0.10118671
000180 00 fb 27 3c d0 f0 61 bc 1a 00 c5 3d d0 49 20 bc
       0.010252714 -0.013790324 0.0961916 -0.009783223
000190 0c 8e 27 bd 2a 08 c3 bd 60 31 0b 3c f6 28 ce bd
       -0.04090695 -0.095230415 0.008495659 -0.100664064
0001a0 de 74 f0 3d a0 4c 22 3d 3c ad 52 bd be 5e b4 bd
       0.11741041 0.039623857 -0.05143474 -0.08807133
0001b0 b8 f8 93 bd 38 d7 95 3c 44 a7 21 3d 20 26 90 3c
       -0.07225174 0.0182911 0.039466158 0.017596304
0001c0 9c 68 c8 3d 6c e1 bf bd be 9c d2 bd 00 b2 df 3a
       0.09785578 -0.09369168 -0.102838024 0.0017066598
0001d0 20 fd fd 3c fc 19 5a bd 38 95 be bd 48 fe 41 3d
       0.031004488 -0.053247437 -0.09305805 0.047361642
0001e0 a2 fa da bd 4e f0 b2 bd c8 97 86 3c 0e b6 81 bd
       -0.10692336 -0.08737241 0.016429797 -0.06333552
0001f0 30 f0 b1 3d 58 a3 5f bd 18 36 c8 bc 92 cc fb bd
       0.0868839 -0.054599136 -0.024439856 -0.12294878
000200 5b 2c 2d 3e b7 bb 37 3d f5 48 af 3d b9 74 fd 3d
       0.16911452 0.044856753 0.08558837 0.12375779
000210 6c bc 1a 3e 98 b9 3d 3c a7 cc 82 bd c0 3b 3c 3d
       0.1511094 0.0115798935 -0.063866906 0.04595542
000220 8a 65 ef 3d 18 7b 6d 3c 14 77 5b 3c 19 54 00 3e
       0.11689289 0.01449468 0.01339509 0.1253208
000230 36 0f 8c 3d 02 d3 fa 3a 38 7e 08 bd 0b 18 17 bd
       0.06838839 0.0019136372 -0.033323497 -0.036888164
000240 04 a4 0d 3d 16 73 e1 3d 4e d3 23 3e fd f7 a4 bc
       0.034580246 0.11008279 0.15998575 -0.020137781
000250 08 e0 80 3d 7b 71 df bc 56 c0 25 3e e3 21 b7 3d
       0.062927306 -0.027275791 0.16186652 0.0894201
000260 f0 3e 2e 3d e7 ff 84 bd ec 65 31 3e 6a ed 3f 3d
       0.04254049 -0.06494122 0.17324036 0.046857275
000270 f6 10 4c 3d 77 7c 20 3d 10 02 14 3d 3c d4 c3 3c
       0.049820863 0.0391812 0.03613478 0.023904912
000280 9d 2b 9f 3d 36 30 d8 bd 93 71 0f 3e 24 73 ec 3d
       0.077719904 -0.105560705 0.14008169 0.11545399
000290 2d b9 cf bc 58 d0 82 bd d2 29 b1 bb 6d 18 0b 3e
       -0.025356853 -0.06387395 -0.0054065967 0.13583536
0002a0 5f c5 63 bd 7b 88 0c 3d c5 b9 3c 3e 23 f4 1e bd
       -0.05560815 0.034309845 0.1843024 -0.038807046
0002b0 d2 4c e4 3c 2c f1 ab 3d 4d 67 88 3c 3f 3c c5 bc
       0.027868662 0.08395609 0.01665082 -0.02407658
0002c0 8d c0 1c 3e ab ed 00 3d c9 ed 3c 3e d2 51 85 3d
       0.15307827 0.031476658 0.18450083 0.065097466
0002d0 cd 23 1a bd 9f 99 8f bd 92 fc 2f 3d 39 10 58 3d
       -0.0376318 -0.07011723 0.04296548 0.052749846
0002e0 b3 cb 41 3e 86 46 0d 3d ab 0a e5 bc da b2 b9 3d
       0.18925361 0.034491085 -0.027959188 0.09067316
0002f0 b7 a4 c7 bd e0 b8 e7 bc e2 4d b9 3d b1 60 30 3e
       -0.09748214 -0.028286397 0.09048058 0.17224385
000300 46 d9 01 3d d5 fb ee bd 25 cc b3 3d 28 c8 c9 3d
       0.03170135 -0.11669127 0.08779172 0.0985263
000310 6d 15 54 3d ac 8c 0e 3e 12 43 35 be 88 d2 2f bd
       0.051778246 0.1392085 -0.17701367 -0.042925388
000320 c2 ff ac 3d 46 d5 05 be 36 95 3d 3d f7 6e 96 3d
       0.084472194 -0.13069639 0.046284877 0.073453836
000330 9f 52 bd bd dc a6 ad bd bf 3f 27 3d ec 43 7b bc
       -0.09244274 -0.084790915 0.040832277 -0.015336018
000340 ac 21 f0 3d 56 ba 26 be e6 f7 57 bd 97 e6 14 3e
       0.117251724 -0.16282019 -0.05272665 0.14541088
000350 b7 4b f6 bd 96 87 f0 bd a5 22 05 3e 4b 2d 95 3d
       -0.1202616 -0.11744611 0.13001497 0.072840296
000360 59 3f bf 3d 0a b0 98 bc 33 11 89 3d 44 14 fb bd
       0.093382545 -0.01863863 0.066927336 -0.12259725
000370 4e e2 90 3d da c0 1a 3e 9e 71 21 be b6 58 1b 3b
       0.07074414 0.1511263 -0.15765998 0.0023704
000380 62 f4 6d bc 54 e1 de 3c af 2d 24 3d 26 97 87 bd
       -0.014523597 0.027207054 0.04008263 -0.06620626
000390 0c a6 d6 bc c4 ae 52 be 20 c3 04 be 89 82 8c bd
       -0.026202224 -0.2057448 -0.1296506 -0.06860835
0003a0 d3 7c 8a 3d 29 67 55 bc fb 20 88 bd ac 59 cd 3d
       0.067620896 -0.013025084 -0.066469155 0.10026869
0003b0 97 4e ae bd d7 e4 a8 bc 2c ee f1 3c 08 e1 fc 3d
       -0.085110836 -0.020616932 0.029532515 0.12347609
0003c0 39 77 5a bd 40 49 ab 3d e5 d4 2b bd a6 26 2e bc
       -0.053336356 0.08363581 -0.04195108 -0.010629332
0003d0 20 e6 ce 3d b2 db ed bd a6 fd 00 be c7 b6 cb 3c
       0.101024866 -0.11614169 -0.12596759 0.024867428
0003e0 45 b3 d0 bd a3 88 63 bc 4b e9 34 bd 25 af 5d bd
       -0.10190443 -0.013887557 -0.044167798 -0.05412211
0003f0 37 a4 df bd 95 e7 d6 3d 5e 6a e1 3c 37 42 07 3e
       -0.10919993 0.104933895 0.02751654 0.13208853

bias f4 [64]
000000 07 96 6e 3d b2 f9 a2 bd 58 36 87 3d aa 1d d7 3d
       0.058248546 -0.07957782 0.06602162 0.10503705
000010 db ef 21 3d 5a 3e 96 bd b3 b5 db bd e1 44 57 3d
       0.039535385 -0.07336111 -0.10728016 0.052555922
000020 47 57 5a 3d 01 ae e7 3d 5b b2 e2 3d 11 e6 c7 3d
       0.05330589 0.113124855 0.11069175 0.097606786
000030 62 20 d1 bd a9 32 86 bd 66 aa 9e 3c 70 b1 c8 3d
       -0.10211255 -0.065526314 0.019368362 0.097994685
000040 c2 46 8d bd 3c c5 e1 bd 83 f6 15 bd a4 49 47 bc
       -0.068982616 -0.110239476 -0.036612045 -0.012163553
000050 1f 9e e3 3d 70 07 9f bd 3f dd ee 3d 45 30 cd bc
       0.111141436 -0.077650905 0.11663293 -0.02504743
000060 76 eb a2 bd 06 7f e7 3d 10 30 c7 bd 3c 1f 94 bd
       -0.07955067 0.11303525 -0.09725964 -0.0723252
000070 46 03 e5 3d 26 d9 6f bd d8 26 ad 3d 6b 50 a8 3d
       0.11182265 -0.0585567 0.084546745 0.082184635
000080 d6 4c 87 3d 24 a5 ea 3d ad a9 2c 3d 92 8c 27 bc
       0.06606452 0.11457279 0.042154003 -0.010226386
000090 42 7d 32 bd d4 55 b3 3d b9 06 03 bb d9 d2 d3 bc
       -0.043576486 0.08756605 -0.001999302 -0.025857376
0000a0 56 76 a4 3d 30 5a d0 3c 9c 14 d9 bd 71 c9 85 37
       0.08030383 0.02543363 -0.10599634 1.5948639e-05
0000b0 bb a8 9c bd 11 03 f5 bc a4 64 e7 3d ee 24 23 bd
       -0.0764937 -0.029908689 0.112984926 -0.03983014
0000c0 40 44 63 bd c4 ff ae 3d e9 e4 35 3d 5d 79 fa 3d
       -0.05548501 0.08544877 0.04440776 0.122301795
0000d0 9b 8f 77 3d c8 47 54 3d dc a3 c2 bd e6 6f f8 bb
       0.060439687 0.05182627 -0.0950391 -0.0075816987
0000e0 86 a9 e2 ba 38 07 9f 3d f3 9f dc bd a0 66 4d bd
       -0.0017292954 0.07765049 -0.107726954 -0.0501467
0000f0 47 ab e5 3d 4e fd 00 3d 7b 13 3a bd 73 50 3d bd
       0.11214309 0.03149157 -0.045428734 -0.0462193

weight f4 [64, 64]
000000 d9 b7 f7 3d 3c 33 d2 bd f9 19 9a 3c 75 f3 2f bd
       0.12095613 -0.102636784 0.018811213 -0.042956788
000010 89 6a 20 3e ae 0f 85 bd f3 58 ce 3c 03 f7 10 3c
       0.1566564 -0.06497131 0.025188899 0.008847955
000020 91 1a a3 3c 47 c1 e1 bd 88 cf 07 3b 38 73 a1 3d
       0.019910129 -0.11023193 0.0020723063 0.07883304
000030 be 3c dd bd 7c 5b 18 3d ea 2f 5e bd bf cc 5e bd
       -0.10802601 0.03719662 -0.054244913 -0.05439448
000040 f5 cb df bd 7c 5c 3e 3d 0f 46 19 3e 1d b1 aa bd
       -0.109275736 0.04647492 0.14968131 -0.08334563
000050 0e 93 2b 3d 08 ea c8 3d ef 49 0c 3e 3a 1a b0 3d
       0.04188829 0.09810263 0.13700078 0.08598752
000060 28 02 c0 bc ed e6 b2 bd c0 1e 58 bb b0 6a 97 3d
       -0.023438528 -0.08735452 -0.0032977313 0.07393396
000070 c8 b9 e8 bd 5a 88 31 bd e6 fb 82 3d f7 6c a8 bd
       -0.1136356 -0.043342926 0.06395702 -0.082239084
000080 92 22 73 3d 72 36 5c 3d f3 81 9d 3d bd dc 0f 3d
       0.05935914 0.05376286 0.076908015 0.03512262
000090 30 92 78 bd 16 b5 c2 bd d8 b3 18 bd c3 77 d8 3d
       -0.06068629 -0.09507196 -0.037280887 0.10569718
0000a0 9b ab 9d 3b bc a5 2a 3d 52 75 b6 bd d1 4c 3f bd
       0.0048117167 0.041661963 -0.08909096 -0.046704117
0000b0 6b 8f fa 3a 50 87 8f bd d1 bd c4 bd a5 b8 81 3c
       0.0019116228 -0.07008231 -0.09606517 0.015835116
0000c0 9e 26 e7 3d 54 95 ee 3c d0 07 f2 bd 7c 89 05 3d
       0.112866625 0.02912394 -0.11817896 0.03260182
0000d0 1f d7 88 3d ac ce b7 3d 68 99 11 bd e5 56 51 3c
       0.06681656 0.089749664 -0.03554669 0.012777065
0000e0 1a cb b3 3d cf a0 cb 3d bd 5d 11 3e 4f 68 1c 3e
       0.08778973 0.09942781 0.14195915 0.15274166
0000f0 07 74 89 3d 6c a4 e7 3d ea 37 b8 bd e8 df 79 3d
       0.067115836 0.11310658 -0.0899504 0.06100455
000100 e4 2f 95 bd b8 7d ad bc f1 5c 4b bd de 16 28 3e
       -0.07284525 -0.021178111 -0.049649183 0.16414973
000110 db 80 eb bd c5 e1 7d bd 26 d0 25 3d 31 c4 d8 bd
       -0.114991866 -0.06198289 0.04048171 -0.105842955
000120 0d c7 15 bd 7a 9e 7c 3c ec eb 12 be 1d 41 19 3e
       -0.036566783 0.015418643 -0.1434781 0.14966245
000130 2c 47 78 3d 7a 4c 2c 3e cb f9 85 bc ea ab 28 3d
       0.06061475 0.16826048 -0.016354462 0.041179575
000140 03 da 6f 3d 26 cb a5 3d 5d 4a 81 3c 60 4a 20 bd
       0.05855752 0.08095388 0.01578253 -0.03913343
000150 a3 22 35 bd 28 a4 2c bd 45 83 10 3d b5 40 0c 3e
       -0.044222485 -0.04214874 0.03528144 0.13696559
000160 96 d0 90 bd 28 18 02 3e a4 94 51 bd fa d8 d1 3d
       -0.070710346 0.12704527 -0.051167145 0.10246463
000170 70 10 09 3e 85 80 10 3d 38 25 3c bd ca 67 27 3e
       0.13385177 0.035278816 -0.045933932 0.16348186
000180 00 fc ac 3d 99 2a 11 bd 76 1e 91 bd df 1a 42 3d
       0.08446503 -0.035441015 -0.07085888 0.047388908
000190 06 5e 50 bc 26 4a 07 3e 25 e9 21 be 59 b2 2c bd
       -0.012717729 0.13211879 -0.15811594 -0.042162273
0001a0 f2 95 86 bd 50 42 1d bd bc 7b c1 bd 96 45 a9 3d
       -0.065715685 -0.03839332 -0.094474286 0.082652256
0001b0 42 03 c5 bd 39 cf 85 bd 56 40 83 bd 5d b2 d6 bc
       -0.09619762 -0.06533665 -0.064087555 -0.026208097
0001c0 7e e4 fe 3d e6 93 30 bd d4 85 81 bd 02 39 e2 bb
       0.12445925 -0.043109797 -0.06324354 -0.0069037685
0001d0 21 74 fe 3c 0c 09 44 be a4 31 7a bd 5f e4 d3 3c
       0.031061234 -0.19144076 -0.061082497 0.025865732
0001e0 1a 5e e1 bd 3b a8 f3 3c ed 45 06 be 2a 7d 20 bd
       -0.110042766 0.029743304 -0.13112612 -0.039181866
0001f0 0a 06 8a 3c 95 1a aa 3d 08 f8 29 3e d5 1f 7a bd
       0.016848583 0.08305851 0.16598523 -0.061065514
000200 d2 45 ed bd 2c 23 d3 3d 54 96 80 bd 0a a5 be bd
       -0.11585583 0.10309443 -0.06278673 -0.093088225
000210 70 75 d1 bc 50 ad da bc b4 9c 0e 3d d0 74 13 bc
       -0.025568694 -0.02669397 0.034817412 -0.009000018
000220 94 e7 cd 3d 30 fe 5b 3c 70 55 57 3c 88 39 f0 bd
       0.10053936 0.013427302 0.0131429285 -0.11729723
000230 90 7c 4e 3c 18 63 30 bd e0 b3 b8 bc ac 94 db bd
       0.01260294 -0.043063253 -0.022546709 -0.10721716
000240 b0 7b 60 bc 48 50 90 3c 7c 87 e4 bd 78 dd 97 3d
       -0.013701364 0.017616406 -0.11158654 0.07415289
000250 e6 58 f7 3d ac a8 f8 bd a8 96 8d 3d b4 d5 bf bd
       0.12077503 -0.121415466 0.06913501 -0.093669325
000260 64 08 e2 bd e6 b1 ae 3d 44 1a 09 3d a0 b9 90 3b
       -0.11036757 0.08530025 0.033472314 0.0044166595
000270 70 80 6d bc 6e 1c 86 3d 98 74 e7 3d b0 13 a6 3c
       -0.014495954 0.06548391 0.11301535 0.02027306
000280 46 ee b6 3d 82 cc e0 3d c8 fd bc 3d 2a bc 87 bd
       0.08932166 0.10976507 0.092280924 -0.06627686
000290 4e e2 a5 bd b8 58 18 bd 70 a5 ed bc 6c f1 10 bd
       -0.08099805 -0.037193984 -0.02900955 -0.035386488
0002a0 a0 fb 06 3c 00 56 2b bd ee 6d 83 3d 48 36 79 3d
       0.008238703 -0.041830063 0.06417452 0.060842782
0002b0 4a f2 89 bd c2 81 ac bd 68 c3 6a bd c8 dd d5 3c
       -0.06735666 -0.08423187 -0.05731526 0.02610673
0002c0 a0 1a 59 bd ac 74 6e 3d 6e 75 ea 3d 64 8f 10 3d
       -0.053003907 0.058216736 0.11448179 0.035292998
0002d0 ee 3d a7 bd 58 ee e7 bc e0 66 fd bb 84 97 d8 3d
       -0.08166109 -0.028311893 -0.007733211 0.10575774
0002e0 d8 62 9e 3d 64 c0 0f bd 72 7c f7 3d 00 ea a5 3b
       0.07733697 -0.035095587 0.12084283 0.0050632954
0002f0 b8 c3 0a bd 70 fa 6b 3c 0a 2d ef bd 60 f9 76 bc
       -0.03387806 0.014402971 -0.116785124 -0.015074104
000300 60 b4 b4 bd 64 b8 96 bd c1 18 01 3e 6d 6b 5b bc
       -0.08823466 -0.073593885 0.12607099 -0.0133923115
000310 c6 25 8e 3d 37 98 9a bd 5e 61 98 bc 89 b0 f2 3b
       0.069407985 -0.07548564 -0.018601116 0.0074062985
000320 be 81 cc bc 4e 02 28 3e 56 4f 36 bd b7 6a 36 bd
       -0.02496421 0.16407129 -0.044509254 -0.044535365
000330 20 34 9b bb 15 96 a4 bc 89 9e b9 3c ff c0 0f 3e
       -0.0047364384 -0.020091096 0.022658603 0.14038466
000340 d2 a5 8c 3c 8c bc d0 bd a2 8a 06 3d 74 b3 96 3d
       0.017168913 -0.101922125 0.032847054 0.07358447
000350 b9 f7 e3 3b 30 65 a3 bc d5 5a a7 3d c2 7e 1d 3e
       0.006957021 -0.01994571 0.08171622 0.15380386
000360 b5 d1 88 3d ea f1 c3 3c 9c 56 15 bd e4 da 9a 3d
       0.066806234 0.023919065 -0.03645955 0.07561281
000370 01 84 04 3e d4 85 ab bd 99 20 c1 3b 98 b2 3d 3e
       0.1294098 -0.08375135 0.0058937785 0.1852516
000380 2f b3 9c bc f2 a3 09 3e 38 f4 ec bc 7f 0e 60 3d
       -0.01912841 0.13441446 -0.028925046 0.054701325
000390 55 dc 17 ba e2 60 01 3e 36 29 2c be 7b 01 0b 3e
       -0.0005793025 0.12634614 -0.16812596 0.13574784
0003a0 3c 78 c7 bd 6c be 98 3d 20 75 9d 3c f7 80 cd 3c
       -0.0973973 0.07458195 0.019220889 0.02508591
0003b0 1f d3 52 bc 1d 3d f2 3d 61 59 3e 3e 85 a0 b7 3d
       -0.012867718 0.11828063 0.18588783 0.089661635
0003c0 6e 14 ea bd e8 e0 c3 bd e2 6d d2 3d c8 b4 7f bd
       -0.11429678 -0.09564382 0.10274865 -0.062428266
0003d0 00 4a bc bc 92 b0 b3 bd 40 d2 ec 3c 1d 79 71 bd
       -0.022984505 -0.087739125 0.028908849 -0.058953393
0003e0 25 7c c0 3d 5f 46 e6 bd c8 3d 7e 3d e3 3d bb bb
       0.09398679 -0.11243891 0.062070638 -0.0057141646
0003f0 78 40 0c be 64 85 2a 3e 94 c8 be 3d 41 71 1d 3e
       -0.13696468 0.16652447 0.09315601 0.15375234

bias f4 [64]
000000 51 85 b1 3d a1 23 6b 3d cc b7 e4 bd c6 4e 04 3d
       0.08668006 0.057407025 -0.11167869 0.032301687
000010 ec 04 a1 bd 4c 08 2b 3d 70 cd 86 3c bd 8f 59 bd
       -0.07862267 0.04175596 0.016455382 -0.053115595
000020 c0 96 ca bb dd 30 97 3d 1f 80 a3 bc 90 22 c3 bd
       -0.0061825216 0.07382367 -0.019958554 -0.09528077
000030 29 a8 c9 3d 11 d6 22 3d 03 40 8d bd fb 38 18 3c
       0.09846527 0.03975493 -0.06896975 0.009290929
000040 24 94 7b 3d 10 13 10 3c 72 be d7 bd 95 5b d0 bd
       0.061420575 0.008793607 -0.105343714 -0.10173718
000050 54 a0 30 bd e1 79 81 bd de 67 8c 3d 7c 89 af 3d
       -0.04312165 -0.06322075 0.068557486 0.08571145
000060 87 5d c9 3d eb b4 a5 3c 73 25 c7 3d 94 26 3c bd
       0.09832292 0.02022787 0.0972394 -0.04593523
000070 aa 7b 9f 3d cd fc a6 bd 4b 12 2a 3d b4 b5 ef 3d
       0.07787259 -0.08153687 0.04152135 0.11704579
000080 97 19 be 3b 86 87 5a 3d d8 d0 0b 3d 9f 3e d5 3d
       0.0058013904 0.0533519 0.034134716 0.10412335
000090 a4 12 e7 bc 29 b9 8b 3d e1 1f 55 bc 8d e6 fe bc
       -0.02820713 0.06822426 -0.013008089 -0.031115795
0000a0 16 d3 d0 3d 39 f4 ce bd 8e e4 69 3d 89 68 70 3d
       0.101965114 -0.101051755 0.057102732 0.058693442
0000b0 38 85 a5 3b 22 5b 02 be f0 89 1e bd 8c 1c d7 bb
       0.0050512813 -0.12730077 -0.038705766 -0.0065646823
0000c0 40 1b 7e bd f8 ec dd 39 e2 16 ac 3d 64 03 c2 3d
       -0.062037706 0.0004232896 0.08402802 0.09473303
0000d0 32 d4 f2 3d a5 30 a0 bd a4 29 4a bd f0 44 04 3e
       0.11856879 -0.07821778 -0.049356118 0.12916923
0000e0 6a af 02 ba e1 ea 93 bb b6 9b 89 3d 40 76 a2 3d
       -0.0004985245 -0.0045140837 0.06719153 0.07932711
0000f0 75 b1 2f bd 1d 53 f3 3d e3 dc ec 3d 9f 77 f5 3d
       -0.042893846 0.11881087 0.11565568 0.119857065

weight f4 [64, 64]
000000 10 3e 16 3c 90 95 7a bd f0 1a 28 3c 0c 80 c1 3d
       0.00917007 -0.06117779 0.010260329 0.09448251
000010 bc 5b d6 bd 9c 8c 9b bd b8 9f 59 3d f2 9a 8b bd
       -0.10466716 -0.075951785 0.053130835 -0.06816663
000020 a0 ae 2b bc ac ec 63 bd b0 6c b3 3c 88 24 dc bd
       -0.010478646 -0.05564563 0.021902412 -0.10749155
000030 f8 e9 f4 bc d8 16 7e 3d 30 ad 14 3d 70 f3 e8 bc
       -0.029896721 0.062033504 0.036297977 -0.028436393
000040 64 66 d9 bd a6 a5 98 bd fc 7a ee bd 68 5a d7 bc
       -0.106152326 -0.0745347 -0.11644551 -0.026288226
000050 a0 8b db 3d bc 74 d1 3d 1c 34 58 bd e0 84 a6 bd
       0.10719991 0.102273434 -0.05278407 -0.08130813
000060 fa 53 8d bd 2c fc e7 bd 62 a9 c6 bd 80 db f6 ba
       -0.06900783 -0.11327395 -0.09700276 -0.0018833727
000070 08 75 91 3c 8c 64 ec bd 1c d8 df 3d 10 23 26 3c
       0.017756 -0.11542615 0.109298915 0.0101401955
000080 3a 72 fd 3d c8 7a 06 bd 18 a0 a9 bd 1a ae e9 3d
       0.123753026 -0.032831937 -0.082824886 0.1141016
000090 e2 9e f8 bd ec 3c 73 3d 60 d0 85 3c fe c7 9b 3d
       -0.121396795 0.05938427 0.016334713 0.07606505
0000a0 c8 02 23 3d fe 42 ca bd f0 1e 44 bc 88 d5 d4 bc
       0.039797574 -0.09876059 -0.011970267 -0.025980726
0000b0 06 36 d4 bd b0 35 a6 3c e0 af ff 3c 00 ec 51 39
       -0.10361867 0.020289272 0.031211793 0.0002001971
0000c0 68 4a a5 3d cc 18 ee bd ee ea fa bd 3c 63 a5 bd
       0.080708325 -0.116258234 -0.122518405 -0.08075568
0000d0 f4 0a 95 3d f4 8d 27 3d 50 4d 22 3c d2 6b ac bd
       0.0727748 0.04090686 0.009906128 -0.084190026
0000e0 24 63 63 bd 20 92 dc 3b 0e 6b fc 3d 1c 01 14 3d
       -0.05551447 0.0067312866 0.123251066 0.03613387
0000f0 00 c4 44 3d 36 76 ef 3d 2c 04 37 bd a2 03 bb 3d
       0.048038483 0.11692469 -0.044681713 0.09131552
000100 74 28 17 bd 37 bc 32 bd a4 34 d7 bd 0d 67 5e bd
       -0.036903813 -0.043636527 -0.10508087 -0.054297496
000110 fb 5c d9 bd dd 4c e7 3d aa 18 0b bd 7e c8 1b be
       -0.10613438 0.112939574 -0.03395907 -0.152132
000120 d6 bc db bd 71 6b 63 3d 57 7c 0e 3d 1e 14 a0 3d
       -0.10729377 0.055522386 0.03478655 0.07816337
000130 da 3d 59 3d 1e cd ce 3c 8f 0a 18 3e 5d f1 71 3d
       0.053037502 0.025244292 0.14847778 0.059068073
000140 6c 6b 8d bc 7e 81 84 bd 1f d8 f2 3c 2a d3 f8 bd
       -0.017263137 -0.06470011 0.02964407 -0.12149651
000150 be b1 84 3d 38 14 9b 3c 5f d2 4f bd 0b 64 87 bd
       0.06479214 0.01893054 -0.050737735 -0.066108786
000160 aa 1e 17 3e a1 db cc 3d e5 b1 ce 3d a2 86 a8 bd
       0.14757791 0.100028284 0.100925244 -0.08228804
000170 dc a0 ff 3d 4e da ac 3d 80 06 d9 bb 2c 50 f8 3d
       0.12481853 0.08440076 -0.0066230893 0.121246666
000180 44 ea 4a 3d 01 0c cf bb 7c f0 84 3d 11 59 25 3e
       0.04953982 -0.0063185696 0.06491181 0.16147257
000190 12 da bb bd 86 31 02 3e d4 8b 27 be 08 15 da bd
       -0.09172453 0.12714204 -0.16361934 -0.10648543
0001a0 3a e4 87 bd f4 8e b4 bd 12 4d af 3d 69 63 b9 3a
       -0.06635328 -0.08816329 0.08559622 0.0014144006
0001b0 0f 10 64 3d 70 53 85 bd 70 9a 91 bd 9c f3 45 3d
       0.055679377 -0.06510055 -0.07109535 0.048328027
0001c0 50 4f d2 bc 95 06 ce bc 3d 05 b7 bd ef a6 9f bd
       -0.025672585 -0.025149623 -0.08936546 -0.07795512
0001d0 c3 f0 ed bd a4 5d b7 ba 2c ee 5a 3d 66 5c 20 bd
       -0.11618187 -0.0013989699 0.053449795 -0.039150618
0001e0 4e a8 db 3d e4 cd c4 bd 0f 51 78 3c c1 69 7c 3d
       0.10725461 -0.09609583 0.015156045 0.061624292
0001f0 f0 fc 90 bd 73 84 03 bd 3c 90 b4 3c 15 47 bf 3d
       -0.07079494 -0.032108735 0.022041433 0.0933973
000200 b1 8b 22 be b3 5b a3 3c 10 fd e2 3c aa ed c8 3d
       -0.158736 0.019941187 0.02770856 0.09810956
000210 49 96 6e 39 95 d2 be bd 18 57 1e 3e b0 f5 26 bd
       0.00022753434 -0.09317509 0.15462911 -0.04076165
000220 68 f2 92 3c e4 ab 06 be 1d 9a bf 3d 86 53 e5 bb
       0.017937854 -0.13151509 0.09355567 -0.006998482
000230 94 29 23 be 3a cf 45 3d 66 88 8f 3d 90 92 d1 3d
       -0.1593383 0.04829333 0.07008438 0.10233033
000240 7a 31 37 3d 3c 48 90 3d 5e b2 8e 3d ef d6 b9 bd
       0.04472492 0.070450276 0.069676146 -0.090741985
000250 68 3f c9 3d 5e f0 89 3c 1d 87 05 bd bd 22 f0 3d
       0.09826547 0.016838249 -0.032599557 0.11725376
000260 c0 69 2d be fc e1 7f bd 2c 77 bd bd 75 7a 80 bd
       -0.16934872 -0.062471375 -0.09251246 -0.06273357
000270 68 8f 28 3e 38 e8 eb 3d 1c 9e 5f bd 49 76 ca 3c
       0.16460955 0.115189016 -0.054594144 0.024714606
000280 c5 e3 8a 3d 5a 0f f6 3d 00 ec ff 39 7e 3b 9f bd
       0.06781725 0.12014647 0.00048813224 -0.07775019
000290 a9 e5 c4 bd 0f d9 c2 3d 72 93 e7 bb 56 1a ef bc
       -0.09614117 0.09514057 -0.0070671374 -0.029187363
0002a0 a8 4e 0a be a6 46 91 3d 39 51 23 3e 21 d6 9b 3d
       -0.13506567 0.07093553 0.15948953 0.07609201
0002b0 ff ff 14 3e 42 7a ab bd c4 04 b7 bd 4c aa a6 3d
       0.1455078 -0.08372928 -0.08936456 0.0813795
0002c0 86 d5 88 3d c7 7c a8 bc 6b 1c fb 3d a1 8f 28 3d
       0.06681351 -0.020567311 0.1226128 0.0411526
0002d0 9c 1c f3 3d 2f 00 4f bd 20 e1 d6 bb 00 d7 2a be
       0.11870691 -0.050537284 -0.0065575987 -0.16683578
0002e0 d5 08 c9 bd a1 cf dd bd a5 54 bd 3d dc d5 bb bd
       -0.09816138 -0.10830618 0.0924466 -0.0917165
0002f0 7a 55 89 bd 6e b7 a0 bd b2 18 80 3d 38 59 da bd
       -0.067057565 -0.078474864 0.0625471 -0.106615484
000300 50 05 60 3c 90 36 1a bc ce 30 8a 3d fc aa 9a bd
       0.013673142 -0.009412423 0.0674759 -0.07552144
000310 2c ce d5 3d 18 47 86 bc 14 88 21 bd 00 d7 92 bd
       0.10439715 -0.016391322 -0.039436415 -0.07169914
000320 34 13 99 bd 54 29 af 3d 2e 39 96 bd 98 13 e9 bc
       -0.07474366 0.085528046 -0.07335125 -0.028451726
000330 b0 c2 29 3d 16 b9 a6 bd e0 87 f6 bd 40 11 e7 3c
       0.041445434 -0.08140771 -0.12037635 0.028206468
000340 ba f2 fe bd ae 69 df 3d ce cf cd bd 58 f8 d5 bd
       -0.1244864 0.10908829 -0.10049401 -0.104477584
000350 44 23 f1 bd 30 d2 80 bd de 77 e2 3d 7c 35 6f bd
       -0.117743045 -0.0629009 0.11058019 -0.058400616
000360 00 41 28 3b 38 e1 95 3d 60 c8 ec 3c 24 17 bd 3d
       0.0025673509 0.07318348 0.02890414 0.09232929
000370 5c 0c f3 3d 20 34 a0 3c f0 ed 7a 3d b0 73 59 bc
       0.11867592 0.019556105 0.06126207 -0.013272211
000380 90 63 48 bc 7e 0c b5 3d c0 f0 ab 3b 30 c5 a4 bd
       -0.012230769 0.08840273 0.0052472055 -0.08045423
000390 1c c7 ba 3d b0 6d 28 3d a8 08 df 3d 60 63 66 bd
       0.09120008 0.04112023 0.10890323 -0.056247115
0003a0 7e 04 81 3d f6 8c 85 bd b2 7d e2 bd 82 03 d4 bd
       0.06299685 -0.06521027 -0.11059131 -0.103522316
0003b0 80 2c 1d bd 60 63 cf bd 1a 1e 83 3d 9c 24 13 3d
       -0.038372517 -0.10126376 0.06402226 0.035923585
0003c0 d6 87 d2 3d 70 cb f2 3d 54 7e 62 bd 58 69 f9 3d
       0.10279815 0.11855209 -0.055296257 0.12178296
0003d0 a0 09 0b bd 58 4a ac bd 0e bc c3 3d 50 57 9b bd
       -0.033944726 -0.084126174 0.09557353 -0.07585013
0003e0 e4 a3 98 3d 70 f5 68 bd f8 a6 0f 3d 80 2d 58 bb
       0.07453135 -0.056874692 0.035071343 -0.0032986104
0003f0 a0 34 8d 3b c2 be c1 bd 00 b0 a7 3c 74 3f c3 3d
       0.004309252 -0.09460212 0.020469666 0.09533587

bias f4 [64]
000000 b0 54 e8 bd cf fe 3a bd d8 c5 0d 3d 04 ad 08 bd
       -0.11344278 -0.04565316 0.034612507 -0.033368126
000010 d6 55 8d 3d 0d 52 02 bc 8a 9c c0 3d e9 2a dd 3d
       0.069011375 -0.007954133 0.094048575 0.107992
000020 42 35 8b 3d 98 d3 19 3d b9 8a 54 3c 99 0d 00 3a
       0.067972675 0.037555307 0.012972527 0.00048848387
000030 06 86 ab bc f4 83 91 bd d8 d8 7c bd 0f 0f ad bc
       -0.02093793 -0.07105246 -0.061730236 -0.021125345
000040 ff 60 ae bc 55 2a 2e bd ba 26 96 bd 2b 66 48 3d
       -0.021286486 -0.04252084 -0.07331605 0.04892556
000050 44 9f d9 3d 5c 1b 82 3c 80 45 00 3e cd e3 fc 3d
       0.10626081 0.015882187 0.12526512 0.12348137
000060 df 5d 45 3c c5 84 c2 3d 3c bc dd 3d 18 47 fc 3d
       0.012046306 0.0949798 0.108269185 0.123182476
000070 bb 8f 0b 3d e2 2a c6 bc 33 74 ae bd bf 8d 9c bd
       0.03407262 -0.02419037 -0.08518257 -0.076442234
000080 a9 c3 ba bd 62 ce 0e 3e b9 c9 a2 3d f5 ec 33 3d
       -0.091193505 0.13945916 0.07948632 0.04392715
000090 c0 b2 30 bd 52 18 ae 3d ad 61 f9 3d 85 9f 92 3d
       -0.04313922 0.085007325 0.12176833 0.07159332
0000a0 5c 2d a7 bd d9 5c ba bd 05 c3 28 3d 44 ce c9 bd
       -0.081629485 -0.090997405 0.04120161 -0.09853795
0000b0 07 86 a5 bc f7 cf f8 3d f8 bb db bc 21 f1 e3 bd
       -0.02020551 0.12149041 -0.026823029 -0.11129976
0000c0 03 16 10 bd 78 cb b9 bd 0d 37 5d 3b 98 9d 05 3e
       -0.035177242 -0.09072012 0.0033754737 0.13048398
0000d0 3b a3 9b bd 23 99 85 bd 8e 44 b4 3d 5e 59 2f bd
       -0.07599493 -0.06523349 0.08802138 -0.042809837
0000e0 58 42 be 3d b5 47 2d ba 81 a2 e0 3d 9d 32 f7 3c
       0.09289998 -0.00066101114 0.10968495 0.030175501
0000f0 85 11 51 3d 89 a1 ed 3d cf 38 05 3e 87 4a b5 3d
       0.0510421 0.11603076 0.13009952 0.088521056
