mlartifacts/554351476986166068/3bea24c9ab6a46a4a656c47d01d1534d/artifacts/models/Model_dim64_layers5_experiment/r2_score0.30086949808830016_run8/data/model.pth (torch, 294728 bytes, 13 tensors)

weight f4 [64, 801]
0	0xbe395cdb	-0.18101828
1	0x3f4c8e1c	0.7990434
2	0x3f09aaa2	0.5377599
3	0xbf9bd479	-1.2174217
4	0xbf585c1b	-0.8451554
5	0x3f21d309	0.6321264
6	0x3d04572a	0.03230969
7	0xbf1879b8	-0.5956073
8	0x3ebfbad8	0.37447238
9	0x3eb64bc5	0.35604683
10	0xbeebe624	-0.4607402
11	0xbf395dfc	-0.72409034
12	0xbe7831af	-0.24237703
13	0xbee2f15e	-0.44324774
14	0x3e0175ed	0.12642641
15	0x3f5d3496	0.86408365
16	0x3e66bf15	0.2253383
17	0x3c7def01	0.0154988775
18	0x3ff81636	1.9381778
19	0x3fcce6d1	1.600794
20	0xbe985010	-0.29748583
21	0x3f6431aa	0.8913828
22	0xbc26514e	-0.0101512205
23	0x3c4c8818	0.012483619
24	0xc00ec75c	-2.230918
25	0xbf262ceb	-0.6491229
26	0xbea91022	-0.3302012
27	0x3ec06463	0.3757659
28	0x3eae9017	0.34094307
29	0xbebe48cd	-0.37164918
30	0x3dee01a1	0.116214044
31	0xbf55e14d	-0.83546907
32	0xbe9b9c3b	-0.30392632
33	0xbeb12e5a	-0.34605676
34	0x3f9cc2ab	1.2246908
35	0xbedea9ea	-0.4348901
36	0x3fb54f4e	1.4164827
37	0x3edae559	0.42753103
38	0x3e9a58d6	0.301459
39	0xbf695613	-0.91146964
40	0x3db8a119	0.09015102
41	0xbfcdd36b	-1.6080145
42	0x3fd8e363	1.6944393
43	0xbf09a928	-0.53773737
44	0xbf322ecf	-0.69602674
45	0x3e00191e	0.12509581
46	0xbf4d1bd2	-0.80120575
47	0x3fa84f37	1.3149174
48	0x3e1dc22d	0.15406103
49	0x3f8a5c33	1.0809387
50	0x3eb297e7	0.34881517
51	0xbee9ae2b	-0.45640692
52	0xbd5ae66f	-0.053442415
53	0x3f2b7a78	0.6698375
54	0x3dd2c696	0.102917835
55	0x3db812d1	0.08987964
56	0x3f9e0ba7	1.2347306
57	0xbfd65f48	-1.6747828
58	0x3e32147a	0.17390624
59	0x3f19c7d2	0.60070527
60	0x3fdc6d45	1.7220846
61	0x3f493971	0.78603274
62	0xbf4db949	-0.8036085
63	0xbeb81414	-0.35952818
64	0xbf122149	-0.5708204
65	0x3c89886a	0.01678868
66	0xbedd82ed	-0.4326395
67	0x3d732336	0.05935975
68	0x3f0d7883	0.5526201
69	0xbde2f15f	-0.11081194
70	0x3f635d35	0.888141
71	0xbe8ce3cf	-0.27517554
72	0x3e768e96	0.2407783
73	0x3ea16970	0.31525755
74	0x3f0a108c	0.539315
75	0xbf388eff	-0.72093195
76	0x3fc1f599	1.5153075
77	0x3d56dcb8	0.052456588
78	0x3f822ba2	1.0169566
79	0xbe946af9	-0.28987864
80	0xbf286119	-0.6577316
81	0xbe8ff9b2	-0.2812019
82	0xbfbd16a9	-1.477254
83	0x3d87f7d9	0.0663907
84	0xbcf86bfa	-0.030324925
85	0x3ea14264	0.31495965
86	0x3fdde700	1.7336121
87	0xbebf8626	-0.37407035
88	0xbe9559f2	-0.29170185
89	0x3f44e8b5	0.7691758
90	0x3d33d5e9	0.043905172
91	0xbed330bf	-0.41248128
92	0x3f9ce42e	1.2257135
93	0x3f335288	0.7004781
94	0x3f23a99d	0.63930684
95	0xbf6c443a	-0.92291605
96	0x3f54b6c4	0.8309138
97	0xbcce404f	-0.02517715
98	0x3ebe3ca0	0.37155628
99	0x3eb14eef	0.34630534
100	0xbddba485	-0.10724739
101	0x3f299c46	0.6625408
102	0x3d168fa3	0.036758076
103	0x3f8769b2	1.0579131
104	0xbf263387	-0.64922374
105	0x40327bb6	2.7888007
106	0xbfba73ca	-1.4566586
107	0x3f90a089	1.1298991
108	0x3f216fb9	0.630611
109	0x3f19dfbd	0.6010702
110	0xbf300e63	-0.6877195
111	0x3f15f749	0.5858045
112	0x3e93f451	0.28897336
113	0x3f27f160	0.65602684
114	0x3fa60658	1.2970686
115	0x3d246b71	0.040141527
116	0x40010863	2.016137
117	0x3f7c522d	0.9856289
118	0xbe4f1620	-0.20223284
119	0xbf084980	-0.5323715
120	0x3e3e2bb2	0.18571356
121	0xbf40682c	-0.75158954
122	0x4029d131	2.653393
123	0x3d6880dd	0.05676352
124	0x3eeb2c0c	0.45932043
125	0xc056957f	-3.3528745
126	0x3f7bcb4b	0.98357075
127	0x3e6b328e	0.22968504
128	0x3f8da720	1.1066628
129	0x3f16058e	0.58602226
130	0xbf048370	-0.5176306
131	0x3ea4be49	0.32176426
132	0xbf99ac8a	-1.200578
133	0x40144250	2.3165474
134	0x3ec5aa2a	0.38606387
135	0x3ee46bd0	0.44613504
136	0x3f2c7ab5	0.67374736
137	0x3fa8307e	1.3139799
138	0x3e449858	0.1919874
139	0xbe5295af	-0.20564912
140	0x3d995259	0.0748641
141	0x3e865012	0.26232964
142	0x3ce9c29f	0.028535185
143	0x3fdb6243	1.7139362
144	0x3f2ed261	0.6828976
145	0xbf00ce48	-0.5031476
146	0x3eb63869	0.35589913
147	0x3e009ddf	0.12560223
148	0x3ed033fe	0.40664667
149	0xbdf80185	-0.12109665
150	0xbf29048f	-0.6602258
151	0xbe2483c5	-0.16065891
152	0x3ee72aee	0.4514994
153	0x3fa9dcf1	1.3270551
154	0x40144c0c	2.3171415
155	0xbc911d65	-0.017714212
156	0x3f4d588c	0.80213237
157	0xbe867b8d	-0.26266137
158	0x3f72ebdb	0.94891137
159	0xbfb32488	-1.3995523
160	0x3f238b6d	0.6388462
161	0x3f680127	0.9062676
162	0xbcf0d1d0	-0.029396921
163	0xbe9d9958	-0.30781054
164	0xbee76163	-0.45191488
165	0x3fed5230	1.8540707
166	0x3e4414b9	0.1914853
167	0xbeede2a3	-0.46461973
168	0x3fc93e5f	1.5722159
169	0x3f385e4a	0.72018874
170	0xbf0abcb8	-0.5419421
171	0x3f1b9cf5	0.6078637
172	0x3e5c3a4d	0.21506615
173	0xbf15b6ac	-0.5848186
174	0xbf195b84	-0.59905267
175	0x3d08553c	0.03328441
176	0x3f24990a	0.6429602
177	0x3ed4e85b	0.41583523
178	0x3e3ce852	0.18447998
179	0x3f6805c9	0.9063383
180	0x3e52a0b2	0.20569113
181	0x3dee53d6	0.11637084
182	0x3eeecb8f	0.46639678
183	0x3e4efe99	0.20214309
184	0xbe5fb6dd	-0.218471
185	0xbf338317	-0.701219
186	0xbebb558f	-0.36588714
187	0xbf07eb6f	-0.5309362
188	0xbe23e64f	-0.16005825
189	0x3f89c482	1.0763094
190	0xbe39244d	-0.18080254
191	0x3e0b75af	0.13619111
192	0x3e59c9f0	0.2126844
193	0x3f19e4ab	0.60114545
194	0xbf235c41	-0.63812643
195	0x3f0ca5f0	0.549407
196	0x3f3b9018	0.73266745
197	0x3f67283f	0.90295786
198	0x3f0328e9	0.512343
199	0xbed03096	-0.40662068
200	0xbe413f75	-0.18871863
201	0xbe41def3	-0.18932705
202	0xc012da0a	-2.294558
203	0xbeaa8936	-0.3330781
204	0x3ffa1a4d	1.9539276
205	0x3f2c1451	0.672185
206	0x3e6f63e0	0.23377943
207	0xbf220626	-0.6329063
208	0xbe096172	-0.13416079
209	0xbdc9039d	-0.09815142
210	0xbe323792	-0.17404011
211	0x3f13cabe	0.57731235
212	0x3ebd05cd	0.36918488
213	0x3f3f491a	0.7472092
214	0xbf1061a6	-0.56399
215	0xc0474558	-3.1136074
216	0xbe926f5e	-0.2860059
217	0xc0088263	-2.1329582
218	0x3ea5ebe6	0.3240654
219	0xbf2c45e4	-0.67294145
220	0xbf79bc0b	-0.97552556
221	0x3f892dc8	1.0717096
222	0x3f59e7c5	0.8511928
223	0x3f847d50	1.0350742
224	0xbc93b0d2	-0.01802865
225	0xbe40d3b8	-0.18830764
226	0x3f60a534	0.8775208
227	0x3ec9e135	0.39429632
228	0x3e9f151c	0.31070793
229	0xbdc62343	-0.096746944
230	0x3dd1a384	0.10236266
231	0x3fe431fd	1.7827755
232	0xbdac97b8	-0.084273756
233	0x3eb5fc17	0.35543892
234	0xbeb5f19e	-0.35535902
235	0x3f94d247	1.1626672
236	0xbf647bf9	-0.8925167
237	0x3dfffaf9	0.12499041
238	0x3df4a090	0.11944687
239	0xbe1a4b7e	-0.1506786
240	0xbe81e860	-0.253726
241	0x3f43a6e0	0.76426506
242	0xc0301b3d	-2.7516625
243	0xbeb6e626	-0.35722464
244	0x3f869b42	1.0516131
245	0xbe483fe5	-0.19555624
246	0x3dc273a0	0.0949471
247	0xbf94c5ef	-1.1622905
248	0x3ebf8a6c	0.37410295
249	0xbead9f18	-0.3391044
250	0xbe9f34b7	-0.31094906
251	0x3ee92603	0.45536813
252	0xbde3d6e3	-0.11124971
253	0x3faf2f48	1.3686304
254	0x3fa69484	1.3014073
255	0xbf3fcdb7	-0.7492327

bias f4 [64]
0	0x3f24480e	0.64172447
1	0xbe492052	-0.19641235
2	0xbc41727e	-0.011807082
3	0xbe4a74ee	-0.19771168
4	0xbd5af814	-0.053459242
5	0xbf0ffb74	-0.5624306
6	0xbd951d6d	-0.07281003
7	0x3d90b5ee	0.0706595
8	0xbe40e445	-0.18837078
9	0xbdbe1b83	-0.09282591
10	0xbf06cc42	-0.5265542
11	0xbe1c2ea9	-0.15252174
12	0xbe581d6e	-0.21104977
13	0xbd264b51	-0.04059917
14	0xbe385c43	-0.18003945
15	0xbd9cc1d1	-0.07654155
16	0xbc2a4120	-0.010391504
17	0xbe6101fb	-0.21973412
18	0x3e8d23b8	0.27566314
19	0xbdde9ec6	-0.108701274
20	0xbd56b9bd	-0.052423228
21	0xbe326755	-0.1742223
22	0x3c8d7734	0.017268755
23	0xbdbdce21	-0.092678316
24	0x3bf8c5cd	0.007591939
25	0xbd869533	-0.06571426
26	0xbd9b8924	-0.07594517
27	0xbf22c5fd	-0.63583356
28	0x3c03f105	0.008053069
29	0xbcb49e13	-0.022048032
30	0xbd8efa89	-0.069813795
31	0xbf1de191	-0.6167231
32	0xbe03b141	-0.12860586
33	0xbd5d5425	-0.054035325
34	0xbe0ac9d5	-0.13553555
35	0xbe4fd8ad	-0.20297499
36	0xbd462fe2	-0.04838551
37	0xbf1d26ee	-0.61387527
38	0x3b56e011	0.0032787363
39	0xbd89b736	-0.06724398
40	0xbd9f2aae	-0.077718124
41	0xbdf07e94	-0.11742893
42	0xbe087c6c	-0.13328713
43	0xbdfe8aea	-0.124288395
44	0x3c1063cf	0.008812859
45	0xbe4358c5	-0.19076832
46	0xbdf08a60	-0.11745143
47	0xbe67ddda	-0.22643223
48	0x3cfa7c82	0.030576948
49	0xbd958f1c	-0.073026866
50	0xbdb0bdac	-0.08629927
51	0xbdecd404	-0.11563876
52	0xbe4390e8	-0.19098246
53	0x3d93363d	0.071880795
54	0xbd9bf975	-0.076159395
55	0xbe06b360	-0.13154364
56	0xbe3a86f6	-0.18215546
57	0x3e95673f	0.29180333
58	0x3ef1a8b5	0.47199026
59	0xbe46cb34	-0.19413453
60	0xbe783ecd	-0.24242707
61	0xbcc6fdc3	-0.024290925
62	0xbde65e2a	-0.11248429
63	0x3ea1648c	0.31522024

weight f4 [64, 64]
0	0xbe9a76d2	-0.30168778
1	0xbd69e6ed	-0.057104994
2	0xbe30cf14	-0.17266494
3	0xbd62f2d5	-0.055407364
4	0x3e46d685	0.1941777
5	0xbbdd344f	-0.0067506204
6	0xbcc00fc4	-0.023445018
7	0xbdbac9e7	-0.09120541
8	0x3c8eefa0	0.017448246
9	0xbd641b71	-0.055690233
10	0x3c9df5d8	0.019282266
11	0xbe24cf7c	-0.16094774
12	0xbd9cddec	-0.07659516
13	0xbe31442f	-0.17311166
14	0xbde3b001	-0.111175545
15	0xbdc1933e	-0.09451912
16	0xbd08c086	-0.03338673
17	0xbe5d02ba	-0.21583071
18	0xbf3aaa9a	-0.7291657
19	0xbddafffb	-0.10693356
20	0xbe18327e	-0.14863011
21	0xbdbf47f3	-0.09339895
22	0xbdd004f1	-0.101571925
23	0xbe8692b7	-0.2628381
24	0xbc20d960	-0.009817451
25	0xbe277304	-0.16352469
26	0xbd8a1000	-0.06741333
27	0x3da9eb63	0.082968496
28	0xbe00ae84	-0.12566572
29	0xbbdddecf	-0.0067709456
30	0xbdc55d76	-0.09636967
31	0xbe1679ff	-0.14694975
32	0x3db41d78	0.08794683
33	0x3cd92298	0.026505753
34	0xbc50947e	-0.012730716
35	0xbe156118	-0.1458782
36	0xbe0ea732	-0.13930967
37	0x3c9e08f0	0.019291371
38	0xbe3be161	-0.18347694
39	0xbddf2e59	-0.10897512
40	0x3bf17140	0.007368237
41	0xbd9a6e08	-0.07540518
42	0x3d9c3b04	0.07628444
43	0xbdff60b2	-0.12469615
44	0xbe22ac5c	-0.15886062
45	0xbd0ca083	-0.034332763
46	0x3e390051	0.18066527
47	0xbc6b02d5	-0.014343937
48	0x3d00de0c	0.03146176
49	0xbe1ee1e3	-0.15515856
50	0xbd858d17	-0.065210514
51	0xbd147761	-0.03624666
52	0xbe05092c	-0.1299178
53	0x3c1bdb3b	0.009512718
54	0xbe30b08b	-0.17254846
55	0xbd60df38	-0.054900378
56	0xbda15485	-0.07877449
57	0xbed466a4	-0.4148456
58	0xbe31d6f6	-0.17367157
59	0x3d2ab048	0.04167202
60	0x3d3dbfb9	0.04632542
61	0xbde52695	-0.111889996
62	0x3d8b37b6	0.067977354
63	0xbdc11cbf	-0.09429311
64	0xbf1571fc	-0.5837705
65	0xbd7273ac	-0.059192345
66	0xbcd03040	-0.025413632
67	0x3df155aa	0.11783917
68	0xbe85c8e8	-0.26129842
69	0xbe0f80f4	-0.14014035
70	0x3d40bff8	0.047058076
71	0xbf130241	-0.57425314
72	0x3f795eb9	0.9741016
73	0xbdecf0a2	-0.115693346
74	0x3ec50d0b	0.38486513
75	0x3ddf5b68	0.10906106
76	0x3ec377c9	0.38177326
77	0xbe20defd	-0.15710063
78	0xbd9aef4a	-0.07565172
79	0xbde3fbc4	-0.11132005
80	0xbe530552	-0.20607498
81	0xbd09cb10	-0.03364092
82	0xbec0df71	-0.37670472
83	0x3dad8ce2	0.08474137
84	0xbc780535	-0.01513796
85	0x3da8f700	0.082502365
86	0x3e0bf29e	0.1366677
87	0xbf002478	-0.50055647
88	0x3d85dbbc	0.06536052
89	0x3ebd797f	0.37006757
90	0x3cf91800	0.030406952
91	0x3c163c07	0.009169585
92	0xbe2d4ce0	-0.16923857
93	0x3cc7dcd8	0.024397299
94	0xbd6e69e4	-0.058206454
95	0x3d9440c5	0.07238916
96	0x3d71b3c4	0.05900933
97	0x397badca	0.00024001967
98	0x3ed13823	0.4086314
99	0xbe3d50e2	-0.18487886
100	0xbdcf44b5	-0.10120527
101	0xbc4c69c4	-0.012476388
102	0x3e56c01f	0.20971726
103	0x3d66fa60	0.05639112
104	0xbd2f95fc	-0.042867646
105	0x3c43e900	0.011957407
106	0xbc4259bc	-0.011862215
107	0xbd1e7718	-0.038687795
108	0x3ee22e1e	0.4417581
109	0xbb25b480	-0.0025284588
110	0xbc3442e0	-0.011002272
111	0xbdee7956	-0.11644237
112	0xbd97b1f4	-0.07406989
113	0xbdcca806	-0.099929854
114	0x3dc6dd70	0.097102046
115	0xbea632d4	-0.32460654
116	0x3df7b1db	0.1209447
117	0xbd9969b5	-0.07490865
118	0x3db190e4	0.08670214
119	0x3e827a93	0.25484142
120	0xbdc0608c	-0.09393415
121	0xbf270d08	-0.6525426
122	0xbe08d4fd	-0.13362499
123	0xbda00392	-0.07813181
124	0x3e6edf61	0.233274
125	0x3ebb39c3	0.36567506
126	0x3d067bd4	0.032832935
127	0xbe5037cc	-0.20333785
128	0xbd3e8e33	-0.04652233
129	0xbe0cd37c	-0.1375255
130	0x3d4cd65e	0.050009124
131	0x3c1829e6	0.009287333
132	0x3d2254a9	0.03963152
133	0xbdbd9388	-0.09256655
134	0x3e12ecae	0.14348099
135	0xbea4730c	-0.32119024
136	0xbe51c301	-0.20484544
137	0x3d3d881e	0.04627239
138	0xbd6fcf65	-0.058547396
139	0xbd8fabf3	-0.070152186
140	0xbd10051d	-0.035161126
141	0xbcb2057b	-0.021731129
142	0xbca046a8	-0.019564942
143	0x3c62f3bb	0.013852055
144	0xbd0f3295	-0.03496035
145	0x3d34aa0b	0.044107478
146	0xbe00fd7d	-0.12596698
147	0xbe46c327	-0.19410382
148	0xbd12263a	-0.035680987
149	0xbe45bcbf	-0.19310282
150	0xbd12b547	-0.03581741
151	0xbdace370	-0.08441818
152	0xbd06f238	-0.03294584
153	0x3d2735e3	0.040822875
154	0x3d80d42e	0.0629047
155	0xbd847bbb	-0.06468912
156	0xbd8fe24e	-0.07025586
157	0x3e4be8e4	0.1991306
158	0x3de2829a	0.110600665
159	0x3ca385e1	0.0199613
160	0x3dbc6b22	0.092001215
161	0x3cb2dd9b	0.021834185
162	0xbdf97165	-0.121798314
163	0x3d84882e	0.06471287
164	0xbda7186e	-0.081589565
165	0xbe15849a	-0.14601365
166	0x3dc850bf	0.09781026
167	0xbe765316	-0.24055132
168	0xbcf48360	-0.0298478
169	0xbd6b019c	-0.05737458
170	0x3d626f50	0.055281937
171	0xbdcba29d	-0.099431254
172	0xbdf100db	-0.11767741
173	0x3e54a621	0.20766498
174	0x3d68bc5d	0.056820262
175	0x3c85e88d	0.01634624
176	0xbd7758c0	-0.060387373
177	0xbe134ce9	-0.14384808
178	0xbd8b900b	-0.068145834
179	0xbe4f881e	-0.20266768
180	0xbe19ff4e	-0.15038797
181	0xbdf83665	-0.1211975
182	0xbc98198f	-0.018566875
183	0xbdcae918	-0.0990774
184	0xbd901c11	-0.07036603
185	0xbe849196	-0.25892323
186	0xbdf7a261	-0.12091518
187	0xbdb6f079	-0.08932585
188	0xbe144fbb	-0.1448354
189	0xbe5dbf92	-0.2165511
190	0x3cfb1f70	0.030654639
191	0xbd4b3346	-0.049609445
192	0xbdb3e67b	-0.08784195
193	0x3bd0f40b	0.0063767484
194	0x3d0b5e8c	0.034025714
195	0x3d839b66	0.06426124
196	0xbcd786db	-0.026309421
197	0x3e1cd808	0.15316784
198	0x3dadceaf	0.084866874
199	0xbe7e10f5	-0.24811156
200	0x3df41b5e	0.119192824
201	0x3cf786d8	0.030215666
202	0xbd5a0d11	-0.053235117
203	0x3daf9285	0.08572868
204	0x3e204444	0.15651041
205	0xbc51426f	-0.012772187
206	0xbdcfd596	-0.1014816
207	0x3c9fbe90	0.019500047
208	0xbdb97dca	-0.090571955
209	0xbde6871e	-0.1125624
210	0xbc266e1b	-0.010158087
211	0xbdf5e64b	-0.120068155
212	0xbde6a6cb	-0.11262282
213	0xbac8d8ce	-0.0015323402
214	0x3dcf4ff7	0.10122674
215	0xbe883aaf	-0.26607272
216	0x3decd51e	0.115640864
217	0x3d3378b5	0.043816287
218	0x3d6f924c	0.05848913
219	0xbe073cc4	-0.13206774
220	0xbd8d48f2	-0.06898679
221	0x3d8a88af	0.067643516
222	0x3e292fa5	0.16522081
223	0x3d202c3c	0.039104685
224	0x3c95ea58	0.01830022
225	0x3d6c2bb4	0.057658866
226	0x3c3a22dd	0.011360851
227	0xbdbecb7e	-0.09316157
228	0xbd4d9d60	-0.050198913
229	0x3c03573c	0.008016404
230	0xbd16ca3e	-0.036813967
231	0x3e174f5b	0.14776365
232	0x3df2b3ae	0.118506774
233	0xbca4dce2	-0.020124856
234	0xbdbcb918	-0.09214991
235	0x3dbe1798	0.09281844
236	0xbd15aa65	-0.036539454
237	0x3da453e5	0.08023814
238	0x3bec1696	0.007204841
239	0xbd261d2f	-0.040555175
240	0x3daaef76	0.08346455
241	0xbddb8bd9	-0.10720033
242	0xbe4b301a	-0.19842568
243	0xbddefbd4	-0.10887876
244	0x3e209454	0.15681583
245	0x3b3182ca	0.0027086013
246	0x3c84fea2	0.0162347
247	0x3db65b71	0.0890416
248	0xbb9f385f	-0.004859015
249	0xbd15afcb	-0.036544602
250	0xbe170684	-0.1474858
251	0xbe94c964	-0.290599
252	0xbe96c64d	-0.29448166
253	0xbd86a619	-0.06574649
254	0x3de45296	0.111485645
255	0x3c9f92fb	0.019479265

bias f4 [64]
0	0xbe187fbb	-0.14892475
1	0xbf01d5cf	-0.5071687
2	0xbeb51409	-0.35366848
3	0xbe172a53	-0.14762239
4	0xbddf2d10	-0.10897267
5	0xbca8c46b	-0.020601472
6	0xbe9f4678	-0.3110845
7	0xbebdcd68	-0.37070775
8	0xbeb1e83d	-0.34747496
9	0xbe8c3745	-0.27385917
10	0xbe217661	-0.15767814
11	0x3ec30e80	0.38097
12	0xbe8207de	-0.25396627
13	0xbee69ac2	-0.45039946
14	0xbf1cdbfe	-0.6127318
15	0x3ea1031d	0.31447688
16	0xbf1f8b51	-0.62321955
17	0xbec8c3a2	-0.39211756
18	0xbf16b855	-0.5887502
19	0x3ce0ec05	0.027456293
20	0xbebb9ef6	-0.36644715
21	0xbe9ace2e	-0.30235428
22	0xbe90f489	-0.28311566
23	0xbf1bacba	-0.60810435
24	0x3e72563f	0.23665713
25	0xbe8b6dde	-0.2723226
26	0xbe9d5eb6	-0.3073632
27	0xbbc748d0	-0.006081678
28	0x3d62c113	0.05535991
29	0x3da65f2f	0.081236236
30	0xbe2acc4c	-0.16679496
31	0xbf1bc1ef	-0.60842794
32	0xbe8576d4	-0.2606722
33	0xbed19c16	-0.40939397
34	0xbf3e1073	-0.7424385
35	0xbe61197c	-0.21982378
36	0xbddc1344	-0.10745862
37	0xbe92f7f9	-0.28704813
38	0xbe3cab9d	-0.1842484
39	0xbc6d78c5	-0.014494126
40	0xbe236203	-0.15955357
41	0xbeac7fa0	-0.3369112
42	0xbe9fe190	-0.31226778
43	0xbe2a447c	-0.16627687
44	0xbe77921e	-0.24176833
45	0xbe034db1	-0.12822606
46	0xbe9b27be	-0.30303758
47	0xbec31e39	-0.38108996
48	0x3e8cac88	0.2747538
49	0xbeb50f22	-0.35363108
50	0xbd8dacce	-0.069177255
51	0xbe63f960	-0.22263098
52	0xbe752d8a	-0.23943153
53	0xbf16fa27	-0.5897545
54	0xbe9e7e98	-0.30955958
55	0xbe593680	-0.21212196
56	0xbd091ca9	-0.033474598
57	0xbe519611	-0.20467402
58	0x3e39099e	0.18070075
59	0xbdeade7a	-0.11468215
60	0xbe316a9a	-0.17325822
61	0xbe9f6cfb	-0.31137833
62	0xbeb3c5be	-0.35111803
63	0xbd149d16	-0.03628262

weight f4 [64, 64]
0	0x3d91e83b	0.071243726
1	0xbde722f1	-0.112859614
2	0x3e5d2d77	0.21599375
3	0x3e1d6f96	0.15374598
4	0x3d95486a	0.072892025
5	0xbf2ee4e8	-0.68318033
6	0x3e5bae8c	0.21453303
7	0xbd8bbc93	-0.06823077
8	0xbd457573	-0.04820771
9	0x3d523ece	0.051329426
10	0x3e07b4cb	0.13252561
11	0x3c48ff76	0.012267938
12	0x3c35e494	0.011101861
13	0x3e794832	0.24343947
14	0x3cf034a1	0.02932197
15	0xbeb9b7c9	-0.3627303
16	0xbeda175e	-0.42595953
17	0x3e25a6b3	0.16176872
18	0xbd7514e1	-0.059834365
19	0x3d66a619	0.056310747
20	0x3dd63a2e	0.10460316
21	0x3d5914e0	0.052998424
22	0xbd2c1de5	-0.042020697
23	0xbeac7468	-0.3368256
24	0xbda3f61d	-0.08005927
25	0x3e00d529	0.12581314
26	0xbf343d3b	-0.7040593
27	0x3d7b0510	0.061284125
28	0x3cc634b8	0.02419506
29	0xbd5b2648	-0.053503305
30	0x3e3d40e5	0.18481787
31	0x3dc4faa0	0.096181154
32	0xbe29ce37	-0.16582571
33	0xbe93ed56	-0.2889201
34	0xbda98990	-0.08278191
35	0x3e291b4b	0.16514318
36	0x3c57b056	0.0131646
37	0xbca47db8	-0.020079479
38	0x3dfed356	0.12442653
39	0xbd92cc4a	-0.07167871
40	0x3da965f8	0.08271402
41	0x3e0ec950	0.13943982
42	0x3d896829	0.0670932
43	0xbe0cdb27	-0.13755475
44	0xbd452fc2	-0.04814125
45	0x3dd9b85b	0.10630866
46	0xbe3dd26a	-0.18537298
47	0xbe2b81a7	-0.16748677
48	0xbf454491	-0.7705775
49	0x3e167a9d	0.14695211
50	0x3e069836	0.13144001
51	0x3df7baa0	0.12096143
52	0xbda1ad6a	-0.07894404
53	0xbd0c2a17	-0.034219828
54	0x3e75ba57	0.23996864
55	0x3d5eb90a	0.054375686
56	0x3e9d3c25	0.3070995
57	0xbea4b895	-0.32172075
58	0x3e132e14	0.14373046
59	0xbe81bf48	-0.2534125
60	0xbdd270aa	-0.10275395
61	0x3e880e1b	0.26573262
62	0x3d86feae	0.06591545
63	0xbd795fe3	-0.06088246
64	0xbdd58653	-0.10426011
65	0xbd8e0f5b	-0.069365226
66	0x3c1048e7	0.008806444
67	0x3e2a2eab	0.16619365
68	0x3e35446c	0.17701882
69	0xbf04e6e3	-0.51914805
70	0x3d84165e	0.06449579
71	0xbdd1c063	-0.10241773
72	0xbe5f329c	-0.2179665
73	0xbde492d8	-0.11160821
74	0x3e6f8788	0.23391545
75	0xbd6f86dc	-0.05847822
76	0xbdaf49f7	-0.085590295
77	0xbe263751	-0.16232039
78	0xbd9f1a71	-0.07768715
79	0xbe9136e5	-0.28362194
80	0xbe4387ea	-0.19094816
81	0x3d5f4634	0.05451031
82	0xbe0947f4	-0.13406354
83	0x3dc3248d	0.09528456
84	0xbdecdc5b	-0.11565467
85	0x3bb729d0	0.0055897012
86	0xbda43d03	-0.080194496
87	0xbe6a269c	-0.22866291
88	0x3b4f6801	0.0031647685
89	0xbd08772b	-0.033316772
90	0xbf2c764d	-0.6736801
91	0x3d0236b4	0.03179045
92	0xbe1dab77	-0.1539744
93	0x3b894cb6	0.004190053
94	0x3d8d4c52	0.068993226
95	0xbde4ef11	-0.11178411
96	0xbe961da5	-0.29319492
97	0x3cbe4662	0.02322692
98	0xbe19b404	-0.15010077
99	0x3d4f3a10	0.050592482
100	0xbdca1ed9	-0.09869165
101	0xbd94fdb2	-0.07274951
102	0xbd612cb0	-0.054974258
103	0xbddb83a7	-0.1071847
104	0xbca77d28	-0.020445421
105	0x3e435456	0.1907514
106	0xbd8fe73b	-0.070265256
107	0xbd99daaa	-0.0751241
108	0xbe81a6be	-0.25322527
109	0xbe3381d2	-0.17529991
110	0xbe6fe748	-0.2342807
111	0xbdb8d182	-0.090243354
112	0xbeb3d527	-0.3512356
113	0xbe8dd02b	-0.27697882
114	0x3e91cede	0.2847814
115	0xbb1b8182	-0.0023728316
116	0xbe72a85a	-0.23697034
117	0x3e2d9690	0.16951966
118	0x3d924dd4	0.07143751
119	0xbe41de94	-0.18932563
120	0x3ea57933	0.3231903
121	0xbe23c9a8	-0.15994895
122	0xbd556a4f	-0.052103337
123	0xbe04c08f	-0.1296408
124	0x3dd3ce09	0.103420325
125	0xbe034052	-0.12817505
126	0x3ce67320	0.028131068
127	0xbd8ddae8	-0.06926519
128	0x3e57e183	0.2108212
129	0x3e0c6c3b	0.13713162
130	0x3dcfeb6e	0.101523265
131	0x3aa871e0	0.001285132
132	0xbe551f67	-0.2081276
133	0x3c96543d	0.018350715
134	0xbce744b0	-0.028230995
135	0xbd1f9118	-0.03895673
136	0x3c935f98	0.017989919
137	0xbdb1bf0e	-0.08679019
138	0xbbbd25e8	-0.005772341
139	0xbe6d6640	-0.23183537
140	0x3e9116a4	0.28337586
141	0x3de6b2aa	0.11264546
142	0x3e0ef536	0.13960728
143	0xbd90fab5	-0.070790686
144	0x3e604e25	0.2190481
145	0xbdbecd5d	-0.09316514
146	0xbd365511	-0.04451472
147	0xbe7d0e6e	-0.24712536
148	0xbd67f3bc	-0.056628928
149	0x3ec31918	0.38105083
150	0x3c2fa930	0.01072149
151	0x3d7fa01b	0.062408548
152	0xbe632eb5	-0.22185786
153	0x3e4dbe1f	0.20092057
154	0x3e8d70fa	0.27625257
155	0xbde28966	-0.11061363
156	0xbdd9758c	-0.106181234
157	0x3e392952	0.18082169
158	0xbde5a106	-0.112123534
159	0xbd817ca8	-0.063226044
160	0xbdd51e28	-0.104061425
161	0x3d7dcb40	0.061961412
162	0xbe95be8d	-0.2924694
163	0xbde39532	-0.11112441
164	0xbecb50a2	-0.39709955
165	0x3d8a0e84	0.0674105
166	0x3d91b7ee	0.0711516
167	0x3d980448	0.074226916
168	0xbc9bd840	-0.019024014
169	0xbd90a7ca	-0.07063253
170	0xbdd951a0	-0.10611272
171	0xbd528114	-0.05139263
172	0x3d06e770	0.03293556
173	0x3d08a240	0.03335786
174	0xbc12d17d	-0.008961079
175	0x3d19eafe	0.03757762
176	0xbe2e99ab	-0.17050807
177	0xbdd868c8	-0.105668604
178	0x3cb68c16	0.022283595
179	0xbdceb360	-0.10092807
180	0xbb192d40	-0.0023372918
181	0x3d0ea846	0.034828447
182	0xbc6f62c4	-0.01461095
183	0x3dafb04e	0.08578549
184	0x3c745fe1	0.014915437
185	0x3d5104a8	0.05102983
186	0x3e6d806f	0.23193525
187	0xbe34e626	-0.1766592
188	0x3b07cdc0	0.0020722002
189	0xbdb50a77	-0.08839887
190	0x3d9a6408	0.07538611
191	0x3cf3f918	0.029781863
192	0xbd9d3fbc	-0.07678172
193	0xbd9d986a	-0.07695086
194	0xbbb56640	-0.005535871
195	0xbd305e14	-0.04305847
196	0x3d0f1f88	0.03494218
197	0xbe10a6a9	-0.14126076
198	0xbca2f9fb	-0.01989459
199	0x3a8bbc23	0.0010660928
200	0xbc201a1e	-0.009771852
201	0xbd05093c	-0.03247951
202	0xbdf0d764	-0.117598325
203	0xbd6bf411	-0.057605807
204	0xbdada5b5	-0.08478872
205	0xbd942c56	-0.07235019
206	0xbe2137b7	-0.1574391
207	0x3cff2db1	0.031149717
208	0xbdc8a286	-0.09796624
209	0xbe228afa	-0.15873328
210	0x3c7cfe65	0.015441512
211	0xbda5de15	-0.080989994
212	0x3cbbe020	0.02293402
213	0xbce15f08	-0.027511135
214	0xbda932a6	-0.082616135
215	0xbd5634a0	-0.05229628
216	0x3cbf1cae	0.023329105
217	0x3d3f8c1c	0.046764478
218	0xbe6f3e82	-0.23363689
219	0x3dab5544	0.083658725
220	0x3d159990	0.0365234
221	0x3ce432a8	0.027856186
222	0xbdfe8f10	-0.12429631
223	0xbd87f9b8	-0.06639427
224	0xbc1aee1d	-0.009456185
225	0xbe5bf0b8	-0.21478546
226	0x3d46e478	0.04855773
227	0x3d1ebf34	0.038756564
228	0x3cbe63e8	0.023240998
229	0xbde8ca66	-0.113667294
230	0x3d61bc4c	0.055111215
231	0xbdde2146	-0.1084619
232	0x3c7bf390	0.015377894
233	0xbdf84524	-0.121225625
234	0xbdd03b67	-0.1016758
235	0xbd241283	-0.040056717
236	0xbe00d97e	-0.12582967
237	0xbd9dfa04	-0.07713702
238	0xbdc7d96c	-0.09758267
239	0xbe2e7253	-0.17035799
240	0xbe187e8c	-0.14892024
241	0xbdf79890	-0.12089646
242	0xbd2c75b0	-0.042104423
243	0x3d6d1df0	0.05788988
244	0xbda15d77	-0.07879155
245	0xbe23af1d	-0.15984769
246	0xbc8a8470	-0.016908854
247	0x3db9f69a	0.09080239
248	0xbc9a2160	-0.018814743
249	0xbe184bb7	-0.14872633
250	0xbde346b2	-0.110974684
251	0x3cb8a410	0.022539169
252	0xbe4c06e1	-0.19924499
253	0xbe173b81	-0.14768793
254	0x3d1537d8	0.03643021
255	0xbd8794fa	-0.06620212

bias f4 [64]
0	0xbe7caef7	-0.24676119
1	0xbe93bf53	-0.28856906
2	0xbf0cfbaf	-0.5507154
3	0xbea6940d	-0.3253483
4	0xbe9a0aa8	-0.30086255
5	0xbeabf529	-0.3358548
6	0xbe35d1de	-0.17755839
7	0xbe8c52cf	-0.27406928
8	0xbe34ef56	-0.17669424
9	0x3eb7fcc8	0.35935044
10	0xbef775ee	-0.4833216
11	0x3d69b68b	0.057058852
12	0xbf826e5e	-1.0189931
13	0x3e88df70	0.2673297
14	0x3da34e9e	0.079739794
15	0xbec7d3df	-0.39028832
16	0xbe3b7e41	-0.18309881
17	0xbeb8af0a	-0.36071044
18	0xbe02e339	-0.12781991
19	0xbedafbc5	-0.4277021
20	0xbf06dfb5	-0.526851
21	0xbea9455c	-0.3306073
22	0xbeae3f21	-0.3403254
23	0xbc1909ee	-0.009340746
24	0xbeb33323	-0.34999952
25	0xbe846d0a	-0.2586444
26	0xbf182f5e	-0.59447277
27	0xbf2f559f	-0.6849002
28	0xbe99b0a3	-0.30017576
29	0xbed35b19	-0.4128044
30	0xbe23ccb0	-0.15996051
31	0xbe9ee858	-0.3103664
32	0xbe7e9f42	-0.2486544
33	0xbf3cf7da	-0.7381569
34	0x3e7e3f15	0.24828751
35	0xbe9035b7	-0.2816598
36	0x3ea6963c	0.32536495
37	0xbe3c96b1	-0.18416859
38	0xbefecbf3	-0.49764976
39	0xbe6bba50	-0.23020291
40	0xbe46755f	-0.19380711
41	0xbebfa243	-0.37428483
42	0xbeb89029	-0.36047485
43	0xbe5eb61c	-0.21749157
44	0xbea316e6	-0.31853408
45	0xbe2dcd3e	-0.16972825
46	0xbdcffde3	-0.10155847
47	0x3f516a75	0.81803066
48	0xbe45b060	-0.19305563
49	0xbe0db6ed	-0.13839312
50	0xbe7c3c5e	-0.24632403
51	0xbe345931	-0.17612149
52	0xbe3085fe	-0.17238614
53	0xbed0d923	-0.40790662
54	0xbdc789cd	-0.0974308
55	0xbec17e1e	-0.37791532
56	0xbe1ef3ac	-0.15522641
57	0xbde03c4b	-0.10949
58	0xbf18a8be	-0.5963248
59	0xbee75bfc	-0.45187366
60	0xbed13802	-0.40863043
61	0x3cfbcdb9	0.030737745
62	0xbe543dc8	-0.20726693
63	0xbe60fad7	-0.21970688

weight f4 [64, 64]
0	0xbdde893b	-0.108660184
1	0xbdbe9d44	-0.0930734
2	0xbd99a168	-0.07501489
3	0x3c4512de	0.012028424
4	0xbdb94531	-0.090464
5	0xbd921546	-0.07132964
6	0x3d4d0664	0.050054923
7	0xbdc55370	-0.09635055
8	0x3dd5f406	0.104469344
9	0xbdc5787d	-0.09642122
10	0xbde87714	-0.11350837
11	0x3c874167	0.016510678
12	0xbdaebea7	-0.08532458
13	0xbd1ded01	-0.038556103
14	0x3e4c94f6	0.19978699
15	0xbdc56854	-0.0963904
16	0xbd92c843	-0.07167103
17	0xbca0b600	-0.019618034
18	0xbd5697d4	-0.05239089
19	0xbe50048c	-0.20314234
20	0xbcf93a70	-0.030423373
21	0xbbadc622	-0.0053031603
22	0xbdbb8e93	-0.09158053
23	0x3e4d4623	0.20046286
24	0x3c0fe1e1	0.008781881
25	0x3de0d118	0.109773815
26	0xbe8b7332	-0.27236325
27	0xbd710e50	-0.05885154
28	0xbc06c3ab	-0.008225362
29	0x3be871a4	0.007093625
30	0x3d9c4be8	0.076316655
31	0xbddf35db	-0.10898944
32	0x3e61103f	0.21978854
33	0xbe1119eb	-0.14170043
34	0xbebc40c5	-0.36768165
35	0xbe45458c	-0.19264811
36	0xbdd8c342	-0.105841175
37	0x3d8e20c4	0.06939843
38	0xbe010f40	-0.12603474
39	0x3dd5d8eb	0.104417644
40	0x3ddd5b96	0.10808484
41	0x3d904677	0.0704469
42	0xbde2b928	-0.11070472
43	0xbda40b1a	-0.0800993
44	0xbd257628	-0.040395886
45	0x3c974c9b	0.018469146
46	0xbdf0ff08	-0.11767393
47	0xbe031b5e	-0.12803409
48	0x3e2ddf64	0.16979748
49	0x3d53c490	0.05170113
50	0xbd0c1240	-0.034197092
51	0xbd154e6f	-0.036451753
52	0xbdb536d0	-0.08848345
53	0xbdd74e04	-0.10512927
54	0xbd825ae6	-0.06364994
55	0x3bc9d77a	0.00615972
56	0x3e5375e0	0.20650434
57	0x3c5d8c10	0.013522163
58	0xbdaa9061	-0.08328319
59	0xbe49589c	-0.19662708
60	0xbd77d806	-0.06050875
61	0xbea5c9fe	-0.3238067
62	0x3ca41a88	0.020032182
63	0x3c5e4ce4	0.013568137
64	0x3d2511fb	0.04030035
65	0xbe00bc6b	-0.12571876
66	0xbc028a90	-0.007967606
67	0x3c347530	0.011014268
68	0xbcc8e153	-0.024521505
69	0x3d7c2c3c	0.061565623
70	0xbdc1b3d4	-0.094581276
71	0xbde33cbd	-0.11095569
72	0x3d3469d4	0.044046238
73	0xbcfdf676	-0.03100131
74	0xbd8649d5	-0.06557051
75	0xbc484f40	-0.012225926
76	0xbec8db93	-0.39230022
77	0xbe106301	-0.14100267
78	0xbf46db56	-0.7767843
79	0xbddfe210	-0.1093179
80	0x3e9420c6	0.28931254
81	0x3dfdfb3a	0.12401433
82	0xbe0de013	-0.13855009
83	0x3e07db49	0.13267244
84	0x3d91b8dc	0.07115337
85	0xbe976ab2	-0.2957359
86	0xbe9e29f7	-0.30891392
87	0xbc2a6984	-0.010401133
88	0x3c77dbc8	0.0151280835
89	0xbc7f4bf0	-0.01558207
90	0x3d82368a	0.06358059
91	0xbd9b47a1	-0.075820215
92	0xbce06d4e	-0.02739587
93	0xbdb21bf8	-0.08696741
94	0xbe597e76	-0.21239647
95	0xbc1d5dec	-0.009604912
96	0xbd7823e2	-0.060581096
97	0xbea3bc6e	-0.31979698
98	0xbecd597f	-0.40107343
99	0xbd54c48a	-0.051945247
100	0xbe3da2c5	-0.18519123
101	0x3c5f259a	0.013619805
102	0x3dfcdc68	0.12346727
103	0xbe291bb8	-0.1651448
104	0xbe431eda	-0.19054738
105	0x3d883398	0.06650466
106	0xbda7e125	-0.0819724
107	0x3c76fd67	0.015075064
108	0xbcc0b2a8	-0.02352269
109	0xbd00c1a8	-0.031434685
110	0xbe0d9f34	-0.13830262
111	0xbda14efe	-0.07876395
112	0x3d3934b3	0.045216274
113	0xbd901e2a	-0.07037003
114	0x3d9f6681	0.07783223
115	0xbe1a5eb4	-0.15075189
116	0xbe123fe6	-0.14282188
117	0x3d71a768	0.05899754
118	0xbd5eee14	-0.054426268
119	0xbd905e6c	-0.070492595
120	0x3ae03216	0.001710477
121	0xbdcd82dd	-0.10034726
122	0x3b12f540	0.0022424012
123	0xbbc5b7b7	-0.0060338634
124	0x3cb2fba3	0.021848505
125	0x3cf983ad	0.030458296
126	0xbe147a7c	-0.14499849
127	0xbe19d803	-0.15023808
128	0x3e622440	0.22084141
129	0x3e0cbe49	0.13744463
130	0x3cac4cd0	0.02103272
131	0xbe0e83d9	-0.13917483
132	0x3e204367	0.15650712
133	0xbd4edb6e	-0.050502233
134	0x3d372f7c	0.04472302
135	0xbd98a282	-0.07452871
136	0x3c34bcba	0.011031324
137	0xbe0a7722	-0.13522008
138	0xbd5994ac	-0.0531203
139	0x3dbf6a8d	0.09346495
140	0xbe4a0fac	-0.19732541
141	0xbd54defb	-0.051970463
142	0xbb146671	-0.0022644068
143	0xbd808d71	-0.06276978
144	0xbe381595	-0.17976983
145	0xbd10d2c5	-0.035357255
146	0x3d85b330	0.06528318
147	0x3d828468	0.06372911
148	0x3d7ee279	0.0622277
149	0xbca7c5c5	-0.020480046
150	0x3d917c3c	0.07103774
151	0xbdec7927	-0.115465455
152	0xbe83dc8c	-0.257542
153	0x3e18c610	0.14919305
154	0xbe892a7d	-0.26790228
155	0xbe84cf8e	-0.25939602
156	0xbe06819d	-0.13135381
157	0xbee702c4	-0.45119298
158	0xbe2f13c2	-0.17097381
159	0x3e0b75c6	0.13619146
160	0xbcc76348	-0.024339333
161	0xbddd87f9	-0.1081695
162	0xbee64562	-0.4497481
163	0x3d8ea52b	0.06965097
164	0xbeb2be37	-0.34910747
165	0xbe4d4c6f	-0.20048688
166	0xbe2b9de3	-0.16759448
167	0x3adc322b	0.0016799619
168	0x3e3145d2	0.1731179
169	0x3e107256	0.14106116
170	0xbd1276cf	-0.035757836
171	0x3d4829a4	0.048867837
172	0xbe2cfe29	-0.1689383
173	0xbdce5476	-0.100747034
174	0xbe68755d	-0.2270102
175	0xbe9c1170	-0.30482054
176	0xbc3876d0	-0.011258796
177	0x3dfe12ee	0.12405954
178	0xbd340b20	-0.043955922
179	0xbda1e836	-0.07905619
180	0xbe00214b	-0.125127
181	0x3deea1de	0.116519675
182	0x3df64a7f	0.12025928
183	0xbd47d0a3	-0.048782956
184	0x3e8f05bd	0.27934065
185	0xbe5b1461	-0.21394493
186	0xbe381944	-0.17978388
187	0xbd88c766	-0.06678657
188	0xbd541965	-0.05178203
189	0x3e12afe0	0.14324903
190	0x3d0b37e6	0.033988856
191	0x3e9962f4	0.29958308
192	0x3c750dec	0.0149569325
193	0xbe135343	-0.1438723
194	0x3d8a6e36	0.06759302
195	0xbd5986a9	-0.053106938
196	0x3e24496d	0.16043635
197	0x3d88eaec	0.06685433
198	0xbc209f13	-0.009803551
199	0x3dd3e3fa	0.103462175
200	0xbe3b72c8	-0.18305504
201	0xbdc5b500	-0.09653664
202	0xbde0bc02	-0.1097336
203	0xbd8a3d1b	-0.06749936
204	0xbe184735	-0.14870913
205	0xbe8aba75	-0.2709538
206	0x3d89073f	0.06690835
207	0x3e11a6c4	0.14223772
208	0xbdec2409	-0.11530311
209	0x3e0a531e	0.13508269
210	0x3da6e23a	0.08148618
211	0xbe1eee5b	-0.15520613
212	0xbdb0594e	-0.086107835
213	0xbe0defe7	-0.13861047
214	0x3c11c745	0.008897607
215	0x3e56595c	0.20932525
216	0xbde3f373	-0.11130419
217	0x3e4875c9	0.19576181
218	0xbe00d31c	-0.12580532
219	0xbe2d6ebb	-0.16936772
220	0xbe5a3b6b	-0.21311729
221	0xbea51e19	-0.32249525
222	0x3d0d8914	0.034554556
223	0x3d89347c	0.06699464
224	0xbdb38633	-0.08765831
225	0xbc985086	-0.018593084
226	0xbe63a023	-0.22229056
227	0x3c147150	0.009060219
228	0x3bb6a267	0.005573559
229	0x3c589658	0.0132194385
230	0xbe9030b6	-0.28162163
231	0x3e693c9b	0.22777025
232	0xbd7516fd	-0.059836376
233	0x3d8a6454	0.06757417
234	0x3d95c499	0.07312889
235	0xbd3945e8	-0.045232683
236	0x3e603e5c	0.21898788
237	0x3c950c73	0.018194413
238	0xbe5f7d57	-0.21825157
239	0xbd56b103	-0.052414905
240	0x3e379902	0.17929462
241	0x3e6a0f0a	0.228573
242	0x3d5c9c40	0.05385995
243	0xbde20e7e	-0.110379204
244	0xbc23d2ca	-0.0099989865
245	0x3e09bb16	0.13450274
246	0x3e30e75f	0.17275761
247	0xbde064c1	-0.10956717
248	0xbb77c541	-0.0037806781
249	0x3d2fcc3b	0.04291938
250	0xbdec21bf	-0.11529874
251	0x3c713c80	0.014723897
252	0xbea402aa	-0.32033283
253	0xbe185f5d	-0.14880128
254	0xbe14e22d	-0.14539404
255	0xbdfdd4fc	-0.12394139

bias f4 [64]
0	0xbf16df75	-0.5893472
1	0xbf03773d	-0.5135382
2	0xbf0d0e22	-0.5509969
3	0xbf4e59b2	-0.80605614
4	0xbf20ffd0	-0.6289034
5	0xbf42b771	-0.7606116
6	0xbf20d9b1	-0.6283217
7	0xbf2d99ab	-0.67812604
8	0xbebe44c5	-0.37161842
9	0xbf0bdb0d	-0.5463112
10	0xbf01f3db	-0.5076272
11	0xbf2147f2	-0.63000405
12	0xbe589c7b	-0.21153443
13	0xbf48fd0c	-0.7851112
14	0xbec2b686	-0.3802988
15	0xbefd1076	-0.4942662
16	0xbec522a5	-0.38502994
17	0xbe067fd1	-0.13134696
18	0xbf24c960	-0.64369774
19	0xbd64b58d	-0.055837203
20	0xbecd5b11	-0.4010854
21	0xbeab5a42	-0.334673
22	0xbe8b3c30	-0.27194357
23	0xbe17fdee	-0.1484296
24	0xbe89c35e	-0.26906866
25	0xbe72969b	-0.23690264
26	0xbf054a87	-0.52066845
27	0xbf38bff5	-0.72167903
28	0xbf1ed52c	-0.62044024
29	0x3c9f34d4	0.01943437
30	0xbea00091	-0.31250432
31	0xbb2736bd	-0.0025514804
32	0xbf39bad5	-0.7255071
33	0xbec6e87f	-0.38849255
34	0xbeb40ede	-0.35167593
35	0xbeb7778b	-0.35833392
36	0xbf4fd0c4	-0.81177926
37	0xbf75ccd7	-0.96015686
38	0xbf52c629	-0.8233362
39	0xbf493e1b	-0.7861039
40	0xbefe7ff3	-0.49706993
41	0xbf1c063e	-0.60947025
42	0x3f6c6a72	0.9234992
43	0xbe760cf3	-0.24028377
44	0xbee9629d	-0.45583048
45	0x3f4e5291	0.80594736
46	0xbf201dd4	-0.62545514
47	0xbeeb576e	-0.4596514
48	0xbf2297d7	-0.6351294
49	0xbd706969	-0.058694277
50	0xbe0f01be	-0.13965508
51	0xbdebf65f	-0.11521601
52	0xbf1d1e91	-0.61374766
53	0xbf0461aa	-0.51711524
54	0xbf0ebd92	-0.5575801
55	0xbfacc2ac	-1.3496909
56	0xbef693bd	-0.4815959
57	0xbef0f9fa	-0.47065717
58	0xbf27ad74	-0.65499043
59	0xbedbe42c	-0.4294752
60	0xbeaf4b83	-0.34237298
61	0xbff06798	-1.8781614
62	0xbeab3745	-0.33440605
63	0xbf36ebef	-0.71453756

weight f4 [64, 64]
0	0xbcda4af8	-0.026647076
1	0xbe1e3bf5	-0.1545256
2	0xbe968efc	-0.29405963
3	0xbd48ef9a	-0.049056627
4	0xbeaf2ead	-0.34215298
5	0xbe2ce529	-0.16884293
6	0xbd215be9	-0.039394293
7	0x3eca4660	0.39506817
8	0xbca73a6c	-0.0204136
9	0xbe82c472	-0.255405
10	0x3e8dca7e	0.27693552
11	0xbda80a32	-0.082050696
12	0xbe4b0f6b	-0.198301
13	0xbc2bdc62	-0.010489555
14	0xbd524012	-0.051330633
15	0xbcef8332	-0.029237363
16	0xbe628199	-0.2211975
17	0xbe1a1dca	-0.15050426
18	0x3e0ff894	0.14059669
19	0xbeba8310	-0.36428118
20	0x3d1b84cc	0.03796844
21	0x3df597f4	0.119918734
22	0x3d172bc6	0.03690698
23	0xbd4ccf89	-0.05000261
24	0xbd3babd8	-0.04581818
25	0xbd7e3dbd	-0.062070597
26	0x3d860d20	0.06545472
27	0x3ed3d63a	0.4137438
28	0x3c828530	0.01593265
29	0xbdd14fb6	-0.10220282
30	0xbe4af6b7	-0.19820677
31	0xbea3922f	-0.31947467
32	0xbdca7976	-0.09886448
33	0xbdca69d1	-0.09883464
34	0x3f0806cd	0.5313538
35	0xbe7a4599	-0.24440612
36	0xbe02986c	-0.12753457
37	0xbe5f5002	-0.21807864
38	0xbdf4a9b8	-0.11946434
39	0xbe902d07	-0.28159353
40	0xbd409481	-0.047016624
41	0xbd6e6e35	-0.05821057
42	0xbddd6401	-0.1081009
43	0x3ce89cfa	0.028395165
44	0xbe1c3281	-0.1525364
45	0xbe898a8d	-0.26863518
46	0xbea319d1	-0.31855634
47	0xbe277e69	-0.16356815
48	0xbd9d9b8e	-0.07695685
49	0xbe2afa87	-0.16697131
50	0x3c38bd95	0.011275669
51	0x3da49508	0.08036238
52	0xbc381c74	-0.0112372525
53	0x3ec2ff90	0.38085604
54	0xbdb56282	-0.088566795
55	0xbe19d10e	-0.15021154
56	0xbe29a155	-0.1656545
57	0xbdbfe64e	-0.09370099
58	0xbdea5b6a	-0.11443217
59	0xbea0ddfe	-0.31419367
60	0xbe08cd1c	-0.13359493
61	0xbe51c128	-0.2048384
62	0xbcd46da8	-0.025931194
63	0x3db5c66c	0.088757366
64	0xbe30ce31	-0.17266156
65	0x3de5dbbd	0.112235524
66	0x3e4adada	0.19810048
67	0x3d76373a	0.060111262
68	0x3e46c7f7	0.19412218
69	0xbe927484	-0.2860452
70	0xbf0568ef	-0.5211324
71	0xbe5be1b1	-0.21472813
72	0x3ca3de5e	0.020003494
73	0xbce35215	-0.0277491
74	0xbe3d75de	-0.18501994
75	0xbd8d402a	-0.06897004
76	0xbd962ed6	-0.07333152
77	0x3d4308e8	0.047615916
78	0x3e7ce5de	0.24697062
79	0x3b6b5e24	0.0035914266
80	0xbef008b3	-0.46881637
81	0xbc777cee	-0.015105469
82	0xbe96dce1	-0.29465392
83	0xbec3f876	-0.38275498
84	0x3e52729e	0.20551535
85	0x3e3fc5f0	0.18727851
86	0xbf0234b8	-0.5086169
87	0x3e4194bf	0.18904398
88	0x3dea9e59	0.11455984
89	0x3daf179c	0.08549425
90	0xbe44ec33	-0.19230728
91	0x3d4778fb	0.04869936
92	0xbe2b8b17	-0.16752277
93	0xbed889e8	-0.42292714
94	0xbcb02d21	-0.021505894
95	0x3e1c3e8f	0.15258239
96	0x3d0f8b7b	0.03504513
97	0xbec4c50c	-0.38431585
98	0x3d9832af	0.07431542
99	0xbdf78c94	-0.1208736
100	0xbe7d89ad	-0.2475955
101	0x3c2efe09	0.010680684
102	0x3d7f0c26	0.062267445
103	0x3e1bdab8	0.15220153
104	0x3d54c79d	0.05194818
105	0x3dcd4a3b	0.10023924
106	0x3d9b4433	0.07581367
107	0x3d4c1927	0.049828675
108	0xbc8b9ea5	-0.017043421
109	0xbe9a3bfd	-0.30123892
110	0xbebaaac2	-0.36458403
111	0x3df2d0e8	0.11856252
112	0xbe0395a4	-0.12850052
113	0x3ead05af	0.337934
114	0xbba719c7	-0.0050995084
115	0xbe3e30ff	-0.18573378
116	0xbdf8b9bd	-0.12144802
117	0xbe1ed687	-0.15511523
118	0xbbc77bfa	-0.006087777
119	0xbf94c830	-1.1623592
120	0x3e147706	0.14498529
121	0xbe3dc66f	-0.18532728
122	0x3e84bf2d	0.25927106
123	0xbdf91a78	-0.12163252
124	0xbd455ef2	-0.04818625
125	0xbb33e34b	-0.002744871
126	0x3c8a20a4	0.016861267
127	0x3c7b98a1	0.015356214
128	0xbe3eb77e	-0.18624684
129	0xbe3b5056	-0.18292364
130	0x3c59b09d	0.013286737
131	0x3db8b00c	0.09017953
132	0xbdc4ae07	-0.096035056
133	0xbe16a6ef	-0.14712118
134	0xbe987645	-0.29777732
135	0xbdd02b70	-0.10164535
136	0xbe56c251	-0.20972563
137	0x3c9b5e5c	0.018965892
138	0xbd15ea19	-0.036600206
139	0xbde08f82	-0.10964872
140	0x3d855d7a	0.0651197
141	0xbe438b7c	-0.19096178
142	0xbc8955d3	-0.016764557
143	0x3d4299d4	0.047509983
144	0xbd255105	-0.04036047
145	0xbdabcc4f	-0.08388578
146	0x3daa2de2	0.08309533
147	0xbe413459	-0.18867625
148	0x3d731150	0.059342682
149	0x3dfd6538	0.123728216
150	0xbe597ffc	-0.21240228
151	0xbe42d3de	-0.19026133
152	0x3d778700	0.06043148
153	0x3c7eac98	0.015544079
154	0xbd235553	-0.039876293
155	0x3caf50a2	0.021400753
156	0xbdbf0082	-0.09326269
157	0xbdbf727c	-0.09348008
158	0xbcd8a338	-0.026445016
159	0x3a9ab4c9	0.0011803146
160	0xbcdcaf5f	-0.026939092
161	0xbe9d1093	-0.30676708
162	0xbe4412c6	-0.19147786
163	0xbd78973f	-0.060691115
164	0xbe09a22e	-0.13440773
165	0x3cd777d4	0.026302256
166	0xbdd85188	-0.10562426
167	0xbe0ff9a5	-0.14060076
168	0xbe2947cf	-0.16531299
169	0xbdee3bae	-0.11632477
170	0x3d103bc4	0.035213247
171	0x3e1930fa	0.1496009
172	0xbd159b5a	-0.036525108
173	0xbe032c30	-0.12809825
174	0xbe42d6a5	-0.19027193
175	0xbe3962b2	-0.18104056
176	0xbe0144d2	-0.12623909
177	0xbd8c4cfa	-0.068506196
178	0xbd508d9d	-0.050916303
179	0xbde74fba	-0.112945035
180	0x3c47a6ad	0.012185735
181	0xbe47246e	-0.1944749
182	0xbe685f5a	-0.22692624
183	0xbdf49189	-0.11941821
184	0xbbfdfc39	-0.0077510145
185	0xbe3c35ca	-0.18379894
186	0xbd091c0c	-0.033474013
187	0xbd9e4048	-0.077271044
188	0xbe078d51	-0.13237502
189	0xbdffc4ef	-0.12488734
190	0x3db6df1a	0.08929272
191	0x3d534318	0.051577657
192	0xbdc42388	-0.095770895
193	0xbe54a1b9	-0.20764817
194	0xbdf13f40	-0.11779642
195	0xbe1bbded	-0.1520917
196	0xbe500007	-0.2031251
197	0xbc0b7eae	-0.0085140895
198	0xbd971ffa	-0.07379146
199	0x3dc3ad42	0.09554531
200	0xbd8bb6d4	-0.06821981
201	0xbd0b3038	-0.03398153
202	0xbdc4d852	-0.09611572
203	0xbde3809a	-0.11108513
204	0x3cf25f40	0.029586434
205	0xbd1d39b0	-0.038385093
206	0xbc30c259	-0.010788524
207	0xbc0f5590	-0.008748427
208	0x3cb47e19	0.022032784
209	0xbd1ce89d	-0.038307775
210	0x3e5bafec	0.21453828
211	0xbe25e5da	-0.16200963
212	0x3de34d3c	0.11098716
213	0xbd8e001c	-0.069336146
214	0xbe584343	-0.21119408
215	0xbe28a1aa	-0.1646792
216	0x3d5827d4	0.052772358
217	0xbdd70c59	-0.10500402
218	0xbe3528b3	-0.17691307
219	0xbda3fcc4	-0.080071956
220	0xbdef72ba	-0.11691804
221	0xbe3600b8	-0.17773712
222	0xbce8c4b0	-0.0284141
223	0xbc8f3565	-0.017481515
224	0xbc1c59bf	-0.0095428815
225	0xbdba6ac2	-0.09102394
226	0xbe3ce671	-0.18447281
227	0xbdff330a	-0.12460907
228	0x3cc947f0	0.024570435
229	0xbe6cc401	-0.23121645
230	0x3da50b98	0.08058852
231	0xbe8ddc08	-0.27706933
232	0xbe434fae	-0.19073364
233	0xbd60cce4	-0.0548829
234	0xbde3415b	-0.1109645
235	0x3cf3b87d	0.029751057
236	0xbe46ba60	-0.19407034
237	0xbdecf9e8	-0.11571103
238	0x3c94e0df	0.018173633
239	0xbcd05724	-0.025432177
240	0x3d19b798	0.037528604
241	0xbe779a24	-0.24179894
242	0xbe44deda	-0.19225636
243	0x3df3a79e	0.11897205
244	0xbcf4f810	-0.029903442
245	0xbdd40bac	-0.10353789
246	0xbe568228	-0.20948088
247	0xbd86193c	-0.06547782
248	0x3c351c20	0.011054069
249	0xbe4444fa	-0.19166937
250	0xbd1707a4	-0.03687252
251	0xbd51253c	-0.0510609
252	0xbd914f22	-0.070951715
253	0xbd30b2ea	-0.043139376
254	0xbda364fc	-0.079782456
255	0xbdf8cf60	-0.12148929

bias f4 [64]
0	0xbf587505	-0.8455356
1	0xbf47f6d6	-0.78111017
2	0xbd3e4bcb	-0.046459
3	0xbdec6631	-0.11542929
4	0x3fe319b1	1.7742215
5	0xbe78e7d2	-0.24307182
6	0xbec8cb1c	-0.3921746
7	0xbee17eab	-0.44041952
8	0x3ff1e664	1.8898435
9	0xbe823045	-0.25427452
10	0x3fa22191	1.2666494
11	0xbf850eb1	-1.0395108
12	0xbe7a093e	-0.24417588
13	0xbeaa487c	-0.33258426
14	0x3fa3fda5	1.2811781
15	0xbef02c4e	-0.46908802
16	0xbf97f9b6	-1.1873081
17	0xbdabe7e0	-0.08393836
18	0xbec6f929	-0.3886197
19	0xbf02c3ed	-0.5108021
20	0xbef3c843	-0.47613725
21	0xbe98e39b	-0.2986115
22	0xbd511beb	-0.051052015
23	0xbeecd333	-0.46254882
24	0xbf4fee45	-0.81222945
25	0xbeccb9fe	-0.3998565
26	0xbf47bacb	-0.780194
27	0xbdd77065	-0.105194844
28	0xbc103e1f	-0.008803873
29	0xbe823838	-0.25433517
30	0xbfe67424	-1.8004193
31	0xbf6d5265	-0.9270385
32	0xbf020ad8	-0.50797796
33	0x3f77ef4b	0.9684951
34	0xbef4cc68	-0.478122
35	0xbeded4c4	-0.43521702
36	0xbec7b49a	-0.39004976
37	0xbeb15b4c	-0.34639966
38	0xbe74000c	-0.23828143
39	0xbe6de579	-0.23232068
40	0xbede51a5	-0.43421665
41	0xbf3ebfd9	-0.74511486
42	0xbe7c07cc	-0.2461235
43	0xbe2d77b5	-0.16940196
44	0xbecbdde6	-0.39817733
45	0xbe2e2346	-0.17005643
46	0xbf15410a	-0.58302367
47	0xbf5fe52e	-0.87459075
48	0xbed49cfa	-0.41526014
49	0xbda6e50a	-0.081491545
50	0xbda66858	-0.08125371
51	0x3fca7685	1.5817419
52	0xbee37c42	-0.4443074
53	0xbe78a3d5	-0.24281247
54	0xbf3d41ce	-0.73928535
55	0xbe14b568	-0.14522326
56	0xbf0020dc	-0.5005014
57	0xbe08f369	-0.13374104
58	0xbe0eedcb	-0.13957898
59	0xbe28a3e5	-0.16468771
60	0xbf089430	-0.53351116
61	0xbe64f07a	-0.2235736
62	0xbeb79b77	-0.35860798
63	0xbec755b8	-0.38932586

weight f4 [64, 64]
0	0x3dad9a20	0.08476663
1	0xbea9d626	-0.33171195
2	0xbc552365	-0.013008927
3	0xbdfe7482	-0.12424566
4	0xbe2b613e	-0.16736314
5	0xbc9c9ea9	-0.019118624
6	0x3e67fd50	0.22655225
7	0xbe04a0f9	-0.12952031
8	0xbe31caeb	-0.17362563
9	0xbd2cde62	-0.04220427
10	0x3e9d85b9	0.30766085
11	0x3d07eff8	0.033187836
12	0xbd46a83e	-0.048500292
13	0xbd46a4e4	-0.048497096
14	0xbf053c15	-0.520448
15	0xbe18eb01	-0.14933397
16	0xbf05d048	-0.52270937
17	0xbe102d65	-0.14079817
18	0x3d4b99fb	0.049707394
19	0xbe997c59	-0.29977682
20	0xbe23ccac	-0.15996045
21	0x3aa59858	0.0012633903
22	0x3cb64d94	0.022253789
23	0xbc013e40	-0.007888377
24	0xbe39ce27	-0.18145047
25	0x3de7ef74	0.11324969
26	0xbe496326	-0.19666728
27	0xbd7ae83d	-0.061256636
28	0x3e23ab2b	0.15983264
29	0x3cb81c59	0.022474455
30	0xbd1fe25c	-0.039034232
31	0xbe050f1f	-0.1299405
32	0xbdb83ea5	-0.089963235
33	0xbe1e1c6e	-0.15440533
34	0x3e35ac31	0.17741467
35	0x3de383c4	0.11109117
36	0xbe4711b1	-0.19440342
37	0xbe014b18	-0.12626302
38	0x3c6c224b	0.014412473
39	0xbd909591	-0.070597775
40	0x3db4da67	0.088307194
41	0xbdeba88e	-0.11506759
42	0xbe5d5a33	-0.2161644
43	0xbe4a07bb	-0.19729511
44	0xbd00aa20	-0.031412244
45	0xbdfa2c5e	-0.122154936
46	0x3e0ede9f	0.1395211
47	0xbd01d72e	-0.031699352
48	0xbe458337	-0.19288336
49	0xbd3417bc	-0.043967947
50	0x3bf656c0	0.0075176656
51	0x3e6fa2e3	0.2340198
52	0x3da3bc60	0.07994914
53	0xbddca793	-0.1077415
54	0xbc2af035	-0.010433246
55	0xbe1dfad3	-0.15427713
56	0xbcc05854	-0.023479618
57	0x3bcd9deb	0.006274929
58	0x3d86eda0	0.06588292
59	0xbd3fee9b	-0.04685841
60	0xbe837bc5	-0.25680366
61	0xbd6fd37c	-0.058551297
62	0xbb9485b1	-0.004532539
63	0xbdf897f0	-0.12138355
64	0xbda6b390	-0.081397176
65	0xbebedb22	-0.3727656
66	0x3d157f81	0.03649855
67	0x3bf64af2	0.0075162584
68	0xbe83f9cc	-0.25776517
69	0x3dedc34f	0.11609518
70	0x3eb8eff9	0.36120585
71	0x3e1e8b65	0.15482862
72	0xbddc9367	-0.10770302
73	0xbdda154c	-0.10648593
74	0xbcbc45f8	-0.022982582
75	0x3e092d5c	0.1339621
76	0xbe12adef	-0.14324163
77	0xbe3fa500	-0.18715286
78	0x3e3df2df	0.18549679
79	0xbcfa72d8	-0.03057234
80	0xbe1702e4	-0.14747196
81	0x3dcf1088	0.10110575
82	0x3d5b9569	0.053609286
83	0xbe676e78	-0.22600734
84	0xbb8983c2	-0.004196615
85	0x3ea3cdac	0.31992853
86	0xbe2db295	-0.16962655
87	0xbca2b67b	-0.019862404
88	0xbedef902	-0.43549353
89	0xbe6f98ea	-0.23398176
90	0xbe9e9a95	-0.30977312
91	0x3e224964	0.15848309
92	0xbde4ff70	-0.11181533
93	0xbe98dedc	-0.29857528
94	0x3b6bc614	0.0035976218
95	0xbd46403c	-0.048401102
96	0xbcdeb32b	-0.027185043
97	0xbeef75ae	-0.4676947
98	0xbdaac94b	-0.08339175
99	0xbe10ed96	-0.14153132
100	0x3d938a83	0.072041534
101	0xbe0e1eaf	-0.13878892
102	0x3d9bf9f7	0.076160364
103	0x3e63089e	0.22171256
104	0xbe66141e	-0.22468612
105	0x3d1cf201	0.03831673
106	0x3db2fcec	0.08739647
107	0xbd481250	-0.04884559
108	0xbd92c5b7	-0.07166617
109	0xbdfaf1b1	-0.1225313
110	0x3dd0d1a5	0.101962365
111	0xbd63b816	-0.05559548
112	0xbebe1a93	-0.3712965
113	0x3ad4ba52	0.0016229844
114	0xbdb3ba16	-0.087757275
115	0x3e04d4b3	0.12971763
116	0x3e57a68e	0.2105963
117	0x3e14e29b	0.14539568
118	0xbea71e08	-0.326401
119	0x3d084414	0.03326805
120	0xbe6ef30e	-0.23334906
121	0xbea8ab35	-0.3294312
122	0xbe2654f8	-0.1624335
123	0xbe957bfc	-0.29196155
124	0xbda49090	-0.080353856
125	0x3e264602	0.16237643
126	0x3d22cc62	0.039745696
127	0xbbf280ff	-0.0074006314
128	0xbc2c06dc	-0.010499682
129	0xbe6a2679	-0.22866239
130	0xbd30b0f4	-0.043137506
131	0xbd87d135	-0.066317
132	0x3d0936e5	0.033499617
133	0xbdf6a869	-0.120438404
134	0xbe2ec776	-0.17068276
135	0xbd09e11c	-0.033661947
136	0xbdd1604d	-0.10223446
137	0xbe1f69c9	-0.15567698
138	0xbd25d878	-0.040489644
139	0xbd0b343e	-0.03398537
140	0xbdf0c87e	-0.11756991
141	0x3c8641ea	0.016388852
142	0xbd989c7c	-0.07451722
143	0x3c3a0a4a	0.011354992
144	0xbeb2b11b	-0.34900746
145	0xbe1e1598	-0.15437925
146	0xbdc6f25a	-0.09714194
147	0xbed74d32	-0.42051083
148	0xbe4d2aa9	-0.20035805
149	0x3de860c2	0.1134658
150	0xbe5518d8	-0.20810258
151	0xbe3fe81a	-0.18740883
152	0xbdf8b194	-0.12143245
153	0x3ca95168	0.0206687
154	0xbe9706df	-0.2949743
155	0xbe6366a2	-0.2220712
156	0xbe2daa00	-0.16959381
157	0x3d8b82f4	0.06812087
158	0xbd1336bb	-0.035940867
159	0x3d56e57c	0.052464947
160	0xbe153a07	-0.14572917
161	0xbd701b8f	-0.058620032
162	0x3c3f78d0	0.011686519
163	0x3be6fc9e	0.0070491573
164	0xbe040c54	-0.12895328
165	0xbe392e02	-0.18083957
166	0xbe4d94f9	-0.2007636
167	0xbda627ae	-0.08113037
168	0xbe4bb873	-0.1989458
169	0xbd6ffc44	-0.05859019
170	0xbe198b59	-0.14994563
171	0xbda06498	-0.07831687
172	0xbdc5b92c	-0.09654459
173	0xbc6c9047	-0.014438695
174	0xbd33c102	-0.04388524
175	0xbda72db9	-0.08163018
176	0xbda34ceb	-0.07973655
177	0xbde6d910	-0.1127187
178	0xbb9a4bdb	-0.0047087497
179	0xbe2886e8	-0.16457713
180	0x3d5fe4f4	0.054661706
181	0xbd9520bf	-0.072816364
182	0xbe18b0a4	-0.14911133
183	0xbdb6f0a6	-0.08932619
184	0xbd1fe007	-0.03903201
185	0xbd63de4c	-0.05563192
186	0xbdbe2f41	-0.09286357
187	0x3dab377e	0.08360194
188	0xbdeb7339	-0.11496586
189	0xbd992eb8	-0.07479614
190	0xbe404111	-0.18774821
191	0x3d645eec	0.055754587
192	0xbc2eb2c0	-0.0106627345
193	0xbda0d31f	-0.07852768
194	0x3d49f9b4	0.0493104
195	0x3df9beae	0.121945724
196	0xbe630f10	-0.22173715
197	0x3cc1d528	0.023661211
198	0xbb2d2290	-0.0026418306
199	0x3c9f6dc6	0.019461524
200	0xbc4ace40	-0.012378275
201	0xbe619319	-0.2202877
202	0xbe11e6a1	-0.14248134
203	0xbe221ea5	-0.15832002
204	0xbe344c58	-0.17607248
205	0x3cd0ad70	0.025473326
206	0x3dc04078	0.093872964
207	0xbe0064c1	-0.12538435
208	0xbdb388ed	-0.08766351
209	0xbd0589cc	-0.032602116
210	0xbdccc74c	-0.0999895
211	0xbda0dc56	-0.07854526
212	0xbe491448	-0.19636643
213	0xbd44f80c	-0.04808812
214	0x3c1c89ec	0.0095543675
215	0x3cc817c0	0.024425387
216	0x3af1788e	0.0018422769
217	0x3df89042	0.1213689
218	0xbdc7396e	-0.09727751
219	0xbe1c49ea	-0.15262571
220	0xbcf33388	-0.029687658
221	0x3da6c9a6	0.0814393
222	0xbe5752ee	-0.21027729
223	0xbd923c24	-0.07140377
224	0xbc9c3408	-0.01906778
225	0x3c44c7a2	0.012010487
226	0x3db1723e	0.08664368
227	0xbd823d34	-0.0635933
228	0xbcbaef56	-0.022819202
229	0xbde2ecce	-0.11080323
230	0xbd4944b4	-0.049137786
231	0x3cf248b8	0.02957569
232	0xbd86e700	-0.065870285
233	0xbd9f329e	-0.07773326
234	0xbdfa9f86	-0.12237458
235	0xbd6851b2	-0.056718536
236	0xbd13abb8	-0.036052436
237	0xbe5ee7b9	-0.21768083
238	0xbdbdbc12	-0.09264387
239	0xbe2e6039	-0.17028894
240	0x3c853d88	0.016264692
241	0xbcc329ea	-0.023823697
242	0x3ddcc924	0.10780552
243	0xbd8b97de	-0.06816076
244	0x3daefc10	0.08544171
245	0x3d3583f8	0.04431531
246	0xbdfaab41	-0.12239695
247	0x3c80f788	0.015743032
248	0xbde204c4	-0.11036065
249	0xbe4652fa	-0.1936759
250	0xbd5ffc51	-0.054683987
251	0xbd098c17	-0.033580866
252	0xbcde3262	-0.027123634
253	0xbd6fd1cc	-0.058549687
254	0xbd93a554	-0.07209268
255	0xbd1c3bef	-0.038143095
