mlartifacts/554351476986166068/165a38b41f4e4674afd37300127b44fb/artifacts/models/Model_dim64_layers5_experiment/r2_score0.3687975162422978_run11/data/model.pth (torch, 294728 bytes, 13 tensors)

weight f4 [64, 801]
000000 27 4b 56 bc 94 76 97 bc 40 6c 9e 3b a4 e1 69 bc
       -0.013079441 -0.01848916 0.0048346817 -0.014274988
000010 1c 5e 8c 3d 95 92 ae bb ef 6e c4 bc 5d e1 6e 3c
       0.068538874 -0.0053275325 -0.023978679 0.014580098
000020 b2 af 89 3c ac 91 82 bb 4d 6e e0 bc 26 ec 24 3d
       0.01680741 -0.0039846506 -0.027396346 0.04026427
000030 69 63 db bc 49 ad c3 3c 19 75 6a 3c 83 9e 72 3c
       -0.0267808 0.02388634 0.014310145 0.0148083
000040 8a 5f 37 bc b6 a8 62 bc f6 7d 89 bd fb 62 64 bd
       -0.011192212 -0.013834169 -0.06713478 -0.055758458
000050 e0 34 45 3c 1f b0 80 bc d4 a6 d9 3c 77 e6 a0 bc
       0.012036532 -0.015708981 0.026568808 -0.019641144
000060 39 99 84 3d b6 97 72 3d c7 fc 84 3d 7b 50 5e 3d
       0.064745374 0.059226714 0.06493526 0.05427597
000070 a1 36 57 bc 32 ab 78 3c ff 7c 40 3c 9c d3 82 3d
       -0.013135583 0.015177535 0.011748551 0.063880175
000080 1b be e2 bb a4 00 89 3d de e2 f5 bc 7f 2f 60 3d
       -0.006919635 0.06689575 -0.030015405 0.054732796
000090 37 b7 6e bd 9a da 66 3c ba 6d 9a bd 62 de 95 bc
       -0.058280196 0.014090205 -0.0754046 -0.018294517
0000a0 b6 22 bc bc 61 25 4a 3d 7e 96 b3 bb 20 f9 34 bd
       -0.02296577 0.049352054 -0.0054805866 -0.044182897
0000b0 a9 3d 3e bc 78 f9 ec 39 76 c9 8e 3d 36 11 43 3c
       -0.011611381 0.00045199296 0.069720194 0.011905959
0000c0 1d 1d d4 bc d1 11 52 bc 4e dd 31 3d 3b 9a 54 bd
       -0.025892789 -0.012821631 0.043423943 -0.051904898
0000d0 20 16 ed ba 9b 77 26 bc dd 4f 3f bb d1 43 58 bc
       -0.0018088259 -0.010160352 -0.002919189 -0.013199762
0000e0 84 6c 12 bc cd e1 2e 3d 71 b2 0d 3d 86 0d c1 3c
       -0.008937005 0.04269581 0.034594003 0.023566019
0000f0 ab 5f 51 bd 03 b6 3b bb 61 b0 cb 3d 28 9d 20 3c
       -0.051116627 -0.0028642423 0.09945751 0.009803094
000100 6c fa a4 3b 24 42 ef 3c 8f 77 0d bd 95 bd 7c 3d
       0.0050347354 0.029206343 -0.034537848 0.061704237
000110 a8 7b cb ba 42 4a 8a 3b 89 6e cb bc 4c 8b 9c 3c
       -0.0015524523 0.004220278 -0.02483298 0.01910939
000120 64 77 11 39 e4 8d 55 bd 82 bc 40 bc 06 e3 0f 3d
       0.00013872754 -0.05213727 -0.011763694 0.035128616
000130 64 6f f0 bc 6b ef a6 3c 83 b7 df bc 83 22 02 3d
       -0.02934999 0.020377835 -0.027309185 0.031771194
000140 a1 30 49 3d 53 21 60 3d 4c ab 9a bb 03 ec c5 3b
       0.04911864 0.05471928 -0.004720127 0.0060400977
000150 15 4d 29 3b 53 a8 62 3d 59 08 41 bd c5 35 e1 bc
       0.0025833298 0.055336308 -0.0471271 -0.02749146
000160 80 35 aa bc c6 d5 05 bd 56 43 e5 bc 90 31 82 3d
       -0.020777464 -0.032674573 -0.02798621 0.063571095
000170 75 19 16 3d 8d b8 97 bd 33 0e 97 3b 03 59 1a bd
       0.03664537 -0.07408247 0.004609847 -0.037682544
000180 29 50 fb bc 13 f7 22 bb 1e 6e 18 3b 2e 73 d8 bb
       -0.030677872 -0.0024866506 0.0023258994 -0.0066055274
000190 9e ea d0 3c 8f 0d 70 bd 68 79 d6 bc 55 ce a9 bc
       0.0255025 -0.05860668 -0.026180938 -0.02072827
0001a0 c8 01 c0 bc 6d 03 a3 bc c6 a2 83 bb 32 a8 d6 bc
       -0.02343835 -0.019899094 -0.004017207 -0.026203249
0001b0 0b 59 27 bc 41 f5 29 bb 89 3c 13 bd b7 4d b5 bb
       -0.010214101 -0.0025933536 -0.035946403 -0.005532946
0001c0 21 ce 23 3d b3 5e aa bc f5 5e cb 3c d3 04 0a 3c
       0.0399915 -0.02079711 0.024825552 0.008424002
0001d0 f9 08 0d bd d0 1d 0d bd dc 44 84 bd ec 0d 3f 3d
       -0.034432385 -0.03445226 -0.064584464 0.046644136
0001e0 4d 03 48 3d f4 6a 01 3d a3 45 83 bd 4b 11 80 3c
       0.048831273 0.03159614 -0.064097665 0.015633246
0001f0 2e ef e6 bc 40 6e 0f 3d 43 57 de 3a 0a 6c 2b 3d
       -0.028190222 0.035017252 0.0016963262 0.04185108
000200 7f 22 99 3c 5d fb 8d bc 30 00 16 bd 85 b4 ac 3c
       0.018693207 -0.017331773 -0.036621273 0.021082172
000210 2d 13 2c 3c 50 4c 94 bd 50 80 de 3b 8b 69 e2 3c
       0.010502619 -0.07241118 0.0067901984 0.027638217
000220 84 58 53 bd 07 05 06 bd 3d 00 75 3d 17 25 ea bc
       -0.051598087 -0.03271964 0.05981468 -0.028582139
000230 4f 18 9f ba 90 4b 31 3d e0 a9 4f bc 39 3a 5c bd
       -0.0012137982 0.043284953 -0.012674779 -0.053766463
000240 b2 43 58 bc 52 0a 4f 3c 28 bf a5 3a 02 4b 9c bc
       -0.013199734 0.012636738 0.001264547 -0.019078735
000250 4a d2 53 bd 8c 76 91 3c 99 6d 1f bd f8 d7 66 bd
       -0.05171422 0.017756723 -0.03892288 -0.056358308
000260 56 f1 ac 3c c7 09 6e bc 63 fe b6 3c dd f3 01 3d
       0.021111172 -0.014528698 0.022338098 0.031726707
000270 2c 87 8d bd 33 33 02 3d f1 3d 0f bd 8d 65 40 3c
       -0.069105476 0.03178711 -0.03497118 0.011742962
000280 c8 da a6 bd bd a9 70 3c 2d df 3c bb 99 5c 94 3c
       -0.08147198 0.014688906 -0.0028819547 0.01811056
000290 00 9a 05 3b 67 2c a0 bd 3f 60 8d 3d c1 5b aa 3d
       0.002038598 -0.07820969 0.06903123 0.08318282
0002a0 25 8a c4 bd 57 7d db bb 66 d3 25 bc d1 70 1f 3c
       -0.095966615 -0.0066982913 -0.010121202 0.009731487
0002b0 3b bf 57 3d 0c a2 d5 bc 05 a1 25 bc 3a 60 d2 3a
       0.052672606 -0.026078247 -0.010109191 0.0016050406
0002c0 d3 c2 4d 3d e6 5f 24 bc 1c 0c 1e 3d a4 8c 01 3c
       0.050234627 -0.01003263 0.038585767 0.0079070665
0002d0 60 01 6c bd ae 8d 89 bb e1 90 e3 3c ca b6 0f bd
       -0.0576185 -0.0041977977 0.027779045 -0.03508643
0002e0 8c 33 52 3c 19 2f 31 3d a2 52 0f 3d b0 6b 82 3c
       0.012829673 0.043257806 0.034990914 0.01592049
0002f0 6e 31 61 bd 4c 2b a9 bc d9 a7 37 3a f2 b1 0a bd
       -0.05497878 -0.020650528 0.0007005907 -0.033861108
000300 dd 25 61 3d 1c 01 2c 3d c6 55 94 3d 94 e9 f7 3c
       0.05496775 0.041993245 0.072429225 0.030262746
000310 43 b6 60 bc e1 72 a3 bd 44 32 1a 3d 22 68 05 3d
       -0.01371533 -0.07980896 0.037645593 0.032570012
000320 56 f4 5a 3c 01 6e 1f 3d c7 00 b1 3d 0f b5 8a bc
       0.013363918 0.038923267 0.086427264 -0.016932039
000330 ab 32 9a bb 0b a7 dd bb 34 73 9e ba 02 63 90 3c
       -0.004705747 -0.006764298 -0.0012088777 0.017625336
000340 74 2f cb bc be 80 74 bd 32 02 94 bc 0d 5c 1e bd
       -0.0248029 -0.05969309 -0.018067453 -0.038662005
000350 ca 57 8e bd df a8 b9 bd 8a a5 fe 3c 98 36 b7 3d
       -0.06950338 -0.09065413 0.031084795 0.0894596
000360 23 5d 53 3d 77 0c 15 3c 4b b2 cd 3c 1b 12 a3 3d
       0.051602494 0.00909721 0.02510943 0.07962438
000370 c6 b5 c0 3b 7d 8b 23 bd c8 31 21 bb d7 f8 06 bd
       0.005881044 -0.03992795 -0.0024596322 -0.032952156
000380 42 68 b7 bc 05 a0 1e 3d ed 64 53 bd 72 6a 71 bc
       -0.022388581 0.038726825 -0.051609922 -0.014734851
000390 d6 60 30 bc 27 c6 d2 b9 78 6d 90 3d 91 32 48 bc
       -0.010765275 -0.00040201956 0.070521295 -0.012219087
0003a0 bd 92 98 3c 35 51 98 bc 52 66 46 bd fe 06 c9 bc
       0.018624658 -0.01859341 -0.048437424 -0.024539467
0003b0 af eb 1e 3d 9b dd dc 3b fc 8f ee 3a db 53 24 3d
       0.038798984 0.0067402846 0.001820087 0.040119033
0003c0 d0 44 3a bb 6f 7b 2a 3d 30 44 ef 3c 14 f6 65 bd
       -0.0028422363 0.04162162 0.029207319 -0.05614288
0003d0 0f 63 27 bd 9e e9 d8 bc f5 10 24 3d bf 5c 07 3d
       -0.040865954 -0.026478585 0.040055234 0.033047434
0003e0 e0 3a 19 3c 1a 15 bd bb 48 46 47 bd 5e 5c a4 3c
       0.009352416 -0.005770338 -0.04865101 0.020063575
0003f0 ed a9 78 bc bd b3 82 bc 33 59 d7 bc a1 9b dc 3b
       -0.015177232 -0.015954847 -0.02628765 0.0067324196

bias f4 [64]
000000 b6 87 18 3d 9f c1 b5 bc 4d 50 09 bc 40 d4 08 3d
       0.0372388 -0.022187052 -0.008380962 0.033405542
000010 0e c2 b6 3c b8 fa 34 bb 77 9d f6 3c 87 89 02 3d
       0.02230933 -0.002761526 0.030104382 0.031869438
000020 92 b1 ed 3b bd b0 9d 3c 92 d1 81 3c fb e8 5d bc
       0.007253834 0.019249314 0.015847001 -0.013544316
000030 c7 08 80 bc 68 ad 92 bc b1 e3 62 3d ed 6e ae bc
       -0.015629185 -0.017904952 0.055392925 -0.021293128
000040 be 2a 1c 3d b4 48 45 bb d9 44 ce 3c 43 c8 18 3d
       0.0381267 -0.003010315 0.025179313 0.03730036
000050 1e 43 5d 3c 94 34 08 bd 0f b5 e5 3a a3 d6 ed 3b
       0.0135047715 -0.033253267 0.0017525273 0.0072582527
000060 f0 8f 01 3d c2 82 00 bb 47 33 b6 3c 36 15 0f bd
       0.03163141 -0.0019609188 0.022241248 -0.034932338
000070 db 3c be 3c b6 ed 9f bc 05 2c bf bc 9d 7f ab 3c
       0.023222378 -0.01952253 -0.02333642 0.020934874
000080 43 15 73 3c 48 e2 14 3d f2 be f4 bc b4 50 72 3c
       0.014836612 0.03634861 -0.029876206 0.014789749
000090 91 d8 88 3c 9d 35 04 bc d6 df f2 3c ee c5 1a 3d
       0.01670483 -0.008069423 0.029647749 0.037786417
0000a0 89 12 b1 bc 91 cd 0c 3d 52 63 06 3d c7 5b 7c 3c
       -0.021615284 0.03437573 0.032809563 0.015402741
0000b0 db 7a 07 bc fa f6 b8 bb 3c 0e 17 3d e8 df 22 bc
       -0.008269037 -0.0056446763 0.03687881 -0.009941079
0000c0 99 3f 94 3b 68 32 f3 3c d9 cb 16 3d c2 5f b2 bc
       0.004524183 0.029687122 0.036815498 -0.021774177
0000d0 ea 86 c3 bc 60 76 36 3d 37 d4 f5 3b ee ed 16 bc
       -0.023868043 0.044546485 0.0075021046 -0.009212
0000e0 08 de 47 bc 7d 02 92 3c 8a 3b 18 3d 47 3d 00 3c
       -0.0121989325 0.017823452 0.037166156 0.00782711
0000f0 a3 7c 35 3d 90 07 57 36 b7 89 2a 3d 6e 44 0c bd
       0.044308316 3.2041899e-06 0.04163524 -0.034244947

weight f4 [64, 64]
000000 5f f3 9a bd 64 03 4f bd 5a 54 e0 bd 6b 15 ab bc
       -0.075659506 -0.050540343 -0.10953589 -0.020884236
000010 83 74 42 bb 58 be 44 bb b7 c4 0f bd 52 80 9c bd
       -0.0029671497 -0.003002068 -0.03509971 -0.07641663
000020 6a fb a0 3d a8 37 73 3d ac 16 d8 bd 4f fe a1 bd
       0.078604534 0.05937925 -0.10551199 -0.07909834
000030 67 c5 4f bd 34 a6 e5 3d d4 23 fd bd 6f d0 ae 3d
       -0.050725367 0.11213341 -0.12360349 0.08535849
000040 0f d3 ed bd c4 ac ca bd bd 44 9c bd 82 64 80 3d
       -0.11612522 -0.09896234 -0.07630298 0.0626917
000050 71 e5 8e 3d 84 96 dd 3d 23 54 fa bd e0 3f 67 bd
       0.06977356 0.10819724 -0.12223079 -0.0564574
000060 b8 ee 84 bc f8 37 87 3d 40 09 53 bb a9 06 0e 3d
       -0.016227111 0.06602472 -0.0032201558 0.03467432
000070 d4 cb e1 3d 80 b7 9b 3c 74 de d4 3d 03 43 a8 3d
       0.11025205 0.019008398 0.10393992 0.082159065
000080 ca 6d 35 bd 94 a5 e2 bd d6 d4 cf 3d fd 24 a1 bd
       -0.044294156 -0.11066738 0.10148017 -0.07868383
000090 30 47 86 bd 51 27 a5 3d 8f f6 f1 bc 9c 8a a7 bd
       -0.06556547 0.0806414 -0.029536514 -0.081807345
0000a0 fb 3c 42 3d 04 f7 ad bd aa 27 aa 3d 12 b2 8c bd
       0.047421437 -0.0849438 0.083083466 -0.06869902
0000b0 ef 5d f3 3d 50 e1 11 3c 20 5e a4 3b 94 02 0d 3d
       0.11883151 0.008903816 0.0050161034 0.034426287
0000c0 56 ad 96 bd 20 8c f9 3b 9f e1 c0 bd ab 39 aa 3c
       -0.0735728 0.007615581 -0.09418034 0.020779451
0000d0 b0 68 fb bc 8b a6 b3 bd 01 ca b7 bc 9d db 93 3b
       -0.030689567 -0.08772 -0.02243519 0.004512264
0000e0 2a b6 b1 3c f0 c1 2e 3c 79 11 86 3d 20 7e c9 3d
       0.021693308 0.0106663555 0.065463014 0.098385096
0000f0 d6 ec e9 bc 95 d9 bd bd de b3 9a 3d 88 26 f4 bc
       -0.028555315 -0.09270016 0.07553838 -0.02980353
000100 fb 13 d5 bc ec a8 20 bd 29 b5 ce 3d 5b 45 6f 3d
       -0.026010504 -0.039223596 0.10093147 0.058415752
000110 a2 2e 99 bd 5e 25 38 bd a6 38 a4 bd 56 af be bd
       -0.07479598 -0.04495751 -0.08018617 -0.093107864
000120 48 d3 a1 3d 5e a0 d3 bd b0 aa 83 bd 3e 8a c0 3d
       0.07901627 -0.10333322 -0.064290404 0.094013676
000130 13 ee d8 3d d8 b8 47 3d ad 5a cc 3c 66 ad 8a bd
       0.10592284 0.048760265 0.024945581 -0.067713544
000140 27 3e 74 bd c4 d2 d8 3d b0 09 d5 bd f9 c2 36 bd
       -0.059629586 0.10587075 -0.10402238 -0.044619534
000150 74 76 cd 3b b8 ab 88 bc 00 69 cd bc b1 80 5e 3d
       0.006270224 -0.016683444 -0.025074482 0.05432195
000160 40 14 d7 bc 63 8a f1 bc 10 b0 88 3c d6 98 c3 3d
       -0.026254773 -0.029484933 0.016685516 0.095506355
000170 43 ce f5 3c 1a cf e8 bd 90 54 84 3d 3b 1d ed 3d
       0.03000558 -0.113676265 0.064614415 0.11577841
000180 78 b0 37 bd 2d 03 c2 bd d0 31 dc 3c 14 48 71 bc
       -0.044846028 -0.09473262 0.026879221 -0.014726657
000190 a8 cd 41 bd 32 e2 d7 3d 64 6c 2b bc ab a4 a0 bd
       -0.04731527 0.1054119 -0.010462854 -0.07843908
0001a0 f2 f8 82 bd 35 6a 1e bd 96 05 da bd 17 a7 d3 3d
       -0.06395139 -0.038675506 -0.10645597 0.10334604
0001b0 86 57 7f 3d 0c 67 e7 3d 71 0b a9 bd 42 9a 04 3d
       0.06233933 0.112989515 -0.082541354 0.032373674
0001c0 ea 1a 89 3d 8a 2e bc bd 63 5d f5 3b 1a 3a de bd
       0.066945866 -0.09188564 0.007487939 -0.10850926
0001d0 3e b1 a2 3d b1 db c8 bd 12 7f 41 bb 3f 2b 77 bd
       0.079439625 -0.09807528 -0.0029525203 -0.060343977
0001e0 0f 1d a4 bc 12 26 9e 3d c7 bd 9d bd 76 68 dc bd
       -0.020033387 0.07722105 -0.07702213 -0.10762112
0001f0 e6 25 6f 3d 9c 14 f4 3d 7c ca 00 bd c4 78 ee bd
       0.058385752 0.119179934 -0.031443104 -0.11644128
000200 a3 6a 8b bc 20 fa e5 3d 9a 4f 94 bc 9f 2e 4e 3c
       -0.017018622 0.11229348 -0.018104363 0.0125843575
000210 3d e1 fd 3c a6 f5 98 bd 3a 99 9c 3d e3 8b 4c 3e
       0.030991191 -0.07468729 0.07646413 0.19975238
000220 2b 3b 4e 3d 41 a1 8e 3d 7f d6 9b bc 0a 0e 38 bd
       0.050349396 0.069643505 -0.019023178 -0.044935264
000230 13 e2 07 be d6 31 87 bd 22 f9 fa 3d 9a fd 93 3d
       -0.13269834 -0.06601302 0.122545496 0.07226105
000240 1d 69 eb 3c 26 23 07 bd 46 0d 0f bd fb ed e9 bd
       0.028736645 -0.032992505 -0.034924768 -0.11422344
000250 18 98 f4 3d 9a 22 88 3d b7 9a 8d bd 16 8a 40 3e
       0.11943072 0.06647225 -0.06914275 0.18802676
000260 6a 56 15 bc 7c 43 24 bc 1c df ca bd 63 7c 9c 3d
       -0.009114841 -0.010025855 -0.09905836 0.076409124
000270 22 a7 51 bd 9c 9e 8c 3d 56 bc c5 3d 8a 94 ad 3d
       -0.05118478 0.0686619 0.09655063 0.08475597
000280 65 5c 6c 3d 6f 93 a0 bd b5 48 67 3e 52 8d a0 bc
       0.0577053 -0.07840621 0.2258633 -0.019598637
000290 f4 db bb 3d e3 5d d8 bd 8c c9 bc 3d 27 0a 0e 3e
       0.09172812 -0.105647825 0.092181295 0.1387106
0002a0 26 1e 65 3d 5b 87 1b bd d4 cc 51 3d 1e e4 3e bb
       0.055936955 -0.037970882 0.05122073 -0.0029127668
0002b0 a7 67 00 ba 3a 87 d6 3d 83 4f 4f bb d6 4a 88 3b
       -0.0004898258 0.10475011 -0.0031633086 0.0041593118
0002c0 1a 31 b6 3d 66 b3 ac bb 53 35 fe 3d 3b 43 d7 3d
       0.08896084 -0.0052704094 0.124125145 0.1051087
0002d0 14 73 02 3e 7b 6c cf bd 51 fd 1b 3d 3c be 45 3c
       0.12739211 -0.10128113 0.03808338 0.012069281
0002e0 8a dd e2 3d e1 42 91 bc a8 75 87 bd 2e 0e 86 bd
       0.110774115 -0.017732086 -0.06614238 -0.06545673
0002f0 82 22 21 3e 45 b9 b3 3d 70 2f 01 3e 9c ce 07 be
       0.1573582 0.08775572 0.12615752 -0.13262409
000300 35 73 df bc 38 88 f9 bc f1 f5 d0 3d 68 43 b3 3d
       -0.027276615 -0.030460462 0.102031596 0.08753091
000310 b6 83 e3 3d 42 cc cc 3d 60 7d a0 3c 68 e2 e2 bd
       0.11109106 0.099998966 0.019591033 -0.1107834
000320 ab a9 d6 3d f7 5f 42 3d 29 45 8f 3d ac 77 c7 bc
       0.1048158 0.0474548 0.06995613 -0.024349056
000330 57 75 98 3d e0 fe eb 3d 2d 37 cb 3d 77 02 68 bb
       0.07444256 0.11523223 0.09922633 -0.003540186
000340 5b f8 21 bd 23 da 57 bd 54 e4 97 bd 15 c6 f6 bc
       -0.03954349 -0.052698266 -0.07416597 -0.03012375
000350 a1 96 1f 3e 98 25 8f bd 75 d9 b7 3d d1 e5 7e be
       0.15584804 -0.06989592 0.089770235 -0.24892356
000360 06 15 91 3d d3 d8 94 3d 1c ea d2 3d 0e c4 4a 3d
       0.07084088 0.072679184 0.10298559 0.04950338
000370 87 92 c0 bd 80 c8 37 bb fb 38 16 bc ed 26 cb 3d
       -0.09402948 -0.0028043091 -0.009168859 0.09919534
000380 77 c1 96 bd 7c e4 2b 3d ad 57 52 be 21 2f b9 bd
       -0.07361119 0.041965947 -0.20541258 -0.09042192
000390 08 86 e8 bd bc 10 e2 3d ef 25 9c 3d 79 fa e2 bd
       -0.113536894 0.11038348 0.07624423 -0.1108293
0003a0 4d 95 ca bd 50 72 1e be 41 2b 8e bd c1 2d a6 3d
       -0.09891758 -0.15473294 -0.06941844 0.081141956
0003b0 9c 39 01 bc 17 a5 a4 3c 97 20 87 bd 76 0b 04 be
       -0.00788727 0.020098252 -0.06598013 -0.12894997
0003c0 19 8a 73 bd 29 3f a0 bd 55 0b aa bd 1b e7 4e bd
       -0.059457872 -0.07824547 -0.08302943 -0.050513368
0003d0 2f 5d 18 be ca 92 ba 3d e1 62 a1 3c da b8 bd 3d
       -0.14879297 0.09110029 0.01970047 0.09263773
0003e0 1b 4f b6 bc fa 46 a6 3c c4 0c 80 3d 62 ef 88 bd
       -0.022254517 0.020297516 0.06252435 -0.06686284
0003f0 0e 8b e6 bc d3 a2 3b 3d f3 ca 94 bb fb f2 1e 3e
       -0.028142478 0.04580958 -0.004540795 0.15522377

bias f4 [64]
000000 60 0f 04 3d 73 cf e6 3c 8c 15 ac bd ac 1f e0 bd
       0.032241225 0.028175091 -0.08402547 -0.10943541
000010 d2 94 ac bd 27 84 72 3d b7 7e 07 3e 84 da 87 3d
       -0.08426823 0.05920806 0.13231932 0.066334754
000020 c2 e6 88 3d e3 72 9e bd c2 6d 8a bd b1 28 fd bd
       0.066846386 -0.07736757 -0.06759216 -0.12361277
000030 9a 2c 6e bc 9b 4b 42 bc 60 47 fa bc 04 0d 68 bd
       -0.014537001 -0.011858846 -0.030551612 -0.056653038
000040 a0 a9 7a 3d a8 2a 35 3d 67 3c 08 3d b5 c2 71 bd
       0.061196923 0.044230133 0.03326073 -0.059023578
000050 0e ad 83 3d 4d 28 df bd d2 83 4f bd c0 67 c5 bd
       0.06429492 -0.10896359 -0.050662823 -0.09638929
000060 59 54 8e 3a b6 95 6e bd e7 e4 ea bd 68 2e 14 3e
       0.0010858878 -0.058248244 -0.11469441 0.14470828
000070 9e 99 14 3d 01 ed cf 3d ab f7 eb bd 67 93 29 bc
       0.036279313 0.10152627 -0.11521848 -0.010350085
000080 84 a6 c1 3d c1 87 55 bd bd a0 05 3e 16 50 a0 3d
       0.094555885 -0.05213142 0.13049598 0.07827775
000090 21 15 8b 39 15 5a 04 3e f8 9c 2b 3d 1b 8e 3e bd
       0.00026527888 0.12924989 0.041897744 -0.04652224
0000a0 dc 33 bf 3d 94 ea 10 bb 4e ed e3 bd c7 17 af bb
       0.09336063 -0.0022112476 -0.11129247 -0.0053434107
0000b0 6b 97 d0 3d 6c c7 15 3d cd 81 0e 3d 70 90 d0 bc
       0.10185131 0.036567137 0.034791756 -0.025459498
0000c0 12 d7 de bc ac ac 78 3d cf af 4d bd 7c 45 ab 3c
       -0.027202163 0.060711548 -0.050216492 0.020907156
0000d0 8c 1b 7e 38 4f 87 d1 3d 16 a2 e8 bd 88 4a 12 3d
       6.0583974e-05 0.10230886 -0.113590404 0.03571561
0000e0 bb 9e 89 bd 7d 63 dd bd 04 b5 b0 bc 53 e1 f5 3d
       -0.067197286 -0.108099915 -0.02157069 0.12005868
0000f0 e1 23 08 3d ed ec 6e 3d 98 a0 d2 3d dd 32 87 3d
       0.03323734 0.05833142 0.10284537 0.06601498

weight f4 [64, 64]
000000 25 c7 ef 3d f4 31 98 3d 78 e4 6e 3d 3d 38 21 3c
       0.11707906 0.07431403 0.058323354 0.009840068
000010 01 b7 ac 3d f8 a5 30 3e 89 f0 a2 bc 40 23 15 3d
       0.08433343 0.17250812 -0.019890087 0.03641057
000020 bd 71 fe bc 68 42 40 3d f8 d0 55 bd fe 58 97 3c
       -0.031060094 0.04693833 -0.05220124 0.018475052
000030 e0 57 48 3d e2 6e 1e 3e e8 ea f5 bc 22 21 81 bb
       0.04891193 0.15471986 -0.030019239 -0.0039407173
000040 b6 10 00 bd fe 23 ce 3c f8 3e 45 3d 1b de 98 3d
       -0.031265937 0.025163647 0.048155755 0.07464238
000050 ee 25 ce 3b 84 14 00 3e 39 a2 ea bd 04 6d bc 3d
       0.0062911427 0.12507826 -0.11456723 0.092004806
000060 40 bb fd 3d 02 aa a8 3c b8 d1 0d bd c3 f5 01 3e
       0.12389231 0.020588879 -0.03462383 0.12691407
000070 7c 0b 6c bd f6 1c 98 3d bb bf b4 3c 7e 94 64 3d
       -0.05762814 0.07427399 0.02206408 0.055805676
000080 db a4 8d 3c 9b 3b 98 3d 49 81 31 3d 41 a3 84 bd
       0.017290523 0.07433244 0.043336187 -0.06476451
000090 31 9a 01 be 0b 18 ab bd 15 6e 28 3d c4 fb ac 3d
       -0.12656476 -0.08354195 0.041120607 0.08446458
0000a0 7c 88 64 3b 3e 71 73 3c 37 d3 ca 3d 91 5b 2a bb
       0.003487139 0.014858542 0.09903567 -0.002599452
0000b0 11 fc 63 3d 34 a5 01 bd b0 cf c1 3d c4 c5 20 3e
       0.05566031 -0.03165169 0.09463441 0.15700442
0000c0 79 63 92 bd 94 ee 05 3e af 53 58 be fb f4 bc 3d
       -0.07147879 0.13079292 -0.21125673 0.09226414
0000d0 e1 b5 3b bd fa cc 46 ba d8 9c c8 bd c5 94 39 3d
       -0.04582775 -0.00075836445 -0.097955406 0.045307893
0000e0 93 ec dd 3d e7 c5 89 3d 54 00 27 3e 9d c7 3c 3c
       0.108361386 0.067272 0.16308719 0.011522201
0000f0 9a 0f 2d 3d ce 0e 14 be 04 43 2f bd 5f aa 7a 3d
       0.042251207 -0.14458773 -0.04278852 0.061197635
000100 49 a9 ab bc 6c 91 cf ba f1 60 27 3d d6 77 af bd
       -0.020954745 -0.0015836186 0.040863935 -0.08567779
000110 e2 1b a0 3b 49 6c 53 be c3 c7 9d bb 5e fd 35 3e
       0.0048861364 -0.20646776 -0.004815073 0.17772433
000120 f3 98 f7 3c 6b d2 66 bc 08 8d b3 3d 1c 48 27 3d
       0.030224299 -0.0140882535 0.08767134 0.040840253
000130 45 13 d1 bc 0d 08 a1 3d e0 da e6 3d a4 d4 8f bd
       -0.025521884 0.07862864 0.11272216 -0.0702298
000140 73 b0 0d 3e 9b 8f 13 3d f6 6f ae bc ff b8 d5 bd
       0.13836841 0.036025625 -0.021293622 -0.10435676
000150 a8 5b c3 3d 33 88 83 bb db 7a 9b 3d 52 ae 8b bd
       0.095389664 -0.004014039 0.07591792 -0.06820358
000160 67 cc cd 3d 3c 5e 21 be ed c4 eb bd 4d b6 bd 3d
       0.10048752 -0.15758604 -0.1151217 0.09263287
000170 5f 42 df 3d a2 82 8b bd b2 f3 14 bd 0a 64 0e bd
       0.10901331 -0.068120256 -0.03636522 -0.034763373
000180 5f 0b b4 3c 75 bc ad 3d 54 e9 b8 3d e4 d5 a6 bd
       0.021978078 0.08483211 0.09028879 -0.08146265
000190 ef 70 12 3e 55 27 95 bc f7 ad 9a bd 44 69 ab 3c
       0.14300893 -0.018207232 -0.075527124 0.020924218
0001a0 47 b4 9f 3d 46 c5 31 bc 12 d1 00 3c 37 12 13 3e
       0.07798057 -0.010850256 0.007862346 0.14362417
0001b0 7f 9a 0a 3e f8 14 9f 3c f9 d0 58 bc c3 c9 d7 bd
       0.13535498 0.019419178 -0.013233417 -0.1053653
0001c0 02 4c bd 3d 0e 11 a1 bd 0f 2d 2b 3e 91 44 f5 3c
       0.09243013 -0.07864581 0.16716407 0.029939922
0001d0 a6 84 a8 bd ed 6b b9 bb c0 b3 5a 3c 5e 29 33 bd
       -0.08228426 -0.0056586177 0.01334852 -0.043740623
0001e0 ad 16 2c 3d 88 b0 9c bd 2c 96 e3 bd 0a e1 9d bd
       0.042013813 -0.07650858 -0.111126274 -0.077089384
0001f0 8a 32 a4 3d e4 6d 8f 3d a9 99 92 bd 12 45 7c bd
       0.08017452 0.07003382 -0.071582146 -0.061589308
000200 4f 21 dc 3d 2d b8 48 bd 2d 89 13 3e 81 0f 97 bc
       0.107485406 -0.04900377 0.14407797 -0.01844001
000210 9b 17 03 bd 7e f3 66 be 54 42 b8 3d 92 55 91 3c
       -0.032004934 -0.22553822 0.08997026 0.017740998
000220 1b 07 84 bc e8 9b e0 bd 10 99 b6 bd 34 9d 50 bd
       -0.01611667 -0.10967237 -0.08915913 -0.05093117
000230 e5 12 0f bd f9 77 6c bd 18 ae eb 3d f1 43 18 3e
       -0.03493013 -0.057731602 0.11507815 0.14869668
000240 6f 20 24 3e 8b 5e be 3d 7d 84 26 3d ad c4 29 bc
       0.16027997 0.092953764 0.040653694 -0.010361833
000250 09 f0 33 3b 12 2b 27 3c f6 29 ff 3d 62 f4 fd 3d
       0.0027456305 0.01020314 0.12459175 0.12400128
000260 e1 87 11 3e e5 9f 08 be 78 39 d4 bc 79 da cf bd
       0.1421199 -0.13342245 -0.02590631 -0.10149092
000270 17 ee fa 3c 6e bd 8e bc a2 e2 d3 bd 80 9c 28 3c
       0.030631108 -0.017424311 -0.10345961 0.010291219
000280 a0 4e 48 bd 88 1e 4b bc f0 e6 25 bd 33 4c 90 3d
       -0.048903108 -0.012397416 -0.040503442 0.07045784
000290 e3 da 75 3d 16 9a ce 3d 33 3f 3e bd 7d cb 69 bd
       0.0600232 0.10087983 -0.04644699 -0.057078827
0002a0 92 25 6a 3d c0 69 90 bd 8b 3b ad 3c ff ce cb 3d
       0.057164736 -0.0705142 0.021146556 0.09951591
0002b0 8e b7 06 3e 32 81 d3 bd 77 2b 1b be cc fc 8e bc
       0.13155958 -0.103273764 -0.151533 -0.017454527
0002c0 e0 41 be 3b 6b b8 0b be 77 7d 81 bc 3c 71 d0 3d
       0.0058061928 -0.13644569 -0.015806897 0.10177848
0002d0 1a 8a f7 3d f1 fb f7 3d ba 47 94 bd 87 47 27 3e
       0.12086888 0.12108601 -0.07240243 0.1633588
0002e0 1a 34 cf ba 11 fd 97 bd 36 6a bc bd 94 79 0b bc
       -0.0015808374 -0.074213155 -0.09199946 -0.008512873
0002f0 8d f5 a6 bd 90 14 40 3e 1c 92 df 3d 76 c6 70 bb
       -0.08152304 0.18757844 0.1091654 -0.0036739386
000300 60 5f c5 bc 34 84 e1 bd b2 47 00 3e fa 43 80 bd
       -0.02409333 -0.11011544 0.1252735 -0.062629655
000310 00 d1 d4 3d 1f 3a 1c be dd 9f 04 3d 2a d4 27 3e
       0.10391426 -0.15256546 0.03237902 0.16389528
000320 dd 2c 3e ba 1b 65 a8 3d 00 52 91 ba 65 c8 aa bd
       -0.000725461 0.08222409 -0.001108706 -0.083390035
000330 9d 6a 90 3d d1 52 3f bd 50 7d 4d bd 59 2b bc 3d
       0.07051585 -0.04670984 -0.050168335 0.091879554
000340 68 52 86 bc 07 c7 87 3d 85 e0 d7 bd 89 8b d6 3d
       -0.016396716 0.06629758 -0.105408706 0.10475833
000350 01 53 a6 bd 4c ab 31 be 10 9b d6 3d a2 13 f3 3d
       -0.081213005 -0.17350501 0.104787946 0.11868979
000360 bf af ad bd 9a 06 6a 3d 1c 4f 20 bd aa 0f bb 3d
       -0.084807865 0.057135202 -0.039137945 0.09133847
000370 19 5b 02 be 76 59 c2 3d 01 8b d8 bd ef 42 fd bd
       -0.12730063 0.094897196 -0.10573388 -0.12366282
000380 7e 10 11 3b 32 b1 a3 3b 9a 59 79 3d 18 9d 5a 3d
       0.0022135074 0.0049954886 0.060876466 0.053372473
000390 15 c1 2d 3e d4 bc fe 3c 70 0b c3 bd 76 46 8f bb
       0.16968186 0.0310959 -0.09523666 -0.0043724133
0003a0 fa 92 fa ba 71 80 8d 3b 58 a6 d0 bd 69 66 98 3c
       -0.0019117289 0.00431829 -0.101879776 0.01860352
0003b0 2b 3c a7 3d 44 ba 36 3d de 55 17 3d 7d c7 52 bd
       0.08165773 0.04461123 0.036947124 -0.051459778
0003c0 8b 43 11 3e 2e 6b fc bc ad 8a 1f 3b 51 30 42 bd
       0.14185922 -0.030812826 0.0024344132 -0.04740936
0003d0 c0 76 2f 3c c5 aa 8c bd 80 38 94 3c 7c e3 1e 3e
       0.010709465 -0.06868509 0.018093348 0.15516466
0003e0 6a 91 0d 3e 9f 39 00 bc 2b eb fe bd 4a 1b 17 bd
       0.13825002 -0.007826238 -0.124471985 -0.03689126
0003f0 14 1b be bd 75 b1 33 3e e3 2b dc bc 17 1d e5 3d
       -0.092825085 0.17548163 -0.026876396 0.11187189

bias f4 [64]
000000 b0 ea b5 3d 66 0a 41 3d 7e 2b a5 3d 61 0a df ba
       0.08882654 0.047129057 0.08064936 -0.0017016643
000010 cc 3b 0f 3e 93 b9 a6 3d f0 82 ef bd ab 02 7e 3c
       0.13987654 0.08140864 -0.11694896 0.015503566
000020 32 c7 8b 3d 0c 01 d1 3d 9c 1d 57 bc 49 b9 d3 bc
       0.06825103 0.10205278 -0.013129618 -0.025845187
000030 cf e3 c7 3d 80 05 59 bc 07 aa b9 bc be 62 21 bd
       0.09760248 -0.01324594 -0.022664083 -0.03940081
000040 af 07 84 3d 31 c8 84 bb 81 73 be 38 91 e3 d1 bc
       0.06446778 -0.004052185 9.08142e-05 -0.025621207
000050 65 af c6 bd 61 c1 95 3d 3e 6d 5b 3d 74 74 ef bc
       -0.097014226 0.07312275 0.05357098 -0.029230334
000060 18 44 98 3d c0 97 e5 bc 9b c2 dd 3d 48 b6 59 bb
       0.07434863 -0.028026462 0.10828134 -0.003322022
000070 21 86 c1 3d 60 2e 15 3e ac 1d 8c bd fa b8 d3 3d
       0.09449411 0.14568472 -0.06841597 0.10338016
000080 63 14 5f 3d 5b e0 92 bd 24 3e 83 3c 79 52 36 3d
       0.0544628 -0.07171699 0.016020842 0.044512246
000090 fe 5d 0c bc b6 61 e2 bd e5 ae b7 3d 85 97 94 bc
       -0.008567331 -0.11053793 0.08968905 -0.018138656
0000a0 7b c5 64 3d 58 39 9a 3d b3 16 a4 3c e6 89 03 3e
       0.055852395 0.07530469 0.020030355 0.12845573
0000b0 51 98 b5 bc 5d 16 98 3d 12 cd cf 3d 6f 39 b0 bd
       -0.022167357 0.074261405 0.10146536 -0.086047046
0000c0 91 67 59 bd 78 f2 04 bd 4e fc 0c bd 89 24 66 bc
       -0.053077284 -0.0324578 -0.034420304 -0.014046797
0000d0 3d e4 1a bd d7 7a 0f bd 37 7e 3e bd 5e fe ef bd
       -0.03781532 -0.03502926 -0.046507087 -0.117184386
0000e0 ff 69 d8 bd 9c f2 ee 3d 05 d1 ca 3d d4 89 02 3e
       -0.10567092 0.11667368 0.099031486 0.1274789
0000f0 64 9e 1e 3c 69 45 8e 3d 52 72 6b bd 86 af ec 3c
       0.009681318 0.06946833 -0.05748207 0.02889229

weight f4 [64, 64]
000000 22 39 f5 bd 75 c7 d6 bc e6 5c 07 3e 50 99 f8 bb
       -0.11973788 -0.026218155 0.13219032 -0.0075866356
000010 3d 3e 00 3d 80 51 bf 3d 60 61 70 3d bc 06 d7 bd
       0.031309355 0.09341717 0.058686614 -0.10499331
000020 8f 3f d8 bd b7 dd 91 bc d4 43 b6 3d b1 07 b9 3d
       -0.10558998 -0.017805917 0.08899656 0.0903467
000030 51 ce 19 3d 14 e2 e5 bd 23 93 0f 3e 55 a6 79 3d
       0.037550274 -0.112247616 0.14020972 0.060949642
000040 5f 0a 4f bc 40 ab dd 3d 17 47 8b 3d fd 48 a0 bd
       -0.01263675 0.10823679 0.06800669 -0.078264214
000050 e9 63 4d bd e0 a5 32 bd 06 5f 06 3e a3 6b 4b bd
       -0.05014411 -0.043615222 0.13122186 -0.049663197
000060 90 bc 4a bc 71 19 73 3d 01 fb 13 bd 3b 3b 20 bc
       -0.012374058 0.059350435 -0.036128048 -0.009779747
000070 d7 59 4c 3d 2c cf 0a 3d b0 b4 de 3d 11 3f ac 3d
       0.049890365 0.03388898 0.10874307 0.084104665
000080 9b 00 8d 3d 4d 37 ea bd 69 e2 15 3e 21 a7 e5 bc
       0.06884881 -0.11436329 0.1463715 -0.028033795
000090 60 c2 c6 3c f8 ab df bc 9e 2c ce 3d a6 8f e4 bd
       0.024262607 -0.02730368 0.10067104 -0.11160211
0000a0 ee 8a 5f bd ee db 86 bd 2c bc 28 be 62 a9 5c bd
       -0.054575853 -0.06584917 -0.16478032 -0.053872474
0000b0 9a 62 a3 bd d8 5b 36 3e fb b5 82 bd ba ae 0e 3e
       -0.07977791 0.17808473 -0.06382366 0.1393384
0000c0 bd d5 13 bd 19 d1 a3 3d 4c 7b 67 3d 5d af bf 3d
       -0.03609251 0.079988666 0.05651407 0.0935962
0000d0 b4 76 3c bd de df 22 3d 9a 16 89 bd 08 c6 f4 bc
       -0.04601164 0.039764278 -0.06693764 -0.029879585
0000e0 27 cb 7b bd 3d 87 ca bc c5 05 1a be 1a eb c2 bd
       -0.061473038 -0.02472269 -0.15041263 -0.09517498
0000f0 6d e8 9a bd 12 ea 4f 3c 21 64 b2 bd 1c 89 52 3d
       -0.07563863 0.012690084 -0.08710504 0.05140029
000100 55 0c c1 3d 03 b8 32 bd c3 b6 bb bc 37 d1 45 be
       0.0942618 -0.04363252 -0.022914296 -0.1931809
000110 68 a6 ad 3d f6 b1 a0 3c 84 89 12 3d b0 3a 06 3e
       0.08479005 0.019616108 0.035775676 0.13108325
000120 d1 22 bf 3d 0e 87 e5 3d 8c 32 a4 3d a4 2d c0 3d
       0.093328126 0.112074 0.080174536 0.09383705
000130 f5 1b 7e bb 88 a3 e4 bd 05 e5 e4 bd 95 8a 9d bd
       -0.0038773988 -0.111640036 -0.111764945 -0.07692448
000140 a6 29 24 be 9d 53 f2 bd cb 89 92 bd cc 09 06 3e
       -0.16031513 -0.11832354 -0.07155188 0.13089675
000150 bf 9b a9 3d 01 7b c7 3d cd 9d e4 b8 93 23 f1 bd
       0.08281659 0.09740258 -0.0001090128 -0.11774363
000160 ab 82 e5 bd 4c 61 ea bc a4 f4 c9 3d e2 72 a1 3d
       -0.112065636 -0.028610848 0.098611146 0.0788324
000170 ff 07 c0 3d 83 f0 01 be c0 3e a7 bc 50 bc 87 bd
       0.09376525 -0.12689404 -0.020415664 -0.06627715
000180 4b 3a a8 bd 73 a2 8e bd d2 44 2b be c0 df 30 be
       -0.082142435 -0.069645785 -0.16725472 -0.17272854
000190 9e eb 66 bd 78 0e c8 bd 77 c7 c1 bb 6d 91 0d 3e
       -0.056377046 -0.09768385 -0.0059136706 0.13825007
0001a0 bb a3 c0 3c 33 24 b0 3d c5 75 cd 3b 0d 7d 9a 3d
       0.023515573 0.086006545 0.0062701427 0.07543383
0001b0 94 ff 86 3c 74 f2 4c bd 39 3e c9 3d 8a c5 bc 3c
       0.016479291 -0.05003591 0.09826321 0.023043413
0001c0 e7 68 1b be ba 43 d7 bd 0a df f4 bd c9 f3 3a bd
       -0.15176736 -0.10510965 -0.11956604 -0.045642648
0001d0 76 d4 f2 bc b3 37 29 3d 19 7c 3c bd ee 48 1e 3d
       -0.029642325 0.041312885 -0.046016786 0.03864377
0001e0 1f 5d d5 bc 24 c1 39 3d 34 7a da 3d 07 a6 42 3c
       -0.02604538 0.04535021 0.1066784 0.011880404
0001f0 8b db 8a 3d 97 4f 92 3d 00 a9 2b 3c 7a ea d6 3d
       0.06780156 0.07144087 0.010477304 0.104939416
000200 43 7a e6 3d 5f 43 c5 3d 70 f8 17 be 83 9f 49 3c
       0.11253788 0.09631991 -0.14840865 0.012306097
000210 cf b9 9e 3d 3f 7a fa 3d 20 0c bd 3c 5d 17 8c bd
       0.07750284 0.12230348 0.02307707 -0.06840394
000220 4f ba 56 3c 5c 83 d3 3d ca 5a 8f 3d b9 88 cd 3d
       0.013105943 0.10327789 0.069997385 0.100358434
000230 cc 1d 16 bd d0 a3 19 3d ba e6 29 be f3 2b e8 bc
       -0.03664951 0.03750974 -0.16591921 -0.02834127
000240 41 ad 20 be 3a 1d 34 be d5 a4 06 3e 90 fd 8a bd
       -0.15691091 -0.17589274 0.13148816 -0.067866445
000250 b4 68 62 bd 22 1a 8a bd 73 ae 2b be 80 bc b7 3d
       -0.055275634 -0.06743266 -0.16765766 0.089715004
000260 ac 4f d8 3d cd 9f 30 3d 4b 73 99 3c 72 d5 14 3e
       0.10562071 0.043121148 0.018731734 0.14534548
000270 2b 10 bb 3d c2 8a c9 bd 98 fb c1 3c 8e 66 80 3c
       0.09133943 -0.09840919 0.02367954 0.015673902
000280 fc e3 d0 3d 5c 1d a7 3d 97 b6 0b be 58 1f 25 bc
       0.101997346 0.08159897 -0.13643871 -0.010078274
000290 29 23 8f 3d 40 9c 66 3b 3b 44 ac bd a4 3e 4e 3d
       0.06989128 0.0035188347 -0.084114514 0.050352708
0002a0 42 5b 52 3d f4 79 d5 3d 43 e0 00 3e 2c fa 04 3c
       0.05135656 0.10423651 0.12585549 0.008116286
0002b0 61 70 2c 3e 7a 65 47 be 93 29 b9 3d 21 90 16 be
       0.16839744 -0.19472304 0.09041133 -0.14703418
0002c0 84 58 80 bd 88 78 ab 3d 90 01 1b bd 6c e6 25 3e
       -0.06266883 0.08372599 -0.037843287 0.1620118
0002d0 28 10 ec bc df 40 61 3c 22 c0 34 3c 14 b6 bf 3d
       -0.028816298 0.013748377 0.011032136 0.093609005
0002e0 8c 61 6c bc 7f 7e 38 3d 28 1f a8 3c 84 bd 8b 3c
       -0.014427554 0.04504251 0.020522669 0.017058142
0002f0 72 8c ec 3b a9 8f 0d 3e ee 0b ff 3d eb 45 af bd
       0.007218891 0.13824333 0.12453447 -0.08558258
000300 94 c4 16 3e 7a 3f 33 3c b3 34 64 bd 52 7a 00 3e
       0.14723426 0.010940427 -0.05571432 0.12546661
000310 a9 29 10 bc d4 c5 6b bd 50 d4 fa 3c 40 71 c1 bd
       -0.008798995 -0.05756171 0.030618817 -0.09445429
000320 15 b5 88 bd a6 6d ae 3c c3 df b4 bd f4 4b 56 bd
       -0.06675164 0.021292519 -0.08831742 -0.05231853
000330 22 38 12 3e 50 57 2b 3d f3 c1 93 3d 36 95 85 3c
       0.14279225 0.041831315 0.07214727 0.0163065
000340 cf 0c 1c 3c e6 2c 41 bd c9 59 b4 bd 6f 48 c3 bd
       0.009524538 -0.04716196 -0.08806188 -0.095353
000350 04 4c e5 3d bb 2a 91 bd 06 1e dd 3d 1d 25 87 bc
       0.111961395 -0.07088228 0.10796742 -0.01649719
000360 fd 5f 9c ba d7 0a 0e 3e 1b 68 9d 3d aa 5e f6 bd
       -0.0011930462 0.13871323 0.07685872 -0.120297745
000370 0c 27 57 bd da cc eb 3d c6 cc 9e bd 75 11 07 3e
       -0.052527472 0.11513682 -0.07753901 0.13190253
000380 94 81 ca 3d fe 7e 19 bd db ce a2 3d ed 02 2c 3e
       0.09887996 -0.037474625 0.07949611 0.16797991
000390 4b a3 0b bd 9e a7 a5 bd 8f 42 01 3e e9 84 ff bd
       -0.034091275 -0.08088611 0.12623046 -0.124765225
0003a0 1e 8b ec 3d 96 00 9d bd 68 01 f4 bd 87 f1 27 be
       0.11549972 -0.076661274 -0.11914331 -0.16400729
0003b0 55 e6 dd bc ce ca 22 3e d7 b2 d1 bd de 86 1c bd
       -0.02708737 0.15897676 -0.10239189 -0.038214557
0003c0 28 78 8a 3d 54 07 57 bd 57 1f 28 3b 6d f0 f3 bd
       0.06761199 -0.052497223 0.0025653446 -0.11911092
0003d0 6c 0a 4a 3b d7 4e 54 bd 87 fd b9 3d 0e 97 e1 bd
       0.0030828966 -0.051833 0.0908156 -0.110151395
0003e0 f4 3b 94 3c 2d 86 94 3c 7b cc 7f bd 15 65 95 3c
       0.018094994 0.018130386 -0.062450867 0.018236676
0003f0 67 6a 2b 3d c4 b1 e8 3d f2 ff 9f 3c e8 ac 9c bd
       0.04184952 0.11362031 0.019531224 -0.07650167

bias f4 [64]
000000 e9 dd 87 bd e4 67 a2 3d 15 cb fb 3c 77 16 ae 3d
       -0.06634123 0.07929972 0.030736485 0.085003786
000010 10 bc 86 3d 31 11 d8 3d be dc b8 bd 6b b2 fe 3d
       0.06578839 0.10550154 -0.09026478 0.12436374
000020 7f da c1 3d c4 bb 37 3d 5b ea 76 bd 94 ff f4 3d
       0.09465503 0.0448568 -0.060282093 0.1196281
000030 b0 0c 68 bd e1 4a 86 3d 48 0c 02 be 45 7c 6b bd
       -0.056652725 0.06557251 -0.12699997 -0.05749156
000040 ea d5 e6 bd 1e b3 90 bc 75 26 c4 3c 67 fd c6 3d
       -0.112712696 -0.017663535 0.023944119 0.097163014
000050 23 17 0f 3e 92 6f dc bd df db b7 bd 13 b8 a4 bc
       0.1397367 -0.10763468 -0.08977484 -0.020107305
000060 84 5d a5 bd 2a b9 fc 3d 70 45 05 3b b1 15 2b bd
       -0.08074477 0.12340005 0.0020335577 -0.041768733
000070 e0 77 8c 3d 6e 06 06 bd 25 3f 98 3d 0a d3 7e bd
       0.06858802 -0.032720976 0.07433919 -0.06221298
000080 5d 6f 03 bd a9 ff d7 3d c3 de 39 3d e7 0e 2e bd
       -0.032088626 0.1054681 0.045378458 -0.04249468
000090 c4 57 aa bd 61 11 c2 bd c1 c9 c7 bd d7 7f 9d 3b
       -0.08317521 -0.09475971 -0.097552784 0.0048064995
0000a0 c5 c3 bc 3d 96 69 b4 3d 63 0a 23 bd 67 d0 ce bd
       0.092170276 0.088092014 -0.039804827 -0.10098343
0000b0 93 89 bf 3d 6f 3c 11 3d 24 36 04 bd 48 1f c5 3d
       0.09352412 0.035458025 -0.032278195 0.09625107
0000c0 58 1f 6a bd 04 63 af 3c 8d 68 77 bd 93 2b 91 3d
       -0.057158798 0.021409519 -0.06040244 0.07088389
0000d0 46 62 2e 3d b3 c9 25 3d 30 58 8c 3c 02 2e 8c 3d
       0.04257419 0.04047556 0.017131895 0.06844713
0000e0 55 44 20 3e 00 19 b0 3d 3d d0 e3 3d aa e4 14 bb
       0.15651067 0.08598518 0.11123703 -0.0022719302
0000f0 c2 24 fa 3d ef d9 63 3d ad 9a e8 3d 38 f0 c6 bc
       0.12214042 0.05562776 0.11357627 -0.024284467

weight f4 [64, 64]
000000 82 41 f0 3d 6c e8 97 3d 42 1a e9 bd f2 85 8a bd
       0.117312446 0.07417378 -0.113819614 -0.06763829
000010 28 22 47 3d 5e a8 8d bd 78 a2 5e 3d 12 08 98 3d
       0.04861656 -0.06916879 0.05435416 0.07423414
000020 bc 4a 96 bd f8 33 5d 3d 30 5e a7 bd 00 46 90 3c
       -0.07338473 0.05400464 -0.08172262 0.017611504
000030 38 7a 92 bc 60 56 53 bd 54 83 0a bd ec 32 ed 3d
       -0.017880544 -0.051596045 -0.03381665 0.11581978
000040 c2 2f 8a bd a8 22 87 3c 70 38 15 3c f2 43 c2 bd
       -0.0674739 0.016496018 0.009107694 -0.09485616
000050 50 df 6e 3c 1a 39 af bd 0c 25 13 bd 86 1e df bd
       0.014579609 -0.08555813 -0.035924003 -0.10894494
000060 b8 c4 e2 3d 40 5c 98 bd 40 9c c8 bb 98 e5 3e bd
       0.110726774 -0.0743947 -0.006122142 -0.046605676
000070 c0 83 81 bd a0 d5 e0 3b 34 20 c2 bd d8 6b 2e bd
       -0.063239574 0.0068614036 -0.094787985 -0.042583317
000080 be 77 a4 bd d0 66 86 bd 44 f1 f6 bd 10 2f 2e 3d
       -0.080306515 -0.06562579 -0.120577365 0.04252535
000090 c8 70 77 3d e0 de d7 3c f8 25 a9 3c 16 01 ff bd
       0.06041029 0.026351392 0.020647988 -0.12451379
0000a0 40 31 3d bd d8 93 b4 3c 80 5f be bb 88 89 ac 3c
       -0.046189547 0.022043154 -0.0058097243 0.021061674
0000b0 14 a8 a7 3d 54 8d a8 3d e0 4b 38 bc 84 d7 ea bd
       0.08186355 0.08230081 -0.011248559 -0.114668876
0000c0 78 1c 89 bd f0 de 67 3c 0e fd ac 3d 50 37 c7 bd
       -0.06694883 0.014152274 0.08446704 -0.09727347
0000d0 1a f4 d3 bd 20 6c ba bb b0 1b e7 bc f2 f3 ee bd
       -0.10349293 -0.005689159 -0.028211445 -0.116676226
0000e0 ea 39 d8 3d 4e ce 93 bd e4 8d 27 3d c8 b0 9b 3c
       0.10557921 -0.07217084 0.0409068 0.019005194
0000f0 66 38 f1 bd 38 74 ee 3d a4 9d 65 3d 08 20 ef bc
       -0.11778335 0.11643261 0.05605854 -0.029190078
000100 0a ff 41 bd 76 72 69 bc cc ce e5 3d 77 69 80 bd
       -0.047362365 -0.014248481 0.11221084 -0.06270116
000110 e0 a1 b2 bb ac 10 a8 3d e5 fb e4 bd a6 f6 b6 bd
       -0.005451426 0.08206305 -0.111808576 -0.08933763
000120 cf 28 b0 bd 88 0b e8 3d f6 e1 e9 bd 47 72 92 3d
       -0.086015336 0.113303244 -0.11420052 0.07150703
000130 38 18 9f bd 21 66 8d 3c 80 54 af bc 12 73 0d 3b
       -0.07768291 0.017260613 -0.021402597 0.002158348
000140 60 ea ea 3c 51 5d e2 bd 60 5c c3 bd f9 ad da 3d
       0.028676212 -0.11052955 -0.095391035 0.10677714
000150 bb 37 ff bd 10 31 9a 3d 32 24 11 3d cd 47 85 bd
       -0.124618016 0.07528889 0.03543491 -0.065078355
000160 20 5a fb 3b 4c 45 90 3d a3 54 f0 3d ed 62 d7 bd
       0.007670656 0.07044467 0.11734893 -0.105169155
000170 dd 4c a6 bd 0c 83 10 bc 3d 6c 67 3c 0c 74 51 3c
       -0.08120129 -0.0088203065 0.014124927 0.012784015
000180 74 71 59 3d e2 d4 0d bb 9a 9f 40 bc a5 92 68 bd
       0.053086713 -0.002164178 -0.011756802 -0.056780476
000190 cf 35 6e 3d 60 13 9b bd 99 cf 3e bd a7 7c a5 bd
       0.058156785 -0.07572055 -0.0465847 -0.08080416
0001a0 00 5f f1 ba 43 f0 22 3d 84 49 63 bd aa 6e 96 3d
       -0.0018415153 0.039779913 -0.05549003 0.07345326
0001b0 a2 ba 12 3c 5d 2f 8c bc d3 02 c4 bb de 02 f8 3c
       0.00895563 -0.017112428 -0.005981782 0.030274805
0001c0 68 ee fe 3c 26 ca c7 3d ad ec 2d bd 6b d8 98 3d
       0.03111954 0.09755354 -0.04246204 0.074631535
0001d0 40 3c 9b bd 47 18 c1 3d 04 56 81 3d 7f 09 14 bc
       -0.07579851 0.09428459 0.06315234 -0.009035467
0001e0 68 39 ca bd 5f ba 9d bd bc 99 c8 3d 27 1c c6 3d
       -0.098742306 -0.07701563 0.097949475 0.096733384
0001f0 6b 73 c7 bd a2 6b 00 3c 57 c2 e6 3d 48 a0 da bd
       -0.09738811 0.007838162 0.11267536 -0.106751025
000200 f9 64 b7 3d 23 e4 67 3c 29 bd 85 3d ae 58 4f bd
       0.08954806 0.014153513 0.0653022 -0.05062168
000210 40 c6 8c 3c 4d b3 d2 bd 86 37 ea bc b9 d4 4e bd
       0.017184377 -0.10288105 -0.028590929 -0.050495837
000220 01 8f 1f 3c 10 6d 05 3c ca f2 da 3d c8 6f d5 bd
       0.009738685 0.008143678 0.106908396 -0.10421711
000230 28 de 64 bd 0f 91 b7 3c b5 96 30 bd bc 6d b2 bc
       -0.055875927 0.022408037 -0.043112475 -0.021780841
000240 e6 3f fa bd 8c 60 cc 3c 80 f0 a5 bb d1 1c fc 3c
       -0.12219219 0.02494838 -0.00506407 0.03077546
000250 4a 59 f7 bc 98 69 ac 3c 6b f7 b4 3d c3 84 61 3d
       -0.030193944 0.021046445 0.08836254 0.055058252
000260 ec ee 92 bd 0f 99 94 bd b1 0e 41 3d be fd 20 3e
       -0.07174477 -0.07255756 0.04713315 0.15721795
000270 00 23 85 3b e3 c2 88 bd b3 6b c7 3d b5 a7 cd bd
       0.00406301 -0.06677797 0.09737339 -0.10041753
000280 8c 04 a1 3d 55 95 8e 3d fa f1 10 bd c5 8a 24 3d
       0.078621954 0.069620766 -0.035387017 0.040171403
000290 00 f4 c8 bb 86 a9 e9 3c 14 c8 55 bd 7d 6e e4 bd
       -0.0061326027 0.028523218 -0.052192762 -0.111538865
0002a0 d4 1c 1f 3d 62 ae 45 bd 8c 41 1c bd 1e 71 b8 3d
       0.038845852 -0.048262008 -0.038148448 0.090059504
0002b0 16 65 d9 3d 38 89 75 3c 82 44 0e 3c 20 8d a8 3d
       0.10614984 0.014986329 0.008683326 0.082300425
0002c0 52 13 c9 bd c7 4a ae bc 83 11 1b 3e ad 4b 96 3d
       -0.09818138 -0.021275891 0.15143399 0.07338653
0002d0 50 32 ba 3d 14 af 05 3e f0 17 bc 3c c2 87 b9 3c
       0.090916276 0.13055068 0.022960633 0.022647742
0002e0 08 1b f1 3d ed 99 d8 3d ca 98 8a bc dc e8 da bc
       0.11772734 0.10576234 -0.016918559 -0.026722364
0002f0 28 66 b8 3c c1 8e f8 3a 56 cb 14 bd c4 94 e7 3d
       0.02250965 0.0018963442 -0.03632673 0.11307672
000300 e9 67 0e be 14 15 61 3d 65 06 f8 bc 6d fc f6 bd
       -0.13906826 0.054951742 -0.030276487 -0.12059865
000310 4b 8e 69 bd 0e 25 b7 3d 17 74 2c bc 52 43 12 bd
       -0.057020467 0.089426145 -0.010525725 -0.035708733
000320 bf 67 af bb 10 44 c3 bc d0 04 d0 3d c6 eb f9 3b
       -0.0053529437 -0.023836166 0.10157168 0.0076269833
000330 c3 d6 e8 bd 6a 9c 23 3d b6 39 06 be 2c 76 0a 3e
       -0.113690875 0.03994409 -0.13107952 0.13521641
000340 00 04 ab b9 7f d2 00 be 96 9e b7 3d 58 75 18 bd
       -0.00032618642 -0.12580298 0.08965795 -0.037221283
000350 c2 c2 2a 3d 70 b4 f1 bc 90 4c 9a 3d 00 cd 76 bd
       0.04168964 -0.029504985 0.075341344 -0.060254097
000360 a0 e4 f7 bc ea b8 3a bb 1c 07 03 ba ba f1 0d bc
       -0.030260384 -0.0028491565 -0.0004998313 -0.008663589
000370 21 a9 15 bd 92 4c 85 bc 19 01 da bd f0 a5 1a 3e
       -0.036538247 -0.016271863 -0.106447406 0.15102363
000380 e9 c2 c3 bd c8 ec 51 be 7b 15 01 3e d3 4b b4 bc
       -0.095586605 -0.20500481 0.1260585 -0.022008812
000390 2f b1 d1 bc ed 39 d8 bd 90 ee 98 3d 5a 3b 3f bd
       -0.025597183 -0.105579235 0.07467377 -0.04668746
0003a0 88 11 f4 3d aa f7 15 bd fe 09 d2 3c 1d b5 03 3e
       0.11917406 -0.036613144 0.02563953 0.12862058
0003b0 e3 85 5d be 15 90 bc 3d e6 16 24 3e 83 4b bc 3d
       -0.21633105 0.09207169 0.1602436 0.0919409
0003c0 1c 90 30 3d a8 e2 16 3d 82 94 8a bc 8a 77 09 3d
       0.043106183 0.03683725 -0.016916517 0.033561267
0003d0 09 5f 9e bb b2 6d 1d bd a0 90 94 3b a3 18 30 bd
       -0.0048331064 -0.03843469 0.004533842 -0.042992245
0003e0 e7 e1 95 bd bf c4 25 bc 56 bb ac bc 99 37 2a bc
       -0.07318478 -0.010117709 -0.021085422 -0.010389232
0003f0 52 0c ec 3d c4 74 1e bd a1 4c 8e 3d e0 a2 f0 bc
       0.115257874 -0.038685575 0.069482096 -0.02937454

bias f4 [64]
000000 90 e6 f3 bc 2a e5 b2 bd 04 2b bc bd e3 ba e0 3d
       -0.029773027 -0.08735116 -0.09187892 0.10973146
000010 87 79 76 3c 78 4f 5c 3d bb 13 a0 3d 78 a2 0b bd
       0.015043623 0.053786725 0.07816263 -0.03409049
000020 00 3d a8 3d e9 e0 3f bd 91 d7 8c bc a0 30 5d bd
       0.0821476 -0.04684535 -0.017192634 -0.05400145
000030 de a8 87 bd 37 c0 11 3e 77 35 8a bd 7a 6f b6 3d
       -0.06624006 0.1423348 -0.06748479 0.08907981
000040 ff 54 fc 3d 0a d4 45 bd fc d9 e1 3d ae a5 4c 3d
       0.12320899 -0.04829792 0.11027905 0.049962692
000050 55 d0 90 3c c2 78 cb bd e6 ce b8 3d 6f 4f f1 bc
       0.017677465 -0.09935142 0.09023838 -0.029456822
000060 12 d1 d7 3c c4 87 a1 bc 90 f5 b8 bc 05 9a 91 bc
       0.02634481 -0.019718058 -0.02257803 -0.017773638
000070 db 47 33 3d 0b b4 75 3d 57 fe cc 3d 40 85 3e 3d
       0.0437697 0.059986155 0.10009449 0.046513796
000080 ae 18 b8 3c b5 49 79 bd c7 bf ad bd fd e6 03 3e
       0.022472706 -0.060861308 -0.08483844 0.12881084
000090 ae 4a 73 bd f2 e2 80 3d 28 b6 16 bd 5c 36 07 3e
       -0.059397392 0.062932864 -0.03679481 0.1320433
0000a0 ef 05 20 bd b7 f1 d3 3d 8e 28 b4 bd 8f 2f 0a 3c
       -0.03906816 0.10348838 -0.08796798 0.00843419
0000b0 ec f3 2e bd dc cc f8 bd de 7b 0d 3e 15 6f ba bd
       -0.04271309 -0.12148449 0.13816783 -0.091032185
0000c0 49 03 2a 3c 0d 9f e7 3d 2c 8c 87 3d 5a ec 9b ba
       0.01037676 0.113096334 0.066185325 -0.0011896
0000d0 4e 4c 45 3d a7 81 ed bd 22 e1 08 3c 25 0a 7d 3d
       0.048168473 -0.11596995 0.008354457 0.061777253
0000e0 1b 67 f4 3d 96 b8 42 3d 73 01 0f bd 3b 34 cc bd
       0.11933728 0.047539316 -0.03491349 -0.099709
0000f0 e0 60 b1 bd 70 d4 ff 3d d8 9c 98 bd 90 fe 65 bd
       -0.086610556 0.12491691 -0.074517906 -0.056150973
