mlartifacts/554351476986166068/30bdf4f236814846be6102f79a21075b/artifacts/models/Model_dim64_layers5_experiment/r2_score0.12063318786663313_run3/data/model.pth (torch, 294728 bytes, 13 tensors)

weight f4 [64, 801]
000000 2f c9 12 3d 5e 43 48 3c 57 a4 1f bd 24 9f 87 bc
       0.035836395 0.012223093 -0.038975086 -0.016555376
000010 6e ff e7 3b 4a 35 b0 3c 4a ca 3f 3c 57 2b a3 3b
       0.00708001 0.021509785 0.011705944 0.0049795317
000020 22 45 a8 3a 7e f4 82 bc bf 02 2c 3c f5 ad 80 3c
       0.0012837986 -0.015985724 0.010498702 0.01570795
000030 a8 52 09 b9 b8 41 da ba 8b fc d4 3c cd b4 97 3b
       -0.0001309613 -0.0016651666 0.025999328 0.0046297074
000040 9b f2 04 bd 8e e5 3d bc 1b 72 fe bc d7 89 d4 3c
       -0.03245793 -0.011590375 -0.03106027 0.025944633
000050 07 94 5a 3c b3 47 15 bd 44 8e d6 3b 38 90 02 3d
       0.0133409565 -0.03644533 0.006547721 0.03187582
000060 32 81 f9 bc 80 0f cf 3c d0 66 9a 3c 26 0d 40 bc
       -0.030457113 0.025275946 0.018847853 -0.011721885
000070 d1 cd e1 3b 21 ff 0b 3d e5 3c 8a bc 71 db c7 3b
       0.0068909903 0.034178857 -0.01687474 0.0060991575
000080 18 99 33 3c d1 31 f3 3c eb 17 aa 3c 56 a9 12 bc
       0.010961793 0.02968684 0.020763358 -0.008951506
000090 ce 3f ba 3c 1a 58 fe bc 9c 95 d2 bb 5d 3b fd bc
       0.022735503 -0.03104787 -0.0064265262 -0.030912096
0000a0 d7 b5 a7 3b c3 9a 4e bc cf 6f aa 3c e3 fd d3 bc
       0.0051181125 -0.01261014 0.020805268 -0.025877899
0000b0 3f 31 fc 3c cc 1e 7f 3c 11 20 8c 3c bc 66 20 bc
       0.030785201 0.015571307 0.017105134 -0.009790119
0000c0 9c df 2e bc 1c 79 a2 3c 03 b9 dd 3b cd e2 bf 3a
       -0.01067343 0.01983314 0.00676644 0.0014639735
0000d0 ff 64 23 3b a0 b6 09 bd ae 2f bc bb cf 84 d6 3c
       0.0024932025 -0.03362143 -0.0057429885 0.026186375
0000e0 91 32 8c 3c ed 1b 90 bb ba 71 fd bc 5f f5 8c 3c
       0.017113956 -0.0043978603 -0.030938018 0.017206846
0000f0 4b 37 c2 bc 04 9b b7 bc 36 eb ca 3b de 67 05 3d
       -0.023708006 -0.022412784 0.00619259 0.03256976
000100 85 79 56 bc 2c b9 76 bc a7 2d fb bc b6 b6 e9 3b
       -0.013090496 -0.015058797 -0.030661417 0.0071323765
000110 c1 c5 8f ba 7a d4 af 3c 23 0f b0 bb ce 09 46 bc
       -0.001096897 0.021463621 -0.005372898 -0.012087299
000120 e8 25 01 bd e6 a1 cf 3c fe 64 7e bb ab c2 55 3b
       -0.03153029 0.025345754 -0.003881752 0.0032617252
000130 94 41 ca 3c 5f 34 8b 3c 25 bd 2f bb 85 bb 8b 3c
       0.024689473 0.016992746 -0.002681562 0.01705719
000140 f4 a1 d2 bb e5 b6 fe 3c d7 a7 b6 3c 11 85 e4 3b
       -0.0064279977 0.03109307 0.02229683 0.0069738706
000150 d3 2a c3 bc ec 97 9e bc ce 6f f8 bc 88 e0 cf bc
       -0.023824131 -0.019359551 -0.03032675 -0.02537562
000160 7d 61 4f 3c e0 30 8a 3c ea 1f 9f bc 55 d2 b7 3c
       0.01265752 0.016869009 -0.019424397 0.022439161
000170 fe 61 92 bc 1c bd 2a 3c 09 2c 58 3a 02 c4 a3 3c
       -0.017868992 0.010421064 0.0008246308 0.019990925
000180 4e ec a0 3c 61 67 cc bc 65 d0 9c 3c a7 39 1e bb
       0.019643929 -0.024951639 0.019142339 -0.002414325
000190 2e 7f c0 3c 09 8f 0a 3d e2 99 b0 3c 9a 78 4b bb
       0.023498144 0.033827815 0.021557752 -0.0031047226
0001a0 bb 30 02 bb 32 e6 b4 3c b9 36 e7 3c bf 47 ea bc
       -0.0019865471 0.022082422 0.028224336 -0.028598664
0001b0 7d 3b 97 3c 66 c5 dd bc f7 91 36 3c 50 c0 c1 bc
       0.018460983 -0.027071666 0.011143199 -0.023651272
0001c0 e4 41 f7 bb ca ab 1a 3c 6b a0 d0 bc 8c 91 55 bc
       -0.0075456966 0.009440372 -0.025467118 -0.013035189
0001d0 74 91 d9 bc 98 d0 23 3c d9 5f 52 bc d1 52 a6 bc
       -0.026558615 0.009998463 -0.012840235 -0.020303162
0001e0 bc 5c 01 bd 66 4a e0 3c 0b f0 77 bc 60 3e 51 3c
       -0.03158258 0.027379226 -0.015132914 0.012771219
0001f0 4a bd 0a 3d 18 1c a0 3c 29 bf 05 3d 9f 5c 0c 3d
       0.033871926 0.019544646 0.032653008 0.034268018
000200 bf d4 17 bc 32 af fe 3c 29 6e 85 bb b1 17 da 3c
       -0.009267031 0.031089399 -0.00407197 0.026622625
000210 b0 95 e0 3c ee 31 5b 3b be dc 0b bd cf d2 f3 3c
       0.027415127 0.0033446508 -0.034146063 0.029763607
000220 0b 83 ec bc 3c 06 cd bc f1 9d 7e 3c a5 85 83 bc
       -0.02887108 -0.025027387 0.015540586 -0.016054938
000230 7a ff b5 3a dc 39 74 3c 43 21 f7 3c b3 19 aa bc
       0.0013885342 0.014906373 0.030167228 -0.020764207
000240 6d eb aa bc 07 ba c0 bc 77 70 8d 3c 43 d9 84 3b
       -0.020864213 -0.023526205 0.017265541 0.00405422
000250 cf 10 9c 3b 24 0f 60 bb 78 e5 0f bc 61 dd b5 3b
       0.004762746 -0.0034188712 -0.008782737 0.005550072
000260 f5 68 b3 3c 70 cb 08 3d 60 f6 d2 3b a6 f3 66 bb
       0.021900633 0.033397138 0.0064380616 -0.003524044
000270 99 81 7a 3c 29 04 b7 bb 14 6c 0d bd f0 6a 0d bd
       0.015289688 -0.0055852127 -0.0345269 -0.03452581
000280 c9 24 0f 3d 7f ec 27 bc de ba 2f bc 73 b4 a9 bc
       0.03494719 -0.010249256 -0.010725705 -0.020715928
000290 ef fb 00 bd a3 01 01 bd e2 97 ee bb b4 28 62 bb
       -0.031490263 -0.0314957 -0.0072812894 -0.0034509124
0002a0 c3 39 e7 3c f8 45 a7 3c af 13 27 bc c2 8f 4c 3c
       0.028225785 0.020419106 -0.010197564 0.012485446
0002b0 ff ee 0a 3d e5 de 00 3d f5 70 e8 3b 51 be 5f bc
       0.03391933 0.03146257 0.0070935437 -0.013656215
0002c0 b6 83 f9 3c c7 37 0a 3c 94 bd 0a bd e1 85 48 bc
       0.030458312 0.00843615 -0.033872202 -0.0122389505
0002d0 d9 64 d8 3c be 6e 60 3c eb 08 01 3c b6 b1 fe bb
       0.026415275 0.013698278 0.007875661 -0.0077726496
0002e0 c3 4d 04 3d fd d1 2c 3c 2a 91 aa 3c de 10 ad 3c
       0.03230072 0.010548112 0.020821173 0.021126207
0002f0 7a 35 e3 3b eb b5 fd bc 51 4b 6f bc cf 6a f7 bb
       0.006933865 -0.030970534 -0.014605359 -0.0075505744
000300 eb 3d 9d 3c 12 5d 04 bd 32 7a 78 bc 47 bc 3e bc
       0.019194564 -0.03231532 -0.015165852 -0.0116415685
000310 9f 31 80 bb 3f 49 9a bc e8 f8 ee 3c ed 0a 2f 3c
       -0.0039121653 -0.018833755 0.029171422 0.010683757
000320 43 a5 00 3d 22 3a 8c 3b bb 9e 5b bc 6c 07 ae bc
       0.031407606 0.004279391 -0.0134045435 -0.021243773
000330 e4 b0 e3 3c 16 79 ef bc b2 3e 94 bc e3 9a c9 3c
       0.027794309 -0.029232543 -0.018096302 0.024609989
000340 86 21 c5 bc c3 eb 7f bc f2 bd b2 3c 28 e0 5b bc
       -0.024063837 -0.015620175 0.021819089 -0.013420142
000350 19 79 11 ba 72 93 eb bc 68 f0 fc bb 89 d9 b2 3c
       -0.0005549356 -0.02875683 -0.0077190883 0.021832244
000360 77 ca 02 3d bd 47 8b bb e1 bd e5 3c 1c 3d 96 bc
       0.031931367 -0.004250495 0.028044643 -0.018339686
000370 a1 ec e7 bc 2e 5c fe bc 5e 5e 03 3d 1d 6b a0 bc
       -0.028311076 -0.031049814 0.032072417 -0.019582326
000380 e3 d1 e2 bc 76 48 b3 3c 1c 4d 0d bd 3e f6 d6 bc
       -0.027687972 0.021885138 -0.034497365 -0.026240464
000390 9e 6a 00 bd ad e3 8a bc 04 95 fc bc d4 22 0e 3d
       -0.031351678 -0.016954267 -0.030832775 0.034701183
0003a0 72 2b d2 bc b2 3a 84 bc ed 5a bf bc 5f d1 95 3c
       -0.025655482 -0.01614127 -0.023358786 0.018288312
0003b0 e1 45 b7 bc b8 a3 06 3d 7b 53 bf 3b 4f e1 cb 3c
       -0.022372188 0.032870978 0.005838809 0.024887709
0003c0 60 b5 97 bc 66 f8 1b 3c 29 6b 8d 3b 84 4b d9 bc
       -0.018519104 0.009519672 0.004315753 -0.026525266
0003d0 12 d6 f7 3c 86 18 83 3c 78 a5 c6 3c 52 6a 63 bb
       0.030253444 0.016002905 0.024248824 -0.0034700823
0003e0 ce 4e 08 bd 92 2d b4 3c 3f 85 63 3a ac 3f 0e 3d
       -0.03327828 0.021994386 0.0008679218 0.03472869
0003f0 16 97 ac bc 3f 84 f1 3c b6 b7 08 3d d0 d2 43 bc
       -0.021068137 0.029482005 0.033378325 -0.011952117

bias f4 [64]
000000 e5 8e b3 bc b2 f7 4c 3b 06 82 ba 3c 84 3d ca 3c
       -0.021918723 0.0031275568 0.022767078 0.024687536
000010 8f 05 74 3c c6 b4 d9 bc d0 78 d5 3c 32 58 97 3b
       0.014893903 -0.026575457 0.026058584 0.004618668
000020 95 f4 b5 bb fb f1 7d bc 0b aa 3a 3d ca c9 de 3c
       -0.005552838 -0.015499587 0.04557232 0.02719583
000030 a9 9a 00 bd 74 42 f5 3c ea e9 18 3c 5a 52 a0 3c
       -0.031397495 0.029938914 0.009333113 0.019570518
000040 05 41 15 bc fe 1c 83 3b c3 94 e4 bc 83 0a 15 bd
       -0.00910974 0.004001259 -0.027902966 -0.036386978
000050 e5 58 02 bd cc 2d 04 3d 5a aa 61 bc 81 31 d9 bc
       -0.031823058 0.032270238 -0.013773525 -0.026512863
000060 36 84 9d 3b e3 6f db 3c 8b e4 11 bd 75 d4 b2 3c
       0.0048070205 0.02678675 -0.035618346 0.021829823
000070 1f ce 16 bd d5 a6 4a 3c 2f 49 02 3d f3 4e 96 3c
       -0.036817666 0.012368877 0.031808075 0.018348193
000080 4b 04 02 bd c4 bf 8d 3c 00 fc 01 bd 64 a9 f3 3c
       -0.031742375 0.017303355 -0.031734467 0.029743858
000090 a1 28 d1 bc b8 39 b4 3b e0 4f f1 bc 76 f2 00 bd
       -0.025532069 0.0055000447 -0.029457033 -0.03148123
0000a0 0f 65 a7 bc ba e4 ac 3c 19 2c d8 3b d8 b1 83 bc
       -0.02043393 0.02110516 0.0065970537 -0.016076013
0000b0 ac 0a fd 3c 72 0a 07 3b 5c a3 ef 3c be c5 19 bc
       0.030888878 0.002060559 0.0292527 -0.009385524
0000c0 41 a5 ce bc b5 ab b7 bb 87 f9 68 3c 7e ed bb bc
       -0.025225284 -0.005605186 0.014219648 -0.022940394
0000d0 de 64 6c bc be eb 16 3a 58 8a f8 3c 54 29 17 bc
       -0.0144283455 0.0005757174 0.030339405 -0.009226162
0000e0 51 8f cc bc 76 cf 9c 3b c0 51 97 3c 03 78 05 bd
       -0.024970682 0.0047854735 0.018471599 -0.032585155
0000f0 7e 23 23 bc 16 4e 2e 3c 35 ce 81 3c c5 21 6f bc
       -0.0099571925 0.010638734 0.015845397 -0.014595454

weight f4 [64, 64]
000000 56 1d c1 3a ac e9 de 3d bb 32 8f 3b 60 58 5c bd
       0.0014733474 0.10884413 0.004370061 -0.05379522
000010 2a 19 40 3d 29 87 7b bd 07 10 c5 3d 54 43 60 3c
       0.046899 -0.061408196 0.096221976 0.013687927
000020 dd 3c 2a 3d df 59 8b bd 53 0f f5 bd e0 c1 bd 3d
       0.04156195 -0.06804251 -0.119658135 0.09265494
000030 1d 44 18 bd 1d b2 4b 3c 21 66 b8 3d 87 ea 67 bd
       -0.037174333 0.012432602 0.090038545 -0.056620147
000040 06 06 da bd 19 9f 8e bd 0c af 83 bd 80 14 d5 bd
       -0.1064568 -0.06963939 -0.06429872 -0.10404301
000050 b5 72 27 3d a5 bf 06 3d 86 20 59 3d 9c 28 ad 3b
       0.040880878 0.03289761 0.053009532 0.005284382
000060 3e 2b b3 bd fd 4d 89 bd 70 94 ab 3c f7 9d 8d bd
       -0.08748482 -0.06704328 0.020944804 -0.06914895
000070 0d 2c 8f bd 76 24 bc bc 4b 4d d5 bd 34 92 18 3c
       -0.06990824 -0.022966605 -0.10415133 0.009312201
000080 8c 90 e8 bd 9a 08 d0 3d c4 6d f5 bd 93 25 85 3d
       -0.11355695 0.101578906 -0.11983827 0.06501307
000090 f6 26 82 bd 88 14 de bd bb 05 e8 bd d3 46 c0 3d
       -0.063550875 -0.1084376 -0.11329218 0.09388509
0000a0 df d1 2e 3d f2 94 0c bd c8 3c 7f bd da 12 b6 bd
       0.042680617 -0.034321733 -0.062313825 -0.088903144
0000b0 df 3f 17 3d 75 f1 43 3d c4 c7 a8 3d 0c 26 d5 bd
       0.036926147 0.047837693 0.08241227 -0.104076475
0000c0 14 39 09 bd b4 85 fb bd d9 ae a6 3d b9 09 05 3d
       -0.0335017 -0.12281361 0.08138818 0.032479975
0000d0 d4 8e e8 bd dc 81 05 3d 1e 96 6b 3d b9 ba 86 bc
       -0.11355367 0.032594547 0.05751621 -0.016446458
0000e0 17 9f 5c bd 3b 06 f0 bd a5 6e 40 3d f9 ee 6f bd
       -0.053862657 -0.11719938 0.04698052 -0.05857751
0000f0 d6 0c 24 bd 18 1e fe 3d 7e 3b 61 3d aa 90 8a bd
       -0.040051304 0.12408084 0.054988377 -0.06765874
000100 73 1a 33 bd eb 83 81 3d 8b 68 55 bd ae 56 aa 3d
       -0.043726396 0.063239895 -0.052101653 0.08317314
000110 5d 67 63 3a 41 c2 1b bd 80 ec 51 bc e1 d3 19 bd
       0.0008674765 -0.03802705 -0.012812734 -0.03755558
000120 92 2f 40 bd cd 42 a7 3d ff 0e b3 3d 6b 81 f2 3d
       -0.046920367 0.08167038 0.08743095 0.11841091
000130 c6 a5 dc 3d f3 d6 d3 bd a4 50 c6 bd c0 12 19 bd
       0.10773806 -0.10343733 -0.0968335 -0.037371397
000140 89 83 1c 3d 71 bc cd 3c 6f 93 15 3d 82 7e 50 3d
       0.03821138 0.02511427 0.036517557 0.050901897
000150 18 55 44 bd 37 13 de 3d dd be dd 3d aa 47 82 bc
       -0.047932714 0.10843509 0.1082742 -0.015903313
000160 ed 46 af bd 6a a4 71 bd da d0 13 bd d8 11 df 3d
       -0.0855845 -0.058994688 -0.03608785 0.10892075
000170 00 a0 d7 ba 39 17 c0 3d ec 9b c6 3c 43 0b 85 3d
       -0.0016450882 0.09379429 0.024244271 0.064962886
000180 7c fc e5 bd 2c 11 f2 3d 83 98 e3 bd d9 d4 d1 3d
       -0.11229798 0.118196815 -0.11113074 0.102456756
000190 4c ce 98 bd c1 d9 b8 3d b5 d7 2b bc 48 89 b8 bd
       -0.07461223 0.09025908 -0.01048844 -0.09010559
0001a0 f8 73 02 bd de 4a cf bd e3 51 e4 3d 97 9a 76 bd
       -0.031848878 -0.10121702 0.11148431 -0.060206022
0001b0 0a 83 41 bd a6 5a 7f 3c 8a d5 b5 bc c9 a4 08 3e
       -0.04724411 0.015585577 -0.02219655 0.1334411
0001c0 f8 f6 d9 bd 0e 7f e9 3d 19 cd 3c 3c 24 59 80 bd
       -0.10642809 0.11401187 0.0115235085 -0.06267002
0001d0 97 a6 a5 3d 96 f0 e7 bd 82 f7 8f bd 5a 61 19 3d
       0.08088415 -0.11325185 -0.0702963 0.037446357
0001e0 0f bb ee bc 8d c2 45 bd fc f6 c4 3d ef a8 ff bb
       -0.02914193 -0.04828124 0.09617421 -0.007802121
0001f0 21 b6 3d bd ce 89 1d bc 17 8e cb 3d 4c d9 40 3d
       -0.04631627 -0.009615375 0.09939211 0.04708223
000200 b0 2e ea 3c b5 d2 be bd 66 d8 02 3d f1 e1 a8 3d
       0.028586715 -0.09317533 0.031944655 0.0824622
000210 bb 79 9c 3d 4c 24 2e 3d 7a cf d5 3d 19 8e 92 bd
       0.07640406 0.042515084 0.10439964 -0.07156009
000220 1c e4 d1 3d 94 83 c1 bd 74 04 e6 3d 0a af f0 bd
       0.102485865 -0.09448925 0.11231318 -0.11752136
000230 e9 06 19 bd 9f d6 61 3d 5f 91 de bc b8 09 a9 bc
       -0.037360106 0.05513632 -0.027168928 -0.020634517
000240 ef cf 91 bd ae a7 9d bd 22 af c9 3c 27 1c bb bd
       -0.07119738 -0.07697998 0.024619643 -0.09136229
000250 9d 99 f6 bd 08 8b dc 3b 9c ae cc bd 56 42 9b 3d
       -0.12041018 0.006730441 -0.099942416 0.07581012
000260 3f 3d 8c bc 48 15 bc 3d 7e 94 b8 bd 93 29 c5 3c
       -0.017119048 0.091837466 -0.09012698 0.024067676
000270 b7 a4 01 3d 0e 5b c5 bd ab 03 9e bd 34 3d df 3d
       0.031651225 -0.09636508 -0.07715543 0.109003454
000280 e0 8d 46 3d e8 af 6e 3d 97 4e 19 3d 8c 24 f9 bd
       0.048475146 0.058273226 0.037428465 -0.12165174
000290 a3 5d b5 3d c8 e3 52 bd c0 31 c1 3d 29 62 b6 bd
       0.088557504 -0.05148676 0.09433317 -0.08905441
0002a0 19 23 58 bc d8 d2 64 bc ae 32 8e 3d d7 a1 d8 3d
       -0.013191962 -0.013966285 0.0694326 0.105777435
0002b0 58 ab 40 bd 68 e0 a7 bd 14 c3 f6 3d 2e 1c d6 3c
       -0.047038406 -0.08197099 0.12048927 0.026136484
0002c0 0f 6e c7 bb 3e 01 76 bd 81 21 87 bd 27 61 8b bc
       -0.006086118 -0.06005978 -0.06598187 -0.0170141
0002d0 b5 56 ae bd 14 12 bc bd 0e 61 fc bd 40 a3 a9 3d
       -0.08512632 -0.09183136 -0.12323199 0.082830906
0002e0 05 ab e3 bd d3 52 ee bd d9 84 75 3d da c9 3e 3d
       -0.11116604 -0.11636891 0.059941147 0.04657922
0002f0 67 31 9a 3d bd 3d 94 3d 07 f5 08 3c 42 c1 f2 bd
       0.07528954 0.07238338 0.0083592 -0.11853267
000300 56 b1 7e bd bc 79 dd bd d4 a4 dd 3d 38 e8 d7 bd
       -0.06218084 -0.108142346 0.10822454 -0.10542339
000310 41 a7 e9 bd 89 b1 b9 bd e5 58 89 bd 6b b8 9e bc
       -0.11408854 -0.09067065 -0.067064084 -0.019375047
000320 65 bb f1 3d 1b 52 29 bd 47 00 ed 3c f1 dc 70 bc
       0.11803321 -0.041338068 0.028930796 -0.014701114
000330 ea 54 0a 3d 80 b0 56 bd db 20 ca 3d d3 50 d2 bd
       0.033772387 -0.052414417 0.09869548 -0.10269322
000340 77 64 f7 3d d0 79 c8 bd 78 a6 bc bd e1 60 0b bd
       0.12079709 -0.09788859 -0.09211439 -0.034027938
000350 39 58 ea 3d f4 7c b2 bd 22 9f c7 3d 9a 04 4f 3d
       0.114426084 -0.08715239 0.09747149 0.050541498
000360 e4 c7 88 bd b1 03 2b 3d bf f0 39 3d a4 43 fd bd
       -0.06678751 0.041751567 0.04539561 -0.12366417
000370 b2 c5 29 bd de 9d 7c ba 55 46 91 bd 1a ef ac 3d
       -0.041448303 -0.0009636561 -0.07093493 0.084440425
000380 0f dd 5a bc 91 e1 42 3b 4d b5 c3 3c 7b 05 83 bd
       -0.013358369 0.00297365 0.023890162 -0.0639753
000390 b6 47 00 bd c8 b1 d1 bd 1d 99 1f bd db 08 81 3c
       -0.03131839 -0.10238987 -0.03896438 0.015751293
0003a0 c0 29 be 3d f9 11 d2 3d 33 36 01 3d fc c9 34 3d
       0.09285307 0.10257334 0.03154583 0.04413794
0003b0 85 28 a7 3d e5 c1 a7 3b 3a 6d 22 3d f3 30 b2 bd
       0.08162025 0.0051195496 0.039654948 -0.087007426
0003c0 5a f5 53 bd 65 09 69 bd cb 1e 42 bd 20 b8 40 3d
       -0.051747657 -0.056893725 -0.047392648 0.047050595
0003d0 0c d1 34 3c 82 ef 58 3b f4 77 28 bd 5f 27 c3 bd
       0.011036169 0.0033101742 -0.04113002 -0.09528994
0003e0 53 18 9c bd a9 e6 b6 bd 37 70 fb bd 6d 04 3d 3d
       -0.07621827 -0.08930714 -0.12277263 0.0461468
0003f0 90 77 bd 3d ef 36 1c 3c 42 66 b9 bd db fb 5e bd
       0.0925132 0.009534582 -0.09052707 -0.054439407

bias f4 [64]
000000 75 13 f5 bd 53 42 e6 3d 83 b5 9e bd 51 42 c8 bd
       -0.11966602 0.11243119 -0.07749464 -0.09778274
000010 88 14 dd 3d d8 b6 f7 3d ed 26 a8 bc e1 60 0b bd
       0.10794932 0.120954216 -0.020526374 -0.034027938
000020 95 9b 15 3d 84 2d e8 3d 59 c7 ef 3d 0e ca b1 3d
       0.036525328 0.113368064 0.117079444 0.08681117
000030 00 82 35 3d c9 73 86 bc d2 75 6d bd 07 89 df bd
       0.04431343 -0.016412633 -0.05797369 -0.10914808
000040 3f 4f 72 bd fd 6f b1 3c b1 15 5a 3c 1a 8d ac 3d
       -0.059157606 0.021659845 0.013310836 0.084253505
000050 c4 f2 c0 bd 17 8b bf bc f7 57 5e bd 18 f8 e8 3d
       -0.09421304 -0.023381753 -0.05428311 0.11375445
000060 f5 a0 2d 3d 9b ae 6d bd 5b 58 a8 bd 7a be 17 bd
       0.04238983 -0.058027845 -0.082199775 -0.037046887
000070 cd 47 74 3d 4d 50 cf 3b 71 1a 8e bd b9 a0 f5 3d
       0.059638787 0.0063267113 -0.06938637 0.11993546
000080 55 95 da bd e5 e8 d9 3c 11 45 3a 3d a7 fc d1 3d
       -0.10673014 0.02660031 0.045476023 0.10253268
000090 e2 e2 a2 3b c6 77 f4 3c 01 5b 0f 3d 78 24 86 bd
       0.004970894 0.029842269 0.034998897 -0.065499246
0000a0 89 1c 04 3d fb a0 37 bd 5a 0b ea 3d 5e 11 da bd
       0.032253776 -0.044831257 0.114279464 -0.10647844
0000b0 27 9d 22 3d ba 8c 8f ba ec ae 83 bd 42 c3 45 bd
       0.039700653 -0.0010951974 -0.06429848 -0.048281915
0000c0 7c c7 0e 3d d5 25 9f 3d ad 59 85 bd 9b 4b 3e bd
       0.034858212 0.07770888 -0.06511245 -0.04645882
0000d0 40 e3 a9 bd 4b 46 04 3d ac e5 30 bd 27 f2 87 bc
       -0.082952976 0.0322936 -0.043187782 -0.01659496
0000e0 65 b1 f2 3d 51 74 f2 3d e4 97 74 3d 83 b7 cb 3d
       0.118502416 0.11838592 0.059715167 0.099471115
0000f0 1a f5 04 3d 7d 68 9d bd e1 55 c5 3c 23 1d 93 3d
       0.03246031 -0.07685945 0.024088802 0.07183292

weight f4 [64, 64]
000000 5c 4f ba 3d 3c 8c ef 3d 13 bb 63 3d b7 a1 db bd
       0.09097168 0.116966695 0.05559833 -0.10724204
000010 c0 51 ad bc 8e 3b ea bd 9c 29 cb bc 00 cc ed bd
       -0.021157146 -0.114371404 -0.024800114 -0.116111755
000020 85 47 26 3e 79 39 a2 3d 74 dc 0a bd fd e0 7d 3d
       0.1623822 0.07921118 -0.033901647 0.061982144
000030 ac ad 02 bd c0 02 83 3d 86 b1 81 3d d1 9c c7 bd
       -0.031903908 0.06397009 0.06332688 -0.09746707
000040 35 b1 94 bc 7d 09 0e bc f2 04 2e 3d f5 23 cc bd
       -0.018150905 -0.008669254 0.042485185 -0.09967796
000050 5c 9c 90 3b e4 d7 fc bc 16 25 b1 3c ce c4 d5 3d
       0.0044131707 -0.030864663 0.02162413 0.10437928
000060 e9 dd 83 3d 76 fb 7b bb c4 3c 6c bd 77 11 0f 3e
       0.064388104 -0.0038449443 -0.057675138 0.13971506
000070 31 c8 dc bc 7c d2 e5 bc 55 6f 11 3e 14 6f 86 3d
       -0.026950927 -0.028054468 0.14202626 0.06564155
000080 ce 5e 15 3d 81 b4 17 3e a1 71 f6 bd 89 63 47 bd
       0.036467366 0.1481495 -0.12033392 -0.04867891
000090 56 6e 89 bd 43 8d b7 3d 7b ea 89 bd 87 f1 81 3d
       -0.06710498 0.089624904 -0.06734177 0.06344896
0000a0 6f 2a 95 3c 6a 95 b2 3b 3b 90 90 3d 9a 23 af 3c
       0.01820871 0.0054499405 0.0705876 0.02137928
0000b0 fe 39 c2 bd 06 d2 97 ba aa 45 9c 3d 4c 5e 39 3d
       -0.094837174 -0.0011582978 0.07630475 0.045255944
0000c0 da a9 8b bc 03 27 b5 3d 3f a9 8a bd 1e 0b 22 bd
       -0.017048765 0.088453315 -0.067705624 -0.039561383
0000d0 54 13 59 3d ab e9 33 3d 74 f3 2e 3c b9 e7 b3 3d
       0.05299695 0.043924015 0.010678161 0.08784432
0000e0 c5 b9 88 3d 8b 37 ea 3d 7a f5 96 3d f6 47 a3 bd
       0.06676058 0.11436375 0.0737104 -0.0797271
0000f0 20 75 d1 3d 98 3b 91 bd f8 aa 93 bc 7c e1 ab bd
       0.10227418 -0.07091445 -0.01802586 -0.08392617
000100 94 c9 90 bb ed 5d b5 3d e1 e1 f3 bc 79 21 9c 3d
       -0.0044185612 0.088558055 -0.029770793 0.07623572
000110 d2 7a de 3d 94 1a d2 bc 69 c9 c1 3d 1f ce 99 bd
       0.1086327 -0.025647439 0.09462244 -0.075100176
000120 f7 6a e4 bd 0c 8c 34 3b c8 b9 ff 3c 7a 97 ed 3c
       -0.111532144 0.0027549295 0.031216517 0.029002894
000130 d0 6a ec 3a ae eb e1 3c 5b 34 0f 3d 7c 89 89 bd
       0.0018037204 0.027578201 0.03496204 -0.06715676
000140 7b e2 74 3d a5 ad 9b 3d 72 ce 93 3d b1 b9 10 bd
       0.0597863 0.076014794 0.07217111 -0.03533334
000150 56 e6 d9 bd 2e fd b4 bd c2 23 8d bb 54 eb 88 3d
       -0.10639636 -0.08837353 -0.004307241 0.0668551
000160 cd a3 92 bd 9f f8 51 bd 88 40 9a 3d d4 b1 80 bd
       -0.07160149 -0.051262494 0.075318396 -0.06283918
000170 90 07 98 ba 18 db d7 3d 21 73 a8 3d b1 6c 80 3c
       -0.0011598933 0.10539836 0.08225084 0.015676828
000180 a0 8f 35 3d 6c f7 78 3d 31 a9 86 bd 78 fc d3 3d
       0.044326425 0.060782835 -0.065752394 0.10350889
000190 77 95 13 3c c4 ca 1b bd 70 fb c2 bc 5e 6e 4c 3d
       0.009007803 -0.03803517 -0.023801535 0.04990994
0001a0 a2 29 90 3d 09 12 48 bd 31 8c 6b 3d 2a 14 0e bc
       0.07039191 -0.048845325 0.057506744 -0.0086718
0001b0 5b 6b c7 3d dd fb 96 3d 2a bd 76 3c bc 67 dc bc
       0.09737273 0.07372258 0.015059749 -0.026904933
0001c0 06 da 7a 3d 6b 19 9c bd 84 9b f1 3d 3f 6d 45 bd
       0.06124308 -0.076220356 0.117972404 -0.04819989
0001d0 eb d8 84 3d f7 07 95 bd 2b a7 f9 bd c5 09 b1 bd
       0.06486686 -0.0727691 -0.12190088 -0.086444415
0001e0 97 3b b7 3d c3 7b c6 bd f2 df b6 3c 94 2f 28 bd
       0.08946913 -0.096915744 0.022323582 -0.041061
0001f0 f7 c0 18 3c 7f 12 89 bd b3 a5 fd bc 26 05 45 bd
       0.00932335 -0.06692981 -0.0309628 -0.048100613
000200 a7 d7 ef bd b8 e3 64 bd f1 4e 77 3c df 3c a0 bb
       -0.11711054 -0.055881232 0.015094505 -0.004890069
000210 5f f5 c6 3d fb 87 2c bd 4a 7c 7f bd c0 58 a9 3d
       0.097147696 -0.04212187 -0.06237439 0.08268881
000220 c0 38 96 3d 3c ca be bd 08 01 c0 3d 26 4e e5 3c
       0.07335043 -0.09315917 0.09375197 0.027991366
000230 cd ab 46 bd fd 04 f5 bc 44 8b 6a bd d1 6a 9a bd
       -0.048503686 -0.029909605 -0.05726172 -0.07539905
000240 c5 e9 12 3c 89 a8 16 3d 08 3a 36 3d a5 87 dc bd
       0.008966868 0.03678182 0.044488937 -0.1076806
000250 6b 77 d6 bd 11 dc 61 bd db 24 b6 3c d2 69 a8 3d
       -0.10471996 -0.055141512 0.022234371 0.082233086
000260 ab 0f 9d bd 56 94 a5 3d 85 fd d6 3d 54 75 9d bd
       -0.07669004 0.080849335 0.10497574 -0.07688394
000270 c9 c8 a7 bd ec 83 e1 3d 49 72 8a 3c e4 96 6f bd
       -0.081925936 0.1101149 0.016900199 -0.05849351
000280 2f c0 d7 3d 3e cc e9 bd 3f 83 8e 3d 4d 67 ae 3d
       0.10534703 -0.11415909 0.06958627 0.08515797
000290 f6 52 ef bd be 97 48 bd 82 62 d9 bd 8e 1f e9 bd
       -0.116857454 -0.048972838 -0.10614492 -0.11382972
0002a0 9f e8 e3 bc 44 26 d5 bd b6 ed f7 bd a0 68 e5 bd
       -0.027820883 -0.10407689 -0.12105887 -0.11201596
0002b0 52 26 b7 3d 8e 20 47 bd 7b 9e 86 3d 06 de 23 3d
       0.08942856 -0.04861503 0.065731965 0.04000666
0002c0 dd a2 4b 3d 35 11 d3 3d eb 57 f4 bd 88 24 dd 3d
       0.049715865 0.10306016 -0.119308315 0.107979834
0002d0 a4 64 81 3d 59 7c 63 3d 6f cb 8e 3c bb 19 bb 3d
       0.06318024 0.05553851 0.01743099 0.09135767
0002e0 ae ae da bd b3 8b 90 3d 6b 75 8e 3d 51 c1 de bc
       -0.10677849 0.070578955 0.069559895 -0.02719179
0002f0 c0 29 c3 3c 45 4c 8a bc 60 dc c9 3c d4 3f aa bc
       0.023823619 -0.016882071 0.024641216 -0.020782389
000300 96 18 93 3d fc c5 a8 bd 83 f7 aa bd 7f ec 93 bc
       0.07182424 -0.082408875 -0.0834799 -0.018057106
000310 17 a7 7e bd cd 3b 06 bd 5d cb 58 bd 49 5a 38 bd
       -0.062171068 -0.032771874 -0.052928317 -0.045007978
000320 f2 10 04 be 0b 8c e6 bd 33 f6 04 bd 39 c9 d8 3d
       -0.12897089 -0.1125718 -0.032461356 0.10585255
000330 ec 8d 50 bd ea cd cd 3d a8 d3 ed bd cf 75 eb bd
       -0.050916597 0.100490406 -0.11612636 -0.114970796
000340 73 9a 05 be 9c a5 87 3d 1d 12 8d 3c 3c 46 43 bd
       -0.13047199 0.06623384 0.017220551 -0.047674403
000350 97 35 de 3d 4d 0f 97 bd 3e 8b 69 3d 2f 9b bf bd
       0.10850065 -0.07375965 0.057017557 -0.09355771
000360 e3 2d 9b 3d 8a a6 0a 3d 8c c0 d3 3c 46 03 fc bd
       0.075771116 0.03385023 0.02584865 -0.12305312
000370 53 3b 87 3d ba 10 a7 3d a1 65 fa bd 9f 1b e0 3c
       0.06603112 0.08157487 -0.122264154 0.02735692
000380 8d aa 96 bd 27 cd 69 bc 45 df f2 bd aa a2 cf bc
       -0.07356749 -0.014270104 -0.118589915 -0.025346119
000390 c1 f2 d2 bd 7e 04 b3 3d 13 bf 6d 3d 6b 21 8a bc
       -0.10300208 0.08741091 0.05804355 -0.016861638
0003a0 be a0 f9 bd 83 ca 03 bd 21 a7 89 3c 83 0a 86 3d
       -0.12188862 -0.032175552 0.016803326 0.06544974
0003b0 e3 4b 36 bb 70 f7 01 3d eb e9 99 3a 3c 9e 0a 3e
       -0.0027816228 0.031730115 0.0011742687 0.13536924
0003c0 dc 1a f9 3d 43 f4 ca 3d 01 88 af bd ba 2c 1e bd
       0.12163326 0.099098705 -0.085708626 -0.038616873
0003d0 11 12 d9 bd 21 f2 5f 3d 84 fd a5 39 30 09 89 bc
       -0.10599149 0.05467427 0.00031660136 -0.016728014
0003e0 4b ac f1 3d 09 e9 89 3d 47 c5 03 be 83 13 d3 bd
       0.118004404 0.06733901 -0.12868224 -0.10306456
0003f0 29 b5 c6 bd c8 70 9e bd ae 9f ce bc 70 f0 d0 bd
       -0.09702522 -0.07736355 -0.025222626 -0.1020211

bias f4 [64]
000000 46 58 79 bd 16 89 a3 bd 5d 9a 11 bd 30 65 d9 3d
       -0.0608752 -0.079851314 -0.035547603 0.10615003
000010 8e 92 17 3d 26 73 c5 bd 80 73 b5 3d 1d 4f 89 3d
       0.037005 -0.096411034 0.088599205 0.06704543
000020 0a e5 07 3e db 6e 74 bc 21 2b ea 3c 51 1c 05 3e
       0.13270965 -0.014919008 0.028585019 0.12999083
000030 33 3b f8 3d 5c 9d 4d 3d 74 53 3c bd ac 83 f4 3d
       0.12120666 0.050198898 -0.045978025 0.11939177
000040 be 78 fe 3d 64 35 80 bd 62 85 c7 bd 24 26 a9 3c
       0.124253735 -0.062601835 -0.09742238 0.02064807
000050 64 38 2d bd 60 b7 1f 3c 01 f9 91 3d ba 92 c6 bc
       -0.042290106 0.00974831 0.07127572 -0.024239887
000060 92 bd 5e bc c1 d5 d4 3d a8 eb 75 bd 34 c6 c1 3c
       -0.013595002 0.10392333 -0.060039192 0.02365408
000070 95 f4 f1 3d 3b 70 b1 3d b8 43 9b 3d 1d 14 bd 3d
       0.118142284 0.086639844 0.07581276 0.09232352
000080 94 72 0e 3d 62 03 36 bd 70 61 c3 bd cd f6 43 3d
       0.03477724 -0.04443682 -0.09540069 0.04784279
000090 a3 52 ac 3d 23 aa d5 3d c4 2a 54 bd c8 3e 39 3d
       0.08414199 0.10432842 -0.051798597 0.04522589
0000a0 5d 50 1c 3d 0c cf f6 bd a8 41 67 3d 54 e8 67 bd
       0.038162578 -0.1205121 0.0564591 -0.05661805
0000b0 c1 79 9c bd 48 8d e9 3d 72 da 9c 3d 78 64 76 3d
       -0.0764041 0.114039004 0.07658853 0.06015441
0000c0 a0 e7 8a 3d 26 7d c1 3c e4 f5 32 bc b4 44 8c 3d
       0.0678246 0.023619246 -0.010922883 0.068490416
0000d0 96 17 45 bd 12 1f 0e bc b7 ad a7 bd 7e 01 da 38
       -0.048118196 -0.0086744 -0.0818743 0.00010395328
0000e0 c9 ca 35 bc 88 50 5b 3d fc fe 53 bd c5 4e 34 bc
       -0.011095711 0.053543597 -0.051756844 -0.011005108
0000f0 bc 19 61 bc 38 99 0a bd f4 5f 8a 3d cd 4b cd bd
       -0.013739046 -0.033837527 0.06756583 -0.100242235

weight f4 [64, 64]
000000 f9 ed 9a 3d 14 8b d6 bd fb 45 cc bd c5 17 cc bd
       0.07564921 -0.10475746 -0.09974285 -0.09965471
000010 24 f3 85 bd 5d 5b bd 3d cd 75 0f bc ae 2f ae 3d
       -0.06540516 0.09245942 -0.008756113 0.08505188
000020 62 42 20 3d 49 47 31 3d db bf 28 3d db e9 c6 3d
       0.039125808 0.043280873 0.041198593 0.09712573
000030 9b e3 b5 bd 3d dd 94 3c a3 43 33 3c cd c0 f8 bd
       -0.08881303 0.0181719 0.010941419 -0.12146149
000040 33 b0 0a bd f9 26 fa 3d 95 1a f0 3a 51 9c 05 bd
       -0.033859443 0.12214465 0.0018318469 -0.032619778
000050 b9 9d 01 be 24 e1 ad 3d 8e 39 da 3c 7c fb b8 bd
       -0.12657823 0.08490208 0.026638772 -0.09032342
000060 61 d7 7b 3d 56 81 1f 3d 81 43 9a b9 c1 ab 73 bd
       0.0614847 0.038941704 -0.00029423463 -0.05948997
000070 86 04 2e bd 42 6d b6 3c 43 86 a8 3b 2a 63 a6 bc
       -0.042484783 0.022268895 0.0051429584 -0.020310957
000080 e6 83 b9 3d af 1e af 3b ff b5 49 3b f8 ab c2 3d
       0.09058361 0.005344234 0.0030778644 0.09505457
000090 11 a6 08 be 96 6b cb 3a 37 b0 1c 3d fb 79 18 bd
       -0.133446 0.0015519734 0.03825399 -0.037225705
0000a0 cb 5d 95 3c dc 9e c9 bc 14 87 c2 3d 26 d2 1f bd
       0.0182332 -0.024611883 0.0949842 -0.039018773
0000b0 8a 9e c4 bd 67 8a d5 bd 8f 1c c3 bd 4e 69 b1 bd
       -0.096005514 -0.10426789 -0.095269315 -0.086626634
0000c0 15 69 f3 3d 03 eb f7 bc ca 16 af bc 2d cb d6 bd
       0.11885277 -0.03026343 -0.021373171 -0.104879715
0000d0 e7 ae a0 bd 04 d5 31 3d dc 49 48 bb da 35 d9 3d
       -0.0784586 0.04341604 -0.0030561602 0.106059745
0000e0 9e ff ad bd 6a 0a b8 bd 3a d1 8b 3d 21 42 61 3d
       -0.08496021 -0.08986361 0.06827016 0.054994706
0000f0 2c 49 46 bd 54 45 9c 3d a9 26 89 3d e9 8d 88 3c
       -0.048409626 0.07630411 0.06696827 0.01666923
000100 fd 74 c2 3d 02 27 13 3d 1f 8a 73 3d da e3 c4 3d
       0.0949497 0.035925873 0.059457894 0.09613772
000110 38 dc db 3c e4 f1 c5 bd 8a 78 83 3d 36 9e 86 bd
       0.026838407 -0.096652776 0.064194754 -0.06573145
000120 ed 4d 54 bc d6 cd fb bc 88 0f c3 bb cb a8 f4 3d
       -0.012958032 -0.030737799 -0.005952779 0.11946257
000130 9b 56 6d 3d eb 24 7b 3d d7 49 4a bd 2e 16 ab bd
       0.05794392 0.061314505 -0.049386825 -0.0835384
000140 f0 67 d2 3c 30 9f e4 3d 49 4a 3e 3d 5a 22 f9 bd
       0.025684327 0.11163175 0.046457563 -0.12164755
000150 4e ff b8 3d 59 7e 70 bb 12 58 cf bc 2b 11 07 bd
       0.090330705 -0.0036696403 -0.02531055 -0.032975357
000160 d7 d6 82 3c f4 ba 0f 3d 6e d4 d0 3d e0 e8 e1 bc
       0.015971584 0.0350904 0.10196768 -0.027576864
000170 6c 1a 7b 3d fa 5f d4 bd bc 6a b6 bd 75 d4 d3 3b
       0.061304495 -0.103698686 -0.08907077 0.006464536
000180 98 5f b8 3d 5f 76 70 3d 0d 1e f4 bd b4 95 1f bd
       0.09002608 0.058706637 -0.11919794 -0.038961127
000190 48 10 84 bd 74 fb 82 3d eb 63 ca bc de 5e 07 be
       -0.06448418 0.06395617 -0.024705848 -0.13219783
0001a0 64 ad b3 bd 4a b9 d3 bd a6 bc 81 bd 26 ce aa bd
       -0.08773306 -0.103380755 -0.0633481 -0.08340101
0001b0 e9 9e ea 3d 70 d3 07 be 99 0e a2 3d 83 7e 01 bb
       0.11456091 -0.13264251 0.079129405 -0.0019759245
0001c0 f4 4a f5 3d 28 07 5d 3d a9 0c f9 bc 2c df 8d 3d
       0.11977187 0.053961903 -0.030401545 0.06927332
0001d0 d2 88 ef bd 0d 90 b2 3d 21 54 81 bc 8a c3 b1 bd
       -0.11696018 0.08718882 -0.015787186 -0.08679874
0001e0 c0 d7 e0 bd ef 9d b0 3d 9a 98 d8 3d e1 6b 38 3d
       -0.10978651 0.086238734 0.105759814 0.045024756
0001f0 df 26 58 b9 a7 2d c3 bd 9c da f3 bd 7f 9f ee 3c
       -0.00020613846 -0.09530192 -0.11906931 0.029128788
000200 b8 05 02 3e 03 8f 16 3c ad 3e e4 3d 87 a9 84 bd
       0.12697494 0.00918937 0.11144767 -0.06477647
000210 ac 74 5a bd 92 e9 24 ba 06 04 a5 3d 27 98 3b 3d
       -0.053333923 -0.0006290908 0.08057408 0.0457994
000220 92 c8 2d bd c4 26 eb 3c 8e 0c ae bd 15 c7 ee 3d
       -0.042427607 0.028705008 -0.08498488 0.11659066
000230 1a 07 85 bd d8 b6 d6 bc 48 6d 71 bd c9 8c 8e 3c
       -0.06495495 -0.026210234 -0.05894211 0.017401116
000240 a6 73 6e 3d 3f de e9 bb 03 36 8b 3d 2b 18 cb bd
       0.05821576 -0.0071370895 0.06797411 -0.09916719
000250 1b e0 48 3c c3 4b e9 bd 2f be 24 3c 59 cb bd bd
       0.012260462 -0.113914035 0.010055109 -0.09267301
000260 a5 8b dc 3d a8 38 8f bd d1 24 8b 3c b8 8c fe 3d
       0.107688226 -0.06993228 0.016985329 0.12429184
000270 d2 e6 98 bd fe cf f9 bd ce 69 c6 bc dd 31 80 3d
       -0.074659005 -0.121978745 -0.024220373 0.06259511
000280 dc a9 21 3c 9f 2a f3 bc 5b 0a c2 3c 0d 91 62 bd
       0.009867158 -0.02968341 0.023686578 -0.055314112
000290 93 1d 0f bd 1e 80 66 bd 23 bc 9a 3d 90 5e ca bd
       -0.034940314 -0.056274526 0.075554155 -0.098813176
0002a0 da 1c 0f 3d b6 be bc 3d f3 39 28 3d 79 d7 b4 bd
       0.034939624 0.09216063 0.04107089 -0.08830161
0002b0 19 e7 b5 bd e8 7e e7 3c a3 34 08 3d 35 7a c9 3d
       -0.08881969 0.028258756 0.033253323 0.09837762
0002c0 19 ef 89 bd 29 88 83 3d 4e 89 d4 3d e9 1e c2 3c
       -0.067350574 0.06422455 0.10377751 0.02369638
0002d0 ac 98 f7 bd c8 2e d5 bd 7a 06 13 bd 7a d6 d7 bc
       -0.12089667 -0.104093134 -0.03589485 -0.026347388
0002e0 9a f9 fc bb dd eb b2 bd c2 e8 ad bd 75 69 91 bd
       -0.0077201845 -0.087363936 -0.08491661 -0.071001925
0002f0 9d 3f 1a 3c c5 de ee bb f6 01 dd bd e2 62 7f bb
       0.009414581 -0.00728974 -0.1079139 -0.003896885
000300 28 68 c9 ba 27 a6 d4 3b 81 3b e9 3d b2 a6 aa 3c
       -0.0015366124 0.0064895335 0.113883026 0.02083144
000310 c8 f7 d5 3d 0d 70 03 3c fc f5 ed 3d 1c 13 4c bd
       0.10447651 0.00802232 0.116191834 -0.04982291
000320 06 8a 6b bd 92 b9 8c 3d 6f 5e 4a bd c5 be e6 3d
       -0.057504676 0.06871332 -0.049406465 0.11266855
000330 a6 fa 3f bd d8 ba 97 bd c4 da e0 bd 86 c4 db 3d
       -0.046869896 -0.074086845 -0.10979226 0.10730843
000340 36 2c fb 3d 9d 89 6d 3d 8a d8 dc 3c b1 27 af 3d
       0.12264292 0.057992566 0.026958723 0.085524924
000350 e1 6b 8d bd e9 37 83 3d cb 7e b6 bd 2e cb af bd
       -0.06905342 0.064071484 -0.089109026 -0.08583675
000360 fb eb af bc 00 1c b2 3d 5e 39 fb 3d 16 93 b4 bd
       -0.021474829 0.08696747 0.12266801 -0.08817117
000370 ee 89 9a bd 03 4d ba 3b 18 fa 57 3c db b0 de bd
       -0.07545839 0.00568545 0.013182186 -0.10873576
000380 c1 1c 96 3d b1 8e 96 bd d6 fd 9c bc 89 ff 14 3d
       0.07329703 -0.07351435 -0.019164007 0.03637651
000390 87 29 1d bb c3 d0 cc 3d 8c 80 80 bd 19 9f c5 3b
       -0.002398105 0.10000756 -0.06274518 0.006030929
0003a0 87 ca e2 3c b5 28 f3 3d 48 6b 62 bd 1d 4b 9a 3d
       0.027684463 0.118729986 -0.055278093 0.07533858
0003b0 5c b2 ee 3d 76 db d2 3c 5a 60 8d 3d c7 d7 bf bd
       0.11655113 0.025739413 0.06903143 -0.09367328
0003c0 d5 ed 20 bd 1b 04 64 bd 2a 29 d9 bc 09 d1 97 bd
       -0.039289314 -0.055667978 -0.026508886 -0.07412917
0003d0 da c9 b1 3c 3d a0 82 3d 6c a3 e8 3d 48 fa ba 3d
       0.021702696 0.06378219 0.11359295 0.091297686
0003e0 86 47 a1 3d c3 0a a3 bc f7 d8 8b bd d4 2f 44 bc
       0.0787497 -0.019902593 -0.06828492 -0.011974294
0003f0 d9 4a c0 bd 42 1b 90 3d 06 51 fb bd a3 7c e0 3d
       -0.09389276 0.07036449 -0.12271313 0.109612726

bias f4 [64]
000000 b1 7c ed 3d 9e db e4 3d 60 f2 0a 3e 8f 5a c3 bd
       0.115960486 0.11174701 0.13569021 -0.09538757
000010 01 de 8d 3d 66 54 6e 3e 1d 69 01 bc a0 47 6e 3d
       0.069271095 0.23274383 -0.007898596 0.058173776
000020 2c 8e 6b bd 4a 90 aa 3c ba ca bc bd 98 27 0f 3e
       -0.057508633 0.020820756 -0.092183545 0.13979948
000030 d6 66 4b bd 67 24 98 bd a3 a1 0f 3e 0d 59 aa bd
       -0.04965862 -0.07428818 0.14026503 -0.08317766
000040 9f 5c 33 bd 97 e4 bc 3d 7c 60 c0 3c d4 4f 67 3c
       -0.043789502 0.092232876 0.023483507 0.014118154
000050 58 32 40 3d 60 cf 20 3e 06 ca 66 bd 70 04 d2 bb
       0.04692301 0.15704107 -0.05634501 -0.0064092204
000060 b9 09 04 3d ca 3d 62 bd 94 bc b9 bd e0 60 80 bd
       0.032235835 -0.055234708 -0.090691715 -0.062684774
000070 b8 12 cb bd 68 d1 cb bd 20 6b 49 3d 77 d5 b9 bd
       -0.0991568 -0.099520504 0.049174428 -0.09073918
000080 61 3e d5 bd a7 43 97 3d 4e 42 d5 bc 18 89 60 bd
       -0.104122885 0.073859505 -0.026032593 -0.054818243
000090 9a 35 3c bd 57 af ba bc 2a a8 1d bd 51 b4 9c 3d
       -0.045949556 -0.022788687 -0.038490452 0.0765158
0000a0 f3 ed 39 bd bf ce 4c 3c 44 2a f5 bd 54 1c a7 3d
       -0.04539294 0.012500464 -0.11970952 0.081597
0000b0 a3 ff 85 3d 75 8f 81 39 df 59 40 3d 6d 5a cc bd
       0.065428995 0.0002471168 0.046960708 -0.09978185
0000c0 8d e1 a1 bd 6c 0f 24 3e b2 36 59 3d 4a 4c 2c 3e
       -0.079043485 0.16021508 0.053030677 0.16825977
0000d0 d1 9a 04 3e 02 41 42 3d 97 ba fb bd d9 f7 e2 bd
       0.12949683 0.047425278 -0.122914486 -0.110824294
0000e0 f9 dd b1 bd 3a a9 d8 bd af f4 fe 3c 0c 71 0f 3e
       -0.08684916 -0.105791524 0.031122534 0.14007968
0000f0 7a 75 63 bd 4f 48 d5 bd 94 62 c1 3d 8e 85 3c 3e
       -0.055531956 -0.104141824 0.094426304 0.18410322

weight f4 [64, 64]
000000 cc 21 41 3d 21 e2 6d 3d a8 af 3d bd 79 c3 33 3c
       0.04715137 0.05807698 -0.046310097 0.010971897
000010 21 69 4e bd a5 12 c6 bc 7a 4d 11 bc e2 ff e0 3d
       -0.050393227 -0.024178812 -0.0088685695 0.10986306
000020 91 43 a3 bd e8 49 ad bd c5 03 b4 bc 32 d9 e7 bd
       -0.07971872 -0.08461362 -0.021974454 -0.113207236
000030 ad 02 5e 3d dc 85 34 3d c4 ca 9f 3d 95 79 a4 bc
       0.05420177 0.04407297 0.07802346 -0.020077506
000040 58 ff 8c 3c cd 7d a5 39 16 34 95 bd e7 49 bf bc
       0.017211601 0.0003156498 -0.07285325 -0.02335067
000050 ff c6 e0 bd 1c f5 66 3d de 26 86 3d 23 89 dc 3d
       -0.109754555 0.0563861 0.06550382 0.10768344
000060 7c af e9 3c ef 88 9e 3d ef 9b 4d bd 50 c7 31 3d
       0.02852606 0.07740962 -0.050197538 0.04340297
000070 ef 20 f2 bd 4c 59 8f 3d 8c 94 02 3e 9b 26 77 bd
       -0.11822688 0.06999454 0.12751979 -0.06033955
000080 76 23 14 bd 32 d5 f2 3d a4 0b c2 bc 79 2d af 3b
       -0.03616663 0.1185707 -0.023687191 0.005345997
000090 6f e2 f9 3d 1f d7 82 3c 41 c1 b5 3d 8f e6 8d bd
       0.12201392 0.015971718 0.08874751 -0.06928741
0000a0 04 5c 18 3d c6 24 b0 bd a9 f1 e5 bd d1 83 e7 3d
       0.037197128 -0.08600764 -0.11227734 0.11304439
0000b0 16 fe fc bd a2 7d 94 3d cc bc 50 3d ff c2 2b 3d
       -0.123531505 0.07250525 0.0509613 0.04193401
0000c0 c8 e7 26 bd cb d9 0d 3d 49 b2 ba 3c 0d a1 5e 3d
       -0.040748388 0.03463153 0.022790091 0.05435281
0000d0 44 9f b5 bd d7 52 34 bd 26 a5 4a 3d d2 fe be bd
       -0.08868268 -0.044024315 0.049473904 -0.09325947
0000e0 23 e6 d5 bd da 27 fd bc 7b 04 37 bd c4 7f 9c bd
       -0.10444286 -0.030902792 -0.044682007 -0.07641557
0000f0 fd 77 c1 bd 5f 7d 23 3d ee aa 7e bd fa 7f 17 3c
       -0.09446714 0.039914485 -0.06217473 0.009246821
000100 bc 20 09 be c2 a5 28 bd 8b cc 93 3b 2b 1f c5 bd
       -0.13391393 -0.041173704 0.0045104674 -0.096250854
000110 b8 1f 4c bd 65 f2 04 3e 8f f7 33 bd 8f 81 11 3d
       -0.049834937 0.12983091 -0.043937262 0.035523947
000120 34 5f a4 3d 0c 32 00 be 0e 8c 8f 3d ae 84 19 3e
       0.08025971 -0.12519091 0.07009135 0.1499202
000130 f2 5e 80 3c 8a 4f e6 bd 5b 47 7e bd e6 58 14 bd
       0.015670273 -0.112456396 -0.06207977 -0.036217593
000140 7d ff da 3c 13 8a d5 3d b3 57 22 3e 33 47 df bc
       0.026733154 0.10426726 0.15853767 -0.02725563
000150 48 fa 88 bc 1e 40 79 bc 9b bf b8 3d 27 0c c8 3d
       -0.016720906 -0.015213041 0.09020921 0.09767943
000160 17 fe 8c bd 6e 65 84 3d b2 df ab bd b9 15 93 3d
       -0.06884401 0.06464659 -0.08392276 0.07181878
000170 4b 56 98 3d 3e 2c c6 bd 88 5e 9d bc d3 7e af bc
       0.07438334 -0.09676407 -0.019210115 -0.02142278
000180 08 04 8f 3c b3 f6 93 bd 4a 8c e6 bd 72 c4 23 3e
       0.017457977 -0.072247885 -0.11257227 0.15992907
000190 05 d0 27 bb dd ed 0c 3d c4 cb ad 3c 8d 28 52 bd
       -0.0025606167 0.03440653 0.021215327 -0.051308203
0001a0 03 b4 a2 3d cd 4d 6e 3d c4 ca bc bd c4 21 63 3d
       0.07944491 0.058179665 -0.09218362 0.055452123
0001b0 4d 51 08 3b e3 39 d0 bd b5 af 2a bd 57 6c bc 3d
       0.0020800412 -0.10167291 -0.041671474 0.09200352
0001c0 d1 2f 91 bd 44 da 6f bd ee c5 39 3d 6a a4 1c 3e
       -0.070891984 -0.058557764 0.045354776 0.15297094
0001d0 92 c6 db 3b 65 bf f2 bd 4c 31 e0 bd b2 5b 28 3d
       0.006707021 -0.11852912 -0.10946903 0.041103072
0001e0 a5 3b 04 3d d2 8d e8 3c 19 65 3a 3e 5c d5 db bd
       0.032283444 0.028387938 0.18202628 -0.107340544
0001f0 6f 21 9d bd bb 1e 99 3c 5a 4c c1 bd 1e a8 f1 3d
       -0.076723926 0.018691411 -0.09438391 0.11799644
000200 d3 a3 72 3d 8d cb ec 3d ef 45 2c 3d d5 77 ec 3d
       0.059238266 0.11562262 0.04205888 0.11546294
000210 12 ab 4a 3c 33 cc cd bc 5a 9a 39 3d db 72 c5 3b
       0.012369888 -0.025121784 0.045313217 0.0060256547
000220 9a 35 90 bd e6 7c da bd f7 29 c2 bd 14 35 4d bd
       -0.07041474 -0.10668354 -0.094806604 -0.050099447
000230 2d 45 13 bd 53 61 92 bd 5b 78 8e 3d a9 f9 f3 bc
       -0.035954643 -0.07147469 0.0695655 -0.029782133
000240 f5 27 6c bc 64 19 c4 3b 42 ab 4d 3d 99 07 ab bd
       -0.014413823 0.005984472 0.050212152 -0.083510585
000250 d7 94 7f bd 63 aa e5 bd f5 88 fe bd 97 d5 cf ba
       -0.062397804 -0.11214139 -0.12428466 -0.0015856501
000260 e5 b8 81 3d a4 5f 28 bd e1 c4 80 bc d9 f0 e6 3d
       0.06334094 -0.041106835 -0.01571888 0.11276407
000270 54 58 ca 3b be 94 77 bd 2a a0 ba 3d 55 c4 d2 bd
       0.0061750803 -0.060444586 0.0911258 -0.102913536
000280 1d 58 e4 bd 93 41 9f 3d 94 8f b5 3c 74 b8 d9 bd
       -0.11149619 0.07776179 0.02216319 -0.10630885
000290 1c 05 2e 3c 38 b0 54 3d 96 10 f8 bd c8 b1 23 bd
       0.010621335 0.051925868 -0.121125385 -0.039964467
0002a0 ff 1d bb bd 22 15 9b bc d1 98 f0 3d 57 e5 76 3c
       -0.09136581 -0.018930975 0.117478974 0.015069327
0002b0 6d e5 0e 3c fe f8 c6 3c df 9c 4d 3d 95 8b bf bd
       0.008721692 0.02428865 0.050198432 -0.09352795
0002c0 8b 13 16 3d 70 44 21 3d 45 4e 94 bc 74 67 12 3c
       0.03663973 0.039371908 -0.018103728 0.008935798
0002d0 0d 84 c0 ba 0d 1d 3d bc f2 b3 df bd 29 ad d1 bd
       -0.0014687792 -0.011542571 -0.10922994 -0.10238106
0002e0 ca 9a 74 bd fb 87 70 3d 49 08 a4 bc 1e 96 9a 3d
       -0.05971793 0.05872343 -0.020023482 0.07548164
0002f0 61 6d 88 bd f9 cd 3c 3d 42 d5 23 bd b5 e7 9c bd
       -0.06661487 0.04609487 -0.0399983 -0.07661382
000300 f3 53 8f 3c ec fa c9 bd 28 0a ec 3c 34 4c 11 3d
       0.017496085 -0.09862313 0.028813437 0.035473064
000310 ac e8 60 bd 70 69 6f 3c 08 c1 b2 bc 56 b0 8f 3d
       -0.054909393 0.014612541 -0.02182056 0.07016055
000320 a5 d8 e1 bd ed b2 27 bd c8 14 b9 3d d4 60 1a bc
       -0.1102765 -0.04094212 0.09037167 -0.0094225
000330 3f 34 9b bb a6 a4 33 bd 31 40 05 bd 57 05 6a bd
       -0.004736453 -0.043858193 -0.03253192 -0.057134
000340 69 c2 ba 3d ad 36 f9 bd 39 1c 1c 3c 0f 37 84 3d
       0.09119112 -0.12168632 0.009528213 0.06455814
000350 e2 31 72 3d cd 07 fe bd 7d 19 8b bd 12 7b 3c bd
       0.059129603 -0.12403832 -0.06791971 -0.046015806
000360 42 d3 d6 3d 95 77 8e 3d 5c c9 c4 3d 91 57 cd 3d
       0.10489513 0.06956402 0.09608719 0.100264676
000370 9a a1 00 bc c4 81 c0 3d 9c ad 6f bc 6f df 8d 3d
       -0.007851029 0.09399751 -0.014628794 0.06927382
000380 76 23 c9 bd bf 30 45 bd db 8f 53 bd 5b b8 eb 3d
       -0.09821217 -0.04814219 -0.051650863 0.115097724
000390 7a a8 8f bc 42 6f 00 bd 6b 58 cf bd 23 d3 e4 3d
       -0.01753639 -0.031356104 -0.10124286 0.11173084
0003a0 71 75 7d 3d 86 ab a7 3c 78 7d 72 3d fc 2e 94 bc
       0.06187958 0.020467531 0.059201688 -0.01808881
0003b0 00 63 e4 bd 54 94 87 bd c5 65 cb bb 55 59 8e bc
       -0.11151695 -0.06620088 -0.0062072002 -0.017376581
0003c0 f3 18 30 3d 57 7a a4 bd 72 06 a6 bc 49 d3 d5 bd
       0.042992543 -0.08031147 -0.020266745 -0.1044069
0003d0 79 82 59 3c 7e c3 e4 bd b8 28 33 3d c4 e5 fb bd
       0.013275736 -0.111701 0.043740004 -0.12299684
0003e0 98 29 86 3d 18 5b cd 3d bc 7f 64 3d ed c8 43 bd
       0.06550902 0.100271404 0.05578588 -0.04779904
0003f0 c8 de a0 bd 00 9d 78 3a 03 43 76 3d d9 71 73 bd
       -0.07854992 0.0009483844 0.0601225 -0.059434745

bias f4 [64]
000000 a7 c0 c4 3d 6d 8c 51 3e 9e 42 34 bd 04 85 cd 3c
       0.09607058 0.20463724 -0.044008844 0.02508784
000010 1a c8 02 bc 2f 4c 26 3e 12 d5 54 3e 71 e8 c3 bd
       -0.007982278 0.16239999 0.20784405 -0.09565819
000020 b0 78 52 3b 13 85 08 bd 36 f7 e4 3d c6 52 42 3d
       0.0032115392 -0.033330034 0.11179964 0.04744222
000030 9e 32 e7 3b a9 6a 2e bc ef 85 9f 3d 55 7a 05 3d
       0.0070555946 -0.010645547 0.07789218 0.032587368
000040 2b 83 f4 3c 7d bf 45 bd de 5e 14 3e b7 fd 7c 3d
       0.029847702 -0.04827832 0.14489314 0.0617654
000050 55 dc c6 bc 27 41 fc bd ce 2d fc bc 68 ea 07 bd
       -0.024274984 -0.12317114 -0.03078356 -0.03318253
000060 63 88 09 bd bf b7 a3 3d b6 b6 11 3d 6e 89 87 3d
       -0.033577334 0.07994031 0.035574637 0.066180095
000070 f4 25 03 3e 0a 30 6b 3d 0b 81 0c 3e 62 84 54 3d
       0.12807447 0.05741886 0.13721101 0.051884063
000080 90 53 c3 3b 75 b2 a3 3d e5 10 aa 3c 58 c0 ca 3d
       0.005960889 0.07993022 0.020760009 0.09899968
000090 5d c8 e0 3c 17 6b 24 3e d2 99 c8 bd e0 f3 83 3c
       0.02743929 0.16056477 -0.09794964 0.0161075
0000a0 c5 66 e7 bd b1 8f 14 3d cc 5a 7f bd d6 a1 c2 bd
       -0.112988986 0.036269847 -0.06234245 -0.09503524
0000b0 bb e3 1c 3d dd 1b 01 3e 01 a5 40 3e 0c 42 94 3d
       0.03830312 0.12608285 0.18812944 0.0723916
0000c0 a3 9c a4 bd 47 3f f0 3d 56 fc 23 bd 40 85 07 3d
       -0.080376886 0.11730819 -0.04003557 0.03308606
0000d0 73 a8 ec 3d 6d f1 ef bd 2d 2c 0c 3e be 4e 55 3d
       0.11555567 -0.1171597 0.13688727 0.052077048
0000e0 8a d1 4c bd b2 81 b4 3d 56 37 0b be 8c 87 bf bd
       -0.05000452 0.088138 -0.13595328 -0.093520254
0000f0 ed 1b 81 bd ed 36 f3 bc c6 9f fa bd 88 c7 db 3d
       -0.063041545 -0.029689277 -0.122375056 0.10731417
