mlartifacts/554351476986166068/cc9897ac9d56474cbe1f26c30120c1ad/artifacts/models/Model_dim64_layers5_experiment/r2_score0.36596334479601894_run17/data/model.pth (torch, 294728 bytes, 13 tensors)

weight f4 [64, 801]
000000 39 0f be bd 1a c4 89 bd 02 6d bf 3d 9f ea a0 bd
       -0.09280247 -0.067268565 0.093469635 -0.078572504
000010 fc e0 bd bd a0 7b d4 bd 7e 2b 8a 3c a4 e4 aa bd
       -0.09271428 -0.10375142 0.016866442 -0.08344391
000020 1d b3 cc 3b ba 9c 01 be 91 81 ce bd bb 45 93 3c
       0.006246938 -0.12657443 -0.100833066 0.017977586
000030 09 02 fb bd e4 a5 d8 3d 80 73 f9 bd a8 37 bd bd
       -0.122562476 0.10578516 -0.12180233 -0.09239131
000040 54 44 89 bd cf 80 93 bd 93 63 b5 bd b9 0d 01 3e
       -0.06702486 -0.07202303 -0.08856883 0.12602891
000050 bc c0 e6 bd 99 c7 db bd 1b 20 1a 3c 4c 5e b6 3c
       -0.1126723 -0.107314296 0.009407069 0.022261761
000060 b2 b3 33 3b 8a ad 9b bd 43 0f 8f bd b6 43 ce bd
       0.002742034 -0.07601459 -0.06985333 -0.100715086
000070 a9 f5 09 be 18 57 cc bd 53 87 ae bd fa 34 c8 bd
       -0.13472618 -0.09977549 -0.08521905 -0.097757295
000080 5a 9d 9e bd be 77 95 bd 99 df a3 bd 8d fa 09 be
       -0.07744856 -0.0729823 -0.08001632 -0.13474484
000090 fd 34 bb 3d 6f 8c e0 bd 60 be dc bd 44 6f d7 bd
       0.09140966 -0.109642856 -0.10778499 -0.10519269
0000a0 4c 2d 67 3d 1d 07 ea bd 30 89 a9 bd 7b 1e fc 3d
       0.056439683 -0.11427138 -0.082781196 0.12310501
0000b0 6e b8 95 bd 92 db b8 bd 9b 3a a4 bd c2 86 fd bd
       -0.07310568 -0.09026255 -0.080189906 -0.12379219
0000c0 af 38 fb 3d 9b 71 d0 3d 35 63 ec bd 30 c1 fe 3d
       0.12266671 0.101779185 -0.1154236 0.12439191
0000d0 1d e4 ff bd 92 68 f4 3d 33 bf 9f bd 07 61 c2 3d
       -0.12494681 0.11934008 -0.0780014 0.09491163
0000e0 41 bc b9 3d 0a 9d ce 3d 2a f1 c4 bd de 6e b1 bd
       0.0906911 0.100885466 -0.09616311 -0.08663724
0000f0 09 9a 05 be 3c 4c 06 be a3 7f df 3d cf d0 83 bd
       -0.13047041 -0.13115019 0.10913017 -0.064363115
000100 d6 6f f9 3d 53 37 bf bd 5d 83 e1 3d ab 98 b6 bd
       0.12179534 -0.09336724 0.11011384 -0.08915838
000110 66 b9 b3 bd 78 4f d6 bd 7d 3e 02 be 63 a3 91 3d
       -0.08775596 -0.10464376 -0.1271915 0.07111242
000120 be 86 84 3d d5 b9 f7 3d be fa d2 3d 42 9e d5 bd
       0.064710125 0.120959915 0.103017315 -0.10430576
000130 ee 5f 97 bd 65 47 f9 bd ec e8 ef bd c2 60 7f 3d
       -0.07391344 -0.121718206 -0.11714348 0.062348135
000140 9a 48 ca bd 0d 43 b4 bd 1b ec 97 3d e3 94 a0 3d
       -0.09877129 -0.088018514 0.074180804 0.07840898
000150 2c b9 d1 3d ec 24 c9 3d 58 fd 8b bd 74 5b a1 3d
       0.10240397 0.098214954 -0.06835431 0.078787714
000160 f3 5e c0 3d 18 2d dc bd e4 77 bc 3d 66 f6 de bd
       0.0939311 -0.107507885 0.09202555 -0.108868405
000170 20 53 ad bd 1c 42 b9 3d 54 5e 04 be 0c 17 d8 3d
       -0.084631205 0.090458125 -0.12926608 0.10551271
000180 30 d2 ca 3d aa 17 de bd ce 94 68 3d 54 b1 06 be
       0.09903371 -0.10844357 0.056782536 -0.13153583
000190 51 67 c3 bd fe d0 99 3d 1c 8e ca 3d 09 6e eb bd
       -0.095411904 0.07510565 0.098903865 -0.11495597
0001a0 a8 20 08 3e 05 c9 89 bd fe d0 fc 3d 11 ba e1 bd
       0.13293707 -0.067277946 0.123445496 -0.110218175
0001b0 ee 4e ff bd 07 62 c2 bd 3f 5f ac 3d 7d 8c 89 bd
       -0.124662265 -0.094913535 0.08416604 -0.06716249
0001c0 f5 85 e4 bd 32 56 e1 bd f0 3d 9f bd a9 59 90 bd
       -0.11158363 -0.110027686 -0.077754855 -0.07048351
0001d0 3a 28 74 bd 24 3d df bd 29 42 0a 3e f7 b5 96 bd
       -0.059608676 -0.109003335 0.135018 -0.07358926
0001e0 d9 f6 05 be b6 13 ba bd 3e 2d 86 3d 95 6d 96 3d
       -0.13082446 -0.09085791 0.06551598 0.0734512
0001f0 2a de d8 3d a2 cc 06 3e d6 98 c5 bd b0 4b f6 bd
       0.105892494 0.13163999 -0.09648292 -0.12026155
000200 9b 0c b4 bd 7a 3c e6 3d f7 f9 97 3d 3f f2 80 3d
       -0.08791467 0.11242004 0.07420724 0.06296205
000210 a5 68 cb bd 37 40 f8 3d 30 c6 89 bd b9 e0 a2 bd
       -0.09932069 0.12121623 -0.067272544 -0.07953019
000220 ee f5 39 bd c9 b9 b4 bd 28 c3 bb bd 82 bc b4 3d
       -0.045400552 -0.08824498 -0.091680825 0.088250175
000230 d2 19 f4 3d f9 9d 03 be 70 e6 ef bd 50 95 d4 3d
       0.11918987 -0.1285323 -0.11713874 0.103800416
000240 98 a4 cc bd c0 5e c4 bd d1 87 95 3d 6b 1f f6 3d
       -0.09992331 -0.09588385 0.073012955 0.12017711
000250 32 62 01 3e 65 5b 09 be ec d2 c5 bd 67 ea ad 3d
       0.12635115 -0.1341377 -0.09659371 0.08491974
000260 12 61 cd bd ca 23 e6 3d fc bc b2 bd 0c 5e a9 3d
       -0.1002828 0.11237295 -0.08727452 0.08269891
000270 80 f0 fa 3d 4e c0 fe bd 14 ed fb bd fa 06 85 3d
       0.12252903 -0.12439023 -0.123010784 0.06495471
000280 57 9a d7 3d a9 8e bb 3d a9 0b a4 bd 32 67 85 3d
       0.10527485 0.0915807 -0.080100365 0.065138236
000290 15 30 c2 3d 6a 70 00 be b9 d8 09 be e0 6d 07 be
       0.09481827 -0.12542883 -0.1346158 -0.13225508
0002a0 6c c1 96 3d de 44 eb 3d cc 2d 9e 3d 7a 22 e3 bd
       0.07361111 0.11487745 0.07723579 -0.1109056
0002b0 40 9b ff bd 50 dd da 3d a5 9c 87 3d 98 fa ad bd
       -0.124807835 0.10686743 0.066216744 -0.084950626
0002c0 de 91 9e bd 70 c8 f8 bd 6a 85 af bd 51 4e b7 3d
       -0.07742666 -0.121476054 -0.085703686 0.089504845
0002d0 f6 7f b8 3d d1 68 07 be a8 01 b0 bd 39 ce ee bd
       0.090087816 -0.13223578 -0.08594066 -0.116604276
0002e0 10 26 a9 3d f9 67 fe bd e7 cf c7 bd c2 7d c0 bd
       0.08259213 -0.12422175 -0.09756451 -0.093989864
0002f0 9f a2 ef 3d 62 3f a3 bd 60 05 01 be 7c 4a 94 3d
       0.117009394 -0.07971074 -0.12599707 0.07240769
000300 b4 13 f9 bd 3e 3c b3 bd 6e d5 d1 bd 0a 27 ac bd
       -0.12161961 -0.08751725 -0.102457866 -0.084058836
000310 77 0b a8 3d a1 d3 f0 3d 97 c6 f1 bd 6a 9f 04 be
       0.08205312 0.11759115 -0.11805456 -0.12951437
000320 26 c2 a8 bd 06 69 f5 bd c8 e5 a5 bd 75 58 bb 3d
       -0.08240156 -0.11982922 -0.08100468 0.09147731
000330 e8 b5 00 be ed 6e ff 3d 99 1d 08 be ba a5 b9 3d
       -0.12569392 0.12472329 -0.1329254 0.09064813
000340 b6 fc a4 3d 61 8f c2 3d c8 1e be bd 7a ca 9d bd
       0.08056013 0.095000036 -0.09283215 -0.07704635
000350 2d 01 97 bd 45 c0 00 3e 47 23 9a bd f0 60 07 3e
       -0.07373271 0.12573345 -0.0752626 0.13220572
000360 2c 2c fc bd 4b 85 d2 bd 5e 3c 86 bd 90 d7 a6 bd
       -0.123131126 -0.1027933 -0.06554483 -0.08146584
000370 ab ad 07 be fb 59 ec bd 88 0c 45 bd 07 86 ed 3d
       -0.13249843 -0.115406 -0.048107654 0.11597829
000380 80 a6 e8 3d a1 fa b7 bd ea 29 df bd 44 be 03 be
       0.11359882 -0.089833505 -0.10896666 -0.1286555
000390 e4 23 b5 3d 5b 10 84 3d a4 0c eb bd 9e 6c e6 bd
       0.08844736 0.06448432 -0.114770204 -0.11251186
0003a0 2d 9f c0 3d 5f 96 d7 bd 00 65 06 3e 40 44 b5 bd
       0.0940536 -0.10526728 0.13124466 -0.08850908
0003b0 4b 46 b0 3d 22 e8 e4 bd 90 a5 f1 3d 8c b7 d1 bd
       0.08607157 -0.11177088 0.11799157 -0.10240087
0003c0 f7 db 03 3e d6 31 eb bd 2d 74 ad bd 6d ba f1 3d
       0.12876879 -0.11484115 -0.084694244 0.11803136
0003d0 aa db 03 be 3f e2 ae 3d d8 d5 d3 bd 40 3b 8b 3d
       -0.12876764 0.08539247 -0.10343522 0.067984104
0003e0 3f 62 9e bd 95 5a a4 3d 8c b7 f5 3d a9 9a e3 bd
       -0.07733583 0.0802509 0.119978994 -0.111134835
0003f0 d0 71 86 3d 96 0d a9 3d ef 16 c6 3d 81 24 95 3d
       0.06564677 0.082545444 0.09672343 0.07282353

bias f4 [64]
000000 80 58 f5 bd 15 24 c1 bd 52 34 84 bd 7f 27 f4 bd
       -0.11979771 -0.0943071 -0.06455292 -0.11921596
000010 0d 48 e6 be e5 69 ee bd 7e 7b 33 be a3 ee e8 bd
       -0.44976845 -0.116412915 -0.17527577 -0.11373641
000020 08 39 b7 3e 2f e3 63 be 35 39 23 3f 35 09 a0 bd
       0.357857 -0.22254632 0.63759166 -0.07814256
000030 f5 df e1 bd e4 e7 f0 bd 18 b7 83 be 1c 1b cd bd
       -0.110290445 -0.117629796 -0.25725627 -0.10014936
000040 20 75 b1 bd ef bd 89 3c b6 cc ae bd 58 49 95 bd
       -0.08664918 0.0168142 -0.08535139 -0.0728938
000050 77 5d d0 bd 02 31 8f be 63 00 cb bd f9 7d 9d bd
       -0.10174077 -0.27967077 -0.09912183 -0.07690043
000060 48 7d b7 3e 48 50 b5 bd 91 03 d1 bd 34 69 07 be
       0.3583777 -0.08853203 -0.10205758 -0.13223726
000070 c3 02 bc bd 0e 17 58 bd c0 d9 de bd 21 af 91 bd
       -0.09180214 -0.05275636 -0.10881376 -0.07113481
000080 a8 37 c3 bd 02 46 e1 3d 72 2e ca bd c9 d0 f7 bd
       -0.095321 0.10999681 -0.0987214 -0.121003695
000090 1c 28 bc bd f3 5c 2d be 9e 03 30 bd 5d 22 9e bd
       -0.09187338 -0.16929989 -0.0429722 -0.07721398
0000a0 67 36 0a be af a4 5d be ab ca b3 be 95 7a 0b be
       -0.13497315 -0.21644853 -0.3511556 -0.1362098
0000b0 0a 05 df bc 32 61 23 be 23 c6 b5 bd f3 24 e3 bd
       -0.027224082 -0.15955046 -0.08875682 -0.11091032
0000c0 4f 21 c7 bd 2e af c2 bd 3d 33 d8 bd 5d f7 d4 bd
       -0.0972315 -0.09506069 -0.10556648 -0.10398743
0000d0 5f cf 5d be f9 36 19 be a0 c8 97 3a cd f3 cf bd
       -0.21661137 -0.14962377 0.0011580177 -0.10153923
0000e0 d2 22 bc bd 8f 78 f6 bd ac 0a 1b be b3 cb 85 bd
       -0.09186329 -0.120347135 -0.1514079 -0.06532993
0000f0 2f 45 0a be 75 d4 93 3e 7a 70 87 bd 2d ef dd bd
       -0.13502954 0.2887303 -0.0661325 -0.10836635

weight f4 [64, 64]
000000 ba c0 92 bb 7f 83 f5 bd 95 00 1c 3e e2 20 9a be
       -0.004478541 -0.119879715 0.15234597 -0.30103213
000010 03 a9 94 bf 08 45 3f be a6 82 8b 3e 3c 24 4c bf
       -1.1614078 -0.18678677 0.27248114 -0.7974279
000020 f3 1f 89 be 03 cb 02 bf f3 63 ad 3e ea 4c 70 be
       -0.26782188 -0.5109102 0.33865318 -0.2346684
000030 1e e2 dc bd 2b 5f c6 3c ec b9 21 3e 05 59 e4 bc
       -0.10785316 0.024215301 0.1579358 -0.02787448
000040 e1 d9 65 be 50 65 dd 3d ae f1 ae bd 00 9c 94 b9
       -0.22446395 0.108103395 -0.085421905 -0.0002834499
000050 ed 81 a6 bd 0a 0b cd 3e ff 7c 52 be b4 9d 57 bd
       -0.0813025 0.40047485 -0.20555495 -0.05264063
000060 76 82 e6 3f f6 59 32 be 3c 90 db bd c4 ca 96 3c
       1.8008564 -0.1741713 -0.1072087 0.018407233
000070 a3 95 65 bd 6e 18 d2 bd 38 5d 21 be 4f 8a 04 be
       -0.056050908 -0.10258566 -0.15758216 -0.12943386
000080 31 d8 74 bd 06 f1 68 bf 32 3f a2 bd 62 b4 69 bd
       -0.05977649 -0.9099277 -0.0792221 -0.057056792
000090 2d 5b 2d be 85 07 94 bd 54 51 52 bd d5 ed 7b 3c
       -0.16929312 -0.07227997 -0.05134709 0.015376528
0000a0 6d 60 5f be 84 c9 7b be 0a 0b 58 c0 87 e3 2b be
       -0.21814127 -0.24588591 -3.3756738 -0.16786014
0000b0 cc b6 f4 bd 61 9f 05 bf 06 c1 c9 be bf 87 39 be
       -0.11948928 -0.5219632 -0.39405078 -0.1811819
0000c0 0e 06 a6 3c 9d 6a 61 3c 65 09 f8 bd 8b 3c 0c be
       0.020266559 0.013758329 -0.12111167 -0.1369497
0000d0 ea 40 40 be df 29 b7 be 36 25 01 3d a4 6d 88 3d
       -0.18774763 -0.35774133 0.031529628 0.06661537
0000e0 a1 d6 a1 be ee 1c 0a be d7 8f 27 be 8c 1b 8b bd
       -0.3160906 -0.13487598 -0.16363464 -0.067923635
0000f0 da 42 9d bd ce d4 05 40 b9 ca c6 bc 42 8c f6 bc
       -0.076787665 2.0911136 -0.024266588 -0.030096177
000100 f9 70 0d 3e f4 82 c7 3d 20 ef ca bd cf 6e 20 bc
       0.13812627 0.09741774 -0.09908891 -0.009792044
000110 8a 8b d2 3d 6c b6 98 3c 65 48 6f be 91 c8 c1 3d
       0.10280521 0.018641673 -0.2336746 0.09462083
000120 57 24 42 bf 97 ee 40 bd e5 4e b1 bd 8c 57 2f bc
       -0.758367 -0.047102537 -0.08657626 -0.010702025
000130 8c 10 61 3d 9f db 3d 3e f4 4a 93 3d 5b 71 31 3e
       0.05494742 0.1854081 0.071920305 0.17328398
000140 69 0a 60 3d 5c 6d 0b bd 9c e6 2c 3e a4 2f 31 3d
       0.054697428 -0.03403984 0.16884845 0.043258324
000150 de e8 29 3d 01 0d 27 3e 2e ce a0 3d 85 78 9b 3d
       0.041481845 0.16313554 0.07851826 0.07591347
000160 3f 79 78 3a da 8c ca 3c 4e 7d 9c 3d 5a 2d 2a 3d
       0.00094785163 0.024725366 0.076410875 0.041547157
000170 63 95 65 3c b2 56 03 bd 14 0d 01 3e 54 5e 34 3d
       0.014012667 -0.0320651 0.12602645 0.04403527
000180 eb 97 3b 3e bc 33 29 bc 5b fa 8f bc 14 a3 15 3d
       0.18319671 -0.010327276 -0.017575433 0.036532477
000190 1c 43 14 3e ee a4 45 3d 20 54 4a bd 6c 8b 5d 3e
       0.14478725 0.048252992 -0.049396634 0.21635216
0001a0 73 41 0e 3d 73 1c 20 3e bb 63 85 be 44 ab c3 bd
       0.034730386 0.15635853 -0.2605265 -0.09554151
0001b0 86 ac e3 bd d6 c0 ac bd 51 32 39 bd 26 5a 47 3e
       -0.111168906 -0.08435218 -0.045214 0.19467983
0001c0 e5 39 65 3e a5 8a 56 3e 41 7a ce 3d e4 bb 72 3d
       0.22385366 0.20951326 0.10081912 0.059261218
0001d0 b0 fd dd bc 4d f3 32 3e 1f 04 12 be b0 b1 05 3d
       -0.027098507 0.17475624 -0.14259385 0.03264016
0001e0 9d 54 97 3d 02 3c 5e 3d 3a 8c 85 3d 67 3f 8c bc
       0.073891856 0.054256447 0.06520887 -0.017120076
0001f0 c6 53 74 3d f3 9d 11 bf a3 7d ee ba 73 57 32 3e
       0.059650205 -0.56881636 -0.0018195402 0.17416172
000200 50 b2 07 bd 4c 37 10 3d ec 61 83 bd 79 58 ba bd
       -0.033129036 0.035208985 -0.064151615 -0.09098906
000210 73 0f a7 bc ec 87 44 3d 9f 25 0a be 0c 0d db bd
       -0.020393109 0.047981188 -0.13490914 -0.10695848
000220 d4 39 d8 bd 82 54 65 be 33 59 7e 3e ce 80 6a be
       -0.10557905 -0.22395518 0.24838714 -0.22900698
000230 d8 ca 09 3d 20 c0 32 bc 00 57 42 be a2 2d cf 3d
       0.033640712 -0.010910064 -0.189785 0.10116126
000240 32 1b 8b 3d ca 6d ad 3d e8 f0 95 bd 98 a9 00 bd
       0.067922965 0.08468206 -0.0732134 -0.031411737
000250 e0 8c 33 bd 50 21 c5 3d e0 6d 7b 3c 72 be 98 bd
       -0.04383552 0.096254945 0.01534602 -0.074581996
000260 30 0e 0e bf a8 30 d1 bd 2e 4f fe bd 70 30 52 3d
       -0.554904 -0.102143586 -0.12417446 0.051315725
000270 98 8e 8c 3d fe 50 a1 3d 4a 53 ab bd d0 31 00 bd
       0.06863135 0.07876776 -0.083654955 -0.031297505
000280 a0 f1 c0 3d cf 11 d2 be 68 49 95 3c 90 24 9c bc
       0.09421086 -0.41029212 0.01822348 -0.019060403
000290 4c c3 a8 bd 8b 9c 3f be 02 51 94 bd a8 28 b5 bc
       -0.08240375 -0.1871206 -0.072420135 -0.022114113
0002a0 e4 83 f6 bd 99 a6 ad bc d5 bc 15 3d bc df 0c be
       -0.12036875 -0.021197604 0.036557037 -0.13757223
0002b0 76 d6 e5 3d 66 87 1d be 60 4f 51 bc ec 67 12 3d
       0.11222546 -0.15383682 -0.012775272 0.03574364
0002c0 ac 9d f8 bd 18 35 9b bc 72 e2 b7 bd 50 90 1c bd
       -0.121394485 -0.018946216 -0.08978738 -0.038223565
0002d0 a2 4f b2 3d bb a6 58 3c 70 c5 b9 bd e8 3d 8c 3c
       0.08706595 0.013223345 -0.09070861 0.017119363
0002e0 76 ae 85 bd 98 e6 cf bd 12 ef 2e be 8c 49 a0 bd
       -0.065274164 -0.10151404 -0.17083386 -0.07826528
0002f0 be 7e 8d bd 44 bd 1f c0 1c ec 97 3d a0 1b b7 3d
       -0.0690894 -2.4959269 0.07418081 0.08940816
000300 de b6 f4 bb 58 f7 6a bd cc a8 ec 3c 40 73 60 3d
       -0.0074680885 -0.05736479 0.028889082 0.05479741
000310 db ef db bd ba e9 9c bd 76 24 e8 3c a9 40 98 bc
       -0.10739108 -0.07661767 0.028337698 -0.01858552
000320 e3 52 e6 be 53 6a 31 bd ab 70 8e be 51 be 9e bd
       -0.44985113 -0.04331429 -0.27820334 -0.07751144
000330 c4 b9 a3 bd c8 66 01 3e 96 da e1 bb b0 86 42 be
       -0.07994416 0.12636864 -0.0068925126 -0.18996692
000340 0b d3 a8 3d f8 70 8f bc b6 1e 02 3e 54 e5 f8 3d
       0.08243378 -0.017509922 0.12707028 0.12153116
000350 98 fc b9 bc a3 a6 62 bd 90 68 c0 3d 6d 95 45 3e
       -0.022703454 -0.0553347 0.09394944 0.19295283
000360 59 8c 3e be 1c 36 34 3d 71 db 00 be 07 26 ac 3d
       -0.18608226 0.043996915 -0.1258371 0.08405691
000370 c9 3f 10 3d e8 75 94 3d 6c ef b6 3d 5b 73 58 3e
       0.03521708 0.07249051 0.08932385 0.21137755
000380 4c 81 40 3e bd 91 f3 bd 2b ea 11 be 52 db 1b 3e
       0.18799323 -0.11893032 -0.14249484 0.15220383
000390 5e d4 c7 3d f0 1d 9e bd 76 5e 28 bd f8 9c 14 bb
       0.09757303 -0.07720554 -0.04110571 -0.0022676568
0003a0 e3 00 d8 3d d8 b1 44 be ac 49 f4 bb 94 5e ea 3c
       0.10547044 -0.19208467 -0.0074550714 0.028609551
0003b0 d0 46 b3 bc 22 d5 b0 bd 0e 10 02 3d 98 0c 0d bd
       -0.021884352 -0.08634402 0.031753592 -0.03443584
0003c0 8e 32 46 3e bd 69 64 3c 04 ee 85 3d 47 1d de bc
       0.19355223 0.013941226 0.065395385 -0.02711357
0003d0 a0 49 98 bd 0e b9 8e bc 88 e6 3f be 80 6e c4 3b
       -0.07435918 -0.017422225 -0.18740284 0.005994618
0003e0 13 1f 12 be 82 c6 ae 3d b1 d7 34 bc d1 5b 63 3e
       -0.14269666 0.08533956 -0.011037753 0.22202994
0003f0 2e 09 1e 3e ce fa b1 ba 45 7a 35 3e 96 5d 93 3c
       0.1543319 -0.0013578774 0.17722423 0.017988961

bias f4 [64]
000000 47 a8 a6 bf b1 1c a2 be e0 20 5d bf 8d 22 47 be
       -1.3020104 -0.31662515 -0.8637829 -0.19446774
000010 5f e6 be be a4 39 2a be b3 0f be 3e 56 b2 7f bf
       -0.37285134 -0.1662355 0.37121353 -0.99881494
000020 b8 83 80 be fe b6 d8 bd 57 6e 85 bd 26 24 cc bd
       -0.25100493 -0.10581778 -0.06515186 -0.09967832
000030 a2 7b 58 be 27 c3 e8 be c9 84 14 be 5b d4 0e 3e
       -0.21140912 -0.4546139 -0.14503779 0.13948195
000040 9a 0d 72 be bc ae 26 bf b0 25 41 be 5b ee e7 bd
       -0.23638001 -0.65110373 -0.18862033 -0.113247596
000050 71 0e ef bd 28 da df 3c cc 94 c8 bc e1 6b a5 bd
       -0.11672676 0.027325705 -0.024485014 -0.08077217
000060 c5 72 93 be 02 44 09 bf e4 40 01 bf 37 b9 76 bc
       -0.287985 -0.53619397 -0.5048964 -0.015058807
000070 a5 df c8 be 21 97 4c be a4 8b a8 bd 94 e1 82 be
       -0.39233127 -0.19979526 -0.08229759 -0.25562727
000080 13 9b c0 3e 74 c3 2a be fd 9c 19 bc 56 c0 8c be
       0.37618312 -0.16676122 -0.009375808 -0.2749049
000090 2c 89 39 be 14 f9 15 be 75 90 9a be 3d 59 40 be
       -0.18118733 -0.14645797 -0.30188337 -0.18784042
0000a0 b0 0a df 3e ef 88 04 be 29 b3 a0 be ba cf 62 be
       0.4356284 -0.12942861 -0.31386688 -0.22149554
0000b0 91 2f 77 be b7 d9 61 bd a7 51 54 be 93 b2 4b be
       -0.24139239 -0.05513927 -0.20734273 -0.1989234
0000c0 6e 95 c0 3d 07 9b 9d be d7 70 81 3e 2b 27 54 be
       0.094035015 -0.3078234 0.25281402 -0.20718066
0000d0 f6 e3 aa be 4d 27 de bc 1e c4 0b bd 12 9f d1 bd
       -0.33377045 -0.02711835 -0.03412258 -0.102354184
0000e0 b3 f7 22 bf cb b0 f5 be 64 4e ef bd 2d 72 18 bf
       -0.6365921 -0.47986445 -0.11684874 -0.5954922
0000f0 87 d9 a6 be 7f 7e 05 3e 35 ce 82 be ad 1e f5 bd
       -0.32587835 0.13036536 -0.25547948 -0.119687416

weight f4 [64, 64]
000000 b7 db 91 be 6b 90 d1 3d 06 3c bf bd 1f 5c 22 3e
       -0.28487942 0.10232624 -0.093376204 0.15855454
000010 7b 29 39 be 76 82 81 bd 94 7c de bb 71 2e 80 3c
       -0.1808223 -0.063237116 -0.006789753 0.015647145
000020 0a 9e b0 bd 1a cc 26 3e fa 5e 57 3d b0 c6 a0 3d
       -0.086238936 0.16288796 0.05258081 0.07850397
000030 44 73 2d 3e 9f b9 8a 3d 64 45 88 3d 6d 15 7e bd
       0.16938502 0.06773686 0.0665386 -0.062032152
000040 58 9f 23 3e 88 aa 10 be ea 6f c3 3d 0f 21 90 be
       0.15978754 -0.14127553 0.0954283 -0.28150222
000050 26 fa 6e be 1b c5 a0 be 82 3e a1 3c a1 c0 1d be
       -0.23337612 -0.3140038 0.019683126 -0.15405513
000060 c3 65 0c 3e 55 5b 22 3b 2b c8 6a 3c 15 e8 98 bd
       0.13710694 0.0024773676 0.01432995 -0.07466141
000070 00 07 c5 bd e7 f9 c6 3c 41 62 4c be e8 ba b2 3c
       -0.09620476 0.024289085 -0.19959356 0.02181764
000080 16 e9 a2 3d f4 8a 91 3d 7a 11 16 bc 0d e3 17 be
       0.07954614 0.07106581 -0.00915944 -0.14832707
000090 f6 4b be 3b 7b 2c c3 bd 12 54 2d be d8 e1 24 3e
       0.005807395 -0.09529968 -0.16926602 0.16101778
0000a0 cf bc f9 bd 32 6a 3f be 08 a2 92 3d c0 55 7c bd
       -0.121942155 -0.18692854 0.07159811 -0.061605215
0000b0 25 04 3d be 97 e5 09 bd 64 b6 a0 bd eb a8 95 be
       -0.18458612 -0.03366622 -0.07847288 -0.29230437
0000c0 a8 f3 21 be 86 64 40 bd 5f 1d 0c bd 5a 5b dc 3c
       -0.15815604 -0.046970867 -0.034207698 0.026899029
0000d0 3c 7c bf bd 09 d0 b1 bb b6 da 7b be 63 9e f1 bc
       -0.09349868 -0.005426411 -0.2459515 -0.02949447
0000e0 36 4a 81 be 70 c3 af bc 67 8f 88 3b 00 fd 84 be
       -0.2525193 -0.021455497 0.0041674855 -0.25974274
0000f0 81 47 a7 3a a7 42 92 3c 14 e7 a4 bd 40 07 0e 3d
       0.0012762399 0.017854048 -0.08051887 0.034674883
000100 1e 39 f0 3d 3a 0e 79 bd 42 da 20 3b 6d 74 44 bd
       0.11729644 -0.060804583 0.0024544154 -0.047962595
000110 21 fb 13 be 6a df 8e bd 81 f1 b1 bd 2b af bc bc
       -0.14451267 -0.069762066 -0.08688641 -0.023032745
000120 61 f0 4e 3d d0 e6 83 bd 4b 2f bb bd 4c f9 9b bd
       0.050522212 -0.06440508 -0.0913988 -0.07615909
000130 bd 06 fb bd 6c de d4 bd e2 f2 bc 3d 70 f0 d2 be
       -0.122571446 -0.10393986 0.09226014 -0.41199064
000140 59 e0 a3 3b ac c9 ae bd 23 96 02 bd 9e 82 64 be
       0.0050011096 -0.085345596 -0.031881463 -0.22315452
000150 30 fb e6 bc f1 6a 58 be e4 d9 d9 bb d7 a3 e6 3d
       -0.028195947 -0.21134545 -0.006648289 0.11261719
000160 d0 19 11 bb 07 a7 15 bd 8e 10 1e bc 7e 67 ea 3d
       -0.002214063 -0.036536243 -0.009647502 0.11445521
000170 cd 3c 11 be 36 70 cb 3c b5 1a d9 3d 7f 65 32 3e
       -0.1418335 0.02483378 0.10600797 0.1742153
000180 1a 29 e4 bd be 62 57 bc 20 c3 9f bb 07 74 a5 3d
       -0.11140652 -0.013146101 -0.0048755556 0.08078771
000190 56 d7 80 be e7 8f 2d be 43 29 b5 3d ac 2d a2 bd
       -0.25164288 -0.16949426 0.08845761 -0.079188675
0001a0 ec 02 33 be 8b 3a 3b bd e6 fd c6 3d 2b 68 ef 3d
       -0.17481583 -0.045710128 0.09716396 0.1168979
0001b0 c8 41 c6 bd 5c 6e 81 3d 84 d6 8f bd 61 40 93 3d
       -0.096805155 0.063198775 -0.070233375 0.07190014
0001c0 44 c8 d6 3c 46 b0 ce bc ec a9 3e be 08 f0 44 3d
       0.026218541 -0.025230538 -0.18619508 0.048080474
0001d0 90 a7 b9 3d 8a 35 6b bd 45 2c 5a be a6 bd 81 bc
       0.09065163 -0.057424106 -0.2130595 -0.015837502
0001e0 3f d3 7a be 91 87 4f be 4a 31 9b 3c c6 f9 07 bd
       -0.24494646 -0.20266558 0.018944401 -0.033197187
0001f0 5c b7 40 bd f2 ec 39 be 53 ea e0 bb ad 2a a0 3d
       -0.047049865 -0.18156794 -0.006863871 0.0782064
000200 11 51 3b bc d3 0a b0 bd b8 98 16 bd bf f2 48 3d
       -0.011432902 -0.085958146 -0.036766738 0.049059626
000210 3a f4 6e be b7 90 b0 3d dc 21 1c bc 1a 03 a6 bc
       -0.23335353 0.08621352 -0.009529557 -0.02026515
000220 62 8b 0b 3d bb 2e 47 bc 0c 04 ab 3d 57 3f 82 bc
       0.034068473 -0.0121571375 0.08350381 -0.015899343
000230 00 e3 fb bd aa 46 4c be 8d c2 23 be df 8a d3 bd
       -0.12299156 -0.19948831 -0.15992184 -0.10329222
000240 d2 8f 95 3d e9 12 64 3d ec 5a e5 bd 4c 02 29 3b
       0.07302822 0.055682097 -0.111989826 0.0025788723
000250 32 43 58 be cf e7 88 be ae 54 0d be c8 d4 7c bd
       -0.21119383 -0.26739356 -0.13801834 -0.06172636
000260 a0 98 95 3d 52 33 b4 3c 7e 18 db bd 63 8c ee bd
       0.073045015 0.021997128 -0.10698031 -0.116478704
000270 99 ec a4 be 50 ec 8d 3d cd 83 c4 bd 39 f2 45 3e
       -0.3221176 0.06929839 -0.095954515 0.19330682
000280 9d 93 1b be be 50 f6 bd 5c 6b eb bd e4 cf af bc
       -0.15193029 -0.12027119 -0.114950866 -0.021461435
000290 2c 5c 7a be 1a cd 8d be ac 03 0f 3e 13 e1 20 be
       -0.24449223 -0.27695543 0.13966244 -0.15710859
0002a0 19 24 28 bd 89 65 ce 3d 80 62 84 3a ef 9f 91 bc
       -0.04105005 0.1007796 0.0010100156 -0.017776458
0002b0 0e 41 5f 3d aa 27 c4 3d 8d 4c ea 3d 11 30 fb 3d
       0.0545054 0.09577878 0.11440382 0.12265027
0002c0 79 a6 f4 bd fb c1 e5 bd 27 19 35 3d 6c c2 69 3d
       -0.11945815 -0.112186395 0.04421344 0.05707018
0002d0 ca ba 90 bd 06 1b 91 3c 51 75 49 be e8 d8 e5 bb
       -0.07066877 0.017713081 -0.19673659 -0.0070143826
0002e0 53 33 77 bd 7e 48 89 be ec 57 35 3d 70 9a a4 bc
       -0.06035168 -0.2681312 0.044273302 -0.020093173
0002f0 b6 5b 9c 3d 2e 21 07 be f3 1a 19 bd b2 d9 60 bc
       0.0763468 -0.13196251 -0.037379216 -0.013723778
000300 15 03 e4 bd 69 6c d5 3b da 11 ab bc d2 a5 85 be
       -0.111334 0.0065131676 -0.020882536 -0.26103073
000310 d0 60 9f be 91 c7 09 be ef d7 8f bb f0 fa 9c bb
       -0.3112855 -0.13455035 -0.004389755 -0.0047906563
000320 98 7c 7c 3d 0e 4c 82 bd 09 16 7c bd 1d 08 95 bd
       0.06164226 -0.063621625 -0.06154445 -0.07276938
000330 d7 00 bc 39 00 21 56 3d 11 04 b4 bd f3 8f 08 3c
       0.0003585878 0.052277565 -0.08789838 0.008335101
000340 ee 3b c0 bd 5e ae 82 bc a2 43 f6 3d 5d 97 2a be
       -0.09386431 -0.015952285 0.12024619 -0.16659303
000350 ca da 11 bd d0 5b 44 be 51 ea f1 3c a7 79 5c be
       -0.035609044 -0.19175649 0.029530676 -0.21530782
000360 89 68 f5 bd bc 37 02 be b4 49 13 bd 36 f4 0a be
       -0.11982829 -0.12716573 -0.03595896 -0.13569722
000370 38 a8 98 3d 86 7e 14 be 22 17 10 bd 67 2c 0b be
       0.0745396 -0.1450139 -0.03517831 -0.13591157
000380 2c 91 39 be a0 f9 a8 bd 28 6c 69 3d cc 77 bb bd
       -0.18121785 -0.08250737 0.05698791 -0.09153709
000390 91 5f 43 ba 08 4b 76 bb f5 8f 24 bd 14 b4 d6 3d
       -0.00074529 -0.0037581343 -0.04017635 0.10483566
0003a0 89 42 b5 bd 07 66 d2 bd 1e 8f d8 bd 34 0f 93 bd
       -0.08850581 -0.102733664 -0.105741724 -0.07180634
0003b0 87 05 c8 bc 12 83 66 bc bc 5a e2 bd 8d 65 e9 3d
       -0.024416698 -0.014069336 -0.110524625 0.113963224
0003c0 35 21 f2 bd 10 67 26 be 6d 7a 0b be 12 a9 28 3e
       -0.1182274 -0.16250253 -0.1362092 0.16470745
0003d0 bf 3e 1c be 2e ca 65 be 85 38 22 3e 56 39 b5 3c
       -0.1525831 -0.22440407 0.15841873 0.022122066
0003e0 15 9e 74 be 68 90 94 3d f7 48 6f 3d 65 40 cd bd
       -0.23888429 0.07254106 0.058419194 -0.10022048
0003f0 79 e6 8d bd 50 59 65 bd 06 74 13 3c 8c 53 32 be
       -0.06928725 -0.05599338 0.00899983 -0.17414683

bias f4 [64]
000000 a3 c8 77 be 8a 70 cc bd 21 3f 2f bd a6 9f 4c be
       -0.2419763 -0.099824026 -0.042784814 -0.19982776
000010 94 84 4e bc 79 e1 b9 bc dc fd 46 bd 39 43 30 be
       -0.012604851 -0.022690522 -0.048581943 -0.17213143
000020 2e 43 54 be 2c a9 43 bf 7a c1 09 be 2a 8e 99 bd
       -0.20728752 -0.7643001 -0.13452712 -0.07497819
000030 a0 6c 22 3e e2 b1 83 3d 34 45 f1 bd 28 59 1d be
       0.1586175 0.06430413 -0.117807776 -0.15366042
000040 26 ed d7 bd ab f1 76 be 96 12 b5 be 48 18 0f be
       -0.10543279 -0.24115627 -0.35365742 -0.13974106
000050 d7 42 fa bd 44 6b 65 be 49 60 73 be 9e 70 01 bd
       -0.1221978 -0.224042 -0.23767199 -0.03160154
000060 88 87 90 be 47 57 38 be cd 80 db bd ef ce ce bd
       -0.28228402 -0.18002044 -0.10717926 -0.10098063
000070 34 ee 0c be 19 81 b8 be 58 2f 53 be be 5e 3f be
       -0.13762742 -0.36035994 -0.20623529 -0.18688485
000080 42 eb 52 be 9b 86 6e be 60 9e 5d be 3e 40 44 be
       -0.20597556 -0.23293535 -0.21642447 -0.19165131
000090 33 8a 17 be 2c e3 88 be c2 1c 8a be 98 4b 9d bd
       -0.14798813 -0.26735818 -0.26975065 -0.07680434
0000a0 3c 47 82 be ae af 23 3e 2c cf af bd 9e 7e b8 bd
       -0.25444973 0.15984985 -0.08584437 -0.09008525
0000b0 8a ba 5c be b6 84 2c be 69 85 a8 be d0 bc 40 be
       -0.21555534 -0.168475 -0.32914284 -0.18822026
0000c0 e4 8c 45 be 00 d0 06 be e3 ad 0d bd 1f 6c 08 b9
       -0.19292027 -0.13165283 -0.03458966 -0.00013010249
0000d0 7e 97 62 be c4 a6 80 be cd b9 9f ba 09 1f 91 be
       -0.22128102 -0.25127232 -0.001218611 -0.2834399
0000e0 32 50 97 bd c5 6b b2 be 8c a2 64 be b4 18 98 be
       -0.07388343 -0.34847847 -0.22327632 -0.29706347
0000f0 f6 95 76 be 17 13 21 be 3e e6 f6 bd 3b e3 c2 be
       -0.24080643 -0.15729938 -0.12055634 -0.38063988

weight f4 [64, 64]
000000 2f f2 e4 3d e7 c1 5a be b5 a7 38 be 55 30 87 3d
       0.11179005 -0.2136303 -0.18032725 0.066010155
000010 b9 66 2f be 08 58 16 3e ff 67 a0 bc 85 de 32 be
       -0.1712903 0.14682019 -0.01958084 -0.17467697
000020 28 36 ea bb 05 e6 17 be 0d 14 4f be ec 5a aa bd
       -0.007147569 -0.14833839 -0.20222493 -0.08318123
000030 64 89 3d bd 34 cb e9 be 3f a2 41 3e 22 bf 32 be
       -0.046273604 -0.45662844 0.18909548 -0.17455724
000040 e1 05 0c bd 19 82 67 3e e4 22 f3 bc fc 58 33 3d
       -0.034185294 0.22608222 -0.029679723 0.043786034
000050 68 9a 24 bd 56 32 da bd 7c ce 37 bd 6e 0c 4e bd
       -0.040186316 -0.10654132 -0.044874653 -0.050304823
000060 64 5a 46 3d be 41 73 3e 5c cc 2c bd e6 04 30 be
       0.048426047 0.23755547 -0.04218708 -0.17189369
000070 c0 7a d3 bc e0 b3 b0 bd 65 19 4a be c0 35 ca 3d
       -0.025815368 -0.086280584 -0.1973625 0.09873533
000080 a3 4c c1 3d 09 87 4e be e4 76 a0 bd c5 ef 58 bd
       0.094384454 -0.201687 -0.078351766 -0.052963037
000090 80 c5 bc 3b 3e 7c ce bd 5c 6e 0f be cf bf c7 be
       0.0057608485 -0.10082291 -0.14006943 -0.39013526
0000a0 49 ff c2 be d6 67 13 3e 44 96 4f 3c c0 7c c2 bd
       -0.38085392 0.14395079 0.012670103 -0.094964504
0000b0 cf 6e 33 3e 80 73 c2 ba 98 4d 33 be 28 46 d7 bb
       0.17522739 -0.0014835447 -0.17510068 -0.0065696426
0000c0 69 05 4e 3d 87 8a 54 3e 83 0b a8 3d 57 6a 1e bd
       0.05029813 0.20755969 0.08205321 -0.038675632
0000d0 80 57 96 3a 29 f2 8a bc 1a 28 38 be 65 ba 16 bc
       0.0011470169 -0.016961174 -0.17984048 -0.009199713
0000e0 70 21 09 bd d1 97 83 3e 94 85 6f bc d7 7c 65 3d
       -0.033479154 0.25701764 -0.01461925 0.05602726
0000f0 5d 1e 40 be 84 92 39 be cd 88 6d 3e 8c 66 06 3d
       -0.18761583 -0.18122298 0.23196717 0.03281264
000100 ae 53 fc bd 7a 65 d1 bd 9a 75 da bd 1f 38 65 bb
       -0.12320648 -0.10224433 -0.10666962 -0.0034976078
000110 ef 24 4e 3d b4 28 5e be 3a 3f 49 be 8c 09 5c be
       0.05032819 -0.21695215 -0.19653025 -0.21488017
000120 3b 5c e3 bc 48 33 be bc dd f8 45 be 90 da 05 bc
       -0.02775394 -0.023217812 -0.19333215 -0.008169785
000130 bb 5e be bb 2d 81 f9 bc 0a 2d 18 be 0c 6b 19 3d
       -0.0058096326 -0.030457104 -0.14860931 0.037455603
000140 83 dc ca bb 9c 7c 0c be e5 1d eb bd fc 05 af bd
       -0.006190838 -0.1371941 -0.11480311 -0.08546063
000150 a4 02 14 3e 64 cb 64 bd 93 b9 a6 3d 72 fa 9b bd
       0.14454132 -0.05585803 0.08140864 -0.07616128
000160 4c 42 a4 3d 11 5d 1a be a0 13 9d bd 45 1f 9f be
       0.080204576 -0.15074565 -0.07669759 -0.31078544
000170 ac e8 a7 bd 12 96 4f be c2 65 9c 3d 14 77 64 bd
       -0.081986755 -0.20272091 0.07636596 -0.055777624
000180 f4 c4 e1 3b ea 0c e4 3d 0d 8f 63 3d 70 03 a4 bc
       0.0068899337 0.11135276 0.055556346 -0.02002117
000190 b8 66 23 bd 43 ea 64 3e 29 97 46 3e b9 6d ca bd
       -0.039892882 0.22354989 0.193936 -0.09884209
0001a0 fe d9 9b bd 75 5a de 3d 99 60 c0 bd 5b 46 4c be
       -0.07609938 0.10857097 -0.093934245 -0.19948713
0001b0 cb 98 a4 be d4 de 4f bd 5a 12 fe bd 21 62 28 bd
       -0.32147822 -0.050749615 -0.12405844 -0.041109208
0001c0 1b f3 95 bd 59 1d 51 be 6e ed cf bd 72 3e 47 be
       -0.07321759 -0.20421351 -0.10152708 -0.19457415
0001d0 2d 50 85 be 6e f8 40 be 36 36 91 3c 3e eb 82 be
       -0.26037732 -0.18844768 0.017726045 -0.255701
0001e0 35 df 13 3d f8 ad ef bd ab 65 bc bc f7 bd c4 bd
       0.03610154 -0.11703104 -0.022997698 -0.096065454
0001f0 62 b3 00 3e cc 90 09 bd 03 e3 f7 bd 37 7d dc ba
       0.12568429 -0.033585355 -0.12103846 -0.0016821985
000200 c8 5d 00 be a1 ea ce be 28 c8 9e be 12 ef e3 bd
       -0.12535775 -0.40413383 -0.31012082 -0.111295834
000210 72 1f a7 3d d1 02 9e 3d b2 fb 0c be 02 c9 44 be
       0.081602946 0.07715381 -0.13767889 -0.19217303
000220 e9 72 3d be 46 4d ff be a7 cf 54 bd cb 33 d0 bc
       -0.18500866 -0.49863642 -0.051955845 -0.025415322
000230 4c af 38 be f9 1e b4 3b 55 02 d7 bc a0 60 a3 be
       -0.1803562 0.0054968563 -0.02624623 -0.31909657
000240 ad 93 80 be 11 e4 46 be f8 91 8c bd e3 29 04 be
       -0.25112668 -0.19422938 -0.06863779 -0.12906604
000250 0d ed 7e bd f8 f9 b2 3d b9 b7 17 be 5d 2b e9 bc
       -0.062237788 0.08739084 -0.14816178 -0.02846306
000260 11 f9 f9 bd ed 75 a8 bd c8 09 22 be 8a 88 8a be
       -0.12205709 -0.082256176 -0.15824044 -0.27057296
000270 2a 2e 34 3d d8 67 70 be 74 76 97 3d 2c 09 05 be
       0.043989338 -0.23477113 0.0739564 -0.1299178
000280 48 4b f1 bd 83 8f 4f 3c d6 95 8a bc 2a 39 99 bd
       -0.11781937 0.012668493 -0.01691715 -0.07481606
000290 af 02 b3 3c c5 99 fd 3d 96 d0 0b be b5 99 6f be
       0.021851866 0.12382845 -0.13653788 -0.23398478
0002a0 7a f6 ad bd 55 dc 19 3d f3 1b 22 be 8c 57 9e be
       -0.08494277 0.03756364 -0.15830974 -0.30926168
0002b0 33 42 e0 bd 53 35 4a 3c a6 23 d1 bd bc 12 8f be
       -0.109501265 0.012341815 -0.102118775 -0.2794398
0002c0 bf 9c fd bd 51 1a 65 3b dd 97 93 3c 11 ba c3 be
       -0.123834126 0.0034958313 0.01801675 -0.38227895
0002d0 1d cf 92 be 34 f7 35 3e dd 49 3f 3e e7 be a0 bb
       -0.2867364 0.17770082 0.1868052 -0.00490557
0002e0 23 97 5c be 55 c3 16 bd 2b a1 05 be 92 fc e3 bd
       -0.21542029 -0.036807377 -0.13049762 -0.11132158
0002f0 7f 2a 5b be d4 82 5e 3e dd e0 26 be c3 3c 0b be
       -0.2140293 0.21729594 -0.16296716 -0.13597398
000300 d5 0a 82 3e 80 92 d9 3b 34 1b 01 3e 6d 84 12 3e
       0.2539889 0.0066397786 0.12608033 0.14308329
000310 2e 34 b9 bd 51 c7 07 3d 97 7e 02 3e f7 cc 19 bd
       -0.090431556 0.033149067 0.12743603 -0.037548985
000320 54 38 71 bd e4 cb f4 bd 88 c2 02 3d c2 98 98 bc
       -0.05889161 -0.119529516 0.0319238 -0.018627528
000330 12 6f 15 bd f8 02 88 be 7e 4f 05 3d 10 f8 38 3e
       -0.036482878 -0.26564765 0.032546513 0.18063378
000340 56 58 83 bd 1e d7 ce bd 54 72 1c be 7c b0 80 bd
       -0.06413333 -0.10099624 -0.15277988 -0.06283662
000350 b4 dc 1a 3d cc d4 3a 3d 28 b8 91 bd e2 eb 92 3d
       0.037808135 0.045613095 -0.07115203 0.07173897
000360 56 62 b0 3d 1e a5 77 bd cd e4 b4 be 33 47 36 be
       0.08612506 -0.060460202 -0.3533081 -0.17800598
000370 34 4f ab bd 90 30 a9 bd 08 fc 6e 3d eb 03 8c bd
       -0.08364716 -0.08261216 0.058345824 -0.06836685
000380 ad 22 c9 3c 28 46 8c bd 50 2b 1c bd 3d 26 b2 bb
       0.024552668 -0.06849319 -0.038127244 -0.0054366873
000390 54 66 3f 3d 88 71 65 bd b0 40 66 3c a7 f8 f4 bd
       0.046728447 -0.056016475 0.014053509 -0.11961489
0003a0 3e 78 8e 3e f9 4d 08 3e ec 58 fd bd 1e ee 30 be
       0.27826113 0.13310994 -0.12370476 -0.17278334
0003b0 50 c8 23 3e 80 93 f6 bb 3f 3c 8b 3e e9 06 f8 3d
       0.15994382 -0.0075249076 0.27194402 0.12110693
0003c0 38 6c 37 3e bb a6 0c 3e bd 81 88 3c da a2 56 bd
       0.17912376 0.13735478 0.016663427 -0.0524014
0003d0 e0 7f 0e 3e f7 87 ea 3d 97 b6 90 be 01 88 a4 be
       0.13915968 0.114517145 -0.28264305 -0.32135013
0003e0 90 a6 1d bd 6d 90 c9 bd ef 92 60 3d b8 aa 79 be
       -0.038488925 -0.09842 0.054827627 -0.2438153
0003f0 58 c5 04 3d 90 29 2b 3e d6 e5 13 3e fa cd 77 bb
       0.032414764 0.16715074 0.14443144 -0.003781198

bias f4 [64]
000000 ad 7c dc bd 60 7b e8 be 78 9e 9a be cb a8 d6 bd
       -0.107659675 -0.45406628 -0.30199027 -0.104814135
000010 5a d2 94 bd ba ae 25 bf 10 59 b4 be 98 17 02 bf
       -0.07266684 -0.64719737 -0.352242 -0.5081725
000020 11 7d a6 bd a1 9f 5a be 6a db 4f be fb 4b f9 bd
       -0.08129323 -0.21349956 -0.20298544 -0.12172695
000030 45 b1 29 3f d4 6b 6e be d3 9f 04 bf c4 11 2f be
       0.66286117 -0.2328332 -0.5180637 -0.17096621
000040 03 f9 ad bd c1 bc dc bd 52 ec f6 bd 9b 74 03 bd
       -0.08494761 -0.107781895 -0.12056793 -0.032093626
000050 3d 70 3f be 33 42 44 be 25 02 bc be 0d f5 13 be
       -0.1869516 -0.19165878 -0.36720386 -0.14448948
000060 ad d1 24 bf 5a 1f e9 be 7b 85 a1 be 20 9c 1e be
       -0.6438244 -0.45531732 -0.3154715 -0.15489244
000070 bb b1 1a be f8 7f cf be 11 b3 89 bc 0a 59 ca be
       -0.15106861 -0.4052732 -0.016809018 -0.39521056
000080 a0 12 b2 bf 96 54 38 be 37 2e 94 be 38 20 1e bf
       -1.3911934 -0.18001017 -0.2894151 -0.6176791
000090 63 4d c0 be ab 0a 84 be d6 d3 4e be b8 5c 28 bf
       -0.3755904 -0.2578939 -0.20197996 -0.6576648
0000a0 37 45 94 be 24 55 62 be 03 59 69 be 4b 95 39 bd
       -0.28959057 -0.22102791 -0.22787862 -0.045308392
0000b0 7b ba f5 bd 1a 8a 37 bf b9 5e 81 bf a5 e1 a2 be
       -0.11998459 -0.716951 -1.0107032 -0.31812778
0000c0 99 2c c7 be 40 1c 34 be a8 85 83 be 35 52 f9 be
       -0.38901213 -0.17588902 -0.2568791 -0.4869553
0000d0 0d 8b 22 be c6 3c 39 3e aa 4d 1a be cb db 70 bc
       -0.15873356 0.1808959 -0.15068689 -0.01470084
0000e0 6d 42 83 be d8 f6 b4 bc 9f df 3d be 9b 05 e3 be
       -0.25636616 -0.02209036 -0.18542336 -0.44340214
0000f0 8e 81 86 be d0 0e 56 be b9 52 41 bf a9 86 cf bf
       -0.26270717 -0.20904088 -0.7551685 -1.621297

weight f4 [64, 64]
000000 bd bd 25 be 7e 77 2a 3d 2c ac 52 bc 2e ef 4d be
       -0.1618566 0.041617863 -0.012858432 -0.20110771
000010 93 30 9a bd 6b 36 1f be 47 db ff bd 59 9a 97 bd
       -0.07528796 -0.15548103 -0.12492996 -0.07402486
000020 1c 8f 58 be 30 a0 c0 be df 22 d5 bd 6f a3 ca be
       -0.21148342 -0.37622213 -0.10407042 -0.39577815
000030 40 89 a3 be 5a 40 df be 36 25 e2 bd 72 cc 74 be
       -0.3194065 -0.43603784 -0.11042254 -0.23906115
000040 81 64 a9 be 8b d1 f3 3c 33 bd 83 be 1d bb 5a 3d
       -0.3308449 0.029763004 -0.25730285 0.0534011
000050 e8 5d 84 bd 61 2b 8c 3d a3 6b ba bc b4 63 65 be
       -0.06463224 0.06844211 -0.022756403 -0.22401315
000060 e1 69 80 be 15 90 46 3d b1 73 7a bd fd 9e 69 be
       -0.2508078 0.04847725 -0.06114549 -0.22814555
000070 78 d9 05 bf d0 c0 96 3c 34 b0 2b be cc a5 ef 3d
       -0.52284956 0.018402487 -0.16766435 0.11701545
000080 8f 64 86 be f4 52 32 bd 17 b3 a0 be 12 f4 09 be
       -0.26248595 -0.04353614 -0.31386635 -0.13472012
000090 6e 4c 23 be 2a 82 ed 3d 15 22 7b bd a3 84 08 bf
       -0.15947124 0.115970924 -0.0613118 -0.5332739
0000a0 b0 3b 77 3c 56 fb c7 bd f8 cd 24 be 75 52 85 be
       0.015089914 -0.097647354 -0.16094196 -0.26039472
0000b0 5a 6f 0c bf 99 0f f4 3b f8 57 ed be 05 ae ba 3d
       -0.5485741 0.0074481484 -0.46356177 0.09115223
0000c0 76 a2 48 be 28 59 af bd d4 0f bb bd bf cb 50 bc
       -0.19593224 -0.08561927 -0.09133878 -0.012743889
0000d0 41 59 4d bd 1a 06 2e 3f 58 d0 bb 3d cd 90 b3 3d
       -0.050133947 0.6797806 0.09170598 0.08767853
0000e0 58 d0 b0 3b cb e5 6b be 1d 98 7c be 27 ef f8 be
       0.0053959303 -0.23036878 -0.24667402 -0.4861996
0000f0 e2 f7 11 3d 84 3b 8d bc b0 6d d8 be b2 12 81 be
       0.03563679 -0.017240293 -0.42271185 -0.25209576
000100 4f 49 0a be a7 64 3d be 4a 76 90 bd 23 ca 45 be
       -0.13504528 -0.18495427 -0.07053812 -0.1931539
000110 2a c1 e9 bc bd 2b 93 bd 44 ce 30 3d cb d2 ec be
       -0.02853449 -0.07186077 0.04316546 -0.46254572
000120 f7 52 03 be e4 80 11 3e b5 37 8d bd b0 8e a7 be
       -0.12824617 0.14209324 -0.06895391 -0.3272605
000130 2a 6a 19 3d 88 7c 89 be d6 ee d4 3e 9d 79 81 be
       0.03745476 -0.26852822 0.41588467 -0.25288096
000140 a3 28 04 3e 90 7b 70 bd b9 ee 61 3e d1 e4 55 bd
       0.12906127 -0.05871159 0.22063722 -0.05222017
000150 94 28 75 bc 0b 21 cd 3d b2 2b f4 bd 71 1e ac bd
       -0.014963288 0.10016068 -0.11922397 -0.08404244
000160 2f 58 89 be cc 32 7c bd 5c 3d 4e be d5 5d 8e 3d
       -0.2682509 -0.06157188 -0.20140594 0.06951491
000170 61 24 dc 3e 81 8b 0d bd 15 43 86 3d 53 69 8f be
       0.42996505 -0.03455687 0.06555764 -0.28010044
000180 b8 7f 14 bf b0 ae 2e bc d8 72 01 bb 57 d8 4b bd
       -0.58007383 -0.010661766 -0.001975229 -0.049766865
000190 71 3f 2a bd 90 25 d9 3d 47 ab 0c bf a7 30 c6 be
       -0.04156441 0.106028676 -0.5494885 -0.38708994
0001a0 a0 c5 bf 3d f8 b0 53 3e d9 17 51 bd 49 60 5d bd
       0.09363866 0.20672977 -0.051048134 -0.054046903
0001b0 5f 68 53 bd 36 91 6e 3c 18 6c 01 bf 46 4f 3c bd
       -0.051613208 0.014560988 -0.5055556 -0.04597404
0001c0 a7 a0 e5 3d 90 a4 d9 3c 58 92 ca 3d 3d c4 f4 3c
       0.11212283 0.026567727 0.09891194 0.02987873
0001d0 52 4c 35 be 7f db 09 bf 2c b3 44 be 34 64 22 3d
       -0.17704895 -0.5385055 -0.19208974 0.039646342
0001e0 86 59 8b bd 3f 3a df be 89 38 14 be 9e 60 ed be
       -0.068041846 -0.43599126 -0.14474691 -0.46362776
0001f0 00 c7 df 3e fc 0e c6 3d 75 85 5d 3d 3d f0 14 bf
       0.43706512 0.09670827 0.054082353 -0.58179075
000200 d8 3b 90 bc fe 17 2b bc 43 2d 07 bb 3f 01 c9 bc
       -0.01760666 -0.010442732 -0.0020626343 -0.024536727
000210 0c ac 11 bd 10 68 0f 3c bc 96 a4 3d 6d ec 44 bd
       -0.035564467 0.008752838 0.08036563 -0.048077036
000220 39 6a 95 bd 3e b2 bb bd f0 01 21 3d 9c b6 85 bd
       -0.07295651 -0.091648564 0.03930849 -0.065289706
000230 51 8b 62 be f6 5b 5e be 78 f4 73 3d 14 94 da bd
       -0.22123457 -0.21714768 0.059559315 -0.10672775
000240 2c e3 04 be 76 64 bb 3d 20 c9 30 bd 0e 4a 12 bc
       -0.12977284 0.09150021 -0.043160558 -0.008928789
000250 ba 8b f5 bd 9a 18 db 3d d8 d5 8e 3c 55 3c 8e bc
       -0.11989541 0.10698052 0.017435953 -0.017362753
000260 7c 45 52 be da ba 03 bd 02 5b d9 3c c3 1a 7a 3c
       -0.20534319 -0.032160617 0.026532654 0.01526517
000270 33 a2 35 be 80 20 f7 ba ac 99 4e 3a 6c 29 03 be
       -0.17737655 -0.001885429 0.0007881175 -0.1280877
000280 e3 94 c6 bd b8 84 aa 3d bc fb 0d bd 5c d3 52 bd
       -0.09696367 0.08326095 -0.0346639 -0.0514711
000290 23 b7 0b be 66 13 10 be 38 60 f9 bd 25 64 41 bc
       -0.1364408 -0.140699 -0.121765554 -0.0118036615
0002a0 7c 0c a2 3d ec 81 2d 3d f2 e2 e1 bd 72 68 82 3d
       0.079125375 0.04236023 -0.110296145 0.063675776
0002b0 ed bb f6 bd a0 d9 fb 3b eb 0e 8e bd 15 89 cd bd
       -0.12047563 0.007685855 -0.06936439 -0.10035912
0002c0 1b 89 6c bd 18 8a b6 bc f6 c4 a6 bd 98 f4 f5 3d
       -0.05774794 -0.022282645 -0.08143036 0.12009543
0002d0 1f ee 94 bd fc 50 ee bc 61 a8 13 be 15 f9 0f be
       -0.072719805 -0.02909135 -0.144197 -0.14059861
0002e0 11 44 57 be 15 02 3e be bd b9 91 be 0e 43 f8 bc
       -0.21022059 -0.18555482 -0.2846202 -0.030305412
0002f0 b3 fd 3e bc f2 35 16 be 10 fc 37 3c fc c4 5a bb
       -0.011657166 -0.14669016 0.01122953 -0.0033381572
000300 8b a2 b1 bd 90 6a 3d 3e 27 e8 43 3d b5 25 1b bc
       -0.08673581 0.18497682 0.04782882 -0.009469439
000310 11 2d 03 be e0 56 58 3d d0 32 7f 3c 52 b1 e0 be
       -0.1281016 0.052817225 0.0155760795 -0.43885285
000320 f8 5b 91 3c 9f ec ad be 57 2c 09 bb be e1 19 be
       0.01774405 -0.3396959 -0.002093097 -0.1502752
000330 34 90 45 be 39 5d 86 be 19 6e 74 3e 17 35 9a 3c
       -0.1929329 -0.26242998 0.23870124 0.018824143
000340 1f 1d dc bd 8a 1a dd bc 33 7b a2 bd 25 e8 f2 bd
       -0.10747742 -0.026990194 -0.07933655 -0.11860684
000350 11 1f 4d 3a b2 05 3b 3c 54 0d 28 be 98 be d2 bc
       0.00078247586 0.011414932 -0.16411334 -0.025725648
000360 c9 d5 b0 be f2 af 3e 3d 6b 30 96 bb 9d 69 0c be
       -0.34538105 0.046554513 -0.0045834086 -0.13712163
000370 67 1f f7 3c de 5e 99 bd a6 4c 04 3e 29 42 7e 3e
       0.030166341 -0.074887976 0.12919864 0.24829926
000380 86 03 2a bd 0f ca 3d bd bd f5 52 be 41 d6 4d bd
       -0.041507266 -0.046335276 -0.20601554 -0.050253157
000390 80 d5 28 be 23 15 57 bd e2 42 19 be 62 ac e8 bd
       -0.16487694 -0.052510392 -0.1496692 -0.113610044
0003a0 2c 14 27 3c be 94 95 3d 1d be 66 bd 9f de 97 be
       0.01019768 0.07303761 -0.05633365 -0.29662034
0003b0 eb a8 7c bd cc 33 9b bd 64 32 66 3c f3 6b bf 3d
       -0.06168453 -0.07578239 0.0140501 0.093467616
0003c0 66 2f 5e be 6b 1a 04 3e 26 e5 da 3d 05 83 04 be
       -0.21697769 0.12900703 0.10688238 -0.12940605
0003d0 a2 2c 92 bd eb f1 7f bd 97 00 93 3c ce 80 47 3e
       -0.07137419 -0.06248657 0.017944617 0.19482729
0003e0 a9 23 a4 bb 91 44 a7 bd 9e 02 ac bc 2c 16 2d be
       -0.005009134 -0.08167375 -0.020997342 -0.16902989
0003f0 72 62 47 be 6e 15 34 3d 63 c5 cf 3a c8 a9 0e be
       -0.19471148 0.04396575 0.0015851673 -0.13931954

bias f4 [64]
000000 4b de 98 be a8 a0 16 be 09 17 1c be 72 ed 90 bb
       -0.29857096 -0.14709723 -0.15243162 -0.004422837
000010 d1 96 63 bd ab 7b 81 be 36 98 a9 be 20 3a 56 bd
       -0.05556375 -0.25289664 -0.3312394 -0.052301526
000020 e6 1f da 3e 4c 8a b8 be 55 4a 73 be d7 84 47 be
       0.42602462 -0.36043012 -0.23758824 -0.19484268
000030 bd a8 d4 3e 09 ff b7 bd f3 33 f6 be 7c 70 50 be
       0.41534987 -0.08984191 -0.4808651 -0.2035541
000040 53 91 24 be 90 e6 94 bd 74 e3 11 be 6b 89 9b be
       -0.16071062 -0.07270539 -0.14246923 -0.3037828
000050 63 15 01 bf 6b d5 15 be b2 02 a2 be 5c 78 ed bd
       -0.5042326 -0.14632194 -0.3164268 -0.11595222
000060 3a 06 94 bd 5b 96 6c 3f 53 65 89 be 86 23 49 be
       -0.0722775 0.92416924 -0.26835117 -0.19642457
000070 20 31 1d bf ef 1b 2c bd f3 b5 39 be 1b 62 ad ba
       -0.61403084 -0.042018827 -0.18135814 -0.001322809
000080 12 be 8a be a8 56 00 be 98 b9 35 be 35 b9 8c bd
       -0.27098137 -0.12533057 -0.1774658 -0.06871263
000090 d1 07 92 bd a9 8b a5 bd c7 87 8b be 44 44 90 be
       -0.07130397 -0.08083279 -0.27252027 -0.28177083
0000a0 85 ef b4 bf d5 e7 5f be dc 5b 33 be ae 80 88 be
       -1.4135596 -0.2186578 -0.1751551 -0.26660675
0000b0 b4 6d 3a be 58 59 01 be d8 c5 ca be 37 39 96 bc
       -0.18205911 -0.12631738 -0.39604068 -0.018337829
0000c0 fe 45 1a be 87 62 44 be 55 8c cd 3e db 1e 31 be
       -0.15065762 -0.1917821 0.40146127 -0.17296927
0000d0 9c 46 d5 bd 04 d3 a1 bd 1f d0 65 be f6 82 18 be
       -0.10413858 -0.07901576 -0.22442673 -0.14893708
0000e0 e1 bd 91 be c1 f7 33 be 93 bf 33 be b2 06 61 bd
       -0.2846518 -0.1757498 -0.17553549 -0.054938026
0000f0 d4 b3 21 be 01 23 9e bd 53 0a b6 be 84 a3 3e be
       -0.15791255 -0.0772152 -0.35554752 -0.18617064
