mlartifacts/554351476986166068/63c8c2736a894ce0ab950221885a9fcb/artifacts/models/Model_dim64_layers5_experiment/r2_score0.3245144581132254_run16/data/model.pth (torch, 294728 bytes, 13 tensors)

weight f4 [64, 801]
00000000: 4050 3d3d a4d7 ca3c 136b 843d a543 3fbd
00000010: 8e69 aabc b9d8 a7bd 0210 903c 9041 44bd
00000020: 260c 873b 0c48 103c 0f6b 94bc 7b4d 3bbc
00000030: 8a4f 493c 5117 723b c981 983c 1f69 8bbc
00000040: 0720 573c e8fd da3c 805c a3bc 16a9 dbbc
00000050: fb7c 5d3c f643 cebc 5cc4 ca3c f4d0 9b3c
00000060: 5912 07bc 1017 f0bc 109b d1bc 04e4 63bd
00000070: 25ed 1fbc 0ab6 d5bc 39c9 9cbd fb64 b2bc
00000080: 0c39 5dbd 889e 68bd 989e cf3b d0f0 c63c
00000090: d6e1 343c d5d0 2fbd 9df9 86bd 633a 18bd
000000a0: 832d cbbb c44d a1bc 3617 443d 66f6 983c
000000b0: 58de 53bd 7618 123c 4bc2 423d de35 79bd
000000c0: 4754 65bd 1a27 493d c371 d9bc 416a a43c
000000d0: 2473 b93a 4b63 30bd 9d04 85bd c0c2 8ebc
000000e0: 631a 16bd bcac 783d 8802 25bd 73b3 7dbd
000000f0: db1d ed3c 53b4 21bd 9f0e 22bd 4c3d c23c
00000100: 2604 f93c 06cb 7ebc afde 263d 69f8 223c
00000110: 8f7a 0ebd dc87 43bc 52be 5b3d 8257 4a3d
00000120: 504b 46ba 1364 aebc f0fa 9c3c 49f8 573d
00000130: 6019 693c 56bc 5cbd 5a35 373c f526 9dbd
00000140: 72a7 f73c 4e5d 8abc 429c 09bd 3d9a 38bd
00000150: 08ce 79bd 791d aa3b 3e33 86bd d10f 1e3d
00000160: 7192 3dbc 92a2 693d f36f eebc c44f c8bc
00000170: 7ab5 2bbd fa89 86bd 3b69 9dbd 5a69 1d3d
00000180: ccf7 833d 8559 023d a659 c73c 230a ee3b
00000190: a10b febc cf87 0c3d 4d7b 853d 6a52 6d3d
000001a0: 9616 283d c6c8 1e3d 71be 543d f73e e83b
000001b0: cebe c8ba 0811 8cbd 9fd1 8d3d d0e9 2d3d
000001c0: 8b5a d2bc ee4a 35bd 44ff 583d 9ed9 233d
000001d0: 8f3b e1bb 4f1e 88bd 7d57 583d 8dd2 503d
000001e0: 37e3 fcbc 5e4d 61bd 122b 683c 3862 483d
000001f0: 58b1 863c 86c9 44bd e685 7cbd e7c2 83bd
00000200: 64fe 82bd bb00 b13c 6deb 293d a9f4 5e3d
00000210: a487 28bd 2746 08bc 7396 babc 2b36 0fbd
00000220: 083d 51bd 63fc a4bd e399 74bd e1e5 16bd
00000230: 47e8 f1bc 29b6 46bd 82ef ea3c 9299 0fbc
00000240: e136 57bd 5084 433d e6d4 d7bc 44ff 7b3d
00000250: c810 403d 8bf5 c4bc 708c b4bc c3f0 11bd
00000260: 7039 adbd 0b21 9cba da41 003d 7d67 883c
00000270: eb76 953d 9c58 a0bd 05bf 54bd d486 a9bc
00000280: cfc9 29bd f176 0dbd 7807 a3bd 4968 03bd
00000290: b580 633d 68f5 44bd 6d85 f73c d5b3 bb3c
000002a0: 9ae8 8bbd e4ba 9cbd 1441 0f3c 2139 26bd
000002b0: e6b5 a93b 0761 753d 1511 e73b 3ae6 09bd
000002c0: eb98 f2bc 2863 aabc 2e51 b6bc f2aa 823c
000002d0: 090c c2bc 59ff cabc 8020 06bd 2393 5cbd
000002e0: d37a 0cbc 7f16 45bd 9e71 a3bc 225a 173d
000002f0: 5bcc 883d adb2 77bd 7589 a2bd aa60 69bd
00000300: 0d32 7fbc 50de ccbc 2f50 ca3c 8331 193d
00000310: 69bf 1b3d ee3e 3bbd c7d3 513d e3ed 80bd
00000320: 2df7 2f3d a00c ddbc e409 5d3d f836 883c
00000330: cc59 8cbd ef84 3fbd e91a ffbb c6d5 ba3c
00000340: 9101 88bd f729 6e3b 9fb4 3ebd 893d 4a3d
00000350: 8243 423d 7f5d 77bc 4255 20bd fcbf d63b
00000360: a5b0 80bd f4c3 923d af0a 85bd a007 833d
00000370: ec4c 273d 46f3 0c3d 516a f33c 1278 b73c
00000380: 48d4 033d df10 18bd ccd2 0dbd feef 90bd
00000390: 48de a0bd faeb 4abd 38ef 033d bde1 49bd
000003a0: 31de 493d 0a5d 27bd 9e59 173d 6987 9bbc
000003b0: dfca 3b3c 8f51 aabd 584c 31bd e25b 0dbc
000003c0: df80 413d cc51 1cbd 7db1 97bc b003 0fbd
000003d0: c434 a53c 2a8f a9bb df2c 8fbd aebb 903d
000003e0: c503 853b f11e d03a 26f6 a53d 71f5 05bd
000003f0: a9fe 733d 1a9b dcbc 5a2f 80bd b20e 293d
0.04621911 0.024761029 0.06465735 -0.04669537 -0.020802286 -0.081956334 0.017585758 -0.047914088
0.0041213213 0.00880624 -0.018117456 -0.011432047 0.01228703 0.0036940167 0.018616574 -0.0170179
0.0131301945 0.0267324 -0.019941568 -0.026814025 0.013518567 -0.02517889 0.024751835 0.019020535
-0.0082441205 -0.029307872 -0.025586635 -0.055637375 -0.0097611295 -0.02608778 -0.07655568 -0.021776667
-0.054009482 -0.056791812 0.0063360445 0.02428475 0.011040172 -0.042923767 -0.06590579 -0.037165057
-0.006200494 -0.019690402 0.0478737 0.01867218 -0.051725715 0.008916965 0.047548573 -0.060842387
-0.055988576 0.049109556 -0.026543504 0.020070197 0.0014148694 -0.043063443 -0.064950205 -0.017426848
-0.036646258 0.060711607 -0.040285617 -0.061938714 0.0289449 -0.03947861 -0.039564725 0.02371087
0.030397486 -0.015551334 0.04073971 0.009946921 -0.03478485 -0.011934247 0.0536483 0.04939986
-0.0007564323 -0.021287953 0.019162625 0.052727018 0.014227241 -0.05389055 0.011182154 -0.07673446
0.030231211 -0.016890194 -0.033596285 -0.045068968 -0.060987502 0.0051915017 -0.065527424 0.038589302
-0.011570559 0.057039805 -0.029106116 -0.024452098 -0.041921116 -0.06569286 -0.07686087 0.03843055
0.06443748 0.031823654 0.02433474 0.007264392 -0.031011404 0.034309205 0.065176584 0.057939924
0.041037165 0.03876569 0.05193943 0.007087584 -0.0015315653 -0.06839186 0.06924748 0.04245931
-0.02567794 -0.04426091 0.052977815 0.040002458 -0.006873555 -0.06646406 0.05281781 0.050982047
-0.030870063 -0.055005424 0.014170425 0.048921794 0.016441986 -0.04804375 -0.061651133 -0.06433659
-0.063961774 0.021606794 0.041484285 0.054432545 -0.041144982 -0.008317507 -0.022776818 -0.034963768
-0.051083595 -0.080559514 -0.05971707 -0.036840323 -0.029529704 -0.048513565 0.02867866 -0.008764641
-0.05254257 0.047733605 -0.026346635 0.061522737 0.046891004 -0.024042865 -0.022039622 -0.03563
-0.08458221 -0.0011911703 0.0313128 0.01665091 0.072980724 -0.07829401 -0.051939983 -0.020694174
-0.041452225 -0.03453726 -0.07960409 -0.032081876 0.055542666 -0.0480856 0.03021499 0.022912899
-0.068314746 -0.07652834 0.008743543 -0.040581826 0.0051791547 0.059906986 0.007051597 -0.033666827
-0.029613933 -0.020799235 -0.022255506 0.015950654 -0.02368738 -0.024779962 -0.03274584 -0.053851258
-0.008574205 -0.048117157 -0.019951638 0.03695119 0.06679603 -0.060473133 -0.07936374 -0.05697695
-0.015575898 -0.02500835 0.024696438 0.037400734 0.03802434 -0.04571431 0.051227357 -0.06295373
0.042960335 -0.02698356 0.05396451 0.016627774 -0.06853065 -0.046757635 -0.0077851904 0.022807013
-0.06640924 0.003634093 -0.046558972 0.04937509 0.04742766 -0.015097975 -0.03914381 0.006553648
-0.06283692 0.07166281 -0.06496178 0.06397939 0.040844843 0.03441169 0.029713782 0.022396121
0.03218487 -0.037125465 -0.03462486 -0.07077025 -0.07854897 -0.04954145 0.03221056 -0.049287546
0.049284164 -0.040860213 0.0369507 -0.018985467 0.011461942 -0.08316337 -0.043285698 -0.008627864
0.04724204 -0.038163945 -0.01851725 -0.034915626 0.020166762 -0.005174537 -0.0699098 0.07067047
0.0040592873 0.0015878362 0.0810359 -0.032704774 0.059569035 -0.026929427 -0.062590316 0.04127378

bias f4 [64]
00000000: f6c8 b4bd 7ac3 acbc 2b0d abbd 7177 24bd
00000010: df23 e23e c429 30be 13c9 6cbd 2aba 8ebd
00000020: a983 083e 53f0 f93e e65f 0ebe ac83 f5bd
00000030: cb47 90bd af59 febc 5428 93bd 643b abbd
00000040: 833a f6bd a262 bf3d 6404 a4be aa1c 49bd
00000050: d79e 98bd 5fad e9bc 0fb9 09bd 581c a5be
00000060: f433 bbbd bbe9 b5bd ee84 54bd 5597 a6bd
00000070: 3736 663d 622d fc3e 2cf3 16bd 5af1 ffbc
00000080: 0eb8 61bd faae 30bd ad13 d1bd ddfe 8cbe
00000090: 8c86 99bd 143d 053f b55b cd3e 6f62 1bbd
000000a0: 7615 9abd ba83 b1bd f6bc 013f bbf4 c73e
000000b0: 583c c53c 993e 68bd 3ca6 4cbd b6da 88bd
000000c0: b3c9 b9bd 5777 66be bd3c 5dbd e49d 73bd
000000d0: 4bcc 03bd 91d9 83bd ee6d cc3e 0498 7bbd
000000e0: d0c9 f53e 407a 98bd 121e ec3e 6d26 f63e
000000f0: 6a06 abbd 0a24 58bd fc5b 2fbc 72f5 273d
-0.08827393 -0.021089304 -0.08352121 -0.04015297 0.44167992 -0.17203432 -0.057808947 -0.06969102
0.13331474 0.48816165 -0.1390377 -0.11988005 -0.070449434 -0.031048624 -0.07185426 -0.08360937
-0.12022879 0.093449846 -0.320346 -0.0490996 -0.07452171 -0.028525053 -0.03362375 -0.32248187
-0.09140769 -0.08882471 -0.051884584 -0.08134333 0.056204047 0.49253374 -0.036853 -0.031243015
-0.05510717 -0.04313562 -0.10208831 -0.27538195 -0.07496366 0.5204632 0.4010903 -0.03793567
-0.075236246 -0.08667703 0.50678957 0.39053902 0.024076626 -0.056700323 -0.04996322 -0.06682341
-0.09071674 -0.22506462 -0.054013003 -0.059476748 -0.03217725 -0.06437982 0.3992762 -0.06142427
0.48005533 -0.07445192 0.46116692 0.48076192 -0.08350833 -0.052768745 -0.010703083 0.04100556

weight f4 [64, 64]
00000000: 4d98 93bc 379f 88bd 6d78 d63c be28 3f3d
00000010: 8cae 38be 7096 39bd 4baa 993c 7fd0 57bd
00000020: 45f1 0b3d 9144 a33d 6752 0cbe 0869 e3bd
00000030: f6c3 bbbc f5ce c7bd 7a3e c3bd 2988 8a3d
00000040: 8dcc 77bd a660 60bd 03e4 80bc 01a8 d03d
00000050: cfbb a6bc 45ad bb3d 9dff 703a 5b31 69be
00000060: 0a63 5cbd d653 a03a 4bc9 9abc e9b4 743d
00000070: 142e 88bd b7e5 1b3d f6b7 053d ebec 183e
00000080: 7c1a a7bd 8592 bf3d 3ed4 ed3b 5154 48bd
00000090: b561 19be 9710 0dbd 7b2a 28bb 5334 e53d
000000a0: 81b2 233d 4772 09bc c780 183e 4567 37be
000000b0: 722d c2bd aed9 8cbd 408e d5bb 7ee5 81bd
000000c0: 62cf d5bd ae91 81be aeea 0d3e 84bd 863c
000000d0: d27a e1bc ccc2 853d d597 70bd e68c 90bc
000000e0: e300 3ebd d820 303e 31f9 a13c 1669 9abd
000000f0: 4d31 d73d 72ea 80bd 9a36 c63d e426 333d
00000100: b99d 9bbd a3ad 91bd 86eb c0bc 31aa c7bc
00000110: 629e 9a3e c32d f03d 1585 4abc 872b f93d
00000120: 118c c63e 7418 e43e cb3e 6dbd 5b56 e9bc
00000130: 084e df39 1c44 f93b 7eca d03d 2687 b2bc
00000140: 7fca 853d 3051 f73e 4b2f b9bd 0f85 e83c
00000150: 2c82 0c3e ce29 23bd 2ab4 173a 85c0 3fbe
00000160: 918d fa3d 739f c53d a364 03be ad61 d63d
00000170: 8529 d2bc b37f 1b3f 956a 5fbd 8b34 123e
00000180: 604b 613d a120 853d 7bcf 243d 0f0e b9bd
00000190: b947 72bc 48ce cd3e 826c ef3e 71e7 133e
000001a0: 6037 f1bc 9957 ae3d 67bc 313f 9320 013e
000001b0: 8cf5 23bd 63d6 b1bc 2204 e7bd f3e0 dcbc
000001c0: 757d 753d a5ea 88bd 66af 6f3d 25d4 b5bd
000001d0: 0fd5 6d3c 6488 fe3b c84f 103f d0db 423d
000001e0: 5309 ba3e d9db 30bd 4915 943e 7ef2 be3e
000001f0: 273e a3bc 167f a53d 0bba 86bd 26bb 053c
00000200: 600b e3bb 1059 b83d 0cfd 37be 0673 e83c
00000210: 330c eb3b 99ba 2c3d 638f b63c 4ebb e53d
00000220: dd4f 0abe 4475 3fbd 25ba 83be 8ae1 b03d
00000230: 9028 f7bd 862f a7bd 448a 763b 4b0c 293b
00000240: b4af 5abc 24ec 48be fd40 5a3e 6e27 eb3c
00000250: 2587 c2bd 1666 6fbc 2433 373d 8a0f 523d
00000260: bb96 90bd 3df0 183d cfcc b4bd 3909 0abe
00000270: 6863 3abe 6938 d4bd 48e7 05be 41b5 4dbd
00000280: 93ac 9ebb d284 2f3d 5569 2a3e d04f f83c
00000290: 0056 1fbc 4747 8bbe ecd8 14bd a818 cabd
000002a0: f331 37be e5c3 c3bd 809e b73c fd18 8abd
000002b0: 2478 db3d de94 e83d a8bc 3fbd b4e4 71bd
000002c0: 76a9 ae3d 63ab 0ebd dbeb 6cbe 0ccb 8ebd
000002d0: cfd7 3ebd 3034 15bd caa5 10bd 005a 0abd
000002e0: d197 0ebe 6080 053d 6a14 7cbe 527c 93be
000002f0: 9b02 edbd 06ef ffbd 6866 c9bd 84f8 aabd
00000300: 96c8 fcbd f077 ac3d 4416 823d 35d0 983d
00000310: 8cbc 08bf 8b25 3ebd 5f59 62bc b072 48bd
00000320: d4af 50bc e6b9 c5be 6e17 35be d169 5fbd
00000330: 4219 cc3d ccbf c93d 89be 153c 9d00 2cbd
00000340: 4ea4 aebc 0569 96be 04cf 46bc 40d6 b93c
00000350: b31a 30bd 7532 8abd fd66 de3d cc16 79be
00000360: d968 c63d 041f 063e 600d c23d 2e92 713d
00000370: 1e07 9cbd a0ab 7fbe 7e7e c63d 7507 1d3e
00000380: 321f 1cbe 2eef 0b3e 3c12 f43d 33e2 49be
00000390: b8a3 d43d c46b 80be 88b0 95be e575 02be
000003a0: 78c7 113c 660e dc3d a626 23be a8f1 d4be
000003b0: 08f5 d8bc 910b e43b 6a16 fdbd c0be 1bbd
000003c0: b8ed 383d ef54 45bd 0486 fe3d d6c3 813d
000003d0: e893 3c3e e780 d43c f6d4 0abd 77e9 f43d
000003e0: bced edbe f87d 43bd b1ec 9ebe d026 82be
000003f0: c64d 393e 90a5 44bd 62b6 78bd bbc0 51be
-0.018016959 -0.06670993 0.02618047 0.046669714 -0.18035334 -0.045309484 0.01875796 -0.05268907
0.03416564 0.079720624 -0.13703309 -0.111040175 -0.02292059 -0.09756271 -0.09533401 0.06764252
-0.06049781 -0.05477967 -0.015733724 0.10188294 -0.020353226 0.09163908 0.0009193363 -0.22772734
-0.05380539 0.0012232016 -0.018894812 0.059742842 -0.06649414 0.03806087 0.032646142 0.14934127
-0.08159348 0.09354118 0.0072579673 -0.048908535 -0.14978679 -0.03443965 -0.0025660086 0.11191621
0.039965156 -0.008389062 0.14892875 -0.17910488 -0.09481324 -0.068774566 -0.0065172017 -0.063426
-0.10439946 -0.25306457 0.13859054 0.01644779 -0.027524386 0.06531295 -0.05873855 -0.01764531
-0.046387564 0.17200029 0.019772144 -0.07539575 0.1050745 -0.06294717 0.09678383 0.04373826
-0.075984426 -0.07113197 -0.023549806 -0.024373146 0.30198961 0.11727478 -0.012360831 0.12166505
0.38778737 0.44549906 -0.057921212 -0.02848356 0.00042592012 0.007606996 0.10194872 -0.02179296
0.06532764 0.4830413 -0.090422235 0.02838376 0.13721532 -0.03983479 0.00057870394 -0.18725784
0.12234033 0.09649553 -0.12831359 0.10467849 -0.025654564 0.6074173 -0.054545004 0.14277856
0.055003524 0.06500364 0.04023693 -0.090358846 -0.014787608 0.40196443 0.46762472 0.14443757
-0.02944535 0.08512802 0.69428104 0.12610082 -0.040029094 -0.021708673 -0.11280085 -0.026962733
0.0599341 -0.0668538 0.058516882 -0.08878354 0.014516129 0.007767724 0.56371737 0.04757291
0.3633524 -0.043178413 0.2892249 0.37294382 -0.019927097 0.0808088 -0.06578454 0.008162295
-0.0069288462 0.09001362 -0.17967623 0.02837516 0.007173085 0.04217014 0.022285169 0.11217366
-0.13507028 -0.046742693 -0.25727955 0.08636768 -0.120682836 -0.08163361 0.0037619034 0.002579468
-0.013347555 -0.1962133 0.21313854 0.028705325 -0.09498433 -0.0146117415 0.044726506 0.05128435
-0.070599996 0.037338484 -0.08828127 -0.1348008 -0.18201983 -0.10362322 -0.13076508 -0.050221685
-0.00484235 0.042851277 0.16641743 0.030311495 -0.009725094 -0.27202818 -0.036339685 -0.09867984
-0.17890148 -0.09558848 0.022414446 -0.067430474 0.107162744 0.11356519 -0.046810776 -0.059056
0.08528416 -0.034831416 -0.23136847 -0.06972322 -0.04659253 -0.036426723 -0.03531436 -0.033777237
-0.13925101 0.03259313 -0.24617162 -0.28805786 -0.115727626 -0.12496762 -0.098339856 -0.08348182
-0.12342946 0.08421314 0.06351903 0.07461587 -0.534127 -0.046422523 -0.013815253 -0.0489375
-0.012737233 -0.38618392 -0.17684719 -0.054544274 0.09965755 0.098510355 0.009139665 -0.041992772
-0.021318581 -0.29377 -0.012134317 0.02268517 -0.042994212 -0.06747905 0.10859487 -0.24325103
0.09687967 0.13097769 0.09475207 0.0589773 -0.07618545 -0.24967813 0.09692095 0.15334876
-0.15246275 0.13665459 0.119175404 -0.19715194 0.103827894 -0.2508222 -0.29236245 -0.12740286
0.008897655 0.10744934 -0.15932712 -0.4159062 -0.026484028 0.0069593866 -0.12357791 -0.03802371
0.04514858 -0.048176702 0.12427905 0.06336181 0.18415797 0.025940372 -0.0338945 0.119585924
-0.4647044 -0.047727555 -0.31039956 -0.25420237 0.18096074 -0.048009455 -0.06072081 -0.20483677

bias f4 [64]
00000000: 36ff 6fbc e5be 123e ff9c adbd a988 68be
00000010: 6277 a1bb 45d1 06bc b18d 0abd 83a3 05be
00000020: c56a 623c 15da e3bd ea1a f1bd fcf5 ffbd
00000030: 4879 2cbd 27d1 96bd 3411 fbbd c3b7 5cbe
00000040: 4ff3 94be 97de 7c3d 6215 87be af45 b23c
00000050: 0e1c babe 27a1 10bd bc40 e2bd fb6c d43e
00000060: f0d1 84be 00d2 b5bc 2a70 a5bd 63b3 13be
00000070: 084f 7d3d b25b d4bd 03c4 4abe 5a81 713d
00000080: 2120 b13a f013 d2be c5b9 57bd 141a 00be
00000090: dac0 42be 380c aabe 85b4 2ebe 2ac7 3dba
000000a0: 76d9 363e 1992 973e 9f38 8fbe c2e3 0b3c
000000b0: 97e0 f9bd ddd6 25be 443a 0bbe d082 d3bc
000000c0: f32b c4bb eaf1 df3c 49ca 37bd 3eb0 d33d
000000d0: af0e 80be 755b 54be 8f33 12be e667 35be
000000e0: 1b80 88bd 17ed fdbb 2253 11be ec0d 02be
000000f0: 42df f6bc bc45 09be 29b2 6cbe 322f a6be
-0.014648249 0.14330633 -0.0847721 -0.22708382 -0.0049275616 -0.008228605 -0.033826534 -0.13050656
0.013819401 -0.1112558 -0.117727116 -0.1249809 -0.04210785 -0.073641114 -0.122591406 -0.21554475
-0.2909188 0.061735716 -0.263835 0.021761743 -0.3634953 -0.035309937 -0.11047503 0.41489395
-0.2594142 -0.022194862 -0.08078034 -0.144239 0.06184295 -0.10369052 -0.19801335 0.05896125
0.0013513603 -0.41030836 -0.052667398 -0.12509948 -0.1901888 -0.33212447 -0.1706105 -0.00072394556
0.17856392 0.2960365 -0.27972886 0.008538188 -0.1220104 -0.16195245 -0.13596445 -0.025819212
-0.0059866845 0.027337033 -0.04487065 0.1033635 -0.25011203 -0.20738013 -0.1427748 -0.17715415
-0.06665059 -0.0077492106 -0.14191869 -0.12700623 -0.030135754 -0.13405508 -0.23114838 -0.32457882

weight f4 [64, 64]
00000000: 898f 08be f92c bfbd 1c1e 04be b079 93bb
00000010: 3db7 35bc dcec 923c 8637 87bd a2a0 00be
00000020: 8088 583d 20f1 b0bd c8ce d9bc da38 30bd
00000030: 724a b3bd eaa3 c7bd fa64 11be 1478 21be
00000040: 81a4 773c dc8b 84bd 5491 c53d 36dc ecbc
00000050: f470 0d3d 399e 14be 0397 8e3c 68c3 06be
00000060: 3884 1fbd 6d76 843a 000f ac3c f84f fabc
00000070: 7529 21be 500c ddbd 28e0 d8bc 1312 003d
00000080: 987d fbbd 86d7 a43d d801 d7bd f0f7 d8bd
00000090: 668c ab3d d64c e4bd 107d c93c 7a59 b9bd
000000a0: f735 36bd 3acc 17be 1277 adbd f412 423d
000000b0: b4e0 773d 4f06 0abe fa20 853c 9781 3dbd
000000c0: d2e2 d9bd 7346 663a 8cec 203d 9d34 a5bd
000000d0: 084e 9c3d bcf5 9f3d 3c4c 0bbb 7631 87bd
000000e0: ef2b e6bd f363 83bd 3c19 783d e59c a3bd
000000f0: e81b e53b 5699 c4bd 04f3 e43d 044b 873d
00000100: a96d 8d3c 5e89 09be a1ef a0bd 38e8 d03d
00000110: 6d33 2c3d f23d 003e 596b 9abb d5fe 3cbe
00000120: f236 0bbe bf5b a8bd 93f1 52bd 1158 063d
00000130: 17a6 00be a988 183e 2d85 553d deca 143e
00000140: 9d1b 823c d034 afbe 6eb3 91bd c593 29be
00000150: 9c78 84bd 61d7 593c fd1f f13d f838 debe
00000160: eace 1fbe 7130 2e3d 98c0 f8bd faf4 1dbe
00000170: 603d 01bd 9e6a 03bd 1a33 84be 5ee8 ac3d
00000180: 6d71 75bd f6b0 cdbd f4c8 9a3d 2332 ccbd
00000190: 408d a2bd 5943 cd3d e0db aa3c 3141 8c3c
000001a0: 9f07 273d 2984 b7bd e8c4 66bd 0fc1 0ebc
000001b0: 807b 37bb 054a 9f3c 0c0b dbbd afd2 b2bc
000001c0: c9b4 b73d a4e5 803d 0c98 163c e3e6 783d
000001d0: a029 ff3b 07fd bdbb 69d3 2c3e aac7 80bd
000001e0: 90b0 843d d9be afbc 2b4a ffbd ab84 abbd
000001f0: d2c7 443d 71da 87bc 3033 dfbc 4aba 8c3d
00000200: 7b8d 96bd 4e21 bdbe e2b3 a73d 4182 4dbd
00000210: 67f6 7ebd fe3a 7cbb e2a1 1b3e df6a 7ebd
00000220: 347b 53be 1269 e73b 5ce0 3abd 5ee9 d0bd
00000230: 0c3c bdbe 9c19 79bd 7f9c 50bd fc6a 2bbe
00000240: 9b01 873a 8e9f 9ebe 654d afbc e0cb 913a
00000250: 1b4f 533e ee29 7f3c 0ab8 91bd a7a7 72be
00000260: 4516 34bd 765c 45be 90f2 e8bd d90f 93be
00000270: cb54 63bd cd98 e2bd 87ec 9d3c bcae 0d3d
00000280: d0f9 aabe d848 37bd dea8 3ebe eafa 87bd
00000290: 1695 05be c0fd 14bd 5427 3a3d 99e7 e73d
000002a0: a236 8dbd 84b5 6dbb 285e 85bc 6a26 07bd
000002b0: d82b 253d 3046 a93c 2b57 7f3c f3f2 51bd
000002c0: 8838 f23c 3270 31be 1746 d63c 0387 e73c
000002d0: f66b cebd 60e3 c8bd 1655 b8bd 057e 113d
000002e0: c3c0 03be 829e 703d 47bf 9dbe 68eb 91be
000002f0: 3430 23be f689 7dbd 985f 02bd fcc3 213d
00000300: 2504 12be fd16 2cbe d128 10be 285d d0bd
00000310: 70e6 16bd f008 26bd 7c44 e03d dc32 913d
00000320: e1ba ffbc 30f4 e5bd cccb 32bd f858 85bd
00000330: 4bd3 efbd d440 663d b0d0 b13c 0022 1bba
00000340: 2aed 8ebd 6875 08bd 5c71 81bc ac82 c2bd
00000350: f182 06be f06a 613c 874c 0dbe e97d 52bd
00000360: 81f3 13be 1c85 fabd 6a88 1fbe 6422 3cbd
00000370: 5d35 09be 9ca6 d5bd 8eec 1cbe f0f8 2c3d
00000380: 7786 34be 3022 833d 15e3 52bc 5e21 dfbd
00000390: c4bf adbd ceda b43d 6049 2cbd e760 64bd
000003a0: 8695 f5bd 75c6 02be 80ff 103c 0806 f9bc
000003b0: b297 c8bd a49c 403d e82b 2abe e43f 64bd
000003c0: 6ced 9c3d e462 debd aaaa ca3d 1a4a d53d
000003d0: f0ef 79bd 2855 883d c017 05bc 18da dbbc
000003e0: c069 3c3d 90a7 0ebc 8eae 8cbc 0f61 92bd
000003f0: e8f5 fbbd a862 683d 5ece f33d 8814 fa3d
-0.13336004 -0.0933475 -0.12902111 -0.0045005903 -0.011091051 0.017935209 -0.06602387 -0.12561277
0.05286455 -0.08639741 -0.026587859 -0.043022968 -0.08754434 -0.09748061 -0.14198676 -0.15768462
0.015114904 -0.064719886 0.0964686 -0.028913599 0.03453155 -0.14513482 0.017405992 -0.13160479
-0.038944453 0.0010106094 0.021003246 -0.03055571 -0.15738471 -0.10793364 -0.026474074 0.031267237
-0.122798145 0.0804892 -0.104983985 -0.10594165 0.08376388 -0.11147468 0.024595767 -0.090502694
-0.04448506 -0.14824 -0.084699765 0.047381356 0.060517028 -0.13478969 0.016251076 -0.046266165
-0.10638966 0.00087843015 0.03928809 -0.08066676 0.07632071 0.07810542 -0.0021255156 -0.06601231
-0.112388484 -0.06415548 0.06057094 -0.0798891 0.006991852 -0.09599559 0.11179164 0.06606105
0.017264204 -0.13431308 -0.078582056 0.10200542 0.04204123 0.1252363 -0.004712504 -0.18456586
-0.13595179 -0.08220624 -0.051499914 0.03279883 -0.12563358 0.14895882 0.05212896 0.14530513
0.015882308 -0.3421998 -0.071143016 -0.16560276 -0.06468317 0.013295979 0.117736794 -0.4340284
-0.15606275 0.042526666 -0.12146109 -0.15425482 -0.031552672 -0.0320841 -0.25820237 0.08442758
-0.059922624 -0.10043518 0.0755786 -0.099705 -0.079370975 0.10022611 0.020856798 0.01712093
0.040778752 -0.089607544 -0.05634013 -0.008713021 -0.0027997196 0.019444475 -0.106954664 -0.021828977
0.08970029 0.062938005 0.009191524 0.060767066 0.0077869445 -0.0057979855 0.16877522 -0.06288083
0.06478989 -0.021453308 -0.12465318 -0.08374914 0.048042126 -0.016583653 -0.027246088 0.06871469
-0.07351204 -0.36939472 0.08188607 -0.050173048 -0.062246706 -0.003848731 0.15198472 -0.06211364
-0.20652467 0.007062086 -0.045624122 -0.10200761 -0.36959875 -0.06081544 -0.050930496 -0.1674003
0.0010300161 -0.30981106 -0.02139921 0.0011123382 0.20635645 0.015573962 -0.07115181 -0.23696767
-0.04396655 -0.19273552 -0.1137439 -0.28723028 -0.055500787 -0.11064301 0.019277824 0.034590468
-0.33393717 -0.044747204 -0.18619105 -0.06639655 -0.13045153 -0.036374807 0.045447662 0.113234706
-0.06895186 -0.0036271522 -0.016280249 -0.03299562 0.040325016 0.02066335 0.015584747 -0.051257085
0.029567972 -0.17327955 0.026156468 0.02826262 -0.10079186 -0.09808993 -0.09000604 0.035520572
-0.12866502 0.058744915 -0.30809996 -0.28499913 -0.15936357 -0.061899148 -0.031829447 0.039493546
-0.14259394 -0.16805644 -0.1407807 -0.10174018 -0.036840856 -0.040535867 0.10950562 0.07089779
-0.03121704 -0.11228216 -0.043651387 -0.0651111 -0.11710223 0.05621417 0.021705955 -0.0005917847
-0.06978829 -0.033315092 -0.015801124 -0.0949758 -0.13135888 0.013758406 -0.13798724 -0.05138961
-0.14448358 -0.1223242 -0.15579382 -0.045931235 -0.13399263 -0.10432169 -0.15324613 0.042229593
-0.1762942 0.06403005 -0.012871523 -0.10895036 -0.08483842 0.08830796 -0.042062163 -0.055756476
-0.1199141 -0.12771018 0.008849978 -0.030398384 -0.097945586 0.047024384 -0.16618311 -0.055724993
0.07662472 -0.10858706 0.09895833 0.104145244 -0.061019838 0.06656867 -0.008123338 -0.026837394
0.04599929 -0.008706942 -0.017173078 -0.07147419 -0.12302762 0.05673471 0.11904596 0.12210947

bias f4 [64]
00000000: 62a6 29bd c50f 793c 3659 97bd 07da 9abd
00000010: 5069 17be 3432 afbd c4c2 22be 6b26 b53b
00000020: 7ec8 52be 0fa7 acbe 6743 a2be ffd1 a4bd
00000030: dee6 54be 25df 06be 0d51 a5be 4312 45be
00000040: 2f65 c3be 78c3 10be 4c5d aabd 9bf8 fbbd
00000050: b602 47be 79c4 58be d222 7bbe d6b0 06be
00000060: 60f6 113d bba6 093e 6ee7 ec3d eb37 09be
00000070: 018f 0cbd dde6 8b3c 944a 793e a200 d2be
00000080: 38a4 7ebe 8897 d0bd 0f41 56be 2fba 84bd
00000090: e3f8 39be e174 35be 2f0d b2bd 20f6 10be
000000a0: 093e 973d 2b3b 493d e1a3 e0bd 9d7b 303d
000000b0: 612f 36be f0f5 46be 67cf a0be 2068 1cbe
000000c0: 8bde b7bd fc9f 37be 8e44 0fbe 8a08 30be
000000d0: 9e94 61be c8d2 26bc a757 a33c 9690 0d3d
000000e0: 35ad cabd 60ba 7abb 71c2 3fbd 7d7d 3cbd
000000f0: 4854 3cbe 113d a6bd 6a43 48be 4fa2 06be
-0.04141844 0.015201514 -0.073900625 -0.07561117 -0.14786267 -0.08554497 -0.1589461 0.0055282614
-0.20584294 -0.33721206 -0.3169205 -0.08047866 -0.20791194 -0.1317106 -0.322884 -0.19245248
-0.38163134 -0.14137065 -0.08318576 -0.12303277 -0.19434628 -0.21168698 -0.24525002 -0.13153395
0.035635352 0.13442509 0.11567579 -0.13400237 -0.034316067 0.017077858 0.24344856 -0.41016108
-0.24867332 -0.10185152 -0.20923255 -0.06480824 -0.18161349 -0.17720367 -0.08693921 -0.14156389
0.07384879 0.049128693 -0.109687574 0.043086637 -0.17791511 -0.19429755 -0.31408235 -0.15274096
-0.089779936 -0.17932123 -0.13990995 -0.17190757 -0.22029349 -0.01018209 0.019939257 0.034561716
-0.09896318 -0.003825806 -0.046816293 -0.046018112 -0.18391526 -0.08117116 -0.19556966 -0.13147853

weight f4 [64, 64]
00000000: e6ca e03d c0b8 06be 703f 0e3e 1221 8e3d
00000010: 6d13 0abd 9260 003e a493 1bbd 8c18 913d
00000020: 5c25 1c3e 3bdf 8fbd c4e8 cc3d 7ca9 20bd
00000030: 1fe1 10be f8a6 91bd ad2e 3abd 7fc1 c03b
00000040: b41a a1bd fd6a 70be 580b 71be 362f 5ebd
00000050: c20f ce3d 686b b7ba 2205 6a3c d19f 68ba
00000060: e0b6 a13d 03c6 c03d dddb 5bbc 6ecd ab3c
00000070: f2ff 16be 3ffd 1a3e 862e c5bd 8fbf 0dbe
00000080: 5b96 b03c f56f 5e3d e6ba 09bd e93c b1be
00000090: e09c 64bc fc2c 973d 9535 88be 7c85 95bd
000000a0: 5180 3d3d b948 953c 8cbc 7cbd 4e08 43bf
000000b0: 59ae e13d 1580 6abe 873c 9a3e 3e56 3ebe
000000c0: 8725 ff3d bcd5 16bd b2d0 9bbd 9e21 4bbc
000000d0: 14a0 57be 355e 93bd 00f4 853d 422c bfbe
000000e0: 0e86 753e 0bcc a43d ac69 f4bc c110 683d
000000f0: 99f6 703d 92cd debd 3b48 e03d 12c1 f83c
00000100: 7148 d0bd 3dd9 41be 0611 a3be 4290 e63d
00000110: f53a 79bd bccc 16be 785e 95bd 0152 28be
00000120: e00c 67bd 70b3 2cbd 5c63 bdbd d8fa e2bd
00000130: 6ed9 90bd 1871 e9bc 42e7 38bd bacb 40be
00000140: 2e12 993d 2ee5 0dbe dc92 e83c c159 1cbe
00000150: a09c 0abd dcee b63e dc4e 79be 3737 2fbe
00000160: 774b 133d 5b76 e2bc 85b5 14be 6015 ebbc
00000170: bdae c83d 2340 88be 2849 38be 0eec d3bd
00000180: 6007 363c beef a13d aaa2 a3bd 550b 51be
00000190: 0fa8 15be 6eb7 39be 9b93 163d 2003 7fbd
000001a0: 52ce 2abc ace5 58bd 834d ee3c 423d bf3c
000001b0: 5c31 6dbd a5b7 7fbe ee00 40bd bded 4fb9
000001c0: c907 8cbd b093 5f3d eb16 dcbd aa5c a23d
000001d0: fde7 babd 8b39 61be e326 51be facb a7be
000001e0: e0d5 13be cbfe 13bd 70e5 6bbd 24dd 21be
000001f0: c706 e83b 1096 67bc ea9f 493d b433 f13d
00000200: 9447 a3bd b2e1 67bd 97b5 263e 1e0e f2bd
00000210: 5f32 55be 3e3e 00be 99b8 b8bd bacd 34be
00000220: 9040 2bbd 82fa e63d 20e0 59be 3506 213e
00000230: b186 31bc cd41 85bd d1a1 92bd cf29 be3c
00000240: 7008 39bc aa42 1fbd 0409 b3bd 6df1 c9bd
00000250: b674 d03d f842 2ebd e141 f0bd ce48 dcbd
00000260: fa04 f0bd c7d4 b2bd ebe8 f63a d0f1 acbd
00000270: 87b0 3cbe 2f9a 2cbe 05c5 1bbe b362 81bd
00000280: 7814 603d a887 b6bc 67a5 8abd e69d 1e3b
00000290: 1c34 b03d 2a9b e63d 0b2a b4bc 6ed4 99bd
000002a0: e7c4 19be 8725 0ebe 0465 ea3d c38a 1c3d
000002b0: b65a ccbd 6edd 51bd 0c0b dfbd 8bc6 e9bd
000002c0: ba8e f6bd e5aa adbd 842a 433d 533f 41bd
000002d0: 2d32 9dba 26d6 debd 25ef 85be cb8d 16be
000002e0: 00f3 963c 36be 8ebd 94ec 8e3d bc3b c03d
000002f0: 0bf3 8dbc 024b c3bd 3ea4 f3bd 1964 b6bc
00000300: 351e 313c b749 eabd 9a6e 53bd 1ef5 83bd
00000310: 001b bfbb 60d2 82bd 38d0 39bd 69bc b1bd
00000320: 35aa 52bc 5445 81bd 8c2b 663d 880f 873d
00000330: b1f7 b23a 60c3 fa3c 3ce8 21be b4d8 25be
00000340: d0e3 a0bc c7c1 e83b e8f9 18be f7a7 b13c
00000350: d438 573d ca52 a63d 2aae 87bc ff4d 493d
00000360: 4b01 9dbb 665d ebbd a861 b0bd 8292 18be
00000370: 7588 16be e3c2 623d f4d6 61bc 8945 7cbd
00000380: 3478 a1bd 20d8 dabd 42f9 b9bd 7e13 3dbe
00000390: 03d4 43bd 0bbb 1ebe 4ded d2bd 0097 723d
000003a0: 05b5 cebd aeb0 08be 50c3 a13d 1e4f aabd
000003b0: 93e7 35bd cadc 15bd 939f 443d c6c4 cdbd
000003c0: 4244 1e3d 8b24 dfbb 2cd7 26be ecad dc3d
000003d0: e74e 263d f3d3 f5bd a594 5ebd 602f 23be
000003e0: bfdc 48bd 21c9 113d e81a c03d 2e9d 80bc
000003f0: c662 1dbe 9eb4 eebd 885b 5b3d 2b78 2abe
0.109762 -0.13156414 0.13891387 0.069399014 -0.033709932 0.12536839 -0.037982598 0.0708476
0.15248626 -0.07025 0.10005334 -0.039224133 -0.14148377 -0.07111925 -0.04545467 0.0058824415
-0.07866421 -0.23478313 -0.23539484 -0.054244243 0.10061599 -0.0013993802 0.01428345 -0.0008873912
0.07896209 0.09412768 -0.013419119 0.02097198 -0.14746073 0.15135668 -0.09628014 -0.13842605
0.02155607 0.05430599 -0.033625506 -0.34616783 -0.013953418 0.07381627 -0.2660338 -0.07300851
0.04626495 0.018223153 -0.06170325 -0.76184547 0.11019582 -0.22900422 0.30124304 -0.18587586
0.1245833 -0.036824927 -0.07608165 -0.012398152 -0.21057159 -0.07195703 0.0654068 -0.37338454
0.23976919 0.080467306 -0.029835545 0.056656603 0.058828924 -0.10879053 0.10951277 0.0303655
-0.10170067 -0.18930526 -0.31848925 0.11257984 -0.06084724 -0.14726537 -0.07293409 -0.16437532
-0.056408763 -0.042163312 -0.09247467 -0.11083001 -0.070727214 -0.02849631 -0.04514242 -0.18827716
0.074741706 -0.13856956 0.02839034 -0.15268613 -0.033840775 0.3572911 -0.24346489 -0.17110907
0.03596064 -0.027644327 -0.14522369 -0.028696716 0.09798954 -0.26611432 -0.17996657 -0.10347758
0.011110157 0.07907055 -0.0799001 -0.20414479 -0.1461489 -0.18136379 0.03676186 -0.06225884
-0.010425167 -0.052953407 0.029089695 0.02334464 -0.0579084 -0.24972399 -0.046875887 -0.00019829623
-0.068374224 0.054584205 -0.10746559 0.079278305 -0.091262795 -0.21994607 -0.2042499 -0.3277281
-0.14437056 -0.03613166 -0.057591856 -0.15807015 0.007080886 -0.014134899 0.04922477 0.1177744
-0.07972637 -0.056611724 0.16280209 -0.11819099 -0.20819996 -0.12523744 -0.09019584 -0.17656603
-0.04180962 0.11278249 -0.21276903 0.15725024 -0.010835336 -0.06506691 -0.0715977 0.023213295
-0.011293516 -0.038881935 -0.08741954 -0.098605014 0.10178511 -0.042544335 -0.117313154 -0.10756074
-0.11719699 -0.0873199 0.0018837726 -0.084445596 -0.18426715 -0.16855691 -0.15211876 -0.063176535
0.05470702 -0.022281483 -0.06769829 0.0024203002 0.08603689 0.11260064 -0.021992704 -0.07511221
-0.15016519 -0.13881503 0.114450485 0.03821827 -0.09978239 -0.051236562 -0.10890779 -0.11414822
-0.12038942 -0.08479861 0.047647968 -0.04717953 -0.0011993103 -0.10880689 -0.26159015 -0.14702527
0.018426418 -0.069698736 0.069787174 0.093863934 -0.017327806 -0.09535791 -0.11896561 -0.022264527
0.010810425 -0.11439841 -0.05161915 -0.06443237 -0.005832076 -0.06387782 -0.04536459 -0.086785145
-0.012857963 -0.063120514 0.056193873 0.06594759 0.001365414 0.03061074 -0.15811247 -0.16195947
-0.01963988 0.007103178 -0.14939082 0.021686537 0.05254443 0.081212595 -0.01656254 0.04914665
-0.004791414 -0.11492424 -0.086123765 -0.14899638 -0.14700492 0.05536164 -0.013784159 -0.06158975
-0.07884255 -0.10685754 -0.09080745 -0.18464467 -0.047809612 -0.15501039 -0.10299168 0.059226036
-0.100931205 -0.13348648 0.07898581 -0.08315872 -0.0444103 -0.036587514 0.048003744 -0.10047297
0.038639314 -0.006809776 -0.16293019 0.107753605 0.04060259 -0.12003317 -0.054340977 -0.15936041
-0.049038645 0.035592202 0.09380132 -0.01569995 -0.1536971 -0.11655544 0.053554088 -0.16647403

bias f4 [64]
00000000: eaa6 93be 8818 bc3d 9785 6cbe 038b 3abe
00000010: 9a07 f23d 56f2 99be a395 e2bc ec79 1cbd
00000020: 2d37 91bd e359 77be f299 283e 64cb 93be
00000030: 9682 cabd 8639 43be 78d2 c23e 13f6 0abf
00000040: e173 543e 5a53 5cbe 3df3 e13e f5be 4d3e
00000050: 356e 60bd 8520 62be e8f1 e3bd c379 bf3d
00000060: 875f 90be b924 9ebe 37cf b13e 3f07 01bd
00000070: 98dc 88bd 6c95 63be 7b9f 9fbe 75ba db3d
00000080: da4c ce3c 3b49 12be 0299 b0bd de05 2bbe
00000090: 269b 4b3e a836 13be cccc 46be 71ac 9bbe
000000a0: ccc5 7dbe 2858 2cbe 0df3 69be f8f6 26bb
000000b0: 72ca 21be e7db 86be 1461 63be 65af 843d
000000c0: e8c7 cabe f280 a43d f911 893e 2db7 91be
000000d0: 8e67 7bbe 73d9 43be 5303 da3d b19e 96be
000000e0: 5eef 5abe a886 093e 4ea8 943c e1df a73d
000000f0: 7b98 2ebe 17a6 ddbe 8949 893e f765 1dbe
-0.28838283 0.091843665 -0.23097835 -0.18217091 0.11817856 -0.300677 -0.027659243 -0.03820221
-0.07090602 -0.24155383 0.16464975 -0.28866112 -0.098881885 -0.19064912 0.380512 -0.5428173
0.2074733 -0.21516171 0.4413089 0.20092376 -0.0547926 -0.22082718 -0.11130124 0.09349396
-0.28197882 -0.30887392 0.34728405 -0.03150105 -0.066827 -0.22224969 -0.3117636 0.10728923
0.02518313 -0.14285748 -0.08622934 -0.16701457 0.19883403 -0.14376318 -0.19414061 -0.30405
-0.24782485 -0.16830504 -0.22846623 -0.0025476795 -0.15799883 -0.26339647 -0.22205001 0.06478766
-0.3960564 0.08032407 0.26771525 -0.28460065 -0.24551222 -0.19125919 0.10645165 -0.29417947
-0.21380374 0.13430274 0.01814666 0.081969984 -0.17050354 -0.4329078 0.26813915 -0.15370928

weight f4 [64, 64]
00000000: d4af c2bd 335c 693c d27c a43d 89f8 223e
00000010: c7fd 93bd 068a 30bd 829f 85bd 776c 8ebd
00000020: f5aa d13d 99f1 a9bc 0a64 37be a026 b6bc
00000030: ca33 da3d 772c b5bc 82ca 92bd cbff 1cbd
00000040: e09b 48be 0715 76bd f360 e9bc 0032 8ebd
00000050: 87f6 3abd 5284 373d 463d 1fbe d3e3 d53c
00000060: e76a c43c 9ac8 fa3d 5173 e83d 8d50 383e
00000070: 0531 913d e7e6 143c a269 e9bd f5f0 2cbd
00000080: 0919 2ebe c994 a03b c5ad 853d 9ff4 1d3d
00000090: a3d3 8bbd 2a1c 9abb bbec 6d3c 8158 4abe
000000a0: 611b 42be 5a63 f5bd e8a6 2e3d e193 58be
000000b0: f7dd d13d 8a77 6d3d 129f c2bd ff78 d23c
000000c0: 801c 253e 3004 06bd 64ba 80bd 487c 1b3d
000000d0: b982 cb3c 382b 03bd fdaa 14bd beb3 853d
000000e0: 780f b73d 9e72 6cbd 03d0 f0bb 9e13 36be
000000f0: a0f6 3fbc 556a 0f3e 7568 f1bd c876 023d
00000100: 2c92 73bd 1062 fd3c 0e3c 2cbc f4b4 c2bd
00000110: 82d4 e43d e55a 28be 5697 b63d 22cd a23d
00000120: fa55 cebd b8c1 27bd b07b 39bd 5658 cbbd
00000130: f895 bd3c 74d2 8d3d e050 3cbc e2d5 adbd
00000140: f200 8abd 58b6 533d 8adb 80bb 7e9e f23d
00000150: 4aa1 99bd ccac da3d fbab fabd 80f5 9a3d
00000160: 5dc3 0abe 16b8 ccbd 4e30 eabd 2eee c0bd
00000170: f059 4e3d bd0e 09be b69b 2ebd 9b38 09be
00000180: 16ed fd3d 8b79 2bbe 1ced cebd ceea b43d
00000190: a8a8 afbc 44a3 4abc 1480 69bd f1fd 92bd
000001a0: b84d 453d 3075 463c 0691 a1bd 50e3 dfbe
000001b0: 1871 c2bc aec8 9abd c27f acbd 9652 8abe
000001c0: 7ca2 01bd 9e47 b4bd 5dd4 cebd ec5e e33d
000001d0: 0c74 5fbd 6a8a 96bd 4f4a 1dbe 2423 d63d
000001e0: b0ef 64bd 04bb 70bd e0fa 5abc bbf3 23bd
000001f0: 4604 80bd 4608 b8bd c643 39be 50f7 03be
00000200: 84c7 253d 06a3 a1bd 158b 08bb 5028 47bc
00000210: 223d 98bd f82e d0bd 7c1b 35be ead4 aa3d
00000220: 1051 073c f42a 583d 6ea2 903d cf34 e5bd
00000230: 98da 75bd ce3a 86bd 38fc 9ebd 8d13 46bd
00000240: 6607 c5bd b8e1 893c d4fe d23d 4a86 cb3d
00000250: 5082 073c 847b f33d f963 a1bd 385c fbbd
00000260: d873 89bd 6e49 24bd 7885 a03d f0d8 393d
00000270: a851 5e3d 54ed dabd 19cb bc3c 259c 21be
00000280: 288a 79bd e8f7 fa3d c2a7 f63d 3c47 51bd
00000290: 925d ab3d 5e88 9a3b aa30 c9bd 7af4 b83c
000002a0: 709c 3cbd 01b2 10bd 0401 7e3d 88b2 22be
000002b0: fac3 b63d 3296 febd 6ce5 5d3d 6130 fc3c
000002c0: 4641 bebd 4875 e9bd 14b8 523b a04a cd3c
000002d0: 90cf dbbc 8424 77bd 1a5a 1ebe e4f7 5f3d
000002e0: fe39 073d 6425 913d 9e7c 9cbd 1c04 80bd
000002f0: 0086 de39 0700 3bbd 8080 3c3b 16f6 12bc
00000300: c392 973e 3d67 73bd 6ff0 3c3c 1f98 bc3c
00000310: 75bf 533d ccac f03d 474e a4bd aabb 983d
00000320: f019 d7bd 1797 5a3e b21a 063e 088a 093e
00000330: c46b a43d b3a2 853d eaec 0ebe 2ab8 cd3e
00000340: 8073 fcbd 9086 c3bd 9851 ce3e b307 08be
00000350: be63 ce3c 4083 4f3e 64e8 483d 98c5 cabd
00000360: d433 8d3e fc59 a03d dca1 253e 7a6b 61bc
00000370: c162 ce3d d602 fa3d 157d cb3d d91f a23d
00000380: f3f2 93bd 52dc ca3d c65c 2cbd 7cb8 003e
00000390: e443 5a3d 0c7e 693d 9553 54bc 5555 093e
000003a0: 034d 943d 98f7 233d f866 e4bd e930 493e
000003b0: a8bf 5abb ee39 073c 0254 ce3c 0034 1c3e
000003c0: 6424 063c 095b 903e 0831 b93d eee3 f5bc
000003d0: 163f 0bbe 07dc 71bc 1183 3c3e 3c5e 123e
000003e0: 773c 1bbd 975e 2c3d 5ff6 89bc e508 813d
000003f0: acb1 6cbd 97dc 013e e731 183f b710 053e
-0.09506193 0.014243173 0.0803162 0.15915121 -0.072261386 -0.04310038 -0.06524564 -0.06954282
0.102376856 -0.020745086 -0.17909256 -0.022235215 0.10654409 -0.022115929 -0.071675315 -0.03832988
-0.19590712 -0.060078647 -0.028488612 -0.069431305 -0.045645263 0.044803925 -0.15550718 0.026109612
0.023976756 0.12245293 0.1135012 0.17999478 0.07089428 0.0090882545 -0.11397101 -0.042221982
-0.17001738 0.004900549 0.065272845 0.038563367 -0.06827476 -0.0047030644 0.014521773 -0.19760324
-0.18955757 -0.119818404 0.042639643 -0.21150161 0.102474146 0.05797533 -0.095029965 0.025692461
0.16124153 -0.032718837 -0.06285551 0.03796032 0.024842607 -0.03202364 -0.03629588 0.06528424
0.08938497 -0.057726495 -0.0073490157 -0.17780921 -0.011716515 0.14005406 -0.11787502 0.03185156
-0.059465572 0.030930549 -0.010512365 -0.0950717 0.11173345 -0.16440924 0.08915584 0.07949282
-0.100749925 -0.04095623 -0.045283973 -0.09928958 0.0231428 0.069249064 -0.0114938915 -0.084880605
-0.067384616 0.05168757 -0.003932421 0.11846636 -0.075014666 0.1067749 -0.12239834 0.07566357
-0.13551088 -0.09996049 -0.11434995 -0.09420429 0.05037874 -0.13384528 -0.042628966 -0.134005
0.12398736 -0.16745584 -0.10103819 0.08833848 -0.021442726 -0.012368027 -0.05700691 -0.07177342
0.04816982 0.012112901 -0.07888989 -0.43728113 -0.023735568 -0.07557808 -0.08422805 -0.27016133
-0.031649098 -0.088027224 -0.10099099 0.11102089 -0.05455403 -0.07350619 -0.15360378 0.10455921
-0.055892646 -0.058772102 -0.013365477 -0.04002736 -0.06250815 -0.08985953 -0.1809226 -0.12887311
0.040473476 -0.078924224 -0.0020834852 -0.012155607 -0.07433535 -0.101652086 -0.17686266 0.083413914
0.008259073 0.05277534 0.07062231 -0.11191713 -0.06002292 -0.06554185 -0.07762951 -0.04835849
-0.09620552 0.016831264 0.10302511 0.09937723 0.008270815 0.11888793 -0.078803964 -0.12273449
-0.067115486 -0.04010909 0.07837957 0.045372903 0.054277092 -0.10689798 0.023046063 -0.1578222
-0.06092277 0.122543156 0.12043716 -0.051093325 0.083674565 0.0047159633 -0.09823735 0.022577513
-0.046047628 -0.035326008 0.062012687 -0.15888417 0.08924098 -0.12430991 0.054173872 0.030784788
-0.09289794 -0.11399323 0.0032153176 0.025059998 -0.026832372 -0.06033756 -0.15464059 0.054679766
0.03301429 0.0708721 -0.07640956 -0.06250784 0.00042442977 -0.045654323 0.0028763115 -0.008969804
0.29604158 -0.059424628 0.011531933 0.023021756 0.05169626 0.117517084 -0.08022743 0.07457669
-0.10502994 0.21346699 0.13096121 0.13431561 0.08028367 0.06525173 -0.13957563 0.4017957
-0.123267174 -0.0954715 0.40296626 -0.13284187 0.025194045 0.20264912 0.04904975 -0.09900969
0.27578604 0.07829663 0.16175026 -0.013758535 0.100774296 0.12207572 0.09935967 0.07916231
-0.07224073 0.09905304 -0.042080663 0.12570375 0.0532874 0.057004973 -0.012959381 0.13411458
0.07241251 0.040031046 -0.11152452 0.19647564 -0.0033378396 0.008253558 0.025186542 0.15254211
0.008187387 0.28194454 0.09042555 -0.030015912 -0.13598284 -0.014761931 0.18409373 0.1429376
-0.03789946 0.042082395 -0.016841112 0.063005246 -0.05778663 0.12681805 0.59451145 0.12994657

bias f4 [64]
00000000: 9076 62bd cc12 9fbe 3850 edbd 9ff4 5ebe
00000010: 6b00 22be fe80 853e 2d07 73be 3517 19bd
00000020: 6bc0 9cbe 092d c1be 5f8d 4dbc 574c 7fbd
00000030: 809c c8bd 74fb dabd b4f9 3f3d e837 4ebe
00000040: e2d2 95be eff2 93be 7571 76bd 001f c5be
00000050: 0e07 3bbe c9e1 2fbb d949 29be 62ca d5bd
00000060: 4480 05bd 228e cdbd 90a7 98be 2d1a afbd
00000070: 993a d0bc 61c0 7abd c452 8cbd 471a d43e
00000080: 5a06 79be 3ba8 3fbe f298 d13e 5fa0 553c
00000090: 9837 3dbe 11eb 63be ff15 8ebc 18d6 9fbe
000000a0: 5e5a d9bd e08c bd3b d223 833e 3fab a1be
000000b0: 516e 60be e1f4 c4bd 519b 9fbd a0d4 9abd
000000c0: 492f aebd 7922 003e 103e 0ebe c05d 493e
000000d0: 38fb 67bd 6354 9e3e 282c babd 3174 3f3e
000000e0: fde1 febd 0b66 7e3c 3297 f3bd 67af b6be
000000f0: 4640 04bb 56b4 83bd d184 1fbd 7c9f 8dbc
-0.05528885 -0.31069028 -0.11587566 -0.21773003 -0.15820472 0.26074976 -0.23733206 -0.037375648
-0.30615553 -0.37729672 -0.0125459125 -0.062328663 -0.09795475 -0.10692492 0.046868995 -0.20138514
-0.29262453 -0.2889628 -0.060166795 -0.38500214 -0.1826441 -0.002683746 -0.16532077 -0.10438992
-0.032593027 -0.10036875 -0.2981534 -0.085499145 -0.025418567 -0.061218623 -0.06851724 0.41426298
-0.24318829 -0.18716519 0.40937 0.013038724 -0.18478239 -0.2225764 -0.017344473 -0.31218028
-0.10612939 0.005784616 0.25613266 -0.31575963 -0.21917082 -0.096170194 -0.07793296 -0.07560086
-0.08505113 0.1251315 -0.13890862 0.19664669 -0.056636065 0.30923757 -0.090904534 0.18696667
-0.124454476 0.015527259 -0.118940726 -0.35680696 -0.0020179912 -0.06430881 -0.038945023 -0.017287962

weight f4 [64, 64]
00000000: 30be 2ebd 881a 373d c497 f3bd 5262 11be
00000010: c00a 4d3d 767c 30be fa65 22bd 8231 fbbd
00000020: ba72 df3d c007 bfbc 62b0 e8bd 260f a43d
00000030: 6c58 e73d 8c0b 4b3d 910b 32be 1024 d0bc
00000040: 584e c2bd 5edf c63d 8018 733d 3d22 803e
00000050: 9c27 acbb 74f1 0d3d 501b 9d3d 40a2 aa3d
00000060: 8e67 a13d a485 803d 3cf2 1e3d ced3 cb3d
00000070: 70e0 683d 4ccd 11bd 4898 f93c 0498 0cbe
00000080: 77ba 27bd e0b8 d63c a084 4e3d 7c97 ca3d
00000090: dacb bebd f879 f23c 120f dcbd 6671 74bd
000000a0: 3e8a e6bd dbea 293c 329d 693d 14f2 96bd
000000b0: 38d8 1cbd e480 283d f472 09bd 9804 c8bc
000000c0: a0cd b9bd e72c 2dbe 5c42 33bd 3813 213d
000000d0: 32d8 e3bd 6015 ddbd dccc 173d 6001 04be
000000e0: 58b6 a93d cee4 9d3d d276 1c3d 8412 c83d
000000f0: 72c5 aabd 6cba bfbd 84d0 423d 3a65 f7bd
00000100: 9045 bf3d 9071 1b3d 7676 11bd 9d81 7fbd
00000110: b815 63bd f07a f6bd c45d 93bd 000a cc3d
00000120: 4c52 a83d 7e08 04be 9299 f1bd 8002 26bd
00000130: f234 a03d fc74 2ebe 27f1 41be c920 c3bd
00000140: dc95 893b 04f4 b3bd 389c 2fbe 4607 e33d
00000150: 3bfc 43bd 9092 083d 85f0 17bd b928 47bd
00000160: 9056 963d b039 0ebe bad1 febd eceb 1bbd
00000170: 65bb f3bd 4317 d53c 9c52 dbbd 3cda a9bc
00000180: e551 c8bd a09f ba3d 3265 01be d633 e0bd
00000190: a0f6 80bb 3038 2f3c 603f b53c aff4 c5bc
000001a0: de81 363d b837 4dbe 76d7 6d3c 34df 6fbd
000001b0: d8f6 9ebc f0e1 d1bc 2ac7 dcbd 8826 3a3d
000001c0: 6a57 25bd 9e79 b3bd a055 063d c0e8 1ebe
000001d0: 9459 b1bd 31b2 aebd d8eb 4ebe 0fc6 47bd
000001e0: 602f 93bb 304d 0cbd aa7f af3d c01d 90bb
000001f0: ca45 993d b8af 9e3d c65f c7bd 00f7 d3bb
00000200: 5ca2 e7bd 4850 b4bc 76a2 57be 7354 e2bc
00000210: 0c3f 70bd 4774 2dbe a38e c0bd 9062 dabc
00000220: 2c79 52bd 5d5d 03be b233 58be 852a 66bd
00000230: 6074 123d e83c e43c 2007 9e3b c0f2 a73c
00000240: b076 2cbd d4ab f0bd fc5c ddbd 06ac 2dbe
00000250: 9840 53be 0204 e43d 6008 18bd 3e44 2a3c
00000260: 922b 923d bf9a 93bd 283a 9bbc 001e fc3c
00000270: 3ac7 893d 1ebc bc3d 088f 80bd ce1f e4bd
00000280: 7ee8 083d c883 a0bc f16e d5bd 3034 c63c
00000290: 0cbe 733d 58ba 97bd 0090 4238 667f 03be
000002a0: 4804 ac3d 91fa 25be 6c1b 11be fcf7 27bd
000002b0: 5231 bebd fcc0 533d 687d 3f3d da97 b53d
000002c0: e675 0a3c 7cc9 023d 9e96 9d3c 9ff0 9bbd
000002d0: 982e cbbc 26a8 d2bd 72dd f8bd 80c1 e43c
000002e0: 006a ee39 70dc cabc 7b5b 03bc a0f2 003d
000002f0: 7058 64bd 484d b8bd 1ca5 9bbd 482a 1abd
00000300: 30fd d23d 1318 a4bd b853 74bd 35ca e5bd
00000310: 823b c2bd 0fd3 0dbe 3bb3 c4bd d0af 043c
00000320: 4ec8 b8bd 3c18 d6bd e70e 49bd d869 acbd
00000330: 38a8 c8bd 851e 3abe 2160 153d 6767 aa3c
00000340: 38d3 723d 38b7 1cbd ba95 c1bd ce52 43bb
00000350: a46f 32be 8ac4 953d 9221 9d3d 7e77 50bd
00000360: c003 eebc cc43 8dbc f01d 843c 382c 983c
00000370: 48fc 5abd 27ee 263c 848a b63d a9a2 15be
00000380: d516 e6bd e8a9 633d 836a 05be fcfb d1bd
00000390: fa8a c3bd b6e3 fe3d ae9f efbd 4df6 a33d
000003a0: f35f f0bb 1c9e 5fbe 537b d9bd 4832 dd3c
000003b0: 3cad 81bd c447 dd3d 901a c1bd 28b6 e4bd
000003c0: ad5d 21be b652 5c3d 6e31 68bd eb25 293d
000003d0: 2a5e b63d f65f c53c b76a f93d aafd ccbd
000003e0: 6c6b 39bd ac3d 4cbd 21d3 923d a639 813d
000003f0: 5cec ecbd 063a fabd 12e9 803d 6451 47bd
-0.042661846 0.044703037 -0.11894181 -0.14197662 0.05005908 -0.17234978 -0.039648034 -0.12265302
0.10910554 -0.023319125 -0.11361767 0.08010702 0.11296162 0.04957156 -0.17387225 -0.025407821
-0.09487599 0.09710573 0.059349537 0.25026122 -0.0052537452 0.034654096 0.07671225 0.08331728
0.078810796 0.0627549 0.03880523 0.09952508 0.056854665 -0.035596177 0.030468121 -0.13729864
-0.04094931 0.026211202 0.05041945 0.098921746 -0.09316225 0.029599175 -0.10745062 -0.059678458
-0.11256836 0.010370935 0.05703468 -0.073703915 -0.03829214 0.041138545 -0.033556893 -0.024416253
-0.09072423 -0.1691166 -0.043764457 0.03932497 -0.1112522 -0.107950926 0.037060603 -0.1289115
0.082867324 0.07709657 0.038199253 0.097691566 -0.08338441 -0.09361729 0.047562137 -0.12079854
0.0933944 0.0379501 -0.035513364 -0.06237947 -0.055440634 -0.12035167 -0.07195619 0.09962845
0.08218822 -0.12893865 -0.11796869 -0.040529728 0.078225985 -0.17036813 -0.18939649 -0.09527738
0.004198773 -0.08786777 -0.17149436 0.11085372 -0.047847968 0.033342898 -0.03709461 -0.04862282
0.07340729 -0.13889194 -0.12442346 -0.03806679 -0.11900977 0.026012069 -0.10709116 -0.020733945
-0.09781245 0.09112477 -0.12636259 -0.10947387 -0.00393565 0.0106945485 0.022124946 -0.024164526
0.044557445 -0.20040786 0.014516702 -0.058562472 -0.019404814 -0.02562043 -0.10780175 0.045446903
-0.040366568 -0.08763431 0.032796502 -0.15518475 -0.08659664 -0.08530081 -0.20207155 -0.048772868
-0.0044917315 -0.0342533 0.08569272 -0.0043980777 0.07484014 0.077483594 -0.09735064 -0.0064686537
-0.113102645 -0.022010937 -0.21058068 -0.02762816 -0.058653876 -0.16938888 -0.09402206 -0.026658326
-0.05138509 -0.12828584 -0.2111347 -0.056192894 0.035755515 0.027861074 0.0048226267 0.020501494
-0.042105377 -0.117515236 -0.10808751 -0.16960153 -0.2063011 0.11133577 -0.037117362 0.010392247
0.07137217 -0.0720725 -0.01894863 0.030776024 0.067274526 0.09215568 -0.06277281 -0.11138879
0.033424847 -0.019594088 -0.10421551 0.024194807 0.059507415 -0.07408589 4.6387315e-05 -0.12841567
0.08399254 -0.16208865 -0.14170617 -0.04100798 -0.09286751 0.051697716 0.046750456 0.08866854
0.008450961 0.03193043 0.019236859 -0.07614254 -0.024802491 -0.10285978 -0.12151612 0.0279243
0.00045473874 -0.024763316 -0.008017416 0.031481385 -0.055748403 -0.08999115 -0.075998515 -0.03763798
0.10302198 -0.08012404 -0.059650153 -0.112202086 -0.094840065 -0.13850044 -0.09604498 0.008098558
-0.0902258 -0.10453841 -0.049086478 -0.084186256 -0.0979771 -0.18175705 0.03646863 0.02080126
0.059283465 -0.03826067 -0.09452386 -0.0029803994 -0.174254 0.073128775 0.07672419 -0.050895207
-0.029054523 -0.017244242 0.016127557 0.018575773 -0.05346325 0.010188616 0.089131385 -0.14612831
-0.112348236 0.055581957 -0.13028912 -0.1025314 -0.09547992 0.12445776 -0.11700378 0.080059625
-0.007335657 -0.21837658 -0.10619225 0.027001515 -0.0633187 0.10804704 -0.094288945 -0.11167556
-0.1575839 0.053789817 -0.056687765 0.041295927 0.08904679 0.02409361 0.12178557 -0.1000932
-0.04526846 -0.049863502 0.07169176 0.06309824 -0.115685195 -0.12218098 0.06294455 -0.048661605

bias f4 [64]
00000000: ad1c 58bd ff37 23be 7419 e9bd adf1 10be
00000010: 3ede d8bd ed5c bf3d c45f 853d 91f0 a83d
00000020: d561 4abe 519d ddbd 1071 3b3f f936 2f3f
00000030: f829 6cbe fa3f 0c3f 24e8 163e 92a6 01be
00000040: 7828 09be a58b d4bc 80bf 87be f389 efbc
00000050: 2b93 37be 7992 82be 1436 8ebd 2200 7cbc
00000060: 3c41 bbbd 4540 333f 71ed 63bc c738 ebbe
00000070: e927 30bd 8619 383f 3e24 22be 493d afbd
00000080: 7e24 0f3e abe3 4bbe 0fb8 2fbd 29d1 61be
00000090: 2c1e 88bd 907e 51bd ecb1 e83e 9880 4fbe
000000a0: f73f a9be edbc 46be be32 0cbe cdf0 f9bd
000000b0: 7e75 7bbe e23b 243f 6102 15be 71a6 e7bd
000000c0: 9f60 13be 237e 1dbe 41eb 363e 08cb 57be
000000d0: e2ec 11be 2261 213f 3df2 323f 0463 4ebd
000000e0: 0136 54bd 689d 9cbd ac25 1abe e247 ac3e
000000f0: 8065 babd aaa1 b6bc 7b79 58bb 5a86 bdbc
-0.052761722 -0.1593933 -0.11381808 -0.14154692 -0.10589264 0.09343896 0.065124065 0.082490094
-0.19763882 -0.10821021 0.73219395 0.68443257 -0.23062885 0.5478512 0.14736992 -0.12661198
-0.13394344 -0.025945494 -0.2651329 -0.029240584 -0.17927234 -0.25502375 -0.06943908 -0.015380891
-0.09143302 0.7001994 -0.013911591 -0.45941755 -0.04300681 0.71913946 -0.15834138 -0.08556611
0.13978764 -0.19911067 -0.04290014 -0.22052445 -0.0664638 -0.05114609 0.45448244 -0.20263898
-0.33056614 -0.19408007 -0.13691232 -0.12204132 -0.24556538 0.64153874 -0.14551689 -0.11311043
-0.14392327 -0.15380149 0.1786318 -0.21073544 -0.1425052 0.6303884 0.69900876 -0.050387397
-0.051809315 -0.0764721 -0.15053433 0.33648592 -0.09101391 -0.022293884 -0.0033031392 -0.023135353

weight f4 [1, 64]
00000000: 3ce0 a8bd fb02 c1bb ff32 5dbd 0bbe 2ebc
00000010: e88b d6bb 626b 293c 7aa9 7abe 566d e33c
00000020: bf12 b43c 6084 4fbd 46d0 923c 7280 1abd
00000030: c3fa 373c 6dc3 b7bd c581 f5bd 628e 653c
00000040: d062 8ebd 052b a4be 3ae1 60bc 91cc 673c
00000050: 905f 823d 0def d03d fd88 3abc bfe4 caba
00000060: a3ae acbb 5c9a 063e d3d4 a43b 3554 df3c
00000070: 054b db3c 7fcb f43c 2906 0fbe 690d 433d
00000080: e5ce 0ebd 906f a6ba cb8d 6ebb 2419 d0bd
00000090: 83bd efbd ce5c 99be f4ec 10bd 39e0 fdbc
000000a0: 7293 673e 5673 dabc b149 253c bee1 063c
000000b0: 15f8 acbd 0f90 a63d 363e 1fbd e483 67bd
000000c0: bacd cd3d 89de f13c d98b 883b 50f7 a2bd
000000d0: 46aa 87bc ea70 833d da99 993d dc2b c2bc
000000e0: d6b0 c6bc 0af3 22bc 8cb4 47be a34e 563d
000000f0: cff1 6f3d 5e5d b3bc 9713 8bbc d701 8e3c
-0.08245894 -0.005890248 -0.05400371 -0.010665427 -0.00654744 0.010340543 -0.24478713 0.027762096
0.021981595 -0.050663352 0.017921578 -0.03772015 0.01122922 -0.089728214 -0.11987642 0.0140109975
-0.06952441 -0.3206407 -0.013725573 0.0141478935 0.06365883 0.10201845 -0.0113852 -0.0015479549
-0.0052698418 0.13144821 0.0050302534 0.027261833 0.02676917 0.02988219 -0.13967194 0.04762021
-0.03486528 -0.0012698043 -0.0036400433 -0.10161045 -0.11706068 -0.29953617 -0.035382226 -0.030990707
0.2261484 -0.026666325 0.01008837 0.008232532 -0.084457554 0.08132946 -0.03887769 -0.056522265
0.10049005 0.029525058 0.0041670618 -0.07957327 -0.016560685 0.06418021 0.07500048 -0.023702554
-0.024254244 -0.00994564 -0.19502467 0.052321088 0.058580216 -0.021895107 -0.016977115 0.017334862
