mlartifacts/554351476986166068/4ff3641e50b0476588a029bf94e79b1f/artifacts/models/Model_dim64_layers5_experiment/r2_score0.11580992914942467_run25/data/model.pth (torch, 294728 bytes, 13 tensors)

weight f4 [64, 801]
-0.06511115 0.057674054 -0.07302965 -0.07992088 0.08521675 -0.06650696 0.022130106 -0.07965562
0.01671044 -0.029078139 0.08061747 0.08752517 -0.05231605 0.072985314 0.04372387 -0.086917244
0.029269584 0.04719481 0.025439296 -0.093863465 0.040565435 -0.028592624 -0.014777149 -0.011607777
0.028815825 -0.09433367 -0.08101581 0.053138807 -0.051711462 -0.07764275 -0.09170118 -0.054037128
-0.029899288 -0.04904285 -0.0713981 -0.052524116 0.021169988 -0.057387024 0.059445385 -0.034882594
0.066285014 -0.08735653 -0.050937995 0.073621586 -0.05720118 -0.055422843 -0.08382841 -0.055379763
0.07151292 0.044903137 -0.059230465 0.053027485 -0.07889824 -0.03301664 -0.050711878 0.07032935
0.051069617 0.07694793 -0.06667756 -0.0682055 0.081438944 -0.027252376 0.048592098 -0.070735365
0.058694217 0.081120625 0.031076137 -0.05420861 -0.05173906 0.055568755 -0.084095776 0.09179094
0.086058505 0.0665807 0.07964298 -0.047153346 -0.067139275 -0.048580963 -0.08022289 0.068154894
0.03834982 -0.030893644 0.050878037 0.06814385 0.026232317 -0.039588723 0.027556794 0.07172083
0.045556094 -0.049185444 0.09155289 -0.04270204 0.0670416 0.029247757 -0.054537624 0.09194452
0.04031892 -0.058879532 -0.02850426 -0.029365871 -0.040049035 0.06280666 0.046403166 -0.04577651
0.091239125 -0.022086896 -0.038223166 -0.051762 -0.09213544 -0.038894784 0.055500925 0.071266435
-0.059261195 -0.041991692 0.08991853 -0.0400396 0.047929227 -0.068231784 0.035934858 -0.042478405
-0.04056672 -0.06822927 -0.0604808 -0.032242566 0.08084616 -0.065967225 -0.036131293 -0.037056968
0.07615585 0.039084774 0.058575835 -0.04849339 -0.04677045 -0.041175835 -0.05437985 -0.04811164
0.082779415 -0.029552236 -0.06862571 0.042716376 0.08470698 -0.060162418 -0.073705465 0.10533263
-0.08022528 -0.002908207 0.048256736 0.07814952 0.055610776 -0.02814315 0.041292228 0.07214308
-0.06919645 -0.044324037 -0.06535551 0.06888375 0.06144945 -0.063040294 -0.03269057 -0.04531407
0.046439532 0.04882091 -0.054045897 0.023497207 0.04371001 0.07336986 -0.029728001 -0.065204725
0.091599286 -0.067396745 0.07139265 -0.07548145 -0.08608447 0.039215233 0.02715821 -0.035406813
-0.079500705 0.06854702 -0.03511172 0.097641945 0.08156281 -0.07701387 -0.087350875 -0.06956895
0.083622046 -0.026409503 -0.052233327 0.073922075 0.045084592 -0.029385785 0.025906779 0.054005977
-0.04913555 -0.07321144 -0.057459548 -0.053057402 0.08222935 0.07269552 -0.039285634 -0.04641468
-0.06779736 -0.09325217 -0.0363672 0.0812819 -0.064349376 0.035588242 -0.029917015 0.0555695
0.0694904 0.05297594 -0.064151205 -0.05203159 -0.06901616 0.04880126 -0.034607902 -0.06510897
-0.05691623 -0.027179798 -0.09634495 -0.07243863 -0.082992226 -0.028373832 0.04509843 0.046640124
-0.06809094 0.06369605 -0.088147074 -0.026311051 0.07951636 0.042874325 -0.07392838 -0.030443178
0.05349984 -0.06883282 0.08064365 -0.07175477 0.041920613 -0.029197931 -0.039435886 -0.059093043
0.051431324 -0.06686181 -0.07039845 0.028094335 0.033896454 0.08849636 -0.039552428 -0.08752496
-0.08455535 0.043414224 0.072528124 0.033350516 0.061759908 0.062342558 0.038869273 0.05568867
00000000: ff58 85bd a13b 6c3d 9290 95bd 8fad a3bd
00000010: 1f86 ae3d cd34 88bd 324a b53c 7c22 a3bd
00000020: 55e4 883c 4735 eebc c61a a53d 6540 b33d
00000030: 5b49 56bd 5379 953d cd17 333d ab01 b2bd
00000040: c4c6 ef3c 584f 413d 1266 d03c 7d3b c0bd
00000050: f127 263d 143b eabc db1b 72bc 8c2e 3ebc
00000060: 2a0f ec3c 0332 c1bd 9eeb a5bd 14a8 593d
00000070: 66cf 53bd 2a03 9fbd d4cd bbbd 0956 5dbd
00000080: 5aef f4bc 28e1 48bd 2b39 92bd 8723 57bd
00000090: af6c ad3c a80e 6bbd 017d 733d 0de1 0ebd
000000a0: 70c0 873d fbe7 b2bd 5ca4 50bd eac6 963d
000000b0: c94b 6abd 1003 63bd 3bae abbd e4d5 62bd
000000c0: 5e75 923d 5aec 373d a59b 72bd 5933 593d
000000d0: 6795 a1bd 753c 07bd 42b7 4fbd d608 903d
000000e0: 602e 513d e096 9d3d 3f8e 88bd 53af 8bbd
000000f0: 76c9 a63d 6040 dfbc 8208 473d b4dd 90bd
00000100: 5969 703d 9222 a63d 6293 fe3c d909 5ebd
00000110: 56ec 53bd 109c 633d 683a acbd e3fc bb3d
00000120: 713f b03d 765b 883d dc1b a33d de23 41bd
00000130: 5180 89bd d5fc 46bd e64b a4bd cb94 8b3d
00000140: b314 1d3d ab14 fdbc 7d65 503d 018f 8b3d
00000150: 28e5 d63c c927 22bd c9be e13c 5fe2 923d
00000160: 0799 3a3d ad76 49bd 1580 bb3d 56e8 2ebd
00000170: 1b4d 893d fe98 ef3c d862 5fbd 694d bc3d
00000180: 7425 253d aa2b 71bd c481 e9bc b290 f0bc
00000190: 750a 24bd c7a0 803d 3f11 3e3d 2680 3bbd
000001a0: 94db ba3d 94ef b4bc e58f 1cbd 6404 54bd
000001b0: 81b1 bcbd 2350 1fbd f054 633d 23f4 913d
000001c0: debb 72bd 7bff 2bbd 3527 b83d 9000 24bd
000001d0: 7051 443d 1bbd 8bbd 6e30 133d d6fd 2dbd
000001e0: 4a29 26bd cabb 8bbd b7ba 77bd c810 04bd
000001f0: ac92 a53d d319 87bd 68fe 13bd 0cc9 17bd
00000200: 99f7 9b3d 5b17 203d 37ed 6f3d 01a1 46bd
00000210: 5f92 3fbd fea7 28bd 68bd 5ebd b610 45bd
00000220: 4188 a93d 8817 f2bc a38b 8cbd 5ef7 2e3d
00000230: da7a ad3d de6c 76bd e4f2 96bd a2b8 d73d
00000240: 274d a4bd 9e97 3ebb dba8 453d db0c a03d
00000250: 20c8 633d 778c e6bc 0a22 293d c0bf 933d
00000260: deb6 8dbd 1f8d 35bd 1cd9 85bd ec12 8d3d
00000270: 6bb2 7b3d 451b 81bd 8ce6 05bd 3f9b 39bd
00000280: 6137 3e3d 6ff8 473d 3b5f 5dbd 377d c03c
00000290: 4409 333d f042 963d 2388 f3bc 0e8a 85bd
000002a0: 6898 bb3d 4e07 8abd 4f36 923d 0596 9abd
000002b0: 0e4d b0bd 27a0 203d e57a de3c bc06 11bd
000002c0: 44d1 a2bd 6162 8c3d 4fd1 0fbd 80f8 c73d
000002d0: 670a a73d 73b9 9dbd 04e5 b2bd 2a7a 8ebd
000002e0: 0942 ab3d be58 d8bc 9df2 55bd 7564 973d
000002f0: 9faa 383d 75ba f0bc 743a d43c 5f35 5d3d
00000300: 5c42 49bd e1ef 95bd b45a 6bbd b852 59bd
00000310: dd67 a83d 64e1 943d f9e9 20bd 521d 3ebd
00000320: 58d9 8abd fefa bebd c6f5 14bd 2077 a63d
00000330: 9bc9 83bd fac4 113d 8714 f5bc d89c 633d
00000340: fc50 8e3d 4dfd 583d b561 83bd 141f 55bd
00000350: 5858 8dbd d4e3 473d 04c1 0dbd da57 85bd
00000360: fe20 69bd 2ba8 debc 8050 c5bd b45a 94bd
00000370: d4f7 a9bd 3d70 e8bc 22b9 383d b709 3f3d
00000380: 4373 8bbd 1373 823d 7486 b4bd 468a d7bc
00000390: 79d9 a23d fd9c 2f3d c367 97bd f963 f9bc
000003a0: a622 5b3d 39f8 8cbd 7f28 a53d 2af4 92bd
000003b0: f3b4 2b3d 8030 efbc 8687 21bd 8c0b 72bd
000003c0: a7a9 523d d8ee 88bd 102d 90bd 1726 e63c
000003d0: 02d7 0a3d 943d b53d ba01 22bd 4940 b3bd
000003e0: 5b2b adbd 1dd3 313d a089 943d 8d9a 083d
000003f0: f5f7 7c3d e95a 7f3d 6335 1f3d ce19 643d

bias f4 [64]
-0.0935651 -0.054200735 -0.079793826 -0.06612338 -0.052548278 -0.0332128 -0.17462377 -0.091808535
-0.09397306 -0.063095324 -0.4257813 -0.055087637 -0.051559746 -0.086283945 -0.047993 -0.30518946
-0.10934009 -0.04108972 -0.09604994 -0.09476507 -0.26948613 -0.18206762 -0.060038652 -0.08283161
-0.09879107 0.81152123 -0.042291634 -0.26449856 -0.08201403 -0.03926678 -0.08290461 -0.17535478
-0.040200885 -0.10582603 -0.039138496 0.90033984 -0.08714799 -0.10803581 -0.028660327 -0.06687802
-0.030463776 -0.01357969 -0.3946997 -0.06726987 -0.08959959 -0.08667893 -0.08344836 -0.1897808
-0.056488864 -0.09252263 -0.045814153 -0.066289976 -0.067889795 -0.29904664 -0.06514709 -0.08851902
-0.057898816 -0.3033786 -0.08508515 -0.05236241 -0.083568275 -0.041501638 -0.08132408 -0.043898597
00000000: 0f9f bfbd 9701 5ebd f26a a3bd b26b 87bd
00000010: dd3c 57bd 250a 08bd 93d0 32be 1d06 bcbd
00000020: f374 c0bd 1f38 81bd 0200 dabe 93a3 61bd
00000030: 5030 53bd a3b5 b0bd 4f94 44bd cb41 9cbe
00000040: b2ed dfbd b24d 28bd d5b5 c4bd 3014 c2bd
00000050: 16fa 89be ef6f 3abe 17eb 75bd 9fa3 a9bd
00000060: f952 cabd dbbf 4f3f fe39 2dbd 5b6c 87be
00000070: f9f6 a7bd 34d6 20bd e4c9 a9bd 3490 33be
00000080: afa9 24bd 51bb d8bd b04f 20bd ac7c 663f
00000090: a57a b2bd e141 ddbd 10c9 eabc 58f7 88bd
000000a0: 2b8f f9bc 597d 5ebc 1416 cabe c9c4 89bd
000000b0: fd7f b7bd b984 b1bd f9e6 aabd e655 42be
000000c0: de60 67bd 817c bdbd 9fa7 3bbd 0ac3 87bd
000000d0: ce09 8bbd a41c 99be d66b 85bd 7649 b5bd
000000e0: 4f27 6dbd 7154 9bbe 2041 aebd f779 56bd
000000f0: d825 abbd 9ffd 29bd 3d8d a6bd 04cf 33bd

weight f4 [64, 64]
0.079435885 0.07213899 -0.14985968 -0.027527032 0.034243923 0.05264403 -0.05863692 -0.034558732
0.003954008 -0.11318016 -0.22054332 -0.020491675 -0.049379453 -0.06536429 -0.097606435 -0.12653449
-0.020030687 0.16903509 0.02662343 -0.081572846 0.05212042 0.015494231 0.01385562 0.018674303
-0.09750457 -0.0107559 0.08073747 -0.22562492 0.06579079 0.046051472 0.010828897 0.10439568
-0.065411866 0.021415614 -0.0040338486 0.0024190717 0.06575 -0.08289895 -0.07768239 -0.14895038
-0.008315533 0.028709495 -1.2456843 -0.16002741 -0.063217774 0.102068186 -0.08608577 0.11203846
-0.01751037 -0.07096192 -0.07594086 -0.049038067 0.050549787 -0.20594093 -0.17010008 -0.025081038
-0.11067687 -0.105263166 0.09297715 -0.1134509 -0.12174736 -0.034738287 -0.08003095 -0.015340108
0.034870178 -0.01813516 -0.015662462 -0.008453652 -0.116847545 -0.119375035 -0.03233578 0.10110429
0.10960393 0.068441376 -0.11265991 -0.025174305 -0.111240685 0.07577573 -0.010249808 0.0016525178
-0.09647186 0.07697019 -0.04823564 0.04963161 -0.11279298 -0.013967264 -0.09993413 0.070618644
-0.064772636 -0.21371354 0.118093535 -0.096114606 0.07733789 0.014999613 0.05815713 -0.112248614
0.11473781 0.08323318 0.017298162 -0.049826518 0.040110946 -0.074756965 0.06865634 -0.05216638
-0.07027519 0.14432123 -0.1345203 0.014383711 -0.087126106 0.11643633 -0.015639246 -0.21073571
0.0057439655 0.09367262 -0.10997599 -0.069658756 0.056017503 -0.09193156 0.011030391 -0.10946968
-0.017605945 0.076519385 0.057397023 -0.10571177 -0.11361611 0.07512097 0.09214525 -0.0023833364
-0.022121146 -0.17954995 0.12448029 -0.06787151 -0.16568631 0.0893213 0.043449387 -0.15623753
-0.024389684 -0.06565432 -0.0034532025 -0.044604614 -0.032986328 -0.07621804 -0.098838285 -0.06187976
0.046680212 0.010570213 0.12115431 0.041309748 0.01776202 -0.14898397 -0.1322897 0.05169331
-0.09973459 -0.70579344 0.002848491 -0.093562625 0.0132228285 0.07242173 0.015208513 0.13343403
0.078048036 -0.060313903 -0.055081204 -0.41681534 0.06430346 -0.10519685 -0.0591788 0.03012334
0.1218735 -0.0014358815 -0.22263545 -0.14731169 0.101985484 -0.013862401 -0.016832277 0.23418982
-0.091064185 -0.017991424 0.08063041 0.10105196 -0.10445391 0.027771771 -0.054226793 -0.09773271
-0.08710629 0.03423868 0.070751384 -0.14303373 0.049785063 -0.10848558 -0.011316359 0.04648289
0.045745276 -0.0941288 -0.12422539 0.13613892 0.025648227 -0.021355433 0.023183044 -0.021584103
0.045531366 0.08266595 0.36735883 -0.02321722 -0.040407345 0.019642927 -0.02265829 0.016069105
0.026904231 -0.02526917 -0.0107256565 0.10318716 0.07821321 -0.03780283 0.087801985 -0.04829013
0.177688 -0.17229822 0.122303784 -0.13227789 -0.021922879 -0.031007504 -0.046721622 -0.13616721
-0.14942232 -0.12982562 0.048731625 -0.39897764 0.034044582 -0.003203718 -0.12271134 -0.029505415
0.05823342 0.022173617 -0.043231145 0.14384922 -0.030593848 0.07620355 0.050926045 -0.20522161
0.11084046 -0.083623655 0.08891037 -0.049370896 -0.06281017 -0.08620395 -0.010174142 -0.010333729
0.03148094 0.06637001 0.065977536 -0.14128414 0.042835385 0.07286132 0.045784455 -0.1499675
00000000: 48af a23d 9bbd 933d d174 19be 5f80 e1bc
00000010: 5b43 0c3d 44a1 573d 442d 70bd 758d 0dbd
00000020: a090 813b 00cb e7bd 1cd6 61be 28de a7bc
00000030: 1c42 4abd b6dd 85bd e2e5 c7bd 4292 01be
00000040: 6517 a4bc 8917 2d3e 6119 da3c aa0f a7bd
00000050: 397c 553d 84db 7d3c af02 633c dafa 983c
00000060: 7ab0 c7bd 8439 30bc b059 a53d 380a 67be
00000070: 52bd 863d 78a0 3c3d b06b 313c 67cd d53d
00000080: a8f6 85bd cc6f af3c 602e 84bb 4a89 1e3b
00000090: f0a7 863d edc6 a9bd f217 9fbd 7386 18be
000000a0: e03d 08bc 2d30 eb3c 9572 9fbf 3ade 23be
000000b0: 5278 81bd 2009 d13d bc4d b0bd 6c74 e53d
000000c0: e871 8fbc 7c54 91bd e286 9bbd 24dc 48bd
000000d0: 4b0d 4f3d 2ee2 52be b72e 2ebe c076 cdbc
000000e0: 8eaa e2bd 3794 d7bd ce6a be3d f258 e8bd
000000f0: ae56 f9bd bc49 0ebd 44e7 a3bd 1455 7bbc
00000100: 08d4 0e3d 3090 94bc 904e 80bc 3081 0abc
00000110: c44d efbd e67a f4bd 8672 04bd c40f cf3d
00000120: 0678 e03d fe2a 8c3d 3dba e6bd 583a cebc
00000130: 28d2 e3bd 4e30 9b3d d0ee 27bc 4c99 d83a
00000140: 0a93 c5bd 8ca2 9d3d bc92 45bd 844a 4b3d
00000150: 0200 e7bd f4d6 64bc 44aa ccbd 82a0 903d
00000160: 84a7 84bd b9d7 5abe 06db f13d bcd7 c4bd
00000170: 5463 9e3d f0c0 753c 2c36 6e3d 9ae2 e5bd
00000180: a8fb ea3d 2876 aa3d e0b4 8d3c e416 4cbd
00000190: 604b 243d 2e1a 99bd b29b 8c3d 6aac 55bd
000001a0: 70ec 8fbd f2c8 133e b1bf 09be a8a9 6b3c
000001b0: 2c6f b2bd 2c76 ee3d e01d 80bc 1acb 57be
000001c0: e037 bc3b 6ed7 bf3d 183b e1bd 40a9 8ebd
000001d0: 9c72 653d 9d46 bcbd d0b8 343c a431 e0bd
000001e0: 583a 90bc 32b6 9c3d 2419 6b3d 6a7f d8bd
000001f0: 90af e8bd 06d9 993d a6b6 bc3d c031 1cbb
00000200: 6837 b5bc f1db 37be 86ef fe3d 3800 8bbd
00000210: aca9 29be 16ee b63d fcf7 313d bbfc 1fbe
00000220: e0cc c7bc c675 86bd 204f 62bb 54b3 36bd
00000230: ac1c 07bd 3418 9cbd ba6b cabd a275 7dbd
00000240: c033 3f3d b02e 2d3c c01f f83d 6934 293d
00000250: a881 913c 418f 18be f376 07be 5dbc 533d
00000260: a641 ccbd e1ae 34bf c0ad 3a3b c39d bfbd
00000270: 90a4 583c d851 943d 202d 793c eea2 083e
00000280: a6d7 9f3d b60b 77bd d49c 61bd d268 d5be
00000290: 88b1 833d 7271 d7bd 7865 72bd 39c5 f63c
000002a0: d098 f93d 3034 bcba 8cfa 63be e0d8 16be
000002b0: c4dd d03d 201f 63bc d8e3 89bc 75cf 6f3e
000002c0: dc7f babd c062 93bc 8e21 a53d 54f4 ce3d
000002d0: eeeb d5bd a081 e33c ea1c 5ebd 1628 c8bd
000002e0: c864 b2bd dc3d 0c3d 1ae6 903d 6f77 12be
000002f0: 6ceb 4b3d b02d debd 4068 39bc d864 3e3d
00000300: 665f 3b3d 9ac6 c0bd e269 febd 0068 0b3e
00000310: 3b1c d23c 97f1 aebc 5eea bd3c 25d1 b0bc
00000320: 197f 3a3d c44c a93d 7516 bc3e 0a32 bebc
00000330: 2c82 25bd 34ea a03c e19d b9bc 5ba3 833c
00000340: 4366 dc3c 4a01 cfbc aaba 2fbc ca53 d33d
00000350: 3f2e a03d 24d7 1abd 87d1 b33d dfcb 45bd
00000360: d8f3 353e f26e 30be 687a fa3d db73 07be
00000370: 9c97 b3bc 7303 febc 2c5f 3fbd 6b6f 0bbe
00000380: 2a02 19be 02f1 04be d09a 473d cc46 ccbe
00000390: 5572 0b3d 78f5 51bb 1550 fbbd 57b5 f1bc
000003a0: 2b86 6e3d 72a5 b53c 2413 31bd 364d 133e
000003b0: f39f fabc 9b10 9c3d d497 503d 9d25 52be
000003c0: 5300 e33d e142 abbd a416 b63d 2339 4abd
000003d0: 9ea2 80bd b28b b0bd 72b1 26bc cd4e 29bc
000003e0: 28f2 003d 00ed 873d 3b1f 873d caac 10be
000003f0: 2874 2f3d 5138 953d 7b88 3b3d 1591 19be

bias f4 [64]
-0.33195877 -0.09063457 -0.02079524 -0.11372897 -0.11433765 -0.043318838 -0.16260864 -0.37039915
-0.080185644 -0.27529198 -0.046338174 -0.3824795 -0.34135798 -0.16815217 -0.20922825 0.1193224
-0.288279 -0.2881159 -0.020288032 -0.33219317 -0.14311655 -0.33652785 -0.025755133 -0.18541384
-0.18484792 -0.059430048 -0.33630174 -0.27180132 -0.13049734 -0.05150136 -1.8992224 -0.6314512
-0.41100127 -0.3978992 -0.07958173 -0.16369517 -0.14943586 -0.20594698 -0.11205081 -0.05134384
-0.16948332 -0.13420255 -0.008517294 -0.32956037 -0.19749235 -0.5511803 0.11206204 -0.031174008
-0.2357669 -0.6691882 -0.19475774 -0.49916986 -0.11462154 -0.25207323 -0.33780208 -0.13570027
-0.27064773 -0.2899889 -0.3205931 0.6225354 -0.74590087 -0.22183353 -0.014649065 -0.082400985
00000000: 80f6 a9be 9e9e b9bd c75a aabc bcea e8bd
00000010: dc29 eabd 186f 31bd e182 26be f5a4 bdbe
00000020: 5f38 a4bd 12f3 8cbe 19cd 3dbd 5ad4 c3be
00000030: 79c6 aebe 1530 2cbe ee3f 56be 4d5f f43d
00000040: 4e99 93be ed83 93be 1633 a6bc 3915 aabe
00000050: 258d 12be 614d acbe 6efc d2bc 20dd 3dbe
00000060: c648 3dbe ec6c 73bd be2f acbe 8b29 8bbe
00000070: 18a1 05be 17f3 52bd b819 f3bf c9a6 21bf
00000080: c26e d2be 72b9 cbbe bffb a2bd b59f 27be
00000090: b705 19be c4e3 52be e57a e5bd eb4d 52bd
000000a0: 098d 2dbe 656c 09be 1f8c 0bbc 23bc a8be
000000b0: 6f3b 4abe 271a 0dbf c880 e53d a260 ffbc
000000c0: e16c 71be eb4f 2bbf 936e 47be 3193 ffbe
000000d0: b3be eabd be0f 81be 65f4 acbe 03f5 0abe
000000e0: 5792 8abe 6d79 94be c724 a4be 7b5e 1f3f
000000f0: 5cf3 3ebf 5428 63be a202 70bc d9c1 a8bd

weight f4 [64, 64]
-0.07993644 -0.10344687 0.03418556 -0.08035297 -0.024653383 0.044972286 0.061225183 -0.020203292
-0.16106167 -0.066779606 0.036806304 -0.08209099 0.037714437 -0.0907346 0.10529637 -0.20420742
-0.10612995 -0.05849147 0.027121814 -0.12205951 -0.027685542 -0.09251694 0.0503849 0.11547375
-0.19337304 -0.02427341 0.011000742 -0.063755535 0.03139949 -0.093691215 -0.18296154 -0.16615766
-0.079952784 -0.040412605 -0.062726 -0.0808917 0.01653723 0.014597022 0.04481998 -0.14947982
-0.13192843 0.044913705 -0.021056443 -0.043839008 0.010364756 -0.018795207 -0.1684696 -0.1380783
-0.058495477 -0.0825891 -0.0788899 -0.12084043 -0.07329663 -0.15904926 -0.083536126 0.09089929
0.047084633 0.07190569 -0.17161267 -0.03881954 -0.021111697 -0.09921995 -0.10314083 -0.0062380186
-0.24989688 0.0069277976 -0.048726927 0.098199666 -0.033067316 -0.07667954 0.16819228 0.08788279
-0.10146602 0.017630907 -0.086792246 -0.64391196 0.20988223 -0.19796942 0.16273804 -0.18498419
-0.0109741315 0.14101925 -0.01126237 -0.16040444 0.049764562 -0.19757548 0.28944993 -0.12315689
-0.33641142 0.1200102 -0.24666345 0.29173732 0.12612776 0.04848182 -0.11502599 -0.18187442
0.021165796 0.016068524 -0.018205734 0.13186517 -0.02697088 0.24684194 0.10108606 0.04287321
-0.13170262 0.06650045 -0.0047457977 0.064037815 -0.47370133 0.04062526 -0.33428863 -0.02310577
0.0053975736 -0.18717629 -0.11652958 0.22230738 0.18703358 0.16233999 0.16051583 -0.036808193
0.23981409 -0.029696656 -0.1076426 -0.39874756 -0.37000886 -0.2324319 0.06199735 -0.17691776
-0.06737575 -0.14499143 -0.14669177 0.062044892 0.09889902 0.033383593 0.11982731 0.0009221315
0.10522233 -0.012475389 -0.34151062 -0.21833281 -0.17382789 0.030995514 0.068948925 0.0020386982
-0.11302791 -0.024467893 -0.057299145 -0.19917814 -0.009960598 0.08266869 -0.037348613 -0.2730879
-0.043528285 0.009937794 -0.4001073 -0.02791369 0.04246087 -0.041393995 -0.123402506 -0.17765863
-0.07194062 -0.22092573 -0.1496874 -0.19462052 -0.072694995 -0.032131735 0.06884371 0.051493797
-0.13408652 -0.09738137 0.06320878 -0.13917972 0.012148165 0.08962828 -0.15108031 -0.08864296
-0.062299404 -0.2262395 0.012156197 -0.303183 0.104510814 0.032734137 -0.13636407 0.027930599
0.055509135 -0.16374408 0.00016460058 -0.2737348 0.07680389 -0.18099867 0.0796648 -0.15821324
-0.5519999 0.010026262 -0.3518368 -0.08357797 0.08505465 -0.17365085 -0.14566551 0.10750173
-0.09500087 -0.13588144 -0.15463 -0.6160536 -0.08251825 -0.05614516 -0.037566945 -0.41086984
-0.15290292 -0.009893507 -0.069688246 0.066828504 -0.020253353 -0.044637598 0.00603661 0.09752989
-0.13465697 -0.009576074 -0.061222292 -0.15109833 -0.16331871 -0.14642432 -0.14032704 -0.07770956
-0.2531786 -0.037200134 0.011496514 -0.17126538 0.002976178 0.043873563 0.013299535 0.03194035
-0.14956701 -0.10687058 -0.015751809 -0.07646571 -0.0023312122 0.1650498 -0.46694237 -0.102280624
0.0151241915 0.015987217 -0.05236024 -0.11109945 0.022187622 -0.06366931 -0.03169541 -0.008950427
0.0013056993 -0.07705425 -0.11750155 -0.49110597 -0.2591395 -0.38783452 0.14029086 -0.38315308
00000000: b7b5 a3bd f4db d3bd 2806 0c3d 1990 a4bd
00000010: e4f5 c9bc dc34 383d 42c7 7a3d 6081 a5bc
00000020: 5aed 24be bfc3 88bd 35c2 163d 521f a8bd
00000030: 747a 1a3d 10d3 b9bd a0a5 d73d c01b 51be
00000040: a95a d9bd c094 6fbd 912e de3c 56fa f9bd
00000050: cacc e2bc 8579 bdbd 6660 4e3d 807d ec3d
00000060: 9503 46be 08d9 c6bc 753c 343c 4392 82bd
00000070: c09c 003d 2ee1 bfbd 455a 3bbe 3c25 2abe
00000080: 49be a3bd b087 25bd 7d76 80bd 8caa a5bd
00000090: 1679 873c 5928 6f3c 2895 373d 3d11 19be
000000a0: 3f18 07be 6ff7 373d 907e acbc 8890 33bd
000000b0: f0d0 293c 68f8 99bc 4b83 2cbe 6664 0dbe
000000c0: f498 6fbd 7924 a9bd 0791 a1bd 307b f7bd
000000d0: 8b1c 96bd cfdd 22be fd14 abbd 6829 ba3d
000000e0: d1db 403d 4a43 933d 3bbb 2fbe 3d01 1fbd
000000f0: 70f2 acbc d433 cbbd 803b d3bd 4b68 ccbb
00000100: f8e4 7fbe 9402 e33b e395 47bd e81c c93d
00000110: 9871 07bd 2a0a 9dbd 993a 2c3e e4fb b33d
00000120: 6bcd cfbd b16e 903c 22c0 b1bd 6ad7 24bf
00000130: 5eeb 563e 7fb8 4abe cda4 263e 7f6c 3dbe
00000140: d8cc 33bc 5a67 103e ce85 38bc 1041 24be
00000150: edd5 4b3d 3a51 4abe c832 943e ae39 fcbd
00000160: 1e3e acbe e8c7 f53d 5895 7cbe 985e 953e
00000170: a327 013e df94 463d bf92 ebbd 4a3d 3abe
00000180: e463 ad3c 23a2 833c 3124 95bc aa07 073e
00000190: 09f2 dcbc 22c4 7c3e 3506 cf3d d29b 2f3d
000001a0: 0ddd 06be 6331 883d a382 9bbb 4226 833d
000001b0: fb88 f2be ac66 263d e127 abbe 5048 bdbc
000001c0: 21de b03b 24ab 3fbe 0fa7 eebd 8ca4 633e
000001d0: bb85 3f3e 743c 263e 435e 243e 30c4 16bd
000001e0: d391 753e 6746 f3bc b973 dcbd a428 ccbe
000001f0: cd71 bdbe a102 6ebe eff0 7d3d ee29 35be
00000200: 4cfc 89bd a278 14be 5e36 16be c922 7e3d
00000210: 928b ca3d 3cbd 083d 0568 f53d 33bb 713a
00000220: ce7e d73d 9365 4cbc 7bda aebe a392 5fbe
00000230: f0ff 31be 4eea fd3c 1835 8d3d ae9b 053b
00000240: 2d7b e7bd e470 c8bc 82b2 6abd 5bf5 4bbe
00000250: c731 23bc 344e a93d dcfa 18bd 2dd2 8bbe
00000260: b74a 32bd 21d2 223c ddda ccbe 40ab e4bc
00000270: 73eb 2d3d c08c 29bd 74ba fcbd 25ec 35be
00000280: 9b55 93bd 5b3a 62be a747 19be 9a4a 47be
00000290: 1de1 94bd 919c 03bd eefd 8c3d 29eb 523d
000002a0: fa4d 09be e26f c7bd 9b73 813d 2185 0ebe
000002b0: 1909 473c 088f b73d ccb4 1abe 718a b5bd
000002c0: a92d 7fbd 54ab 67be c92a 473c cd3a 9bbe
000002d0: c409 d63d 3b14 063d 06a3 0bbe b6ce e43c
000002e0: 8c5d 633d 87ac 27be a298 2c39 f826 8cbe
000002f0: 5c4b 9d3d b757 39be 4c27 a33d a702 22be
00000300: de4f 0dbf 3145 243c f423 b4be ed2a abbd
00000310: 2231 ae3d 87d1 31be 5729 15be de29 dc3d
00000320: d18f c2bd 8124 0bbe 5457 1ebe b0b5 1dbf
00000330: 54ff a8bd 78f8 65bd ccdf 19bd 885d d2be
00000340: 9592 1cbe 6018 22bc b6b8 8ebd 62dd 883d
00000350: 5cea a5bc ead5 36bd c1ce c53b c0bd c73d
00000360: 84e3 09be f7e4 1cbc 3ac4 7abd 85b9 1abe
00000370: 053d 27be 42f0 15be e4b1 0fbe 3126 9fbd
00000380: a0a0 81be 2b5f 18bd e05b 3c3c 3160 2fbe
00000390: fb0b 433b c4b4 333d 4be6 593c e2d3 023d
000003a0: 1828 19be f6de dabd f009 81bc 0e9a 9cbd
000003b0: 40c7 18bb d102 293e 1213 efbe 8178 d1bd
000003c0: 75cb 773c a0f7 823c b177 56bd 1c88 e3bd
000003d0: d1c2 b53c 0e65 82bd 0cd3 01bd d0a4 12bc
000003e0: 0024 ab3a 9ece 9dbd a7a4 f0bd 3e72 fbbe
000003f0: efad 84be 3f92 c6be 68a8 0f3e a42c c4be

bias f4 [64]
-0.13841239 -0.07970454 -0.21601948 -0.14797443 -0.26545486 -0.08863375 -0.13274933 -0.24010076
-0.51371825 -0.17837669 -0.37802795 -0.10946963 -0.49742147 -0.99539495 -0.056244344 -0.29324383
-0.2806533 -0.0651389 -0.05304471 -0.19467987 -0.09501172 -0.18601727 -0.17031594 0.0011753616
-0.013550612 -0.37011993 -0.18308724 -0.39578873 -0.30375415 -0.30463728 -0.05156987 -0.053956278
-0.09885472 -0.054605458 -0.39027965 -0.1411808 -0.20405038 -0.03506454 -0.16440901 0.031061929
-0.30468813 -0.06642772 -0.10264654 -0.045203377 -0.15411936 -0.1439935 -0.303921 -0.14871396
-0.46800566 0.15173295 -0.14135142 -0.070782535 -0.3144794 -0.4167045 -0.15886515 -0.13915986
-0.54413694 0.18580821 -0.17910185 -0.23459943 -0.25038278 -0.5518177 -0.6554333 -0.27439243
00000000: fabb 0dbe 223c a3bd 3634 5dbe 9c86 17be
00000010: b3e9 87be 9d85 b5bd 71ef 07be f9dc 75be
00000020: 0a83 03bf 61a8 36be e18c c1be 9d31 e0bd
00000030: 07ae febe 34d2 7ebf 7860 66bd 0e24 96be
00000040: cab1 8fbe 8b67 85bd 6945 59bd 295a 47be
00000050: 8195 c2bd 507b 3ebe 4d67 2ebe 970e 9a3a
00000060: 6303 5ebc 5c80 bdbe 397b 3bbe d2a4 cabe
00000070: aa85 9bbe 6bf9 9bbe ee3a 53bd 4201 5dbd
00000080: 5874 cabd f9a9 5fbd bcd2 c7be b391 10be
00000090: 95f2 50be d69f 0fbd d65a 28be 9675 fe3c
000000a0: 1500 9cbe 420b 88bd 5938 d2bd 2d27 39bd
000000b0: 77d1 1dbe 0873 13be 899b 9bbe 7948 18be
000000c0: 709e efbe e25f 1b3e 6dbe 10be 6ff6 90bd
000000d0: 7203 a1be 4b5a d5be 8cad 22be ec7f 0ebe
000000e0: 8f4c 0bbf 8244 3e3e 7a66 37be d53a 70be
000000f0: 2c32 80be ed43 0dbf 7aca 27bf 2a7d 8cbe

weight f4 [64, 64]
0.022819385 -0.21824324 0.055754185 -0.10761978 0.0032440424 0.09104012 -0.18781266 -0.056195606
-0.13485913 0.060169563 -0.04416487 0.15720534 0.021731773 -0.03441325 -0.099382766 -0.113239594
-0.16075876 -0.033195496 -0.06862292 0.104915515 0.062308878 -0.024223283 -0.05733332 -0.0944799
0.0073734224 0.023302207 -0.08143991 -0.043174792 -0.0100687 -0.10167454 0.011429026 0.07942091
-0.09741283 -0.00040523228 -0.08339669 -0.010609242 0.056427754 -0.009861066 -0.03002204 -0.22107115
-0.16398177 0.11591095 -0.09583591 -0.11697257 0.0149111 0.012694188 0.028247098 0.07226973
-0.038225517 -0.10858716 -0.028974546 -0.050237842 -0.2613494 -0.026534867 0.06503503 -0.10103877
-0.18474549 -0.027382806 0.10308707 0.047728017 -0.008654177 0.0014325082 0.037306625 -0.076434515
-0.021761214 -0.19711666 0.026595334 -0.033087954 -0.13991041 -0.18661682 0.41225785 -0.028121917
-0.314755 -0.029289309 -0.051507886 0.11429663 0.2602034 -0.1304732 0.037098926 -0.08058744
0.0030116264 -0.16714555 0.045700338 -0.054489486 0.010968654 -0.0070664273 0.15176003 -0.016065689
0.107052684 0.023014665 0.13624497 0.39401165 -0.06465484 -0.047255654 -0.14411429 0.12609138
-0.070903696 -0.07285709 0.05532296 -0.04261695 -0.011742978 0.056105662 0.03259802 -0.14319865
0.06500271 -0.03972487 -0.022161176 -0.29730654 0.110830806 -0.022074267 -0.18884885 -0.046165597
0.26415956 0.14496975 -0.023195654 -0.19299316 0.2454323 0.16891101 -0.06936635 -0.019770116
0.23509106 -0.106146395 0.3974301 0.051435832 0.38685104 0.048220377 0.0036390498 -0.18744785
0.117136 0.043067172 -0.11634615 0.0010699779 0.008891523 0.011785254 -0.11817022 -0.11806606
-0.4297014 0.021739528 -0.07521044 0.10844459 0.048120126 -0.063838355 -0.08936528 -0.048951246
-0.10584855 -0.2064562 0.036341652 -0.0049452484 -0.06399828 0.05861846 0.12177102 -0.069906384
-0.015118226 -0.07988866 0.1044106 -0.17743012 -0.061287776 -0.10048552 0.042757094 0.016761333
-0.1347688 -0.006780803 -0.01231055 0.040242314 0.12190369 0.03054005 -0.035102278 -0.36436275
-0.08036198 -0.022117198 -0.004706174 -0.078665346 -0.020074233 0.07759687 -0.0446862 -0.06781593
-0.007638812 0.074027136 0.033559173 -0.096894994 0.0029949099 -0.115161546 0.114744365 -0.049896553
0.01443775 -0.2637542 -0.119236395 -0.086339444 -0.06672521 -0.04142511 -0.015567839 -0.08785339
-0.012218025 -0.060703535 -0.049013402 -0.11572422 -0.20362349 0.008046663 -0.265896 0.11264544
-0.23952933 -0.11923664 -0.0030215576 0.024224421 0.017362775 -0.034523524 -0.14637342 -0.07477091
-0.061145727 -0.043229837 -0.081212774 -0.034864277 -0.072442174 -0.1723963 0.15038484 -0.10369578
-0.06180244 -0.062967524 -0.08986208 -0.15591209 0.0736666 -0.10119379 -0.029513711 -0.14413601
-0.059773974 -0.16235511 -0.02685604 0.023860907 -0.03193125 0.023666732 -0.05501817 -0.20864382
-0.035564065 0.019627744 0.16267014 -0.0736883 0.060815703 -0.0763628 -0.060544327 -0.060157374
-0.14713901 -0.1439194 -0.1462652 -0.11737339 -0.12642595 -0.13957974 -0.060585774 -0.01662612
-0.12892736 0.015574758 -0.11915917 0.051340282 0.017604679 0.027088216 0.034545258 0.0026101856
00000000: b8ef ba3c 287b 5fbe 805e 643d c267 dcbd
00000010: 009a 543b 3e73 ba3d f651 40be 5d2d 66bd
00000020: 8318 0abe 5c74 763d 39e6 34bd 70fa 203e
00000030: d506 b23c e8f4 0cbd 3189 cbbd 29ea e7bd
00000040: f29d 24be 00f8 07bd 2c8a 8cbd f2dd d63d
00000050: 9837 7f3d e86f c6bc 58d6 6abd ae7e c1bd
00000060: c09c f13b 45e4 be3c f8c9 a6bd 0dd8 30bd
00000070: 30f7 24bc be3a d0bd cf40 3b3c 6ea7 a23d
00000080: 6180 c7bd 5b75 d4b9 e2cb aabd 63d2 2dbc
00000090: ca20 673d 4f90 21bc c8f0 f5bc 7a60 62be
000000a0: d6ea 27be b862 ed3d 9e45 c4bd 518f efbd
000000b0: b04d 743c 49fb 4f3c 7566 e73c 2702 943d
000000c0: 5c92 1cbd f262 debd 075c edbc 32c6 4dbd
000000d0: 97cf 85be a65f d9bc 1631 853d 6aed cebd
000000e0: ec2d 3dbe e851 e0bc 501f d33d 747e 433d
000000f0: 40ca 0dbc 00c3 bb3a d5ce 183d b389 9cbd
00000100: 9344 b2bc f3d8 49be 75de d93c 3c87 07bd
00000110: ad44 0fbe 7b18 3fbe 7613 d33e ef5f e6bc
00000120: 9127 a1be 22f0 efbc eff9 52bd 5a14 ea3d
00000130: 6139 853e c49a 05be 0bf5 173d 070b a5bd
00000140: b55e 453b 3428 2bbe 4730 3b3d 5e30 5fbd
00000150: dfb5 333c 7d8d e7bb fb66 1b3e 319c 83bc
00000160: 703e db3d 4089 bc3c cd83 0b3e e5bb c93e
00000170: c269 84bd 258f 41bd b292 13be 191e 013e
00000180: f535 91bd 1936 95bd 549a 623d 1c8f 2ebd
00000190: 9f65 40bc 0dcf 653d 8085 053d aba2 12be
000001a0: 2420 853d 8cb6 22bd 5b8b b5bc 9038 98be
000001b0: 43fb e23d 18d5 b4bc 9861 41be 2318 3dbd
000001c0: ec3f 873e f372 143e d004 bebc 00a0 45be
000001d0: 9b52 7b3e 02f7 2c3e f20f 8ebd f0f4 a1bc
000001e0: b6bb 703e 4863 d9bd f57b cb3e 61ae 523d
000001f0: 5711 c63e bb82 453d 207d 6e3b 54f2 3fbe
00000200: 00e5 ef3d 3467 303d e446 eebd 803e 8c3a
00000210: c0ad 113c f016 413c 3a03 f2bd 9ecc f1bd
00000220: d201 dcbe 1817 b23c ee07 9abd 3218 de3d
00000230: 9c19 453d afbd 82bd 2505 b7bd 1a81 48bd
00000240: 20c7 d8bd 4169 53be fcda 143d c00b a2bb
00000250: 8811 83bd e919 703d 1663 f93d 142b 8fbd
00000260: 70b2 77bc aa9c a3bd 3ad5 d53d 3eb0 35be
00000270: e408 7bbd 5acb cdbd 1022 2f3d 104f 893c
00000280: d500 0abe 8031 debb 30b2 49bc 20d5 243d
00000290: a4a8 f93d 202f fa3c 68c7 0fbd c18d babe
000002a0: d294 a4bd 202f b5bc 4036 9abb 4c1b a1bd
000002b0: b872 a4bc 1ceb 9e3d e008 37bd 14e3 8abd
000002c0: 004f fabb 8a9b 973d 5875 093d e270 c6bd
000002d0: 4046 443b d1d9 ebbd 18ff ea3d 5460 4cbd
000002e0: 508c 6c3c ca0a 87be 3632 f4bd bcd2 b0bd
000002f0: 3aa7 88bd 60ad 29bd 4010 7fbc 7aec b3bd
00000300: 1c2e 48bc 45a4 78bd 47c2 48bd d200 edbd
00000310: ad82 50be 27d6 033c 8523 88be a7b2 e63d
00000320: 2d47 75be 5732 f4bd 5305 46bb 4b72 c63c
00000330: 613c 8e3c 8a68 0dbd eae2 15be 7e21 99bd
00000340: f173 7abd c511 31bd e252 a6bd d8cd 0ebd
00000350: 905c 94bd a888 30be 7cfe 193e 745e d4bd
00000360: 8e24 7dbd 1ef5 80bd 9c09 b8bd 6ba7 1fbe
00000370: 84de 963d b13e cfbd bdc6 f1bc 6498 13be
00000380: 8ed5 74bd 6b40 26be 3301 dcbc f377 c33c
00000390: 58ca 02bd bce0 c13c bc5a 61bd baa6 55be
000003a0: a0ab 11bd 5dca a03c 0093 263e e4e9 96bd
000003b0: e319 793d 1a64 9cbd 54fd 77bd 9467 76bd
000003c0: 9cab 16be 9b5f 13be 8bc6 15be 7661 f0bd
000003d0: ce75 01be feed 0ebe ca28 78bd 8033 88bc
000003e0: 8905 04be 452d 7f3c b909 f4bd 304a 523d
000003f0: b037 903c 1be8 dd3c 547f 0d3d a60f 2b3b

bias f4 [64]
-0.14922309 -0.26539877 -0.5461735 -0.14184989 -0.07117067 -0.41148934 -0.78154486 -0.20016529
-0.22782594 -0.43795583 -0.5457006 -0.26589453 -0.065191075 -0.08572666 -0.071438834 -0.45758796
-0.38148767 -0.038191117 -0.4520843 -0.54032665 -0.18708283 -0.5315219 -0.30140778 -0.4405392
-0.44459346 -0.46994624 0.17335032 -0.7578495 -0.04148027 -0.34307083 -0.1640477 -0.07849204
-0.19573568 -0.32937968 -1.1423051 -0.29256997 -0.41026556 -0.4375939 -0.24165964 -0.70063287
-0.28560847 -0.15415043 -0.59669405 -0.62231874 -0.48474792 -0.34307787 -0.4988022 -0.18139552
-0.074951135 -0.25965974 -0.3273072 -0.18118913 -0.31646916 -0.31001127 -0.8966727 -0.7435081
-0.56795245 -0.11518915 -0.4224352 -0.29631633 -0.17208779 -0.17422514 -0.28309643 -0.058653172
00000000: f0cd 18be 59e2 87be 07d2 0bbf 1941 11be
00000010: eec1 91bd bbae d2be 5313 48bf 21f8 4cbe
00000020: 344b 69be bf3b e0be 09b3 0bbf 5423 88be
00000030: e682 85bd 7691 afbd 864e 92bd f848 eabe
00000040: 5a52 c3be 4a6e 1cbd 9877 e7be d952 0abf
00000050: a492 3fbe d211 08bf 1f52 9abe 5b8e e1be
00000060: c1a1 e3be cb9c f0be bf82 313e 6d02 42bf
00000070: 37e7 29bd fba6 afbe 1ffc 27be 6fc0 a0bd
00000080: ef6e 48be 74a4 a8be 0e37 92bf bbcb 95be
00000090: 540e d2be 4f0c e0be a075 77be ad5c 33bf
000000a0: 463b 92be 9cd9 1dbe f1c0 18bf 4850 1fbf
000000b0: e130 f8be e7a7 afbe 0163 ffbe bfbf 39be
000000c0: fb7f 99bd 1ff2 84be cf94 a7be a589 39be
000000d0: 3f08 a2be ccb9 9ebe 588c 65bf 8c56 3ebf
000000e0: 5565 11bf 4ae8 ebbd 6d49 d8be c6b6 97be
000000f0: c837 30be 1368 32be 04f2 90be 4f3e 70bd

weight f4 [64, 64]
-0.042450607 -0.055472583 0.09922166 -0.06457259 0.028706636 -0.107736364 -0.009293775 -0.072509296
-0.23498751 -0.062312305 -0.13169514 0.10777195 -0.010678306 0.024613202 0.054819882 -0.022125185
0.032983735 0.040282235 0.12446551 -0.39587793 0.04482124 -0.08193734 0.019987538 0.065150365
-0.1615094 0.09617312 -0.3192376 0.057327177 -0.07158768 -0.06498183 -0.09653896 0.099402055
0.0101167215 -0.025097817 -0.1729174 -0.32703906 -0.02244706 -0.024220273 -0.04068695 -0.40601027
-0.024225444 -0.120698616 -0.013626173 -0.1826584 0.06719017 0.10184908 -0.02805321 -0.06586316
0.037603647 0.056467667 -0.100500315 -0.112321004 0.010797769 -0.24912871 -0.117394194 -0.09244571
-0.12224913 0.03760402 -0.045435026 -0.13232668 0.006920412 0.10838507 0.10417695 0.027346715
0.045333482 -0.17158543 0.015166294 -0.10866959 -0.014782204 0.05004778 -0.03143722 -0.05085256
-0.0321087 -0.03367358 0.15194292 -0.11784671 -0.08308703 -0.05335651 0.042585924 -0.35283747
-0.3018897 0.12399589 -0.30344668 -0.07863879 -0.14846182 0.025088133 -0.18826617 0.092283696
-0.054871053 0.17076151 -0.26023126 0.21175456 -0.08983418 0.16817658 0.019849421 -0.28048965
0.013769776 -0.12261868 -0.34843415 -0.030754566 0.48048294 -0.016567755 0.092098534 0.061754
0.3246938 0.19509576 -0.14575045 -0.38235703 -0.11010845 -0.19448888 -0.25057063 -0.05103687
-0.22859986 0.036362037 0.011075914 -0.037779726 -0.17231062 -0.103965625 0.105252534 -0.34879926
0.027355695 -0.0710913 -0.08067963 -0.28093165 0.17480546 -0.03422822 0.1627837 0.05029733
-0.18980972 -0.009222753 -0.094158396 -0.059425063 -0.1528233 -0.09440808 -0.07958764 -0.1263275
0.03797041 -0.060533363 -0.09051277 0.04697667 -0.16465504 -0.045273125 -0.20861739 -0.1799389
0.034375235 0.026183175 -0.08386502 -0.06273797 -0.09405729 -0.13838266 0.08444661 0.06171244
0.0039863847 0.008655657 -0.13516937 -0.06211111 -0.1335414 -0.29860574 -0.34616724 -0.12739524
-0.057975646 -0.09641668 -0.10873993 0.090914994 -0.03282215 0.042475235 -0.03543234 0.12477996
-0.099251285 -0.25146514 0.0079919845 0.011997748 0.049672097 -0.04169379 0.0486984 -0.040352512
-0.0940885 -0.15445966 -0.074480295 -0.15535231 0.06978248 -0.023443721 -0.039322883 -0.10121114
-0.063000016 -0.1684691 0.060568396 -0.107876144 -0.029689087 0.039105937 -0.105158746 0.035754446
0.02601491 -0.0013996176 0.017497882 0.17435724 -0.038755182 -0.102430716 0.048620127 -0.164068
-0.045322567 -0.073232554 -0.10074542 -0.031518362 0.062001817 0.14467841 0.033606008 -0.28867543
-0.099699765 0.098765925 0.11443883 -0.39475277 0.0057409415 -0.16739622 -0.052963793 -0.12367445
0.0352668 -0.024763184 -0.3663187 -0.1249288 0.042360663 -0.23691504 -0.063010134 -0.023983939
0.0016599394 -0.09341589 -0.5517361 -0.25328463 -0.07752988 0.09439129 -0.027383402 -0.08603091
0.015447188 -0.12688065 -0.05559525 -0.48614925 -0.1720234 -0.067546815 -0.015894882 -0.03182899
-0.044410978 -0.02428062 0.13509099 0.022182543 -0.039440125 -0.24621597 -0.04118927 -0.06439471
-0.23597683 -0.058465004 -0.08808417 0.0447811 -0.046701804 0.041409068 -0.2721511 -0.12419333
00000000: b0e0 2dbd 3837 63bd ba34 cb3d a23e 84bd
00000010: 2e2a eb3c e2a4 dcbd eb44 18bc c17f 94bd
00000020: 91a0 70be 303b 7fbd 17db 06be 8ab7 dc3d
00000030: 10f4 2ebc a0a1 c93c d08a 603d e03f b5bc
00000040: f419 073d fcfe 243d c6e7 fe3d 83b0 cabe
00000050: 7a96 373d c4ce a7bd e8bc a33c 8e6d 853d
00000060: b862 25be 6af6 c43d 1c73 a3be e7cf 6a3d
00000070: 909c 92bd 3215 85bd 38b6 c5bd 4e93 cb3d
00000080: 9bc0 253c f099 cdbc 4211 31be aa71 a7be
00000090: e6e2 b7bc 9869 c6bc 5ca7 26bd 94e0 cfbe
000000a0: 7074 c6bc d630 f7bd 5040 5fbc ce0a 3bbe
000000b0: 009b 893d 4096 d03d d8cf e5bc 44e3 86bd
000000c0: 4806 1a3d a44a 673d 1cd3 cdbd 8e08 e6bd
000000d0: 20e9 303c 991b 7fbe 5e6c f0bd 2d54 bdbd
000000e0: c05d fabd ac06 1a3d 141a 3abd a580 07be
000000f0: a0c4 e23b fef8 dd3d ba5a d53d 3806 e03c
00000100: 9aaf 393d 17b4 2fbe 0c7c 783c 298e debd
00000110: 0f31 72bc e7fe 4c3d 50c4 00bd c64a 50bd
00000120: 6a84 03bd 4fed 09bd ed96 1b3e 9e59 f1bd
00000130: 8829 aabd 5b8c 5abd 946e 2e3d 1da7 b4be
00000140: 4991 9abe 8ff1 fd3d 5d5d 9bbe 600d a1bd
00000150: 6006 18be a185 cd3c d9c8 40be 3cff bc3d
00000160: 78c0 60bd 1bdc 2e3e 083d 85be 30d6 583e
00000170: fcfa b7bd 7b36 2c3e 419b a23c 579c 8fbe
00000180: a09a 613c 811f fbbd f665 b2be 00f1 fbbc
00000190: dc01 f63e 1ab9 87bc 289e bc3d c3f1 7c3d
000001a0: 443e a63e 2fc7 473e 9b3f 15be 4dc4 c3be
000001b0: 8a80 e1bd 1828 47be cb4a 80be 090c 51bd
000001c0: 1516 6abe 5cf0 143d c077 353c eabe 1abd
000001d0: 3272 30be eeeb d4bd a48e d73d d195 b2be
000001e0: 0d19 e03c 5198 91bd 5d3b a5bd 46d6 8fbe
000001f0: 3400 333e e432 0cbd c5b0 263e 9304 4e3d
00000200: 7b5d 42be 081b 17bc 1ed6 c0bd b267 73bd
00000210: b67d 1cbe 0659 c1bd d8fe a2bd ff5b 01be
00000220: dc86 1b3d d5f1 77bd c25e b9bd 9c6a 403d
00000230: 559b 28be 5070 39bd cc9f 55be e741 38be
00000240: 0ccd 0c3d 197e d63c 6cc1 abbd c47c 80bd
00000250: 1ca1 c0bd 2fb4 0dbe 58f2 ac3d 2fc6 7c3d
00000260: 38a0 823b 75d0 0d3c d769 0abe 3868 7ebd
00000270: 14bf 08be dae2 98be d53c b1be e673 02be
00000280: df77 6dbd 1c76 c5bd 0ab3 debd a431 ba3d
00000290: 8570 06bd 83fa 2d3d 8021 11bd a38c ff3d
000002a0: 4244 cbbd 0ac0 80be d0f0 023c 3492 443c
000002b0: f874 4b3d 1cc7 2abd f977 473d ad48 25bd
000002c0: 79b1 c0bd ac2a 1ebe 2089 98bd ad14 1fbe
000002d0: 1eea 8e3d 0c0d c0bc 0811 21bd c947 cfbd
000002e0: 2706 81bd 2a83 2cbe 9116 783d 2bee dcbd
000002f0: 8736 f3bc 8c2d 203d 785d d7bd 4173 123d
00000300: 381d d53c 6073 b7ba b857 8f3c b48a 323e
00000310: c1bd 1ebd 32c7 d1bd e625 473d 7101 28be
00000320: 28a4 39bd f3fa 95bd 9d53 cebd 6619 01bd
00000330: 9ef5 7d3d 9426 143e 74a6 093d 44cd 93be
00000340: 642f ccbd ca45 ca3d e85e ea3d 091d cabe
00000350: 821e bc3b ea69 2bbe 90f0 58bd 0849 fdbd
00000360: ec73 103d 29dc cabc 208e bbbe acda ffbd
00000370: 6082 2d3d db99 72be 750b 81bd f779 c4bc
00000380: 5392 d93a d550 bfbd 943e 0dbf 86ae 81be
00000390: fcc7 9ebd 3850 c13d 2853 e0bc f930 b0bd
000003a0: 3416 7d3c 00ed 01be d8b7 63bd 8ee8 f8be
000003b0: e726 30be fc55 8abd fc35 82bc 1d5f 02bd
000003c0: 49e8 35bd 27e8 c6bc 4b55 0a3e 2ab8 b53c
000003d0: f88b 21bd 0a20 7cbe 14b6 28bd 60e1 83bd
000003e0: e9a3 71be 0079 6fbd 7965 b4bd 636c 373d
000003f0: 644a 3fbd 8e9c 293d 6457 8bbe 1359 febd

bias f4 [64]
-0.6409838 -0.3493789 -0.31528217 -0.5232985 -0.12530454 -0.035579447 -0.42459613 -0.16606991
-1.2929581 -0.1984251 -0.33989447 -0.18828475 -0.5587208 -0.015324178 -0.2821572 -0.041459825
-0.040478308 -0.3588139 -0.23266177 1.5879164 1.406388 -0.3508541 0.7338223 -0.48275292
-0.45889696 -0.15359616 -0.34952337 -0.42974567 -0.311488 -0.46036378 -0.31643936 -0.36406133
-0.11787256 -0.27274823 -0.27114472 -0.48922125 -0.32776147 0.6116346 -0.23235911 -0.1984272
-0.03853295 -0.3440703 0.36451516 -0.011769964 -0.059573185 -0.29744193 -0.12957145 0.553622
-0.114650264 -0.32534385 -0.056429595 -0.0057611517 -0.09877289 -0.07444868 -0.41654122 -0.44658905
-0.61288625 -0.30903283 -0.34995618 -0.101382874 -0.5415576 -0.29727805 -0.22319278 -0.4079705
00000000: 8417 24bf cbe1 b2be aa6c a1be e4f6 05bf
00000010: d54f 00be c1bb 11bd aa64 d9be 3b0e 2abe
00000020: a77f a5bf f32f 4bbe a606 aebe b8cd 40be
00000030: 5408 0fbf 4312 7bbc e976 90be c7d1 29bd
00000040: 95cc 25bd 75b6 b7be e33e 6ebe d840 cb3f
00000050: 8604 b43f 26a3 b3be c7db 3b3f 642b f7be
00000060: 8bf4 eabe 5048 1dbe baf4 b2be a007 dcbe
00000070: 5b7b 9fbe cdb4 ebbe 5704 a2be 3f66 babe
00000080: 2b67 f1bd a8a5 8bbe 7bd3 8abe 357b fabe
00000090: 5ad0 a7be 1694 1c3f 8cef 6dbe 8030 4bbe
000000a0: bad4 1dbd fb29 b0be bba1 ba3e cfd6 40bc
000000b0: 0303 74bd 4f4a 98be 61ae 04be 2cba 0d3f
000000c0: c2cd eabd 7893 a6be b822 67bd 0bc8 bcbb
000000d0: 7149 cabd 8d78 98bd e444 d5be 52a7 e4be
000000e0: 1de6 1cbf 8d39 9ebe 752d b3be d3a1 cfbd
000000f0: 85a3 0abf d434 98be a68c 64be 82e1 d0be

weight f4 [64, 64]
0.11307445 -0.049243633 -0.1170592 0.06668821 -0.10185492 0.11317003 0.012433752 -0.035640076
-0.11098014 0.068073034 -0.052099533 0.044953004 -0.04742147 0.016471848 -0.044631556 0.11618082
-0.11306005 -0.09357287 -0.10637683 -0.13794215 0.10668309 0.082119256 -0.019370422 0.032918245
-0.044646606 -0.124895535 0.02938898 0.020921975 0.07444982 -0.059749916 0.053485394 0.047292262
-0.034254283 0.028260276 -0.03597386 -0.09741619 0.037630543 -0.0918684 0.045823842 0.049284637
0.03825198 -0.097745 -0.08696492 0.0032804906 -0.10353175 -0.030700356 -0.10350326 0.013037011
-0.1820175 -0.091852605 -0.045213625 -0.07435264 -0.09827784 0.06432508 -0.010521486 -0.12421839
-0.048813716 0.079203814 -0.051998377 -0.100617245 -0.10550919 -0.07194507 -0.094328284 -0.040029183
0.058411464 -0.046918437 -0.1731456 -0.040639535 -0.041541412 -0.037181735 0.004933059 0.064585984
-0.3229378 -0.071999 -0.0835022 -0.05537398 -0.04573211 0.075154364 0.018834814 -0.19727094
-0.013822004 -0.035636842 -0.10322316 0.07195377 0.0050102025 -0.002567321 -0.18490185 0.033899605
0.052693635 -0.10926318 -0.094700724 -0.027402624 -0.0483703 0.087359026 0.039822146 -0.05903384
0.033941478 0.059703827 0.105042785 -0.11733937 0.017504111 -0.012380302 -0.1416182 0.0073420554
-0.19755208 0.09695588 -0.084621385 -0.11622709 0.10021494 -0.105081625 -0.11078001 0.022145346
-0.02284488 0.0035401583 0.025046512 -0.072566494 -0.072179705 0.12176205 -0.24594043 0.048051402
0.09986475 0.09297602 -0.1214018 -0.11236474 0.03941095 -0.11259803 0.041523308 0.0064620227
-0.36531326 -0.11584372 -0.30507886 0.40773392 0.12656973 -0.0033171072 -0.0930507 -0.092861585
-1.3659132 0.063181095 0.009694761 -0.11569722 0.006153647 -0.20411724 0.049847152 -0.1447755
-0.048043244 0.12023699 0.26818132 -0.14044175 -0.16784053 -0.09202522 -0.6092279 0.28848866
0.25497055 -0.10131055 -0.17209364 -0.16283488 -0.13581513 -0.1367441 0.32686526 0.14521663
-0.57603 -0.044268683 0.017414581 0.029280683 -0.09368204 -0.4243071 0.12037007 -0.4827307
-0.0057825744 -0.59776974 -0.15299504 -0.35383588 0.09805443 0.009326809 0.074641936 -0.18857381
-0.14874405 -0.23193754 -0.092643455 -0.20856541 0.031229094 0.013794464 0.57848847 -0.18010044
0.38249084 -0.17910364 -0.24586824 -0.35256147 0.08488243 -0.038967073 0.08632878 -0.10503483
-0.05540508 -0.14781152 -0.24335177 0.38733 -0.06176244 -0.023332916 -0.028897464 -0.06644946
-2.0869663 0.03932653 0.010433803 -0.0006657052 -0.08517872 -0.09361259 0.029935943 -0.16174169
-0.15239814 -0.10671763 -0.41859323 -0.555239 -0.34662017 -0.016395438 -0.733003 0.31388062
-0.07278795 -0.08328689 -0.014421464 -0.108836934 0.052211095 -0.054437608 0.3407972 -0.021297075
-0.29900506 0.015339141 0.075120315 -0.115839735 -0.133622 -0.25966287 0.044867452 0.00318261
0.0001096598 0.1248851 -0.28078327 -0.39906836 -0.03042095 0.13704231 -0.07840264 -0.27969873
-0.10578688 -0.21293296 -0.088797554 -0.1615941 -0.029959204 0.057760805 -0.30093372 -0.33124268
0.08399545 -0.30920124 -0.21937998 -0.2794749 -0.017818023 0.001003106 0.063454136 0.033316735
00000000: 9493 e73d b1b3 49bd bcbc efbd d493 883d
00000010: 5099 d0bd b0c5 e73d f0b6 4b3c 54fb 11bd
00000020: 8e49 e3bd e069 8b3d 5266 55bd a420 383d
00000030: 043d 42bd f8ef 863c 94cf 36bd 36f0 ed3d
00000040: 078c e7bd 22a3 bfbd 18dc d9bd b540 0dbe
00000050: aa7c da3d 242e a83d b8ae 9ebc 48d5 063d
00000060: 5cdf 36bd 3bc9 ffbd 28c1 f03c 9064 ab3c
00000070: 2679 983d 54bc 74bd 8013 5b3d 88b5 413d
00000080: 384e 0cbd 1882 e73c 5459 13bd 2482 c7bd
00000090: 7c22 1a3d 8025 bcbd c8b1 3b3d b0de 493d
000000a0: 1cae 1c3d 882e c8bd aa1a b2bd 80fd 563b
000000b0: 7408 d4bd 507f fbbc 84f9 d3bd 3099 553c
000000c0: cc62 3abe 381d bcbd ec31 39bd 3246 98bd
000000d0: e445 c9bd debc 833d 5062 2cbc 3666 febd
000000e0: e4f0 47bd 9c35 a23d 40fc 54bd 6a10 cebd
000000f0: 3415 d8bd f057 93bd 302f c1bd a4f5 23bd
00000100: dc40 6f3d 8c2d 40bd 154d 31be a475 26bd
00000110: 5427 2abd e04b 18bd 80a5 a13b a845 843d
00000120: 1a58 a5be 3674 93bd 3403 abbd d4cf 62bd
00000130: 9851 3bbd 88ea 993d 784b 9a3c 6501 4abe
00000140: b075 62bc f0f7 11bd aa66 d3bd 805c 933d
00000150: a02c a43b 8040 28bb e956 3dbe 50da 0a3d
00000160: 48d5 573d 60c5 dfbd 74f2 c1bd 787b e0bc
00000170: f01f 46bd 4ae9 b23d 8c1c 233d 78cd 71bd
00000180: 3806 0b3d 008c 743d ac20 d73d a04f f0bd
00000190: c864 8f3c c0d6 4abc 5d04 11be a095 f03b
000001a0: 184b 4abe ce90 c63d fa4d adbd 7808 eebd
000001b0: 7e3d cd3d 0935 d7bd a1e0 e2bd 286a b53c
000001c0: 3025 bbbc 0002 683b 582e cd3c be9d 94bd
000001d0: f4d2 93bd 625e f93d cfd7 7bbe 8cd1 443d
000001e0: e485 cc3d 366a be3d 82a1 f8bd 7c1f e6bd
000001f0: 606d 213d cc99 e6bd 5814 2a3d 60bf d33b
00000200: 570a bbbe 793f edbd 4c33 9cbe 80c2 d03e
00000210: 7f9b 013e d363 59bb 5e91 bebd 372e bebd
00000220: 3ed6 aebf 1765 813d c6d6 1e3c aaf2 ecbd
00000230: 88a4 c93b 1c04 51be 872c 4c3d 0740 14be
00000240: fec8 44bd d03e f63d 104f 893e f6cf 0fbe
00000250: 63de 2bbe b877 bcbd 5cf6 1bbf c9b4 933e
00000260: 808b 823e e87b cfbd 5139 30be 30be 26be
00000270: 1f13 0bbe a506 0cbe e25a a73e abb3 143e
00000280: b476 13bf 1453 35bd 06a9 8e3c 0bde ef3c
00000290: 5fdc bfbd c83e d9be 9584 f63d 7a28 f7be
000002a0: c07b bdbb 7007 19bf bbaa 1cbe fa29 b5be
000002b0: c3d0 c83d 79cf 183c dfdd 983d 7e19 41be
000002c0: 5c50 18be 0981 6dbe dabb bdbd 2c92 55be
000002d0: 28d4 ff3c 2d02 623c d217 143f 406c 38be
000002e0: d7d5 c33e f266 37be e2c4 7bbe f082 b4be
000002f0: d7d6 ad3d f09b 1fbd 25cd b03d 801c d7bd
00000300: 70f0 62bd e75b 17be 3531 79be 1e50 c63e
00000310: 9dfa 7cbd ac24 bfbc 60ba ecbc a816 88bd
00000320: db90 05c0 db14 213d 8bf2 2a3c b882 2eba
00000330: 2e72 aebd f5b7 bfbd 393c f53c 9d9f 25be
00000340: 420e 1cbe c68e dabd da51 d6be 2524 0ebf
00000350: 3378 b1be ba4f 86bc 16a6 3bbf f6b4 a03e
00000360: d911 95bd 5192 aabd 0148 6cbc e6e5 debd
00000370: 4ddb 553d f8f9 5ebd f87c ae3e 3477 aebc
00000380: 3117 99be 0551 7b3c aed8 993d 623d edbd
00000390: 35d4 08be 88f2 84be efc6 373d 5693 503b
000003a0: 28f9 e538 c2c3 ff3d d3c2 8fbe b052 ccbe
000003b0: 5b35 f9bc d254 0c3e 9091 a0bd ac34 8fbe
000003c0: cba6 d8bd 190b 5abe 7edb b5bd ec78 25be
000003d0: 016d f5bc 9896 6c3d fc13 9abe a498 a9be
000003e0: ce05 ac3d a04f 9ebe 25a5 60be 5617 8fbe
000003f0: 1af7 91bc a77a 833a 3ef4 813d 2177 083d

bias f4 [64]
-0.23371749 -0.48975024 -0.0010330359 1.3924011 -0.49754003 -0.26539022 -0.17028865 -1.4812338
-0.17183742 -0.32025793 -0.0028845563 -0.16538198 1.7982872 -0.3659552 -0.4037779 -0.4162021
-0.15103403 -0.13198538 -0.30842948 2.6353555 -0.3774768 -0.0946006 -0.23675828 -0.18488723
-0.5062482 -0.008312038 3.1591277 -0.53367066 -0.58479303 -0.108435735 -0.14695409 -0.40310347
-0.46200535 -0.09564311 1.9848608 -0.1450949 -0.40782788 -0.0016299299 -0.11732668 -0.17859684
-0.2005845 -0.5797443 0.6767646 -0.048028108 2.530476 -0.32641146 -0.1631244 -0.5260161
-0.1686748 1.7880511 2.0694673 -0.21992859 -0.5151419 -0.42094877 2.7287726 -0.4576543
-0.36928684 -0.22183755 -0.3769485 -0.28228137 -0.328436 -0.10629031 4.3475213 -0.0012973689
00000000: a353 6fbe 8bc0 fabe ef66 87ba 333a b23f
00000010: 91bd febe 3ae1 87be 2660 2ebe 1299 bdbf
00000020: 26f6 2fbe d9f8 a3be d30a 3dbb e559 29be
00000030: 462e e63f 7b5e bbbe fabb cebe 7118 d5be
00000040: aaa8 1abe 2d27 07be 78ea 9dbe aaa9 2840
00000050: a444 c1be f6bd c1bd c370 72be 1453 3dbe
00000060: 7b99 01bf 372f 08bc 262f 4a40 a49e 08bf
00000070: ffb4 15bf 8e13 debd 227b 16be 9463 cebe
00000080: f78b ecbe 89e0 c3bd eb0f fe3f c293 14be
00000090: d1ce d0be 5fa3 d5ba f848 f0bd 17e2 36be
000000a0: 0666 4dbe 1f6a 14bf 7240 2d3f 1fb9 44bd
000000b0: 52f3 2140 671f a7be 150a 27be fea8 06bf
000000c0: 16b9 2cbe dcde e43f 2772 0440 f634 61be
000000d0: 57e0 03bf 9986 d7be 36a4 2e40 aa51 eabe
000000e0: 2a13 bdbe 6229 63be 65ff c0be 2f87 90be
000000f0: c328 a8be bcae d9bd e51e 8b40 7a0c aaba

weight f4 [1, 64]
0.0017920359 -0.3006106 0.0070012813 1.5096922 -0.247979 -0.09425788 0.02603348 -0.18408751
-0.1267557 0.26501605 0.22075966 0.08118993 1.4996974 -0.2589597 -0.16278404 0.1567633
-0.06483552 -0.07857594 -0.14004496 1.257253 0.23412457 -0.048 0.089480914 0.1060633
0.044735044 -0.010703342 1.6585298 0.1645667 0.17017652 0.19693553 -0.04174219 0.115277
0.30657348 -0.03339705 1.5680171 0.16757731 -0.04851945 0.038533177 -0.0040365406 -0.31878635
-0.070055336 0.31283733 0.35606417 0.05008518 1.7032453 -0.0010957201 -0.09450313 -0.055790856
-0.020553172 1.3998711 1.710545 0.0325107 0.008390263 0.11816416 1.3564116 -0.012397928
0.12334832 0.17833309 0.045357168 -0.04532568 0.31359276 -0.3194851 2.0051556 0.28958645
00000000: bfe2 ea3a a2e9 99be 016b e53b 983d c13f
00000010: 35ee 7dbe 460a c1bd 2a44 d53c 7081 3cbe
00000020: 3fcc 01be 2fb0 873e d20e 623e e846 a63d
00000030: 16f6 bf3f 5e96 84be dcb0 26be 8f86 203e
00000040: 7cc8 84bd 6cec a0bd f267 0fbe abed a03f
00000050: 5abe 6f3e a69b 44bd c541 b73d b737 d93d
00000060: 183c 373d 125d 2fbc b44a d43f 2c84 283e
00000070: c142 2e3e 78a9 493e dcf9 2abd 5916 ec3d
00000080: 33f7 9c3e 58cb 08bd c9b4 c83f 6399 2b3e
00000090: 55bc 46bd f7d4 1d3d f544 84bb f737 a3be
000000a0: 2c79 8fbd 372c a03e 0b4e b63e 1e26 4d3d
000000b0: f103 da3f 449e 8fba db8a c1bd f484 64bd
000000c0: 205f a8bc fa2e b33f 23f3 da3f f129 053d
000000d0: 5077 093c 0d00 f23d e59e ad3f ae20 4bbc
000000e0: 0b9e fc3d f39c 363e 70c8 393d 6ca7 39bd
000000f0: 3b8f a03e 8d93 a3be 7854 0040 ad44 943e
