mlartifacts/554351476986166068/6a852055e730427c891fc9c72491b7cf/artifacts/models/Model_dim64_layers5_experiment/r2_score0.4461343868202001_run20/data/model.pth (torch, 294728 bytes, 13 tensors)

weight f4 [64, 801]
000000 0f 30 0d 3c f8 f3 52 3d 82 9d a8 bc 99 42 5a 3d
       0.008617415 0.051502198 -0.020582918 0.05328617
000010 39 53 25 3d 2f b2 25 3d 50 31 4e 3c 2a cb db bc
       0.04036257 0.040453132 0.012584999 -0.026830275
000020 f3 d3 1d bb 63 5a 50 3d e8 b4 ca bb 85 cc 9a 3c
       -0.002408263 0.05086745 -0.0061861165 0.01889635
000030 18 86 9c 3c 18 3c a0 3b e3 cc 8d bc f4 5b 59 3d
       0.01910691 0.0048899762 -0.017309612 0.05306621
000040 9d d5 ca 3c 4a 24 80 bc 7c 5b 31 3d 94 58 da 3c
       0.024760062 -0.015642304 0.043300137 0.026653565
000050 0b e3 52 3c c8 f2 03 3d 06 02 b7 3c f6 47 08 bd
       0.012871514 0.032213956 0.022339832 -0.033271752
000060 47 20 ba bc f4 8b be 3c 0a f3 76 bc d9 06 37 3d
       -0.02272047 0.023260094 -0.015072593 0.044684265
000070 e7 0c 5b 3c 4d a8 85 3c 5e 0f 87 3c 90 5d 0e bd
       0.013369775 0.016315604 0.01648682 -0.034757197
000080 b6 8a d8 bc cd b1 dd bc 13 28 6e 3c 36 8a a2 bc
       -0.02643333 -0.027062321 0.014535922 -0.019841295
000090 71 a6 32 3c 8e 28 89 3c de a9 3d 3c 41 74 c1 3c
       0.010903941 0.01674297 0.011576144 0.023615004
0000a0 01 b8 89 bd d7 e6 9a 3b e1 2d 45 3d a4 29 72 bd
       -0.06724549 0.0047272253 0.048139457 -0.059121743
0000b0 f7 0e 7b 3d 07 73 57 bc bd 27 bf bc 97 c9 01 3d
       0.06129357 -0.013149983 -0.023334378 0.03168639
0000c0 c1 a7 c9 3b 24 c9 92 3a 83 8a a8 3b 39 cb 0e 3b
       0.006154031 0.0011198861 0.005143465 0.002178861
0000d0 43 07 21 bd 68 d0 2e 3d 7f 5f 2a 3d f1 d7 10 bd
       -0.039313566 0.04267922 0.04159498 -0.035362188
0000e0 01 0e c3 3b 28 e6 9c bd 87 27 ae bc f1 36 94 bc
       0.005952597 -0.07661086 -0.021259082 -0.018092604
0000f0 db ff bf 3c 45 3f 8b 3c 68 21 45 bd a7 34 0c bd
       0.023437431 0.016997943 -0.04812756 -0.0342299
000100 44 cf 64 bd 8e b3 2c bc 47 5d 31 bd 4e d2 63 3d
       -0.055861726 -0.010540856 -0.043301847 0.055620484
000110 4c 80 be bb 57 43 46 3c 8c 59 57 3d 71 14 11 bd
       -0.005813634 0.012101016 0.052575633 -0.035419885
000120 17 67 30 bd 10 4f 6f 3b be 04 41 bd 14 0c 4a bd
       -0.043067064 0.003651563 -0.047123663 -0.049327925
000130 46 9a 82 3d b0 aa 96 bc 76 9e 45 3d 77 53 51 bd
       0.063770816 -0.018391937 0.048246823 -0.05110499
000140 f6 82 3e bd 5b 03 d8 bc 9c 65 bf 3c 29 4a d3 3b
       -0.046511613 -0.026368788 0.02336388 0.0064480496
000150 47 b8 c8 3c b3 29 d1 bc 68 b4 36 3a 46 83 33 bd
       0.024501933 -0.025532579 0.00069696316 -0.043826364
000160 48 ae b6 bc 3e c5 47 3d 66 6c 0c 3c 2b 9d ff 3c
       -0.0222999 0.04877209 0.008570766 0.031202873
000170 1e 31 c5 3c 0b c9 b5 3c 72 d8 62 3c 98 ab 41 bd
       0.024071272 0.022190591 0.01384555 -0.047282785
000180 66 eb 6d 3c 38 07 f1 3c e7 ab 63 3d ad d3 00 3c
       0.014521455 0.029422387 0.05558386 0.007862967
000190 6d de 36 bb 0e 0d 3b bc 70 f0 a7 3b b3 48 56 3b
       -0.0027903572 -0.011416687 0.005125098 0.003269714
0001a0 92 b9 4f bd 00 c3 94 3d f4 77 53 bd e0 c1 d9 3c
       -0.050714083 0.07263756 -0.051628068 0.026581705
0001b0 98 b7 40 3c 92 28 8f 3c 71 45 2b bd 99 24 eb 3c
       0.011762522 0.0174754 -0.04181427 0.028703975
0001c0 59 4b 23 3d 5b 2c 88 3c b9 62 c2 3a 3d 32 f5 3c
       0.03986678 0.016622713 0.0014830447 0.029931182
0001d0 88 a0 b1 3d 8d b8 e1 bb 99 93 f4 bc b8 a2 ba 3b
       0.08673197 -0.0068884552 -0.029855536 0.005695667
0001e0 e2 47 15 bc e1 9c a1 3c ad e2 b9 3b 96 0d d6 bc
       -0.0091113765 0.019728126 0.005672774 -0.026129525
0001f0 bc fe a5 bc 9e e8 37 bd 74 e3 68 3d b6 c9 0f bd
       -0.020263068 -0.044899575 0.05685754 -0.035104476
000200 65 0e f3 3b dd 4a 43 3d 1d 9d 8b bc 38 1b 0c 3d
       0.0074174874 0.047678817 -0.01704269 0.034205645
000210 b9 2e 0e bb ae cc 71 3d d5 6a 64 3c b7 ae a3 3c
       -0.002169533 0.05903309 0.013941486 0.019980771
000220 58 56 03 3d 35 0d 2e 3d 11 85 9e 3c 8f 04 02 bc
       0.032064766 0.042493064 0.01935056 -0.007935657
000230 e6 fb 82 bb ad d7 4d 3d 3d a7 5b 3b c7 00 1d 3d
       -0.003997314 0.050254513 0.003351643 0.03833082
000240 a1 4c 19 3b b8 aa 81 3a 04 54 a9 bc 23 7c ed bc
       0.0023391622 0.0009892797 -0.020669945 -0.028989857
000250 ad 7b 8c 3c 6e 5b 3b bc 56 2d 75 ba 40 39 88 3b
       0.017148817 -0.011435373 -0.0009352764 0.0041572154
000260 a6 35 ea bb 3a 95 49 3d 27 7d 59 3d 28 80 9c bd
       -0.0071475087 0.04921458 0.05309787 -0.07641631
000270 ce 6f b1 3c fb 90 93 bb 1f d5 8b 3d 84 d4 10 bc
       0.021659758 -0.004503367 0.06827759 -0.00883973
000280 29 e6 8a 3c 32 73 81 bc f1 07 a4 3c 5a d2 a3 bc
       0.016955452 -0.015802 0.020023318 -0.019997764
000290 16 73 42 bd 3e 5e 62 3c 24 8b e9 3c c3 3b 23 3d
       -0.047473036 0.013816414 0.02850873 0.039851915
0002a0 1c 0f 6f 3d d7 07 32 3c 58 54 83 3b 02 24 52 3d
       0.05836402 0.010866127 0.0040078573 0.05130387
0002b0 0c 1f d4 bb 67 d4 ab bc 61 24 29 bd 18 bc 26 bc
       -0.0064734276 -0.020975305 -0.04129446 -0.010176681
0002c0 1a 4b d8 bc 43 9e 18 3d ed dc 2f bc ae 91 e8 3b
       -0.026402999 0.037260305 -0.010733825 0.0070974445
0002d0 4b d0 09 bd 54 7a 35 3d 80 6d 0a bc 43 16 40 3d
       -0.03364591 0.044306114 -0.008448958 0.04689623
0002e0 5e 7c 11 3d d7 79 28 3d f4 17 05 3d 77 97 08 bd
       0.035518996 0.04113182 0.032493547 -0.033347573
0002f0 de 69 c4 38 8b b8 3d 3c 96 0c 4f bc 1a db d8 3b
       9.3657276e-05 0.011579643 -0.012637278 0.006617916
000300 0e 15 33 3d c4 16 36 3c fd fc 22 bc b0 8a 89 3d
       0.04372125 0.011113826 -0.009948012 0.06715906
000310 2d 5f 08 bc 6b 65 e9 bc 89 41 3c 3d 77 fd e8 3c
       -0.008323473 -0.028490743 0.045960937 0.028441174
000320 71 5d 97 3c 16 68 e9 3c 1f 2e 04 bd 9e 3e a6 3c
       0.018477174 0.028492015 -0.032270547 0.02029353
000330 a2 60 6e 3d 33 c7 ac 3c 4f fe 0d 3d e7 7c e2 3b
       0.058197625 0.02109108 0.034666356 0.006911862
000340 9b 2e 0e 3d ce 6d 97 3b 1d 38 45 3c 10 3e 91 3c
       0.034712415 0.004621244 0.012037304 0.017729789
000350 d8 21 d1 3c 49 7c 39 bb 98 be b3 3c c4 7b 97 bd
       0.025528833 -0.002830284 0.021941468 -0.07396653
000360 3a 04 55 3b c8 6c 4b bd 7d cb cd ba 68 2e ce bc
       0.003250374 -0.04966429 -0.0015700903 -0.025168613
000370 61 74 c9 3a 91 5e 95 3d 90 69 03 b9 da b9 c3 3c
       0.0015369767 0.07293428 -0.00012532459 0.023892332
000380 3f a8 2e ba 20 9e a1 bc 8a da c8 3c d6 f7 50 3b
       -0.0006662644 -0.01972872 0.02451827 0.0031886003
000390 52 9f a9 3c e6 0f 00 bd 41 0f 84 3b 33 6e 0d 3d
       0.020705853 -0.031265162 0.0040301387 0.034528922
0003a0 78 10 fd 3b c3 fe b1 3c 8b 85 29 bd 10 fa 0c 3d
       0.0077229105 0.021727925 -0.041387122 0.034418166
0003b0 9f 01 f6 3b f9 49 54 3d 5a f2 a0 3c 1e b2 8a bb
       0.0075075175 0.05182836 0.019646812 -0.004232659
0003c0 c9 22 89 3b 68 03 9e 3d 0d b5 61 bc 77 e7 52 bd
       0.004185055 0.077154934 -0.013776076 -0.051490273
0003d0 ab 21 13 3d fa 09 0b bd 26 e6 10 3c 0b b7 aa bd
       0.03592078 -0.03394506 0.008843934 -0.08335694
0003e0 a9 d9 22 bc eb 6e d6 bb ef 68 56 bb a5 86 d5 bc
       -0.00993959 -0.006543984 -0.0032716354 -0.02606518
0003f0 e4 3e a4 bb de cc f2 bc a9 2d dd bc 6b 2b 2b bd
       -0.00501238 -0.029638704 -0.026999312 -0.041789453

bias f4 [64]
000000 ba 70 94 3c ca 7c e8 3c 73 e7 f3 3c 63 64 06 bd
       0.018120158 0.028379817 0.02977345 -0.03281058
000010 5f 67 a4 3c 48 39 8e 3a ea 31 18 3d d9 ca 1d 3d
       0.020068822 0.0010850811 0.037156977 0.03852353
000020 11 7c 13 3d ef 06 cf bc 40 09 e3 3b 93 cf 4e bb
       0.03600699 -0.02527186 0.006928593 -0.003155683
000030 19 39 23 3b b8 c7 de 3c e7 6c 91 3b 12 94 cc bc
       0.002490586 0.027194843 0.004438031 -0.02497295
000040 1e 93 5f bc 66 ec 24 3a 2a 6e b5 bc 02 75 08 3d
       -0.013645915 0.00062913296 -0.022147257 0.033314712
000050 29 7c 17 3d 09 e4 49 3c 17 53 af 3c 81 42 d0 3c
       0.036983643 0.012322434 0.021401925 0.025422337
000060 21 0e 17 3d b6 81 ce bb 1c af 7d 3a f6 e9 2c 3d
       0.03687871 -0.006302084 0.00096772774 0.04221531
000070 b0 67 10 bc 4c 48 00 3d 22 d8 d2 3c f4 58 eb 3c
       -0.0088137835 0.031318948 0.025737826 0.02872894
000080 a9 c4 1c bc 09 02 76 3d 93 72 95 3c c9 9a 03 bd
       -0.009568372 0.060060535 0.01824311 -0.032130037
000090 24 56 ee 3b 45 1c d7 bc a7 48 7e bc 84 19 53 3c
       0.0072734524 -0.026258597 -0.015520251 0.012884501
0000a0 92 7c 26 3d 70 5f a0 3c b5 58 a2 bc ce 50 95 bc
       0.040646143 0.019576758 -0.01981769 -0.018227007
0000b0 e0 9c 09 3d 90 e2 b8 3c 8d f7 9a 3c a6 d9 46 bc
       0.033596873 0.02256897 0.01891687 -0.012136852
0000c0 01 6b 08 bd 21 c5 32 3d d5 b3 ff 3c 9f fb a7 ba
       -0.033305172 0.043645028 0.03121368 -0.0012816078
0000d0 63 3f 92 3b 31 3f a3 3c 8e 36 aa bb 91 5b c2 3c
       0.0044631227 0.019927593 -0.0051944917 0.023725303
0000e0 dd 09 80 3c 5c 77 24 bc 76 e2 9e bc 8f f7 1e 39
       0.015629703 -0.010038223 -0.019395094 0.00015160277
0000f0 54 fd 23 bc 07 5f c3 3c 3c cd 85 3b 6f 36 d4 bc
       -0.010009129 0.023849024 0.0040833037 -0.025904862

weight f4 [64, 64]
000000 a2 dd 9c bd 8c eb 55 3d 26 1e cf 3d e4 f8 7e 3d
       -0.076594606 0.052226588 0.10113172 0.06224908
000010 78 09 4a 3d 98 e2 1e 3d aa f3 fd bd ee 8d bf 3d
       0.049325436 0.038790315 -0.12399991 0.09353243
000020 00 86 84 3d 40 15 31 3d 70 66 2e bc e2 5d d3 bd
       0.06470871 0.043233156 -0.01064454 -0.10320641
000030 56 c3 8c 3d 1a 70 84 bd 4e 88 f6 3d dc 13 24 3d
       0.06873195 -0.06466694 0.12037717 0.040058002
000040 ba 12 fe bd 40 69 31 3b 5a a3 c7 bd 06 35 a3 3d
       -0.124059156 0.002707079 -0.09747954 0.07969098
000050 78 07 96 3c d4 1b 5a bd 72 1c 9f bd e2 2d 91 3d
       0.018314108 -0.053249195 -0.077690974 0.070888296
000060 0a ae ec bd 20 f9 6e bc 00 b7 34 3c 62 7b a9 3d
       -0.11556633 -0.014585763 0.011029959 0.082754865
000070 0e 19 fe 3d bc d3 89 bd 3c 69 e8 bd 3c 65 99 bd
       0.124071226 -0.06729838 -0.11348197 -0.07490012
000080 a4 4c 1e 3d f8 f8 f3 3d 70 1a 30 bd 10 de 41 3c
       0.03864731 0.119127214 -0.042993963 0.011832729
000090 d8 7f 4c 3d a0 fc cb 3b a4 89 99 3d d0 d4 c5 bd
       0.04992661 0.0062251836 0.07496956 -0.096597314
0000a0 74 0a 41 bd de 0b ed bd ac d2 9e bd 88 24 f3 bc
       -0.04712911 -0.11574529 -0.07755026 -0.029680505
0000b0 3c dc 0d 3d 78 03 3d bd 0e fe eb 3d 36 de cb bd
       0.03463386 -0.046145886 0.115230665 -0.09954493
0000c0 94 3a 34 3d 04 4f 65 bd 88 54 e8 bd 90 8d 0c 3d
       0.044001177 -0.05598356 -0.11344248 0.034314692
0000d0 cc b4 1b bd 30 ab 5f 3d f0 5b e5 3d 94 e6 5b bd
       -0.03801422 0.054606616 0.11199176 -0.053686693
0000e0 d4 a9 82 bd aa 77 be bd 00 04 01 3c 46 c5 9e bd
       -0.063800484 -0.09300168 0.007874489 -0.07752471
0000f0 2c 54 b1 bd ea 72 f3 3d c4 f1 10 bd 98 eb f6 bc
       -0.08658633 0.118871525 -0.035386816 -0.030141637
000100 5f 1a e9 3d ce 3b 9d 3d 2e 75 83 3d 4e 23 df 3d
       0.11381983 0.076774225 0.064188346 0.10895406
000110 6e 1a 9f bd ef d2 33 bd 03 05 b6 3d d9 ef ea bd
       -0.07768713 -0.043902334 0.08887675 -0.114715286
000120 20 c8 a3 bd 38 72 0b bd 5f 6a dc 3c 90 5e 7e 3d
       -0.07997155 -0.034044474 0.02690619 0.0621019
000130 28 5e 32 3d cc 54 f9 3c 7c 8d db bd b2 b4 89 bd
       0.043546826 0.030435942 -0.107203454 -0.06723918
000140 f5 c5 c8 3d 64 ea a7 3d 77 53 6b 3d e6 a1 8f bd
       0.09803382 0.08199003 0.057452645 -0.070133016
000150 5e 25 70 3d 49 29 ae bc 90 92 0d bd 50 6f dd bc
       0.058629386 -0.02125992 -0.0345636 -0.027030617
000160 ac 94 ce bd 5f 30 fe bd 0f 14 48 3c 6d 0a 8d 3d
       -0.10086951 -0.1241157 0.012211814 0.06886754
000170 57 42 78 3d f4 9a 0c 3c 5a 68 a5 bd 1e 3f f2 3d
       0.06061014 0.008581866 -0.08076544 0.11828445
000180 47 04 f9 bb 97 e5 dd bc 60 04 8e 3d 22 2c f2 3d
       -0.007599387 -0.027087016 0.06934428 0.11824824
000190 9c e4 a8 3c 35 43 fd bd 63 40 56 bd da 0f ba bd
       0.020616822 -0.12366334 -0.052307498 -0.09085055
0001a0 45 dd 45 bd 15 25 11 3d d9 c1 23 bc 12 06 b3 bd
       -0.048306722 0.035435755 -0.009994947 -0.08741392
0001b0 8a 48 e0 3d c8 b5 7d 3d c7 6b d9 bd 77 56 bb bd
       0.10951336 0.06194094 -0.1061626 -0.09147351
0001c0 9e 96 b9 3d 1e 9c 64 bd bc f3 4e bd 28 b9 02 be
       0.09061931 -0.055812947 -0.050525412 -0.12765944
0001d0 e3 01 cc 3d 99 20 9f bd db 62 f9 bd 85 10 2b bd
       0.09961297 -0.077698894 -0.12177058 -0.0417638
0001e0 d0 ef 39 3d 2e 1f 26 3d ea 81 07 bd 4a f8 eb 3d
       0.04539472 0.04055708 -0.03308288 0.11521967
0001f0 b2 6b 6a bd f6 47 f3 bd 08 c2 93 bd 6f c0 b8 bd
       -0.057231613 -0.1187896 -0.07214743 -0.09021079
000200 c3 02 d3 bb 61 2b 78 3c f6 45 84 be e1 97 f5 3d
       -0.006439538 0.015147061 -0.25834626 0.11991859
000210 9c 6e c1 3d 69 7f 4a be 97 a2 bf 3d b4 4f 32 be
       0.09444925 -0.19775166 0.093571834 -0.17413217
000220 2e 3d 06 be 8a e2 c0 bd d8 93 89 bd 53 cb 21 3d
       -0.13109276 -0.09418209 -0.06717652 0.039500546
000230 e4 a5 8c bc 7a bb 88 bd 90 4d d9 3d 13 54 1d 3e
       -0.017168947 -0.06676383 0.10610497 0.15364103
000240 fb 83 06 be 96 62 f9 bd 6f b0 99 3d ab c7 07 bd
       -0.13136284 -0.12177007 0.07504355 -0.033149403
000250 43 b6 0d bd 9f b3 1d ba 2c 6c 80 bd fa 6c ef 3d
       -0.034597646 -0.00060158403 -0.06270632 0.116907075
000260 3a d7 f8 bd d7 48 00 be 40 79 fe bc 5d 91 d5 3d
       -0.12150426 -0.12527786 -0.031063676 0.104281165
000270 8c 71 37 be 4a d0 3d 3d 60 6a b7 3c f4 d0 f7 bc
       -0.17914408 0.046341218 0.02238959 -0.030251004
000280 94 fd a2 39 1d 48 a7 bd 08 80 aa 3d 6b 89 97 3c
       0.00031087978 -0.081680514 0.08325201 0.018498143
000290 c5 97 08 bd 9c 62 f2 3d ed 1f 44 bd 50 45 66 bd
       -0.033347864 0.118352145 -0.04788201 -0.056218445
0002a0 fe 43 d1 3d f3 f1 eb 3d 35 55 41 3d 55 c9 4a bb
       0.102180466 0.115207575 0.0472004 -0.0030942757
0002b0 bc f4 cc 3d c0 16 a4 3b d2 1f b9 3b 34 8c 05 3e
       0.10007617 0.005007595 0.005649545 0.13041764
0002c0 d8 fa 27 3d 27 c8 8f 3d 9c c1 ef 3d a0 0c bd bd
       0.041010708 0.07020598 0.1170685 -0.09230924
0002d0 30 0c 69 bd d0 e7 6a bd d4 62 00 bd 05 b7 27 3d
       -0.05689639 -0.05734998 -0.03134425 0.040946025
0002e0 ab 99 11 be ae 61 44 be 8f eb de 3d e3 53 e0 3d
       -0.14218776 -0.19177887 0.10884773 0.109535
0002f0 8b 70 00 3e 38 cb 05 3e e5 d0 28 3c 6d 73 93 bd
       0.12542932 0.13065803 0.010303711 -0.0719975
000300 c0 14 40 3d aa 94 a2 bd c0 12 e2 3b e0 ce a2 3c
       0.04689479 -0.07938512 0.006899208 0.019874036
000310 c0 ce 3e bb f8 a9 1c bd be 62 fc 3d f0 13 ae 3c
       -0.0029114932 -0.038248032 0.12323521 0.021249741
000320 f0 62 ad bd 8a 83 fe 3d 88 ca 0f 3d 7e 3b 90 bd
       -0.084661365 0.12427433 0.03510526 -0.07042597
000330 e0 56 92 bc 42 af 97 bd 98 bd 29 3d 60 89 b5 3c
       -0.01786369 -0.07406475 0.041440576 0.022160232
000340 40 f1 9d bb 88 00 5b bd 7c 93 28 bd c8 73 7a bd
       -0.004820019 -0.053467304 -0.041156277 -0.061145574
000350 64 8f 9c 3d 10 87 57 3d c0 f9 32 3b a0 39 71 3c
       0.07644537 0.05261904 0.0027309507 0.0147232115
000360 08 9f a6 3d 68 75 b1 bd 18 48 a0 3d 98 51 c1 bc
       0.081358016 -0.086649716 0.07826251 -0.023598477
000370 cc 13 62 bd b8 c4 dd 3d 20 ab c1 bb 40 82 f8 3d
       -0.05519466 0.10828537 -0.0059102923 0.12134218
000380 ce f5 db bd 02 7a 91 3d d0 86 b1 bd 54 a6 f4 bd
       -0.10740243 0.07103349 -0.086682916 -0.11945787
000390 f8 e9 1b 3d e2 9f 87 bd 2c a4 ed 3d d0 b0 07 3c
       0.038064927 -0.06622292 0.11603579 0.0082819015
0003a0 e8 43 a5 3c de ce 9c 3d 50 85 7a bd d0 22 c6 bc
       0.020173982 0.07656644 -0.061162293 -0.024186522
0003b0 ac a9 ce bd 98 d0 58 3d 32 70 cd 3d 82 f2 a2 bd
       -0.10090956 0.052933306 0.10031165 -0.07956411
0003c0 d2 5e 95 3d 00 a3 c2 3a 94 27 17 3d f6 af b9 bd
       0.07293476 0.0014849603 0.03690298 -0.09066765
0003d0 c4 e3 d7 bd 68 e5 a8 bc c0 86 19 3d a4 e1 d1 bd
       -0.1054149 -0.020617202 0.037482023 -0.10248116
0003e0 d8 60 17 3d 50 bc 17 bc c8 f4 ea 3c d0 f1 b4 3d
       0.03695759 -0.009261206 0.028681174 0.088351846
0003f0 b0 5f b9 bc 1c 40 85 bd 28 a5 5d bd 5c 53 83 3d
       -0.022628635 -0.065063685 -0.054112583 0.06412384

bias f4 [64]
000000 8e d0 9e bd 5e 06 ef bd 71 55 07 3e 22 e6 e6 bd
       -0.077546224 -0.11671136 0.13216187 -0.11274363
000010 4a 3c d2 bd 99 57 90 bd 04 30 ac bd 5a 95 e9 3c
       -0.102654055 -0.07047958 -0.08407596 0.0285136
000020 34 6e 55 3d da 48 0e 3e e7 2f c6 3d f2 2f b8 bd
       0.05210705 0.13894978 0.096771054 -0.0899352
000030 d4 47 a6 bd 83 5c fe 3d 48 0c e1 bc ce c7 01 be
       -0.08119169 0.12419989 -0.027471676 -0.12673876
000040 6b e0 30 bd 3d d3 a4 3d bc 2d 84 3c 63 99 82 bd
       -0.04318277 0.08048103 0.01613509 -0.063769124
000050 c3 43 2a bd 69 3a f8 bc 6f 49 81 3d e1 b5 c2 bd
       -0.04156853 -0.03030129 0.063128345 -0.09507347
000060 f9 62 d6 3d f3 e1 0b 3e c5 1f 1d 3d fb c6 79 3d
       0.10468096 0.13660412 0.038360376 0.06098078
000070 b9 2d 86 3d 98 b2 25 3c 42 3b a2 3d f5 4e 0b 3e
       0.0655169 0.010113381 0.07921459 0.13604338
000080 68 ea f4 3b 78 b0 2e bd 0b 21 11 3e 2c 5a 1f 3d
       0.0074742325 -0.042648762 0.14172761 0.038904354
000090 b7 cd fe 3c 2d df ac bc e3 26 8a 3d 2f 51 90 3d
       0.031103952 -0.021102512 0.06745698 0.070467345
0000a0 94 b2 cf 3d a3 0e 9d bd 0a 39 7f 3d d0 aa 4f 3d
       0.10141483 -0.07668807 0.062310256 0.05070001
0000b0 56 01 7c bd 15 aa e3 3b c6 ea 04 3e 51 37 f9 bc
       -0.06152471 0.0069477656 0.12980184 -0.030421885
0000c0 8b 69 09 3e 00 16 dd bd 33 4e a2 bd 00 80 d5 bd
       0.13419168 -0.10795212 -0.079250716 -0.10424805
0000d0 2b 41 3d bd 8c 56 be 3d 18 ca 81 3d 88 34 cb 3d
       -0.046204727 0.09293851 0.063373744 0.09922129
0000e0 fe f2 f4 3d 5d 62 15 3d c6 f8 8a bc f8 21 f4 bb
       0.119604096 0.03647076 -0.016964328 -0.0074503385
0000f0 72 38 4f bc 18 24 89 3d 77 51 10 3e 4b 17 6b bd
       -0.012647735 0.066963375 0.14093576 -0.05739526

weight f4 [64, 64]
000000 00 8e b0 3c 67 5e d9 3d 36 5d 5a bd 68 17 ce 3c
       0.021552086 0.10613709 -0.05331155 0.025157645
000010 e0 1d c9 bc e4 6f 5b bc 3a 8f 25 bd aa b0 de 3d
       -0.024550378 -0.013393376 -0.040419795 0.1087354
000020 6b 6c b3 3d d3 0f 0c 3d e9 e5 23 bc 58 a1 7f 3d
       0.087609135 0.03419478 -0.010003545 0.06240973
000030 58 46 f8 bd 00 7c 22 3e 70 5c 38 3c 58 fb cb 3b
       -0.12122792 0.15867615 0.011252508 0.006225031
000040 02 13 74 bc fa 1e f0 bd 0b a0 1d 3e 94 b1 11 bd
       -0.01489711 -0.11724658 0.15393083 -0.035569742
000050 ef 03 b8 bd 20 76 42 bd e5 ff 56 bd 17 8f 8d bb
       -0.08985125 -0.047475934 -0.052490134 -0.004320036
000060 d8 31 c8 3c 5d 27 2d 3e 7b 50 a6 3d 8b ba 2b 3e
       0.02443783 0.16909547 0.08120819 0.16770379
000070 38 ef 53 bb 6f b5 1f 3d 16 60 44 3d 79 5e ea 3d
       -0.003233863 0.038991388 0.047943197 0.114438005
000080 f5 da 75 bd 88 48 2d 3d 77 72 a0 3d 09 53 fd 3d
       -0.060023267 0.0423055 0.078343324 0.12369353
000090 16 15 b7 3c 65 9e e0 bd 88 d6 ea bd 7e da 5f bd
       0.022348922 -0.10967711 -0.114667 -0.05465173
0000a0 df 25 ba bb 14 b8 14 be 5c b0 ca 3d d1 1f df ba
       -0.005680784 -0.14523345 0.09896919 -0.0017023032
0000b0 83 1a 97 bd 54 f5 4b 3d 8a 4d 7d bd 9a 59 fe 3c
       -0.073781036 0.04979451 -0.061841525 0.031048585
0000c0 91 bf 4b 3e f6 35 54 3d 7a 30 7e bd 70 9e 0e bd
       0.19897296 0.051809274 -0.06205795 -0.034819067
0000d0 f8 26 20 3e 46 30 4f 3d 85 52 14 3c 2a 5e c8 bc
       0.15639865 0.050583147 0.009052877 -0.024458963
0000e0 63 80 e8 3d 05 b8 8c 3c 41 ea d7 3d f4 3a 80 3d
       0.11352613 0.017177591 0.10542727 0.062612444
0000f0 15 da c4 bc 5b ae 41 3a 37 cd 60 bd 16 6f d4 3c
       -0.02402977 0.0007388347 -0.054883208 0.025931876
000100 f0 f7 9e 3d 23 62 0d 3b b1 fd b5 3d 34 12 8e 3d
       0.07762134 0.0021573387 0.088862784 0.06937066
000110 3e b2 87 bd bc 4c bb bd 40 30 54 3e 99 55 45 3d
       -0.06625794 -0.09145495 0.20721531 0.048177335
000120 8a 67 85 3d 0f 0c 4c bd a7 5e b1 3c ac b2 4f bd
       0.06513889 -0.049816187 0.021651579 -0.050707504
000130 10 4a cb 3c 73 ba 15 bd 1c 14 fe 3d aa c1 0f 3e
       0.02481559 -0.036554765 0.12406179 0.1403872
000140 82 fa 1b 3d d4 42 ea 3d d1 7d 88 3d 1b 63 15 bd
       0.0380807 0.11438528 0.066646226 -0.036471467
000150 33 a4 24 3e eb 9f c3 bd c3 9b ab 3d 53 cc 8e ba
       0.16078262 -0.09551986 0.083793186 -0.0010894634
000160 00 7a c9 b9 f1 8f 63 bd 9a 12 e8 3c 93 8f cf bd
       -0.00038428605 -0.055557195 0.028329182 -0.101348065
000170 0c 7c be 3d bc a4 74 bd e4 4f 92 bd a0 94 83 3d
       0.09301004 -0.059727415 -0.07144144 0.06424832
000180 3a d9 b0 bd 9c 40 05 3d 71 2d a5 bd 51 5a 4c bd
       -0.08635183 0.03253232 -0.08065308 -0.04989082
000190 d4 14 b1 bd 2d b7 de 3d a5 52 c0 3d 12 38 20 3e
       -0.08646551 0.10874782 0.09390763 0.15646389
0001a0 cb bc f6 bc e6 c7 d4 3d bf 48 8a 3d 7c 74 70 bd
       -0.03011932 0.1038969 0.067521565 -0.05870484
0001b0 4a df 5b bd b6 44 d8 3d e8 85 1f 3c 82 25 ce 3d
       -0.053679742 0.105599806 0.009736516 0.10065748
0001c0 28 a6 53 be 18 ee 90 3d cd 71 17 3e 88 1c ac 3d
       -0.20668852 0.07076663 0.14789505 0.084038794
0001d0 22 f7 a6 bd 22 44 13 3e 89 32 19 3e 3d 33 ae 3c
       -0.081526056 0.1438146 0.14960684 0.021264667
0001e0 d1 34 fc bb ef c2 00 3e 41 24 9e bc 8b a2 8b bd
       -0.007696726 0.12574361 -0.019304397 -0.06818112
0001f0 2a be 75 3d ff ec 97 bd 44 1a 0f 3e 9b ad 3e bc
       0.059995808 -0.0741825 0.13974863 -0.01163807
000200 b0 07 8a bc 24 c9 51 3d 0d f1 3b bd 80 ce 87 3c
       -0.016849369 0.051217213 -0.04588418 0.016577959
000210 f0 29 d4 bd 6f cc b0 bd 16 e4 db 3d 59 69 28 3d
       -0.103595614 -0.086327426 0.10736863 0.041116092
000220 a6 f4 b7 3d 87 c3 46 3d b4 9d 7e bd 6a 84 db bd
       0.0898221 0.048526313 -0.062162116 -0.10718615
000230 34 d7 05 3d 88 bd b4 bd 34 f0 d3 bd 68 eb 3e bc
       0.032675937 -0.08825213 -0.103485495 -0.011652805
000240 e5 03 0c 3c a6 56 b8 3c 5b 51 a8 bd 26 29 72 bd
       0.00854585 0.022502255 -0.08218642 -0.059121273
000250 df 99 7d 3d a2 d1 e7 bd 99 96 8d 3d d4 92 84 bd
       0.06191432 -0.11319281 0.0691349 -0.06473318
000260 78 cc 07 bc 8b 68 c5 3d 8e 15 ee bd a1 fd 7b 3d
       -0.008288495 0.096390806 -0.11625205 0.061521176
000270 f8 f3 4b bd 6d d9 f5 3d 57 9a 14 3d c2 62 94 bd
       -0.049793214 0.12004361 0.036280002 -0.07245399
000280 4b 3a 09 bc f0 51 da bc 07 9c fa bd c5 b3 70 bd
       -0.0083757145 -0.026650399 -0.12236791 -0.05876519
000290 f0 0a 6c 3d 9e f4 5f bd 24 86 ef 3d 97 0e 46 3d
       0.05762762 -0.054676645 0.11695507 0.048353758
0002a0 85 b3 29 bd 3a 98 80 bd bf a4 e2 3d 5f 26 91 bd
       -0.04143097 -0.06279035 0.11066579 -0.07087397
0002b0 8c 3a cf 3d b8 0f 82 3c 7b fe aa 3b 34 e1 c1 3d
       0.10118589 0.015876636 0.0052183247 0.09466782
0002c0 6e 30 6d 3d 78 ba b4 3d 08 bc f1 bd 98 f5 91 3c
       0.057907514 0.088246286 -0.11803442 0.017817304
0002d0 b8 6b 29 bd 6d fe e8 3d 1f 57 81 bd 78 45 65 bc
       -0.041362494 0.11376653 -0.06315445 -0.013993613
0002e0 c4 3d 67 bd bc b6 e1 bd 56 29 58 bd 7d eb b2 bd
       -0.05645539 -0.11021182 -0.052773796 -0.08736322
0002f0 23 b0 ea bd 7a 2d 03 bd 1f 6c d1 3d b4 a4 f0 bd
       -0.11459377 -0.03202579 0.102257006 -0.11750165
000300 80 52 5a bb cc 24 51 bd 37 16 d0 3d f0 fa 7d bc
       -0.0033313334 -0.051060483 0.10160487 -0.015501723
000310 aa 8e ac 3d 5e 75 ee 3d 63 96 d5 bd f8 78 32 bc
       0.084256485 0.1164348 -0.104290746 -0.010893099
000320 dd 88 13 3e ec c0 f3 bd f6 0a c1 3d 78 47 30 3d
       0.14407678 -0.11902031 0.09425919 0.043036908
000330 80 60 db 3a d3 98 53 bd 2c 39 f0 3d 5a 79 01 3e
       0.0016737133 -0.051659416 0.11729655 0.12643948
000340 a6 61 34 be e3 8a 80 bc bb c3 cf 3c bc 73 b3 3d
       -0.17615375 -0.015691226 0.025361886 0.08762309
000350 79 38 07 3e 02 43 ac bd 41 df a6 bd ff a1 b7 3b
       0.13205136 -0.08411218 -0.08148051 0.0056040282
000360 2c 28 84 3d c4 c0 0e be 6e d1 08 be 51 65 2d be
       0.06452975 -0.13940722 -0.13361141 -0.1693318
000370 7b cc ac ba 1c 18 83 bd 2c 8c af 3d f4 73 a1 bd
       -0.0013183499 -0.06401083 0.085716575 -0.078834444
000380 46 09 89 bd 60 c5 89 3b f3 1b e8 3d 9b d5 7d bd
       -0.06691222 0.004204437 0.11333456 -0.06197129
000390 b0 24 bf 3c e0 d6 76 3d b6 3e 64 bd aa 45 7d 3d
       0.023332924 0.060263515 -0.05572387 0.061834015
0003a0 49 fd a0 bd 19 cb cd 3c a4 72 17 3c 42 8d b6 bd
       -0.0786081 0.025121259 0.009243641 -0.089136615
0003b0 47 71 44 3d d3 9f 66 bd 5c 09 85 bd ba 43 a4 bd
       0.047959592 -0.056304764 -0.06495926 -0.0802073
0003c0 e7 ab 11 be 9e 76 01 bb 63 67 ce 3d 4e 59 98 bd
       -0.14225732 -0.001975454 0.10078313 -0.074389085
0003d0 c9 08 ca bd 35 28 81 3d a5 7a be bd ed 5b f8 bd
       -0.09864957 0.06306497 -0.09300736 -0.121269085
0003e0 79 1c a2 bd a1 56 46 3d ca 5f 9f bd 43 61 34 3d
       -0.07915587 0.04842246 -0.07781942 0.04403807
0003f0 66 25 5e bd 04 fc 3c bd 3f 92 13 3e 57 d4 8a 3d
       -0.054234885 -0.04613878 0.14411257 0.06778782

bias f4 [64]
000000 a8 73 03 3e 10 02 ca bd ba b6 48 bd b3 f8 54 3c
       0.12837088 -0.09863675 -0.049002387 0.012998748
000010 41 4f 03 be 92 b1 37 bd 6c 40 de 3b 92 87 d6 bc
       -0.12823202 -0.04484708 0.006782582 -0.026187692
000020 91 47 88 bb b5 fd a6 3d db ad 82 3c 3a 31 05 3e
       -0.004158922 0.081538595 0.015952041 0.1300706
000030 da bc 1e 3d 12 1b 77 3d 23 f3 c0 3d 55 ca 9a bd
       0.03875432 0.06032855 0.09421375 -0.07558123
000040 59 d6 6d 3c 4a f7 d8 bb 7f 16 bf 3d d2 77 29 3c
       0.0145164365 -0.006621276 0.09330463 0.010343509
000050 5e d7 e3 bd 63 6f c0 3d 74 46 47 bd 5f 41 f3 3c
       -0.111250624 0.09396245 -0.048651174 0.029694257
000060 ed 5a 87 3d d9 c4 bd bd 51 aa 77 bd 16 61 ba bd
       0.066091396 -0.09266061 -0.06046516 -0.09100549
000070 e9 40 f0 bc ef 59 bf 3b b3 33 19 3d dc b0 eb bd
       -0.029327827 0.0058395783 0.03740282 -0.115083426
000080 9a d1 04 be 21 c9 8b bd 0f d7 12 3e 88 5f 6d bd
       -0.12970582 -0.06825472 0.14339851 -0.057952434
000090 26 a5 4b 3d c6 d0 f9 3d 6c 3f be bd 40 13 84 bc
       0.049718045 0.121980235 -0.092894405 -0.01612246
0000a0 a2 76 07 3e 11 46 0d 3e a8 b8 d0 3d a4 02 38 3c
       0.13228849 0.1379626 0.101914704 0.011231098
0000b0 16 ec ab 3d 36 6f f8 3d e9 af c4 bd 3d b5 c2 bb
       0.08394639 0.12130587 -0.09603865 -0.0059420154
0000c0 78 84 83 bd 69 80 c0 3d 64 83 d5 3d 31 5a 94 3d
       -0.06421751 0.09399492 0.104254514 0.07243765
0000d0 cb 60 03 bd c1 71 23 3e cf a3 24 bd 2b eb 4f bc
       -0.03207473 0.15961362 -0.040195283 -0.012690346
0000e0 94 38 c9 3d ed 0a f5 bc 84 f7 02 be 75 a0 cc 3d
       0.098252445 -0.029912436 -0.12789732 0.09991542
0000f0 77 aa b3 bd 75 05 3b 3d 60 30 67 bd f5 56 6a bc
       -0.08772748 0.0456595 -0.05644262 -0.014302959

weight f4 [64, 64]
000000 94 8a 01 be 85 5d a6 bd 43 60 b2 bd cc 26 8a 3d
       -0.1265052 -0.08123306 -0.08709767 0.06745681
000010 4c dc e8 3d 2c fd 58 3d 28 db 7a bd b4 1e d6 3d
       0.11370143 0.05297582 -0.06124416 0.10455075
000020 e2 33 c7 bd 3d 97 a7 3c 91 f5 f2 3c 53 69 2e bd
       -0.09726693 0.020457858 0.02965811 -0.042580914
000030 8f fb ed bd 54 1b af bc 42 7a b1 bd 08 95 32 3d
       -0.116202466 -0.021375336 -0.08665897 0.04359916
000040 32 ab a4 3d bd 70 a5 bb d9 f4 9f 3d b5 9d 8b bd
       0.080404654 -0.00504884 0.07810373 -0.068171896
000050 b0 1b b3 3d 7b 51 94 bd be 32 a4 3c 03 52 67 bd
       0.08745515 -0.07242104 0.020043727 -0.056474697
000060 0c 62 e8 3d d8 ff 0d 3c 3f e8 d8 bd e2 b6 bb bd
       0.11346826 0.008666955 -0.105911724 -0.091657415
000070 be ac 91 bc b0 41 a8 bc 4e ea d4 bd 84 f6 09 bd
       -0.017782565 -0.020539135 -0.103962526 -0.03368236
000080 ea 3b eb bd 5a 8d a0 3d 00 af 05 3d a8 8f f8 3c
       -0.11486037 0.07839461 0.032637596 0.030341938
000090 e9 19 95 3c 7b fb d6 bb d0 bf 12 bc d4 3d be bd
       0.018200831 -0.0065607405 -0.0089568645 -0.092891365
0000a0 93 be ba bd 6f a7 cd 3d 24 a3 05 3e f5 58 77 bd
       -0.091183804 0.10041701 0.13050514 -0.06038757
0000b0 8b 1a dc 3d ac 68 15 bd 10 86 7c 3d 87 db b7 bd
       0.1074725 -0.036476776 0.06165129 -0.089774184
0000c0 38 3d b5 3b 12 76 fa bd b0 4d da 3d 0c d6 14 3c
       0.0055309795 -0.122295514 0.10659349 0.009084236
0000d0 b2 50 dc bd 9e d5 ba 3c 2b 6a d1 3d 0a 62 d9 bd
       -0.10757579 0.022806939 0.10225328 -0.106144026
0000e0 04 15 d2 bc 07 2e 39 3d fc 52 f3 3d 3f de 72 3d
       -0.025644787 0.04520991 0.118810624 0.05929398
0000f0 10 9b be bd 54 b1 1c bd 84 15 d5 bd b4 90 ef 3d
       -0.093069196 -0.03825505 -0.104044944 0.11697522
000100 da f9 38 3e a0 e3 a5 3c 6f c0 89 bc f1 2f c7 bd
       0.18064061 0.020250142 -0.016815392 -0.09725941
000110 be 38 9f bc cc eb d3 bd 20 da a3 3d fd 63 a9 3d
       -0.019436236 -0.10347709 0.080005884 0.082710244
000120 6b 2f 7e 3d b9 e5 09 3e 6f fb b1 3b 93 40 95 ba
       0.06205694 0.13466538 0.0054315845 -0.0011387042
000130 f3 2c cd 3d 97 62 c6 3c a0 32 cc bb 15 4f 03 be
       0.10018339 0.024216933 -0.006231621 -0.12823136
000140 a0 53 4b b9 2c dc 66 bd a8 9e 14 bd 88 ee 06 be
       -0.00019390741 -0.056362316 -0.03628412 -0.1317693
000150 b4 27 75 bd ea 60 d0 3d 93 ff ef bc 25 56 d8 3d
       -0.059852317 0.10174735 -0.029296672 0.10563306
000160 2b 16 cf 3d 4b be d1 3d ca 83 30 3e fa d7 91 bd
       0.1011165 0.10241374 0.17237774 -0.071212724
000170 23 23 a3 bd 4d 96 d7 3c 40 7c 23 bc 7b 78 8f bd
       -0.07965686 0.026316786 -0.009978354 -0.07005402
000180 82 4b bc 3d 23 b1 c6 3c 3a a1 a7 bd 70 57 77 bd
       0.091940895 0.024254387 -0.081850484 -0.06038612
000190 06 75 d3 3d 3f 81 fc bd 90 12 67 3d da 49 f1 3d
       0.10325055 -0.12329339 0.056414187 0.11781664
0001a0 2b dd 96 3d 8c 4b 8d bc 0a 96 aa 3d 94 f4 90 bd
       0.07366403 -0.017247938 0.08329399 -0.070778996
0001b0 8f c1 c4 bd 66 19 49 3d 0e 17 27 3e b2 69 01 be
       -0.09607231 0.049096487 0.16317388 -0.12637976
0001c0 4f 2c c9 3c 4b b6 35 3c b7 12 6b 3b 77 16 06 3e
       0.02455726 0.011090825 0.003586931 0.13094507
0001d0 f8 ae 30 bd 4c 8e 30 3d 6b 4b 71 bd 09 8e f9 3b
       -0.043135613 0.043104455 -0.058909815 0.007615809
0001e0 a3 8e 2b 3d 59 63 35 3e 20 f6 cd 3d e7 67 db bd
       0.041884076 0.1771368 0.1005671 -0.10713177
0001f0 0e 07 99 3d aa 09 99 bc 1c bf ab bc 87 9e be 3d
       0.07472049 -0.018681366 -0.020965151 0.093075804
000200 c3 32 7b bc db 80 50 3d 6b 53 a0 3c 69 9f 91 bd
       -0.015331927 0.050904136 0.019571027 -0.07110483
000210 3f e7 8e bd 5c 7f 17 3d 73 ac 57 3d c5 6d 01 be
       -0.069777004 0.036986694 0.052654695 -0.1263953
000220 fe 11 8d 3d f0 46 2d bd 15 1f b2 bd 74 a2 64 3d
       0.06888197 -0.04230398 -0.08697335 0.05581899
000230 e8 fa f4 bd a5 b4 30 3d 12 21 6f ba 0f 21 91 3d
       -0.11961919 0.043141026 -0.00091220543 0.070863836
000240 c0 0d 9d 3d 40 ff 38 3c fc c3 cf bd ab ae 40 3b
       0.07668638 0.011291325 -0.10144803 0.0029400985
000250 cc 36 0c bd be f9 e5 bd f2 64 09 ba d2 98 3d 3d
       -0.034231946 -0.11229275 -0.0005241177 0.04628832
000260 c6 8d 9b 3d c2 a1 b6 3d 80 b4 96 ba 8e d7 8b bc
       0.075954005 0.089175716 -0.0011497885 -0.017070558
000270 38 bc 57 3c ed 5c 12 bd f4 bb 9e 3d 80 b2 7c 3d
       0.013167433 -0.035733152 0.07750693 0.06169367
000280 90 83 6e bc 55 48 31 3d 5c 28 bd 3a bc 3f 37 bd
       -0.014557734 0.04328187 0.0014431584 -0.044738516
000290 06 0d e0 bc 7d 6a 56 3d c0 3b a1 3d 22 58 a4 3d
       -0.02734996 0.05234765 0.078727245 0.080246225
0002a0 20 e3 e7 bd 2d 90 a4 bd 20 bf 95 3c 6b 2f c0 3d
       -0.113226175 -0.08035312 0.018279612 0.09384044
0002b0 b0 a1 fe 3c 9c d1 03 3d dd 8b 8b bd a3 a3 83 bd
       0.031082958 0.03218232 -0.06813786 -0.064276956
0002c0 21 bb 73 bd be 4d c9 3d 08 d2 f9 bd a9 fd b4 bd
       -0.059504632 0.09829281 -0.121982634 -0.08837444
0002d0 b0 71 f7 bd e2 af b6 bd 21 3f bc 3d 5a 36 fe 3d
       -0.12082231 -0.08920266 0.091917284 0.124127105
0002e0 01 5f 6e bb e0 1d 95 bc fa 9d d8 bd c5 ae 03 3d
       -0.0036372545 -0.018202722 -0.10577007 0.032149095
0002f0 d0 db f3 3c 8f 65 47 3d 72 33 c4 3d c3 a9 a7 bd
       0.0297679 0.04868084 0.09580125 -0.08186676
000300 c5 b8 cd 3d 5c b6 c6 bd 81 ae 6b 3c e9 56 09 3d
       0.100450076 -0.09702751 0.014384867 0.03353015
000310 04 2c 9a bd 35 4f b1 bd 99 6b 21 3d 86 a1 c2 bc
       -0.075279266 -0.08657686 0.039409254 -0.023758661
000320 c2 76 be 3d a7 62 e6 bd 7c d4 d4 3d c6 7b b4 3d
       0.09299995 -0.11249285 0.10392091 0.088126704
000330 ce 6b d4 3d 33 ea 61 bd 25 b0 95 bc 6a be 0b be
       0.103721246 -0.05515499 -0.018272469 -0.13646856
000340 99 83 0b bc d8 88 d5 3d ce 22 d0 3d 26 e6 8d bd
       -0.008515262 0.104264915 0.101628885 -0.06928663
000350 d8 c3 e0 3d 92 e4 e9 3d fc 8f 58 3d c7 2e 75 3d
       0.10974854 0.114205495 0.05287169 0.059859063
000360 1a a4 e7 3d 05 04 cb bc ec 0c 02 3e 75 1e 05 3d
       0.11310597 -0.02478219 0.12700242 0.03249975
000370 1e 0f 04 3e 2a dc 0d bd cc fe ce bd bd ac de bd
       0.12896392 -0.034633793 -0.101071924 -0.10872791
000380 41 af a0 bd e4 58 d9 3c 93 da b3 bc 94 62 29 3d
       -0.07845927 0.026531644 -0.02195481 0.041353777
000390 a0 75 84 3d 42 9b 90 3b ef f1 b2 3d 58 cc a8 3c
       0.06467748 0.0044130394 0.087375514 0.020605251
0003a0 4a 6a 02 3e 69 40 d9 3d 15 e3 3a 3d 1f 0b 7e bd
       0.12735859 0.106079884 0.04562672 -0.062022325
0003b0 a7 32 80 bd 03 f4 e3 ba 59 fa 85 bc 4c 9e 9e bd
       -0.06259661 -0.0017391447 -0.016354727 -0.077450365
0003c0 b4 4d a7 bd fd 75 19 3c 33 f4 a0 3d 90 d7 31 3e
       -0.081691176 0.0093665095 0.07859077 0.17367387
0003d0 2c 8d 35 bd 18 2e e4 ba ac 27 dc bd 06 5b e8 3d
       -0.044324085 -0.0017408757 -0.10749754 0.11345486
0003e0 28 a3 99 bd f2 d6 47 3d 6b 1a 88 3c 23 84 38 3d
       -0.07501823 0.048788972 0.01661416 0.04504789
0003f0 29 9c 9d 3d 70 bb 6b 3b e3 76 74 bd a8 0d b1 bd
       0.07695801 0.0035969876 -0.05968369 -0.08645183

bias f4 [64]
000000 d5 50 98 3d 41 83 7b 3d 4e b2 cc bd 80 2d a1 bd
       0.074372925 0.06140447 -0.099949464 -0.078700066
000010 99 c4 b7 3d 5b d7 ca 3d 27 f9 ca 3d c6 f7 ce 3c
       0.08973045 0.09904357 0.09910803 0.025264632
000020 35 ca 6c bd fa 00 fc bd e2 91 ac 3d 44 47 88 bd
       -0.057810027 -0.12304874 0.084262624 -0.06654218
000030 ea da c3 bc ec 45 fe 3d 42 c0 fa 3d 66 74 e2 bd
       -0.023908097 0.1241568 0.122437015 -0.110573575
000040 d7 53 cd 3d 22 bb c0 3d 84 30 01 bd da 1f de bb
       0.10025757 0.09410693 -0.03154041 -0.0067786993
000050 5c 3e 56 bd f2 fc cb 3d 8d 09 81 bc b5 88 4f 3d
       -0.052305564 0.09960355 -0.015751624 0.050667483
000060 17 36 e1 bd f4 f1 a9 3d cb 89 8e bc f8 fd c3 bc
       -0.10996645 0.08298102 -0.01739969 -0.023924813
000070 00 c7 5f bc ab 34 d4 bd c0 d9 9c 3b e0 32 e6 3d
       -0.013658285 -0.10361608 0.0047867 0.112401724
000080 81 98 b9 bb d0 0e 05 bc ef af b3 bb ec 44 71 bd
       -0.005663932 -0.008121207 -0.0054836194 -0.05890362
000090 71 34 bb 3d 51 bb 90 3d 66 c6 b1 3d 03 23 29 bd
       0.09140862 0.07066978 0.086804196 -0.041293155
0000a0 49 51 39 3d 42 93 00 3d f3 64 6b 3b ad 3f b8 3c
       0.045243535 0.031390436 0.0035918325 0.0224913
0000b0 e6 6e c5 bd d7 78 22 bc 96 5f 0d 3e 1c 59 49 bd
       -0.09640293 -0.009916506 0.13805994 -0.049157247
0000c0 7f 2c 6a bc e6 23 ee 3d e9 bc 60 3c 99 07 14 3c
       -0.014292835 0.11627941 0.013716915 0.009035015
0000d0 76 42 8d bd 87 45 34 bd 58 ab 96 bd 4b c3 b3 3c
       -0.06897442 -0.04401162 -0.073569 0.021943709
0000e0 50 fd 05 bd 5d f3 80 bd 7f 22 ec bd f2 d4 d0 bd
       -0.03271228 -0.06296418 -0.11530017 -0.10196866
0000f0 c0 86 b1 3d 03 76 9b bc ca 7a c3 3d 7c 7e 5b 3d
       0.0866828 -0.01897717 0.095449045 0.05358742

weight f4 [64, 64]
000000 94 81 a7 3c 71 4f b7 bd 84 c6 92 bd 9b 56 f8 bd
       0.02044753 -0.08950699 -0.0716677 -0.12125894
000010 1c 73 ee bc 7d ac f4 bd b9 df e9 3d 19 0b a6 bd
       -0.029107623 -0.11946962 0.11419625 -0.081075855
000020 1e 6d f6 bd 58 45 ae 3d 6e 27 11 be 24 42 cf 3d
       -0.12032531 0.0850932 -0.14175197 0.10120037
000030 b7 61 c0 bc 2d ad 82 3d 7a fc f9 bc cc 29 ff bd
       -0.023484094 0.06380687 -0.030515898 -0.12459144
000040 0d bb b0 3d d9 9d f5 3b 0a c2 de 3c 32 10 c9 bd
       0.08629427 0.0074956235 0.027192134 -0.09817542
000050 80 8d 40 bc 99 97 89 bd b9 ed be bb a5 10 22 3e
       -0.011752486 -0.06718368 -0.0058266786 0.15826662
000060 91 4e 26 be b8 7b f7 3d 3e 2d 43 bc 66 a9 b9 3d
       -0.16240908 0.12084144 -0.011912642 0.09065513
000070 14 a9 13 3d 90 fc 94 bd c0 f6 36 3d a9 c3 57 bd
       0.036049917 -0.07274735 0.044668913 -0.05267683
000080 2e 05 8a 3c e2 74 65 3d e3 19 47 be 10 12 3a 3e
       0.016848173 0.05601967 -0.19443469 0.18170953
000090 7a 15 7d bd 30 4f 0c 3e f8 68 58 bd 7f 0b 3e 3e
       -0.06178806 0.13702083 -0.05283448 0.18559073
0000a0 fa d6 03 3b e9 7e 7b 3d 04 7d 20 3e 49 b7 95 bd
       0.002011715 0.061400328 0.1567269 -0.073103495
0000b0 10 8a e9 bd 11 d1 50 bd 03 3e b7 bd 17 89 83 bd
       -0.114032865 -0.05098063 -0.08947375 -0.06422632
0000c0 e4 56 49 bc 46 fa cb 3c 90 9f 8b 3c 05 39 4a 3c
       -0.012288783 0.024899613 0.017043859 0.012342696
0000d0 0d a6 33 bc 3c 80 df 3d 36 aa b0 bd 6f a4 f7 3d
       -0.010964883 0.10913131 -0.08626215 0.1209191
0000e0 5a ac c7 3d cc a8 ac bd 19 1e 10 be 0b 28 ab bc
       0.0974967 -0.08430633 -0.14073981 -0.020893117
0000f0 b5 87 c6 3d 36 cf 8e 3c ac 12 98 3d f5 b8 2a 3e
       0.09693853 0.01743279 0.074254364 0.16672118
000100 74 4a 3e bd 18 8b ba 3d 4c 97 77 3d 92 f5 9b 3d
       -0.046457723 0.09108561 0.060447022 0.07615198
000110 54 2c 98 bd 1c f1 c5 3d 70 37 28 bd 48 d5 cd bc
       -0.0743033 0.096651286 -0.041068494 -0.025126114
000120 7c 05 e8 bd 64 2a 19 3d 8c 68 f7 bd 20 c1 00 3d
       -0.11329171 0.037393942 -0.120804876 0.03143418
000130 a4 47 32 bd 24 c4 46 bd 1c a5 0a bd ba 3e c0 3d
       -0.043525353 -0.048526898 -0.033848867 0.09386964
000140 d0 2e 5f 3d 28 9d 28 3d 60 52 3e bc 80 9f 58 bb
       0.054488003 0.0411655 -0.011616319 -0.0033054054
000150 1a 54 f7 3d b6 77 e2 bd 0c 65 12 3d dc f4 da bd
       0.12076588 -0.11057989 0.035740897 -0.106912345
000160 90 d9 15 bd 56 c5 eb 3d 6e d8 9d bd b0 b6 6a 3c
       -0.036584437 0.11512248 -0.07707296 0.014325783
000170 cc 9c 93 3d 60 8f b1 bc 8c 18 93 bd a0 71 39 bd
       0.07207641 -0.021674812 -0.07182416 -0.045274377
000180 b6 6a e6 bd 90 7d 53 3d 30 59 8e 3c a0 6f 86 3c
       -0.11250822 0.051633418 0.017376512 0.016410649
000190 6c f6 2c 3d 22 99 fc 3d 00 6c 7b bc 1c 8a fa bd
       0.042227194 0.12333895 -0.015345573 -0.122333735
0001a0 d8 c3 78 bd 7c fc 34 bd 8a 9e 89 bd e4 95 ac bd
       -0.060733646 -0.0441861 -0.06719692 -0.08427027
0001b0 40 97 60 3d 3a 12 fe 3d 98 b4 af 3d 50 23 2f bd
       0.054831743 0.1240582 0.085793674 -0.042758286
0001c0 f0 1e 77 bd b4 76 79 bd 80 92 81 3b 9c de 4a bd
       -0.06033224 -0.06090422 0.0039542317 -0.049528703
0001d0 30 b4 9f bd fc 0b ae 3d e4 92 2a bd 68 2b 8b bd
       -0.0779804 0.084983796 -0.041643992 -0.067953885
0001e0 c0 96 9c 3c 0a 36 8b bd ca bd da 3d b8 a0 32 3d
       0.019114852 -0.067974165 0.10680731 0.043610305
0001f0 14 96 08 bd 34 ab b5 3d f8 01 cb 3c 18 30 bb 3c
       -0.03334625 0.08870545 0.024781212 0.022850081
000200 ba 7f 97 bd 30 45 3e 3e c0 f8 ec bd e7 cd ef bc
       -0.07397409 0.1858108 -0.11570883 -0.029272987
000210 a8 bb 54 bd 4b 15 6b bd 07 81 c1 3d 4f 8e 69 bd
       -0.051936775 -0.057393353 0.09448438 -0.05702048
000220 a2 25 be 3d 38 57 c7 bc f0 2c 2c 3e 78 f4 be bc
       0.09284522 -0.024333581 0.16814017 -0.023309931
000230 32 5f b5 bd 37 a4 9e bd cf d1 bb 3d 40 b0 b4 bb
       -0.08856048 -0.07746165 0.09170877 -0.0055141747
000240 1b 9b e1 bd fc 8a c6 3d 40 0a 1b be 67 16 8b 3d
       -0.11015912 0.09694478 -0.15140629 0.06791382
000250 3e 95 39 3d 22 31 c7 3d e5 9e 4e 3d 67 c1 f4 bd
       0.045308344 0.09726168 0.050444502 -0.11950951
000260 13 b0 44 3c 85 b6 80 3b 47 2c 03 3e 80 3f 40 3d
       0.01200487 0.003928008 0.12809859 0.04693556
000270 f4 60 01 3d f6 ab f0 bd c4 33 f5 bd 06 13 08 3e
       0.031586602 -0.11751549 -0.11972764 0.13288507
000280 58 b3 1c bc 6d 3f 8c 3d 90 6a 1d bd 50 66 82 3d
       -0.009564243 0.06848035 -0.038431704 0.06367171
000290 86 38 33 bc d0 9d ff bd e8 c1 1f 3d b6 5f 8b 3d
       -0.010938769 -0.12481272 0.039003283 0.06805365
0002a0 77 81 03 be 05 2c f2 bc a8 68 b2 3d a2 28 56 bc
       -0.12842356 -0.029562006 0.08711368 -0.013071211
0002b0 74 6b 95 3d 14 46 e0 3d 4e da f6 3d 24 5a 26 3e
       0.07295886 0.10950866 0.12053357 0.16245323
0002c0 a0 bc a8 bd 44 30 6d 3d 0e ee e2 bd 2b ee 7c 3d
       -0.08239102 0.057907358 -0.110805616 0.061750572
0002d0 ee 93 16 bc c8 98 be 3d d8 10 20 bd 37 b6 a9 bd
       -0.009190543 0.093064845 -0.039078563 -0.08286708
0002e0 9c 7b ac 3d a3 10 b2 3d 59 f5 cd bd de c7 b1 3c
       0.08422014 0.086945795 -0.10056562 0.02170175
0002f0 f1 0b e8 3d 40 85 24 3d bc a4 82 3d aa c4 7d bd
       0.11330403 0.04016614 0.06379077 -0.06195513
000300 96 7f b1 3d ac c8 b9 bd 4a 2e b3 bd b2 80 6d bd
       0.08666913 -0.09071478 -0.08749063 -0.05798406
000310 7b 65 78 bd 1c b8 14 bd 0a 3f 23 3e 09 0e 13 be
       -0.060643654 -0.036308393 0.15942016 -0.14360823
000320 90 6e 22 3c 58 2c 5b bd 2d 0f 04 be 00 e2 3a 3a
       0.0099140555 -0.053509086 -0.12896414 0.00071290135
000330 6b 0f f3 bd dc 68 53 bd fc eb cc bd 80 16 13 3c
       -0.11868175 -0.051613674 -0.10005948 0.008977532
000340 73 0d c0 3d 88 dd 1f bd 19 87 20 3e c8 35 9b 3d
       0.09377565 -0.039029628 0.15676536 0.07578617
000350 00 3f 6f 3a ad 3f 2d 3e b3 2d 26 3e ab dd df 3d
       0.0009126514 0.16918822 0.1622837 0.10930952
000360 f4 ea 7c bb 4a 4f 23 bc 0c 4d 98 3d 20 ff 4a bc
       -0.0038592191 -0.009967634 0.074365705 -0.012389928
000370 1e a1 98 3d 42 d4 32 3c 78 7e 93 bc a3 75 19 3d
       0.07452606 0.010914864 -0.018004641 0.037465703
000380 fa 8e 03 bc a3 4c d5 bd d0 ae f5 3c 64 0d bf 3d
       -0.008029694 -0.10415008 0.029990584 0.09328726
000390 ea 88 9f bd da 88 2c 3e fc 1f 36 bd d9 08 ef 3d
       -0.07789786 0.1684908 -0.044464096 0.116716094
0003a0 f7 17 6c bd 26 47 c6 3d 9a 41 b3 3d f7 57 19 3e
       -0.057640042 0.09681539 0.08752747 0.14974962
0003b0 48 36 84 3d fc 24 ae 3c fb 3c 19 be fc e1 39 bd
       0.06455666 0.02125787 -0.14964668 -0.04538153
0003c0 ae 58 bd bd 10 7e 2c 3e f4 f2 10 bd 2c f8 d4 3c
       -0.0924543 0.16844964 -0.03538795 0.025997244
0003d0 cb a8 15 bd 9b 34 0c 3e a6 f8 a4 3d b8 fe 49 3d
       -0.036537927 0.13691942 0.080552384 0.049315184
0003e0 2f 92 87 bd 27 35 3f bc b5 b0 94 3d fb e6 34 3e
       -0.06619679 -0.011670387 0.07260267 0.17666237
0003f0 64 ff e6 3d 14 d3 cb bd 51 36 0e 3e 80 3d 7f 3d
       0.11279181 -0.09952369 0.13887908 0.06231451

bias f4 [64]
000000 26 97 b2 3d 54 f8 bb bd a2 fa 0a bc 76 ee 61 bd
       0.087202355 -0.09178224 -0.008482607 -0.055159055
000010 5d a5 f5 3d fa 4b bd bd 3c 70 7c bd c1 b4 86 3d
       0.11994431 -0.09243007 -0.061630473 0.06577445
000020 5d 89 2c bc f3 3d 0f 3d b9 92 83 3d c8 77 1e 3d
       -0.010530797 0.03497119 0.064244695 0.03868845
000030 43 75 7c 3d 34 e4 8d bd fd 5d 22 bd cd 2d c7 3d
       0.061635267 -0.06928292 -0.039640415 0.09725533
000040 1e 47 0c be 15 90 59 3d 49 78 cb bd 3f 4c b7 3d
       -0.13699004 0.053115923 -0.09935052 0.0895009
000050 83 f6 1f bd c3 1b b7 bc d2 0f 3b 3d 85 f1 fa bd
       -0.03905345 -0.022352105 0.045669384 -0.122530974
000060 51 6f b2 3d 51 77 dc bd a2 1f 52 3c 88 fe bd 3d
       0.08712638 -0.10764945 0.012824925 0.092770636
000070 9f b8 41 3d d7 14 35 3d 9a 78 01 3e ff f2 f8 bd
       0.04729521 0.044209328 0.12643662 -0.12155723
000080 a9 5c a2 bd 0a 84 12 bd e5 b7 b7 3d 1b ee 77 bd
       -0.0792783 -0.035770454 0.08970622 -0.06052981
000090 20 e5 4d bc ad 85 8b bd 00 c9 12 3e e7 49 ec 3c
       -0.012566835 -0.06812606 0.14334488 0.028843833
0000a0 2f d7 c1 3d 79 db bd 3c 50 28 dd 3d 9b a8 4e 3d
       0.09464871 0.023175942 0.107987046 0.050453763
0000b0 c0 09 b9 bd 6f 3e 35 3d 04 25 99 bd 99 89 05 3e
       -0.09035063 0.044248994 -0.07477763 0.1304077
0000c0 9b 88 7d bc e0 84 45 3b 19 e4 84 3d 46 db 8f 3d
       -0.015474464 0.0030139014 0.06488819 0.07024245
0000d0 fe 2e f8 bd 10 4b 68 3d 85 ac 90 bd c1 03 97 3d
       -0.12118338 0.05671221 -0.070641555 0.07373763
0000e0 7f 69 10 3e 68 64 08 3e e0 c9 30 3d 6b 4e bf 3b
       0.14102744 0.13319552 0.043161273 0.0058382056
0000f0 c1 bd ec 3d 6f 4d c7 bd 67 db b7 3d 00 96 21 bd
       0.1155963 -0.09731566 0.089773946 -0.03944969
