mlartifacts/554351476986166068/57dba1d1437448018f9910d78385bcbf/artifacts/models/Model_dim64_layers5_experiment/r2_score0.40370654484673474_run21/data/model.pth (torch, 294728 bytes, 13 tensors)

weight f4 [64, 801]
0.21410847 -0.19257013 0.074810766 0.05304228 -0.2992548 0.32885328 -0.025068464 0.44800904
0.014267105 -0.03752126 -0.03135717 -0.060696635 0.06758559 0.024523329 0.004095098 -0.26722413
0.0008377515 -0.08279539 0.050687667 -0.10969774 -0.21591978 0.071796246 0.024329612 0.021346336
0.061567802 0.30659974 0.16686997 0.25917542 -0.118203364 0.15107995 -0.5632506 0.48616755
0.1809238 -0.0847929 -0.108601935 0.036964793 0.010067231 -0.054977395 -0.11994518 -0.023727193
0.04585054 -0.018405482 -0.02938419 -0.035070386 -0.0093087945 0.02061642 0.11272325 -0.02523726
-0.1379808 -0.0547105 0.044535294 0.021138828 0.08133108 -0.06625279 0.094212696 0.012305141
-0.13411216 0.12292233 0.005349309 0.002855491 -0.0083324555 0.022903046 0.08622279 0.060017794
0.004929589 0.04026316 -0.012827078 0.062647656 -0.034635734 0.025067633 0.053672064 0.0023353745
0.013788285 0.018359965 0.10850012 0.06104104 -0.02035133 0.032289147 -0.0509847 0.0015731325
0.102822945 0.019790255 0.024216365 -0.053272653 0.026770746 -0.004017607 -0.024053482 -0.005230253
-0.08474058 -0.0037130793 -0.0005990583 0.12302062 -0.035772532 -0.0021869035 0.027965207 0.09143972
0.016230239 0.019696292 -0.017687947 0.0016289628 0.004292905 0.03296351 -0.06389274 0.023914974
0.03175581 -0.07894984 0.116047695 -0.10499732 -0.06378659 0.018719764 0.19090115 -0.011230256
-0.036291532 -0.039269418 -0.033401236 0.40463647 -0.028591318 -0.0052892943 -0.08326548 0.022049434
0.20910029 0.027011221 -0.031871706 -0.02966919 -0.06531208 0.013373129 0.016241515 0.021141713
0.024891244 -0.102132715 0.015725968 0.04457708 0.07306868 -0.13169506 -0.022139229 0.0457203
-0.08615059 -0.074879766 -0.077054754 -0.06391226 -0.11126444 -0.020637562 0.010695619 0.012555274
0.051069666 0.06492174 -0.06520137 -0.041299406 0.06748306 0.013431685 0.02393738 0.061558228
0.121294856 -0.01597978 -0.031433623 0.09020456 -0.113504544 0.07041978 -0.032951463 -0.029443141
-0.02388959 -0.068440214 -0.005093285 -0.041589387 0.024302945 -0.08086115 -0.010143607 -0.010318619
-0.031571243 -0.029697243 -0.0400101 -0.038718697 0.033651255 0.025700584 0.003294423 0.02223422
-0.0026713822 -0.026586113 0.0059738434 -0.010033663 -0.08179612 0.003953531 -0.04979043 -0.0022010896
-0.049672745 0.069400616 -0.07499624 0.023851465 -0.026178656 -0.048924096 0.100074254 -0.089399666
-0.017250443 0.05037506 -0.006725839 0.03282522 -0.03864544 -0.047554255 -0.007776171 -0.02685271
0.0032953715 -0.043216247 0.0018434973 -0.014701684 -0.052855056 -0.0019191258 0.0042519593 -0.01860803
-0.09968718 -1.4756703e-05 0.018885164 -0.011119038 -0.038290404 0.03936789 0.034606457 0.08918236
-0.0059466064 0.105474 0.042855095 0.051304203 0.079848595 0.005969797 -0.034700308 -0.06303448
-0.06692009 -0.023137603 -0.07000474 0.052806575 -0.039357014 -0.13534003 -0.0006853133 -0.024015198
-0.03987868 -0.044215783 -0.013464971 0.010788926 -0.036190514 0.14092657 -0.07973354 0.09612262
-0.07298418 -0.05246432 -0.0073120547 0.03447788 -0.018421782 -0.10891562 -0.08908951 0.092051595
0.002078796 -0.057627987 -0.25927755 0.012850208 -0.012540109 -0.036936313 -0.09011147 -0.027806498
00000000: 403f 5b3e 1b31 45be 6336 993d dd42 593d
00000010: ed37 99be 755f a83e 615c cdbc 7161 e53e
00000020: 93c0 693c e5af 19bd 6070 00bd 099d 78bd
00000030: 506a 8a3d 26e5 c83c 2c30 863b 9ad1 88be
00000040: 8d9c 5b3a a190 a9bd df9d 4f3d 35a9 e0bd
00000050: 131a 5dbe e909 933d e54e c73c 83de ae3c
00000060: 852e 7c3d a4fa 9c3e f6df 2a3e a4b2 843e
00000070: 9b14 f2bd b4b4 1a3e 3131 10bf f4ea f83e
00000080: 1744 393e e6a7 adbd b16a debd 6568 173d
00000090: 07f1 243c fa2f 61bd d2a5 f5bd 885f c2bc
000000a0: c7cd 3b3d 18c7 96bc 1db7 f0bc f7a5 0fbd
000000b0: ea83 18bc c4e3 a83c 73db e63d 5fbe cebc
000000c0: d74a 0dbe 1e18 60bd a46a 363d 562b ad3c
000000d0: e990 a63d 8baf 87bd 96f2 c03d 819b 493c
000000e0: b354 09be b4be fb3d 4249 af3b 3023 3b3b
000000f0: da84 08bc 2b9f bb3c 9395 b03d 38d5 753d
00000100: 6488 a13b fcea 243d aa28 52bc 6a4d 803d
00000110: 33de 0dbd a35a cd3c 3dd7 5b3d 150d 193b
00000120: 42e8 613c a367 963c 5035 de3d 2b06 7a3d
00000130: d5b7 a6bc a041 043d 55d5 50bd 9131 ce3a
00000140: d694 d23d 2c1f a23c 6661 c63c 6d34 5abd
00000150: 534e db3c 21a6 83bb cf0b c5bc 8b62 abbb
00000160: 788c adbd 2257 73bb 1f0a 1dba 3cf2 fb3d
00000170: 3886 12bd 2752 0fbb 4a17 e53c bf44 bb3d
00000180: 47f5 843c 1e5a a13c 50e6 90bc ec82 d53a
00000190: 7fab 8c3b bf04 073d 32da 82bd 56e9 c33c
000001a0: 6112 023d 74b0 a1bd 6aaa ed3d d608 d7bd
000001b0: 8ba2 82bd 315a 993c 977b 433e 1cff 37bc
000001c0: 6ea6 14bd f8d8 20bd bccf 08bd 832c cf3e
000001d0: 5738 eabc d151 adbb 1887 aabd 04a1 b43c
000001e0: 631e 563e a346 dd3c e88b 02bd cd0c f3bc
000001f0: 57c2 85bd f81a 5b3c ed0c 853c 6331 ad3c
00000200: b9e8 cb3c f52a d1bd bfd3 803c 7596 363d
00000210: 08a5 953d 12db 06be 545d b5bc 3645 3b3d
00000220: b86f b0bd 905a 99bd e2ce 9dbd 6ee4 82bd
00000230: 9cde e3bd 1b10 a9bc ad3c 2f3c a3b4 4d3c
00000240: 6d2e 513d b0f5 843d 4c88 85bd 9129 29bd
00000250: 8f34 8a3d 9210 5c3c 5318 c43c 7b24 7c3d
00000260: 7069 f83d 07e8 82bc 8bc0 00bd 2bbd b83d
00000270: 1275 e8bd 3f38 903d 1df8 06bd be32 f1bc
00000280: 1ab4 c3bc 622a 8cbd 92e5 a6bb a259 2abd
00000290: f816 c73c 889a a5bd 5f31 26bc 6d0f 29bc
000002a0: d950 01bd a247 f3bc a1e1 23bd 7f97 1ebd
000002b0: e6d5 093d 088a d23c 3fe7 573b 8a24 b63c
000002c0: 5b12 2fbb 1fcb d9bc 3bc0 c33b 3c64 24bc
000002d0: b984 a7bd 9f8c 813b 0df1 4bbd 2840 10bb
000002e0: a675 4bbd e921 8e3d a197 99bd 2664 c33c
000002f0: 9f74 d6bc a264 48bd bbf3 cc3d 2c17 b7bd
00000300: cd50 8dbc 1456 4e3d 6d64 dcbb bd73 063d
00000310: ae4a 1ebd 40c8 42bd 40cf febb 37fa dbbc
00000320: 29f7 573b 8503 31bd 81a1 f13a 55df 70bc
00000330: 8b7e 58bd 2d8b fbba 0554 8b3b de6f 98bc
00000340: cb28 ccbd 8f93 77b7 0fb5 9a3c a02c 36bc
00000350: 66d6 1cbd 3a40 213d 80bf 0d3d 3ea5 b63d
00000360: c0db c2bb c102 d83d d388 2f3d 5b24 523d
00000370: a987 a33d 499e c33b e921 0ebd 3918 81bd
00000380: 660d 89bd 128b bdbc a55e 8fbd b54b 583d
00000390: d234 21bd 9496 0abe 99a6 33ba 85bb c4bc
000003a0: d457 23bd 9c1b 35bd 2f9c 5cbc 09c4 303c
000003b0: 813c 14bd 0e4f 103e 574b a3bd f0db c43d
000003c0: bb78 95bd d4e4 56bd f699 efbb ad38 0d3d
000003d0: 47e9 96bc 270f dfbd 9074 b6bd 8c85 bc3d
000003e0: 693c 083b 530b 6cbd 07c0 84be ae89 523c
000003f0: 0875 4dbc 884a 17bd 5d8c b8bd 74ca e3bc

bias f4 [64]
-0.01898703 0.018522205 0.0020307787 0.0059524565 0.019417258 -0.022181306 0.01419278 -0.04554329
0.0080859475 -0.004200643 -0.006124635 0.03001096 -0.03173589 -0.009710485 0.006419734 -0.033315465
0.003754419 0.018772526 0.020256659 -0.0067519615 -0.029009245 -0.018850025 -0.044406857 0.0014831986
0.09112984 0.0050801276 0.009550346 0.016043019 0.040032726 0.037801366 -0.025549764 -0.016325615
-0.072440065 0.027455952 0.025214514 0.0074693603 -0.021585716 0.048220225 -0.029863387 -0.011010859
-0.0049497746 -0.02760977 -0.011277113 0.01966178 -0.056083526 0.029653843 0.01766179 0.0075840894
-0.028431108 0.020828316 0.050816394 -0.03595138 -0.0007193132 0.07178819 -0.011113431 0.016451104
-0.015783094 -0.009420851 -0.03687959 0.0039732307 0.029875629 0.0151959 -0.014075492 0.030621989
00000000: b08a 9bbc e1bb 973c d016 053b d30c c33b
00000010: f110 9f3c 92b5 b5bc d588 683c 9a8b 3abd
00000020: ec7a 043c 8ca5 89bb 2ab1 c8bb 8bd9 f53c
00000030: 7efd 01bd ba18 1fbc a25c d23b cc75 08bd
00000040: b30c 763b d7c8 993c 4bf1 a53c 8f3f ddbb
00000050: cca4 edbc 5e6b 9abc f7e3 35bd e367 c23a
00000060: 48a2 ba3d 3377 a63b 0e79 1c3c a66c 833c
00000070: 5bf9 233d 9bd5 1a3d bd4d d1bc 4cbd 85bc
00000080: 755b 94bd 4eeb e03c ab8e ce3c 89c1 f43b
00000090: 87d4 b0bc 9282 453d 10a4 f4bc e466 34bc
000000a0: b831 a2bb e22d e2bc a4c3 38bc be11 a13c
000000b0: d7b7 65bd 9eec f23c 75af 903c f483 f83b
000000c0: 5be8 e8bc 25a0 aa3c da24 503d c141 13bd
000000d0: 4b90 3cba b005 933d 1c15 36bc 77c4 863c
000000e0: 8c4b 81bc ea59 1abc 0e0f 17bd e031 823b
000000f0: bcbd f43c 39f8 783c e49c 66bc f7da fa3c

weight f4 [64, 64]
-0.10924686 -0.062603965 0.053446114 0.09526236 0.00641255 -0.024300648 0.0074208616 -0.027569361
0.03710088 0.027127055 0.092396796 -0.07840102 0.041320935 -0.07997313 0.0051548393 -0.11778797
-0.06559215 -0.053627025 -0.11530008 0.005084646 0.05482829 -0.05169775 -0.1136268 0.0018890051
0.055607773 -0.10510482 -0.08198236 0.042703554 -0.00539628 -0.032576516 0.037885614 0.10964452
0.067308106 0.1005543 -0.033951316 0.09385373 0.095622316 0.034091756 0.0129061 0.12009434
0.0150143495 0.018438911 0.016999444 -0.07887293 0.09311545 -0.09659697 0.0030500374 0.054232806
0.11532943 0.018074563 0.10594882 -0.103261665 0.01947735 -0.11924247 0.050105944 0.053305734
0.0109126335 0.05637147 0.007943647 0.0923683 0.048977423 -0.06293549 0.047017023 0.10845157
0.13117808 0.04397799 0.0911875 -0.08863439 0.07561883 0.046278 -8.180108e-05 -0.113157056
8.192463e-06 0.11701999 -0.060609385 0.09961731 -0.1052717 0.07196013 -0.055365328 -0.04971427
0.009853572 0.07969931 0.06875921 0.08479168 0.007340256 -0.08120443 0.036763642 0.022513289
-0.06933087 0.08006175 -0.0018752282 0.054416016 -0.07822881 -0.052721754 -0.05045131 -0.09575398
-0.112922296 0.072731994 0.08898193 -0.059609227 -0.09724216 0.114408284 -0.06914978 0.09951705
-0.046466827 0.04511663 -0.012613516 0.10182883 0.04948606 0.042357374 0.0086403955 -0.024008006
-0.11216615 -0.121520795 -0.049747527 -0.115505725 0.09161367 -0.04073262 0.08717784 0.024901498
-0.054737136 -0.002935519 -0.017140212 0.017198646 -0.048249707 -0.11408563 -0.033643946 -0.004424513
0.06293737 -0.0222478 -0.11051183 0.06477616 0.06384313 -0.09476583 0.070161596 0.04819692
-0.10055218 0.007821187 -0.10188414 -0.036848743 -0.013390534 0.11613856 -0.008382523 -0.007979334
-0.121326655 0.11636197 -0.07499495 0.015105914 -0.07770509 0.07318386 0.024652941 -0.01848476
0.14132918 -0.04822369 0.021161983 -0.03822657 0.11347194 0.14743394 -0.002938806 0.07301861
-0.1586084 0.17958322 0.11838811 -0.03122481 0.10878037 0.17010276 -0.10874849 0.07739554
0.11794603 0.003912879 -0.11975796 -0.0010486065 -0.020553647 -0.07841492 -0.05392329 0.03149794
-0.09378804 0.021161722 0.00024248473 -0.0077923015 -0.034950398 -0.041972462 -0.07651242 0.10405299
0.033331558 -0.051551625 -0.023545058 0.013528208 0.13300398 0.093734704 -0.07292084 0.091501474
-0.106095776 -0.093821764 0.10410331 0.05452898 -0.05414262 0.04466855 0.014546544 0.037714142
0.04359466 0.03240842 0.029044142 0.059155207 -0.07112704 -0.09888125 -0.083963804 -0.054787192
0.050376207 -0.09441349 0.06387848 -0.024016734 -0.08971461 -0.0031760805 -0.028825285 -0.120370395
-0.09928024 0.04330653 -0.11480208 0.025397621 -0.042845227 -0.03526647 -0.09665414 0.11215725
0.017864812 -0.081574395 -0.07005616 -0.09182717 -0.043241903 -0.007119176 -0.12053256 0.08647732
-0.022844769 -0.06895361 -0.048272297 0.035583854 0.06850693 0.12088934 0.066541 0.09184631
0.042104576 -0.0978468 0.010882299 0.0018207637 -0.06322658 -0.0986384 0.04632449 -0.05906431
0.1076727 -0.06211609 -0.08884363 -0.077875875 0.07307367 0.053512577 -0.01573551 0.0018986394
00000000: d1bc dfbd 8236 80bd 50ea 5a3d ea18 c33d
00000010: 5e20 d23b 2712 c7bc b32a f33b 24d9 e1bc
00000020: 18f7 173d 8f39 de3c 883a bd3d b790 a0bd
00000030: 2440 293d f4c8 a3bd ede9 a83b d23a f1bd
00000040: 2d55 86bd 03a8 5bbd 7322 ecbd 1a9d a63b
00000050: a193 603d 05c1 53bd 2bb5 e8bd 7e98 f73a
00000060: fac4 633d 3241 d7bd 5ee6 a7bd ece9 2e3d
00000070: 47d3 b0bb f46e 05bd f22d 1b3d 4e8d e03d
00000080: d5d8 893d 6aef cd3d 8910 0bbd 6236 c03d
00000090: a2d5 c33d cca3 0b3d 1b74 533c 05f4 f53d
000000a0: bffe 753c 330d 973c 6b42 8b3c 2188 a1bd
000000b0: 50b3 be3d a2d4 c5bd 23e3 473b 3823 5e3d
000000c0: d631 ec3d 1b11 943c b2fb d83d da7a d3bd
000000d0: f78e 9f3c 6535 f4bd e43b 4d3d 1d57 5a3d
000000e0: e7ca 323c c5e5 663d 1226 023c 972b bd3d
000000f0: 8d9c 483d 52e4 80bd ec94 403d db1b de3d
00000100: 8c53 063e 4422 343d 83c0 ba3d f285 b5bd
00000110: 0cde 9a3d 008e 3d3d 9f8c abb8 e3be e7bd
00000120: 5c72 0937 2da8 ef3d 8c41 78bd 2904 cc3d
00000130: b098 d7bd d55f 933d c1c6 62bd 31a1 4bbd
00000140: e070 213c 6439 a33d a1d1 8c3d 43a7 ad3d
00000150: 8886 f03b 824e a6bd 7995 163d ca6d b83c
00000160: 58fd 8dbd 6af7 a33d 38ca f5ba 54e3 5e3d
00000170: 6d36 a0bd c4f2 57bd 08a6 4ebd aa1a c4bd
00000180: ce43 e7bd 83f4 943d 283c b63d ce28 74bd
00000190: e626 c7bd e44e ea3d 669e 8dbd 98cf cb3d
000001a0: 0054 3ebd 37cc 383d eca8 4ebc a28b d03d
000001b0: e5b1 4a3d ed7e 2d3d 7290 0d3c 70ac c4bc
000001c0: 5eb7 e5bd e5df f8bd 10c4 4bbd 448e ecbd
000001d0: f39f bb3d 3fd7 26bd 4c8a b23d 3afe cb3c
000001e0: 0c34 60bd d661 40bb a169 8cbc 2de4 8c3c
000001f0: 7ca1 45bd baa5 e9bd 3cce 09bd 81fb 90bb
00000200: 4fe5 803d 0541 b6bc 0754 e2bd 5da9 843d
00000210: 30c0 823d 9614 c2bd e2b0 8f3d 226a 453d
00000220: 4dee cdbd 7024 003c a2a8 d0bd b5ee 16bd
00000230: f863 5bbc 0eda ed3d da56 09bc c1bb 02bc
00000240: 1c7a f8bd 2f4f ee3d f496 99bd cc7e 773c
00000250: d923 9fbd 6be1 953d f7f4 c93c 5a6d 97bc
00000260: 99b8 103e 3486 45bd e55b ad3c 7793 1cbd
00000270: fa63 e83d ecf8 163e fc98 40bb c88a 953d
00000280: 3e6a 22be aae4 373e 7775 f23d 2ccb ffbc
00000290: 3ec8 de3d 6b2f 2e3e 87b7 debd 8e81 9e3d
000002a0: b08d f13d 9c37 803b a943 f5bd 6571 89ba
000002b0: 1f60 a8bc 0098 a0bd abde 5cbd fc03 013d
000002c0: f213 c0bd 595b ad3c 8043 7e39 9056 ffbb
000002d0: 2628 0fbd 51eb 2bbd 8bb2 9cbd bc19 d53d
000002e0: ac86 083d cc27 53bd 91e1 c0bc 6ba5 5d3c
000002f0: 3232 083e fbf7 bf3d 8557 95bd 2065 bb3d
00000300: be48 d9bd a025 c0bd 1e34 d53d c859 5f3d
00000310: a7c4 5dbd 5ff6 363d a154 6e3c 257a 1a3d
00000320: 5090 323d b1be 043d fbed ed3c bb4c 723d
00000330: 0eab 91bd 4182 cabd 37f5 abbd 8968 60bd
00000340: 4857 4e3d dc5b c1bd b8d2 823d bebe c4bc
00000350: 4bbc b7bd ca25 50bb 0123 ecbc c184 f6bd
00000360: 7053 cbbd 3062 313d 5a1d ebbd ac0e d03c
00000370: 7a7e 2fbd 9373 10bd 9bf2 c5bd b3b2 e53d
00000380: 3a59 923c 7a10 a7bd 9b79 8fbd e20f bcbd
00000390: 6c1e 31bd fa47 e9bb c6d9 f6bd 051b b13d
000003a0: f424 bbbc 8d37 8dbd 2cb9 45bd 60c0 113d
000003b0: 5c4d 8c3d d594 f73d a646 883d eb19 bc3d
000003c0: d975 2c3d e763 c8bd ac4b 323c b1a6 ee3a
000003d0: f07c 81bd ee02 cabd c0be 3d3d 6bed 71bd
000003e0: 8183 dc3d 716d 7ebd a6f3 b5bd 637d 9fbd
000003f0: a6a7 953d 0130 5b3d c2e7 80bc c4db f83a

bias f4 [64]
-0.09172029 -0.080099575 -0.08495517 0.0069613047 0.11415359 0.080692135 0.045903295 0.0031318327
0.013469591 -0.09201399 -0.04713756 0.031591516 -0.088193275 -0.1276556 -0.11574992 0.005233439
-0.115856156 0.012770388 0.057252415 0.10230154 -0.11251721 -0.041994847 0.040829256 0.082727596
-0.10365935 -0.0768322 -0.09732644 0.019973347 0.09169732 0.010865194 -0.049504813 -0.058266275
0.16612759 -0.076057345 -0.09882695 -0.040715005 0.11596417 0.12025537 0.0150469635 0.14945653
0.08860278 -0.112398714 0.04307098 0.03540323 -0.09025387 -0.043562457 0.07918295 -0.01914932
-0.107256405 0.08255782 0.15386881 0.08600493 -0.031737566 0.28769958 -0.050536066 -0.24993423
-0.08699503 -0.1029944 0.08009556 0.08979107 -0.0044476325 0.018209074 -0.0893656 -0.08402934
00000000: d9d7 bbbd 3f0b a4bd fafc adbd a81b e43b
00000010: 5bc9 e93d eb41 a53d 1805 3c3d 6f3f 4d3b
00000020: 8faf 5c3c d571 bcbd 5013 41bd 1b66 013d
00000030: ad9e b4bd 26b8 02be 4b0e edbd 457d ab3b
00000040: fe45 edbd e43a 513c 8281 6a3d 7883 d13d
00000050: 6c6f e6bd ca02 2cbd 943c 273d 166d a93d
00000060: 5a4b d4bd 335a 9dbd 1653 c7bd 259f a33c
00000070: cecb bb3d ed03 323c 8fc5 4abd 9ea8 6ebd
00000080: 5a1d 2a3e f4c3 9bbd c965 cabd c7c4 26bd
00000090: 9f7e ed3d 7348 f63d 8a87 763c 220b 193e
000000a0: 6075 b53d 4c31 e6bd 326b 303d fa02 113d
000000b0: 05d7 b8bd 8c6e 32bd ac2a a23d 09df 9cbc
000000c0: 3fa9 dbbd 1314 a93d c98f 1d3e 5a23 b03d
000000d0: 40ff 01bd 5c4d 933e e8fe 4ebd c2ee 7fbe
000000e0: 732a b2bd baee d2bd 2409 a43d 61e4 b73d
000000f0: 72bd 91bb 322b 953c 5005 b7bd 9317 acbd

weight f4 [64, 64]
-0.075157546 -0.08375486 0.07979127 0.032997593 -0.025959536 0.108624615 -0.025789969 0.08294751
-0.029153418 -0.11893342 -0.01763718 0.07569215 -0.081140265 0.009233632 0.017664492 -0.05324928
0.061440732 -0.081473805 -0.087028064 0.11496096 -0.044441883 -0.049767036 -0.017193437 -0.06825816
-0.066642776 -0.11855067 0.025563562 -0.018064415 -0.10879641 -0.06504137 0.01972708 -0.05097219
0.115097985 0.028159702 0.1203282 -0.10468205 0.07099692 0.007961444 -0.077027954 -0.039126664
0.007397094 0.09748055 0.036567003 -0.024948541 -0.11195628 -0.018810654 -0.05920144 0.021566568
0.067673154 -0.10486237 0.051820666 0.0182748 0.047308248 0.030336091 -0.09220641 -0.07785985
-0.080505155 0.010784469 0.0013529168 0.08040187 -0.0050732656 -0.02654544 0.12015694 0.0326571
-0.10570903 0.0059336843 -0.04780333 0.061808165 0.12371543 -0.020611783 -0.0319391 -0.09137491
-0.03247572 -0.08763413 0.077773854 0.021442046 -0.050814185 -0.066130765 -0.07493737 -0.060740206
0.032430395 -0.063836835 0.07309012 -0.059441727 0.13753363 0.09795266 -0.089583546 0.05194484
0.058473207 0.060977515 -0.047996853 0.061870966 0.073532164 0.0044990885 0.092960924 -0.059341356
-0.009180313 -0.09079737 0.05203789 0.01142562 -0.06716029 0.019868944 0.09166184 -0.095538795
0.02618313 -0.06439928 -0.03363302 0.028793853 0.100126825 0.028769055 -0.032806 0.10928501
-0.062875636 0.024180675 0.005138298 0.11269559 0.12633823 -0.03569099 0.09421093 -0.008325108
0.10033306 -0.042413436 0.05589061 0.035977986 0.105116986 -0.016583486 0.08095135 -0.087320425
-0.09161548 -0.12272669 -0.0016397433 0.083068326 -0.08086947 -0.097033516 -0.0077495617 -0.048462845
-0.051509578 -0.01834763 0.016980454 0.08395791 0.074685045 0.06564667 0.12119461 -0.022654718
0.081527874 0.056582082 -0.08580129 0.0051102983 -0.046420254 -0.073815085 -0.098352864 -0.004492851
-0.028365575 -0.043417215 0.011857787 -0.04592849 0.11109162 0.05489335 -0.084939204 -0.051007092
-0.04799424 0.088474505 0.009253902 -0.1042805 0.10237436 -0.0059369863 0.0024001384 -0.052684907
-0.118808396 0.10491938 -0.07599735 0.012764205 0.011043354 -0.11314274 -0.05780661 0.15161912
-0.09538826 -0.112011045 0.07207251 -0.0040662386 -0.029666621 0.014837555 0.064979404 0.015193361
-0.034706894 0.10156112 -0.010807636 0.04493255 -0.027776644 -0.101402506 0.056467965 0.08947508
-0.07024043 -0.11273414 -0.01668053 0.030152528 -0.04766101 0.031158864 0.11922133 0.08217077
0.068077356 0.10494211 0.015974686 0.026984971 0.021967568 0.078657255 0.0006170458 -0.0524005
-0.08863325 0.054942567 0.026370589 -0.12048383 0.10406378 -0.040534556 0.054778464 -0.016835177
0.052184083 -0.0009715605 0.04110196 -0.094296865 0.020839818 -0.10911397 0.067020245 -0.09715674
0.048446584 0.09944533 -0.09420244 0.0005266078 -0.09920884 -0.106079675 -0.07514827 0.05742087
-0.0016027611 0.06422729 -0.07128791 0.10502549 -0.02147327 -0.090849355 -0.081744365 0.046957616
-0.020181155 0.11462979 0.06721955 -0.039242644 -0.060794216 0.039464615 0.03555687 -0.109034404
0.08294984 0.008257439 -0.0859064 0.0993605 -0.08825055 -0.1056787 -0.0928255 -0.024841778
00000000: 33ec 99bd ab87 abbd 9b69 a33d 7c28 073d
00000010: 18a9 d4bc 9576 de3d 7c45 d3bc 62e0 a93d
00000020: 26d3 eebc 5d93 f3bd d97b 90bc 7c04 9b3d
00000030: de2c a6bd a948 173c 20b5 903c eb1b 5abd
00000040: 47a9 7b3d bddb a6bd c53b b2bd a770 eb3d
00000050: b108 36bd 85d8 4bbd 40d9 8cbc efca 8bbd
00000060: 027c 88bd b2ca f2bd ad6a d13c d3fb 93bc
00000070: a7d0 debd 6934 85bd af9a a13c 37c8 50bd
00000080: 7eb8 eb3d 2daf e63c a26e f63d 8b63 d6bd
00000090: d566 913d b770 023c d5c0 9dbd 4843 20bd
000000a0: 5263 f23b e2a3 c73d 48c7 153d e260 ccbc
000000b0: 5649 e5bd cd18 9abc 367d 72bd 5fac b03c
000000c0: 3998 8a3d 15c2 d6bd e841 543d 09b5 953c
000000d0: 4bc6 413d 6583 f83c b7d6 bcbd fc74 9fbd
000000e0: e3df a4bd 57b1 303c 5b54 b13a bca9 a43d
000000f0: a33d a6bb d375 d9bc d714 f63d 74c3 053d
00000100: fa7d d8bd 5a6f c23b 6dcd 43bd 8f2a 7d3d
00000110: 845e fd3d 0bda a8bc 93d2 02bd c522 bbbd
00000120: 4305 05bd 8679 b3bd e647 9f3d 3ba7 af3c
00000130: 8922 50bd 916f 87bd c478 99bd b9ca 78bd
00000140: bcd5 043d e3bc 82bd 46b0 953d 2b79 73bd
00000150: 9ed5 0c3e 679b c83d 9477 b7bd 1dc4 543d
00000160: 9a81 6f3d 8fc3 793d 5998 44bd 696c 7d3d
00000170: 0898 963d 176d 933b 4c62 be3d ec0f 73bd
00000180: 0669 16bc f9f3 b9bd af25 553d 8632 3b3c
00000190: 568b 89bd 32c4 a23c 34b9 bb3d d8a9 c3bd
000001a0: 017e d63c c5e3 83bd c7c2 09bd 16e1 eb3c
000001b0: 4b0f cd3d 15ad eb3c 965f 06bd d2d0 df3d
000001c0: f1c4 80bd 8d16 c63c 2b5f a83b f2cc e63d
000001d0: cf5e 013e b730 12bd a9f1 c03d 0966 08bc
000001e0: 6b7b cd3d b6b9 2dbd 8ded 643d a75d 133d
000001f0: 9347 d73d 17da 87bc d2c9 a53d 0dd5 b2bd
00000200: e6a0 bbbd 2158 fbbd a8ec d6ba ba1f aa3d
00000210: e59e a5bd 82b9 c6bd 09f0 fdbb fa80 46bd
00000220: b5fb 52bd c54d 96bc 981a 8b3c 20f2 ab3d
00000230: 79f4 983d c371 863d e134 f83d 6396 b9bc
00000240: 16f8 a63d 9dc2 673d 96b8 afbd 4a74 a73b
00000250: 2a23 3ebd 5d2c 97bd 3a6d c9bd c438 93bb
00000260: ec5e e8bc 40d6 31bd 2a47 423c 831f 3cbd
00000270: 0184 e33d d9d7 603d 9bf4 adbd d0ec 50bd
00000280: 9c95 44bd 1f32 b53d ae9d 173c 0491 d5bd
00000290: a6a9 d13d 0d8b c2bb a44b 1d3b 21cc 57bd
000002a0: d151 f3bd f9df d63d 80a4 9bbd f520 513c
000002b0: 2fef 343c 62b7 e7bd a0c6 6cbd 0b42 1b3e
000002c0: ec5a c3bd 0c66 e5bd c19a 933d 153e 85bb
000002d0: 6a07 f3bc 3719 733c ec13 853d 93ed 783c
000002e0: d128 0ebd 47ff cf3d 8312 31bc 320b 383d
000002f0: d88b e3bc 1eac cfbd f44a 673d b63e b73d
00000300: 37da 8fbd 28e1 e6bd 9ba5 88bc 6f02 f73c
00000310: 3138 43bd e040 ff3c 502a f43d 2649 a83d
00000320: 246c 8b3d e4eb d63d 58dd 823c 960f dd3c
00000330: 54f5 b33c 0e17 a13d 3ec1 213a e8a1 56bd
00000340: 5985 b5bd 750b 613d 2207 d83c 3ac0 f6bd
00000350: 641f d53d 9007 26bd 625f 603d ede9 89bc
00000360: fabe 553d 52b0 7eba 875a 283d b71e c1bd
00000370: 44b8 aa3c 2577 dfbd e941 893d 1dfa c6bd
00000380: ed6f 463d fea9 cb3d 35ed c0bd 0d0c 0a3a
00000390: 012e cbbd 4d40 d9bd 56e7 99bd 2532 6b3d
000003a0: bd13 d2ba 9989 833d 65ff 91bd 9b17 d73d
000003b0: b6e8 afbc 3a0f babd 9769 a7bd a156 403d
000003c0: f352 a5bc 06c3 ea3d 67aa 893d e5bc 20bd
000003d0: 5b03 79bd a6a5 213d 15a4 113d 6e4d dfbd
000003e0: 9be1 a93d 364a 073c b2ef afbd 857d cb3d
000003f0: b4bc b4bd 136e d8bd 4c1b bebd fc80 cbbc

bias f4 [64]
0.027658563 -0.067458436 0.066204794 0.056550927 0.3634671 0.08090974 -0.030540273 0.0015325482
0.07902823 0.039333925 0.042099487 -0.12113507 -0.08902234 -0.06651432 0.11934114 0.2714715
-0.017520087 0.09614256 0.00011344031 -0.106457405 0.15026702 -0.01055355 0.15759909 0.1720267
-0.15732908 -0.020796759 -0.03638735 0.17252028 0.34977552 -0.09611019 0.16251662 0.1768552
-0.006004375 -0.17341907 -0.06766163 0.2404142 -0.03956135 -0.021153396 -0.07504191 0.087185845
-0.018012386 -0.07030001 -0.102941275 0.2555966 -0.07036009 0.15749061 0.11353857 -0.18283339
-0.011961035 -0.065499224 0.14786762 -0.01245519 -0.041067038 0.009603139 0.07039099 -0.043904375
-0.028267853 0.20945376 0.04170819 -0.027489156 0.06567548 -0.119153045 -0.09130716 -0.08551642
00000000: 3694 e23c a627 8abd 6196 873d f2a1 673d
00000010: 5c18 ba3e 01b4 a53d 982f fabc c9df c83a
00000020: 8dd9 a13d 9c1c 213d 8370 2c3d aa15 f8bd
00000030: 5851 b6bd a938 88bd 2169 f43d 50fe 8a3e
00000040: 4986 8fbc 64e6 c43d cde6 ed38 5706 dabd
00000050: 99df 193e cce8 2cbc a861 213e c427 303e
00000060: e01a 21be f75d aabc e70a 15bd 28a9 303e
00000070: c715 b33e 6bd5 c4bd c26a 263e 8819 353e
00000080: 59c0 c4bb c594 31be 2e92 8abd 242f 763e
00000090: 150b 22bd e349 adbc 93af 99bd 7e8e b23d
000000a0: b68e 93bc 74f9 8fbd e0d2 d2bd 8fdd 823e
000000b0: f318 90bd 3845 213e e986 e83d ad38 3bbe
000000c0: 38f8 43bc 7524 86bd 9c6a 173e da10 4cbc
000000d0: e935 28bd 7c56 1d3c 2729 903d 13d5 33bd
000000e0: fc91 e7bc 0c7b 563e 35d6 2a3d f030 e1bc
000000f0: de80 863d 8306 f4bd 40ff babd 3c23 afbd

weight f4 [64, 64]
-0.039216053 0.093411 -0.07032906 0.06380501 0.15544717 -0.045542702 -0.035794612 0.094643444
-0.057061248 -0.04277224 -0.095387414 0.066627234 -0.0832163 0.04475411 0.11624458 -0.054886937
-0.014818239 0.009219646 0.024707159 -0.1277297 0.107850336 -0.11926377 0.086770676 -0.024046391
-0.018237507 -0.082495786 -0.042704947 -0.06982465 0.028191805 -0.035295304 0.073999755 0.06804973
-0.02439984 -0.049269795 -0.06809581 0.027914273 0.09827839 0.07122435 -0.12275882 -0.01676241
0.09590701 -0.14437388 0.016523633 0.025005104 0.10674251 0.13727468 0.1139406 -0.13884176
0.0003467546 0.050778363 -0.02333497 -0.07431678 -0.08016033 0.12882194 -0.037632003 -0.04267334
-0.016261177 0.012194612 -0.07603247 0.056350578 -0.039991252 0.078780726 -0.10190751 -0.07623004
-0.112611525 0.082669444 -0.04739485 -0.1018103 0.10218604 0.033782113 0.0779788 -0.057568874
-0.043426286 0.05436381 0.13446318 -0.051881988 0.06326811 -0.027595926 0.11586296 0.0045702606
0.10380371 -0.061988685 -0.13096839 -0.06261236 0.1263048 0.022831725 -0.11472078 0.022120945
-0.111546114 -0.07645426 0.10615514 -0.04957714 -0.018363683 -0.076998554 0.090648495 0.023549257
-0.11102052 -0.029218629 0.009195475 0.07149915 -0.10131795 -0.056754883 0.10316727 0.090050414
-0.092379786 0.00017244118 0.06744981 0.039071586 -0.057880864 -0.074273705 0.010508719 -0.07010278
0.0915422 0.105394125 0.007356664 0.030154474 0.09593118 0.017269852 -0.08469399 -0.1171247
-0.032780074 0.040685475 -0.039611 -0.007789699 -0.07596531 0.101396196 0.003330925 -0.10519856
0.0025195396 -0.10065562 0.07079839 -0.055829298 0.049344067 0.094660535 -0.10573748 -0.011660069
0.14307792 -0.057354014 0.08102956 0.02412133 -0.04950221 -0.082796015 -0.040235694 -0.054301016
0.07801262 -0.09737106 0.06243922 0.074475095 -0.0026614312 -0.08746377 -0.173212 0.039767805
0.05545566 -0.0679993 0.0504171 0.07810364 0.08362678 0.08042939 0.14274454 0.013033004
-0.05994671 0.10309833 0.0015946054 0.11706588 -0.096070506 -0.119499154 0.08527501 -0.007052131
-0.016377587 0.021381613 0.0050127814 -0.08737949 -0.044315707 0.13742907 0.006483107 -0.06278103
0.11011179 -0.03798101 -0.048021138 -0.0010184749 0.004476811 -0.092426896 0.10425456 0.021319414
-0.10673429 0.11868955 -0.09881184 0.0745268 0.042537577 0.024717083 -0.07881158 -0.026464283
0.024115266 0.0076738806 0.0959829 -0.015839364 0.08487402 -0.036896076 0.04758434 0.012838101
0.014034764 -0.05980261 0.08238568 0.0118586 -0.038633678 0.03332725 0.013956145 -0.093735725
0.11944755 0.033169687 0.08574926 -0.056055136 0.0002699993 0.054805502 -0.060890526 0.04152903
0.09759378 -0.08477174 0.039829202 -0.09166284 0.054639265 -0.015382206 0.02105936 -0.04352006
0.014673156 0.061862227 -0.08395474 -0.048193496 0.08372288 -0.11666846 0.066276535 -0.059853386
0.10152273 0.063941956 -0.032503236 -0.03819618 0.10421037 -0.05259941 0.11519284 0.092703186
-0.044193264 0.019439707 -0.04556962 0.06044714 0.05751139 -0.063459285 0.046670403 0.045750253
-0.04479872 0.087870635 0.04611005 -0.10112498 0.020807683 -0.07129555 0.012418956 0.05076058
00000000: 03a1 20bd 444e bf3d af08 90bd 33ac 823d
00000010: 8b2d 1f3e fc8a 3abd 5f9d 12bd 6cd4 c13d
00000020: 0eb9 69bd f231 2fbd 7a5a c3bd dc73 883d
00000030: 4f6d aabd 1650 373d a311 ee3d 20d1 60bd
00000040: 33c8 72bc 000e 173c ab66 ca3c 93cb 02be
00000050: a3e0 dc3d 9040 f4bd d3b4 b13d f0fc c4bc
00000060: d366 95bc 8df3 a8bd 62eb 2ebd 3a00 8fbd
00000070: 80f2 e63c cf91 10bd 2f8d 973d a85d 8b3d
00000080: 2ce2 c7bc 20cf 49bd d175 8bbd 79ac e43c
00000090: 2e46 c93d 12de 913d fa68 fbbd 5251 89bc
000000a0: e56a c43d bfd6 13be 925c 873c 81d7 cc3c
000000b0: d19b da3d bc91 0c3e b059 e93d 892c 0ebe
000000c0: 9dcc b539 f9fc 4f3d fb28 bfbc 6533 98bd
000000d0: 192b a4bd e6e9 033e 0424 1abd 3dca 2ebd
000000e0: 2936 85bc e9cb 473c e9b6 9bbd ddcf 663d
000000f0: decd 23bd ca57 a13d e2b4 d0bd 7f1e 9cbd
00000100: dfa0 e6bd 994e a93d 1a21 42bd eb81 d0bd
00000110: ea46 d13d 1d5f 0a3d 59b3 9f3d 57cd 6bbd
00000120: c3df 31bd 96ac 5e3d b7b0 093e 3582 54bd
00000130: b692 813d da10 e2bc 8f49 ed3d 20c2 953b
00000140: 0a97 d43d d9e7 7dbd 941c 06be e93a 80bd
00000150: 0c56 013e 9909 bb3c baf2 eabd fc36 b53c
00000160: 4a72 e4bd 0d94 9cbd de67 d93d 6611 4bbd
00000170: 6f6f 96bc 6bb1 9dbd eba5 b93d 5fea c03c
00000180: ba5e e3bd e85b efbc 9ea8 163c 256e 923d
00000190: c97f cfbd cf77 68bd 5d49 d33d 5a6c b83d
000001a0: 9d31 bdbd 54d1 3439 2023 8a3d 8709 203d
000001b0: 7c14 6dbd d01c 98bd c32c 2c3c 0c92 8fbd
000001c0: 7a7a bb3d e0d8 d73d 2c10 f13b 8406 f73c
000001d0: 9177 c43d 8179 8d3c 0b74 adbd 13df efbd
000001e0: 6644 06bd d0a5 263d 253f 22bd bb40 ffbb
000001f0: b393 9bbd cfa8 cf3d a64b 5a3b 5872 d7bd
00000200: dc1e 253b 8924 cebd bffe 903d 43ad 64bd
00000210: 011d 4a3d 62dd c13d e48c d8bd e009 3fbc
00000220: 0583 123e 0bec 6abd d3f2 a53d 189a c53c
00000230: d4c2 4abd f590 a9bd 2fce 24bd be6a 5ebd
00000240: 15c5 9f3d 7a6a c7bd 44c0 7f3d 6686 983d
00000250: 686b 2ebb 3420 b3bd 7d5e 31be 91e3 223d
00000260: 7925 633d 3843 8bbd 2982 4e3d cdf4 9f3d
00000270: 8444 ab3d 2ab8 a43d a02b 123e 6188 553c
00000280: ae8a 75bd 3825 d33d 1402 d13a 3cc0 ef3d
00000290: 9dc0 c4bd f9bb f4bd aaa4 ae3d 9015 e7bb
000002a0: 4a2a 86bc 7e28 af3c 4242 a43b 05f4 b2bd
000002b0: 6384 35bd 35ba 0c3e 3e70 d43b 5793 80bd
000002c0: 4a82 e13d fa91 1bbd d0b1 44bd 597e 85ba
000002d0: 36b2 923b 504a bdbd 6a83 d53d 0da6 ae3c
000002e0: 8297 dabd 8213 f33d dd5d cabd 82a1 983d
000002f0: e23b 2e3d 7b7b ca3c f767 a1bd a0cb d8bc
00000300: 618d c53c 2d75 fb3b af92 c43d 8ec1 81bc
00000310: 6ed2 ad3d 5720 17bd cce7 423d e656 523c
00000320: 11f2 653c 95f3 74bd d3b9 a83d 934a 423c
00000330: 593e 1ebd 2882 083d 51a8 643c 84f8 bfbd
00000340: eba0 f43d f0dc 073d 4f9d af3d 129a 65bd
00000350: b18e 8d39 bc7b 603d 5868 79bd 581a 2a3d
00000360: 3fdf c73d ce9c adbd f223 233d bab9 bbbd
00000370: 6ccd 5f3d a605 7cbc ae84 ac3c 1742 32bd
00000380: ad67 703c 3f63 7d3d 76f0 abbd 8b66 45bd
00000390: e776 ab3d e0ef eebd febb 873d d328 75bd
000003a0: 26eb cf3d 00f4 823d 1d22 05bd 9973 1cbd
000003b0: 3f6c d53d 7b72 57bd 39ea eb3d 2bdb bd3d
000003c0: ff03 35bd 0540 9f3c 36a7 3abd 6c97 773d
000003d0: 1091 6b3d f1f6 81bd 7729 3f3d 9e64 3b3d
000003e0: dd7e 37bd 85f5 b33d e4dd 3c3d 9d1a cfbd
000003f0: e074 aa3c 6703 92bd e078 4b3c 53ea 4f3d

bias f4 [64]
0.29113832 0.15889281 0.26422417 0.020540563 0.10882581 -0.08966806 0.09680824 -0.09392345
0.07610886 -0.011108879 0.25046954 0.11129607 -0.09325814 0.18886198 -0.032489546 0.23357646
-0.17202191 -0.010887707 -0.11110375 -0.033848695 0.08187765 0.13674365 0.2132301 -0.057499707
-0.06591649 0.11724993 -0.052502852 0.041711405 0.12571551 -0.030409686 -0.095052674 0.21123934
0.16762105 -0.08260049 -0.0136091085 -0.060527686 0.026233241 -0.046122737 -0.018967291 -0.08195929
0.09419482 0.029119698 -0.042799577 -0.05340975 0.11236907 0.19561616 -0.044119786 -0.13078518
0.052835636 0.0073373206 -0.056578904 0.00951963 0.014794043 -0.095097154 -0.024551809 0.007907025
0.25794756 -0.16368091 0.06154309 -0.096884415 0.08089235 -0.063019395 0.34021783 0.1357765
00000000: 1510 953e ccb4 223e 6448 873e af44 a83c
00000010: 11e0 de3d e3a3 b7bd 6643 c63d f05a c0bd
00000020: f6de 9b3d 0402 36bc 8b3d 803e 32ef e33d
00000030: 20fe bebd 0965 413e c213 05bd ab2e 6f3e
00000040: 8326 30be 5a62 32bc 5d8a e3bd eea4 0abd
00000050: 78af a73d 8706 0c3e fe58 5a3e d084 6bbd
00000060: 3aff 86bd bb20 f03d 3b0d 57bd 94d9 2a3d
00000070: 91bb 003e bc1d f9bc faaa c2bd 204f 583e
00000080: daa4 2b3e 722a a9bd bdf8 5ebc e1eb 77bd
00000090: 18e7 d63c 32eb 3cbd 4b61 9bbc 46da a7bd
000000a0: 37e9 c03d 6f8c ee3c 9c4e 2fbd 2fc4 5abd
000000b0: c121 e63d 9a4f 483e f3b6 34bd 8dec 05be
000000c0: 2e6a 583d e86d f03b 48bf 67bd 39f8 1b3c
000000d0: b762 723c 4cc2 c2bd e020 c9bc 778c 013c
000000e0: b411 843e f89b 27be 9b14 7c3d 566b c6bd
000000f0: e3aa a53d 5010 81bd 0831 ae3e ff08 0b3e

weight f4 [64, 64]
0.0053438377 -0.08394639 0.07260199 -0.103310525 0.0046498496 -0.035924975 0.01655781 0.055685442
0.076404765 -0.05930806 -0.013098694 0.05411404 -0.0987454 0.07549516 -0.09560348 0.1187424
-0.059663225 0.025728906 -0.10912011 0.07697621 0.036963623 -0.052810438 -0.09549491 0.0001999216
-0.0033653502 -0.002434909 0.10706373 -0.013842735 -0.046394378 0.08594825 -0.031466372 -0.056887306
0.048619226 0.08228954 0.01054285 0.017896684 -0.08071857 -0.044158734 0.007929994 -0.08134264
-0.11145636 -0.004593906 -0.09078322 0.1132605 0.08717959 0.023708783 0.032700576 0.013415864
-0.09831763 -0.010304092 -0.049455866 -0.126831 -0.039959006 -0.12322211 0.028289393 -0.06786402
0.0041046357 0.10673831 0.054392893 0.11934235 0.05384763 0.09715329 0.031814862 -0.023434624
0.063046016 -0.03695942 0.05747268 0.038464323 -0.10658755 -0.062520996 -0.06603083 -0.036314685
0.053914253 0.092132136 0.019039284 -0.10375358 0.11624682 -0.06736416 -0.06695455 -0.11516872
0.09865329 -0.09613626 0.08679897 0.068001 0.10545497 0.010257645 0.0072953324 0.068319134
0.0012978199 -0.11818612 -0.11630031 0.105867356 -0.05331177 0.08624708 0.06908649 -0.10923128
0.08464548 -0.06393528 0.083329916 0.07955143 0.04452284 -0.05332131 -0.044782966 -0.009617758
-0.06638006 0.06287252 0.08100396 -0.048578262 -0.039487436 -0.07016471 -0.013532788 -0.1193308
0.0028346288 -0.11184483 -0.014108966 -0.097640626 0.0069693555 -0.030954003 -0.082658924 -0.10053896
0.02908698 -0.042616714 -0.08799748 0.025201105 -0.11045882 -0.05021706 0.030583167 0.114762746
0.035426546 -0.08290218 -0.0323654 0.059339926 -0.11568056 -0.039723564 0.08255234 -0.044851378
0.008822247 0.13290282 0.0009521438 0.09807101 0.06361042 -0.046996705 -0.014247916 -0.09768561
0.04518891 0.09767175 0.11692121 -0.09367774 -0.04085298 -0.0031971158 -0.019760719 -0.009885977
0.11549344 -0.10125343 0.11289002 0.067095 -0.09063393 -0.021193793 0.009638608 -0.00030436274
-0.051986136 -0.015449026 0.045184363 -0.05093114 -0.016063115 -0.037708316 0.08034738 0.011530181
0.117879294 -0.08896835 0.08333963 -0.026328966 0.11881716 0.0829055 -0.08194719 -0.10719602
0.08268563 -0.026873766 -0.11161915 -0.052700736 0.0010172509 0.09316566 -0.036136962 -0.10048177
-0.028611677 -0.067430004 -0.11047847 -0.028328916 -0.011717681 0.10722314 -0.07718081 0.0010057634
-0.11644684 -0.047919527 0.060147025 0.039302982 0.05986033 -0.040144473 -0.06388722 -0.0613571
-0.08863811 -0.07405735 0.077468544 -0.08373088 0.061882477 0.062224083 -0.08260051 -0.06324798
0.030425355 -0.06112166 -0.022230241 0.11613593 -0.056664243 -0.09422879 -0.10159719 0.032437854
0.009819412 0.103788294 0.07605846 0.046323795 0.072096206 0.04516691 0.08130493 -0.0105340015
0.026690902 0.11047764 0.08571621 0.016610755 -0.097613305 0.09376189 -0.051665172 -0.046780836
0.053879257 -0.117555946 -0.072021976 -0.119760916 -0.038803674 0.00019579382 0.062820494 -0.015536678
0.047326405 -0.10422123 0.094127335 -0.120554514 -0.08662986 0.08868987 0.060575534 -0.05367777
-0.07702375 0.09240476 -0.11509558 -0.021846037 -0.0008442987 -0.11271206 0.08980824 -0.06354709
00000000: 5c1b af3b 16ec abbd 5ab0 943d 7894 d3bd
00000010: c45d 983b 1126 13bd 3fa4 873c 6b16 643d
00000020: 1a7a 9c3d 02ed 72bd e89b 56bc afa6 5d3d
00000030: 073b cabd 359d 9a3d c2cb c3bd 372f f33d
00000040: 6d61 74bd 6dc5 d23c 5d7a dfbd b4a5 9d3d
00000050: 2b67 173d c24f 58bd d692 c3bd 0ca2 5139
00000060: 358d 5cbb ff92 1fbb 3b44 db3d a4cc 62bc
00000070: 0808 3ebd a305 b03d e2e2 00bd aa02 69bd
00000080: f424 473d 6b87 a83d ebbb 2c3c 119c 923c
00000090: c74f a5bd cadf 34bd ceec 013c f896 a6bd
000000a0: 3b43 e4bd 7a88 96bb 8eec b9bd 1ff5 e73d
000000b0: 368b b23d ec38 c23c 0af1 053d 36ce 5b3c
000000c0: c15a c9bd 7fd2 28bc 3c92 4abd fcdf 01be
000000d0: 0eac 23bd e05b fcbd 28bf e73c 4bfc 8abd
000000e0: 2e80 863b 9d99 da3d 15cb 5e3d c369 f43d
000000f0: 558f 5c3d 4ef8 c63d 4d50 023d f8f9 bfbc
00000100: 451e 813d c362 17bd 7968 6b3d c48c 1d3d
00000110: 934a dabd 020b 80bd 2c3b 87bd b5be 14bd
00000120: 31d5 5c3d c6af bc3d 46f8 9b3c c27c d4bd
00000130: d012 ee3d 39f6 89bd 781f 89bd 94dd ebbd
00000140: bc0a ca3d 16e3 c4bd a9c3 b13d 1c44 8b3d
00000150: c6f8 d73d ae0f 283c af0d ef3b e7ea 8b3d
00000160: 9c1b aa3a 910b f2bd db2e eebd fcd0 d83d
00000170: 715d 5abd 4fa2 b03d 387d 8d3d a6b4 dfbd
00000180: 9c5a ad3d 80f0 82bd e0a8 aa3d dceb a23d
00000190: 955d 363d 7267 5abd 586e 37bd cd93 1dbc
000001a0: 45f2 87bd 4fc3 803d 67e5 a53d 00fa 46bd
000001b0: 94bd 21bd 84b2 8fbd a0b8 5dbc b563 f4bd
000001c0: 2ec5 393b e70e e5bd 4b29 67bc cff7 c7bd
000001d0: 315f e43b 4093 fdbc 1549 a9bd 5fe7 cdbd
000001e0: d147 ee3c dd8e 2ebd 0638 b4bd 8c72 ce3c
000001f0: 3c38 e2bd 67b0 4dbd 8d89 fa3c bb08 eb3d
00000200: 6d1b 113d 9ec8 a9bd 9591 04bd 6c0e 733d
00000210: eee9 ecbd 2db5 22bd 3411 a93d 14b6 37bd
00000220: 308b 103c ad17 083e 4a99 793a 74d9 c83d
00000230: 2e46 823d 9e7f 40bd 1770 69bc 650f c8bd
00000240: 0218 393d 2008 c83d 6374 ef3d 1dda bfbd
00000250: 7455 27bd b486 51bb 3be1 a1bc cbf8 21bc
00000260: d387 ec3d f55d cfbd e232 e73d 1a69 893d
00000270: 489e b9bd 9b9e adbc 41eb 1d3c e092 9fb9
00000280: 6aef 54bd e91d 7dbc 3d13 393d 2c9d 50bd
00000290: cb96 83bc 0974 1abd 2b8d a43d 16e9 3c3c
000002a0: b36a f13d 0a35 b6bd f8ad aa3d d8af d7bc
000002b0: 6956 f33d 5cca a93d eed3 a7bd 9689 dbbd
000002c0: 1557 a93d 5f26 dcbc 9598 e4bd badc 57bd
000002d0: 4755 853a a3cd be3d 5a04 14bd 63c9 cdbd
000002e0: 0963 eabc be18 8abd 8942 e2bd 0b12 e8bc
000002f0: 84fb 3fbc ce97 db3d f910 9ebd d2d3 833a
00000300: ae7b eebd 4447 44bd ba5c 763d 2afc 203d
00000310: 1b30 753d 886e 24bd 4ed7 82bd 9551 7bbd
00000320: e687 b5bd 61ab 97bd d4a7 9e3d 187b abbd
00000330: 7b78 7d3d aede 7e3d 752a a9bd 2888 81bd
00000340: 983e f93c b55a 7abd 321c b6bc add8 ed3d
00000350: c418 68bd 06fb c0bd 3012 d0bd 8edd 043d
00000360: 99e1 203c f58e d43d 8ac4 9b3d 05be 3d3d
00000370: 2da7 933d f000 393d 3383 a63d ce96 2cbc
00000380: e1a6 da3c 1a42 e23d fb8b af3d 4713 883c
00000390: 7ce9 c7bd 3c06 c03d dc9e 53bd 439d 3fbd
000003a0: 7fb0 5c3d 2cc1 f0bd 4280 93bd 3645 f5bd
000003b0: 9af0 1ebd 014e 4d39 08a8 803d 8d8d 7ebc
000003c0: 55d9 413d f171 d5bd d5c5 c03d 49e5 f6bd
000003d0: ff6a b1bd 09a3 b53d 0d1e 783d 39dd 5bbd
000003e0: a1be 9dbd b53e bd3d 3bb7 ebbd 76f6 b2bc
000003f0: ed53 5dba 95d5 e6bd 62ed b73d fa24 82bd

bias f4 [64]
0.015318267 -0.08862584 -0.041058168 0.12182222 -0.10694715 0.13746107 -0.04054438 -0.100003086
0.009134558 0.008842357 0.012872047 -0.09151756 -0.01211332 -0.10452659 0.38055435 -0.03860268
0.17053328 -0.084480055 0.24198692 -0.17599826 -0.094711155 0.011897963 0.09187431 0.070170246
-0.10911153 -0.002394289 0.1364473 -0.11156122 0.35023502 -0.09231092 0.020842971 -0.14601351
-0.09989708 0.0864297 -0.08365457 0.10010725 0.11857377 -0.12908648 -0.043698337 0.038450122
0.01112484 0.3861277 0.33885837 -0.0348014 -0.063194245 -0.06460968 0.026053354 -0.024151752
0.26006523 0.13678572 0.23059458 -0.05039922 0.028441697 0.025893476 -0.09472636 -0.058310706
-0.08227668 0.047013044 0.41223076 -0.138176 0.39319858 -0.020957734 0.017900432 0.22631598
00000000: 78f9 7a3c 7781 b5bd 9c2c 28bd ee7d f93d
00000010: 1b07 dbbd 98c2 0c3e dd11 26bd 6bce ccbd
00000020: 1da9 153c 89df 103c 47e5 523c 8f6d bbbd
00000030: f276 46bc 0912 d6bd 05d8 c23e d81d 1ebd
00000040: 47a0 2e3e e103 adbd 6bcb 773e e338 34be
00000050: ecf7 c1bd acef 423c 9928 bc3d 6bb5 8f3d
00000060: de75 dfbd 81e9 1cbb d7b8 0b3e 357a e4bd
00000070: 0152 b33e 820d bdbd e1be aa3c 9184 15be
00000080: d796 ccbd 0e02 b13d 1653 abbd 0805 cd3d
00000090: ced6 f23d 3f2f 04be 07fd 32bd e07d 1d3d
000000a0: f644 363c 88b2 c53e d87e ad3e ea8b 0ebd
000000b0: fc6b 81bd 1452 84bd d86d d53c e5d9 c5bc
000000c0: 4527 853e 8e11 0c3e fc20 6c3e 6a6f 4ebd
000000d0: 90fe e83c 8e1e d43c e5ff c1bd 35d7 6ebd
000000e0: ad80 a8bd c090 403d e90f d33e 027e 0dbe
000000f0: 5351 c93e 8eaf abbc eda3 923c 60bf 673e

weight f4 [64, 64]
0.10289161 0.087602906 -0.07268208 -0.031975612 0.009480168 0.07852944 0.0794541 -0.049235914
-0.027520204 0.0071259746 -0.124336936 -0.0036893205 0.103468336 0.049764384 0.008370716 -0.0648513
0.11256377 -0.019393956 0.034239154 0.089617476 -0.111280456 0.11381048 0.04877227 -0.0049024825
-0.103966646 -0.074504755 -0.061667547 -0.06359262 -0.06009541 0.013269745 -0.0054190373 0.10850924
0.020323874 -0.017562946 0.07500199 -0.105677575 0.039352596 -0.020782946 0.025594708 -0.015723092
0.007382952 0.013544458 -0.12006263 -0.057884816 0.05326414 0.057864238 -0.06755944 0.0012968655
0.037702873 0.07672964 -0.11098907 0.072858594 -0.047400203 0.0030964965 -0.07158004 -0.016906729
-0.053353615 -0.05323848 -0.061295196 -0.039628644 -0.040832456 -0.07845695 0.057768453 -0.07664039
-0.07349338 -0.005761398 -0.03548679 -0.058889586 0.09538153 0.059971977 -0.081972644 0.0146086505
-0.0061547677 0.063696526 -0.022188509 -0.10585682 -0.04889629 -0.05254913 0.009858387 -0.051236548
0.0674664 -0.051129024 -0.097483285 0.07612656 -0.0035053801 0.12159946 0.11496776 0.032298364
0.022794837 -0.04969654 0.065926805 -0.06742637 0.058907963 0.026685368 -0.029387025 -0.083061814
0.028676428 -0.014336167 -0.107523344 -0.050641727 -0.012817438 -0.09813406 0.010350724 0.015720194
0.10647112 0.034588788 -0.13571128 0.08895407 0.056954637 -0.00040713485 -0.035082594 -0.03873741
-0.13397242 -0.10070263 -0.08691777 0.08916462 0.044511657 -0.013995934 0.03974779 -0.016285613
-0.07625866 0.02826566 0.080984816 0.095635764 -0.12738065 -0.09015959 0.111338675 -0.07955251
0.093032114 0.043244585 0.029453563 0.09803762 -0.09668345 0.06097794 0.08397178 0.11589486
-0.030294355 -0.040010296 0.08539167 -0.08990262 0.007877089 -0.08831955 -0.025887055 0.08938697
-0.06960618 -0.073701665 0.03812798 -0.02584616 -0.07374375 0.083059624 0.10972318 0.096490145
0.038051452 -0.06522975 -0.117641605 0.11863491 -0.0033006447 0.11633349 0.11389864 0.025424635
0.08636037 -0.051243268 -0.068867244 -0.086570635 -0.10455962 -0.025089536 0.059732262 0.08145448
0.10387868 -0.09827931 -0.076976456 0.058114566 -0.012566221 0.09867385 -0.021561483 -0.010817795
-0.049695093 -0.11984791 -0.04772027 0.090383254 -0.116603635 0.08920583 0.06765864 0.014357932
-0.09551058 -0.065615915 -0.08776935 -0.109133 0.021192897 -0.122191705 -0.089064166 -0.050554708
0.029613834 -0.08738181 0.10686257 -0.06660471 -0.07121492 0.014058985 0.059940062 0.0105256
0.06886143 -0.014004262 0.035200816 0.060601044 -0.09956105 0.06362497 0.027911553 -0.1148276
0.0953872 0.06601953 -0.0421309 -0.061933517 0.04975092 -0.06703823 0.11121949 0.085454896
-0.05145015 -0.00070399564 0.031563886 -0.030310333 -0.080880664 0.10575943 0.093841605 -0.0045999307
0.034852587 -0.049007893 0.073309466 -0.020905701 0.08557766 -0.04159692 -0.071142696 -0.06110724
-0.07149073 0.0011522335 0.09009044 0.018559298 -0.02593932 0.020160746 0.08179728 -0.10864091
0.05617987 -0.10234664 0.03299628 -0.06058638 0.09050865 0.065410726 -0.10351654 -0.03120995
0.019729692 -0.025461636 0.03201708 0.07419589 -0.0860377 -0.08782908 0.106128685 0.06564987
00000000: d6b8 d23d 2769 b33d 58da 94bd dcf8 02bd
00000010: b552 1b3c 0bd4 a03d d5b8 a23d 99ab 49bd
00000020: 0d72 e1bc 0281 e93b 5da4 febd 87c8 71bb
00000030: 35e7 d33d bdd5 4b3d 5425 093c c2d0 84bd
00000040: d587 e63d 13e0 9ebc 5b3e 0c3d 5e89 b73d
00000050: 02e7 e3bd 7815 e93d 6fc5 473d 01a5 a0bb
00000060: 77ec d4bd f395 98bd 1c97 7cbd d93c 82bd
00000070: 9b26 76bd 5869 593c 2e92 b1bb 183a de3d
00000080: 417e a63c 2be0 8fbc a59a 993d 7c6d d8bd
00000090: 3030 213d ff40 aabc feab d13c b7cd 80bc
000000a0: b1ec f13b 93e9 5d3c 65e3 f5bd a118 6dbd
000000b0: 802b 5a3d 0d03 6d3d 9b5c 8abd 96fb a93a
000000c0: 546e 1a3d 6e24 9d3d 3d4e e3bd e336 953d
000000d0: b726 42bd 97ee 4a3b 8e98 92bd fb7f 8abc
000000e0: 5289 5abd 9810 5abd ac10 7bbd a551 22bd
000000f0: ef3f 27bd 0aae a0bd 9d9e 6c3d a3f5 9cbd
00000100: b283 96bd 1cca bcbb 995a 11bd 3536 71bd
00000110: 6457 c33d 2da5 753d 46e1 a7bd 1f59 6f3c
00000120: efad c9bb 5373 823d adc4 b5bc 76cb d8bd
00000130: 7a47 48bd c23d 57bd 1285 213c 6add 51bd
00000140: d32b 8a3d ab6c 51bd 51a5 c7bd 3ee8 9b3d
00000150: 85ba 65bb 2309 f93d 3874 eb3d 4a4b 043d
00000160: 3dbc ba3c 998e 4bbd a204 873d d616 8abd
00000170: 7a49 713d 469b da3c 0fbd f0bc 501c aabd
00000180: d4ea ea3c 3ee2 6abc 3335 dcbd b36d 4fbd
00000190: 3b00 52bc 83fa c8bd 1596 293c a3c7 803c
000001a0: 880d da3d f9ac 0d3d e6f7 0abe 8d2d b63d
000001b0: 4449 693d b774 d5b9 c4b2 0fbd 1eab 1ebd
000001c0: 1130 09be 2e3d cebd f201 b2bd f19b b63d
000001d0: db51 363d 344f 65bc 94ce 223d 6869 85bc
000001e0: 802d 9cbd 638d e73c 5edb a53d afdc c33d
000001f0: 1370 02be 97a5 b8bd 8805 e43d 6dec a2bd
00000200: 9f87 be3d 3c21 313d 9948 f13c f3c7 c83d
00000210: f901 c6bd 01c4 793d 66f9 ab3d 495a ed3d
00000220: de2b f8bc d6e1 23bd d4e1 ae3d dd1e b8bd
00000230: e80e 013c e1e0 b4bd 1711 d4bc 8410 b73d
00000240: af8d 8ebd e6f0 96bd 162c 1c3d 53bb d3bc
00000250: f706 97bd 2a1b aa3d 8cb6 e03d a09c c53d
00000260: d7db 1b3d 2d97 85bd 15ee f0bd dcf6 f23d
00000270: a14f 58bb 4140 ee3d b143 e93d 5347 d03c
00000280: b5dd b03d 76e4 51bd 450a 8dbd f24b b1bd
00000290: 5b23 d6bd 9288 cdbc d1a9 743d 9bd1 a63d
000002a0: 58be d43d aa46 c9bd d5a5 9dbd 8a09 6e3d
000002b0: 8de2 4dbc 8415 ca3d b5a1 b0bc 1f3d 31bc
000002c0: 158d 4bbd d272 f5bd 5476 43bd db1a b93d
000002d0: e3cd eebd 8cb1 b63d 9d90 8a3d 883d 6b3c
000002e0: 0d9b c3bd a361 86bd 6bc0 b3bd 1f81 dfbd
000002f0: ba9c ad3c a53f fabd 4667 b6bd 7412 4fbd
00000300: b698 f23c 3cf5 b2bd c3da da3d 0d68 88bd
00000310: 21d9 91bd a857 663c b683 753d 9173 2c3c
00000320: 3907 8d3d 2272 65bc bb2e 103d cd38 783d
00000330: aae6 cbbd cf4d 823d c5a6 e43c bc2a ebbd
00000340: 5d5a c33d 3f35 873d 7391 2cbd 00ae 7dbd
00000350: 9fc7 4b3d 574b 89bd 0bc7 e33d fa02 af3d
00000360: 64bd 52bd 598c 38ba 2249 013d 604d f8bc
00000370: c3a4 a5bd 6698 d83d 0730 c03d 04bb 96bb
00000380: 96c1 0e3d 80bc 48bd 4623 963d 6f42 abbc
00000390: 5743 af3d 8861 2abd 43b3 91bd 964b 7abd
000003a0: bb69 92bd 8a06 973a 5681 b83d ab09 983c
000003b0: b27e d4bc 2628 a53c 5585 a73d 207f debd
000003c0: dd1c 663d 1d9b d1bd 1b27 073d 6d29 78bd
000003d0: 995c b93d 0ff6 853d 7b00 d4bd 02ac ffbc
000003e0: 2aa0 a13c ec94 d0bc 5724 033d 04f4 973d
000003f0: 8934 b0bd bcdf b3bd ff59 d93d 7073 863d

bias f4 [64]
0.11428201 0.12928611 0.024176858 -0.07047837 -0.06901482 0.21971211 -0.07375903 -0.10669968
0.0014943356 0.33338654 -0.0348644 0.19312134 0.4088485 0.1871079 -0.119850725 0.24032865
-0.16646388 0.10360414 0.00023272878 0.07952256 -0.15425919 0.1445664 -0.0014642332 0.24321191
-0.061415914 -0.13037817 0.19341351 0.063207805 0.020818222 0.020786513 -0.077555604 0.24326411
-0.15658478 0.39971626 -0.08162434 0.31283543 -0.110253476 0.10948321 0.045981627 0.25176555
-0.04769702 0.20727724 -0.15868309 0.2508807 0.20188324 -0.074687935 -0.07896878 0.4164845
0.18418059 0.35024258 -0.07354863 0.059569698 0.008572275 0.03462176 -0.01643977 0.0046997336
-0.0627374 -0.1276594 0.59214365 -0.07951393 0.06565772 0.087704316 0.035230096 -0.0019369525
00000000: b00c ea3d 9463 043e 8c0e c63c f756 90bd
00000010: a457 8dbd 36fc 603e f90e 97bd 5d85 dabd
00000020: 95dd c33a a4b1 aa3e f9cd 0ebd 9ac1 453e
00000030: 9754 d13e 3799 3f3e 4c74 f5bd b718 763e
00000040: 8275 2abe 682e d43d a808 7439 b9dc a23d
00000050: 1ff6 1dbe 3709 143e 83eb bfba 8b0c 793e
00000060: 418f 7bbd db81 05be 310e 463e 1873 813d
00000070: fa8a aa3c 7a48 aa3c 79d5 9ebd 3a1a 793e
00000080: c357 20be 9ca7 cc3e a92a a7bd f72b a03e
00000090: 93cc e1bd bc38 e03d 3b57 3c3d 6ae7 803e
000000a0: f35d 43bd 7c40 543e d27d 22be 6f73 803e
000000b0: 7bba 4e3e fdf5 98bd 62ba a1bd 753d d53e
000000c0: d699 3c3e ff52 b33e aaa0 96bd 5bff 733d
000000d0: ba72 0c3c 8ccf 0d3d b2ac 86bc 3900 9a3b
000000e0: 777c 80bd 25b9 02be ba96 173f 33d8 a2bd
000000f0: 8e77 863d 529e b33d 6f4d 103d 57e1 fdba

weight f4 [1, 64]
-0.06437989 -0.1538745 0.075612515 -0.04054688 -0.030643817 0.29033878 0.028922753 -0.095995456
-0.033308074 0.5478489 -0.005808443 0.3379278 0.7263378 0.31082904 0.12257819 0.23442733
-0.10102048 0.28847486 -0.13783099 -0.08908226 -0.0869347 -0.07018252 0.0112305535 0.62799996
0.024371719 -0.12236942 0.4397671 -0.023361096 -0.037220526 0.16614573 -0.08788593 0.35234445
0.0873467 0.562681 0.07972976 0.4728313 -0.09698129 -0.093514234 0.19354038 0.3859472
-0.057015218 0.18705046 0.07111228 0.24785434 0.2814686 0.024205519 0.115604475 0.5674725
0.14237605 0.38194042 0.05497693 -0.11815377 -0.12658535 -0.11502618 -0.024902176 -0.038661957
0.053860858 0.039160702 0.7399501 -0.113117255 0.1623785 -0.012151782 -0.04207794 -0.041625313
00000000: 9bd9 83bd 4791 1dbe bcda 9a3d 7c14 26bd
00000010: be08 fbbc 49a7 943e 69ef ec3c 4499 c4bd
00000020: 0c6e 08bd d33f 0c3f c054 bebb df04 ad3e
00000030: 46f1 393f fc24 9f3e 460a fb3d b80d 703e
00000040: d3e3 cebd fab2 933e 9123 0dbe c370 b6bd
00000050: d20a b2bd dabb 8fbd 5b00 383c 9bc4 203f
00000060: 33a7 c73c d29c fabd 2729 e13e c55f bfbc
00000070: 8d74 18bd 1b22 2a3e 8afd b3bd 7e66 b43e
00000080: d4e2 b23d dd0b 103f 5b49 a33d f216 f23e
00000090: 209e c6bd 6484 bfbd 732f 463e df9a c53e
000000a0: ca88 69bd 288a 3f3e 51a3 913d 87cd 7d3e
000000b0: a71c 903e a74a c63c 0ac2 ec3d e145 113f
000000c0: 07cb 113e b28d c33e 7d2f 613d 9bfa f1bd
000000d0: 979f 01be d992 ebbd a6ff cbbc 005c 1ebd
000000e0: 349d 5c3d f966 203d 5f6d 3d3f 05aa e7bd
000000f0: 8d46 263e 4518 47bc eb59 2cbd 4e7f 2abd
