mlartifacts/554351476986166068/003653fae9094931ace3e44e5f22dbf7/artifacts/models/Model_dim64_layers5_experiment/r2_score0.49847988968143325_run23/data/model.pth (torch, 294728 bytes, 13 tensors)

weight f4 [64, 801]
0	0x3cb73c31	0.022367569
1	0x3c367bba	0.011137897
2	0xbb210678	-0.0024570506
3	0xbcb68006	-0.022277843
4	0x3b152325	0.0022756543
5	0xbc7593e8	-0.014988877
6	0xbca9ccf0	-0.020727605
7	0x3c2fbbb4	0.010725904
8	0xbd07c709	-0.0331488
9	0x3d05bd71	0.03265137
10	0x3d0215e8	0.031759173
11	0xbd000cea	-0.031262316
12	0x3c8ace4f	0.016944079
13	0xbcc01f53	-0.023452437
14	0xbcb17e7e	-0.021666761
15	0x3c5b1595	0.013371845
16	0x3bf348bd	0.0074244426
17	0x3c45ff31	0.012084768
18	0xbc94c21a	-0.018158961
19	0xbd00a049	-0.03140286
20	0xbbc24422	-0.005928532
21	0x3c16757a	0.009183282
22	0x3d073220	0.033006787
23	0xbcc5cc9a	-0.024145413
24	0x3c2f0344	0.010681931
25	0xbd296fd9	-0.04136643
26	0x3d01bc91	0.03167397
27	0x3c172b25	0.009226595
28	0xbc54058f	-0.012940778
29	0x3a2d8a59	0.00066200417
30	0x3c523eff	0.012832402
31	0xbcb8f044	-0.022575505
32	0xbc8be17e	-0.017075296
33	0xbc9672d9	-0.01836531
34	0xbca5000e	-0.020141628
35	0x3ce1de74	0.027571894
36	0xbbc0c2b7	-0.005882587
37	0xbb862db9	-0.004094806
38	0x3bba7732	0.0056904787
39	0x3a8ac5f0	0.0010587554
40	0x3ce73f9e	0.028228577
41	0xbc471e2a	-0.012153188
42	0xbcc017ec	-0.023448907
43	0x3cb148d4	0.021641172
44	0x3bd5b3f4	0.006521696
45	0xbb81b619	-0.0039584753
46	0xbadf18e4	-0.0017020968
47	0x3be53cd4	0.0069957767
48	0xbcf4a3ce	-0.029863264
49	0xbd16ccd2	-0.036816426
50	0x3cd50a58	0.026005909
51	0xbc913e6f	-0.017729966
52	0x3cfe8de1	0.031073513
53	0x3c11f65c	0.008908834
54	0xbd1162a1	-0.03549445
55	0xbcf5c24d	-0.029999876
56	0x3cabeffc	0.020988457
57	0xbca2d9cd	-0.019879246
58	0x3b1c6f0d	0.0023869902
59	0x3b0fa657	0.0021919215
60	0xbc854c58	-0.016271755
61	0xbd0c36a9	-0.034231815
62	0x3cf2c633	0.029635524
63	0xbcd9f2d2	-0.026605044
64	0x3d1a32f9	0.037646268
65	0xbcfbb7c9	-0.030727284
66	0x3c1efa47	0.009703225
67	0x3c7fa2fd	0.015602824
68	0xbcc04b64	-0.023473449
69	0x3c67e0e5	0.01415274
70	0x3cc8250e	0.024431732
71	0x3960e30f	0.0002144689
72	0x3cdd20b1	0.026993128
73	0xb5a1941b	-1.2038539e-06
74	0x3d0c95bf	0.034322497
75	0x3b375a70	0.002797749
76	0x3cad2fc7	0.021140946
77	0x3cedf416	0.029047053
78	0x3cb4083a	0.021976579
79	0xbbf77f28	-0.007553
80	0xbc716938	-0.014734559
81	0x3c0f2036	0.008735707
82	0xbca12b8d	-0.019674087
83	0xbc940414	-0.01806835
84	0x3c2fbf8f	0.0107268235
85	0x3bebd33f	0.0071968134
86	0x3b9337e0	0.004492745
87	0x3d1c38a5	0.038139958
88	0xbca86657	-0.020556612
89	0xbd19b1ab	-0.037522953
90	0x3c1f6547	0.009728736
91	0xbc165941	-0.009176553
92	0xbcb69e43	-0.022292262
93	0x3c7412c8	0.014897056
94	0xbc474c6a	-0.012164215
95	0x3cfc6874	0.030811526
96	0x3c8e54f7	0.017374499
97	0xbc7adc4c	-0.015311312
98	0x3bda142e	0.0066552376
99	0x3cb6a879	0.02229713
100	0x3cbb188a	0.02283885
101	0xbbc49b9b	-0.005999995
102	0x3c2769c2	0.010218086
103	0x3cc5e605	0.024157533
104	0x3d25d10d	0.04048257
105	0x3cdaa887	0.026691688
106	0xbc974057	-0.018463297
107	0xbd1f6288	-0.038912326
108	0x3ceef606	0.029170047
109	0xbceebcda	-0.029142786
110	0x3d3528d4	0.04422839
111	0x3cd79093	0.026314056
112	0xbd007050	-0.03135711
113	0x3af2a597	0.0018512484
114	0x3c150d67	0.009097434
115	0x3c6f152a	0.014592448
116	0x3c1d4940	0.009599984
117	0xbc8ef211	-0.01744941
118	0xbcddbc4a	-0.027067322
119	0xbc25429b	-0.010086681
120	0x3cbf2531	0.023333164
121	0xbc622085	-0.013801699
122	0xbce1514b	-0.027504584
123	0x3ce44d7e	0.027868982
124	0x3d117a08	0.03551677
125	0xbb4500db	-0.0030060324
126	0xbc1410d4	-0.009037215
127	0x395a22d0	0.00020803069
128	0x3b8efae7	0.004363406
129	0x3c852efb	0.016257754
130	0xbc0111e9	-0.007877805
131	0x3ab2f23d	0.0013652515
132	0xbcc77781	-0.024348976
133	0xbcdc3be6	-0.02688403
134	0xbc7dbcc6	-0.015486902
135	0x3d177e72	0.036985822
136	0xbc688076	-0.014190784
137	0xbb8935d1	-0.0041873236
138	0xbca65ee4	-0.02030892
139	0xbc024b39	-0.007952505
140	0xbc745b5c	-0.01491436
141	0xbd07f4e2	-0.033192523
142	0xbc8e3629	-0.01735981
143	0xbcb2e041	-0.021835448
144	0x3ca90a85	0.020634899
145	0xbccb911b	-0.024849465
146	0x3cdd1dc0	0.026991725
147	0x3ba7b084	0.005117478
148	0x3bcab6d6	0.0061863465
149	0xbcd2187d	-0.025646443
150	0x3890397d	6.877163e-05
151	0x3cd764da	0.026293207
152	0xba858a8e	-0.0010188387
153	0x3ad9aab8	0.0016606664
154	0xbca50856	-0.020145576
155	0xbc866753	-0.01640669
156	0xbc777f9a	-0.015106106
157	0x3cdc3108	0.026878849
158	0xbcc664a1	-0.024217905
159	0x3c876774	0.016528822
160	0xbc67aeaa	-0.014140764
161	0xbbd93a13	-0.0066292374
162	0xbd0a421f	-0.033754464
163	0xb9e840c6	-0.00044298748
164	0x3ced9a40	0.029004216
165	0xbbe5b9b3	-0.0070106625
166	0x3ce2cf13	0.027686631
167	0xbc9cc8ec	-0.019138776
168	0xbcd8fb76	-0.026487093
169	0xbca4cb2a	-0.020116407
170	0xbced8f4b	-0.028998991
171	0x3c083375	0.00831305
172	0x3c4edfe0	0.012626618
173	0xbc69297a	-0.01423108
174	0x3c8d7116	0.017265838
175	0x3a40c5d6	0.00073536986
176	0x3cb4e47f	0.022081612
177	0xbc3c88f0	-0.011507258
178	0xbca9d9e6	-0.020733785
179	0x3c311c9d	0.010810045
180	0xbce5e7e5	-0.028064677
181	0x3acda00b	0.0015687955
182	0xbcd21cd7	-0.025648518
183	0xbc378839	-0.011201912
184	0xbcc664b2	-0.024217937
185	0xbc0900c6	-0.008362001
186	0xbc63b2a9	-0.013897576
187	0xbd1eef10	-0.038802207
188	0x3b344f23	0.002751299
189	0xbc894618	-0.016757056
190	0xbc44ad1e	-0.012004165
191	0x3cf8dc30	0.030378431
192	0xbd0ce120	-0.034394383
193	0xbb67863e	-0.0035327817
194	0x3ca9f8bc	0.020748489
195	0xbc898417	-0.016786618
196	0x3c309752	0.010778265
197	0x3cf182da	0.02948134
198	0x3d1eb3ba	0.03874562
199	0xbd16e569	-0.036839876
200	0xbd09b0d3	-0.0336159
201	0xbcb70ce4	-0.022345014
202	0xbc124827	-0.008928335
203	0x3ce813a1	0.028329672
204	0xbc9d5a28	-0.019208029
205	0xbc979877	-0.018505318
206	0xbbde48c0	-0.006783575
207	0x3cf9f078	0.030510172
208	0x3c34415d	0.011001912
209	0x3aa85160	0.0012841634
210	0xbb9cb304	-0.0047820825
211	0x3cbe5b98	0.023237035
212	0x3cfc9a83	0.030835396
213	0x3d03c1c3	0.032167207
214	0xbc59ebde	-0.013300864
215	0xbcfedb83	-0.03111053
216	0x3cd259e7	0.025677634
217	0xbce7bbe0	-0.028287828
218	0x3cd3400b	0.025787374
219	0xbc75b153	-0.014995891
220	0x3d1f76aa	0.038931526
221	0x3cbab4ca	0.022791285
222	0xbb9f6d4b	-0.0048653237
223	0xbb8f79e6	-0.004378545
224	0x3bb6aa0a	0.0055744695
225	0x3ca10fcd	0.019660855
226	0xbc0ba6c1	-0.008523644
227	0xbbe68f39	-0.0070361164
228	0x3be5250d	0.006992942
229	0xbcbac09a	-0.022796918
230	0xbbd894a5	-0.0066095167
231	0xbc628971	-0.013826714
232	0xbceef83d	-0.029171104
233	0xbcc0cbad	-0.02353462
234	0xbc382e34	-0.011241484
235	0xbcffb33d	-0.031213397
236	0x3cd680e5	0.026184509
237	0x3b126047	0.0022335218
238	0xbccf86fb	-0.025332918
239	0xbbdb0b74	-0.006684715
240	0xbc9db11b	-0.01924949
241	0xbbd18b0d	-0.00639475
242	0x3c46d9e1	0.012136907
243	0x3d039b1b	0.032130342
244	0xbc88c76f	-0.01669666
245	0x3cc3ac47	0.02388586
246	0x3c9f67b5	0.019458631
247	0x3d0ef779	0.034903977
248	0x3baf9285	0.0053580427
249	0x3c0da144	0.008644406
250	0x3c22b023	0.00992969
251	0xbcec936c	-0.02887889
252	0xbbe226db	-0.0069016046
253	0x3c703931	0.014662073
254	0x3ada6008	0.00166607
255	0xbc4f521d	-0.012653855

bias f4 [64]
0	0xbccfbf5c	-0.025359802
1	0xbce03135	-0.027367214
2	0xbd0a3abc	-0.03374742
3	0xbca32d11	-0.01991895
4	0xbce8d651	-0.028422507
5	0x3cb6fb77	0.022336705
6	0xbd50b852	-0.05095703
7	0xbce1eaa6	-0.02757771
8	0x3d158e76	0.036512814
9	0x3d1e686e	0.03867381
10	0xbce55a03	-0.027997022
11	0x3b71c121	0.0036888795
12	0xbcfc0e97	-0.030768676
13	0x3add2db3	0.0016874581
14	0x3d8d4101	0.06897164
15	0xbc4d0d5a	-0.01251539
16	0xbd1ca6e8	-0.03824511
17	0xbd1c7207	-0.038194682
18	0xbd5395f5	-0.051656682
19	0x3cc99d76	0.024611216
20	0x3d04a73c	0.03238605
21	0xbd479316	-0.048724256
22	0xbd2358fd	-0.039879788
23	0x3d986e79	0.07442946
24	0x3c7e696b	0.015528063
25	0xbd12f503	-0.035878193
26	0xbd1a9158	-0.037736267
27	0x3d38d378	0.045123547
28	0x3caf8023	0.021423405
29	0xbbe2493e	-0.006905704
30	0xbd11da02	-0.0356083
31	0xbd05e0f7	-0.032685246
32	0x3c381371	0.011235104
33	0x3c0e3275	0.008679022
34	0xbc47f929	-0.0122054005
35	0xbca256e0	-0.019816816
36	0xbd141e51	-0.036161724
37	0x3c8e47a9	0.017368155
38	0x3d5d3810	0.054008543
39	0x3a8a995d	0.001057427
40	0x3c8fc66c	0.01755067
41	0x3bab6081	0.00523001
42	0xbd2990a2	-0.0413977
43	0x3d500dd0	0.050794423
44	0xbc958320	-0.018251002
45	0x3bf1421b	0.0073626167
46	0xbd87efd7	-0.06637543
47	0xbdd1d934	-0.10246506
48	0xbd06cf5d	-0.0329126
49	0xbd97d20d	-0.07413111
50	0xbc60bbf7	-0.013716689
51	0xbc24b9ce	-0.010054065
52	0x3cc7c676	0.024386626
53	0x3a9f25d4	0.0012142011
54	0x3ca38cd7	0.019964619
55	0xbd446445	-0.047947187
56	0xbcaec8f2	-0.021336053
57	0xbcea1862	-0.02857608
58	0x3c879d94	0.016554631
59	0x3d76994a	0.06020478
60	0x3bc73e0c	0.0060803946
61	0xbd44ecec	-0.04807751
62	0xbd1cbb56	-0.038264595
63	0xbc581406	-0.013188368

weight f4 [64, 64]
0	0x3dfb1e8e	0.12261687
1	0xbdb5085e	-0.088394865
2	0xbe7cfd6f	-0.24706052
3	0xbdc87b6c	-0.09789166
4	0xbe0c7370	-0.13715911
5	0xbe347b5e	-0.17625186
6	0x3c0e8fb7	0.0087012565
7	0xbd7e45e9	-0.06207839
8	0x3c535e84	0.012900952
9	0xbca253c1	-0.019815328
10	0x3ce7e38e	0.028306749
11	0xb91c2075	-0.0001488941
12	0xbc412e6e	-0.011790855
13	0xbdf84104	-0.12121776
14	0x3c8dd437	0.017313106
15	0xbdab5f7c	-0.083678216
16	0x3b364d17	0.0027816945
17	0xbddaaa5d	-0.106770255
18	0x3d20ee60	0.039289832
19	0x3e8da3f1	0.2766414
20	0x3b240bdc	0.0025031483
21	0x3dbacd20	0.09121156
22	0x3b26cb56	0.0025450788
23	0xbe19e745	-0.15029629
24	0xbe996017	-0.29956123
25	0xbe9098fa	-0.28241712
26	0x3d877074	0.066132456
27	0x3d496f74	0.049178556
28	0x3e69eb20	0.228436
29	0xb89b9b95	-7.419955e-05
30	0x3c978691	0.018496783
31	0x3da66107	0.08123975
32	0xbdb307e9	-0.08741743
33	0xbdb9d250	-0.09073317
34	0x3d9974d8	0.07492989
35	0xbe829889	-0.25507
36	0xbcdcb740	-0.02694285
37	0x3dc2dc36	0.09514658
38	0x3ddbe4ac	0.10736975
39	0xbcc426de	-0.023944315
40	0xbea20010	-0.31640673
41	0xbdb48e00	-0.08816147
42	0xbda1ae8a	-0.07894619
43	0xbea5ac90	-0.32358217
44	0xbe051e75	-0.129999
45	0x3ccdf6ab	0.025142035
46	0x3e1649e8	0.1467663
47	0x3dc9a524	0.09845951
48	0x3dae8c05	0.085228
49	0x3d69a54b	0.0570424
50	0xbde8a056	-0.11358707
51	0x3dada054	0.08477846
52	0x3e633819	0.22189368
53	0x3ce94ae8	0.0284781
54	0xbc8464b0	-0.016161293
55	0xbe38f3eb	-0.18061797
56	0xbdf6a9d7	-0.12044113
57	0xbda289c8	-0.07936436
58	0x3d892045	0.06695608
59	0x3d531123	0.051530015
60	0xbe8e46f3	-0.27788505
61	0xbe1e5c30	-0.15464854
62	0xbd46d3e7	-0.04854193
63	0x3cf618ab	0.03004106
64	0xbccaaa18	-0.02473931
65	0x3d841d1a	0.06450863
66	0x3dd452a4	0.10367325
67	0xbc97a418	-0.018510863
68	0xbd79a8c4	-0.060951963
69	0x3db07f98	0.086180866
70	0x3c664528	0.014054574
71	0xbca493a6	-0.020089936
72	0x3dc0e3ff	0.09418487
73	0x3e6c618b	0.23084085
74	0xbc9e9f36	-0.019363027
75	0xbd462b93	-0.0483814
76	0xbda1748d	-0.078835584
77	0xbd2482e5	-0.040163893
78	0x3d82e30b	0.06390961
79	0x3c32e953	0.010919887
80	0xbcbb94c2	-0.022898082
81	0xbbef9d04	-0.007312419
82	0xbe9fda8d	-0.3122143
83	0x3e43cef9	0.19121923
84	0xbe3ce829	-0.18447937
85	0xbd777084	-0.060410038
86	0x3dbf04c2	0.09327079
87	0x3cdc4bf9	0.026891695
88	0x3df30209	0.118656226
89	0xbe1cd965	-0.15317304
90	0xbd8b20b6	-0.067933485
91	0xbcb8d935	-0.02256451
92	0xbd044736	-0.032294475
93	0x3de5bf0e	0.112180814
94	0xbe34ebe3	-0.17668109
95	0x3d4b6bae	0.04966324
96	0xbb959bb3	-0.00456568
97	0xbc730c19	-0.014834427
98	0xbc98bfb7	-0.018646104
99	0x3e39f103	0.18158345
100	0xbd81e123	-0.063417695
101	0xbd2ae60a	-0.04172329
102	0xbe4b555a	-0.19856778
103	0xbd19372e	-0.03740614
104	0xbd07c0c1	-0.03314281
105	0x3dcf413b	0.101198636
106	0x3e0eb8b1	0.13937642
107	0x3c40510a	0.011738071
108	0xbe7a13da	-0.24421635
109	0xbc72c7a8	-0.01481811
110	0xbe350408	-0.17677319
111	0x3d24ce9e	0.040236108
112	0x3d31206d	0.043243814
113	0x3c949eaf	0.018142072
114	0x3d7f2b90	0.062297404
115	0xbdbc74b4	-0.09201947
116	0xbe16ba2b	-0.14719455
117	0xbdcff862	-0.10154797
118	0xbd978080	-0.07397556
119	0x3d680632	0.056646533
120	0x3df35d7c	0.11883065
121	0x3ca0de59	0.019637274
122	0xbd4ea394	-0.05044897
123	0x3d121fd4	0.035674885
124	0x3e80adb5	0.25132528
125	0xbda82387	-0.08209901
126	0x3da55020	0.08071923
127	0x3d0975bb	0.033559542
128	0x3d178520	0.036992192
129	0xbdd559c5	-0.10417513
130	0x3d3a5a99	0.045496557
131	0x3df4a5e4	0.119457036
132	0x3d4e879c	0.050422296
133	0xbdd89db7	-0.10576957
134	0x3d1eb266	0.038744353
135	0xbdb4819f	-0.08813786
136	0xbdd68628	-0.10474807
137	0xbb729a9c	-0.0037018424
138	0xbdcff7fa	-0.1015472
139	0x3c6402c3	0.013916674
140	0xbcb3d609	-0.021952646
141	0xbd078e6f	-0.03309482
142	0xbce26125	-0.027634213
143	0xbdb9a3d5	-0.090644516
144	0xbcc6b180	-0.02425456
145	0xbd255ce6	-0.040371798
146	0xbe170fc6	-0.14752111
147	0x3d5e4407	0.054264095
148	0x3d003cb8	0.031307906
149	0x3d9a8dc3	0.0754657
150	0xbd5b8484	-0.053593174
151	0xbd5c1377	-0.0537295
152	0xbe006834	-0.1253975
153	0x3be3db57	0.0069536376
154	0xbd76b86d	-0.060234476
155	0x39efb67e	0.000457216
156	0x3d40b356	0.047046028
157	0x3da9cb69	0.082907505
158	0xbcd5b5ac	-0.026087604
159	0x3c4c0122	0.012451442
160	0xbc856170	-0.016281813
161	0xbc77fb50	-0.015135601
162	0xbddd490e	-0.1080495
163	0x3d7a51d3	0.06111319
164	0x3ddfd7f2	0.1092986
165	0x3d109334	0.035296634
166	0xbd23f217	-0.040025797
167	0xbdb1b27b	-0.086766206
168	0xbd464b67	-0.048411753
169	0xbdea2a04	-0.11433795
170	0xbdd98541	-0.10621119
171	0xbddfde78	-0.109311044
172	0x3d9eaee5	0.07748202
173	0x3d46ea38	0.048563212
174	0xbd2e084f	-0.042488392
175	0x3cac252b	0.021013817
176	0x3d779713	0.06044681
177	0xbe0ec12a	-0.13940874
178	0x3d5d96a0	0.054098725
179	0x399faa00	0.00030453503
180	0xbdc4dafa	-0.09612079
181	0x3df4f442	0.11960651
182	0xbdb062ca	-0.086125925
183	0xbe09f6e0	-0.13473082
184	0x3d750759	0.05982146
185	0xbd869ef8	-0.0657329
186	0xbc95465c	-0.018222027
187	0xbd357884	-0.044304386
188	0xbd0caed6	-0.034346424
189	0x3bf78480	0.007553637
190	0x3d902b01	0.07039452
191	0xbdc0b3e8	-0.094093144
192	0xbd81ff6c	-0.06347546
193	0xbd9b519f	-0.07583927
194	0x3e56b78a	0.20968452
195	0x3c5e1480	0.013554692
196	0x3d99cc3c	0.07509658
197	0xbe097937	-0.13425146
198	0xbd14d0c4	-0.036331907
199	0xbddf6648	-0.109081805
200	0xbe5ead43	-0.21745782
201	0xbe64eec1	-0.22356702
202	0x3d2075c8	0.039174825
203	0xbdfeb625	-0.12437085
204	0xbdb3a834	-0.087723166
205	0x3db0f9a0	0.08641362
206	0xbdcc44e1	-0.09974075
207	0xbd948be6	-0.07253246
208	0xbd904757	-0.07044857
209	0x3d4b3d87	0.049619224
210	0x3d8ea0e1	0.06964279
211	0xbe1f3c45	-0.15550335
212	0xbe0a22dc	-0.1348986
213	0x3bb281a2	0.0054475823
214	0xbc86f546	-0.016474377
215	0xbdf16573	-0.11786928
216	0xbe7951d8	-0.24347627
217	0xbd53422b	-0.051576775
218	0x3e0dfea3	0.13866667
219	0xbe38d636	-0.18050465
220	0xba870e92	-0.0010304025
221	0xbc8397ca	-0.01606359
222	0xbe665cb0	-0.22496295
223	0xbc1ee556	-0.009698233
224	0xbdc4c0b4	-0.09607068
225	0x3c9dd98e	0.019268777
226	0xbe633d86	-0.22191438
227	0xbd17b1bf	-0.037034746
228	0x3dea91f6	0.11453621
229	0xbdbe63a6	-0.0929635
230	0xbe3c0a18	-0.18363225
231	0xbe339452	-0.17537048
232	0xbd70c650	-0.058782876
233	0x3a801e14	0.0009774589
234	0x3e174188	0.14771092
235	0xbe36acff	-0.1783943
236	0x3da7958c	0.08182821
237	0x3d6d185f	0.05788457
238	0x3dcd2b1b	0.10017987
239	0x3d7cfbd9	0.06176362
240	0xbce92864	-0.028461643
241	0x3d182a81	0.03714991
242	0xbd820b71	-0.063498385
243	0xbd78d514	-0.060750082
244	0xbd405a33	-0.04696102
245	0xbdc07768	-0.09397775
246	0x3d05f6b1	0.032705966
247	0x3c231722	0.009954246
248	0x3df2eea3	0.118619226
249	0x3cb0463f	0.021517871
250	0x3bc1642c	0.005901834
251	0xbe3e7167	-0.18597947
252	0x3d38a4ed	0.04507916
253	0x3e2d62f4	0.16932279
254	0x3d362cac	0.044476196
255	0xbda2a6d5	-0.07941977

bias f4 [64]
0	0x3d076bd8	0.033061832
1	0x3dae5da0	0.08513951
2	0xbd894132	-0.06701888
3	0x3db73a66	0.089466855
4	0xbc68fe74	-0.014220823
5	0xbceb8ba2	-0.028753106
6	0x3d85dc2b	0.06536134
7	0x3d90fba2	0.07079245
8	0xbe0e02dd	-0.1386828
9	0x3d4b90df	0.049698707
10	0x3ce95c09	0.028486269
11	0xbd1a36b7	-0.037649836
12	0xbcbecab9	-0.023290025
13	0x3cb279fd	0.021786684
14	0x3d1fcfd5	0.039016563
15	0xbda02456	-0.078194305
16	0x3cf26eeb	0.029593905
17	0xbdb5518f	-0.08853447
18	0xbe2f11d0	-0.17096639
19	0xbd9302af	-0.07178246
20	0x3c116b89	0.008875736
21	0xbce5eddb	-0.02806752
22	0xbd8f7a02	-0.07005693
23	0x3d0eb484	0.034840122
24	0x3e47b7a0	0.19503641
25	0x3c9ee4ce	0.019396212
26	0xbd98e33c	-0.074652165
27	0xbcc7a73e	-0.02437174
28	0xbb56b538	-0.0032761823
29	0xbdefe3db	-0.11713382
30	0x3a82dac2	0.0009983408
31	0x3ccd3bd4	0.025052942
32	0x3d4e351e	0.050343625
33	0xbd973fc2	-0.07385208
34	0x3c240e41	0.010013164
35	0x3d7b9ff1	0.06143183
36	0x3b447250	0.0029975362
37	0x3de42277	0.11139386
38	0x3d3342a7	0.043764737
39	0xbd9c0ea6	-0.076199815
40	0xbbb1bfa5	-0.005424457
41	0xbe768668	-0.2407471
42	0x3dff2b2d	0.12459407
43	0x3ddc5f9b	0.10760423
44	0x3e0aa771	0.13540436
45	0xbe2fec0c	-0.17179888
46	0xbd48e471	-0.049045984
47	0x3db170c2	0.08664085
48	0xbd5881ba	-0.052858092
49	0xbe1bf4c6	-0.15230092
50	0xbd6f3b55	-0.058406193
51	0x3d6b7aa4	0.057490006
52	0xbe0ab298	-0.1354469
53	0xbd4e9208	-0.050432235
54	0xbda20251	-0.07910598
55	0xbd0bc8a1	-0.03412688
56	0xbdae33bf	-0.085059635
57	0x3e27e63d	0.16396423
58	0x3d09ffa6	0.03369107
59	0xbd0ed717	-0.034873094
60	0x3d9aa22e	0.075504646
61	0x3e0a42ba	0.13502017
62	0x3d86018e	0.06543265
63	0xbe019920	-0.12656069

weight f4 [64, 64]
0	0xbd13b713	-0.036063265
1	0xbe47a060	-0.19494772
2	0xbdf95da3	-0.12176063
3	0x3d943033	0.07235756
4	0xbe64fc5f	-0.22361897
5	0x3c04365b	0.0080696
6	0x3dc1d4b8	0.09464401
7	0xbd7e2eac	-0.06205623
8	0xbc43a22f	-0.011940523
9	0x3c82a554	0.015947975
10	0x3d37da8b	0.044886153
11	0xbdf17adc	-0.11791012
12	0x3d1ebf27	0.038756516
13	0x3dba813c	0.09106681
14	0x3be7358c	0.007055944
15	0xbc88226a	-0.016617972
16	0xbb1ddb9e	-0.00240872
17	0xba92ff00	-0.0011214912
18	0xbd2de361	-0.042453174
19	0xbda3bdd5	-0.07995192
20	0x3e0199f9	0.12656392
21	0x3c21e8b1	0.009882138
22	0x3be23cc4	0.0069042165
23	0x3d05ce43	0.03266741
24	0xbd5d1d7b	-0.053983193
25	0xbe006524	-0.12538582
26	0x3d221d87	0.03957894
27	0x3d6e7ab5	0.05822249
28	0x3d728fbe	0.059219114
29	0x3e10cb4b	0.1414005
30	0xbd153c32	-0.03643436
31	0xbd8e3a34	-0.06944695
32	0xbd7f3361	-0.062304858
33	0xbbaebbc0	-0.00533244
34	0x3dbc7f60	0.09203982
35	0xbc3bac60	-0.011454672
36	0x3db4dba8	0.088309586
37	0xbe0979fc	-0.1342544
38	0x3cd4b7b3	0.0259665
39	0xbd7c11fd	-0.061540592
40	0x3d0af4c0	0.033924818
41	0xbb8b9c18	-0.004260551
42	0xbe0f3fd4	-0.13989192
43	0x3a0f093b	0.00054563925
44	0x3da15d0f	0.07879078
45	0x3da9aa0c	0.08284387
46	0x3d3eb973	0.046563577
47	0xbd532b26	-0.05155482
48	0xbde3d95a	-0.11125441
49	0x3cef1b4f	0.029187826
50	0x3dae7d84	0.08520034
51	0xbbfe8108	-0.0077668466
52	0xbd47dac6	-0.048792623
53	0xbdb6fcd8	-0.08934945
54	0xbc895917	-0.016766114
55	0x3dfcce62	0.12344052
56	0x3d7b9860	0.061424613
57	0xbd5dc5be	-0.05414366
58	0x3ccd2d91	0.025046142
59	0x3de4eaf6	0.11177628
60	0xbdf6fb23	-0.12059619
61	0xbe11ddcd	-0.14244767
62	0xbdc80942	-0.09767391
63	0xbe0229f3	-0.12711315
64	0xbe85f818	-0.26165843
65	0xbd651a15	-0.055933077
66	0xbd6143eb	-0.054996412
67	0x3d3550b4	0.044266418
68	0xbdc9813b	-0.09839102
69	0xbd39e837	-0.045387473
70	0xbe0188fc	-0.12649912
71	0x3e233a87	0.15940295
72	0xbcf76b86	-0.030202638
73	0x3be38202	0.0069429884
74	0x3d5aeee0	0.053450465
75	0x3c62fbc8	0.013853975
76	0xbe1bcbd0	-0.15214467
77	0xbd1d7e57	-0.038450565
78	0x3e125733	0.14291076
79	0x3d3cb877	0.046074357
80	0xbe0dfef9	-0.13866796
81	0xbeacc897	-0.33746788
82	0xbe995209	-0.299454
83	0xbe1b3f04	-0.15160757
84	0xbd2f749a	-0.04283581
85	0xbd001c2c	-0.031276867
86	0xbcd6818a	-0.026184816
87	0x3d205ec0	0.03915286
88	0xbdd25090	-0.10269272
89	0x3dacdc13	0.08440413
90	0xbd7c4064	-0.061584845
91	0x3d41a330	0.04727477
92	0x3e23b373	0.15986423
93	0x3dd9b747	0.106306605
94	0xbddf288e	-0.10896407
95	0x3d96513c	0.07339713
96	0x3e16fc7a	0.1474475
97	0xbd8715d6	-0.06595962
98	0xbc870f84	-0.01648689
99	0xbcf6830b	-0.030091783
100	0x3de4a7ee	0.111648425
101	0xbddec5c2	-0.10877563
102	0x3d14c1ac	0.036317512
103	0x3b877e52	0.0041349316
104	0xbd95f883	-0.073227905
105	0xbdaaa25e	-0.0833175
106	0x3d75188a	0.059837855
107	0xbcd3d8fb	-0.0258603
108	0x3e09fa16	0.13474306
109	0xbdb96a4e	-0.09053479
110	0x3deb0064	0.11474684
111	0xbe48b149	-0.19598879
112	0xbe37c255	-0.17945226
113	0xbc6d64dc	-0.014489379
114	0xbdf69d2f	-0.12041699
115	0xbde77854	-0.11302248
116	0xbe1bbc42	-0.15208533
117	0xbd93bb98	-0.07213515
118	0xbdbdb7a8	-0.09263545
119	0x3d926cc8	0.071496546
120	0x3ae337cc	0.0017335354
121	0xbd18a6e0	-0.03726852
122	0xbe39e4c8	-0.1815368
123	0x3e17b535	0.14815219
124	0xbdea57e5	-0.11442546
125	0xbc8a7850	-0.016903073
126	0xbc8c6f05	-0.017142782
127	0xbe92c26b	-0.28663954
128	0x3ddb87f6	0.10719292
129	0x3da3d6f7	0.07999986
130	0x3d6ce7e5	0.05783834
131	0xbdf93cd2	-0.12169804
132	0x3d97c4ca	0.074105814
133	0x3d394ced	0.045239378
134	0x3d4dae93	0.050215315
135	0xbda488fc	-0.0803394
136	0x3dc63f20	0.09680009
137	0x3e08751d	0.13325925
138	0x3d860638	0.06544155
139	0x3d94458c	0.072398275
140	0xbb96e3ca	-0.0046047913
141	0xbdb4eef9	-0.08834643
142	0xbdfa488b	-0.12220868
143	0x3da253b3	0.079261206
144	0xbc76ac73	-0.015055764
145	0xbe9cbb0e	-0.3061146
146	0x3cddbc64	0.02706737
147	0x3df26ce7	0.11837178
148	0xbd500f5c	-0.050795898
149	0x3e933d68	0.28757787
150	0x3db83f05	0.08996395
151	0xbdb6e690	-0.08930695
152	0xbd47f4e1	-0.04881752
153	0xbd6b7ec3	-0.057493936
154	0xbe243680	-0.16036415
155	0xbd1b8bed	-0.03797524
156	0xbc81452e	-0.015780058
157	0x3dc6b25c	0.09701988
158	0xbdfa2b48	-0.122152865
159	0x3db72998	0.0894348
160	0xbcd55f84	-0.026046522
161	0xbed457ae	-0.41473144
162	0xbdd3afe8	-0.10336286
163	0x3b8a175e	0.0042142114
164	0x3d859461	0.06522442
165	0x3dcd7152	0.1003138
166	0xbe93eb35	-0.28890386
167	0xbd01eda6	-0.03172078
168	0x3d84d596	0.06486051
169	0xbe28260c	-0.16420764
170	0x3e5328ff	0.20621108
171	0xbd908e89	-0.070584364
172	0x3d6504e7	0.05591288
173	0xbc6a8d3e	-0.014315901
174	0xbd80f894	-0.062974125
175	0x3c435900	0.011923075
176	0xbd3dd738	-0.046347827
177	0xbde094cd	-0.109658815
178	0xbe4d308a	-0.20038047
179	0xbd2c8d59	-0.042126987
180	0x39f6bf71	0.0004706341
181	0xbc9ec538	-0.01938115
182	0xbe7f3760	-0.24923468
183	0x3daa65e7	0.083202176
184	0xbe2cb067	-0.16864167
185	0xbdcac9ab	-0.09901746
186	0xbebcd345	-0.36879936
187	0x3d96030b	0.07324799
188	0x3da7cd26	0.08193426
189	0x3d084460	0.033268332
190	0xbe5350ac	-0.20636243
191	0xbea2bf68	-0.31786656
192	0x3c045fd4	0.008079488
193	0xbe379bdf	-0.17930554
194	0x3d86d663	0.0658386
195	0x3d6436d3	0.055716347
196	0xbe0d3c72	-0.1379259
197	0xbe4d07c9	-0.20022501
198	0x3d92f7e5	0.071761884
199	0x3e084f58	0.13311517
200	0xbd63c4df	-0.055607673
201	0x3ca282f6	0.019837838
202	0xbc64e8f3	-0.013971555
203	0xbc1a800a	-0.009429941
204	0x3cdbb0b4	0.026817657
205	0x3d56adf9	0.052412007
206	0xbd3a0ca3	-0.045422208
207	0xbc8d5d15	-0.017256299
208	0xbe233163	-0.15936808
209	0xbdb59b32	-0.08867492
210	0x3d102b03	0.03519727
211	0xbdc890a9	-0.09793217
212	0x3e12442b	0.14283817
213	0xbd8d39d6	-0.06895797
214	0x3db00c21	0.085960634
215	0x3d6d6881	0.05796099
216	0xbd998df5	-0.07497779
217	0xbde2aefd	-0.110685326
218	0xbd6353ca	-0.05549983
219	0xbe0402c2	-0.12891677
220	0xbd8f9a60	-0.070118666
221	0xbc6e7645	-0.014554565
222	0xbc7e48b0	-0.01552026
223	0xbc80bbc0	-0.015714526
224	0xbda53056	-0.0806586
225	0x3ddc0d28	0.10744697
226	0xbd6629d8	-0.05619225
227	0x3dba75d1	0.09104503
228	0xbdeb8574	-0.115000635
229	0x3915f40c	0.00014300662
230	0x3cd71802	0.026256565
231	0xbd63c980	-0.055612087
232	0xbda350a1	-0.07974363
233	0xbbbd5124	-0.005777495
234	0xbe0e999b	-0.13925783
235	0x3d9df05b	0.0771186
236	0x3cd75065	0.026283452
237	0x3e05b24e	0.13056299
238	0xbdc0c9ad	-0.094134666
239	0xbe0e1e91	-0.13878848
240	0xbdaa54d7	-0.08316963
241	0xbd28c959	-0.041207645
242	0xbc4c16cd	-0.012456608
243	0xbdecc082	-0.115601555
244	0x3cf2b9b9	0.029629575
245	0x3de0ee64	0.109829694
246	0xbdffd477	-0.12491696
247	0x3dc7e680	0.09760761
248	0xbdb1ac0b	-0.08675393
249	0x3d5e2c7b	0.05424164
250	0xbceb4b50	-0.028722435
251	0xbc696723	-0.014245781
252	0x3c0c946b	0.0085803075
253	0x3db362ca	0.08759077
254	0x3cddf670	0.02709505
255	0xbe2966c3	-0.16543107

bias f4 [64]
0	0xbbbf9336	-0.0058464063
1	0x3d5f3f13	0.05450351
2	0xbd860aab	-0.065450035
3	0x3bacb148	0.005270157
4	0xbd603240	-0.054735422
5	0xbd95da78	-0.0731706
6	0xbde6ab9d	-0.112632014
7	0x3dfb0e9a	0.122586444
8	0xbe058344	-0.13038355
9	0xbc45d0f5	-0.012073745
10	0x3dd7a40d	0.10529337
11	0x3d8c7099	0.06857414
12	0x3ce592f5	0.028024176
13	0x3d7a93d9	0.061176155
14	0xbe86931e	-0.26284117
15	0x3cf29d50	0.029616028
16	0x3e8bfaa4	0.2733966
17	0x3e7e89ca	0.2485725
18	0x3e24f780	0.16110039
19	0x3e495175	0.1965998
20	0xbe0ea849	-0.13931383
21	0xbdc1f50d	-0.09470568
22	0x3ea10a9d	0.3145341
23	0xbde4d27c	-0.11172959
24	0x3e25d369	0.16193928
25	0x3b4faa84	0.0031687329
26	0x3d9b02f4	0.07568923
27	0x3e762d6c	0.24040765
28	0xbe2470f6	-0.16058716
29	0xbda3d7b2	-0.08000125
30	0x3db6a9b9	0.08919091
31	0xbd0bb709	-0.034110103
32	0xbca18366	-0.019715976
33	0xbdedd817	-0.116134815
34	0x3db6d58c	0.089274496
35	0xbddb6d81	-0.107142456
36	0x3d8ca830	0.06868017
37	0x3d921036	0.07131998
38	0xbdd418c0	-0.10356283
39	0x3d526a8a	0.051371135
40	0xbda23cd1	-0.07921756
41	0x3da332c4	0.07968667
42	0xbd8dfcb6	-0.069329664
43	0xbd8dd731	-0.0692581
44	0xbd102612	-0.035192557
45	0xbc1a4251	-0.009415225
46	0x3bf5c253	0.007499972
47	0xbb1825c3	-0.0023215867
48	0xbd5ec24a	-0.054384507
49	0x3d19f068	0.037582785
50	0xbd483e28	-0.0488874
51	0x3e99fff8	0.300781
52	0x3df60315	0.120123066
53	0xbda52f91	-0.08065713
54	0x3e3caf47	0.18426238
55	0xbd85d45e	-0.065346465
56	0xbd049594	-0.03236921
57	0x3db6b8f3	0.08921995
58	0x3df42534	0.119211584
59	0x3dd8ef66	0.10592537
60	0xbe2d0322	-0.16895726
61	0xbe48dba6	-0.19615039
62	0x3e124e51	0.14287688
63	0x3c9177a2	0.01775724

weight f4 [64, 64]
0	0x3dd06411	0.10175336
1	0x3ca66b2d	0.020314777
2	0x3db5b71b	0.08872815
3	0x3d12978c	0.035789058
4	0x3e6ba392	0.23011616
5	0x3dbe48e2	0.09291245
6	0xbd6e4ce1	-0.058178786
7	0xbda9574b	-0.08268603
8	0xbe43a232	-0.19104841
9	0x3b39d659	0.002835652
10	0x3d3ef609	0.046621356
11	0x3dafc66e	0.08582769
12	0xbd9329be	-0.07185696
13	0xbdd4cd8b	-0.10390767
14	0xbe351863	-0.17685084
15	0x3c0a1290	0.008427277
16	0x3dbf31b4	0.09335652
17	0x3e66da3c	0.22544187
18	0xbd1efffd	-0.03881835
19	0x3dc0551d	0.09391234
20	0xbc3f5821	-0.011678726
21	0xbc835b38	-0.016034707
22	0x3dc38b19	0.09548015
23	0x3db0dd0c	0.08635911
24	0x3d8ad420	0.06778741
25	0x3cf91643	0.030406123
26	0x3dfbc3b8	0.1229319
27	0x3ddad873	0.10685816
28	0x3d85131f	0.06497788
29	0xbb88bf36	-0.0041731847
30	0x3c802928	0.015644625
31	0x3e00e82a	0.12588564
32	0xbdec02da	-0.115239814
33	0xbdb28fe4	-0.08718851
34	0xbe2167bb	-0.15762226
35	0xbbe8421b	-0.0070879585
36	0xbe4580ff	-0.1928749
37	0xbde428fd	-0.111406304
38	0xbd5e8494	-0.054325655
39	0x3e0a9bff	0.1353607
40	0xbe012fc7	-0.12615882
41	0xbe789209	-0.24274458
42	0xbe6d6346	-0.23182401
43	0x3d9bf940	0.076159
44	0x3d718039	0.058960173
45	0xbb9b7ac2	-0.0047448585
46	0xbd5ed6af	-0.054403957
47	0x3dec11de	0.115268454
48	0xbcb45914	-0.022015132
49	0xbb8a2e54	-0.0042169485
50	0x3db99512	0.09061636
51	0x3e1fd173	0.15607242
52	0xbcb8ea0c	-0.02257254
53	0xbdf7f4d4	-0.12107244
54	0x3db5c041	0.0887456
55	0xbd81cd80	-0.06338024
56	0xbe25dc3a	-0.16197291
57	0x3d118669	0.035528574
58	0xbdfcdec5	-0.123471774
59	0x3df7836e	0.12085615
60	0x3dcb9cce	0.099420175
61	0x3d987a03	0.07445147
62	0x3e335d6f	0.17516111
63	0x3d77f9f2	0.0605411
64	0x3cfdd9ee	0.030987706
65	0xbc1b509c	-0.009479668
66	0x3e15a15d	0.14612336
67	0xbd735989	-0.05941156
68	0xbd6003cf	-0.054691132
69	0xbd5e3e3f	-0.05425858
70	0x3be25e2e	0.0069081997
71	0x3e16dd52	0.14732864
72	0xbdc069c3	-0.093951724
73	0x3d2fa261	0.042879466
74	0xbe438724	-0.19094521
75	0xbd3dbd49	-0.046323095
76	0xbb5a5ee2	-0.0033320715
77	0xbda5089a	-0.08058281
78	0x3bf47043	0.0074596717
79	0xbde16638	-0.11005825
80	0x3e0c2e9e	0.13689658
81	0x3e4b4fab	0.1985461
82	0x3d03340f	0.03203207
83	0x3e293e62	0.16527703
84	0x3dae3b0f	0.08507358
85	0x3e13d48e	0.14436552
86	0x3e1d4a93	0.15360479
87	0x3abd280f	0.0014431494
88	0x3cbe2519	0.023211049
89	0x3ddf6c0c	0.1090928
90	0x3cb9ca61	0.02267951
91	0xbd3526c3	-0.04422642
92	0xbd856f24	-0.06515339
93	0xbd330c15	-0.043712694
94	0xbcb0cdc4	-0.021582492
95	0xbcaf7f21	-0.021422924
96	0x3d4f67dd	0.05063616
97	0x3da6fb2e	0.081533775
98	0xbe29dd56	-0.16588339
99	0xbe8abae5	-0.27095714
100	0xbe96fbe4	-0.29489052
101	0xbddd3ade	-0.10802244
102	0x3c45cc05	0.012072568
103	0x3e35fbea	0.17771879
104	0xbd65cb52	-0.056102104
105	0xbd9013a6	-0.07034998
106	0x3da4fb0d	0.08055697
107	0x3ccc5b03	0.024945742
108	0x3dab560e	0.08366023
109	0xbd99adc2	-0.07503845
110	0xbd3974b5	-0.045277316
111	0x3de88b47	0.1135469
112	0x3dd8b8d1	0.10582126
113	0xbe6da18f	-0.23206161
114	0xbd224dd4	-0.039625004
115	0x3e2c158a	0.16805092
116	0x3dd0c7c6	0.10194354
117	0x3df393c9	0.11893422
118	0x3e25a28c	0.16175288
119	0x3db9f74f	0.090803735
120	0xbbac97f1	-0.0052671363
121	0x3d5dc8a3	0.05414642
122	0xbedb6db3	-0.4285713
123	0xbc7bb134	-0.015362073
124	0x3de6f46f	0.11277091
125	0x3d2ee23d	0.042696226
126	0x3e7108d9	0.23538531
127	0x3db3fbda	0.08788271
128	0xbdcadfbd	-0.09905956
129	0x3da76705	0.08173946
130	0xbe58f6b0	-0.21187854
131	0x3c908bea	0.017644841
132	0xbe3a8883	-0.18216138
133	0x3d47844d	0.048710156
134	0x3ccd8202	0.025086407
135	0xbd253fac	-0.040343925
136	0xbe50d81c	-0.20394939
137	0xbddd81e9	-0.10815794
138	0xbd39fec7	-0.04540899
139	0xbd9b2ff8	-0.07577509
140	0x3ded66ee	0.11591898
141	0x3cb1eec9	0.021720307
142	0xbc25b879	-0.0101147825
143	0xbdc647e9	-0.096816845
144	0x3c800d59	0.015631365
145	0xbe5b9b88	-0.21446049
146	0xbd94a570	-0.07258117
147	0xbe1ab5ce	-0.15108415
148	0xbdf6b1f2	-0.12045659
149	0xbdd4a899	-0.1038372
150	0xbb7eb753	-0.0038866594
151	0x3d295a5b	0.041345935
152	0xbdce6ce4	-0.10079363
153	0x3d19524d	0.037432004
154	0xbe0b78af	-0.13620256
155	0x3d9506f1	0.072767146
156	0xbd22e2ed	-0.039767195
157	0x3c029c09	0.007971772
158	0xbd866864	-0.0656288
159	0xbd120449	-0.035648618
160	0x3b8708b0	0.0041209087
161	0xbdca66f0	-0.09882915
162	0x3d25821b	0.04040728
163	0xbdad0251	-0.084477074
164	0xbe1165c3	-0.14198975
165	0xbc8d11ef	-0.017220465
166	0x3dea8d73	0.114527605
167	0x3da14db2	0.07876147
168	0xbbfc8a04	-0.0077068824
169	0x3d384fbe	0.044997923
170	0xbe34035c	-0.17579406
171	0xbd2bbccc	-0.041928098
172	0xbcac262b	-0.021014294
173	0xbd31b039	-0.04338095
174	0xbd02c385	-0.031924743
175	0x3dd73584	0.10508254
176	0xbdffc1ff	-0.12488174
177	0x3db19207	0.08670431
178	0x3d996d89	0.07491595
179	0xbdcc5024	-0.09976223
180	0xbe26684e	-0.16250727
181	0x3de73c74	0.112908274
182	0x3c4fc062	0.012680145
183	0xbddf9dbc	-0.10918757
184	0xbe129bd0	-0.1431725
185	0xbe40880a	-0.18801895
186	0x3d206f8e	0.039168887
187	0x3e34a057	0.1763929
188	0x3ad4ee90	0.0016245414
189	0x3ba82a4d	0.005131996
190	0x3d176ac5	0.036967058
191	0xbd094e41	-0.033521894
192	0xbdf81b2a	-0.12114556
193	0xbe63f247	-0.2226039
194	0x3dbf6d0b	0.0934697
195	0xbe24790c	-0.160618
196	0xbb68b990	-0.0035510994
197	0x3cd524bc	0.026018493
198	0x3de7bb23	0.1131499
199	0x3c2dc4bd	0.010605988
200	0x3bda6095	0.0066643455
201	0x3dcbec3a	0.09957166
202	0x3d244885	0.040108223
203	0x3d50dac9	0.0509899
204	0xbd1e4e74	-0.038649037
205	0xbe288c21	-0.16459705
206	0xbdf70333	-0.12061157
207	0x3da94779	0.082655855
208	0x3e25a601	0.16176607
209	0x3e6b72e5	0.22993048
210	0x3df18918	0.11793727
211	0x3cd2a5c3	0.025713807
212	0xbc1584c7	-0.009125895
213	0xbd23ce65	-0.039991755
214	0x3c2f4ea1	0.010699899
215	0x3d76dbd2	0.06026823
216	0x3df2fe0b	0.11864861
217	0xbd44c53b	-0.048039656
218	0xbdf1e15a	-0.118105605
219	0xbd9e2754	-0.07722345
220	0xbc65e80c	-0.014032375
221	0x3da60ed8	0.081083
222	0x3cad7e7b	0.021178475
223	0xbda2c142	-0.07947017
224	0xbda6c964	-0.08143881
225	0x3d0be391	0.03415257
226	0xbdce1f23	-0.100645326
227	0xbe8ea7a8	-0.27862287
228	0xbe2c315f	-0.16815709
229	0x3d5c30f7	0.053757634
230	0xbc144bc0	-0.009051263
231	0xbd72c46a	-0.059269346
232	0xbdcde10d	-0.10052691
233	0xbe2b4e88	-0.16729176
234	0xbd4ead23	-0.050458085
235	0x3d9da53c	0.076975316
236	0xbd5461a8	-0.051850945
237	0xbd7b33bf	-0.061328646
238	0x3de3019f	0.110842936
239	0xbcc4e389	-0.024034278
240	0xbdd9a23c	-0.10626647
241	0xbe536f35	-0.20647891
242	0x3dc6aae7	0.09700566
243	0x3dde3132	0.10849227
244	0x3caa2b25	0.020772526
245	0x3c5ffb27	0.013670719
246	0xbd3fe6c0	-0.04685092
247	0x3d268531	0.040654365
248	0xbe79f92f	-0.24411462
249	0x3d22c03f	0.03973412
250	0xbe858be1	-0.26083282
251	0x3d9ef2a9	0.077611275
252	0xbddd9703	-0.10819819
253	0x3d9e1fca	0.07720907
254	0x3e0aa54b	0.13539617
255	0x3bf04d0b	0.007333403

bias f4 [64]
0	0x3ebbfeb5	0.36717764
1	0x3eb29eb0	0.34886694
2	0x3d1613f1	0.03664011
3	0x3e65de3f	0.22448061
4	0x3e8f7513	0.28019008
5	0xbda5a293	-0.08087649
6	0xbe5540cb	-0.20825498
7	0x3e0f4937	0.13992773
8	0x3e5a967d	0.21346469
9	0xbdedce8b	-0.116116606
10	0x3e97c574	0.29642832
11	0xbd0d0d7c	-0.034436688
12	0xbdb52f74	-0.088469416
13	0x3e6f7346	0.23383817
14	0x3ea6c332	0.32570797
15	0xbcc7072b	-0.02429541
16	0x3d7acab3	0.061228465
17	0xbe3c61ef	-0.18396734
18	0x3db285fd	0.087169625
19	0xbe372f6b	-0.17889182
20	0x3e6b732a	0.2299315
21	0xbc43b469	-0.011944869
22	0x3e8f412f	0.2797942
23	0xbc39395b	-0.0113051785
24	0x3e44e343	0.19227318
25	0x3e92fc70	0.2870822
26	0x3d7e5f1c	0.062102422
27	0x3e14e550	0.14540601
28	0xbe07723a	-0.13227168
29	0xbe088a64	-0.13334042
30	0xbd8adced	-0.067804195
31	0x3ccc5181	0.024941208
32	0xbe1e4bb4	-0.15458566
33	0x3c99b4eb	0.018763026
34	0xbc6aad93	-0.01432361
35	0x3d02729b	0.031847578
36	0x3e20b45b	0.156938
37	0xbd26f81d	-0.040763963
38	0xbdb365fa	-0.08759685
39	0x3e3ae227	0.18250333
40	0xbe6741af	-0.2258365
41	0xbd1f997d	-0.038964737
42	0x3e95d047	0.29260466
43	0xbd0b73a1	-0.03404582
44	0x3e1fe8d7	0.15616165
45	0xbd89009f	-0.066895716
46	0x3d390148	0.045167238
47	0x3ea18c6c	0.31552446
48	0xbd410f7c	-0.047133908
49	0x3d4a0c08	0.04932788
50	0xbdb38dbb	-0.08767267
51	0xbd86b734	-0.06577912
52	0x3e44b151	0.19208266
53	0xbe793403	-0.24336247
54	0x3d9d976b	0.07694896
55	0x3e25006a	0.16113439
56	0x3e90f70e	0.28313488
57	0xbdbc0c0f	-0.091819875
58	0x3d7a92c7	0.061175134
59	0x3d20d0e0	0.0392617
60	0xbcde91c9	-0.027169125
61	0xbd0bb7ac	-0.03411071
62	0x3e2cff6a	0.16894308
63	0xbdacd6d6	-0.08439414

weight f4 [64, 64]
0	0xbdaec681	-0.08533955
1	0xbd937ac7	-0.07201152
2	0xbe02edb1	-0.12785985
3	0xbc85aac3	-0.016316777
4	0xbd9b255e	-0.075754866
5	0xbdab5da4	-0.0836747
6	0xbdfda5fb	-0.12385174
7	0x3dbd394f	0.09239446
8	0xbdf7140f	-0.12064373
9	0x3cfe85f9	0.031069743
10	0x3dc23b42	0.09483959
11	0xbc031150	-0.007999733
12	0x3b954a08	0.0045559444
13	0xbdaf4b5e	-0.08559297
14	0x3d4bb1ec	0.049730226
15	0xbd0274b2	-0.03184957
16	0xbe1a7cc2	-0.15086654
17	0x3e09e1e9	0.13465084
18	0xbd8d4c32	-0.06899299
19	0xbdfbfdb7	-0.12304252
20	0x3d3e1601	0.046407703
21	0x3d98b902	0.074571624
22	0x3dbeb08f	0.0931102
23	0x3cc098c7	0.02351035
24	0xbdb52956	-0.08845775
25	0xbd4991b9	-0.049211238
26	0xbdec1073	-0.11526575
27	0x3d091bde	0.03347384
28	0xbdee44f8	-0.116342485
29	0x3d9f9a03	0.07793047
30	0xbdd43d8e	-0.10363303
31	0x3cb1ffd5	0.021728436
32	0xbe18bd96	-0.14916071
33	0xbdfb42f0	-0.12268627
34	0x3ce37f5d	0.027770692
35	0xbde1aa7e	-0.11018847
36	0xbdecb112	-0.11557211
37	0xbd79adce	-0.06095677
38	0x3d410fce	0.047134213
39	0x3ca197b9	0.019725667
40	0xbe80bfb1	-0.2514625
41	0xbc9e5161	-0.019325914
42	0xbd90bd3f	-0.07067346
43	0x3d859317	0.06522196
44	0xbe38c00a	-0.18042007
45	0xbdb78f9b	-0.089629374
46	0xbcab29bc	-0.020893924
47	0x3e12a419	0.14320411
48	0xbd6bde34	-0.057584956
49	0xbd12bcb4	-0.035824493
50	0x3de00101	0.109376915
51	0xbd60694b	-0.054787915
52	0xbd6e3221	-0.058153275
53	0xbd1499c0	-0.03627944
54	0xbe0892d4	-0.1333726
55	0x3ce2f4b5	0.027704576
56	0xbe1ffaa2	-0.15622953
57	0xbe261cee	-0.16221973
58	0xbd1a2fb0	-0.037643135
59	0xbd9dd253	-0.07706132
60	0x3d48ab68	0.04899159
61	0x3daaec73	0.0834588
62	0x3d8baee2	0.068204656
63	0x3dd3aecc	0.10336074
64	0xbb295055	-0.0025835235
65	0x3d81006b	0.06298908
66	0xbd42d0f8	-0.04756257
67	0x3daf653b	0.0856423
68	0x3e0b5d4c	0.13609809
69	0x3ccb0904	0.024784572
70	0x3de93da6	0.11388712
71	0x3e032336	0.128064
72	0x3e093586	0.13399324
73	0x3e0b87c3	0.13626008
74	0x3dbed8a6	0.09318666
75	0xbde65ff6	-0.11248772
76	0xbd8684e4	-0.065683156
77	0x3e603e5b	0.21898787
78	0xbd8f260c	-0.06989679
79	0xb87cba04	-6.0254722e-05
80	0x3c4916fc	0.012273546
81	0x3e13ae95	0.14422067
82	0x3d2bfc21	0.041988496
83	0xbd80e1b3	-0.06293049
84	0x3cab8589	0.020937698
85	0xbcf1b505	-0.029505262
86	0x3e758872	0.23977831
87	0x3c8c305d	0.017112905
88	0xbd134924	-0.035958424
89	0x3dc11df0	0.09429538
90	0x3ccb07c3	0.024783975
91	0x3c26f9de	0.010191409
92	0xbd21f52c	-0.039540455
93	0xbde829d0	-0.113361
94	0xbdbf3364	-0.09335974
95	0xbd1ab626	-0.037771367
96	0xbe6f09fc	-0.23343652
97	0xbd3cd723	-0.046103608
98	0x3c1977d7	0.009366951
99	0xbde9482c	-0.11390719
100	0xbd7c991b	-0.06166945
101	0xbd826865	-0.06367568
102	0xbce78dd1	-0.028265866
103	0xbd810891	-0.06300462
104	0xbe3189d4	-0.17337734
105	0xbd9de1ac	-0.07709059
106	0x3e2445f7	0.16042314
107	0x3d8fa13f	0.07013177
108	0xbd767535	-0.06017037
109	0x3c8d1da4	0.017226048
110	0xbd063f34	-0.03277512
111	0x3d6ea3fc	0.058261856
112	0x3da03388	0.07822329
113	0xbdf072f7	-0.11740678
114	0xbe04ac80	-0.12956429
115	0xbd81c569	-0.06336481
116	0x3d2b23c3	0.041782152
117	0xbd60c533	-0.054875564
118	0x3d8855d8	0.066569984
119	0x3dc7d139	0.09756703
120	0x3d4409b7	0.047860827
121	0xbd21e4a0	-0.039524674
122	0x3cca98b4	0.024731018
123	0x3dfa5565	0.12223319
124	0xbd05528c	-0.032549426
125	0x3dd66318	0.104681194
126	0x3e0c239d	0.1368546
127	0x3df9a0e6	0.12188892
128	0xbcc0d8a0	-0.023540795
129	0xbd97cb02	-0.074117675
130	0x3dbc8b42	0.09206249
131	0xbdc242c8	-0.09485394
132	0x3d254e54	0.040357903
133	0xbde81f1c	-0.11334059
134	0x3d6ddb94	0.058070734
135	0xbd5212e8	-0.05128756
136	0x3d6ff020	0.05857861
137	0xbdf10f70	-0.117705226
138	0xbd9df8b4	-0.07713452
139	0xbdc0da8e	-0.09416686
140	0x3c8d1e68	0.017226413
141	0xbd9496fc	-0.072553605
142	0xbdaa3e42	-0.08312656
143	0x3b320b80	0.00271675
144	0x3bd643c0	0.006538838
145	0xbcc69078	-0.02423881
146	0xbde248ba	-0.11049028
147	0x3d44f6b8	0.04808685
148	0xbac57700	-0.0015065372
149	0x3d92aaf6	0.071615145
150	0x3cca9310	0.024728328
151	0x3d6841c4	0.056703344
152	0x3d988e9e	0.07449077
153	0xbd971e52	-0.0737883
154	0x3d8122b4	0.06305447
155	0xbdfd6258	-0.12372273
156	0x3d1bc450	0.038029015
157	0xbc80ae20	-0.01570803
158	0xbbee8fa0	-0.007280305
159	0xbc7137a0	-0.014722735
160	0xbdc1f106	-0.094698
161	0xbdd5045c	-0.10401222
162	0x3b649540	0.0034879
163	0xbda7c750	-0.08192313
164	0x3d9bbeb2	0.076047316
165	0xbd8aea8c	-0.067830175
166	0xbdd3df46	-0.103453204
167	0xbd0fb214	-0.035081938
168	0x3cd20920	0.025639117
169	0x3d80c2d4	0.062871605
170	0x3debfb68	0.11522561
171	0x3d8d4f2a	0.06899865
172	0x3dbe6d9c	0.0929825
173	0xbc861798	-0.016368672
174	0xbd93d9ee	-0.07219301
175	0xbdd247da	-0.10267611
176	0xbd407070	-0.04698223
177	0xbd1079d0	-0.03527242
178	0xbd1f6e48	-0.03892353
179	0x3d9b3c8a	0.07579906
180	0xbbb998a0	-0.0056639463
181	0xbdcffe0a	-0.10155876
182	0x3d94430c	0.07239351
183	0xbd917b86	-0.07103638
184	0x3d64db94	0.05587347
185	0x3c0d1660	0.008611292
186	0xbd0d4908	-0.034493476
187	0x3de389be	0.111102566
188	0xbd951274	-0.0727891
189	0xbd82cf56	-0.063872024
190	0x3dae3dd8	0.085078895
191	0xbdc62cce	-0.096765146
192	0xbddbe628	-0.10737258
193	0xbd055b91	-0.032558028
194	0xbd343ba0	-0.044002175
195	0xbb6f565b	-0.0036519978
196	0xbdaa5e6d	-0.083187915
197	0xbdb14a53	-0.08656754
198	0x3db1bcdc	0.086786
199	0xbe0d45df	-0.13796185
200	0xbd467de3	-0.0484599
201	0x3d654c49	0.055980954
202	0x3caf5cbb	0.021406522
203	0xbd948039	-0.07251019
204	0x3cba4f28	0.022742823
205	0xbdb9443a	-0.09046216
206	0xbe41d9ef	-0.18930791
207	0x3c346941	0.011011423
208	0xbd9a09ae	-0.075213775
209	0x3c8be3b4	0.01707635
210	0xbd0eb177	-0.034837212
211	0xbc48d04b	-0.012256692
212	0xbd33d609	-0.04390529
213	0x3d53e2d2	0.051729985
214	0xbd9f392f	-0.07774579
215	0xbd907346	-0.07053237
216	0xbd0cdd9f	-0.03439104
217	0x3e0539b9	0.130103
218	0xbc050403	-0.008118632
219	0xbb376c36	-0.0027988083
220	0x3da1a8ee	0.07893549
221	0xbd532f27	-0.05155864
222	0x3dea77d2	0.11448635
223	0x3d15d87c	0.03658341
224	0xbd833a70	-0.064076304
225	0xbca0e98d	-0.019642616
226	0xbdce0d81	-0.100611694
227	0xbdc59a35	-0.09648553
228	0xbcf2a9c2	-0.029621962
229	0x3dff056e	0.124522075
230	0xbdaca922	-0.08430697
231	0xbdac3898	-0.08409232
232	0x3e085973	0.13315372
233	0x3df17b95	0.117911495
234	0xbd6c88c4	-0.057747617
235	0x3c4a338d	0.012341392
236	0x3d4646de	0.048407428
237	0x3dd9a408	0.106269896
238	0xbc5a5678	-0.01332628
239	0x3c99d769	0.018779473
240	0xbd582460	-0.052769065
241	0x3d30d109	0.0431681
242	0x3da8124c	0.08206615
243	0xbda4a079	-0.0803842
244	0xbc1e7643	-0.0096717505
245	0x3cc3a65c	0.023883037
246	0xbd1be13d	-0.0380566
247	0x3d8a5ec5	0.06756357
248	0x3d930882	0.07179357
249	0x3d170a16	0.036874853
250	0xbd355c3c	-0.044277415
251	0x3da34e6c	0.07973942
252	0xbd83e9de	-0.06441091
253	0x3c0ca849	0.008585044
254	0x3e0cc96b	0.1374871
255	0x3d34d280	0.04414606

bias f4 [64]
0	0x3e537299	0.20649184
1	0x3eb087c2	0.34478575
2	0xbdf0cae2	-0.11757447
3	0xbf30880d	-0.68957597
4	0x3ed8c580	0.4233818
5	0x3dbb6a2f	0.09151112
6	0x3ef3a782	0.47588736
7	0x3d52a5c2	0.05142761
8	0x3eb8206b	0.35962233
9	0xbed2e0bb	-0.4118708
10	0x3d34ecc3	0.044171106
11	0xbc07c793	-0.008287328
12	0xbe38686e	-0.18008587
13	0x3e6b73be	0.22993371
14	0xbd3206ac	-0.043463394
15	0xbdb4d7ca	-0.08830221
16	0x3ee65275	0.44984785
17	0xbdad2e2a	-0.08456071
18	0x3e87d21e	0.26527494
19	0xbd81cbc6	-0.06337695
20	0x3db35bbb	0.087577306
21	0x3ebaa20f	0.36451766
22	0xbe2feef7	-0.17181002
23	0xbf05f812	-0.5233165
24	0xbde19d5a	-0.110163406
25	0xbe4c975e	-0.19979617
26	0x3e338fd5	0.17535336
27	0xbcd7a68b	-0.026324531
28	0x3ed25fa1	0.41088584
29	0xbc711c29	-0.014716187
30	0x3ee3d643	0.44499406
31	0xbe1b225b	-0.15149824
32	0x3dd371e2	0.10324456
33	0xbd99e246	-0.07513861
34	0xbf213294	-0.629678
35	0xbf0fcefa	-0.56175196
36	0x3d320516	0.04346188
37	0x3e84801e	0.25878996
38	0xbd3f47c4	-0.0466993
39	0x3ece3cbf	0.4028072
40	0xbcff302c	-0.0311509
41	0xbd8a1904	-0.067430526
42	0xbe379ee6	-0.17931709
43	0xbe077103	-0.13226704
44	0x3eb1d96f	0.347362
45	0xbbdc698e	-0.0067264503
46	0x3e5a42e9	0.21314587
47	0x3ecc8bfe	0.39950556
48	0xbce8a1e3	-0.028397506
49	0x3d630e16	0.055433355
50	0xbe032118	-0.12805593
51	0xb94f1230	-0.00019747834
52	0xbea5cb53	-0.32381687
53	0xbe4cd947	-0.2000476
54	0x3e4d75fd	0.2006454
55	0x3e5214cc	0.20515746
56	0xbd2fe81b	-0.042945962
57	0x3e88a172	0.26685673
58	0xbcfee3be	-0.031114455
59	0xbcdadfbc	-0.026718013
60	0xbb5577ee	-0.0032572704
61	0xbdf2b88a	-0.11851604
62	0x3edea358	0.43483996
63	0xbe57dd59	-0.21080531

weight f4 [64, 64]
0	0x3dbade32	0.09124412
1	0x3dbbf41c	0.091774195
2	0x3d5aad08	0.05338767
3	0xbe05ee71	-0.1307924
4	0xbe14d6a2	-0.14535001
5	0x3d787db0	0.06066674
6	0x3e0913c6	0.13386449
7	0xbdfdc8d8	-0.123918235
8	0xbd41fe3e	-0.047361605
9	0xbcb79c6d	-0.022413457
10	0xbdf35b70	-0.11882675
11	0x3ddc4467	0.10755234
12	0xbc2e37e3	-0.010633442
13	0xbdc26cd6	-0.09493415
14	0x3de1ffa6	0.11035089
15	0x3d4a2d08	0.04935935
16	0xbdf89983	-0.12138655
17	0xbe1df8ba	-0.15426913
18	0x3d242604	0.040075317
19	0xbe08afdb	-0.13348334
20	0x3b8185ad	0.003952703
21	0xbbb9c099	-0.0056687114
22	0x3d816abd	0.06319187
23	0xbd8ff820	-0.07029748
24	0xbd838c62	-0.0642326
25	0xbd0daea8	-0.034590393
26	0xbd9c5471	-0.076332934
27	0xbdf71b4e	-0.12065755
28	0xbca0d74d	-0.019633913
29	0xbcf455e6	-0.029826116
30	0xbdbd7222	-0.09250285
31	0x3c5ce887	0.013483173
32	0x3db496cf	0.08817827
33	0x3dcc39d6	0.09971969
34	0xbdba7e76	-0.09106152
35	0xbced3b14	-0.028958835
36	0x3cb490f9	0.022041785
37	0xbdf9ecce	-0.1220337
38	0xbd9810f0	-0.074251056
39	0x3d92d8b7	0.07170241
40	0x3bdd5a40	0.0067551434
41	0x3d94edb6	0.07271902
42	0x3d1bd9f6	0.03804966
43	0xbb8286c0	-0.0039833486
44	0xbde023a9	-0.10944302
45	0x3cf4b127	0.02986963
46	0xbc6964c0	-0.014245212
47	0xbd979137	-0.074007444
48	0x3d228e71	0.039686624
49	0xbda5cb06	-0.08095364
50	0x3d85d585	0.06534866
51	0x3d804641	0.062634
52	0xbbf956b1	-0.0076092114
53	0xbd72f50b	-0.059315722
54	0x3c7d35cc	0.015454721
55	0xbd24121b	-0.04005633
56	0x3dccc718	0.099989116
57	0x3ce3d630	0.027812093
58	0xbd8ab7fc	-0.067733735
59	0xbcace728	-0.021106318
60	0xbdec2c60	-0.11531901
61	0x3da49020	0.08035302
62	0xbd8d3201	-0.06894303
63	0xbd08a390	-0.03335911
64	0xbd0b8748	-0.03406456
65	0xbdfd15e5	-0.12357692
66	0xbdaefc8c	-0.08544263
67	0x3db5fe0c	0.08886346
68	0xbc63ba37	-0.013899378
69	0x3cb51606	0.022105228
70	0x3d19ebe7	0.03757849
71	0xbd3e5ed8	-0.04647717
72	0x3dca66d6	0.09882896
73	0xbcbfd5d8	-0.023417398
74	0x3c014a10	0.007891193
75	0x3d80530a	0.062658384
76	0xbd5eb8d4	-0.054375485
77	0x3d83841f	0.064216845
78	0x3d97bf60	0.07409549
79	0x3c96ca40	0.018406987
80	0xbdfac3a9	-0.122443505
81	0x3d5f56fc	0.054526314
82	0xbdce9e4f	-0.10088789
83	0x3dc7faf6	0.09764664
84	0xbdb7e2aa	-0.089787796
85	0xbd33478a	-0.043769397
86	0x3da5ae9c	0.08089945
87	0x3d87b24c	0.06625804
88	0xbdb0c1c8	-0.08630711
89	0xbdc88554	-0.09791055
90	0x3d380387	0.04492524
91	0xbd932294	-0.0718433
92	0xbdcefcd4	-0.10106817
93	0xbdc08328	-0.09400016
94	0x3ca8d576	0.020609599
95	0x3cd44ab0	0.02591452
96	0x3d986656	0.07441394
97	0x3d913c92	0.07091631
98	0xbd6a4d28	-0.05720249
99	0xbd97662e	-0.07392536
100	0x3da38586	0.07984452
101	0xbdd09f47	-0.1018663
102	0xbcab5e80	-0.020919085
103	0x3de08a5d	0.10963891
104	0x3d3bba44	0.045831934
105	0xbd2313dc	-0.03981386
106	0xbd794fa0	-0.060866952
107	0x3c2d7e70	0.010589227
108	0x3dcaa37f	0.09894466
109	0x3cf6e37f	0.030137775
110	0x3ce9cd1d	0.028540188
111	0xbda74f06	-0.081693694
112	0xbdfc7ad8	-0.12328118
113	0xbdd6f7e3	-0.104964994
114	0xbda125ba	-0.07868524
115	0xbd0c0f98	-0.03419456
116	0x3c58d750	0.013234928
117	0x3dcafcf8	0.09911531
118	0x3d2330ae	0.039841346
119	0x3d56029c	0.052248582
120	0x3d97f424	0.07419613
121	0xbc789358	-0.015171848
122	0xba7d8800	-0.00096714497
123	0xbd886414	-0.066597134
124	0xbd6953a0	-0.056964517
125	0xbdd0c762	-0.10194279
126	0x3ccf2e9e	0.025290783
127	0x3d23684c	0.039894387
128	0xbcd7116b	-0.026253423
129	0xbb4766c7	-0.003042625
130	0xbd26be30	-0.04070872
131	0xbd84b0bf	-0.06479024
132	0x3caed169	0.021340089
133	0xbd83603e	-0.06414841
134	0x3d97aa04	0.07405475
135	0xbd2e212b	-0.0425121
136	0x3df0f5c6	0.117656276
137	0xbdec0c76	-0.11525814
138	0x3b90a18c	0.004413789
139	0xbadc61d2	-0.0016813821
140	0xbdad0acd	-0.08449326
141	0xbd8913e3	-0.06693246
142	0x3dc68225	0.09692792
143	0xbdde29ea	-0.10847838
144	0xbdb604f0	-0.088876605
145	0xbc7f0822	-0.015565904
146	0xbc7484e0	-0.014924258
147	0x3dff577c	0.12467858
148	0x3d1dbaf4	0.03850837
149	0x3d828a1a	0.06373997
150	0xbd2daac0	-0.042399168
151	0xbe0928cb	-0.13394468
152	0xbc011ce0	-0.0078804195
153	0x3da7ac2a	0.081871346
154	0x3c94caca	0.018163104
155	0x3dcbe4ce	0.099557504
156	0x3d8d3079	0.06894011
157	0xbd7b157b	-0.061299782
158	0xbcef57c1	-0.029216649
159	0x3d0bcbf6	0.03413006
160	0xbe01b6b6	-0.12667355
161	0x3ca9dd9c	0.020735554
162	0x3dac4db1	0.08413256
163	0xbd11c587	-0.035588767
164	0xbd18e968	-0.03733197
165	0xbdd62913	-0.10457053
166	0x3d3aea34	0.04563351
167	0x3d2c8a93	0.042124342
168	0x3bf00df8	0.007325884
169	0xbc56f458	-0.0131197795
170	0x3bb6d814	0.0055799577
171	0xbda5e8a8	-0.08101016
172	0xbdc0c82f	-0.09413182
173	0x3d10d776	0.03536173
174	0xbd994fa0	-0.074858904
175	0xbbe46acb	-0.0069707385
176	0x3d3b6936	0.045754634
177	0xbe19d058	-0.15020883
178	0x3d473f11	0.04864413
179	0x3d0aef45	0.03391959
180	0xbdce6b71	-0.100790866
181	0x3d68c05d	0.056824077
182	0x3ca2c026	0.019867014
183	0xbdcb772d	-0.0993484
184	0x3d256685	0.040380973
185	0x3d5f213f	0.054475065
186	0x3cde2322	0.027116362
187	0xbc9432c0	-0.018090606
188	0x3be3c1c0	0.006950587
189	0xbdcdc4ec	-0.100473255
190	0xbd748793	-0.059699606
191	0xbddeaa2b	-0.10872301
192	0x3d88514a	0.0665613
193	0xbd8d3074	-0.06894007
194	0x3dfb8b90	0.12282479
195	0xbe635d94	-0.22203666
196	0xbc577f75	-0.013152947
197	0xbdcb9b20	-0.09941697
198	0xbd0dd40e	-0.03462606
199	0x3dd8c332	0.105841056
200	0xbbb557b4	-0.0055341367
201	0xbe2bfb07	-0.16794978
202	0x3dbd4ba2	0.092429414
203	0xbd12cd45	-0.03584029
204	0xbd9c7fd1	-0.076415665
205	0x3d6adedc	0.05734144
206	0x3dd9aed2	0.106290475
207	0xbdbe6dd8	-0.09298295
208	0x3cec71a4	0.028862782
209	0x3c16402a	0.009170571
210	0xbe15776a	-0.14596334
211	0xbde8d2be	-0.11368321
212	0xbc853206	-0.016259205
213	0xbde675d9	-0.112529464
214	0x3d4e2b6e	0.050334387
215	0xbd0d8a8b	-0.034555953
216	0xbdaf2718	-0.085523784
217	0xbe0832eb	-0.13300674
218	0xbd6d7b83	-0.057979118
219	0x3d0fcb10	0.035105765
220	0x3ba8097a	0.005128083
221	0xbdf292e6	-0.11844425
222	0x3df45923	0.11931064
223	0xbe1d76a6	-0.15377292
224	0xbdbbca99	-0.09169502
225	0xbddc4fc4	-0.107574016
226	0xbe5e1d0b	-0.21690767
227	0xbe3d7cbb	-0.18504612
228	0xbd9499a9	-0.07255871
229	0x3ce1d060	0.027565181
230	0x3df68305	0.12036709
231	0xbdd7bd5f	-0.105341665
232	0xbc9bd708	-0.019023433
233	0xbdd20de0	-0.10256553
234	0xbdd371f2	-0.10324468
235	0xbdadf2aa	-0.0849355
236	0x3e1836ab	0.14864604
237	0x3dc254bd	0.09488819
238	0xbe09b9ea	-0.13449827
239	0xbd624a62	-0.05524672
240	0xbe066ed7	-0.1312822
241	0xbdff059d	-0.124522425
242	0x3d270272	0.040773816
243	0xbd5f9e4b	-0.05459432
244	0xbd3f55b0	-0.046712577
245	0x3d12e993	0.035867285
246	0x3d633aeb	0.05547611
247	0xbd7521af	-0.059846576
248	0xbd380c7c	-0.04493378
249	0xbe134621	-0.14382221
250	0xbd6f69b4	-0.058450416
251	0x3d8c6d52	0.06856789
252	0xbdd7141b	-0.10501882
253	0x3de4b2fe	0.111669526
254	0xbdac8b08	-0.084249556
255	0x3c8292c7	0.01593913
