mlartifacts/554351476986166068/aac7bb4cf9d64e1da179f397a1c2430d/artifacts/models/Model_dim64_layers5_experiment/r2_score-0.0003452484060746386_run9/data/model.pth (torch, 294728 bytes, 13 tensors)

weight f4 [64, 801]
-0.026179839 0.0014501824 -0.027048822 0.025720254 -0.0132472 -0.0027249171 -0.02109755 0.010880843
0.028704667 -0.028949164 -0.017028812 0.00093260873 -0.0087496 0.003419866 -0.010817513 -0.007851925
-0.006083292 0.023209274 0.0014697043 0.025160672 0.026385702 0.011507205 -0.014140858 -0.018598521
0.027687358 0.025252366 0.016032495 -0.009871943 0.031130802 -0.022935035 -0.005764412 -0.026691992
0.01030434 0.028008886 0.0030983032 -0.019465558 0.0047065993 -0.010590261 -0.0064689657 -0.03243286
-0.030908823 -0.0028236562 -0.015512119 -0.019532245 -0.016508084 -0.035342067 -0.0030164463 0.0060100593
0.014829209 0.0059018633 0.02707108 -0.016647002 -0.02242966 -0.004697959 0.02692807 -0.03284742
0.006477737 0.015651932 0.020386 -0.03027954 0.03011349 -0.005006957 -0.0045012557 0.03211057
0.031004598 -0.0013022623 0.008918024 -0.016008602 -0.003531033 -0.0027867875 0.003690736 -0.021585885
-0.0025197724 0.021651048 -0.008624853 -0.009728598 0.028845733 -0.026804544 0.034838658 0.031131191
-0.008545675 0.011388317 0.004603645 -0.0097743105 -0.03072211 -0.028930558 0.0007014022 -0.0061623165
-0.012826227 0.025956638 0.0077110045 -0.01397568 0.0063939067 0.019641127 0.008782223 -0.028122963
-0.012357881 -0.034188367 -0.022886522 0.032240447 -0.004380154 0.0072171 0.0011790448 0.031927224
0.02888473 -0.0052699824 0.029634535 -0.027977318 0.008979991 -0.0015217777 0.02571098 -0.010768192
0.028156351 0.022989253 -0.0039702365 0.028147979 0.019928193 -0.0073368773 -0.029949497 0.025145238
0.024526047 -0.019674746 -0.018808989 0.0033118492 -0.033688515 -0.013185163 0.027068561 -0.009032489
0.027262308 0.0019487324 0.003378448 -0.006894293 0.024186416 -0.01684863 0.009486654 0.002425803
0.029739222 -0.03083916 -0.0019784996 -0.026508832 0.014388002 0.020110043 0.019464415 -0.028542237
-0.028667737 -0.03495071 0.012522964 -0.008984856 -0.0089183 -0.009497265 -0.02387902 -0.03390287
0.015320018 -0.025072007 0.024541313 -0.004724252 0.00094255665 0.014882858 -0.006886865 0.0028106852
0.0071363277 -0.016505733 0.021919684 -0.009117619 -0.031574108 0.007992352 0.01935819 -0.025991462
-0.018734278 -0.0071309153 -0.011775308 -0.022709996 0.004509334 -0.033655122 -0.0029888414 0.025286334
0.0033366757 0.00823794 0.033472206 -0.025295535 0.005517752 0.028309772 -0.013248645 0.026619827
-0.012966379 0.023097688 -0.008337354 -0.0061996826 -0.030167863 0.03436603 -0.029192645 0.015049314
0.013701294 -0.0059062485 0.009987573 0.025614467 -0.03241541 -0.011168997 -0.026894609 -0.012988137
0.006935976 -0.034408458 0.01891021 0.026703957 0.023391444 -0.006058204 -0.017063137 0.034151547
0.022646504 -0.00753131 -0.020801723 0.03302338 -0.019230174 0.019602185 0.026470924 0.026211552
-0.0270513 0.010649166 -0.0216217 0.0120442435 0.0026897264 -0.028051326 0.032479797 0.0073232544
-0.0002999707 -0.012969193 0.031173386 0.024801433 0.011973463 -0.03369955 -0.011938107 -0.0040133875
-0.0010194718 -0.007528018 -0.0012300378 -0.0023550596 0.009050689 0.023077523 -0.010094695 0.01642762
-0.010943015 -0.031692065 -0.0005285657 0.014994869 -0.011528473 -0.029883876 -0.009572673 -0.025317106
0.0032071855 0.022093771 -0.0012316852 0.0025547843 0.033064388 -0.0068110866 -0.0048128306 0.022339223
00000000: 1a77 d6bc 0c14 be3a 7e95 ddbc 48b3 d23c
00000010: c90a 59bc 8694 32bb c5d4 acbc 9045 323c
00000020: 0d26 eb3c cc26 edbc 0280 8bbc 507a 743a
00000030: 7b5a 0fbc d51f 603b f03b 31bc 5ca5 00bc
00000040: 5a56 c7bb 6021 be3c 18a3 c03a c11d ce3c
00000050: d426 d83c b788 3c3c 0faf 67bc ed5b 98bc
00000060: 99d0 e23c 0dde ce3c 9456 833c eebd 21bc
00000070: 0606 ff3c 41e2 bbbc 65e3 bcbb 2aa9 dabc
00000080: 89d3 283c e472 e53c e70c 4b3b 3c76 9fbc
00000090: d139 9a3b c682 2dbc 9ef9 d3bb 52d8 04bd
000000a0: 8034 fdbc 170d 39bb 8b26 7ebc 1602 a0bc
000000b0: f63b 87bc d8c2 10bd 92af 45bb 08f0 c43b
000000c0: 36f6 723c 6b64 c13b 2bc4 dd3c 4b5f 88bc
000000d0: 68be b7bc 56f1 99bb 4198 dc3c 048b 06bd
000000e0: 3243 d43b 7b38 803c 8a00 a73c cc0c f8bc
000000f0: 91b0 f63c 6611 a4bb 457f 93bb 6086 033d
00000100: 5bfd fd3c acb0 aaba e71c 123c 7924 83bc
00000110: e768 67bb 89a2 36bb 46e0 713b e2d4 b0bc
00000120: c422 25bb 8a5d b13c 414f 0dbc b364 1fbc
00000130: e34d ec3c 3495 dbbc fbb2 0e3d d706 ff3c
00000140: 2903 0cbc 1096 3a3c 2cda 963b 6e24 20bc
00000150: efac fbbc c7ff ecbc 4ede 373a 42ed c9bb
00000160: 1825 52bc 04a3 d43c 98ac fc3b 40fa 64bc
00000170: fa83 d13b 6ee6 a03c 50e3 0f3c 2162 e6bc
00000180: b678 4abc 1a09 0cbd 847c bbbc 8f0e 043d
00000190: 6587 8fbb 6c7d ec3b 2e8a 9a3a 1fc6 023d
000001a0: ab9f ec3c d1af acbb 20c4 f23c b030 e5bc
000001b0: d020 133c 6376 c7ba d59f d23c 126d 30bc
000001c0: 26a8 e63c f553 bc3c c218 82bb 9796 e63c
000001d0: 7340 a33c 306a f0bb a658 f5bc 63fd cd3c
000001e0: d9ea c83c ef2c a1bc 4f15 9abc 9c0b 593b
000001f0: f8fc 09bd 9506 58bc e3be dd3c 01fd 13bc
00000200: 3455 df3c 9c6c ff3a f468 5d3b 85e9 e1bb
00000210: 9722 c63c 2306 8abc e96d 1b3c 39fa 1e3b
00000220: ab9f f33c 68a2 fcbc b7a9 01bb 0d29 d9bc
00000230: a8bb 6b3c d1bd a43c d673 9f3c 69d1 e9bc
00000240: 9ad8 eabc 7a28 0fbd 1e2d 4d3c 3835 13bc
00000250: 101e 12bc 6b9a 1bbc ef9d c3bc bcdd 0abd
00000260: d000 7b3c cf63 cdbc dd0a c93c e6cd 9abb
00000270: e815 773a 3bd7 733c 36ab e1bb 7933 383b
00000280: dbd7 e93b 0837 87bc e990 b33c 1162 15bc
00000290: da53 01bd 5bf2 023c 1195 9e3c 0cec d4bc
000002a0: a178 99bc 74aa e9bb 39ed 40bc 500a babc
000002b0: 09c3 933b f4d9 09bd 70e0 43bb 4925 cf3c
000002c0: 21ac 5a3b 6df8 063c 271a 093d 9538 cfbc
000002d0: 42ce b43b e5e9 e73c d810 59bc d311 da3c
000002e0: ef70 54bc 5d37 bd3c 6699 08bc b526 cbbb
000002f0: 9822 f7bc 65c3 0c3d 6a25 efbc 6691 763c
00000300: 647b 603c 3489 c1bb eba2 233c 6ed5 d13c
00000310: 05c6 04bd 2bfe 36bc 1552 dcbc 32cc 54bc
00000320: 2f47 e33b e2ef 0cbd 96e9 9a3c 42c2 da3c
00000330: 6a9f bf3c e683 c6bb fec7 8bbc 7ee2 0b3d
00000340: 2985 b93c 35c9 f6bb 6068 aabc 8643 073d
00000350: 9988 9dbc c394 a03c 8dd9 d83c 9cb9 d63c
00000360: b09a ddbc d779 2e3c fe1f b1bc 3855 453c
00000370: 1f46 303b e5cb e5bc 8909 053d e9f7 ef3b
00000380: 6345 9db9 bd7c 54bc 545f ff3c 602c cb3c
00000390: 582c 443c 8a08 0abd 0d98 43bc bc82 83bb
000003a0: cc9f 85ba 98ad f6bb 3839 a1ba 5857 1abb
000003b0: 5749 143c 130d bd3c 3864 25bc 3793 863c
000003c0: 554a 33bc 8acf 01bd 728f 0aba 0aad 753c
000003d0: ece1 3cbc 08cf f4bc b3d6 1cbc d265 cfbc
000003e0: a52f 523b fffd b43c 7f70 a1ba 2b6e 273b
000003f0: 866e 073d 892f dfbb f3b4 9dbb bf00 b73c

bias f4 [64]
0.006595069 0.025676383 -0.032508586 -0.030757973 -0.027116504 0.011298172 0.0026764239 0.014786879
0.00763888 0.0011223747 0.033957344 0.00032766582 -0.014362902 0.007706943 0.0027456218 0.03487656
0.026689399 -0.02405245 -0.022170894 -0.008807069 0.029316563 -0.025190057 -0.017143222 0.007911065
0.0007534525 -0.029360287 0.02849107 0.010858711 0.029891042 -0.022281785 0.010168749 0.017523352
-0.025087453 0.006615437 0.026292771 -0.0038705145 -0.033535033 -0.026170122 0.028431352 0.022920996
0.01112377 -0.01834062 0.006961768 -0.028363692 0.012342818 -0.023238188 -0.019863246 0.00394431
0.016229717 -0.023812741 0.023458632 -0.023359545 0.010287921 0.034522805 -0.0019464978 0.030137224
-0.013719597 0.019420188 -0.023065384 -0.017228117 0.020597281 -0.0060736374 0.031608827 0.019943343
00000000: 731b d83b 4757 d23c b927 05bd 25f8 fbbc
00000010: 6e23 debc f81b 393c f166 2f3b aa44 723c
00000020: 924f fa3b a51c 933a db16 0b3d 90ca ab39
00000030: 6152 6bbc 868a fc3b e4ef 333b b9da 0e3d
00000040: baa3 da3c a509 c5bc bc9f b5bc 864b 10bc
00000050: 4a29 f03c 615b cebc f16f 8cbc 699d 013c
00000060: 5783 453a fc84 f0bc 1b66 e93c bce8 313c
00000070: 0fde f43c 4a88 b6bc d39a 263c 228d 8f3c
00000080: 3484 cdbc 4fc6 d83b f063 d73c 75a8 7dbb
00000090: 085c 09bd b962 d6bc dee8 e83c d0c4 bb3c
000000a0: 7940 363c 113f 96bc 8b1f e43b f95a e8bc
000000b0: 8839 4a3c 035e bebc 3fb8 a2bc 453f 813b
000000c0: 2ff4 843c f012 c3bc 512c c03c 845c bfbc
000000d0: ab8e 283c c967 0d3d a121 ffba 57e2 f63c
000000e0: 29c8 60bc 1617 9f3c 9ef3 bcbc fb21 8dbc
000000f0: a1bb a83c 5d05 c7bb 4278 013d 3960 a33c

weight f4 [64, 64]
-0.04803539 0.06604736 -0.04235169 0.05182033 0.020969832 0.013981863 -0.06523493 -0.013564815
-0.05824443 -0.021692527 0.00899636 -0.12168101 -0.05434795 0.111731924 0.095402285 -0.045872133
0.082386635 0.08214597 0.030405268 0.014892832 -0.08880841 -0.09007313 0.07462506 0.10378933
0.005067799 6.8719884e-05 0.067768954 -0.005481278 0.02158807 -0.09821366 -0.06529707 0.044499077
-0.058249567 0.08554895 -0.10131845 -0.12358778 -0.012670523 0.11229572 -0.07919283 -0.12074792
0.011061456 -0.08936096 -0.04253405 -0.042407457 -0.006351847 -0.021825366 0.034734998 -0.06671392
-0.06810104 0.08981443 0.11575785 -0.0072814226 0.097749025 0.03791742 -0.05040563 0.0068566
-0.08352821 -0.026055586 -0.048354335 0.11491138 0.018932343 0.074681506 0.07878684 0.0003104085
-0.07968183 -0.08562481 0.10331364 -0.008025387 0.024911877 0.03157329 -0.001787128 -0.09648043
-0.06985017 -0.048554845 -0.036064684 0.08922408 0.119614616 -0.073644355 -0.08438899 -0.07383178
0.030920887 0.03016492 0.034393195 0.064414024 0.09941175 -0.11380508 -0.04930999 0.092464715
0.02737006 -0.11356715 0.044253226 -0.08136361 -0.11210703 0.057727333 0.054186624 0.12437327
0.08560867 0.03885376 0.08239076 0.04305392 -0.06744922 -0.06315701 -0.08724823 0.023730975
0.024197206 -0.12266738 -0.05804344 0.030610722 0.09465833 -0.09829795 0.046989657 0.11414297
0.033094574 0.10516399 0.08088126 0.109381445 0.08503204 0.11571929 0.055171374 -0.06698566
0.021322811 -0.037413195 -0.10959006 -0.10760903 -0.048373483 0.06027412 -0.058489505 -0.03013663
0.12242951 0.11214199 -0.076743394 0.09121642 -0.0690595 -0.095512815 0.11864427 0.07810307
0.11567851 -0.073292755 -0.00025514007 -0.03497161 -0.111746214 -0.11142927 0.034436613 -0.04101874
-0.012260108 -0.068855874 -0.031382866 0.114965685 -0.09050876 0.024841221 0.047573823 0.06637325
0.0005109092 -0.0461072 -0.050727826 -0.10826725 -0.0022006237 0.111495085 -0.08817758 0.026337808
0.08119079 0.0040814104 -0.014231281 0.12405736 0.05897752 -0.103036255 -0.058658984 -0.04435007
0.011732108 0.12308592 0.09885533 -0.102529466 0.12458648 -0.04116995 -0.074790314 0.11983674
0.09847303 0.11053709 -0.073670074 -0.027605375 -0.03161 -0.0023960525 -0.093024425 0.1028672
-0.09774026 0.03759569 -0.07266951 0.05175688 -0.122475974 -0.09358755 -0.013253272 -0.012522709
0.05690418 0.11439288 -0.009264422 -0.09286681 -0.0046821125 0.02732109 -0.02383179 0.1172944
-0.11271286 -0.051566333 -0.03136581 0.00034829805 0.018629514 0.09732172 0.088275105 0.024742482
0.038682006 -0.105868824 -0.06650564 -0.09867252 0.09697926 0.012909011 0.006770261 0.019827155
0.039618757 0.0528196 0.077778 -0.057620894 0.051281992 -0.117882326 0.03886161 0.03820765
0.01214627 0.011596487 -0.009782919 0.11311845 -0.053642686 0.107486814 -0.014083581 -0.113507256
0.019938642 0.030291244 0.016055677 -0.085462265 -0.02509104 -0.11784787 0.016139686 0.014949733
-0.089552455 0.10124415 0.11866175 -0.030693943 -0.09374364 -0.103564724 -0.120385855 0.07069329
0.027185407 -0.08545354 0.0017233152 -0.11963661 0.103142425 0.10101551 -0.005052797 0.05199675
00000000: c2c0 44bd d743 873d f778 2dbd 8e41 543d
00000010: edc8 ab3c 2f14 653c e499 85bd f53e 5ebc
00000020: b691 6ebd 87b4 b1bc 7865 133c e533 f9bd
00000030: f59b 5ebd b5d3 e43d 4662 c33d 6be4 3bbd
00000040: 53ba a83d 253c a83d 7814 f93c 1101 743c
00000050: 2fe1 b5bd 4378 b8bd 06d5 983d 808f d43d
00000060: c70f a63b b51d 9038 73ca 8a3d 4b9c b3bb
00000070: 77d9 b03c 3e24 c9bd 78ba 85bd aa44 363d
00000080: 1997 6ebd 4a34 af3d 0c80 cfbd 971b fdbd
00000090: 0698 4fbc 4cfb e53d da2f a2bd af4a f7bd
000000a0: 1c3b 353c e102 b7bd 2f38 2ebd 71b3 2dbd
000000b0: 2823 d0bb 1ccb b2bc 4946 0e3d 4fa1 88bd
000000c0: 8f78 8bbd a1f0 b73d 7412 ed3d 0099 eebb
000000d0: a430 c83d 4c4f 1b3d 2276 4ebd 54ad e03b
000000e0: d710 abbd 8672 d5bc 320f 46bd a856 eb3d
000000f0: 0018 9b3c 9ef2 983d ff5a a13d 53be a239
00000100: 3a30 a3bd 0f5c afbd 1a96 d33d ea7c 03bc
00000110: fe13 cc3c fe52 013d 113e eaba 8897 c5bd
00000120: 9b0d 8fbd 72e1 46bd 90b8 13bd 1dbb b63d
00000130: 82f8 f43d dad2 96bd 23d4 acbd 1e35 97bd
00000140: cd4d fd3c 6c1c f73c e1df 0c3d 80eb 833d
00000150: 6398 cb3d a312 e9bd 46f9 49bd 245e bd3d
00000160: 2d37 e03c e595 e8bd df42 353d f7a1 a6bd
00000170: 5f98 e5bd 7f73 6c3d cbf2 5d3d 6ab7 fe3d
00000180: 9953 af3d 1f25 1f3d 7dbc a83d 4f59 303d
00000190: d122 8abd 7658 81bd 33af b2bd 7667 c23c
000001a0: 3839 c63c 0939 fbbd f5be 6dbd 56c3 fa3c
000001b0: 3adc c13d 7050 c9bd 3a78 403d cac3 e93d
000001c0: 2d8e 073d 3860 d73d 13a5 a53d 6103 e03d
000001d0: 4725 ae3d 3cfe ec3d 61fb 613d c72f 89bd
000001e0: 2dad ae3c 943e 19bd c170 e0bd 2062 dcbd
000001f0: 4623 46bd ffe1 763d b192 6fbd 18e1 f6bc
00000200: 53bc fa3d b3aa e53d a42b 9dbd adcf ba3d
00000210: 116f 8dbd 399c c3bd c4fb f23d 81f4 9f3d
00000220: dbe8 ec3d 831a 96bd 52c4 85b9 643e 0fbd
00000230: 33db e4bd 0735 e4bd 680d 0d3d 4403 28bd
00000240: 9fde 48bc 4f04 8dbd 528b 00bd 2173 eb3d
00000250: a85c b9bd d17f cb3c c5dc 423d b3ee 873d
00000260: 89ee 053a e7da 3cbd fbc7 4fbd 38bb ddbd
00000270: 5738 10bb 8957 e43d 7296 b4bd 63c2 d73c
00000280: 5b47 a63d 5abd 853b 522a 69bc c911 fe3d
00000290: 6992 713d ac04 d3bd 6744 70bd 6ba8 35bd
000002a0: 0738 403c 7914 fc3d aa74 ca3d f8fa d1bd
000002b0: 3227 ff3d d2a1 28bd aa2b 99bd f76c f53d
000002c0: 3aac c93d 4561 e23d 56e0 96bd ab24 e2bc
000002d0: 7d79 01bd 1707 1dbb 9783 bebd 0aac d23d
000002e0: 0c2c c8bd f0fd 193d c1d3 94bd 06ff 533d
000002f0: afd4 fabd d4aa bfbd 4024 59bc 0c2c 4dbc
00000300: 5c14 693d d046 ea3d cdc9 17bc f430 bebd
00000310: 686c 99bb 7bd0 df3c e33a c3bc 0c38 f03d
00000320: 00d6 e6bd 3837 53bd 7079 00bd c69b b639
00000330: ec9c 983c 9c50 c73d 94c9 b43d bfb0 ca3c
00000340: 0671 1e3d c1d1 d8bd 1c34 88bd d114 cabd
00000350: 109d c63d 5180 533c 11d9 dd3b 8f6c a23c
00000360: 4747 223d 5d59 583d 124a 9f3d e303 6cbd
00000370: 110d 523d 4a6c f1bd 5a2d 1f3d a07f 1c3d
00000380: 2601 473c 31ff 3d3c 8948 20bc a5aa e73d
00000390: 6fb8 5bbd 0c22 dc3d d2be 66bc 7e76 e8bd
000003a0: 5d56 a33c 5825 f83c 3287 833c d706 afbd
000003b0: ba8b cdbc 395a f1bd 6037 843c baef 743c
000003c0: 4767 b7bd 1859 cf3d ee04 f33d dd71 fbbc
000003d0: aafc bfbd be19 d4bd dc8c f6bd a5c7 903d
000003e0: eeb3 de3c 4402 afbd dde0 e13a 0a04 f5bd
000003f0: 563c d33d 38e1 ce3d ef91 a5bb 8bfa 543d

bias f4 [64]
-0.09687333 -0.0033146774 -0.048526227 -0.0507534 -0.033509593 -0.018342456 0.07011881 0.057200104
-0.10564541 -0.062366974 0.008214792 -0.06915145 -0.05602091 -0.116852134 -0.027074782 0.02255745
-0.025727123 -0.056686528 -0.0065889736 0.07562532 0.014647778 -0.06996357 -0.047658443 0.007213732
-0.0112891495 -0.039134476 0.11833026 -0.010166702 -0.11809612 -0.04726463 0.058073267 0.023617448
0.014978937 -0.07136278 -0.08388789 0.02586712 0.07765422 0.022241142 0.1211164 -0.033888455
0.041961662 -0.056917436 0.07396518 0.075082324 0.022067355 -0.1122079 -0.04329966 -0.073391914
0.034650125 -0.032758195 0.016580796 0.049474962 0.095626995 -0.00033041404 -0.00036470516 -0.12002666
-0.046976946 0.05019237 0.090224445 0.03963738 0.04984362 -0.09277348 0.00011273936 -0.116651505
00000000: 8665 c6bd 0f3b 59bb 70c3 46bd cce2 4fbd
00000010: 5b41 09bd eb42 96bc 739a 8f3d a84a 6a3d
00000020: 9f5c d8bd 8374 7fbd 5697 063c 479f 8dbd
00000030: 2f76 65bd 2c50 efbd efcb ddbc 67ca b83c
00000040: b0c1 d2bc 2230 68bd 51e8 d7bb 73e1 9a3d
00000050: 3cfd 6f3c 0f49 8fbd 8035 43bd 2c61 ec3b
00000060: 20f6 38bc 794b 20bd 2357 f23d 3d92 26bc
00000070: 61dc f1bd 8f98 41bd 3cde 6d3d 6179 c13c
00000080: 376a 753c a626 92bd 6acd abbd 48e7 d33c
00000090: 2d09 9f3d 0e33 b63c e00b f83d 9fce 0abd
000000a0: fedf 2b3d 4222 69bd 0e7b 973d c3c4 993d
000000b0: 99c6 b43c 41cd e5bd fc5a 31bd 804e 96bd
000000c0: 4aed 0d3d 752d 06bd 73d4 873c 42a6 4a3d
000000d0: 16d8 c33d 6c3b adb9 e635 bfb9 8ad0 f5bd
000000e0: e66a 40bd 8496 4d3d 98c7 b83d ce5a 223d
000000f0: d328 4c3d 0600 bebd 7c6e ec38 fce6 eebd

weight f4 [64, 64]
-0.10170263 0.036889672 -0.02977346 0.027558487 0.06213014 0.0019186394 0.09687528 -0.04885731
0.005166236 -0.08997558 0.040639807 -0.06763209 -0.043482367 0.01831147 -0.022686958 0.08083873
-0.02580991 0.06374056 0.11186976 0.07509981 -0.10512103 -0.08515061 -0.019072324 -0.047772102
0.07658517 -0.111262664 -0.036554396 -0.02110002 0.032461077 0.06958257 0.0081846425 0.02028911
0.060402203 0.0668346 0.04105028 0.11886989 -0.0049713696 0.015230905 0.091502994 0.058141313
0.015675085 -0.071604945 -0.07634723 -0.020870188 -0.009480655 -0.021015106 -0.073911734 -0.08006509
-2.7527361e-05 -0.021894803 -0.04041346 -0.030954758 -0.005555712 -0.09255153 0.016345024 -0.056321528
0.012403791 -0.087538734 0.057947982 0.070384204 -0.055747185 -0.061594848 -0.12244843 -0.0239406
-0.06305663 0.051384695 0.090101175 -0.03965911 0.0858884 0.042458422 -0.054092683 0.05859203
0.09812483 0.013216384 0.10662949 -0.09417847 -0.058347456 0.09797832 -0.04124775 -0.05900941
-0.058425132 0.124313384 0.11898391 -0.047362633 -0.07410552 0.012182793 0.027792081 0.067284845
-0.05142944 -0.11408225 -0.07761381 0.04099815 0.06342515 -0.10766326 -0.0764439 -0.013897431
-0.048061553 -0.039705973 -0.036411405 0.07137449 -0.0152435005 0.002664255 -0.022361867 0.057054676
-0.039193306 -0.0072082262 -0.087935545 0.11839941 -0.06609453 0.09454702 0.104850404 -0.10723302
0.071812384 -0.041750535 -0.036956683 -0.031976104 -0.047236513 0.055887584 0.014238366 0.012731378
0.08498945 -0.105701014 -0.051450036 0.0995512 -0.0069784783 0.108528264 -0.05025097 -0.023682628
0.102372795 -0.013420884 0.048805915 0.028451161 0.11429232 0.11305261 0.109251626 0.087029494
0.077506185 0.040636357 -0.01684496 -0.050054856 -0.010419003 0.05744101 0.0053443494 0.034352664
0.088466935 -0.01990793 -0.026564779 0.030124227 -0.06343478 -0.031067364 -0.03007452 0.040756132
-0.01913935 0.053341843 -0.09692603 0.05808817 0.07629982 -0.12341911 0.018982574 0.11243456
-0.049370162 -0.03763753 0.056550186 -0.037080392 0.052888684 0.10558008 -0.0012123036 -0.028406434
-0.050770566 -0.033448044 0.032772053 0.005066512 0.03971639 -0.01839517 -0.07984317 -0.06713348
-0.03939292 0.094862565 0.062363073 -0.077768266 -0.029513126 -0.013933374 -0.123553984 -0.028280852
-0.011221876 0.009070154 -0.011974668 0.0074845585 0.11006319 -0.08117891 -0.108880736 -0.07343592
-0.1006877 0.10270809 -0.0022645139 -0.114664555 -0.058042593 0.119067244 -0.12132109 0.021926336
0.10111301 0.030163221 0.108509846 -0.042939283 0.056914564 0.0049761566 -0.114522055 0.112197846
-0.07963654 0.065504216 -0.022443606 -0.09755468 0.104529746 -0.100912645 -0.010729497 -0.042085912
0.07685957 -0.11036466 -0.043126907 -0.039070874 -0.0674532 0.08866458 -0.0698808 0.08634431
-0.007195022 -0.097545706 0.025330883 -0.12470427 -0.008239855 0.055742804 0.09231937 0.0051459176
-0.035644576 0.04910622 -0.048274316 0.029579986 0.005988556 0.12130788 0.09479497 -0.07049678
0.012681939 0.044478342 0.026319336 0.100315206 -0.02243128 0.07996667 -0.051248044 0.06138499
0.078497805 -0.085961536 0.07595438 0.074204765 -0.054237716 -0.012372693 -0.038189285 0.07244863
00000000: 7849 d0bd a019 173d 79e7 f3bc 56c2 e13c
00000010: 2c7c 7e3d db7a fb3a 8c66 c63d 9a1e 48bd
00000020: 8749 a93b 1e45 b8bd ed75 263d b182 8abd
00000030: 911a 32bd f001 963c 00da b9bc c78e a53d
00000040: 4e6f d3bc 698a 823d f91b e53d eecd 993d
00000050: b249 d7bd 7163 aebd 903d 9cbc aeac 43bd
00000060: b0d8 9c3d aedd e3bd 10ba 15bd f3d9 acbc
00000070: e8f5 043d 4e81 8e3d e118 063c 5935 a63c
00000080: 4d68 773d 94e0 883d 5724 283d 0f72 f33d
00000090: dfe6 a2bb 0c8b 793c ec65 bb3d 9625 6e3d
000000a0: 0969 803c 9da5 92bd f05b 9cbd f5f7 aabc
000000b0: c054 1bbc df27 acbc 095f 97bd 2af9 a3bd
000000c0: 8fea e6b7 bb5c b3bc 9688 25bd d594 fdbc
000000d0: b10c b6bb a88b bdbd 00e6 853c 67b1 66bd
000000e0: 4539 4b3c 8247 b3bd dd5a 6d3d 9825 903d
000000f0: 2957 64bd e14a 7cbd 3ec6 fabd 141f c4bc
00000100: d623 81bd c278 523d f786 b83d 9771 22bd
00000110: 42e6 af3d e2e8 2d3d 4a90 5dbd 32fe 6f3d
00000120: acf5 c83d 8889 583c 9060 da3d a4e0 c0bd
00000130: befd 6ebd dca8 c83d 67f3 28bd dab3 71bd
00000140: 314f 6fbd 0498 fe3d d6ad f33d 52ff 41bd
00000150: a3c4 97bd 569a 473c 38ac e33c a3cc 893d
00000160: ada7 52bd f4a3 e9bd fdf3 9ebd aded 273d
00000170: 0ce5 813d 8e7e dcbd 9f8e 9cbd 0db2 63bc
00000180: 31dc 44bd bba2 22bd 2024 15bd ca2c 923d
00000190: e0bf 79bc c89a 2e3b 3c30 b7bc 2ab2 693d
000001a0: 2989 20bd fc32 ecbb 8d17 b4bd 647b f23d
000001b0: 925c 87bd dea1 c13d cfbb d63d fc9c dbbd
000001c0: 5f12 933d 9c02 2bbd e45f 17bd 60f9 02bd
000001d0: 137b 41bd 61ea 643d 0948 693c 4597 503c
000001e0: f30e ae3d c679 d8bd 46bd 52bd 80e1 cb3d
000001f0: b8ab e4bb 1144 de3d f6d3 4dbd 1202 c2bc
00000200: d4a8 d13d 44e3 5bbc b6e8 473d 6912 e93c
00000210: 1812 ea3d 2088 e73d 51bf df3d 853c b23d
00000220: 90bb 9e3d 4f72 263d 71fe 89bc 5206 4dbd
00000230: 77b4 2abc 4447 6b3d a71f af3b 61b5 0c3d
00000240: 272e b53d f515 a3bc 619e d9bc 15c7 f63c
00000250: 18ea 81bd fc80 febc d75e f6bc e7ef 263d
00000260: 20ca 9cbc fa7c 5a3d 2881 c6bd dced 6d3d
00000270: 1443 9c3d 29c3 fcbd 5881 9b3c 1744 e63d
00000280: 5e38 4abd d029 1abd 2ba1 673d 9ce1 17bd
00000290: cea1 583d 5e3a d83d 29e6 9eba 9cb4 e8bc
000002a0: ccf4 4fbd d100 09bd fd3b 063d fc04 a63b
000002b0: a7ad 223d 78b1 96bc d184 a3bd 477d 89bd
000002c0: 785a 21bd 4e47 c23d 6c70 7f3d f844 9fbd
000002d0: 83c5 f1bc ce48 64bc df09 fdbd 3fad e7bc
000002e0: f6db 37bc fc9a 143c 6631 44bc 0741 f53b
000002f0: cf68 e13d 2141 a6bd ddfc debd 9265 96bd
00000300: 5a35 cebd 9e58 d23d 3d68 14bb 40d5 eabd
00000310: 12be 6dbd 87d9 f33d 3177 f8bd dc9e b33c
00000320: 5614 cf3d dc18 f73c 693a de3d 1ae1 2fbd
00000330: 3f1f 693d 070f a33b 8a8a eabd fcc7 e53d
00000340: 7b18 a3bd 1327 863d a7db b7bc c0ca c7bd
00000350: b113 d63d 4aab cebd c6ca 2fbc 4762 2cbd
00000360: 8d68 9d3d de06 e2bd d7a5 30bd c808 20bd
00000370: e724 8abd c695 b53d aa1d 8fbd 49d5 b03d
00000380: 38c4 ebbb 0bc6 c7bd b682 cf3c f464 ffbd
00000390: 7500 07bc 9152 643d f011 bd3d 169f a83b
000003a0: 0c00 12bd 9b23 493d 4abb 45bd ba51 f23c
000003b0: a63b c43b 4470 f83d dd23 c23d 9e60 90bd
000003c0: e8c7 4f3c ec2e 363d a69b d73c 0f72 cd3d
000003d0: cec1 b7bc 91c5 a33d 78e9 51bd d46e 7b3d
000003e0: 75c3 a03d 9a0c b0bd f88d 9b3d abf8 973d
000003f0: 5e28 5ebd d6b6 4abc 5e6c 1cbd f35f 943d

bias f4 [64]
0.107988745 0.044688184 -0.028248785 0.1039453 0.05239579 0.042236086 -0.10877558 -0.009661104
0.085559905 0.04375966 0.07838057 0.026585836 0.091950834 -0.12073118 0.09678686 0.067313485
0.090638496 -0.030734938 -0.0036133984 0.088547185 0.067560904 -0.11510342 0.026556507 -0.008503077
-0.038050808 -0.09063663 0.058011282 -0.11373767 -0.12046667 0.011774784 0.11346264 -0.093984775
-0.09184067 0.06013905 0.087048925 0.05557981 -0.06307027 -0.04989954 0.082585365 0.006927871
-0.07917404 -0.12322775 0.029396843 -0.08527715 -0.045269083 -0.10319154 -0.037787616 -0.06012342
0.11744428 0.0663835 0.059409972 -0.05717795 0.07543712 0.0041803014 -0.007374202 -0.12420681
-0.061027296 0.086203575 0.055551875 -0.040962197 0.123503536 0.03959854 -0.0060722786 0.10192148
00000000: 3429 dd3d f50a 373d ff69 e7bc 46e1 d43d
00000010: f89c 563d bfff 2c3d bbc5 debd 9b49 1ebc
00000020: 083a af3d 543d 333d fe85 a03d 8aca d93c
00000030: b850 bc3d e941 f7bd 3038 c63d a7db 893d
00000040: ada0 b93d d6c7 fbbc c4ce 6cbb 3a58 b53d
00000050: 5f5d 8a3d 58bb ebbd 088d d93c 7d50 0bbc
00000060: 2adb 1bbd b39f b9bd 3d9d 6d3d 4cef e8bd
00000070: 3bb7 f6bd 06eb 403c 1a5f e83d 177b c0bd
00000080: f616 bcbd 5d54 763d b546 b23d a8a7 633d
00000090: fc2a 81bd 7663 4cbd 8422 a93d 3203 e33b
000000a0: 0026 a2bd d55e fcbd a6d1 f03c c9a5 aebd
000000b0: 136c 39bd 1656 d3bd 30c7 1abd fa43 76bd
000000c0: a086 f03d 13f4 873d df57 733d 6d33 6abd
000000d0: c77e 9a3d e9fa 883b 4aa3 f1bb 2460 febd
000000e0: c2f7 79bd 808b b03d 5d8a 633d fac7 27bd
000000f0: 6cef fc3d 1432 223d f7f9 c6bb 35bc d03d

weight f4 [64, 64]
-0.034050133 -0.001009573 0.116404064 -0.09805252 -0.0002245694 -0.008113948 0.123169385 0.06375889
0.12451745 0.10514767 -0.05374109 0.07342118 0.05211749 0.09744327 0.085906304 -0.10457796
0.0067765256 -0.044555306 0.037037566 -0.03754071 2.2020191e-05 -0.007250386 -0.07002103 -0.07174642
0.030132428 -0.03724256 -0.028853118 -0.08085767 0.060306873 0.032036334 -0.11913593 0.10291082
0.019162118 -0.07080112 -0.09847248 0.018925264 0.04861992 -0.09344524 -0.031675518 -0.024408538
0.06712147 -0.02616417 0.10515146 -0.030415814 -0.079999074 -0.07837215 -0.022239653 -0.025439437
0.09972565 0.12205043 0.05706359 -0.097391084 0.09553286 0.107248455 -0.037638023 -0.014147698
0.09417358 -0.097493276 -0.11225272 0.064666614 -0.11068338 -0.050991207 -0.048331603 0.006933418
-0.0037116616 -0.022579134 0.119986445 0.0303144 0.118640184 0.10568683 -0.013557916 0.0643853
-0.05906836 0.011287519 -0.028712701 0.05358313 -0.08441365 0.03660521 0.053912714 -0.075335056
-0.07103535 -0.0037464725 0.06880185 -0.003577503 -0.0882059 -0.1068196 -0.10085507 0.018579863
0.11697074 -0.10672423 0.02731607 -0.10728778 0.06055316 0.032243077 0.061340615 0.11399409
0.123380624 0.049121346 0.09308263 -0.007288986 0.042445954 0.07140745 0.029043214 0.021307424
-0.09986155 0.059949204 -0.0006002509 -0.10815877 -0.046407655 -0.05072125 0.100252375 -0.100496605
-0.06430373 0.10889665 -0.11806569 0.04220357 -0.048057865 0.07035466 -0.0087600285 -0.12191017
-0.023965266 0.10464001 -0.075743794 -0.03374872 0.049016383 0.0030403594 0.05043591 0.041804504
-0.11024654 -0.076645106 -0.077302605 -0.0742677 0.064092495 -0.05476108 0.044312965 -0.07345992
0.11104172 0.0058599114 0.052424017 0.0877349 0.1219344 0.101510346 -0.011426608 0.10947279
0.08315708 -0.0421692 -0.027074825 0.11228948 0.0059715826 -0.10149026 -0.10144835 0.07400106
-0.02078652 0.11691673 -0.00482496 -0.078022376 -0.011006615 0.039468665 -0.042748738 0.09065128
0.023090418 -0.024569465 -0.10854626 -0.10224642 -0.08145822 -0.06790919 0.01770602 -0.05074587
-0.061235312 0.03149558 0.11751329 -0.027601058 0.031201186 -0.048248865 -0.028370151 0.050812177
-0.115395926 0.071124375 -0.08107015 0.0042205644 0.110293075 0.1074802 -0.03999952 -0.0344639
-0.1050237 -0.09944188 0.07931989 0.013279903 -0.02862194 0.041440826 0.10733276 -0.085406855
0.12148084 -0.08323454 -0.081275366 0.10670218 0.11809492 -0.06724464 -0.097047985 0.02415761
0.057247076 0.015048071 -0.029495884 -0.077103004 -0.090245284 -0.03666906 0.049563088 -0.017451392
0.07684781 -0.085986935 0.07473822 0.097482756 -0.09132931 -0.021117268 0.07955644 0.048692532
0.11331937 -0.12204176 0.08284675 0.047980882 -0.07052868 0.050070412 0.084823884 0.032329135
0.07562597 -0.08207845 0.06938813 -0.06299506 -0.075339586 -0.11295888 -0.011869481 0.07764883
0.07851817 -0.09843756 -0.029830366 0.11929533 -0.052787267 -0.006774279 0.08315625 -0.025822114
0.1098152 -0.09653872 -0.099393815 -0.031098537 -0.10832199 -0.06384382 -0.046332248 0.12057596
0.03907962 0.0037077444 0.042381924 -0.06521469 -0.06608466 0.06445259 -0.019771636 -0.09945047
00000000: 2778 0bbd a653 84ba 4165 ee3d c2cf c8bd
00000010: 647a 6bb9 5df0 04bc 3b40 fc3d 0594 823d
00000020: 0103 ff3d a957 d73d 9e1f 5cbd d85d 963d
00000030: 2679 553d 5690 c73d a5ef af3d f82c d6bd
00000040: 9e0d de3b a07f 36bd b4b4 173d 4ac4 19bd
00000050: 00b8 b837 a594 edbb 3067 8fbd c9ef 92bd
00000060: 48d8 f63c a88b 18bd 605d ecbc b598 a5bd
00000070: 5704 773d 8838 033d 8afd f3bd e8c2 d23d
00000080: e0f9 9c3c 2d00 91bd f1ab c9bd 2809 9b3c
00000090: ae25 473d 3860 bfbd 30be 01bd 6af4 c7bc
000000a0: fb76 893d 3e56 d6bc a659 d73d 962a f9bc
000000b0: 8ed6 a3bd 9481 a0bd ef2f b6bc 5e66 d0bc
000000c0: f63c cc3d 93f5 f93d 83bb 693d fa74 c7bd
000000d0: bba6 c33d 14a5 db3d 542a 1abd bfcb 67bc
000000e0: 14de c03d 8eaa c7bd c1e4 e5bd ee6f 843d
000000f0: f8ad e2bd 28dc 50bd 5cf7 45bd ba31 e33b
00000100: 593f 73bb e0f7 b8bc 74bb f53d e855 f83c
00000110: a0f9 f23d 5672 d83d 0522 5ebc 71dc 833d
00000120: aaf1 71bd 49ef 383c e636 ebbc fc79 5b3d
00000130: 10e1 acbd 58ef 153d 94d3 5c3d 4449 9abd
00000140: fb7a 91bd 6187 75bb fce7 8c3d 8a74 6abb
00000150: 4ba5 b4bd 3cc4 dabd 1a8d cebd cc34 983c
00000160: 5b8e ef3d 3c92 dabd f3c5 df3c b2b9 dbbd
00000170: 9706 783d 5111 043d 4c40 7b3d bc75 e93d
00000180: fbae fc3d 7733 493d 1ba2 be3d 72d8 eebb
00000190: cfdb 2d3d 123e 923d 09ec ed3c e88c ae3c
000001a0: 3684 ccbd 4c8d 753d 285a 1dba 5882 ddbd
000001b0: f415 3ebd 16c1 4fbd 1e51 cd3d 2ad1 cdbd
000001c0: adb1 83bd 3505 df3d 6dcc f1bd a7dd 2c3d
000001d0: 53d8 44bd 1b16 903d 3986 0fbc 0aac f9bd
000001e0: ce52 c4bc 804d d63d 901f 9bbd 193c 0abd
000001f0: 67c5 483d c440 473b e295 4e3d 333b 2b3d
00000200: f0c8 e1bd 1cf8 9cbd d450 9ebd aa19 98bd
00000210: ed42 833d 274d 60bd 8381 353d 2872 96bd
00000220: d769 e33d 8004 c03b 91ba 563d 5bae b33d
00000230: beb8 f93d a8e4 cf3d ab36 3bbc 4533 e03d
00000240: 424e aa3d 9cb9 2cbd 06cc ddbc 07f8 e53d
00000250: 44ad c33b 20da cfbd 27c4 cfbd de8d 973d
00000260: 7e48 aabc 0a72 ef3d b31a 9ebb 32ca 9fbd
00000270: 1755 34bc e5a9 213d 4d19 2fbd 61a7 b93d
00000280: 1e28 bd3c e745 c9bc 804d debd 9266 d1bd
00000290: 91d3 a6bd f913 8bbd 370c 913c e7da 4fbd
000002a0: e1d1 7abd 8201 013d cfaa f03d 9d1b e2bc
000002b0: a199 ff3c 9aa0 45bd 8568 e8bc 6e20 503d
000002c0: b354 ecbd a8a9 913d 1b08 a6bd a94c 8a3b
000002d0: 56e1 e13d 941e dc3d 89d6 23bd 052a 0dbd
000002e0: aa16 d7bd 2fa8 cbbd 7772 a23d f393 593c
000002f0: 8f78 eabc dbbd 293d 47d1 db3d cae9 aebd
00000300: f2ca f83d df76 aabd b373 a6bd ac86 da3d
00000310: c0db f13d 8fb7 89bd 18c1 c6bd 2ee6 c53c
00000320: e97b 6a3d 2f8c 763c 5aa1 f1bc 2ee8 9dbd
00000330: 85d2 b8bd 4c32 16bd aa02 4b3d 39f6 8ebc
00000340: 6262 9d3d eb19 b0bd 5a10 993d 0aa5 c73d
00000350: dc0a bbbd 1ffe acbc 7dee a23d d271 473d
00000360: fc13 e83d 08f1 f9bd 8fab a93d 9a87 443d
00000370: 5771 90bd a216 4d3d 25b8 ad3d 8e6b 043d
00000380: cae1 9a3d bf18 a8bd 5d1b 8e3d 8e03 81bd
00000390: a44b 9abd fc56 e7bd 3678 42bc 5a06 9f3d
000003a0: 22ce a03d a299 c9bd d05e f4bc 1c51 f43d
000003b0: 7637 58bd c5fa ddbb d34d aa3d e688 d3bc
000003c0: cbe6 e03d 18b6 c5bd fc8e cbbd 5cc2 febc
000003d0: ebd7 ddbd 8cc0 82bd e2c6 3dbd 87f0 f63d
000003e0: f411 203d a1fd 723b ab98 2d3d 488f 85bd
000003f0: 6557 87bd b8ff 833d 20f8 a1bc b0ac cbbd

bias f4 [64]
0.1191016 0.06286083 0.025909515 -0.08505001 -0.021890236 0.00777605 -0.045642518 0.015567757
-0.062809154 -0.017740356 -0.018383602 0.103671856 0.11857061 -0.07410252 0.07838384 -0.08540184
-0.065753676 -0.0039644535 -0.06118649 -0.1059811 0.066968806 -0.116618186 -0.10355897 -0.029766904
0.06953722 -0.10782018 0.10775792 0.0007861365 0.023399735 -0.11359378 0.09536511 -0.055262454
-0.04960441 0.11244503 -0.080572896 0.11001564 0.011524877 -0.016634362 -0.110406704 0.11170011
0.051049266 -0.09417197 -0.089489274 -0.004863308 0.041381497 0.11742134 -0.023696393 -0.015360792
-0.09175812 0.046013445 0.02315015 0.07256034 -0.083985485 -0.010098087 0.08776565 -0.05681127
-0.004865245 0.024199938 -0.07863191 -0.093227655 -0.009261154 0.12083576 -0.11480132 -0.10073793
00000000: 8aeb f33d 2ebd 803d 3140 d43c b32e aebd
00000010: 2753 b3bc 3cce fe3b a6f3 3abd e80f 7f3c
00000020: 16a2 80bd 3954 91bc 3599 96bc e951 d43d
00000030: 26d5 f23d 10c3 97bd b587 a03d 29e7 aebd
00000040: dda9 86bd 3fe8 81bb af9e 7abd 9e0c d9bd
00000050: f126 893d 84d5 eebd ba16 d4bd b9d9 f3bc
00000060: 8869 8e3d d4d0 dcbd 2fb0 dc3d ba14 4e3a
00000070: cdb0 bf3c dba3 e8bd c84e c33d e25a 62bd
00000080: fe2d 4bbd 9449 e63d 6703 a5bd e14f e13d
00000090: d6d2 3c3c c944 88bc e91c e2bd 07c3 e43d
000000a0: 0919 513d 3cdd c0bd 2746 b7bd 625c 9fbb
000000b0: a57f 293d 997a f03d f01e c2bc d5ab 7bbc
000000c0: aeeb bbbd 9878 3c3d 62a5 bd3c 849a 943d
000000d0: 9500 acbd 7272 25bc 7abe b33d efb2 68bd
000000e0: a26c 9fbb f33e c63c c409 a1bd 24ee bebd
000000f0: 18bc 17bc bd78 f73d f41c ebbd b04f cebd

weight f4 [64, 64]
0.116118334 0.016744794 0.027879188 -0.0940997 0.033026684 0.11899709 0.11107042 0.10383037
0.08612246 0.07046943 -0.11112768 -0.086820655 0.082707845 -0.060543295 0.06593647 -0.041600745
-0.10398929 0.0634166 0.042335685 -0.091777414 -0.097901836 -0.027873972 0.07298753 0.103792086
-0.025605898 -0.10421467 -0.050159372 0.01655108 -0.09673911 -0.03000684 -0.09879944 -0.0040466683
-0.11424233 0.085169874 -0.014780851 0.001572699 -0.056142952 -0.08381418 0.07636927 0.12170312
-0.09953663 0.05618522 0.0041437787 -0.031647034 0.038476974 0.05607614 -0.068854 -0.090044715
-0.021613194 -0.026123967 -0.09254661 0.119559586 0.0909832 -0.06774988 0.008488857 0.007913584
-0.026573803 0.0037721915 -0.040657874 -0.028790696 -0.0978398 0.098424 -0.10846562 0.006529304
0.033342835 -0.081709914 0.05504942 -0.030766899 -0.0083333785 0.054199073 -0.054281954 -0.04964272
-0.074456185 -0.016155262 -0.027302803 0.09143078 0.088474005 0.051082246 0.061084352 -0.044004377
-0.09875515 0.012096399 0.10451274 -0.04427154 -0.015117895 -0.0050865146 -0.037544712 -0.030823315
0.09416364 -0.067538835 -0.00042694408 -0.016625825 0.04500383 0.04864157 0.042339392 -0.026924513
0.12003341 0.06719045 -0.06987568 -0.096687995 0.11200045 0.0032544448 -0.09815247 -0.0702929
0.01789107 0.047815107 -0.08044096 -0.102623865 -0.11803463 -0.027836466 -0.104402825 0.010204608
-0.014155596 -0.005129484 -0.022430848 0.02203271 -0.05398177 -0.077756114 0.09003605 0.028651617
-0.11600831 -0.045259528 -0.0896798 0.010747693 -0.012482559 -0.11486454 -0.0031290366 0.01347906
0.002473386 -0.03374404 0.0669258 -0.079582 0.11151803 -0.10550745 0.03602159 0.077356786
-0.07615335 -0.115143575 -0.11646787 0.044616308 0.054087915 -0.00959263 0.048149236 0.119748
-0.039666086 0.113589905 -0.115492515 0.008436688 0.03437722 -0.052011512 -0.087233655 -0.018692926
-0.11827721 0.11153761 0.07840827 0.008288317 -0.040558483 -0.06681142 -0.017518418 0.085425295
0.07371169 -0.017328845 0.102173194 -0.03776616 0.06234534 -0.09954527 -0.029733332 -0.010614566
-0.042237353 0.015656684 -0.06492275 -0.0036455924 0.100848764 -0.0787466 0.06327735 -0.04093298
-0.021894975 0.105772465 0.0755378 0.002033236 0.11553646 -0.002505617 -0.042705532 -0.0003812799
-0.03441036 0.011264301 0.06499277 0.07215749 0.063311175 -0.08919289 0.064454496 -0.08227054
0.043405317 -0.01909861 -0.017135061 0.08992974 -0.09171854 -0.11759759 -0.12293834 0.09875626
0.10280794 -0.08795946 0.05449739 -0.0919742 -0.001889566 -0.11481731 -0.12331513 0.1177807
-0.074326485 -0.076581694 0.1239279 -0.03133341 0.10472058 -0.01283141 0.11632507 -0.050313927
0.008999862 -0.11987913 -0.039473016 -0.041322708 0.05036573 0.024866398 0.06585358 0.044246387
-0.060604777 0.11713593 0.034492325 -0.027415028 -0.06507928 0.0027378516 0.10739067 0.0032143742
0.034884244 0.07879317 -0.04323193 -0.08378689 -0.029179506 0.06408337 0.08330398 -0.02997725
0.11132967 -0.08320003 0.0259644 -4.1123945e-05 0.05394163 -0.10424587 -0.03692127 -0.08417027
-0.12040496 -0.1066736 0.060679622 0.11903147 0.055876363 -0.03134626 -0.09295246 0.040026214
00000000: 73cf ed3d 612c 893c e562 e43c 58b7 c0bd
00000010: fd46 073d bfb4 f33d e378 e33d 04a5 d43d
00000020: f960 b03d 4752 903d e996 e3bd 07cf b1bd
00000030: bb62 a93d 3ffc 77bd b309 873d 8b65 2abd
00000040: 56f8 d4bd 90e0 813d 2f68 2d3d ccf5 bbbd
00000050: c280 c8bd f557 e4bc 7c7a 953d f290 d43d
00000060: 76c3 d1bc 806e d5bd ea73 4dbd 2196 873c
00000070: 281f c6bd e8d0 f5bc 5c57 cabd ea99 84bb
00000080: e2f7 e9bd 8b6d ae3d 622b 72bc 0623 ce3a
00000090: 27f6 65bd c5a6 abbd 7e67 9c3d 7c3f f93d
000000a0: dcd9 cbbd 7922 663d 89c8 873b 52a0 01bd
000000b0: 089a 1d3d 18b0 653d 5303 8dbd 5d69 b8bd
000000c0: 270e b1bc ee01 d6bc 1489 bdbd a8db f43d
000000d0: 6655 ba3d 73c0 8abd d914 0b3c faa7 013c
000000e0: 4eb1 d9bc df36 773b df88 26bd 77da ebbc
000000f0: 3c60 c8bd 8692 c93d 3923 debd c6f3 d53b
00000100: 7f92 083d 8757 a7bd 807b 613d dd0a fcbc
00000110: b988 08bc d9ff 5d3d c156 5ebd 2a56 4bbd
00000120: 7c7c 98bd 0a58 84bc 21aa dfbc 1040 bb3d
00000130: dc31 b53d 9e3b 513d 9633 7a3d ef3d 34bd
00000140: 2440 cabd fa2f 463c c70a d63d 1356 35bd
00000150: 0cb1 77bc c7ac a6bb 7cc8 19bd 2d81 fcbc
00000160: ded8 c03d cd51 8abd 77d7 dfb9 e232 88bc
00000170: f055 383d 623c 473d 126c 2d3d cc90 dcbc
00000180: 14d4 f53d 269b 893d fb1a 8fbd 5b04 c6bd
00000190: 7e60 e53d 8648 553b 2a04 c9bd b9f5 8fbd
000001a0: 4b90 923c c6d9 433d 3bbe a4bd 762c d2bd
000001b0: 24bc f1bd 4d09 e4bc 26d1 d5bd 3a31 273c
000001c0: dfec 67bc 3b15 a8bb e6c0 b7bc f17d b43c
000001d0: fd1b 5dbd 993e 9fbd d264 b83d ccb6 ea3c
000001e0: c495 edbd 0e62 39bd 0baa b7bd 1717 303c
000001f0: a683 4cbc 1a3e ebbd 8610 4dbb 46d7 5c3c
00000200: 8818 223b 3137 0abd 6510 893d e3fb a2bd
00000210: 9163 e43d 4a14 d8bd 608b 133d 3c6d 9e3d
00000220: 4af6 9bbd 65d0 ebbd b586 eebd 97bf 363d
00000230: 4a8b 5d3d 682a 1dbc 2238 453d 703e f53d
00000240: e878 22bd d3a1 e83d 5787 ecbd 093a 0a3c
00000250: 21cf 0c3d 060a 55bd 8fa7 b2bd e821 99bc
00000260: 523b f2bd d56d e43d 8494 a03d b9cb 073c
00000270: a720 26bd 6dd4 88bd c982 8fbc 75f3 ae3d
00000280: 28f6 963d 39f5 8dbc 2e40 d13d b0b0 1abd
00000290: d45d 7f3d 64de cbbd 5193 f3bc b7e8 2dbc
000002a0: 1301 2dbd 7242 803c 38f6 84bd e4ea 6ebb
000002b0: cc89 ce3d e645 a1bd 8e97 813d 57a9 27bd
000002c0: 175d b3bc 3c9f d83d 90b3 9a3d 0a40 053b
000002d0: 619e ec3d 4735 24bb ffeb 2ebd 86e6 c7b9
000002e0: e1f1 0cbd e78d 383c ee1a 853d 4ec7 933d
000002f0: 4aa9 813d c3aa b6bd b800 843d 757d a8bd
00000300: c6c9 313d b074 9cbc d45e 8cbc 152d b83d
00000310: eed6 bbbd 01d7 f0bd 19c7 fbbd b940 ca3d
00000320: f88c d23d 1724 b4bd a838 5f3d f85c bcbd
00000330: 50ab f7ba 5625 ebbd a58c fcbd 0237 f13d
00000340: 7c38 98bd ddd6 9cbd e9cd fd3d 7657 00bd
00000350: be77 d63d d63a 52bc d73b ee3d fa15 4ebd
00000360: 2874 133c 3083 f5bd 75ae 21bd 0042 29bd
00000370: 4c4c 4e3d 9eb4 cb3c 3ede 863d b33b 353d
00000380: b73c 78bd f6e4 ef3d d347 0d3d 7b95 e0bc
00000390: 4948 85bd 876d 333b a4ef db3d 40a8 523b
000003a0: c8e2 0e3d 505e a13d f713 31bd 7698 abbd
000003b0: dc09 efbc 243e 833d 479b aa3d da92 f5bc
000003c0: cf00 e43d c764 aabd 4bb3 d43c 807c 2cb8
000003d0: e6f1 5c3d dc7e d5bd c23a 17bd 7661 acbd
000003e0: e096 f6bd b077 dabd 328b 783d c5c6 f33d
000003f0: 9dde 643d f064 00bd dc5d bebd 87f2 233d

bias f4 [64]
-0.11133262 0.021043375 -0.11430088 0.059064277 0.013000198 0.015611265 -0.09089151 -0.11347688
-0.021896329 0.09919329 0.018237505 -0.036415458 -0.11094373 -0.034497965 0.121364534 0.1138535
0.044867273 -0.12095793 0.1122777 0.0001471435 -0.11424491 -0.00840749 0.12024771 -0.0037534386
0.079373375 0.016812341 0.04157245 0.10208244 -0.03387862 0.07036393 -0.098609224 -0.034499276
0.09630673 0.053465698 0.025131704 0.04002106 -0.10642366 0.12119758 -0.04315191 -0.07902923
-0.07785115 0.045308005 0.08606321 -0.025232311 0.0782098 -0.046280257 -0.024138274 -0.07313241
0.061070852 -0.07036296 -0.0058601527 0.052561764 0.030777121 0.05234328 -0.07637343 0.08735865
0.024731053 -0.08551154 -0.105551794 -0.02387415 -0.08640806 -0.024744462 -0.09886697 0.062009104
00000000: 5b02 e4bd 2863 ac3c 9416 eabd 62ed 713d
00000010: c8fe 543c 64c6 7f3c 5425 babd 9166 e8bd
00000020: ee5f b3bc da25 cb3d d266 953c 6028 15bd
00000030: 7736 e3bd bd4d 0dbd f88d f83d 062c e93d
00000040: bfc6 373d cbb8 f7bd daf1 e53d 884a 1a39
00000050: 3cf9 e9bd 92bf 09bc 6e44 f63d 40fc 75bb
00000060: 828e a23d 09ba 893c e047 2a3d 9910 d13d
00000070: 4fc4 0abd f71a 903d a2f3 c9bd 1d4f 0dbd
00000080: 763c c53d d9fe 5a3d 01e1 cd3c 1fed 233d
00000090: a6f4 d9bd 7036 f83d 0fc0 30bd 14da a1bd
000000a0: 6c70 9fbd e394 393d e941 b03d feb3 cebc
000000b0: 762c a03d 5e90 3dbd a1bd c5bc 72c6 95bd
000000c0: 6e25 7a3d 751a 90bd 8606 c0bb 014b 573d
000000d0: 4d20 fc3c e865 563d ac69 9cbd 18e9 b23d
000000e0: c798 ca3c ad20 afbd 8a2b d8bd b993 c3bc
000000f0: b5f6 b0bd e6b4 cabc c47a cabd 42fd 7d3d

weight f4 [64, 64]
-0.07123705 0.11280408 -0.04325522 0.09830665 0.08385607 0.046255 -0.09088971 -0.073361635
0.05486721 -0.094486564 -0.030275207 0.08414758 0.031273074 0.026622709 0.11487011 -0.08455843
0.04195977 0.087442465 -0.009075637 -0.100066274 0.0518286 0.115647376 0.09886068 -0.091670886
-0.12074031 -0.07296149 0.022652378 -0.023640132 0.009364151 0.07332604 -0.061303917 -0.0031833514
0.024159214 -0.007931713 0.079287484 0.0244621 0.0754206 -0.09951909 -0.039684653 -0.06669601
0.031771965 0.03199566 -0.08377127 0.026528295 -0.009963592 0.055322055 -0.07307312 -0.08460415
-0.017617628 0.08039538 -0.07314935 -0.09507521 -0.056497328 -0.040892936 0.056964513 0.0508246
0.011939263 -0.10418263 -0.05555928 0.0076390835 -0.10469958 -0.10302389 -0.12054358 0.07820576
-0.015314695 -0.11916281 -0.105664134 0.060385995 0.067268156 0.09396458 -0.0035161497 -0.113889106
-0.04857066 -0.02026123 -0.03448545 0.017497735 -0.07402024 0.043483775 0.06914316 0.11063497
0.08205928 -0.007532924 -0.10478167 -0.006682488 0.09759562 0.00019358723 0.07945554 -0.109989904
0.01813079 -0.030011987 0.04702319 0.1179986 0.056678053 -0.025934504 -0.01562706 0.071330056
-0.11705872 -0.08697511 0.09239054 0.024130698 -0.060189065 -0.09436446 -0.09787078 -0.06791889
0.102708414 -0.017112331 0.051979218 0.054215807 0.002273996 -0.11666321 0.07202698 -0.09416883
0.09776792 0.055657957 0.02476431 0.05427064 -0.09926906 0.004192127 0.00794276 -0.040828764
0.092849925 -0.10262364 -0.02146758 0.075823426 0.013531153 -0.056151517 0.1094457 -0.07616343
-0.030874932 -0.024670254 0.041513603 -0.005330849 -0.0931927 0.047932155 -0.088587515 -0.0006819297
-0.016855838 0.049839266 0.11447742 0.07563597 -0.06314275 0.111172356 0.10272814 0.046261273
0.023863506 0.07126669 -0.091647714 -0.112033226 0.10615496 -0.096468955 0.066144265 0.029332926
0.0914589 -0.0027923302 -0.121440396 -0.091446236 -0.010987571 0.09018142 -0.07940704 -0.09440453
0.02648456 -0.0011449615 0.09501928 0.0177964 0.06092962 -0.09405112 0.034695853 -0.1063118
-0.09388116 0.09566949 -0.006366822 0.03757052 0.12070728 0.10161547 -0.00631282 0.049617253
0.093182 0.06755344 0.06804689 -0.056687362 0.096570924 -0.08823287 0.028912213 -0.08715712
0.068999104 -0.0831038 -0.020097 0.047108196 -0.03525311 -0.053732373 0.10135284 0.008148694
0.10878872 -0.08631611 -0.06345303 0.1248247 0.011303076 -0.10577069 0.06856006 -0.003963371
-0.017337788 0.10704017 -0.04685485 0.07723233 -0.02393679 -0.11898879 -0.003551819 0.0951759
-0.0024187474 -0.08244676 -0.10958504 -0.017993689 -0.10592124 -0.120145544 0.103093766 -0.026675299
-0.04401819 0.073689364 -0.11740148 0.11378858 -0.12039651 0.10402132 0.06867712 -0.008059332
-0.08768216 0.0015865427 -0.002060154 -0.0067719244 -0.06276718 -0.07291739 0.027588481 0.08069975
-0.045992695 -0.00766304 0.10949497 0.007775409 -0.050244987 -0.053049833 -0.00023512689 0.085288845
0.025954608 0.079586245 0.044747513 0.004512385 0.11531167 -0.007929665 -0.10698858 -0.07874634
0.10850366 -0.026582029 0.07870515 -0.049176954 -0.070367895 -0.09646727 0.07679716 -0.052226648
00000000: bbe4 91bd d305 e73d 632c 31bd ff54 c93d
00000010: bbbc ab3d e275 3d3d 6224 babd a03e 96bd
00000020: 71bc 603d 2c82 c1bd b603 f8bc 9155 ac3d
00000030: 3218 003d de17 da3c 0541 eb3d f82c adbd
00000040: 02de 2b3d 0915 b33d fbb1 14bc 8cef ccbd
00000050: 3a4a 543d 88d8 ec3d 7877 ca3d f2bd bbbd
00000060: b246 f7bd d56c 95bd 7b91 b93c f3a8 c1bc
00000070: 196c 193c f62b 963d d119 7bbd c69f 50bb
00000080: 8be9 c53c 04f4 01bc 7a61 a23d be64 c83c
00000090: 1e76 9a3d aad0 cbbd 608c 22bd eb97 88bd
000000a0: 5223 023d e20d 033d 4690 abbd de51 d93c
000000b0: 553e 23bc 6199 623d 5ca7 95bd f144 adbd
000000c0: d852 90bc 55a6 a43d 54cf 95bd cbb6 c2bd
000000d0: be69 67bd 5a7f 27bd 9f53 693d 752d 503d
000000e0: e69c 433c b45d d5bd 2192 63bd 4751 fa3b
000000f0: bc6c d6bd 30fe d2bd 8ddf f6bd 572a a03d
00000100: 7dea 7abc a20b f4bd 7066 d8bd 4e57 773d
00000110: e3c3 893d 8070 c03d 346f 66bb b13e e9bd
00000120: 07f2 46bd e1fa a5bc 9d40 0dbd 6957 8f3c
00000130: ec97 97bd 0b1c 323d ee9a 8d3d 9694 e23d
00000140: b20e a83d bfd6 f6bb c697 d6bd c6f8 dabb
00000150: 36e0 c73d adfd 4a39 96b9 a23d 6342 e1bd
00000160: 0687 943c b3db f5bc 639b 403d 40a9 f13d
00000170: 3f27 683d 9974 d4bc 5204 80bc 7e15 923d
00000180: 7bbc efbd 0220 b2bd 4037 bd3d bead c53c
00000190: cf88 76bd 2742 c1bd 7a70 c8bd 0f19 8bbd
000001a0: ca58 d23d 292f 8cbc 29e8 543d 6511 5e3d
000001b0: 5207 153b 1fed eebd e282 933d 96db c0bd
000001c0: 8c3a c83d 99f9 633d 86de ca3c e44a 5e3d
000001d0: 944d cbbd 1c5e 893b 5a22 023c 103c 27bd
000001e0: 1a28 be3d 582c d2bd c7dc afbc 5049 9b3d
000001f0: c5b1 5d3c 22ff 65bd 1125 e03d 93fb 9bbd
00000200: 6ded fcbc 4619 cabc 2b0a 2a3d 67ae aebb
00000210: d0db bebd 8254 443d 5f6d b5bd 87c3 32ba
00000220: 4115 8abc 4224 4c3d 2373 ea3d 08e7 9a3d
00000230: fc50 81bd 55ae e33d 2263 d23d 767c 3d3d
00000240: 667d c33c 45f4 913d ccb1 bbbd ad71 e5bd
00000250: c667 d93d 8491 c5bd a576 873d 9b4b f03c
00000260: ce4e bb3d 87ff 36bb beb5 f8bd 2a48 bbbd
00000270: 3705 34bc 09b1 b83d 28a0 a2bd 2a57 c1bd
00000280: 26f6 d83c 8812 96ba 7899 c23d c1c9 913c
00000290: 5691 793d e09d c0bd 3d1d 0e3d 00ba d9bd
000002a0: c444 c0bd 5eee c33d c6a0 d0bb 8ce3 193d
000002b0: 6135 f73d c61b d03d c6db cebb 763b 4b3d
000002c0: 34d6 be3d 7559 8a3d 2b5c 8b3d 0231 68bd
000002d0: fac6 c53d 6fb3 b4bd 4ed9 ec3c 6f7f b2bd
000002e0: 674f 8d3d 5332 aabd 77a2 a4bc 86f4 403d
000002f0: 9165 10bd 7a16 5cbd 1492 cf3d 1a82 053c
00000300: 9fcc de3d 80c6 b0bd aaf3 81bd 18a4 ff3d
00000310: 8930 393c 4e9e d8bd 3769 8c3d 2adf 81bb
00000320: fa07 8ebc e037 db3d dfea 3fbd fc2b 9e3d
00000330: 1617 c4bc 65b0 f3bd a2c5 68bb 95eb c23d
00000340: d983 1ebb d9d9 a8bd 1f6e e0bd 8067 93bc
00000350: 3ced d8bd de0e f6bd d322 d33d 2886 dabc
00000360: 6b4c 34bd 73ea 963d 3070 f0bd fd09 e93d
00000370: 7292 f6bd 2109 d53d 97a6 8c3d 4a0b 04bc
00000380: b492 b3bd 8af3 cf3a a603 07bb 05e7 ddbb
00000390: 148c 80bd b655 95bd 3d01 e23c e945 a53d
000003a0: d662 3cbd 3d1a fbbb e63e e03d dcc8 fe3b
000003b0: b0cd 4dbd c84a 59bd 658c 76b9 ebab ae3d
000003c0: c29e d43c 1dfe a23d 2b49 373d a1dc 933b
000003d0: 8628 ec3d 6deb 01bc d41c dbbd c345 a1bd
000003e0: 2b37 de3d 8ec2 d9bc 2a30 a13d c66d 49bd
000003f0: 0b1d 90bd a290 c5bd d447 9d3d 9ceb 55bd

bias f4 [64]
0.054724593 0.113129534 -0.114131846 0.042045534 0.10409041 0.072832055 -0.04454338 -0.056354605
-0.07786894 -0.04319666 -0.08104106 -0.109821804 -0.020593716 -0.045525443 0.052744243 0.049324196
0.10150578 0.08057015 0.050449803 -0.011127094 -0.07255885 0.025746502 -0.050296508 0.0015552647
-0.10384405 0.019811373 0.0074836095 -0.046523295 0.0359304 0.007425443 0.12559491 -0.035289366
-0.0385091 -0.094899565 0.119815834 -0.051060937 -0.040753257 -0.046703808 0.038437217 -0.04665234
0.075955175 -0.09970701 0.093367 -0.11761009 0.04612765 0.09063609 0.018512685 -0.09432465
-0.074120805 -0.030399378 -0.06645093 0.06601837 -0.09974487 0.08370076 0.11941859 -0.06968325
0.029770069 -0.09712349 0.07714785 0.052633103 -0.09380725 0.11152239 -0.0049797776 -0.111707136
00000000: e526 603d 75b0 e73d f5bd e9bd f037 2c3d
00000010: 5a2d d53d f928 953d 1f73 36bd 16d4 66bd
00000020: c079 9fbd fbee 30bd dbf8 a5bd 41ea e0bd
00000030: 27b4 a8bc e378 3abd 590a 583d 2b08 4a3d
00000040: 43e2 cf3d f601 a53d 74a4 4e3d 6a4e 36bc
00000050: bc99 94bd 54ea d23c b603 4ebd 06da cb3a
00000060: 30ac d4bd 764b a23c 1139 f53b 368f 3ebd
00000070: c12b 133d 2151 f33b f49b 003e 958b 10bd
00000080: b8bb 1dbd b45a c2bd 0162 f53d 4625 51bd
00000090: e3ec 26bd 7e4c 3fbd 5870 1d3d 8616 3fbd
000000a0: 638e 9b3d 3033 ccbd 3337 bf3d 8fdd f0bd
000000b0: 59f0 3c3d 6a9f b93d eaa7 973c 482d c1bd
000000c0: a6cc 97bd 1e08 f9bc 6d17 88bd a434 873d
000000d0: 0a47 ccbd 4e6b ab3d bc91 f43d 17b6 8ebd
000000e0: 5ce0 f33c aee8 c6bd b1ff 9d3d cf95 573d
000000f0: 041e c0bd da65 e43d 672d a3bb b6c6 e4bd

weight f4 [1, 64]
-0.04344751 0.11486706 -0.009756602 -0.06358425 0.07936696 -0.0866345 -0.09281079 -0.030189259
-0.04395799 -0.06722274 -0.120989986 -0.12105716 0.05506054 0.014669751 0.07215597 0.046094567
0.040084906 0.05246113 0.10866428 -0.09039619 -0.029704811 -0.1173215 -0.10176429 -0.0832228
0.118696414 0.017782174 -0.035445977 -0.04226766 -0.039103657 -0.046402268 -0.048675578 -0.007411674
0.053790025 0.09494403 -0.11062272 0.025725182 -0.047873043 -0.028748915 -0.12744121 0.11889399
-0.07149735 -0.054553125 0.119990684 -0.10860825 0.08778838 -0.027049258 0.0246858 0.033363048
-0.015080123 0.11357627 0.122696735 -0.099596955 0.039836656 -0.061602324 -0.08154884 0.043676864
-0.029017929 -0.03476614 -0.09701238 -0.11610449 -0.10751213 0.10364142 -0.09110524 0.12091888
00000000: 04f6 31bd 6c3f eb3d 28da 1fbc 7638 82bd
00000010: 258b a23d 6e6d b1bd 9513 bebd 774f f7bc
00000020: 4b0d 34bd 13ac 89bd 99c9 f7bd d1ec f7bd
00000030: 2987 613d 6559 703c 82c6 933d a8cd 3c3d
00000040: 1230 243d 7be1 563d 618b de3d a321 b9bd
00000050: 8157 f3bc 4146 f0bd cc69 d0bd b770 aabd
00000060: 1b17 f33d ecab 913c cd2f 11bd db20 2dbd
00000070: 282b 20bd 4e10 3ebd 0b60 47bd a1dd f2bb
00000080: ee52 5c3d 0472 c23d 2a8e e2bd 9ebd d23c
00000090: 8616 44bd d882 ebbc f37f 02be b17e f33d
000000a0: 346d 92bd 1973 5fbd adbd f53d 016e debd
000000b0: 65ca b33d 6896 ddbc e039 ca3c b1a7 083d
000000c0: 9f12 77bc ad9a e83d 6d48 fb3d 7df9 cbbd
000000d0: c32b 233d b852 7cbd 1403 a7bd 83e6 323d
000000e0: 02b7 edbc f166 0ebd 6dae c6bd 31c8 edbd
000000f0: 522f dcbd f441 d43d 6295 babd 51a4 f73d
